Customize/example/model.onnx (onnx, 3239 bytes, 5 tensors)

fc1.weight f4 [16, 2]
000000 7c f6 f8 be bc bb 09 bf 5c a3 2a bf e5 8c 40 bf
       -0.48625553 -0.53802085 -0.66655517 -0.7521499
000010 73 3c 43 3f c8 a8 81 3f d7 c9 4b be 02 41 9c bf
       0.76264113 1.0129633 -0.19901215 -1.2207339
000020 90 f6 9b 3f 43 70 51 bf 96 32 8d bf 2f 6c ac be
       1.218462 -0.8181192 -1.1031063 -0.33676288
000030 a7 32 a0 bf ef de 6e bf 3c cc 39 be c9 d0 87 3f
       -1.2515458 -0.9330892 -0.18144315 1.0610591
000040 d3 aa 89 bf b1 67 99 3f 70 4b 0d bd ac 77 87 bd
       -1.0755256 1.1984769 -0.03449577 -0.066146225
000050 53 ab 25 3f ab 1b ad bf 56 71 aa 3f 21 8e 41 3f
       0.64714545 -1.3524069 1.3315837 0.75607497
000060 31 de d5 be cc 45 c6 3d 88 42 be 3e 73 8f e7 be
       -0.4177108 0.096812814 0.37160134 -0.4522663
000070 5e 4d 84 bf 7e 22 6e 3f d4 48 d7 be c0 72 59 3f
       -1.033611 0.9302138 -0.4204775 0.8494072

fc1.bias f4 [16]
000000 73 c3 aa 3e 3e 63 d2 be 76 03 16 bf 49 15 b8 be
       0.3335224 -0.4109134 -0.5859903 -0.3595374
000010 f0 bb 1a bf b8 12 f2 be a6 d3 14 bf 14 62 85 be
       -0.6044302 -0.47279906 -0.5813545 -0.2605139
000020 b4 40 3d bf b9 88 9d 3f 52 2b 35 bf 57 08 d0 be
       -0.73926854 1.230735 -0.70769227 -0.40631363
000030 cb 1b 94 3f c7 06 3d bf 19 bc e1 be a1 5b f2 be
       1.1570982 -0.73838466 -0.4408882 -0.47335532

fc2.weight f4 [32, 16]
000000 26 84 6d be b0 63 dc bd ef 7a 9d be 8e 9a e4 bd
       -0.23194942 -0.107612014 -0.30757853 -0.111622915
000010 91 87 b5 bd 08 da b7 bd c7 be 63 be 7e ea 05 be
       -0.08863748 -0.08977133 -0.22240745 -0.13077733
000020 00 2d ec 3c 98 fa 40 be 79 5b 96 bc de 3b ba be
       0.028830051 -0.18845594 -0.018354164 -0.363738
000030 67 8e 64 be d1 6b 85 3d cf 5f 8c 3d 8a 8b 86 bd
       -0.22319947 0.06514705 0.068542115 -0.06569584
000040 e0 a0 d4 bd 68 05 1c 3e 20 cc 8f bc 8f a0 06 3e
       -0.10382247 0.15236437 -0.01755339 0.13147186
000050 49 24 87 be 10 b6 5d be 41 cb 7c be 09 75 64 3d
       -0.2639487 -0.21651483 -0.2468691 0.055775676
000060 2f 34 6b be 41 87 d1 bd d3 28 32 3e b0 0f a1 bd
       -0.22969125 -0.10230876 0.17398386 -0.0786432
000070 5e d2 8c 3d 40 ad 1a be b3 f4 a2 bd 36 0e 29 be
       0.06876062 -0.15105152 -0.07956829 -0.16509327
000080 e1 b0 5c bd b2 f8 60 3f c5 e2 67 3f 89 50 22 3f
       -0.053879622 0.8787948 0.905804 0.63404137
000090 03 9f 6c 3f a4 dc 39 3f 50 26 43 3f 59 d9 0a 3f
       0.9243013 0.72602296 0.76230335 0.54237896
0000a0 3a a8 e7 3e a6 76 89 be 21 a7 5a 3f 44 6c 18 3f
       0.45245534 -0.26848334 0.8541127 0.595402
0000b0 4b ad ac be e2 6b 02 3f 1b 15 54 3f 17 f0 09 3f
       -0.33725962 0.50945866 0.82844704 0.53881973
0000c0 ad 86 60 be 70 00 bb 3d 4c b6 9c be 6c 4d 14 be
       -0.21926375 0.09130943 -0.3060783 -0.14482659
0000d0 a7 df 38 be 9f 8e 2d be cf f5 f0 bd f0 65 6f bd
       -0.18054067 -0.16948937 -0.11765634 -0.058446825
0000e0 ba f5 dc 3c e2 5d 93 3d 0a e5 1c 3e f2 19 4f be
       0.02697264 0.07195641 0.15321746 -0.20224741
0000f0 dd 67 59 bd d0 9e 4e be d9 f6 06 be 0e fa 9c 3d
       -0.053077567 -0.2017777 -0.13180102 0.07664882
000100 54 65 41 3e 14 73 13 3f 35 a4 46 3f 18 b4 e1 3e
       0.1888631 0.5759747 0.7759431 0.44082713
000110 10 57 e6 3e aa 08 2a 3f 93 b7 d4 3e 5b e1 03 3e
       0.44988298 0.6641947 0.41546306 0.12878935
000120 6e 91 6f 3f f2 cc 45 be 57 84 2f 3f 6d 0b f9 3e
       0.93581283 -0.19316462 0.6856131 0.4864153
000130 45 09 c5 be 09 cb 66 3d 07 15 08 3f ea 9a db 3e
       -0.38483635 0.056345973 0.53157085 0.42891628
000140 eb 71 7b 3d 3b 3b 8e 3c 22 f7 04 be ae 44 2b be
       0.061387938 0.017362228 -0.12984899 -0.16725418
000150 1b 35 d8 bd 0d 67 52 3d 17 03 87 be 2a ab 27 be
       -0.10557004 0.051367808 -0.26369545 -0.16373888
000160 e9 38 ba be 1d b2 d6 bd 9c 7c 1c be 10 25 cf 3d
       -0.36371544 -0.10483191 -0.1528191 0.10114491
000170 63 6b 59 be f9 fe 1d bc b9 e3 92 3d 0c 84 cf 3d
       -0.21232371 -0.00964331 0.07172341 0.10132608
000180 8f e4 25 be 0c b9 5e 3f c4 b6 4a 3f 2c 57 1b 3f
       -0.1620047 0.8700111 0.7918513 0.6067989
000190 c9 39 2e 3f 05 f6 80 3f 02 ff 53 3f 38 b6 19 3f
       0.68056923 1.0075079 0.82810986 0.6004367
0001a0 2f e1 2c 3f 38 30 cb be f7 23 16 3f bc 3f 3f 3f
       0.675311 -0.39685225 0.5864863 0.74706626
0001b0 25 37 16 bf 3c 97 ca 3d 2d 71 1f 3f 15 bb eb 3e
       -0.58677894 0.09892127 0.6228207 0.4604117
0001c0 df 68 7a be e1 a2 30 3f 8f 2b 3d 3f 85 e0 0b 3f
       -0.24454068 0.68998533 0.7389459 0.54639465
0001d0 c5 4a 4d 3f f6 bc fb 3e 4f 34 64 3f ca 84 c1 3d
       0.80192214 0.49167603 0.89142317 0.09449156
0001e0 0f d5 55 3f 55 02 0f bf c1 f3 37 3f 4c 8c 45 3f
       0.83528227 -0.55862933 0.71856314 0.771672
0001f0 62 7c f7 bd 4b 79 3d 3e 7b ec 1c 3f 84 3f 2f 3f
       -0.12084271 0.18503301 0.6129834 0.6845629
000200 78 5c e3 bc 51 f4 0e 3c 4a f6 b3 be 25 70 84 bd
       -0.027754053 0.008725242 -0.3514884 -0.06466702
000210 2c ee 8c bb 94 14 d5 3d 7b 56 ab bc e0 0d 04 3e
       -0.0043008532 0.104043156 -0.02091526 0.12895918
000220 b3 be 87 be d0 99 a4 be 23 ad 0e bd 2c 0f 4e bd
       -0.2651268 -0.321486 -0.034833085 -0.050307438
000230 9b e8 1a be 9c 28 6f be 8f 9b 13 bd 9b 78 89 be
       -0.15127794 -0.23355335 -0.036037024 -0.26849827
000240 06 4e ad bd 9b 99 c5 3e b0 f1 a4 3e 3b 36 c4 3e
       -0.084621474 0.38593754 0.32215643 0.38322625
000250 75 85 88 3e e2 23 36 3e 01 b0 31 3e 7c 40 5f 3e
       0.2666432 0.17787126 0.17352296 0.21801943
000260 b9 9d e6 3e 08 96 14 bd bc 14 00 3f 51 8c a2 3e
       0.45042208 -0.036275893 0.5003164 0.31747678
000270 bd 16 bc bb 95 a0 40 3e 73 e7 89 3e 45 a6 e8 3e
       -0.0057400153 0.18811257 0.26934394 0.45439354
000280 6d 7b 03 be 87 ff b9 3e 0d 3c cf 3e a2 9a c6 3e
       -0.12840052 0.36327764 0.40475503 0.3878985
000290 40 87 0d 3f f7 48 12 3e 1c a3 16 3f d5 16 87 3e
       0.552845 0.14285646 0.58842635 0.26384607
0002a0 06 c3 0c 3f 3d 82 c9 bd 13 5c 38 3f 2d 1e e1 3e
       0.5498508 -0.09839294 0.72015494 0.43968335
0002b0 e4 4b 9a be 87 86 ce 3d d0 b8 33 3e d0 d0 38 3e
       -0.30136025 0.10084253 0.17550969 0.18048406
0002c0 dc cc c2 3d f1 99 e6 3e ef 8f 5a 3f cc 18 03 3f
       0.0951173 0.45039323 0.85375875 0.5120971
0002d0 86 d8 21 3f b8 24 9a 3e bd 43 ef 3e c5 6d 11 3e
       0.63221014 0.3010614 0.46731368 0.1420203
0002e0 a4 70 5a 3f f5 b9 0a bf 44 3d 42 3f e6 27 1b 3f
       0.85328126 -0.5419 0.75874734 0.60607755
0002f0 b0 7c 76 be da c1 fa 3c 24 b0 0c 3f e6 4f 91 3e
       -0.24071002 0.030610014 0.5495627 0.2838127
000300 a5 e2 6c 3e e2 d2 35 3f a6 e3 18 3f 6f 45 ac 3e
       0.23133333 0.71024907 0.59722364 0.33646724
000310 b3 62 4c 3f 56 9f 0a 3f bd 83 31 3f 64 76 ed 3e
       0.79838103 0.5414938 0.6934164 0.46379387
000320 f8 4a 13 3f b7 b4 db be bc b5 6e 3f 36 fe 71 3f
       0.5753627 -0.42911312 0.93246055 0.9452852
000330 a4 2e 82 be 06 16 10 3d 58 9b 75 3f ec 96 05 3f
       -0.2542621 0.035177253 0.9594016 0.52183414
000340 e2 99 15 3e d5 34 5d 3f 43 69 57 3f 73 ad 8c 3e
       0.14609483 0.8640874 0.8414499 0.2747608
000350 05 88 05 3f 30 9b 35 3f 9e 11 3a 3f f9 8d 2a 3e
       0.52160674 0.7093992 0.7268313 0.16655721
000360 44 91 39 3f 2c 3c a8 be 48 69 7a 3f 36 7f 54 3f
       0.7248728 -0.32858407 0.97816896 0.8300661
000370 7b 9e ca bd 80 3b ca 3e 05 24 3d 3f 69 ab 15 3f
       -0.09893509 0.3949852 0.73883086 0.58464676
000380 fe 04 fb 3d 7d f9 a3 3e 7f a0 13 3f e7 5b ea 3e
       0.122568116 0.32026282 0.5766677 0.4577324
000390 52 18 10 3e ca b1 c0 3e 6d ed 0e 3e a6 f8 9c 3e
       0.14071777 0.37635642 0.13957758 0.30658454
0003a0 7d 9a bb 3e 6e 17 59 bd 02 42 24 3f 58 a8 ea 3e
       0.36641303 -0.05300086 0.6416322 0.4583156
0003b0 76 46 00 be c2 b1 80 3e d5 48 9c 3e 60 a1 e2 3e
       -0.12526879 0.25135618 0.30524316 0.44263744
0003c0 ab 01 05 3e 9f be 0a bf 70 a3 25 bf 1e 69 2c 3e
       0.12988918 -0.54197115 -0.6470251 0.16836974
0003d0 05 7e b4 be 31 bf 2d be e0 dd f8 be 04 a2 e8 3c
       -0.35252395 -0.16967465 -0.48606777 0.028397568
0003e0 24 04 51 bf e3 3f 0a 3f b2 b8 21 bf de 34 88 be
       -0.81646943 0.54003733 -0.6317245 -0.26602834
0003f0 c6 a4 15 3f 91 b2 ba 3d 3e b5 2f bc ea ab 23 be
       0.5845455 0.0911609 -0.010724364 -0.15983549

fc2.bias f4 [32]
000000 d5 3e 96 3c 8c 02 1e be b3 f1 fa be 04 50 2a be
       0.018340508 -0.15430659 -0.49012527 -0.16632086
000010 5c 2d 38 be 30 36 37 be 14 08 e6 3d aa cb 7b be
       -0.17986053 -0.17891765 0.112320095 -0.2458941
000020 6f 83 af bd 0e b4 71 be 92 9f 3e bd 77 f6 7d bd
       -0.08569991 -0.23603842 -0.046538897 -0.062002625
000030 47 fc c8 be fd 40 09 bf 13 79 09 be 59 2c f6 3e
       -0.39254972 -0.5361479 -0.13425092 0.4808071
000040 de 27 d9 3e 78 f3 69 3a cb f3 ae be 24 6d 25 3f
       0.4241323 0.00089245243 -0.34170374 0.6461966
000050 07 cd 42 be cb ae 82 bd 86 09 78 be 74 71 6a be
       -0.19023524 -0.06380995 -0.24222383 -0.22894841
000060 58 0d be bd 2c 22 2a be 22 c8 0d 3f 72 96 bb be
       -0.09279889 -0.16614598 0.55383503 -0.36638218
000070 82 9a 8f be 11 f7 34 3f ce 17 86 bd 99 de db be
       -0.28047568 0.70689493 -0.06547509 -0.42943266

fc3.weight f4 [1, 32]
000000 da 5b 31 3d 1e bb 28 3d ae 2a 5b bf af a9 23 3c
       0.043300487 0.041194074 -0.85612 0.009989186
000010 c1 8a 36 bf 14 05 d7 3b 3b 27 66 bf 57 e1 5c bf
       -0.7130547 0.0065618847 -0.8990361 -0.8628134
000020 54 f5 13 bd 12 73 11 be 06 7c 9b be bf 25 f2 be
       -0.036122635 -0.14204052 -0.3036806 -0.47294423
000030 95 aa 4c bf 9a fd 3b bf ba 2a 80 be 1a 6f 09 3f
       -0.7994779 -0.7343384 -0.25032598 0.5368515
000040 4e 41 a6 3e 31 c2 ca 3c 9a fa 29 bf ca 21 77 3f
       0.324717 0.0247508 -0.6639801 0.96535933
000050 7f b1 46 bd a9 dc 3a bf b6 fc 2e be fa ad 1b bd
       -0.048509117 -0.7299295 -0.17088589 -0.038007714
000060 6e c0 b9 3c b5 8a 7b 3b b4 ea fe 3e 3f bc 56 bf
       0.022674765 0.0038382236 0.4978844 -0.8388099
000070 f4 0f 1f bf 2f fa 43 3f da 97 71 3d 1a 08 1f bf
       -0.6213372 0.76553625 0.058982708 -0.62121737
