Models/Aurora/gym/results/pcc_model_small_10_best.pt (torch, 10985 bytes, 10 tensors)

mlp_extractor.policy_net.0.weight f4 [16, 30]
000000 b1 85 07 3f c3 55 c3 be 95 42 3d bc 42 03 23 3e
       0.5293837 -0.38151368 -0.011551519 0.15919212
000010 7e b3 ac be 76 7b 29 be b1 26 96 3d 68 40 e7 be
       -0.33730692 -0.16551003 0.073315986 -0.45166326
000020 e1 99 01 bc 2b cf ee 3d 1c d4 c0 bd 20 21 29 be
       -0.007910223 0.11660608 -0.09415457 -0.16516542
000030 cb 4c 19 3d 97 5b 06 3f 47 e2 c1 be 00 8d b9 bd
       0.03742675 0.52483505 -0.37867948 -0.09060097
000040 3f 68 4e bd 80 77 c3 3e f7 ec aa bd a5 79 db bd
       -0.050392386 0.3817711 -0.08345979 -0.10716561
000050 ce 1a 08 3e ae 5f 8d 3e d5 01 a8 3d fd bc 2b 3c
       0.13291475 0.2761206 0.082034744 0.01048207
000060 a9 60 cb bd 51 a6 6d be 8b c1 a4 3e 42 e5 e6 3d
       -0.09930546 -0.23207976 0.32178912 0.11274196
000070 8f 73 c8 3e c5 ae b5 3e 89 4b 9a 3e 45 d5 aa 3c
       0.39150664 0.354849 0.30135754 0.020853648
000080 0f 11 92 bc 05 3d 3c be 7c 11 87 3e a4 13 93 3e
       -0.0178304 -0.18382652 0.26380527 0.28725922
000090 38 3f 9b 3d 03 1f 6f 3e 33 e8 b0 be fa 7d 37 3a
       0.075804174 0.23351674 -0.34552154 0.0006999668
0000a0 7c f6 a5 3e dd a1 51 be f5 a7 42 be bd 9b 1a bf
       0.32414615 -0.20471902 -0.19009383 -0.6039389
0000b0 68 cd 91 be 35 57 84 be 6e db 49 bc 89 01 b3 3d
       -0.28477025 -0.25847784 -0.0123203825 0.08740527
0000c0 ed e2 07 bd 20 b6 bc bd 6a f9 ec 3e 45 39 7b 3e
       -0.033175398 -0.09214425 0.46284038 0.24533565
0000d0 16 05 9f bd 3c c6 b2 3e cb 5b 6c 3e 86 5d 63 bd
       -0.07764642 0.34916866 0.23081891 -0.055509113
0000e0 f2 4a fb bd c6 0e d9 be 35 fd 86 3e 41 43 9c 3e
       -0.12270154 -0.42394084 0.26365057 0.3052006
0000f0 68 a4 ad bb b6 e6 c0 3e e5 70 b7 bd be 9c e4 bd
       -0.00529914 0.37676018 -0.0895708 -0.11162709
000100 98 5b c6 3e 3b f4 8b be 69 ba 20 3e c0 59 82 3d
       0.38741755 -0.2733477 0.1569611 0.06364775
000110 58 ff d1 bd 82 67 68 bc b5 18 2a be a4 b7 01 3d
       -0.10253781 -0.014184834 -0.16610987 0.031669274
000120 de 0a 85 be 07 9b 97 3d 95 30 d1 3d 6a 67 c8 3e
       -0.25984854 0.07402616 0.102143444 0.391414
000130 c6 24 60 be e9 ef bb 3d 79 19 ab be 72 a9 8c be
       -0.21889028 0.091766186 -0.33417872 -0.27473027
000140 c2 36 3f be 3d 1c 28 3f 20 72 16 3f 93 16 25 3e
       -0.18673232 0.6566809 0.5876789 0.16121893
000150 e2 04 25 be b5 e9 38 be 88 2c b0 be 97 6c 10 3e
       -0.16115144 -0.18057902 -0.34408975 0.14103924
000160 03 be 3b 3e 1f 95 2e be 8d 2c 05 3e c6 14 07 3e
       0.18334202 -0.17049073 0.13005276 0.13191518
000170 8d 33 8c bd 83 41 00 bf 8a d5 14 bf 7b 56 9c 3e
       -0.0684577 -0.5009996 -0.58138335 0.3053473
000180 8b 03 3f 3e d8 f0 e3 3d f4 00 24 3e 44 66 87 3d
       0.18653695 0.11129922 0.16015989 0.066113025
000190 bb 5e 2a bd b0 c3 34 3d 1c 6f e5 3e ab 7c 98 be
       -0.04159425 0.044131935 0.44811332 -0.29782614
0001a0 84 4d 40 be 2c a1 da 3e ca 69 80 3e bf d5 1b be
       -0.1877957 0.4270109 0.2508071 -0.15218256
0001b0 37 a4 cb 3d 67 91 de 3d 20 a1 31 3d 66 57 95 bd
       0.09943431 0.10867577 0.04336655 -0.072920606
0001c0 8a 7a 7a 3e e2 08 3c bd e2 93 c4 be cb e6 01 bf
       0.24460807 -0.04590691 -0.38394076 -0.5074279
0001d0 49 27 67 3c fb 6e 20 be 10 3f 54 3e 55 3f 54 be
       0.014108487 -0.15667336 0.20727181 -0.20727284
0001e0 ac 4b 83 be f5 40 10 3e 97 e3 3b be 7a 38 e1 be
       -0.2564367 0.14087279 -0.18348537 -0.439884
0001f0 1f a9 be bc 9b e7 09 3f ab 60 8c bd 6b af db be
       -0.023274003 0.53869027 -0.068543755 -0.4290727
000200 40 41 92 be 2a bb 07 bd 60 69 34 be a4 49 f6 3b
       -0.28565407 -0.033137478 -0.17618322 0.007516103
000210 68 48 bb be e8 d7 36 3e 75 3d 9e 3e 8c 37 a8 3e
       -0.3657868 0.17855799 0.30906263 0.3285488
000220 c4 9e 9f 3e db 52 ce 3e e6 d8 ca bc 40 29 90 bd
       0.31175816 0.4029759 -0.024761628 -0.07039118
000230 98 3b 82 3e fd ff 17 be 94 7d 79 bd 75 35 79 3e
       0.2543609 -0.14843746 -0.060910776 0.24336798
000240 f5 40 7e 3e ce 6a ed 3d ad a3 aa 3e 8f b1 79 3e
       0.24829467 0.11592637 0.33328 0.2438414
000250 2a d6 44 3d fc 99 06 be 42 dd cb 3e fa 81 d1 3d
       0.048055805 -0.13144678 0.39817244 0.10229869
000260 20 70 6c 3a e1 f4 aa be e5 50 b6 3e 97 ba 70 be
       0.00090193935 -0.33389953 0.35608593 -0.23508678
000270 7a 3c b2 bd 2c 5e f0 3e d4 55 29 be 31 47 32 3e
       -0.08702941 0.46946847 -0.16536647 0.1740997
000280 7e 99 08 bf a1 6b c9 be 76 2c 3a 3e 08 db 54 bd
       -0.5335921 -0.39339927 0.18181023 -0.051966697
000290 b8 97 18 3e da 44 61 bb 1a 0b 1f 3c 38 ed 9b 3e
       0.14901626 -0.0034373314 0.009707237 0.3045442
0002a0 48 c3 ac be f2 6a 94 bc bc 6a b7 be 42 b1 de be
       -0.33742738 -0.018117402 -0.3582362 -0.43494612
0002b0 12 cf 1f be 91 70 c5 bd 86 d2 b9 bd 70 7a 36 3d
       -0.15606335 -0.09640611 -0.09073357 0.04455036
0002c0 98 58 cc 3e 4d b0 23 be 32 a5 75 3d d6 9f 45 3d
       0.39911342 -0.15985222 0.059971996 0.048248135
0002d0 0b 3e b9 3e 71 a5 bb 3e de da 1c be 4c 5c dc 3c
       0.36180148 0.3664966 -0.15317866 0.02689948
0002e0 4b 10 88 3e 0e ab a3 3e 9d fd e1 be 2e 00 af 3c
       0.2657493 0.31966442 -0.44138804 0.02136239
0002f0 c6 6e 0b 3e c8 cb 8d be cd 4c ba 3b a2 74 87 bc
       0.13616475 -0.27694535 0.005685425 -0.016535107
000300 90 aa 1b bf 72 6f af 3d ac 60 51 be 20 27 4c be
       -0.6080713 0.085661784 -0.20447034 -0.199368
000310 45 73 fb 3d 37 d2 8c be c3 df 9a 3e 98 18 9c 3c
       0.12277845 -0.2750413 0.30248842 0.019054696
000320 a3 c4 77 be a1 72 9f be 58 90 50 3e b5 f1 98 be
       -0.24196105 -0.31142142 0.20367563 -0.29871908
000330 b3 2f 4b be 60 28 c8 be 65 32 67 bd 7e 36 91 3e
       -0.19842415 -0.39093304 -0.056444544 0.28361887
000340 05 2e d4 3d bc 6b 89 3e f1 3c 12 bc 1d 0f b1 be
       0.1036034 0.26840007 -0.008925662 -0.34581843
000350 82 d6 05 bf 7c 9d 4c 3e f8 c4 93 bc c4 23 64 be
       -0.5228044 0.1998195 -0.018038258 -0.22279269
000360 b4 7b 1d be 15 c4 91 3e 52 59 07 bf 47 48 3c 3d
       -0.1537922 0.2846991 -0.52870667 0.045967367
000370 47 10 40 bd a6 94 24 3e 43 66 36 3e d1 60 7e be
       -0.046890523 0.1607233 0.17812447 -0.2484162
000380 8f d5 0b 3e 24 fb f6 3d f7 b2 c3 3d 8d 7c a5 bd
       0.13655685 0.1205962 0.09555619 -0.08080397
000390 6d 9c 15 3f c0 3b d2 be 84 c9 6d be 6a e3 c6 3d
       0.5844181 -0.4106121 -0.23221403 0.097113445
0003a0 d3 d6 20 be 27 4f 80 bc 2e 00 67 3e d3 b8 52 be
       -0.15706949 -0.015662743 0.22558662 -0.20578317
0003b0 15 95 7e 3d ba 45 c5 3e d5 7c ac 3e 81 ca 0c be
       0.062153894 0.3852976 0.3368899 -0.13749124
0003c0 ad d2 2a 3e 27 22 ef ba bb 3d f5 3d 81 63 29 bf
       0.16681929 -0.0018244431 0.11974665 -0.66167456
0003d0 89 76 23 bd eb 45 85 be f5 48 9d be 27 b4 19 be
       -0.039907966 -0.26029906 -0.30719724 -0.15010129
0003e0 da 63 ad 3e 8d 72 96 3e 10 22 30 3d db e1 f1 bd
       0.33865243 0.2938427 0.043001235 -0.11810657
0003f0 d2 7e 29 3e 03 c2 a4 3b e6 b0 1a 3d 2c 17 83 be
       0.16552284 0.005028011 0.03776636 -0.25603616

mlp_extractor.policy_net.0.bias f4 [16]
000000 66 3e 87 bb ad 07 8c 3c 22 f7 7d 3c 69 18 2b bc
       -0.0041273115 0.017093504 0.015500816 -0.010442832
000010 84 62 87 3c a9 0c c9 3b dc 41 c4 3c 3e 16 90 3c
       0.016526468 0.0061355424 0.023957185 0.01758873
000020 e3 20 89 bc e1 a3 cc bc 2d bc 48 ba 63 3c 85 3b
       -0.016739314 -0.024980487 -0.0007657435 0.0040660365
000030 5b 69 10 3d df 40 3b bb 47 87 fa bb 53 ea 29 bc
       0.035256725 -0.0028572602 -0.007645521 -0.010370809

mlp_extractor.policy_net.1.weight f4 [8, 16]
000000 3b 74 01 be 16 45 d1 be 9c d4 8c 3e dd 17 81 3e
       -0.12641995 -0.4087302 0.27505958 0.2521352
000010 61 6f e8 be 5f ee 67 be 40 5c 4e 3e 25 d5 f2 bd
       -0.45397475 -0.22649525 0.20152378 -0.1185706
000020 8f 9b 72 bc 8a 3f 2d 3c b7 28 5f be d3 5e b4 bc
       -0.014807596 0.010574231 -0.21792875 -0.022017872
000030 16 b9 71 bf f0 29 d3 be fc d4 e3 be 08 40 27 bd
       -0.94423044 -0.41242933 -0.44498432 -0.04083255
000040 aa 1a 77 be e7 31 19 3d 3b f1 a3 be 73 0f 8f 3e
       -0.24131265 0.037401106 -0.32019982 0.27941474
000050 3c f4 52 be be d6 1c be 29 83 61 bf 32 ea 0c bd
       -0.2060098 -0.15316293 -0.8809076 -0.034403034
000060 cc db 9a 3d 9d aa 08 3e af ef ad 3e 9d 5f 8b 3e
       0.07561454 0.13346334 0.33971927 0.27221385
000070 24 e8 0c bd 4d 8d 1a be 08 22 a3 bd b1 67 5b bf
       -0.034401074 -0.15092964 -0.07965475 -0.85705096
000080 27 4e 5c be 6d 1e 07 3f 39 26 49 3f 16 d3 55 be
       -0.21514188 0.527808 0.7857395 -0.20881304
000090 7e 89 c5 3e e0 b8 b8 bd b7 d5 0f bc 00 5e 42 be
       0.3858146 -0.09019637 -0.008778981 -0.1898117
0000a0 72 cb ae 3d 46 fa 20 3e 1a 54 91 be 3c 3a 54 be
       0.08534898 0.15720472 -0.28384477 -0.2072534
0000b0 50 ec 31 bd dd 5a c4 3e 74 2a 02 bf 87 43 f7 be
       -0.043438256 0.38350573 -0.5084603 -0.48293707
0000c0 e1 2f b0 be ed 84 f3 bd 8f 45 fa 3e 62 aa 73 3e
       -0.3441153 -0.11890588 0.48881194 0.23795465
0000d0 85 2f 1e be 8e 7c f4 bd 4c 50 ec 3e ad 26 f6 3e
       -0.15447815 -0.119378194 0.46155012 0.48076382
0000e0 b1 90 01 3f bf 87 22 bf 6c ad af bd 4d 8a ec 3e
       0.50611407 -0.6348838 -0.085779995 0.46199265
0000f0 47 02 da 3e 61 9f e2 bd 01 c6 85 3e 6e f1 98 be
       0.42579862 -0.11065555 0.26127627 -0.29871696
000100 3d 1e 7a 3e 37 af 42 be fe 30 d5 3a 99 63 24 3f
       0.24425597 -0.19012152 0.0016265211 0.64214474
000110 1b 52 ed 3e 41 67 18 bc b6 a1 77 bd de e6 72 bf
       0.46351704 -0.009301961 -0.060456954 -0.94883525
000120 57 b4 67 3e 9e 5c a7 bd 91 f2 c2 be c2 a6 b2 3e
       0.22627388 -0.08171962 -0.38075688 0.3489285
000130 da 99 2e 3e 75 84 33 bd b3 7f c9 3d ab 4c 86 3d
       0.17050877 -0.043827493 0.0983881 0.06557592
000140 35 77 30 3e f1 47 84 3e 73 ae f2 3d 5b 4d cb 3e
       0.17232974 0.25836137 0.1184968 0.39707455
000150 0b 2c af bd bf e8 e8 b9 83 37 f3 3e e4 cd 1c 3e
       -0.085533224 -0.00044423898 0.4750329 0.15312916
000160 34 d8 a0 be 4a 0a 67 3f 35 57 9c bb 16 75 ad 3e
       -0.3141495 0.90250075 -0.004771138 0.33878392
000170 b5 b7 3f be c7 63 a6 3d 05 bf 12 3f 14 78 9c be
       -0.18722422 0.081245 0.5732272 -0.30560362
000180 64 69 12 3f f5 14 04 bd e0 80 26 be 5a 20 5d 3e
       0.57192063 -0.03224655 -0.162601 0.21594372
000190 4c cd 95 3e a6 77 33 3e 31 0f 02 3f 33 fe b5 3d
       0.29258192 0.17526111 0.5080443 0.08886375
0001a0 21 4c b1 be 2b c6 ac be af d8 6e 3e 1b d6 be be
       -0.34628394 -0.3374494 0.23324846 -0.37272725
0001b0 02 ae 3c 3e 22 8e f7 be ec 48 b8 be e5 44 1b bf
       0.18425754 -0.48350626 -0.35993135 -0.60652
0001c0 fe 1f ec be 97 bc 52 3e c6 e7 ca 3d da d6 79 bd
       -0.46118158 0.20579754 0.099074885 -0.060995914
0001d0 9b 87 e9 bd c5 0e 82 bd a2 d0 53 3d 99 73 a5 bd
       -0.11402818 -0.06350473 0.05171264 -0.08078689
0001e0 81 2e 7d bf ac 2f 30 be db 3c 77 be b7 69 07 3f
       -0.98899084 -0.17205685 -0.24144308 0.52895683
0001f0 e4 89 fa 3e 20 01 b1 be 02 99 a7 be 95 02 5f 3e
       0.48933327 -0.3457117 -0.32733923 0.21778329

mlp_extractor.policy_net.1.bias f4 [8]
000000 77 ec b4 bc 91 5a 5c bc 01 ae 54 3c 7a ae b0 3c
       -0.022085411 -0.013449327 0.012980939 0.021567572
000010 32 ce ff bb ed 9c b6 bb 5c fd a8 3c 09 b0 aa 3c
       -0.007806563 -0.005572906 0.020628624 0.020835893

mlp_extractor.policy_net.2.weight f4 [1, 8]
000000 21 0a 2e bf 1d 11 d0 be 6d fc b5 3e 82 29 31 3f
       -0.67984205 -0.40638056 0.35544148 0.6920396
000010 f3 57 51 be 82 d0 2b be ef 47 21 3f b3 cb 31 3f
       -0.20443706 -0.16778758 0.63000387 0.69451445

mlp_extractor.value_net.0.weight f4 [16, 30]
000000 b6 d8 89 bd 03 8c 89 3b 67 82 af be ca 22 01 be
       -0.067307875 0.004197599 -0.34279177 -0.12610927
000010 3f 23 e2 bd ec 31 17 be 23 c9 36 3e fe d5 f1 3e
       -0.11041879 -0.14765137 0.17850165 0.47233576
000020 ee ea 7c be 38 85 10 bf 81 5c cd bd 7e 0d 35 3e
       -0.24698994 -0.56453276 -0.10027409 0.17680928
000030 08 fa 28 bf 45 2c 24 be 37 f0 3e be 31 e4 0b 3e
       -0.6600652 -0.16032512 -0.18646322 0.13661267
000040 da 66 99 bd fa 1e 8e 3e f4 c2 6e 3d 85 02 d9 3d
       -0.074903205 0.27758008 0.05829139 0.10596184
000050 89 a6 60 be ac ed aa be 2b 94 81 3d 84 75 6c 3e
       -0.21938528 -0.33384454 0.06327089 0.23091704
000060 15 e4 57 bf f1 e5 85 be a2 34 b4 3e 28 95 50 bf
       -0.843324 -0.26151994 0.35196406 -0.81477594
000070 78 90 a9 bd 15 4f ab 3d ec 7e b7 3e ab bd 82 be
       -0.08279508 0.08364693 0.3583902 -0.2553533
000080 e5 b6 72 bc 8b 0a 50 3e 82 4e 31 3e e1 7b b9 3e
       -0.014814113 0.20316522 0.17315105 0.36227325
000090 e0 73 a3 3e ce 0c 9a 3d fb a4 2f bd fc 77 f0 3e
       0.31924343 0.075219736 -0.042881947 0.4696654
0000a0 e1 af cf 3e ec c7 fc bd 35 6c 34 3e 45 b2 0a 3f
       0.40563872 -0.123428196 0.17619403 0.5417827
0000b0 80 ea 2d be d6 f5 d1 3e c7 27 9a 3d 09 01 16 3e
       -0.16983986 0.4100787 0.07527118 0.14648832
0000c0 30 b2 1b 3f e0 65 9c ba 48 32 89 bc 2b e6 3e 3e
       0.6081877 -0.0011932217 -0.016747609 0.1864249
0000d0 6a dd 44 3e 5b d3 0d 3e c2 74 8b 3e 80 d6 39 bd
       0.19225088 0.13850157 0.27237517 -0.04537058
0000e0 27 66 85 be 1c 39 22 3f e4 65 b8 3e 09 aa 3b 3f
       -0.260545 0.6336839 0.36015236 0.7330633
0000f0 bd ca 3d be ee 09 c1 3e ee db 84 be be e8 43 bc
       -0.1853437 0.37702888 -0.25949043 -0.0119573455
000100 b4 df 13 bf a7 71 3f bb bb 24 30 be 67 d0 54 bb
       -0.5776322 -0.002921203 -0.17201512 -0.003247285
000110 a7 4f d6 3d 60 60 60 3e de ee cc 3e d2 31 02 3f
       0.10464411 0.21911764 0.4002599 0.5085727
000120 31 48 ae 3e bc 0b 47 be e8 e0 0c 3e 58 d2 af 3b
       0.34039453 -0.1943807 0.1375767 0.005365651
000130 9a fd 52 3d d6 03 a4 be 7d 6c 88 3d e8 1e 90 3d
       0.051511385 -0.32034177 0.066613175 0.07037145
000140 ff e6 01 3d c3 82 dd 3b 98 ac 1e 3e 93 41 a3 3e
       0.031714436 0.006759973 0.15495527 0.31885967
000150 bd 28 1a be 97 1e 5a be a6 d0 a7 3e 43 0d 01 3f
       -0.15054603 -0.21300732 0.32776374 0.5041086
000160 b4 ad a3 bc f5 46 65 3d e0 43 b5 3e a2 44 22 3e
       -0.019980289 0.055975873 0.35403347 0.15846494
000170 02 b0 07 3f 0c 45 9a 3e a2 d1 16 bf 08 81 ee 3d
       0.5300294 0.30130804 -0.58913624 0.116457045
000180 ff e3 0f be 12 98 28 3e 8d 91 53 3d 49 46 98 3e
       -0.14051817 0.1646426 0.05165248 0.29741123
000190 99 c3 76 3e bd fc eb be b0 33 fb 3d 78 a2 62 3d
       0.24098052 -0.46091262 0.12265718 0.055330724
0001a0 b4 5c 5c bd 5e 24 c5 3e 86 4d b7 bd a8 e1 a9 3e
       -0.053799346 0.38504308 -0.08950333 0.33179975
0001b0 78 3a 0c be 27 6f 08 3e ee 16 b5 be ac ed 45 3e
       -0.13694179 0.13323651 -0.35369056 0.19328946
0001c0 e2 b2 cb 3c ba ea 47 be a2 6d 3e 3e ee 30 1c 3d
       0.024865571 -0.19523135 0.18596509 0.0381326
0001d0 b3 17 c6 3e d4 03 77 bd 4f 46 99 be b9 a6 ea 3d
       0.38689956 -0.060306385 -0.29936454 0.11457581
0001e0 16 2d a9 3e 59 80 c2 bd 36 3d 8f be a2 ea e5 3c
       0.3304221 -0.094971366 -0.27976388 0.028065983
0001f0 25 32 34 3e b4 4b cd 3d 98 d1 c4 bd 92 a3 89 be
       0.17597254 0.10024205 -0.09610289 -0.26882607
000200 89 2e f7 ba 2d da 89 3e 67 c1 c5 3e e7 0a 8c be
       -0.0018858473 0.26924267 0.38624117 -0.27352068
000210 e2 66 d3 3e 98 16 a6 be ea 37 dd be 26 87 4d 3f
       0.4128943 -0.32439113 -0.43206722 0.80284345
000220 fe b5 01 3e c5 3a 3e be 97 24 f7 3e c0 a9 24 3e
       0.12667081 -0.18577106 0.48270103 0.1608038
000230 9e 57 55 be 31 6f a4 3e 88 4b af 3e a3 6b 95 3e
       -0.20834205 0.32116082 0.34237313 0.29183683
000240 d4 e3 4c 3f 47 b9 9f 3d 18 cf 28 bd 4e b7 d9 3e
       0.8003514 0.07799011 -0.041213125 0.42522663
000250 e6 ab df 3e 85 48 18 bf 2e d9 d1 bd b6 ca 4b be
       0.43685836 -0.59485656 -0.10246502 -0.19901547
000260 76 0a 4b be 5c 6a c6 be 1b 83 a6 be 2a fa e1 be
       -0.1982821 -0.3875302 -0.325219 -0.44136173
000270 64 6b de bd 88 50 1d 3e fb e6 c3 bd 4e cc 5a 3e
       -0.10860327 0.15362751 -0.095655404 0.21366999
000280 cd c5 04 3e 2b da 9a 3c 5a 99 3c 3f 41 5f d7 3e
       0.1296608 0.018902859 0.73671496 0.4206486
000290 8a 80 b8 3d f8 19 4f 3f 86 ec 98 be 3d c9 23 3e
       0.09008892 0.80899 -0.29867953 0.15994735
0002a0 b7 00 d5 3e 69 d5 45 be 54 99 a3 bd ff f6 78 3f
       0.41602108 -0.19319691 -0.079882294 0.97251886
0002b0 80 06 b3 3e cf f0 1e 3d d0 05 57 3f 5a 5f 68 3d
       0.34965897 0.03880387 0.83993244 0.05673156
0002c0 12 f5 f1 be fd cc 34 3f 08 66 09 3e af 89 e0 3d
       -0.47257286 0.7062529 0.13417828 0.10963761
0002d0 12 f7 ca 3e 63 bf 76 3e 79 84 1a be 2d 58 96 3e
       0.39641625 0.24096446 -0.15089597 0.29364148
0002e0 86 f1 21 3e 4a 77 bb be 9b c8 fa 3e 07 2b 53 3c
       0.1581479 -0.36614448 0.48981175 0.0128886765
0002f0 9f f2 e5 3d 1a a0 41 3e db c9 0e 3d f2 1f a9 3b
       0.11227917 0.1890873 0.034860473 0.005161279
000300 82 ea 16 3e 8e c9 6b be 08 dc de 3e 0f a7 25 3f
       0.14737895 -0.23026106 0.43527246 0.64708036
000310 ca 56 cd 3e 7e 58 73 3e cc 1a 83 3e d7 a0 c7 3e
       0.40105277 0.23764226 0.25606382 0.389899
000320 da e9 a3 be af 38 36 3f 8e d1 3d be fe c7 43 be
       -0.32014352 0.7118024 -0.1853697 -0.1911926
000330 c8 54 35 3f f8 6c fd bd a0 2d cb be 74 71 5a 3f
       0.7083249 -0.123743 -0.39683247 0.85329366
000340 16 55 8e 3e d5 8c aa 3c 8c f4 7f bd cf b7 7e be
       0.2779929 0.020819107 -0.062489077 -0.24874805
000350 78 76 2f 3d 5a 23 b7 3d 9e 91 b4 bd 9f ea 34 bf
       0.04283759 0.0894229 -0.08816837 -0.70670503
000360 4a dc c4 3e f2 7e 6a bd 9c 31 e5 be d6 6b a3 3e
       0.38449317 -0.05724997 -0.4476441 0.3191821
000370 ec ce 6a 3e 29 17 f1 ba 2a d4 f5 3d 17 44 96 bd
       0.22930497 -0.0018393743 0.12003358 -0.07337206
000380 43 eb fa bd f2 6c 00 3f 7b 6e 02 3e cd 73 ee be
       -0.12251904 0.5016624 0.12737457 -0.46572724
000390 3a 0c 8b 3e f6 e9 65 be f4 3d 63 be d0 ac 8d bd
       0.27157766 -0.2245253 -0.22191602 -0.06917727
0003a0 2e e0 0c be d3 21 7f 3c e7 22 69 3f 2f ac 04 3e
       -0.13757393 0.015572029 0.9106888 0.12956308
0003b0 2f 75 0f 3e d9 1b 5a 3f e3 c3 00 be cd c5 9a 3e
       0.14009546 0.8519874 -0.12574725 0.30229035
0003c0 2b ff b0 be b4 58 a2 3e 65 a1 8c be 32 45 a3 be
       -0.34569678 0.317083 -0.27466884 -0.3188873
0003d0 58 f5 63 be e5 76 27 3e 68 8b 1a be 86 e9 89 3c
       -0.2226156 0.16353948 -0.15092242 0.016834985
0003e0 86 2f e8 bc 7d 03 af bd a8 51 ee 3e 2e 55 c0 bd
       -0.028342973 -0.08545587 0.46546674 -0.09391247
0003f0 cb 68 36 bf f0 a1 80 3e 51 d3 3e 3e 94 26 e8 be
       -0.7125365 0.25123549 0.18635298 -0.45341933

mlp_extractor.value_net.0.bias f4 [16]
000000 69 e9 b0 3e 6a 3a a9 be 25 13 87 be 0d 51 15 be
       0.34553078 -0.3305238 -0.26381794 -0.145817
000010 89 a9 aa be 75 7a aa be 8f c3 af be 9a 03 a5 be
       -0.3333247 -0.33296552 -0.34328887 -0.3222931
000020 cf 96 ae 3e 4f c2 a3 3e f5 00 a1 3e 7d 2a 80 3e
       0.34099433 0.31984183 0.31446043 0.25032416
000030 94 15 b6 3e 92 30 af 3e 13 96 a7 be 91 3b 9d be
       0.35563338 0.34216744 -0.32731685 -0.30709508

mlp_extractor.value_net.1.weight f4 [8, 16]
000000 fc 46 47 3d 4b 1d 94 3e db f2 04 3e 8a 63 16 be
       0.04865168 0.289286 0.12983267 -0.14686409
000010 c3 5c 71 be 0f bb d3 3e fa 53 e7 3e 3e d3 dd 3d
       -0.23570542 0.41353652 0.45181257 0.10831307
000020 db a0 8d bd ea b6 2e be aa a8 16 bf 9c fc 35 bf
       -0.06915446 -0.17061964 -0.5885111 -0.71088576
000030 95 f8 ed be f7 83 bc 3e 8d 4c 17 bf eb 54 06 bf
       -0.46478716 0.3681943 -0.5910118 -0.52473325
000040 89 55 41 3e eb 29 b4 3d fd b2 8a 3e 28 db 41 ba
       0.18880285 0.08797058 0.27089682 -0.00073950225
000050 3a 5b dc be 46 9f 24 bb c1 64 06 bd 83 08 e8 bc
       -0.4303835 -0.0025119348 -0.03281093 -0.028324371
000060 72 bb be 3b ab 66 17 3e 2f c1 2f 3f d5 6c 24 3f
       0.005820685 0.14785258 0.6865415 0.64228565
000070 21 e7 5d 3f 81 2b 3c 3f e2 15 54 3d 63 54 0f bf
       0.866808 0.7350388 0.05177868 -0.5598814
000080 da 0a c7 be 1d c6 f4 bd f4 06 4d be 75 bf 86 be
       -0.38875467 -0.119518496 -0.20022184 -0.26317945
000090 8b 12 2e bf fb bc 04 bf 40 57 9e be 7c f2 02 bf
       -0.67997044 -0.5185086 -0.3092594 -0.5115125
0000a0 e5 cd 7c 3f e4 a6 75 be ad 33 f5 bd 72 fd 4b 3e
       0.9875167 -0.23989445 -0.11972747 0.199209
0000b0 11 e9 31 3f 8d 69 81 3e c7 45 6a 3c 40 7f 03 3e
       0.69496256 0.2527584 0.014298863 0.12841511
0000c0 37 f7 81 be d0 67 f2 be 06 9d 24 3e 90 f7 4a 3e
       -0.25383922 -0.47344828 0.16075525 0.19821
0000d0 45 db 53 3f 95 f1 99 3e b6 ad 3f be 6f 70 b7 3e
       0.82756454 0.30067125 -0.18718609 0.35827968
0000e0 83 8d 92 3e 73 2e 97 be cd c0 ac be e3 4d 34 3d
       0.2862359 -0.29527625 -0.33740845 0.04401959
0000f0 17 5a 03 3d 8d 44 78 3d 24 21 a8 3d ea aa f1 be
       0.03206834 0.06061225 0.08209446 -0.4720071
000100 b2 29 81 3e 96 11 e8 be bb 2d e7 3e fd fc 11 3e
       0.25227123 -0.45325917 0.45152077 0.14256664
000110 c6 d6 38 3d 23 9e 37 bf 1f 49 02 3f c3 47 6e 3e
       0.0451267 -0.7172567 0.50892824 0.23269562
000120 62 92 8a 3e 36 e3 13 3e 43 98 7f 3d 96 10 3d bc
       0.27064806 0.14442143 0.062401067 -0.011539599
000130 d5 6e 41 3f af 1c 4f 3e ee e4 f4 be 49 b8 f6 3e
       0.7555974 0.20225786 -0.4783091 0.48187473
000140 4c 09 bf be 03 7f 2a 3e b4 54 b5 be 1d a3 ea 3e
       -0.3731178 0.16650014 -0.35416186 0.4582757
000150 92 31 ca bd 1f fa 9f 3d c1 5b e7 3e b9 21 8e 3e
       -0.09872736 0.07811379 0.4518719 0.27760103
000160 c1 8c f1 be b1 b7 2e bf 7a 6b a9 bd ab b4 6d 3e
       -0.471777 -0.6824904 -0.08272453 0.2321345
000170 5f 0e a5 be 14 e3 b9 3e 4a 5b c1 3d 37 bd ee 3e
       -0.32237527 0.3630606 0.0944124 0.46628734
000180 bb be c8 bd b0 0a 0d 3f 7f 0d 19 3f b2 88 45 bf
       -0.09802004 0.5509443 0.5978622 -0.77161705
000190 f3 5d a1 3e 95 44 f9 3d a1 34 5f bc 68 c9 29 3e
       0.3151699 0.12171284 -0.013623388 0.16580737
0001a0 fb 43 c9 be 86 5d ad be 60 47 45 be 8e 77 bc be
       -0.39309677 -0.33860415 -0.19265509 -0.36809963
0001b0 40 33 96 3d 39 b8 0a bd 22 f7 e0 3e ff c5 a5 3e
       0.07333994 -0.033867095 0.43938547 0.32377622
0001c0 7b 1c 96 be 6d c8 01 bf eb 1f 58 3e d8 5b 5a be
       -0.29318604 -0.5069645 0.21105926 -0.21324098
0001d0 1c 1d 2c 3e c0 af 1b 3f 05 ae 27 3c 13 d3 2c 3d
       0.1680798 0.6081505 0.010234361 0.042193484
0001e0 c0 83 98 bd e6 ad 62 be dd 2b 17 3f 15 17 44 bf
       -0.07447004 -0.2213665 0.59051305 -0.7659772
0001f0 0c f9 54 bf a1 27 d5 3e a5 af 49 3e 44 b0 9e 3e
       -0.83192515 0.41631797 0.1969591 0.30993855

mlp_extractor.value_net.1.bias f4 [8]
000000 9f 58 a2 be ae 9f a4 3e 2d 9a a8 3e 9b 7b a3 be
       -0.31708238 0.32153076 0.32930127 -0.3193024
000010 f7 60 a5 3e 77 18 a4 be ea 1a a5 be 85 21 a5 be
       0.3230054 -0.32049915 -0.32247096 -0.32252136

mlp_extractor.value_net.2.weight f4 [1, 8]
000000 12 a0 0e be 78 40 01 3f 1b 45 71 3f f9 d4 14 bf
       -0.1392825 0.50488997 0.9424607 -0.5813747
000010 4b e2 fc 3e 5a bc 3c bf e4 2d 32 bf 9d ca f8 bd
       0.49391398 -0.737249 -0.69601274 -0.121480204
