Models/Aurora/gym/results/pcc_model_hard_10_1.pt (torch, 38742 bytes, 10 tensors)

mlp_extractor.policy_net.0.weight f4 [64, 30]
00000000: 0d2c a6be 9da4 e8bd 1ab0 85be a97c 6dbe
00000010: b4f9 d0be 9c91 c23d 24f6 72bd 67b8 2ebe
00000020: e508 71be 6bb7 3dbd 02d2 253d ec30 933d
00000030: e45b 02be 6df3 7bba 8c9c 193e a6ad d03d
00000040: 07fb 3fbd 5013 0b3d 1957 0dbe 0e18 3ebc
00000050: e294 313c e06b 28bd 9eaf aabe 8ea0 3cbe
00000060: bd25 52be 23bf ae3c d358 963e 1316 56be
00000070: cc34 353e 423b 51be 41c3 bbbc f2ed 38bd
00000080: 79a0 a3bd 648c a83e 387e 973d cf26 6f3e
00000090: 9e1b 81bd 3bf0 d83d 83da 0cbd 7f87 ab3e
000000a0: 95f9 af3e bfc4 d43d 9106 b2be a390 15be
000000b0: 3e46 1d3c b138 d83c 2843 d23e 1423 d9bc
000000c0: 3fb7 7bbd a86f 4fbc 07a3 023e ddc2 963d
000000d0: 11b6 733e 00c4 87be 3f44 c7bd e087 01be
000000e0: 7ac9 5d3e 81f1 d93d df41 26be 7086 263e
000000f0: 472f 40be 4166 0c3e f998 64be 82fb 4dbe
00000100: 766c d2bd cda8 09be 0fd5 82bd cf3f 783d
00000110: 85d8 18be b70d 7fbe 9c96 8cbd 6ab8 a53d
00000120: 6df1 9cbe cc26 363e 1de4 edbd 065c 2cbc
00000130: fc99 213e f875 25be d2b3 78be 76ee a7bd
00000140: f8ea d4bd f09e d1bc f304 7fbe 67bf 663d
00000150: 5961 723e 0ca8 593b a529 5d3d 9bd2 93bd
00000160: a9a3 3a3e 12ef b23d 1857 d6be ccf6 02be
00000170: 93ea 353d bf4d c83d 6996 df3d 2a7e 2ebe
00000180: 915e 8fbd 1637 5a3d 813b a9bd b474 523e
00000190: f699 cabd 99fc 1dbe d6ea 303e 65f2 513d
000001a0: 8723 debd 0883 2ebe 8c10 b33e 19c4 c03d
000001b0: 30cc 15bd eb8c 31be 8a0d 9bbc 9c52 2a3d
000001c0: 60ac 68be bce8 323c befe 943d 5b26 083b
000001d0: 8991 30be d704 3a3d 5bef 2a3e 6258 123d
000001e0: ec37 c8bd fdf1 293d c3f0 1dbd 9d62 7fbe
000001f0: a793 37bd a716 b0be 3d65 d6bd bcf7 24be
00000200: 6132 9c3c e303 2d3d 9880 05be b6b1 2abd
00000210: d97c a6bd fad8 f63d cb01 0f3c 1348 113c
00000220: 179f 0e3e c1d0 69be 32fd efbd a0af d43d
00000230: 55bf 603e a6de 0b3e b192 333d 0f28 b83c
00000240: cef0 623e c2ab 903e 88aa 8f3d e789 203e
00000250: 1fdc 9c3d 8f8f 11be d900 21bd 786c 92be
00000260: 9119 e9bd ac25 163d b796 8dbe e97c 91bd
00000270: 26bc a1bd 9501 483e 06ce 8a3d 7de7 b9bc
00000280: d485 c93d 383e 23bd 1400 173d 1285 063d
00000290: 766a 6f3d 017f f8bc e4f1 94bd 2ca5 a83d
000002a0: 1502 bfbd 17e1 84bc e1d3 da3d 3439 253e
000002b0: 9d84 f73b f1b3 3e3e 0e5e e9bc 19ad 293d
000002c0: 647c 6e3e 2d6e 9abc 8234 48be a83d 123f
000002d0: c9bb fc3d a7f3 30be 9fd9 14bb daeb 8c3d
000002e0: 46a8 83bd 454f b4be 959c afbd b180 ea3d
000002f0: 3324 983c bb69 5fbe 9612 76be ca63 1a3d
00000300: 6816 88be c779 a03d 402b 9c3e b458 993e
00000310: c232 d83a e975 7fbd b926 373e 2b83 1ebe
00000320: 0092 7f3e f79a d23c 2a41 2b3d 6030 473d
00000330: f73c 8d3e f09f 99bd 1528 5b3d 2d89 dbbe
00000340: 882f 823c 477a 6e3d f540 5c3e 1a40 dfbd
00000350: df7b 643d c0d7 273e 61f5 23bd d124 383e
00000360: b890 903e 60e2 4fbd 89cc 17be 3ef7 8abd
00000370: d5b1 6f3d 9785 8c3e cb01 eebd 0216 7bbd
00000380: 3111 bdbe 171b 0e3d ca6e 4e3e 091d 2b3e
00000390: a9dd 063e aca4 f9bc ea3e 06bf 31e3 9f3e
000003a0: bb3c 69be 0812 cb3b 694f 2f3e a6c8 813e
000003b0: a0b7 6a3c 6297 02be 7199 043e 4ffb 343e
000003c0: ed9f febd a844 733d 7149 813e 55ff 2cbe
000003d0: c73c 4e3d 379b 3a3e 8659 a7be 1d6f 48be
000003e0: 4e8a 48be e176 903e 3ea5 77be 879d dabc
000003f0: 4cc3 5dbd 66c1 0b3d 951c a63e aad4 253e
-0.32455483 -0.113595225 -0.26110917 -0.23192085 -0.40815508 0.09500429 -0.05931677 -0.17062531
-0.23538549 -0.0463175 0.040483482 0.071870655 -0.12730366 -0.00096111634 0.15001124 0.10189371
-0.046870258 0.033953965 -0.13802756 -0.011602415 0.010838719 -0.041118503 -0.3333711 -0.18420622
-0.20522209 0.021331375 0.29364643 -0.20906858 0.17695922 -0.20432761 -0.022920253 -0.045148797
-0.07989592 0.3291961 0.07397121 0.23354648 -0.06304096 0.10592695 -0.034388077 0.33501813
0.34370103 0.10389089 -0.34770635 -0.14605956 0.009599267 0.02639422 0.4106686 -0.026505984
-0.061454054 -0.012660898 0.12757502 0.07361386 0.23799922 -0.26516724 -0.09729814 -0.12649488
0.21658888 0.10641766 -0.16236065 0.16262221 -0.18768035 0.13710882 -0.2232398 -0.20115474
-0.102745935 -0.13443299 -0.06388294 0.060607728 -0.14926346 -0.24907576 -0.06864664 0.08091815
-0.30652943 0.17788237 -0.11615775 -0.010519987 0.15781397 -0.16158283 -0.24287346 -0.0819978
-0.10396379 -0.025588483 -0.24904232 0.05633488 0.23669948 0.0033211736 0.053994793 -0.07217904
0.18226494 0.08737005 -0.41863322 -0.12789458 0.04441316 0.09780454 0.1091736 -0.17040315
-0.07000459 0.05327519 -0.082633026 0.20552331 -0.09892647 -0.1542839 0.17277083 0.051256556
-0.1084662 -0.17042172 0.34973562 0.09412403 -0.03657168 -0.17338912 -0.018927354 0.04158269
-0.22722006 0.010919746 0.07275151 0.0020774815 -0.17243017 0.045414772 0.1669287 0.03572882
-0.09776291 0.041490544 -0.038559686 -0.24939962 -0.044818547 -0.34392282 -0.104685284 -0.16110128
0.019066991 0.042240035 -0.13037336 -0.041673385 -0.081292816 0.12053104 0.008728455 0.0088672815
0.13927875 -0.2283354 -0.11718215 0.1038506 0.21947987 0.13659152 0.043841068 0.022480039
0.22162172 0.2825604 0.07014948 0.15677606 0.07659172 -0.1421492 -0.03930745 -0.2859838
-0.113818295 0.03665702 -0.2765405 -0.07103903 -0.078972146 0.19531853 0.06777577 -0.02269339
0.09839979 -0.03985426 0.03686531 0.03284175 0.05845114 -0.030333998 -0.072726995 0.08234629
-0.09326569 -0.016220612 0.10684944 0.16135103 0.0075536505 0.1862333 -0.028487232 0.041424844
0.23289639 -0.018851364 -0.1955128 0.5712533 0.12340505 -0.17280446 -0.002271272 0.068809226
-0.0642858 -0.35216728 -0.085747875 0.11450327 0.018571949 -0.21817677 -0.24030527 0.037692823
-0.26579595 0.07835727 0.30501747 0.29950488 0.0016494619 -0.062368307 0.17885865 -0.15479724
0.24958038 0.025708659 0.041810192 0.04863012 0.27585575 -0.07501209 0.053505022 -0.42878094
0.015891805 0.05822208 0.21509154 -0.10900898 0.055782195 0.16390896 -0.040028933 0.17982794
0.28235412 -0.050752997 -0.14824118 -0.06785439 0.058519203 0.2744567 -0.11621436 -0.061300285
-0.36927179 0.034693804 0.2015945 0.16710295 0.13170494 -0.03047403 -0.5243975 0.3122802
-0.22777073 0.006197218 0.17120136 0.25348395 0.014326006 -0.1275306 0.12949158 0.17673992
-0.12432847 0.059391648 0.25251344 -0.16894276 0.05035093 0.18223272 -0.32685488 -0.19573636
-0.19584009 0.28215697 -0.24184129 -0.026686443 -0.054141328 0.034119986 0.3244368 0.16194406

mlp_extractor.policy_net.0.bias f4 [64]
00000000: f40a 4038 cc4b 3339 d793 b837 e221 ceb8
00000010: 146e 39b9 430c 9ab8 f41f 35b8 960e dbb7
00000020: 1524 0f38 6a27 7939 48d5 cf37 5d80 9738
00000030: 54b5 9638 2e15 f4b8 d79f 61b8 ed2f b838
00000040: 488d cf34 4095 10b8 2594 c538 7e4b 4439
00000050: e8bd 86b8 88a6 8ab8 edea 0138 4696 17b9
00000060: 87b0 9fb8 84a2 02b8 d915 1fb9 6907 c138
00000070: abd3 9437 5436 90b8 702e 9238 108b 92b7
00000080: 912e 36b8 35e6 2039 c87f 2437 b0df b638
00000090: 768d 0b38 c239 66b7 2427 d3b7 69d0 78b8
000000a0: ef4a c138 47f8 deb8 3024 9738 0dd1 a0b8
000000b0: 527f 96b8 dd58 e9b8 9df1 26b9 167e 21b9
000000c0: 230a c437 9c94 a437 e595 7fb7 bf51 bd38
000000d0: 218f 54b9 31fa 4339 549b 5b38 b876 2739
000000e0: 8e2f a6b7 aca9 4237 7cf1 eeb8 5642 30b9
000000f0: 5a9f 8db8 7a8e b0b7 3630 59b9 32e0 6bb7
4.5786568e-05 0.00017099007 2.2003353e-05 -9.8291566e-05 -0.00017683982 -7.345576e-05 -4.318352e-05 -2.6113627e-05
3.412746e-05 0.00023761173 2.477564e-05 7.2241506e-05 7.1863324e-05 -0.00011638772 -5.3793043e-05 8.7827306e-05
3.865955e-07 -3.4471275e-05 9.421286e-05 0.0001872014 -6.424991e-05 -6.611372e-05 3.097479e-05 -0.00014456463
-7.6145916e-05 -3.114577e-05 -0.0001517156 9.2043374e-05 1.774154e-05 -6.8765745e-05 6.970472e-05 -1.7469312e-05
-4.343555e-05 0.00015344548 9.804913e-06 8.720101e-05 3.327193e-05 -1.3722516e-05 -2.5171386e-05 -5.9321905e-05
9.2169146e-05 -0.0001063203 7.2069815e-05 -7.668333e-05 -7.1762726e-05 -0.00011126858 -0.00015921002 -0.00015401127
2.3369741e-05 1.9619525e-05 -1.52340845e-05 9.027449e-05 -0.00020271215 0.00018689853 5.235833e-05 0.00015970587
-1.9810886e-05 1.1602806e-05 -0.00011393704 -0.0001680938 -6.7530855e-05 -2.104718e-05 -0.00020712693 -1.4059291e-05

mlp_extractor.policy_net.1.weight f4 [32, 64]
00000000: ddcd 32be 1ab0 8dbd 1824 eebd fad9 94bc
00000010: dc55 9fbe f204 11be dafa 1ebe 48e7 4e3d
00000020: d2af 38be 4330 37be fb5f 123e 622b 09be
00000030: d6cb a53d 76ab 27be 4184 debd 8d9d e43c
00000040: 19c1 933d 90a5 53be ef4c 463c 4101 5ebc
00000050: 23e3 14be e6bd 363d e835 293e 8e4e 243e
00000060: 0f4e 473e 3a54 be3e cdef 383d 44ca 573d
00000070: 2733 1cbf 9313 90bd 44b5 a83b ab46 07be
00000080: 36bd adbc 58b9 ebbd e5f3 bbbe 2e66 c63e
00000090: 6f5b 84bd 0968 3e3d 96ee acbd ac20 143d
000000a0: 8fae 823d 4ab8 e1bd 828f 6e3d 1074 953d
000000b0: 8dc6 983e 926f ffbc ad24 c6be 720a 9f3e
000000c0: 59ef 77be 3ff2 8c3e 459e 063e 94b9 c83d
000000d0: cb12 44be 3f13 0a3d 1c53 42be e137 e03a
000000e0: 0595 49bd 04a3 2fbd 16af 0b3d 0269 0d3e
000000f0: 1c22 90bd ae4c a5bd 5f1f b53d 7af3 8f3d
00000100: 4ad4 1fbe 2607 a4be bb01 4bbd 4529 10bd
00000110: 9915 5fbd 2f58 aebe 5f1a 27bc d074 753e
00000120: 8a8e 6e3e 3bc5 7a3e 4022 213e 9de9 083e
00000130: 19e6 693e 9f69 8a3d 9a32 9b3e 4a16 253d
00000140: 8441 2fbe 1b89 dbbd adf8 02bd b97d 4d3d
00000150: 5b96 323e b435 8c3e a3f4 b73d 883b e53d
00000160: a81a 49bd 523b 543d 956a b0be 1ccc 18be
00000170: 0c33 9d3c 3f43 d2bd f081 f5bd 53e9 373e
00000180: 3202 383e d435 d63d 825e 23be 5caf 553d
00000190: c02c 733e 4284 3f3e ca37 80bd d1b1 8abe
000001a0: 62f0 07be fd98 c63c de3f dd3d acf3 b2be
000001b0: 7387 0c3d c69e 6ebc 5b9a 063e 4dff 153e
000001c0: 7be0 f83d c146 133e 059e 1dbe aa41 41be
000001d0: b97e 0f3e 633e 82be f757 07be 703f 50be
000001e0: 8d49 76bc 7892 d33d 403b d53e 90a0 0d3e
000001f0: 8d19 a33e 449a d6bd 880e 0abe 3708 b4bd
00000200: 5fca 403d 4608 03be 3e0d 583e dbbf c5bc
00000210: b33f 943e 9130 603d dc71 98bd d8b1 0e3c
00000220: d406 84be 3ec9 513d ba38 a33d 5a73 0bbe
00000230: b6c9 76bd 553f 85bd e590 623d 321b f23d
00000240: f95d 5c3e 16ae 3fbd 952b af3e 5e0b d1bd
00000250: 560c 03be 165a c2bd 2260 bbbe fb97 38be
00000260: a4ac 7abe 26bd 6bbe b2ae 5ebd 779f 6a3e
00000270: 77d5 36be 5283 5fbe c960 1f3e d8a0 93be
00000280: 4971 3fbd eb8f 603e 6458 153e 82dd be3d
00000290: a9d7 3d3d 58dd 88be 1fce a8bd 3207 aebe
000002a0: 9653 25be ec48 b4be 8fa1 093d 4d2f 0f3e
000002b0: ff8d 6dbd 4f63 18be 5b3b 993d 1e66 be3d
000002c0: 93f2 82be b1ac c43d 982c cebc 2f24 fdbc
000002d0: 318a 513d 15b0 a43c 9662 a53d 1c23 d4bc
000002e0: 59de bdbe 8d16 283d 679f dc3e 26ad a8bd
000002f0: ca8d 573e 901d 77bd dd87 3fbd c534 5e3e
00000300: c255 87be 3d69 063b 8f43 c83e 299d dabd
00000310: c507 603d 682b 2cbc a416 3b3e cb9d ef3c
00000320: 7186 fcbb 4751 a0bd 72b6 8d3d 2d16 373b
00000330: 2313 a43e ecbb 583e 96e9 b3be 6c1e 1cbe
00000340: 4ceb babd 3bf6 103d 31be 343c a3e3 ae3d
00000350: a35d e6bd c6cb 5e3e edea dc3d 613c 2b3e
00000360: 2511 15be a8dc 56be ef9c f43d 2427 76be
00000370: 9f9e cf3d 88bd 98be 61d2 d8bd db87 b1be
00000380: 2783 6b3d a03d 3cbe 799a 243e 2899 8f3c
00000390: a7a9 4bbb f1bd 183e bbc8 6f3e d1cb 3ebe
000003a0: 6d2d 2ebe 853f 463e 6928 8d3e e1a1 943d
000003b0: 60dd e03d 9a40 64bc cd31 0c3d e540 593c
000003c0: 2c5e 03bd 90c3 943d a929 4abe e3c5 263d
000003d0: 6af9 a3be 2787 cd3d 082d 3d3e 6bdf 6e3e
000003e0: bb97 4e3e 477b 933e 480d 403e 60c7 133d
000003f0: cc70 c0be 7bf2 3abe 123f c03d 0e11 d33d
-0.17461343 -0.06918354 -0.11627978 -0.018170346 -0.31120193 -0.14162043 -0.1552538 0.050513536
-0.1803582 -0.17889504 0.14294426 -0.13395455 0.08095519 -0.16374001 -0.10865069 0.027907157
0.07214565 -0.20668626 0.012103303 -0.013550104 -0.14539771 0.044614695 0.1652447 0.16045591
0.1946337 0.37173635 0.045150567 0.05268313 -0.6101555 -0.070349835 0.0051485617 -0.13210551
-0.021208387 -0.11509961 -0.36709514 0.38749832 -0.06462752 0.046485934 -0.08443944 0.03616397
0.06380951 -0.110214785 0.05824233 0.07297528 0.29838982 -0.03118113 -0.38699856 0.31062657
-0.24212398 0.2752857 0.13146313 0.09801021 -0.19147794 0.03370976 -0.18977016 0.0017106497
-0.04921438 -0.042880073 0.03410252 0.13809589 -0.07037756 -0.08071266 0.08843874 0.07028861
-0.15608326 -0.32036704 -0.049562197 -0.035195608 -0.054463957 -0.34051654 -0.010199158 0.23970342
0.23296562 0.244893 0.15735722 0.13370366 0.22841682 0.06758427 0.30312043 0.04030446
-0.17114836 -0.1071951 -0.031975437 0.050168727 0.17440169 0.27384722 0.089822076 0.11192995
-0.049097687 0.051814385 -0.34456316 -0.14921612 0.01918938 -0.102667324 -0.11987674 0.179601
0.17969587 0.10459486 -0.1595402 0.05216919 0.2374754 0.18702796 -0.06260641 -0.27088788
-0.13275293 0.024242872 0.10803197 -0.34951532 0.034308862 -0.014564222 0.1314482 0.14648171
0.12152191 0.14382459 -0.15392311 -0.18872705 0.14013185 -0.25438222 -0.1321715 -0.203367
-0.015032184 0.10330671 0.41646767 0.13830781 0.3185543 -0.104786426 -0.13482106 -0.08790629
0.047067996 -0.12796125 0.21098801 -0.024139335 0.2895485 0.054733817 -0.07443592 0.008709393
-0.2578646 0.05121731 0.07969804 -0.13618222 -0.06025096 -0.0650622 0.055313963 0.11821593
0.21520223 -0.04679688 0.34212938 -0.10207246 -0.12797675 -0.09489839 -0.3659678 -0.18026726
-0.2447992 -0.23021373 -0.05436582 0.22912394 -0.17854868 -0.21827438 0.15564264 -0.28833652
-0.046738897 0.219299 0.145845 0.09319593 0.046348248 -0.26731372 -0.082424395 -0.33989865
-0.16145167 -0.35211885 0.03360134 0.13982888 -0.057996746 -0.14881633 0.07482024 0.09296821
-0.25575694 0.09603251 -0.025167748 -0.030901043 0.05115718 0.020103494 0.080754444 -0.025895648
-0.370837 0.04103713 0.43090364 -0.082361504 0.21050182 -0.060330927 -0.04676043 0.21699817
-0.26432616 0.0020509504 0.39114043 -0.10674507 0.05469491 -0.010508396 0.18270355 0.029250046
-0.0077064564 -0.078280024 0.06919564 0.0027936802 0.3204585 0.21165437 -0.3513915 -0.1524598
-0.091269106 0.035391074 0.011031673 0.08539512 -0.112483285 0.21757421 0.10786996 0.16722251
-0.14557321 -0.20982611 0.11943995 -0.24038368 0.101376764 -0.298321 -0.105870016 -0.34673962
0.057498123 -0.18382883 0.16074552 0.017529085 -0.0031076462 0.14916207 0.23416416 -0.18632437
-0.17009516 0.19360168 0.27569893 0.072574385 0.10979724 -0.013931418 0.03422718 0.013260101
-0.03207223 0.07263863 -0.19742455 0.040716063 -0.32026225 0.10035544 0.1847421 0.23327415
0.20175068 0.2880499 0.18755066 0.03607881 -0.37586057 -0.18256561 0.0938703 0.10305987

mlp_extractor.policy_net.1.bias f4 [32]
00000000: ad4c 0737 aa3e 83b8 232b 5738 8a7d 2c37
00000010: c524 8739 d07e 2f38 2ed9 2a37 bca6 b638
00000020: 8d3c a438 c7fb 51b9 cbb2 5539 1560 ecb8
00000030: bada 49b8 b0b6 e138 6fb6 abb8 6f8f cbb7
00000040: fdc7 f3b8 c86d 2b37 8fc3 0839 87ad b638
00000050: b117 d637 212a 0eb9 bf9e e4b8 8715 ddb8
00000060: e4da dab8 e6c6 a838 9097 bcb8 b1f2 22b8
00000070: 8851 9737 1d60 9f38 64d9 15b7 4d70 c5b7
8.0644795e-06 -6.258239e-05 5.130017e-05 1.0281228e-05 0.00025776602 4.1841355e-05 1.0183356e-05 8.709493e-05
7.831408e-05 -0.00020025588 0.00020379869 -0.000112712536 -4.812584e-05 0.00010762864 -8.187896e-05 -2.4266277e-05
-0.00011624394 1.0217955e-05 0.00013042822 8.710758e-05 2.552182e-05 -0.0001355787 -0.00010901456 -0.00010542111
-0.000104358216 8.047912e-05 -8.992769e-05 -3.8849834e-05 1.8038569e-05 7.599613e-05 -8.931707e-06 -2.3536524e-05

mlp_extractor.policy_net.2.weight f4 [1, 32]
00000000: 64ee a5bc 99f4 203e 52b4 03be 8767 d4bc
00000010: 76cd 25bf fd8a d6bd 22f6 d1bc fa0b 5fbe
00000020: ff12 49be cd8e 003f d4f2 02bf caae 903e
00000030: fb77 f63d 8327 8abe decf 513e 7545 793d
00000040: 280b 953e 0caa cfbc d08a a7be a6c3 5fbe
00000050: e93e 83bd 391f ae3e c9d8 8b3e 9724 873e
00000060: eff3 853e 1e7e 4ebe 29ee 663e 5295 c73d
00000070: fe09 3bbd 0426 43be 2736 b63c 444e 713d
-0.020255275 0.15718307 -0.12861755 -0.025928272 -0.64766634 -0.10475729 -0.02563006 -0.21781912
-0.19636153 0.50217897 -0.51151776 0.28258353 0.12034603 -0.2698327 0.20489451 0.060857255
0.29110074 -0.02534964 -0.32723093 -0.21851978 -0.064084835 0.34008196 0.2731383 0.26395103
0.2616267 -0.20165297 0.22551788 0.097452775 -0.045663826 -0.1905747 0.022242619 0.05891253

mlp_extractor.value_net.0.weight f4 [64, 30]
00000000: 76e7 0a3e 44a4 b33c ea9a 59bd 6d3f 33be
00000010: d2d9 793e 38cb 02bf f915 203e bc9a 21bc
00000020: 540d aebe 6e62 a4bd b26a d3be e5d1 563e
00000030: 932a c43d d25c d3bd cd1a c1ba 984b b4be
00000040: 0f82 ecbd d2a2 05be 46c9 63bd db29 86bd
00000050: ff1a c83d cafe 903e 61dd ddbd 0562 05bc
00000060: 76a2 b93e aa75 9d3e 9cfc 583e bcac f7bd
00000070: 4c1d 373d 55e3 103b 42c1 b3bd e84a 20be
00000080: 6f46 81bb 30ca 0fbe b841 8bbe ad78 4e3e
00000090: 3906 1a3c d959 48be ed7c e13c 35bd 4abc
000000a0: 2ccc be3d f448 f43b 2fe7 b63e ad49 543e
000000b0: 14bd 103e 7fba afbe 4fce 3abe 87c2 3d3d
000000c0: c707 79be 1f70 02be 1192 0f3e 97f7 b93d
000000d0: cb60 01bf 7485 843e e7aa cebd f0ea a43d
000000e0: a799 2b3e 37df 283e 79ef f53d 9f52 e23c
000000f0: 7873 093e 0d98 e2bd 9914 15be 2e29 843d
00000100: bbdc 89bd 2c37 b93b 12ce 5fbe c987 0ebe
00000110: 8b42 3cbe 992f 263e 39dc 1bbd f3ea 26be
00000120: 4535 f33b 1ae2 343e 6fa9 4d3e 5752 d2bc
00000130: 881b 29bd 12e3 c43d 4117 0ebd 6f90 f9bd
00000140: d60b 76be 3ac6 d4bd d5e0 473c 61f2 1dbd
00000150: 19a2 c7be 5c13 fd3c d49f dc3d ef0c 1cbe
00000160: 51fc 003e 270f b4be d01d f9bc 72d6 733c
00000170: 8d43 ebbd 65a8 88be 5d06 cf3b 38a4 81be
00000180: 0389 b1be 17ae 2cbd 97bc 96bd b1f0 46be
00000190: c4c8 ed3d ea63 33bb 0f7b 2abe c153 9bbd
000001a0: 6316 03be 576e 84bc 2075 fd3c 72ef fabd
000001b0: ef97 b1bc 3d3d 7ebe 0970 113e c789 39be
000001c0: 7b14 873e 8de9 df3e a9a4 f53c d68d d0bd
000001d0: 9aa1 223d 726d 0d3e ead0 7cbe 01d0 4b3d
000001e0: 8a06 bfbd d509 ff3d a554 213e 607a c2bc
000001f0: 22a2 23bd 3537 813d 489a 033e fe5f 32be
00000200: 59b5 183e 5207 213e 3db9 913e 5eda 5d3d
00000210: c946 6dbe 8b83 abbe 3210 3c3e cd62 acbd
00000220: 3062 70bc 452f 0cbe cf61 0dbd 4305 9e3d
00000230: d141 73be bc4e 813e 3e77 2bbe 56db 933e
00000240: 64aa 0f3b 7ae2 5ebc 014b 8ebc 4c77 bfbd
00000250: cb6f 7a3e 8b33 ed3d 6dcc a63e 328c 94bc
00000260: 5dbb 3bbe 998f 79be 9571 e23e 3c32 ce3d
00000270: 0062 89be ba65 3cbd 3a03 d03d 66be 673e
00000280: 4a74 923e 10df 3f3d a94a 5a3d 65fc 003e
00000290: 75a1 093f c45a 2fbd 3446 0cbd 69dd a23e
000002a0: 4187 493d 9c85 8abe cf79 86bc 43d6 8c3d
000002b0: ff3e 34bd b931 113d 65d0 193e 6126 983d
000002c0: e936 193d 2fc7 10be 221d a33d 0b0f 0a3d
000002d0: edbc 0dbe 7a1b b83d fa9c 92bd bb62 ad3d
000002e0: d391 7fbe 28e4 96bd 446a 7ebe 87f5 9cbe
000002f0: 0b57 2d3e f3d7 0bbf 5a6b 96bc 5bff 7f3d
00000300: fb3c bb3d 0a90 493e ddc1 373e a86f d63b
00000310: 55bc 08bd f16a c3be 5e40 893e 5856 333e
00000320: 8739 133e efa3 8b3d cc37 8a3d 00bd 0c3e
00000330: 6c9c 223e 1383 a03e 0d16 0cbe 7895 743d
00000340: 022e 233d bd41 10be 7316 963d 838f 68be
00000350: 1d25 243e f93a a83b 7b4d ccbd 29b1 323e
00000360: eb40 8b3e c8b7 77be a28e 08be 5874 6bbe
00000370: c921 0a3e 495d 9c3d c8ed dcbd 28f0 51be
00000380: c676 8ebe 9f97 39be 13df eebd bbed e93e
00000390: 2cc2 643e 7d2f 4b3d 904e 773e 1261 6c3c
000003a0: 805a da3c f323 903e a0c3 6d3e 9f34 84be
000003b0: 8ea8 f5bc f0b2 f6bd 88b6 883d 85f3 403e
000003c0: a947 d53d 9944 98bd 8a29 9a3d a1db a4be
000003d0: e844 a43e 845a 0f3e 3365 bd3e 55e8 a83d
000003e0: 5a94 bf3e 5dad 153e 0433 0a3b ec62 433e
000003f0: f72b cbbd 807c 053e 2bde 40bd 6633 28be
0.13564858 0.021928914 -0.053126253 -0.17504664 0.24399498 -0.5109134 0.15633382 -0.009863552
-0.33994544 -0.080265865 -0.4129234 0.20978506 0.09578433 -0.103204384 -0.0014732719 -0.35213923
-0.11548244 -0.13050392 -0.05561187 -0.06550952 0.09770774 0.2831939 -0.1083324 -0.008141045
0.3625676 0.30753833 0.21190113 -0.12093493 0.044705674 0.0022108157 -0.087770954 -0.15653574
-0.003945164 -0.14041972 -0.27198577 0.20163222 0.009400898 -0.19565524 0.02752539 -0.012374212
0.093162864 0.0074549858 0.35723254 0.2073123 0.14134628 -0.34321973 -0.18242763 0.046328094
-0.24319373 -0.12738083 0.14020564 0.09080427 -0.5053832 0.25883067 -0.10091191 0.08052623
0.16757832 0.164914 0.120085664 0.027627287 0.13422954 -0.11064158 -0.14558639 0.06453167
-0.06731554 0.005652329 -0.21855953 -0.13918985 -0.18384759 0.16229095 -0.038051818 -0.16300564
0.0074221217 0.17664376 0.20084165 -0.025674028 -0.04128602 0.09613623 -0.034690145 -0.12185752
-0.24027953 -0.10389371 0.0121996 -0.03856123 -0.38990858 0.03089302 0.10772672 -0.15239309
0.12596251 -0.3516781 -0.030409724 0.014882671 -0.11487494 -0.26690975 0.0063178972 -0.253206
-0.34674844 -0.042158213 -0.073601894 -0.19427754 0.11610559 -0.0027372786 -0.16648506 -0.07584334
-0.12801509 -0.016165895 0.030939639 -0.12252702 -0.021678893 -0.24828048 0.14202894 -0.18118964
0.26382813 0.43732873 0.029985743 -0.10183303 0.039704897 0.13811281 -0.2468907 0.049758915
-0.09327419 0.12453047 0.15754946 -0.023739994 -0.039949544 0.06309358 0.12851822 -0.1741943
0.14912929 0.15725449 0.28461638 0.05416333 -0.23171534 -0.33498797 0.18365553 -0.08417282
-0.014671847 -0.13689907 -0.034517106 0.07715847 -0.23755576 0.25255382 -0.16744706 0.28878278
0.002192163 -0.013603801 -0.017369749 -0.09348926 0.24456708 0.11582097 0.3257784 -0.018133257
-0.18333192 -0.24371184 0.4422728 0.10068175 -0.2683258 -0.04599545 0.101568654 0.22631225
0.28604347 0.04684359 0.053293858 0.12596281 0.5376199 -0.04281117 -0.03424664 0.31809548
0.049201254 -0.2705506 -0.016415505 0.06876805 -0.04400539 0.03544781 0.15020902 0.07429195
0.037405882 -0.14138483 0.07964541 0.033705752 -0.138416 0.08989616 -0.07158847 0.08466097
-0.24957971 -0.07367736 -0.24845225 -0.30656072 0.16927736 -0.5462639 -0.018361736 0.062499385
0.091424905 0.19683853 0.17945047 0.006544072 -0.033382732 -0.38167527 0.2680692 0.17513406
0.14377414 0.06818377 0.06748924 0.13743973 0.15879983 0.31350002 -0.13680287 0.059712857
0.0398388 -0.14087577 0.073285006 -0.22710995 0.16029783 0.005133983 -0.09975716 0.17450394
0.27197966 -0.241912 -0.1333566 -0.229936 0.1348945 0.0763498 -0.10787541 -0.20501769
-0.27824992 -0.18124245 -0.11663642 0.45689186 0.22339696 0.049605835 0.24151063 0.01442744
0.026654482 0.28152427 0.23219156 -0.25821397 -0.0299876 -0.12045848 0.0667544 0.18842895
0.10414059 -0.07434959 0.07527454 -0.32198814 0.3208382 0.13999373 0.3699127 0.08247439
0.3741787 0.14616914 0.0021087537 0.19080704 -0.09920495 0.13035774 -0.047086876 -0.16425857

mlp_extractor.value_net.0.bias f4 [64]
00000000: 65f4 8abc 4f87 6dbc a88a 2d3c eaac 083c
00000010: a441 cd3c f328 953c 145e 70bc 6496 6fbc
00000020: ecbd 923c ce66 a1bc c7ea 693c 6657 5c3c
00000030: 18be d8ba ba96 94bc 5e1c c7bc 86e2 7a3c
00000040: 830a 21bc 10f7 77bc 88e5 78bc 20ee ab3c
00000050: 81b3 693c 3d6c 5cbc 6ebf bb3c 77e9 91bc
00000060: a747 7dbc 3a0e 86bc 8a7e 6dbc f2ed 88bc
00000070: 9952 9fbc fcd9 453c d832 c73c 2c43 8fbc
00000080: 5f2d 8abc 538e bc3c b3d5 5e3c 7b25 8ebc
00000090: 21f2 8d3c 21b3 94bc 9c37 66bc ceee 8d3c
000000a0: 78b0 603c cce3 1b3c 6229 8b3c 9fd3 883c
000000b0: 0ca4 40bc 4106 343c 0213 9fbc 361b 43bc
000000c0: 85c1 6fbc 7c93 a13c 977b 93bc fb99 8abc
000000d0: edc9 c5bc 8622 90bc a4ed 7fbc 7167 8ebc
000000e0: bb2f 973c 24a2 a23c 4595 99bc a6c6 8b3c
000000f0: b60b b8bc 4a2f 7abc a6f8 953c 5340 61bc
-0.01696224 -0.014497592 0.01059214 0.008342007 0.025055714 0.018208003 -0.0146708675 -0.014623258
0.017912827 -0.019702341 0.014277167 0.013448572 -0.0016536145 -0.018138278 -0.024305519 0.015312796
-0.009829166 -0.015134588 -0.015191443 0.02098757 0.0142639885 -0.01345354 0.02291843 -0.01781152
-0.015458978 -0.016364206 -0.014495501 -0.016715024 -0.019448565 0.012075897 0.024316236 -0.017488085
-0.016867338 0.023017084 0.013600755 -0.017351856 0.01732737 -0.018151822 -0.014051344 0.017325785
0.013713948 0.00951476 0.016987506 0.016702471 -0.011757862 0.010987819 -0.019418243 -0.011908343
-0.014633541 0.019723646 -0.018003268 -0.016919127 -0.024144137 -0.017594587 -0.015620623 -0.01738331
0.018455377 0.019852705 -0.018747935 0.017062496 -0.022466522 -0.015270064 0.018307041 -0.013748246

mlp_extractor.value_net.1.weight f4 [32, 64]
00000000: 5197 df3b ddf4 893e 3af9 1b3e 642f 753e
00000010: 662e 783d c588 8ebe 5e2f adbc 125b 513e
00000020: 8966 063e ba94 27be b211 4c3b b3b8 c6bc
00000030: a517 c7bd c702 053f 7f1f f53d fc63 72bd
00000040: 4655 94bd 58cc e53d 4f7c 683a 58dc f03d
00000050: d2c7 513e c256 0bbe 0a46 163e e723 fdbd
00000060: 1657 0f3e c725 bc3e 8894 af3d 1937 b63e
00000070: 43d2 12be df98 ce3d ab92 de3d c11f f63b
00000080: 91fd 013d e03a 09bc 12bb 83be 3c75 213e
00000090: 5caa 80bd ea48 ab3d 835e 5b3e e622 03bd
000000a0: 3747 33bd d85f 83be 8e69 5e3e b6be 0e3e
000000b0: 7ee7 903e 97fe 013d 7023 37be 0c22 f83d
000000c0: 9f49 bb3e 8457 88be c782 72bd 3112 c03d
000000d0: f7ed bb3c e5c2 bc3a 5810 fe3d eff6 b9bd
000000e0: 2bd1 363e 603b a33e 1149 e33d 0a20 b9bd
000000f0: 93be 433e 18ac 823d 9c93 3c3e 89a2 6ebd
00000100: 2010 463d ad80 ba3d ce00 533d c2f5 1f3c
00000110: 7672 34be dd0d 87bd 5eaa a03e dbfd 64bc
00000120: 55be 36be 7ee3 18be a700 ae3e 9a23 8dbe
00000130: b3f0 2a3e aeff ef3d a9ec 59be 2827 19be
00000140: 8fc5 163e b35f 4a3e fd31 263e e5a0 1f3e
00000150: 43ce 9dbd 1697 ddbe 2e5c 95be 208c 3e3d
00000160: 75eb b1bd 4fa7 8abd 0587 a9bc 5b43 2bbe
00000170: f36e 09be 8a26 d03d b353 823e c74f 3d3e
00000180: 442c d23d 2072 22be 4526 e6bb 8390 613e
00000190: 365d 5abe e811 bf3e 9fc2 6dbe d2f7 163d
000001a0: 191a 5fbe 29e7 afbd 58f0 84bd bfaf efbc
000001b0: 1771 3c3e a4f8 483e 4e8f ae3c 05f5 f23c
000001c0: c9d2 12be 0eda ebbd 296d bd3e 3d9e 6abe
000001d0: 5c12 513c 35b5 13be 9978 e7bd 703f 3f3e
000001e0: 1d3c 43be d5c6 82be 02cd 0b3d 43ed dcbb
000001f0: ce96 403d 2f4e 923e b3a9 c53b d170 8c3c
00000200: c1f9 ef3d edcc afbc 36bd 1e3e 068b 963c
00000210: f1b2 87be 0f97 613e 2347 c7bd 3112 15bd
00000220: 19a3 ba3d 60c1 c2be a8cd 50be 6d28 eebc
00000230: 9651 863d c42f 51be de20 2e3e 335e 023d
00000240: 197c cabd b419 1f3d 52f7 923c 911d 8d3e
00000250: 759c e23d c756 90bc 2a8d cdbc 8640 8bbe
00000260: 20b2 cb3e db4b 22be f3d4 aebe ff31 7b3d
00000270: 0c9c 6bbe 2502 99bc 19a7 803e 149b 80be
00000280: 46be 6ebd 4278 0a3f 388d c03c f9b7 01be
00000290: b6c1 1a3e a73d 67bd 7d1e 44be 8f00 11be
000002a0: 45b4 a1be 0630 013e f32f 05be 513e 803d
000002b0: f77f b5bd 364d c03c 92d6 a6be 6ed2 01bd
000002c0: 865b 813d 15b0 5cbe 2dee 7b3d f756 8ebe
000002d0: 92fb 823d eba5 06bd 5e28 61be 4dc3 cc3c
000002e0: 6935 113d 7279 ec3d 7459 e03d b57e 8d3e
000002f0: 9a67 a9bd 5cf7 0cbe 61a7 b7bd 7a2b bc3d
00000300: c7df 803b 9ffc a9be c4bf d83d 3d69 073d
00000310: f1cd d23d 362c 8f3d cabc f8be 706a 073e
00000320: 8cd8 b1bc 6389 6a3c 1647 49bc 1b27 d5bd
00000330: 6d52 8a3c ee73 d0bd 8d00 013e 4b3a bdbc
00000340: e3fe 823e 8000 94be 091d ba3d 2a9d 8dbe
00000350: 8234 4abd a084 48be 7882 2abe 9d59 6c3d
00000360: cac6 713e 92ea e3bd 1246 21be 4fdc 003e
00000370: 3e1b 98bb 62cc e13c 2747 b3bd a946 8e3e
00000380: bcf6 ffbd ee4c bcbe 4c96 40bd efe9 9f3c
00000390: 5eb8 163c 7861 a83c 4668 8a3d c989 693e
000003a0: c7ea babd 0283 f13d c3fe 943d 25b2 aabe
000003b0: 3c84 5d3a 7893 6b3e bda0 06bf 8c1a 7ebd
000003c0: 499a b13d 614c 38be d08f c33c b54d 10be
000003d0: fc2d bcbd cc53 d13d 2651 b1bb 9e3c 603c
000003e0: ff05 403e e56d 8f3d 99a0 4c3b 09b8 85be
000003f0: 9ba3 4bbe dd99 633e a07f 433e 97cd 2f3e
0.0068234582 0.26944628 0.15231791 0.2394386 0.060591124 -0.27838722 -0.02114075 0.20444897
0.13125052 -0.16365328 0.0031138477 -0.024257993 -0.09721307 0.5195736 0.11968898 -0.059177384
-0.07242827 0.11220616 0.0008868621 0.11760777 0.20486382 -0.13607314 0.14675155 -0.123603635
0.13998064 0.36747572 0.08573252 0.3558891 -0.14338021 0.100877516 0.108678184 0.0075111096
0.03173596 -0.008375853 -0.2572866 0.15767378 -0.062824935 0.08363517 0.21422772 -0.032015704
-0.043769088 -0.2565906 0.21719953 0.13939938 0.28301615 0.031736936 -0.17884612 0.12115869
0.36579606 -0.2662927 -0.05920675 0.0937847 0.022940619 0.0014401345 0.12405461 -0.09080302
0.17853229 0.31881237 0.11097921 -0.09039314 0.19115667 0.063804805 0.18415684 -0.058260474
0.04835522 0.09106574 0.05151444 0.009763183 -0.17621788 -0.06594441 0.3137998 -0.0139765395
-0.17846043 -0.14930531 0.33984873 -0.27566224 0.16693382 0.11718689 -0.21281685 -0.14956343
0.147238 0.19763069 0.16230007 0.1558872 -0.07705357 -0.43279332 -0.2917189 0.046520352
-0.08687488 -0.06770193 -0.020694265 -0.16724913 -0.1342123 0.10163601 0.25454482 0.18487464
0.10262349 -0.15863848 -0.007023605 0.22027783 -0.2132462 0.3731835 -0.23218773 0.036857434
-0.21787299 -0.08589012 -0.064911544 -0.029258607 0.18402515 0.19626099 0.021308567 0.02965785
-0.1433822 -0.115162 0.36997345 -0.22911926 0.012760725 -0.14424594 -0.11302299 0.18676543
-0.190659 -0.25542322 0.034131058 -0.006742151 0.04701882 0.28575274 0.0060321926 0.017143639
0.11717559 -0.02146002 0.15501866 0.018376838 -0.2650371 0.2203028 -0.09730365 -0.0363943
0.0911314 -0.38038158 -0.20390952 -0.02907201 0.0655853 -0.20428377 0.17004725 0.031828117
-0.09886951 0.03884287 0.017940197 0.2756162 0.11064998 -0.017619504 -0.025091726 -0.27197665
0.39784336 -0.15849249 -0.34146842 0.061326977 -0.23008746 -0.01867778 0.25127485 -0.25118315
-0.058286928 0.5408975 0.023504838 -0.12667836 0.15112957 -0.05645528 -0.19152255 -0.1416037
-0.31582847 0.12615976 -0.13006572 0.06261886 -0.08862298 0.023474317 -0.3258558 -0.031694822
0.06316285 -0.21551545 0.06150644 -0.27800724 0.063956395 -0.032873075 -0.21988055 0.02499547
0.035451327 0.11546601 0.10954562 0.27635732 -0.082717136 -0.13766235 -0.08967472 0.0918798
0.0039329263 -0.33200547 0.105834514 0.033059347 0.102931865 0.069908544 -0.48581535 0.13224196
-0.021709703 0.014314982 -0.012285015 -0.104078494 0.016885007 -0.10178362 0.12597866 -0.023099085
0.25585088 -0.2890663 0.09087569 -0.2765897 -0.04936648 -0.19581842 -0.16651332 0.05770265
0.23610988 -0.11128725 -0.15749386 0.12584041 -0.0046419194 0.027563278 -0.087538056 0.27788284
-0.12498233 -0.36777443 -0.047018334 0.019520728 0.00919923 0.02055429 0.0675817 0.22806467
-0.091268115 0.11792566 0.072751544 -0.33339038 0.00084501854 0.23005474 -0.5258902 -0.062037036
0.08672006 -0.17997886 0.023872286 -0.14092143 -0.09188458 0.10221061 -0.005411285 0.013686327
0.18752287 0.070033826 0.0031223653 -0.2611697 -0.1988663 0.22226663 0.19091654 0.1716827

mlp_extractor.value_net.1.bias f4 [32]
00000000: 7b14 7dbc e9ef 7dbc f5b5 813c cc25 733c
00000010: 42ce 84bc 4e68 913c c6b5 823c 2b09 79bc
00000020: 2639 81bc c3c6 883c 126b 733c d43a 6f3c
00000030: 4916 47bc f51a 533c 6bb7 8a3c e49e 8ebc
00000040: 1fe5 7ebc 41a3 843c 4bae 803c 886e 7d3c
00000050: d8a8 80bc 32b9 803c 194c 7dbc f71a 653c
00000060: 62a6 82bc df67 653c 32c7 85bc 67e1 7b3c
00000070: a9bf 81bc 3132 773c 8946 74bc 659a 7dbc
-0.015446777 -0.015499094 0.015833834 0.014840554 -0.016211633 0.017749932 0.015955817 -0.01519994
-0.01577432 0.01669634 0.0148570705 0.014601428 -0.012151309 0.012884845 0.016933164 -0.01740975
-0.015557556 0.016191127 0.01570811 0.015468247 -0.015705511 0.015713308 -0.015460038 0.01398348
-0.015948478 0.014001816 -0.016330335 0.015373564 -0.015838461 0.01508765 -0.014909395 -0.015478705

mlp_extractor.value_net.2.weight f4 [1, 32]
00000000: d2a4 c93e 359f c23e 1a36 b1be b397 b9bd
00000010: 7ec5 083e 8f64 1bbd 2f05 e7bd 1da7 2d3e
00000020: 1492 db3d f4b9 6fbd ad65 b0bd 4839 83bd
00000030: f9ed 183c 51ac 83bc 5594 27bd 7413 9d3d
00000040: dbc3 283e e134 d9bd 31f4 0dbf 2074 8abe
00000050: 5fbf fe3e 77a9 07bf f372 d03e 9179 07bd
00000060: 181f 1b3e 9a81 15bd fdf0 833d ba84 9bbe
00000070: ab2c 883e 87f0 cabd 644f ca3d 91fb f63e
0.3938356 0.3801209 -0.3461159 -0.090621375 0.13356587 -0.037937697 -0.112802856 0.1695828
0.107212216 -0.058526948 -0.08613143 -0.0640741 0.009334081 -0.016073378 -0.040912945 0.07669726
0.16480963 -0.10605789 -0.5545073 -0.2704172 0.4975538 -0.5299296 0.407127 -0.03307492
0.1514858 -0.03650055 0.06442449 -0.303747 0.2659658 -0.09909158 0.09878424 0.48238805
