Models/Aurora/gym/results/pcc_model_hard_10_0.pt (torch, 38742 bytes, 10 tensors)

mlp_extractor.policy_net.0.weight f4 [64, 30]
00000000: 0d2c a6be 60ad e8bd 18b2 85be a97c 6dbe
00000010: 41fb d0be 3487 c23d 11f6 72bd 17bd 2ebe
00000020: 6f0e 71be fbb6 3dbd 66c0 253d 6c27 933d
00000030: c35b 02be 561b 80ba b597 193e f6ad d03d
00000040: 800b 40bd 0701 0b3d 0057 0dbe 1b57 3ebc
00000050: 7f49 313c 356b 28bd feb0 aabe 31a6 3cbe
00000060: a525 52be 6fa2 ae3c 0c57 963e f615 56be
00000070: 1631 353e fd3f 51be 90c3 bbbc 2a2f 39bd
00000080: 26c7 a3bd 648c a83e 8e5d 973d 7713 6f3e
00000090: 631b 81bd 5ccf d83d 1c28 0dbd a987 ab3e
000000a0: 3ff1 af3e 1ca1 d43d 5406 b2be 9ba0 15be
000000b0: 1938 1c3c 093e d83c 723b d23e 6fab d9bc
000000c0: b4b4 7bbd 8f5b 50bc 6091 023e 3cc4 963d
000000d0: e8a7 733e e9cd 87be 0b43 c7bd 5395 01be
000000e0: afb7 5d3e d8f2 d93d aa4e 26be fc75 263e
000000f0: 472f 40be d764 0c3e d39a 64be 82fb 4dbe
00000100: fa70 d2bd bdaa 09be 0fd5 82bd 3237 783d
00000110: 5eda 18be b70d 7fbe 189b 8cbd 9bb3 a53d
00000120: 6df1 9cbe 5a25 363e c7e8 edbd 985a 2cbc
00000130: a498 213e 9877 25be d2b3 78be 85f2 a7bd
00000140: cdef d4bd 4b9e d1bc 3306 7fbe 45b5 663d
00000150: 5961 723e e039 593b 8620 5d3d 80d2 93bd
00000160: a6a2 3a3e 94ea b23d 1857 d6be 53ed 02be
00000170: 0717 363d b64d c83d 55a9 df3d 0173 2ebe
00000180: a45e 8fbd f25c 5a3d 4125 a9bd 8174 523e
00000190: ed86 cabd 3af2 1dbe 8dea 303e 1217 523d
000001a0: 1310 debd 5c83 2ebe 1f15 b33e b4d7 c03d
000001b0: 8bcd 15bd 5384 31be 91bc 9abc 0251 2a3d
000001c0: 2fa4 68be 509e 333c 29fe 943d 1514 0a3b
000001d0: 5987 30be 5103 3a3d c6f6 2a3e 297e 123d
000001e0: df37 c8bd 7735 2a3d c9a0 1dbd a662 7fbe
000001f0: fe4f 37bd 9c0c b0be 7a65 d6bd bfe6 24be
00000200: a8d2 9c3c 0502 2d3d ac6f 05be 0e68 2abd
00000210: 2e7e a6bd e3f9 f63d 0319 103c 143d 113c
00000220: edae 0e3e 25bf 69be 64fe efbd 14ce d43d
00000230: 86d1 603e 01de 0b3e 09cd 333d 1ecb b83c
00000240: 4bf0 623e d5b2 903e 2fcf 8f3d 4589 203e
00000250: 5ff6 9c3d 9c7e 11be c600 21bd bb68 92be
00000260: e908 e9bd 8a25 163d f992 8dbe 486c 91bd
00000270: 2cbc a1bd a708 483e adde 8a3d 1ce9 b9bc
00000280: fd93 c93d a41f 23bd fafe 163d 76a0 063d
00000290: 5c87 6f3d 6b81 f8bc a4e4 94bd e1b3 a83d
000002a0: 9002 bfbd 63ae 84bc 13e3 da3d fa38 253e
000002b0: 2c46 f83b 70bc 3e3e ee5f e9bc 0fc4 293d
000002c0: f083 6e3e 5b70 9abc cc2e 48be 943e 123f
000002d0: c9bb fc3d 33ef 30be d1a0 13bb daeb 8c3d
000002e0: e39f 83bd 624d b4be 959c afbd 2189 ea3d
000002f0: 6c4b 983c bc69 5fbe 250e 76be e575 1a3d
00000300: 6816 88be f681 a03d e12c 9c3e b458 993e
00000310: d522 da3a a164 7fbd a326 373e 187f 1ebe
00000320: bd96 7f3e 9699 d23c 684f 2b3d 4444 473d
00000330: f73c 8d3e 2499 99bd 033a 5b3d 2d89 dbbe
00000340: 2049 823c e38a 6e3d f540 5c3e fb3a dfbd
00000350: d087 643d c0d7 273e 43eb 23bd 5e27 383e
00000360: b890 903e 37d8 4fbd f8c9 17be 4af7 8abd
00000370: f6bb 6f3d 6286 8c3e ef01 eebd 250c 7bbd
00000380: 6d10 bdbe bd1a 0e3d ae70 4e3e 271f 2b3e
00000390: a9dd 063e 8392 f9bc 393e 06bf 31e3 9f3e
000003a0: fd3a 69be dc72 cb3b 694f 2f3e 51c9 813e
000003b0: ffe2 6a3c 6297 02be fb9a 043e 8dfd 343e
000003c0: ed9f febd a637 733d 6048 813e 55ff 2cbe
000003d0: b72f 4e3d 4097 3a3e 8659 a7be 7272 48be
000003e0: 778e 48be e176 903e 94a8 77be f8b9 dabc
000003f0: e4c2 5dbd 97b4 0b3d bc1b a63e c3d4 253e
-0.32455483 -0.11361194 -0.26112437 -0.23192085 -0.40816692 0.09498444 -0.0593167 -0.1706432
-0.23540662 -0.046317082 0.04046669 0.071852535 -0.12730317 -0.0009773772 0.14999278 0.101894304
-0.046885967 0.033936527 -0.13802719 -0.011617447 0.0108207455 -0.041117866 -0.3333816 -0.18422772
-0.20522173 0.021317689 0.29363286 -0.20906815 0.17694506 -0.20434566 -0.0229204 -0.045210995
-0.07996969 0.3291961 0.07390891 0.23347269 -0.06304052 0.10586426 -0.03446208 0.33501938
0.34363744 0.10382292 -0.34770453 -0.14612047 0.009534859 0.026396768 0.41060978 -0.026571004
-0.06145163 -0.012717142 0.12750769 0.073616475 0.2379452 -0.26524284 -0.09729584 -0.12654619
0.21652101 0.10642022 -0.16240945 0.16255945 -0.18768035 0.13710342 -0.22324686 -0.20115474
-0.10275455 -0.13444038 -0.06388294 0.060599513 -0.1492705 -0.24907576 -0.06865519 0.08090898
-0.30652943 0.17787686 -0.116166644 -0.010519646 0.15780884 -0.16158903 -0.24287346 -0.08200554
-0.10397301 -0.025588175 -0.24904709 0.056325216 0.23669948 0.0033146068 0.053986095 -0.07217884
0.18226108 0.087361485 -0.41863322 -0.12785845 0.044455554 0.09780447 0.109209694 -0.17036058
-0.07000473 0.053311296 -0.08259059 0.20552255 -0.09889016 -0.15424433 0.17276974 0.051291533
-0.1084291 -0.17042297 0.34977052 0.09416142 -0.036572974 -0.17335634 -0.018888744 0.04158116
-0.22718881 0.010963038 0.0727504 0.0021069099 -0.17239131 0.04541332 0.16695699 0.035764847
-0.097762816 0.041554894 -0.038483415 -0.24939975 -0.04475402 -0.3438462 -0.10468574 -0.16103648
0.019143417 0.042238254 -0.1303088 -0.04160314 -0.081295356 0.12059381 0.008795026 0.00886466
0.13933916 -0.22826822 -0.11718443 0.10390869 0.21954927 0.13658907 0.04389671 0.022557791
0.22161977 0.28261438 0.07021939 0.15677364 0.07664179 -0.14208454 -0.03930738 -0.28595528
-0.113786526 0.036656894 -0.27651194 -0.07100731 -0.07897219 0.1953455 0.06780753 -0.022694163
0.0984268 -0.039825097 0.03686426 0.03286787 0.058478698 -0.030335149 -0.07270172 0.08237434
-0.09326661 -0.016196435 0.10687842 0.16135016 0.0075767245 0.1862657 -0.028488126 0.04144674
0.23292518 -0.018852403 -0.19549102 0.57126737 0.12340505 -0.17278747 -0.0022526274 0.068809226
-0.0642698 -0.35215288 -0.085747875 0.114519365 0.018590651 -0.21817678 -0.24028833 0.03771009
-0.26579595 0.07837288 0.3050299 0.29950488 0.0016642461 -0.062351827 0.17885832 -0.1547817
0.24959846 0.025708001 0.041823775 0.048649088 0.27585575 -0.074999124 0.05352212 -0.42878094
0.01590401 0.05823792 0.21509154 -0.108999215 0.055793583 0.16390896 -0.040019285 0.17983767
0.28235412 -0.050743308 -0.14823139 -0.06785448 0.058528863 0.27446276 -0.116214626 -0.06129088
-0.36926594 0.03469347 0.20160171 0.16711102 0.13170494 -0.03046537 -0.52438694 0.3122802
-0.22776408 0.0062087607 0.17120136 0.25348905 0.014336347 -0.1275306 0.12949745 0.17674847
-0.12432847 0.059379242 0.2525053 -0.16894276 0.050338473 0.1822176 -0.32685488 -0.19574907
-0.19585596 0.28215697 -0.24185401 -0.026700005 -0.05414094 0.03410777 0.32443035 0.16194443

mlp_extractor.policy_net.0.bias f4 [64]
00000000: 3487 e637 270c d738 a8b2 5d37 ca19 77b8
00000010: b181 deb8 13f2 38b8 1513 d9b7 d215 83b7
00000020: d3f8 ab37 b67e 1539 08c9 7937 f80c 3638
00000030: f98a 3438 8870 92b8 a981 07b8 7005 5d38
00000040: cb19 0834 bb78 adb7 ebcd 6c38 826f eb38
00000050: 7976 21b8 c636 26b8 9e4f 9c37 8cc1 b5b8
00000060: 266b 3fb8 3f99 9cb7 50dd beb8 697c 6738
00000070: b89d 3237 1909 2db8 3d24 2f38 e1b2 2fb7
00000080: 6556 dab7 bb20 c138 b9a6 c436 bf88 5b38
00000090: 02a2 a737 1d9b 09b7 7468 7db7 652a 15b8
000000a0: ccf3 6738 9bb8 85b8 b5d9 3438 f9e8 40b8
000000b0: 8c82 34b8 cfc8 8bb8 4c2f c8b8 92c5 c1b8
000000c0: ce6f 6b37 9918 4537 2598 19b7 b8e2 6238
000000d0: 81eb feb8 5a28 eb38 a1a0 0338 49e9 c838
000000e0: 0579 48b7 d13b e936 7735 8fb8 7853 d3b8
000000f0: 2aaf 29b8 57a5 53b7 874f 02b9 1aa2 0eb7
2.7481095e-05 0.000102542625 1.3214223e-05 -5.8913407e-05 -0.00010609942 -4.4094468e-05 -2.5877302e-05 -1.5626578e-05
2.0500656e-05 0.00014256951 1.4888363e-05 4.340426e-05 4.3044773e-05 -6.982783e-05 -3.2307264e-05 5.269557e-05
1.267537e-07 -2.0679427e-05 5.645856e-05 0.00011226443 -3.8495727e-05 -3.9628496e-05 1.8633724e-05 -8.6668035e-05
-4.563774e-05 -1.866801e-05 -9.101129e-05 5.5190558e-05 1.06463485e-05 -4.1254887e-05 4.1757e-05 -1.0472461e-05
-2.6027856e-05 9.209054e-05 5.8606643e-06 5.2341024e-05 1.9983392e-05 -8.2019515e-06 -1.5104295e-05 -3.556385e-05
5.5301745e-05 -6.37632e-05 4.31181e-05 -4.599334e-05 -4.3036925e-05 -6.66544e-05 -9.545553e-05 -9.2397575e-05
1.4033123e-05 1.1747842e-05 -9.154935e-06 5.4093747e-05 -0.0001215553 0.00011213189 3.138243e-05 9.580196e-05
-1.1949106e-05 6.9509047e-06 -6.82873e-05 -0.00010076811 -4.0455874e-05 -1.2615076e-05 -0.00012427392 -8.501602e-06

mlp_extractor.policy_net.1.weight f4 [32, 64]
00000000: 1dcd 32be f8b0 8dbd 5023 eebd 30d7 94bc
00000010: dc55 9fbe 6705 11be d8fa 1ebe 8be7 4e3d
00000020: 80af 38be 9030 37be 9b60 123e b02a 09be
00000030: 86ca a53d 9fab 27be 4385 debd e8a1 e43c
00000040: f5bd 933d faa5 53be b841 463c fc0b 5ebc
00000050: ece2 14be c6be 363d 8036 293e 524f 243e
00000060: 1d4e 473e 3a54 be3e 25f0 383d 38c9 573d
00000070: 2733 1cbf 4314 90bd 6bad a83b e546 07be
00000080: 20bb adbc 82b8 ebbd f4f3 bbbe af66 c63e
00000090: 7a5a 84bd e368 3e3d c3ee acbd 3020 143d
000000a0: e9ae 823d 20b8 e1bd 548a 6e3d 9573 953d
000000b0: 79c6 983e 7067 ffbc 5d24 c6be 600a 9f3e
000000c0: 01ef 77be 32f2 8c3e fc9d 063e f2b8 c83d
000000d0: e311 44be 6a13 0a3d 1c53 42be 014b e03a
000000e0: 159a 49bd f8a3 2fbd d2b0 0b3d c069 0d3e
000000f0: d321 90bd 734c a5bd ab1f b53d eaf1 8f3d
00000100: 33db 1fbe 9c03 a4be 300d 4bbd 6e35 10bd
00000110: 2a19 5fbd 9f56 aebe af23 27bc 1d74 753e
00000120: 188c 6e3e 97c7 7a3e 051b 213e 7fe1 083e
00000130: 5aed 693e a26c 8a3d 2b35 9b3e 8006 253d
00000140: e934 2fbe 2981 dbbd fee2 02bd 7d92 4d3d
00000150: fe94 323e e134 8c3e 4ae4 b73d 8e2b e53d
00000160: ed1e 49bd d639 543d ec6a b0be e4ca 18be
00000170: 4326 9d3c 723e d2bd ff7d f5bd 68eb 373e
00000180: 2f00 383e ed2a d63d b55c 23be 3d8d 553d
00000190: 4629 733e 2281 3f3e 8436 80bd 58b1 8abe
000001a0: 5ef1 07be 8690 c63c 3354 dd3d c3f2 b2be
000001b0: 8191 0c3d ca1d 6fbc d394 063e 9000 163e
000001c0: 37da f83d 9b48 133e dd9b 1dbe 9c3f 41be
000001d0: 6573 0f3e 8a3e 82be 1b58 07be 4840 50be
000001e0: ecb6 75bc a698 d33d 9a39 d53e 2999 0d3e
000001f0: 2a19 a33e e89b d6bd 8e0f 0abe 28f8 b3bd
00000200: 52e0 403d d30d 03be eb0e 583e 06ac c5bc
00000210: 0340 943e ce22 603d 3671 98bd 9fba 0e3c
00000220: fb05 84be b0bf 513d 9244 a33d 926c 0bbe
00000230: 5ae1 76bd 7f41 85bd 267d 623d d221 f23d
00000240: a453 5c3e ffba 3fbd 2e2a af3e da13 d1bd
00000250: 540b 03be e057 c2bd 835c bbbe 7091 38be
00000260: c3ab 7abe d8bc 6bbe 6dac 5ebd 859e 6a3e
00000270: 5fd4 36be f184 5fbe ef5f 1f3e 63a1 93be
00000280: 7b6a 3fbd 9994 603e 2d57 153e 93eb be3d
00000290: b0e3 3d3d 78dc 88be 32cf a8bd 9907 aebe
000002a0: c952 25be 8d48 b4be 4280 093d 842c 0f3e
000002b0: 4696 6dbd cc5c 18be 8e44 993d b762 be3d
000002c0: b9f1 82be afa8 c43d 113e cebc bd33 fdbc
000002d0: 15af 513d 7ab1 a43c c162 a53d 991b d4bc
000002e0: 6be2 bdbe fa0c 283d 62a0 dc3e 18a1 a8bd
000002f0: 418e 573e aa19 77bd db83 3fbd 3b2e 5e3e
00000300: 3e55 87be 6521 063b b943 c83e 4f9c dabd
00000310: 5008 603d 9636 2cbc af16 3b3e bb9e ef3c
00000320: 0077 fcbb 3652 a0bd 6fb8 8d3d 3f6c 373b
00000330: 8112 a43e b5bb 583e fae9 b3be b91d 1cbe
00000340: dcef babd 26f4 103d 0cb0 343c 97e2 ae3d
00000350: ee5c e6bd ffcb 5e3e 65ed dc3d 4f3d 2b3e
00000360: 0d11 15be a3dc 56be 189d f43d 5827 76be
00000370: 1e9f cf3d a8bd 98be fcd2 d8bd f287 b1be
00000380: 9c83 6b3d e63c 3cbe 269a 243e 6aa4 8f3c
00000390: 4683 4bbb 5ebe 183e 9ac8 6f3e ebcb 3ebe
000003a0: 312d 2ebe 9f3f 463e c527 8d3e 41a1 943d
000003b0: acdc e03d a42b 64bc d935 0c3d e33b 593c
000003c0: e35c 03bd f9c2 943d 0f2a 4abe 31c5 263d
000003d0: adf8 a3be 4487 cd3d 082d 3d3e 87df 6e3e
000003e0: cf96 4e3e 207b 933e 0d0e 403e 87cc 133d
000003f0: c670 c0be 5bf2 3abe 783f c03d 880e d33d
-0.17461057 -0.0691852 -0.11627829 -0.018169016 -0.31120193 -0.14162217 -0.15525377 0.050513785
-0.18035698 -0.17889619 0.14294665 -0.1339519 0.08095269 -0.16374062 -0.108652614 0.027909234
0.07213966 -0.20668784 0.0121006295 -0.013552662 -0.14539689 0.04461553 0.16524696 0.16045883
0.19463392 0.37173635 0.045150895 0.05268213 -0.6101555 -0.070351146 0.005147626 -0.13210638
-0.021207392 -0.115098014 -0.3670956 0.38750216 -0.064625695 0.046486747 -0.08443978 0.03616351
0.06381018 -0.11021447 0.05823739 0.07297436 0.29838923 -0.031177253 -0.38699618 0.31062603
-0.24212267 0.2752853 0.13146204 0.098009005 -0.19147448 0.03370992 -0.18977016 0.0017112197
-0.04921921 -0.042880982 0.034104176 0.13809872 -0.070377015 -0.08071222 0.08843931 0.07028563
-0.15610962 -0.32034004 -0.049573123 -0.035207205 -0.054467358 -0.34050462 -0.010201379 0.23970075
0.23295629 0.244902 0.15732963 0.1336727 0.22844449 0.06759001 0.30314 0.040289402
-0.17110027 -0.10717995 -0.031954758 0.05018853 0.17439649 0.27384093 0.089790896 0.11189948
-0.04910176 0.05181297 -0.34456575 -0.14921147 0.019183284 -0.10265817 -0.119869225 0.17960894
0.1796882 0.10457406 -0.15953334 0.05213665 0.23746213 0.18701604 -0.06260398 -0.27088428
-0.13275668 0.024238836 0.10807075 -0.34950837 0.03431845 -0.014594505 0.1314271 0.14648652
0.12150996 0.14383166 -0.15391488 -0.18871921 0.14008863 -0.2543834 -0.13217203 -0.20337021
-0.014997225 0.1033185 0.4164551 0.13827957 0.31855136 -0.104789555 -0.13482496 -0.087875664
0.04708893 -0.12798242 0.21099441 -0.024129879 0.28955087 0.054720692 -0.07443468 0.008711486
-0.25785813 0.051208198 0.07972063 -0.13615635 -0.060273506 -0.06506633 0.055295132 0.11822857
0.21516281 -0.046809193 0.34211868 -0.102088645 -0.1279729 -0.09489417 -0.36594018 -0.1802423
-0.24479584 -0.23021257 -0.054363657 0.22912033 -0.1785445 -0.21828057 0.1556394 -0.28834066
-0.046732407 0.21931686 0.14584036 0.09322276 0.046359718 -0.26730704 -0.08242644 -0.33990172
-0.16144861 -0.35211602 0.03356958 0.13981825 -0.05800464 -0.14879149 0.07483779 0.09296172
-0.25575045 0.09602486 -0.02517608 -0.03090846 0.05119236 0.020104159 0.080754764 -0.025892066
-0.37086806 0.041028 0.43091112 -0.08233851 0.2105036 -0.06032721 -0.046756607 0.21697323
-0.26432222 0.0020466682 0.39114168 -0.10674345 0.054695427 -0.010511061 0.18270372 0.029250493
-0.0077046156 -0.078281805 0.069199435 0.0027988104 0.32045367 0.21165355 -0.35139447 -0.15245713
-0.09127781 0.035389088 0.011028301 0.08539312 -0.11248194 0.21757506 0.10787467 0.16722606
-0.14557286 -0.20982604 0.11944026 -0.24038446 0.10137771 -0.29832196 -0.10587117 -0.3467403
0.05749856 -0.18382606 0.16074428 0.017534453 -0.0031053587 0.1491637 0.23416367 -0.18632476
-0.17009427 0.19360207 0.27569404 0.07257319 0.1097959 -0.01392642 0.03423104 0.013258907
-0.032071006 0.072637506 -0.19742607 0.0407154 -0.32025662 0.100355655 0.1847421 0.23327456
0.20174716 0.28804874 0.1875536 0.036083724 -0.3758604 -0.18256514 0.09387106 0.10305506

mlp_extractor.policy_net.1.bias f4 [32]
00000000: 09fd a136 9b37 1db8 08ee 0038 fe40 ce36
00000010: 2937 2239 9d63 d237 4669 cc36 f62b 5b38
00000020: 3ee2 4438 920c fcb8 e838 0039 53bd 8db8
00000030: 6c20 f2b7 fa56 8738 60fc 4db8 0ed7 73b7
00000040: eb3c 92b8 da13 ce36 9801 a438 18f9 5a38
00000050: ea2e 8037 f281 aab8 a71c 89b8 a19d 84b8
00000060: d237 83b8 9b5f 4a38 ac17 62b8 2537 c3b7
00000070: 57b4 3437 7e0b 3f38 5dee b3b6 14ae 6cb7
4.827631e-06 -3.7483504e-05 3.0739262e-05 6.1468445e-06 0.00015470073 2.5080337e-05 6.091929e-06 5.225461e-05
4.6940746e-05 -0.00012018638 0.0001222823 -6.758668e-05 -2.8863746e-05 6.453502e-05 -4.911085e-05 -1.4534e-05
-6.9731694e-05 6.1415894e-06 7.820426e-05 5.2207237e-05 1.5280635e-05 -8.130436e-05 -6.538006e-05 -6.323611e-05
-6.256964e-05 4.8249593e-05 -5.3904645e-05 -2.327149e-05 1.0770825e-05 4.554865e-05 -5.362365e-06 -1.4107227e-05

mlp_extractor.policy_net.2.weight f4 [1, 32]
00000000: e36a a5bc ff93 203e aa8c 03be c029 d3bc
00000010: cfc1 25bf 787a d6bd 640e d1bc 174d 5fbe
00000020: 53e4 48be ee9d 003f e4ed 02bf 919f 903e
00000030: 75a7 f63d 7b17 8abe 96ef 513e f5ce 783d
00000040: fa1b 953e 7b00 d1bc 836a a7be 907e 5fbe
00000050: 6be5 82bd 1608 ae3e f6d8 8b3e 7134 873e
00000060: 88e1 853e 0168 4ebe f2b6 663e 0739 c73d
00000070: eb6f 39bd 73f3 42be 84cc b63c a13a 713d
-0.02019257 0.15681456 -0.12846628 -0.025776744 -0.64748853 -0.10472578 -0.025519557 -0.21806751
-0.19618349 0.5024098 -0.5114424 0.2824674 0.12043659 -0.2697104 0.20501551 0.060744245
0.29122907 -0.025512924 -0.3269845 -0.21825624 -0.06391414 0.33990544 0.27313966 0.26407197
0.2614863 -0.20156862 0.22530726 0.09727674 -0.04527275 -0.19038181 0.022314318 0.058893804

mlp_extractor.value_net.0.weight f4 [64, 30]
00000000: 10db 0a3e 06b3 c03c 79af 53bd 8f4b 33be
00000010: 087c 7b3e 886c 02bf 760a 203e 2f71 07bc
00000020: e84f adbe 0d7a a4bd 2699 d2be cf4c 583e
00000030: b415 c43d 3216 d0bd b106 02b8 dd4e b4be
00000040: c13a e9bd 0b28 04be 60e6 63bd c2e1 82bd
00000050: c510 cb3d e7fc 903e 6c94 dabd b460 dbbb
00000060: d1a0 b93e 4348 9e3e 6777 5a3e 0cb3 f7bd
00000070: acb2 3d3d 0fa8 6f3b bad3 b3bd 242e 1fbe
00000080: d003 42bb 04d3 0fbe 2bb3 8abe a27a 4f3e
00000090: 4f76 193c 9b3c 47be 6d8a e93c e648 4bbc
000000a0: 6307 c13d 5849 0a3c c2e4 b63e 6567 553e
000000b0: 91be 113e 7bbc afbe 5eb0 39be 5fcb 413d
000000c0: 130c 79be fa51 01be 4794 103e 70f0 b93d
000000d0: 0e19 01bf a606 853e 8fb0 cebd c128 a73d
000000e0: e39b 2c3e f5dc 283e c12d f83d 5a66 ea3c
000000f0: 8573 093e 85f8 e2bd 1541 15be 8f29 843d
00000100: 3a3d 8abd 52a7 b33b 0bce 5fbe 45b8 0ebe
00000110: ef6e 3cbe 9f2f 263e 159e 1cbd 7a17 27be
00000120: 0642 f33b 97b1 343e 0b7d 4d3e b250 d2bc
00000130: 99dd 29bd 1f8a c43d c716 0ebd 2bf1 f9bd
00000140: 6338 76be 2ac6 d4bd 9bd7 443c 18a5 1ebd
00000150: 19a2 c7be 578e fb3c cc46 dc3d ef0c 1cbe
00000160: a2cb 003e cb24 b4be 9d1f f9bc dc76 773c
00000170: a4d7 eabd 65a8 88be 8347 d63b c689 81be
00000180: 0389 b1be c9c5 2bbd e850 96bd b5f0 46be
00000190: f03c ee3d bcdf 25bb 107b 2abe 8ddf 9abd
000001a0: 63e0 02be 8e6f 84bc b845 ff3c 4a83 fabd
000001b0: e998 b1bc ed02 7ebe 36a6 113e c789 39be
000001c0: e530 873e 1504 e03e 07a4 f53c 5419 d0bd
000001d0: 0e7a 233d 726d 0d3e 8696 7cbe aca8 4c3d
000001e0: 27ff bebd 4997 f83d be43 1e3e c659 c2bc
000001f0: e889 30bd 522b 763d 8e9c 033e a09a 35be
00000200: 58a5 153e 7509 213e b41b 903e a495 513d
00000210: dc44 6dbe 4b21 adbe 6a00 393e 1e5e acbd
00000220: e611 92bc 2a40 0fbe 7859 0dbd 248c 973d
00000230: d452 76be 0b4f 813e 69b4 2ebe e552 923e
00000240: c0fc 0f3b 075e 89bc 4ed3 a6bc 5275 bfbd
00000250: c731 773e b210 e73d 1fcf a63e 1875 a3bc
00000260: 416e 3dbe 4788 79be df82 e13e 83cc ca3d
00000270: 9d5f 89be 99dd 43bd 909e cc3d 2cc5 673e
00000280: 0d85 913e 9e12 393d 9d65 5a3d de3a fe3d
00000290: f834 093f c444 2fbd 39c3 13bd cb03 a23e
000002a0: 7399 493d 8e75 8bbe 3712 94bc 8cdc 8c3d
000002b0: c2bf 3bbd ca64 0a3d 8ed2 193e 3c65 943d
000002c0: cf6a 123d 35c5 10be 1f5b 9f3d 1742 033d
000002d0: 39c8 0dbe 9659 ba3d 9995 90bd 2c4b ad3d
000002e0: c872 7ebe f8dc 94bd ce74 7ebe c465 9cbe
000002f0: 405a 2e3e 6fd9 0bbf 8d6d 8dbc 5307 823d
00000300: c829 bb3d c4af 4a3e fcc4 383e 905e d53b
00000310: 7f3b 04bd 1ae9 c2be 153e 893e a876 343e
00000320: 533d 143e 6c9a 8b3d 4f79 8c3d 07c1 0d3e
00000330: 1699 223e c913 a13e 3d12 0bbe f289 743d
00000340: 0cb3 273d c03d 0fbe e806 963d b868 67be
00000350: d330 253e be37 a73b 65ff c9bd c7bc 333e
00000360: ab3e 8b3e 8190 76be 6c83 07be f87a 6bbe
00000370: 3e49 0b3e cb74 9e3d 00fa dcbd 7ac8 50be
00000380: 17f1 8dbe 3b9c 39be fc8e ecbd c473 ea3e
00000390: a0be 643e f8d0 4f3d 705a 783e d72a 6c3c
000003a0: 6b9f e33c 20aa 903e 83c1 6d3e 3fa0 83be
000003b0: 714a edbc 12b7 f6bd bd08 8b3d 9eff 413e
000003c0: 2e58 d53d 38e1 9bbd 16df 963d d2d8 a4be
000003d0: 7b5d a33e 96b5 0d3e c067 bd3e 1f4a a53d
000003e0: 32c2 be3e 5fb4 153e e886 b239 b7bd 413e
000003f0: 181f cbbd a1ac 033e d86f 47bd 832e 28be
0.13560128 0.023522865 -0.051681016 -0.17509292 0.24559033 -0.50946856 0.1562899 -0.008266731
-0.33850026 -0.08031092 -0.41132468 0.2112305 0.09574452 -0.101604834 -3.1000647e-05 -0.35216418
-0.113881595 -0.129059 -0.055639625 -0.06390716 0.09915308 0.2831795 -0.106728405 -0.0066948775
0.36255506 0.30914506 0.21334611 -0.12094697 0.046312973 0.0036568677 -0.08780618 -0.15544945
-0.0029604323 -0.1404534 -0.2708982 0.20261624 0.009366586 -0.19456713 0.02850839 -0.012407517
0.09425237 0.008440338 0.35721403 0.20840223 0.14232852 -0.34323487 -0.18133685 0.04731309
-0.24321012 -0.12628928 0.14119063 0.09079063 -0.50428855 0.25981635 -0.1009227 0.0816207
0.16856341 0.16490538 0.12118102 0.028613258 0.13422973 -0.110825576 -0.14575608 0.06453239
-0.06749959 0.0054825926 -0.21855943 -0.13937481 -0.18401693 0.16229104 -0.038236696 -0.1631755
0.007423642 0.1764587 0.20067231 -0.025673244 -0.041471098 0.09596657 -0.03468969 -0.12204202
-0.24044947 -0.10389359 0.012014295 -0.038731664 -0.38990858 0.030707521 0.10755691 -0.15239309
0.1257768 -0.3518432 -0.030410582 0.015104022 -0.114669114 -0.26690975 0.0065392866 -0.25300425
-0.34674844 -0.04193667 -0.073396504 -0.1942776 0.11632717 -0.0025310358 -0.16648507 -0.0756217
-0.12780909 -0.016166475 0.031161174 -0.12232073 -0.021679359 -0.24805804 0.1422356 -0.18118964
0.2640449 0.43753114 0.02998544 -0.10161081 0.039911322 0.13811281 -0.24666795 0.049965546
-0.0932601 0.1213823 0.15455529 -0.023724448 -0.043100268 0.060099907 0.1285269 -0.17734766
0.14613855 0.15726264 0.28146136 0.0511681 -0.23170799 -0.33814463 0.18066564 -0.08416389
-0.0178308 -0.1398932 -0.034509152 0.073997766 -0.24055034 0.25255617 -0.17061009 0.28578869
0.002197072 -0.016768469 -0.02036443 -0.09348549 0.24140082 0.11282481 0.32579896 -0.019953296
-0.1849909 -0.24368392 0.4404516 0.09902289 -0.2683076 -0.047818754 0.09991181 0.22633809
0.28421822 0.04518377 0.053319562 0.12413572 0.5359645 -0.04279019 -0.03607485 0.3164352
0.049218606 -0.27238125 -0.018075092 0.068780035 -0.04583717 0.033787526 0.15021726 0.072458714
0.03574639 -0.14137729 0.07781052 0.03204545 -0.1384591 0.090991184 -0.070597835 0.084616035
-0.24848473 -0.07268709 -0.24849245 -0.3054639 0.17026615 -0.5462865 -0.017264152 0.06349053
0.091388285 0.19793612 0.18043894 0.006511517 -0.032283302 -0.38068467 0.26805177 0.17623389
0.14476518 0.06816563 0.06859075 0.13843165 0.1587871 0.31460407 -0.13581176 0.059701867
0.040942237 -0.139884 0.07325536 -0.22598541 0.16131906 0.0051030805 -0.09863166 0.17552482
0.2719625 -0.24078561 -0.13233727 -0.22996128 0.13602158 0.0773712 -0.10789871 -0.20388976
-0.27723 -0.18126003 -0.115507096 0.45791447 0.22338343 0.050736398 0.24253249 0.014414511
0.027785977 0.28254795 0.2321835 -0.25708196 -0.02896616 -0.12046637 0.06788776 0.18945166
0.104172096 -0.076113164 0.07366769 -0.3219667 0.31907257 0.13838801 0.36993217 0.08070778
0.37257534 0.14619587 0.0003405132 0.18920027 -0.0991804 0.12858821 -0.048690647 -0.16423993

mlp_extractor.value_net.0.bias f4 [64]
00000000: a735 7cbc c7fc 5bbc 938d 2a3c d644 0c3c
00000010: b8be b33c 487d 863c 70b3 5ebc 4e6d 5dbc
00000020: 7d86 843c ab44 90bc 44bc 593c 3061 4f3c
00000030: 445f 46bb f7ef 85bc b797 adbc edac 663c
00000040: 8a34 1fbc 1f87 64bc 6d78 63bc 9109 8f3c
00000050: ef5d 593c c4fd 2abc bae4 a53c 5b60 83bc
00000060: 40d2 4ebc 786a 74bc 7b77 5cbc c237 79bc
00000070: b2a7 8ebc 7656 3c3c 6ff9 9a3c 0c49 81bc
00000080: 87fb 7abc c49a a63c 4bf9 503c c595 80bc
00000090: a6c3 803c a4ef 85bc 1fa1 56bc a478 643c
000000a0: 4a41 523c 2592 1c3c 583d 7c3c ea56 783c
000000b0: 62fc 38bc 52bb 2f3c 45e1 8dbc a222 3bbc
000000c0: 5142 5ebc 856b 903c 9e01 85bc cf15 7bbc
000000d0: cdc7 abbc 35f4 81bc f8d3 47bc 6b84 7fbc
000000e0: d637 883c e7d9 913c 7b19 8abc f3c9 7d3c
000000f0: e820 93bc 5298 65bc c4d5 863c e987 52bc
-0.015393651 -0.013426966 0.0104097305 0.008561334 0.021941528 0.01641716 -0.013592586 -0.01351483
0.01617741 -0.017610868 0.013289515 0.012657449 -0.0030269185 -0.016349776 -0.021190507 0.014079315
-0.009717116 -0.013948231 -0.013883692 0.017460616 0.013267024 -0.010436479 0.020250667 -0.016037157
-0.01262337 -0.014917962 -0.013456221 -0.015211048 -0.017413948 0.011495223 0.018917767 -0.015781902
-0.015318758 0.02033747 0.012754749 -0.015696416 0.015718292 -0.016349621 -0.013099938 0.013944779
0.012832949 0.009556328 0.015395485 0.015157441 -0.0112906415 0.010725813 -0.017319331 -0.011421831
-0.013565616 0.017629394 -0.016236123 -0.015325024 -0.020969296 -0.015863517 -0.012196533 -0.015595536
0.016628187 0.0178041 -0.016857853 0.015490043 -0.017960027 -0.014013367 0.016459353 -0.012849786

mlp_extractor.value_net.1.weight f4 [32, 64]
00000000: 5bb8 a93b 1d1d 8a3e 7aed 1a3e 3d43 743e
00000010: a663 813d cccf 8dbe 3bf8 a8bc fcf3 513e
00000020: 3d01 083e 7844 29be be0f 0e3b 841d cfbc
00000030: 00dd c4bd a196 043f bcb6 f03d 2e6d 74bd
00000040: 7608 93bd 5bf4 e73d b98c 81ba 8377 f53d
00000050: 08c7 503e 8cc8 0cbe af26 183e b4ef 00be
00000060: cc98 0d3e b753 bb3e 1aab b03d 8f80 b53e
00000070: fe81 14be 9a67 cd3d 6b37 e73d 26c1 b63b
00000080: 4864 f83c 2206 cebb 7b3b 84be f2c3 1f3e
00000090: 9d1f 7bbd 6f37 a83d cadb 5b3e 0bfb f5bc
000000a0: 7bd0 35bd 00ea 83be 7729 603e 644e 113e
000000b0: d877 913e 11d4 fa3c 6a3e 39be 1544 fa3d
000000c0: a0b9 bb3e cc78 87be 032b 79bd ff4c bb3d
000000d0: aae4 ab3c 98ec 3fba 1154 fa3d f9aa bfbd
000000e0: 2974 383e 74fc a33e 7a57 e03d d53d b6bd
000000f0: 3ac0 403e ce9a 813d 9f2d 3e3e 44a0 6dbd
00000100: b943 3f3d 0e25 bb3d f8c5 4e3d 2e0f 113c
00000110: c2c7 31be 7c22 84bd 5aee a03e 3a53 5bbc
00000120: fd1e 35be c097 1abe 7e83 ad3e b6ab 8dbe
00000130: b110 2c3e 0d95 ec3d 2b26 5cbe 8eaa 19be
00000140: a26d 173e 0e77 4b3e f346 243e 05f4 213e
00000150: 32d5 9fbd 5352 debe 2c69 94be c005 353d
00000160: dc71 b5bd 06f8 8dbd 6823 a5bc 1fb4 2cbe
00000170: 3123 0bbe 8ff2 ce3d f47e 843e 3850 3b3e
00000180: d53d cf3d ea49 20be 6a50 03bc c8da 5f3e
00000190: dccb 58be 994b be3e 2144 6dbe 0931 1f3d
000001a0: cdbd 5fbe 6f15 b2bd 5d67 81bd 8226 dbbc
000001b0: 9494 3d3e d4cf 473e 2b93 9d3c 5697 fb3c
000001c0: fdf0 11be 5356 e8bd ae95 bc3e 7303 6dbe
000001d0: e8af 303c 72f1 15be 0c3f ebbd 3067 3c3e
000001e0: ac94 41be ef03 82be c7d8 053d 9f44 aebb
000001f0: 7987 343d 9109 923e 6172 f93b 4d7a 8e3c
00000200: d789 f33d cb81 b2bc 70db 1f3e f85f 9e3c
00000210: ec13 89be 120c 603e 1265 c8bd 359f 17bd
00000220: bb37 b73d 3bdc c1be 1ac5 4fbe ae2c e5bc
00000230: cdf4 833d 8e64 4fbe 5074 303e 6787 043d
00000240: f7dd cbbd 097a 1a3d 7d93 a23c f3e5 8b3e
00000250: b3c0 e43d 5bf3 83bc 947b ddbc 3c05 8abe
00000260: 23a0 cc3e 8e8d 20be b91e afbe 1aa4 803d
00000270: 93d2 69be 3ef1 93bc 00d9 7c3e 391f 7fbe
00000280: 7c8b 68bd 47e8 093f 1a25 c93c abd8 ffbd
00000290: 1b1c 193e 20b3 60bd 50a3 44be ef28 13be
000002a0: f05d a1be 3657 023e 260b 07be b408 763d
000002b0: 96e9 b7bd 4022 ca3c 59bb a5be 6365 06bd
000002c0: fffd 7e3d 0789 5ebe d881 813d c01c 8dbe
000002d0: e439 873d 5ce3 fabc f52a 5fbe 79a6 e33c
000002e0: bf3c 0a3d 3e48 e93d 587d e33d 17ba 8c3e
000002f0: aa21 a3bd 0f69 0cbe 350f bbbd 17a3 bb3d
00000300: 0590 ab3b 4d1d aabe 2b86 da3d 5f2b 0a3d
00000310: 2b0b cf3d b3aa 8c3d feed f8be 57ee 063e
00000320: feb0 bcbc 0b39 803c e7b9 3cbc 8061 d3bd
00000330: a4a3 833c f1b2 cdbd 75bb 023e 112e babc
00000340: 5bbe 823e d777 94be 360f bc3d 6983 8ebe
00000350: 23ea 46bd db3d 47be 5609 2cbe 7b04 733d
00000360: 043c 733e 9936 e1bd f7ab 21be 5817 023e
00000370: 38a7 59bb 396d e53c 64cc b8bd 7c0c 8f3e
00000380: 7b6f fdbd fe1b bdbe ba2e 3dbd 97ed aa3c
00000390: 0297 023c 55c4 b23c 6da9 893d d6f0 673e
000003a0: 8cf9 b9bd 0a53 f33d 492c 923d a278 abbe
000003b0: a619 cdb8 c096 6c3e ce3b 06bf a5e8 80bd
000003c0: 9031 b03d 72b8 39be 3bae ce3c 8ac3 0ebe
000003d0: 67f7 b8bd 3a48 d43d 7e03 80bb 1a8c 773c
000003e0: 5ea6 3e3e 1908 8d3d 3f83 8e3b 8154 86be
000003f0: 107c 49be dcea 633e da2b 423e 6aa0 2f3e
0.0051794476 0.26975337 0.15129653 0.23853774 0.063178346 -0.276976 -0.020626178 0.20503229
0.13281722 -0.16530025 0.0021676864 -0.025282629 -0.09612465 0.5179234 0.11753604 -0.059674434
-0.07179348 0.11325904 -0.0009883858 0.11985686 0.20388424 -0.13748378 0.14858507 -0.1259144
0.13827819 0.36587307 0.08626385 0.35449645 -0.14502713 0.10029526 0.11289867 0.0055772243
0.030321255 -0.006287352 -0.2582663 0.15602091 -0.061309446 0.08213698 0.21470562 -0.030026933
-0.044388276 -0.25764465 0.21890818 0.1419006 0.28411746 0.0306187 -0.18090215 0.12220017
0.36665058 -0.26459348 -0.060832035 0.09145545 0.020983059 -0.0007321327 0.12223066 -0.09358782
0.18013062 0.32028544 0.10954185 -0.08898512 0.18823329 0.06328355 0.1857209 -0.05801417
0.046695445 0.09137927 0.050481766 0.008853717 -0.17361358 -0.0645189 0.31431848 -0.013386542
-0.17687602 -0.1509695 0.33889383 -0.27670068 0.16803242 0.11551867 -0.21498935 -0.15006468
0.14787915 0.19869635 0.1604269 0.15815742 -0.07804336 -0.43422183 -0.2898649 0.044194937
-0.088596076 -0.06932072 -0.020158485 -0.16865586 -0.13587643 0.10104858 0.25878108 0.1829232
0.101192154 -0.15653196 -0.008014778 0.21860802 -0.21171516 0.3716705 -0.2317052 0.038865123
-0.21849747 -0.086954944 -0.06318543 -0.02675176 0.1851371 0.19512874 0.019235214 0.030711811
-0.14252086 -0.1134459 0.36832947 -0.23145847 0.010784127 -0.14642885 -0.114866346 0.18398738
-0.1890437 -0.25393626 0.032677438 -0.005318239 0.04407451 0.28522924 0.007612512 0.017392302
0.11891525 -0.021790406 0.15611053 0.01933287 -0.26773012 0.21879604 -0.09784903 -0.037017066
0.089461766 -0.37863335 -0.20290032 -0.027975406 0.064431764 -0.20253202 0.1723187 0.032355692
-0.09954446 0.037714038 0.019845719 0.27323875 0.11169567 -0.016107252 -0.027036466 -0.2695712
0.39965925 -0.15678999 -0.34203127 0.062813 -0.22834234 -0.01805937 0.24692154 -0.24914254
-0.056773648 0.5387005 0.024553824 -0.12492498 0.14952128 -0.054858327 -0.19202924 -0.14371084
-0.3151698 0.12728581 -0.13187847 0.060066894 -0.089801 0.024674535 -0.32369497 -0.032811534
0.06225395 -0.2173196 0.06323594 -0.27560997 0.06602839 -0.030625992 -0.2179373 0.027789341
0.03374934 0.11390732 0.11107892 0.27485725 -0.07965405 -0.13711952 -0.0913376 0.09161966
0.0052356743 -0.3322548 0.10670122 0.03373277 0.10109552 0.06868496 -0.48619074 0.13176857
-0.023033615 0.0156522 -0.011518932 -0.10321331 0.01606924 -0.10043896 0.12766822 -0.022727044
0.25535855 -0.2899768 0.09182589 -0.27834633 -0.048563134 -0.1945719 -0.16800436 0.059330445
0.23753363 -0.10996742 -0.15788256 0.12704217 -0.0033211242 0.028006183 -0.090233594 0.27939212
-0.12374779 -0.3693542 -0.04618714 0.020865245 0.007970573 0.021822134 0.067217685 0.22650465
-0.090808004 0.11881073 0.07137353 -0.33490473 -9.779939e-05 0.23104382 -0.52435005 -0.062943734
0.08603203 -0.18136767 0.025229564 -0.1394178 -0.09031563 0.103653386 -0.0039066663 0.015109086
0.18618152 0.0688631 0.004349142 -0.26236346 -0.19676232 0.2225756 0.1896204 0.17151037

mlp_extractor.value_net.1.bias f4 [32]
00000000: cbc6 68bc 0768 69bc b9bd 6d3c 0907 623c
00000010: 1b40 73bc 8026 863c b8a6 703c fd16 66bc
00000020: 8e78 6dbc 39d3 7b3c 5536 623c 0840 5f3c
00000030: cb7b 40bc f399 493c 3c74 803c eda3 81bc
00000040: 10e7 69bc 3997 733c 080f 6c3c 5f04 693c
00000050: ec15 6cbc b022 6c3c 33ef 68bc bcc6 573c
00000060: 8a05 70bc 500d 583c 02d7 76bc d4fa 673c
00000070: 01d2 6dbc 63ed 643c 16f1 62bc 771f 69bc
-0.014207552 -0.014245993 0.014510565 0.013795623 -0.014846827 0.01637578 0.014688186 -0.014043567
-0.0144940745 0.015370184 0.013806899 0.013626106 -0.011748265 0.012304771 0.015680425 -0.015825236
-0.014276281 0.014867597 0.014407881 0.014222234 -0.014409523 0.014412567 -0.014217186 0.013169941
-0.014649758 0.013186768 -0.01506591 0.014158923 -0.014515401 0.013972613 -0.013851425 -0.014228693

mlp_extractor.value_net.2.weight f4 [1, 32]
00000000: 1682 c93e 1a08 c23e 3f16 afbe 3845 bbbd
00000010: 8c3d 043e 3cde 0ebd 58d3 e3bd 8a19 2e3e
00000020: 6cc9 d43d 6aae 64bd 6817 b1bd 46a8 84bd
00000030: 8cb9 2c3c 4cdf 86bc 4945 20bd 41b7 8f3d
00000040: 40ec 233e 4406 d3bd 563f 0dbf 7857 89be
00000050: 7596 fd3e 06f3 06bf ce41 d03e 93db 08bd
00000060: f6ca 183e fb02 19bd 403b 803d f8bd 9bbe
00000070: 7c18 863e 926a c9bd 7dbb cc3d 3ecc f63e
0.3935706 0.37896806 -0.3419666 -0.09144062 0.12914103 -0.034879908 -0.11124295 0.1700193
0.10389981 -0.055830397 -0.086470425 -0.06477408 0.010542285 -0.016463898 -0.039128575 0.07017375
0.16008091 -0.103039294 -0.5517477 -0.26824546 0.49528852 -0.52714574 0.40675205 -0.033412527
0.14921173 -0.037356358 0.06261301 -0.30418372 0.26190555 -0.0983478 0.09996698 0.482027
