Models/Cardinality/nets/mscn_50d.onnx (onnx, 69712 bytes, 15 tensors)

sample_mlp1.bias f4 [50]
0.18993065 0.015263441 -0.102987714 0.38586995 0.1825669 -0.10714704 -0.33338073 0.0003216297
0.15413369 -0.066534646 -0.28354153 0.17668948 0.22222319 -0.38078693 0.07324036 -0.13187224
-0.18236153 0.15280025 0.36249405 0.1992456 -0.08132188 0.0105467 -0.094087005 0.06187222
0.2720014 -0.39072275 -0.3813573 0.23372489 0.20606461 -0.11868886 0.34295636 -0.24378057
-0.36703444 -0.09347153 -0.07366711 0.1007944 0.17685291 0.045761652 -0.26944396 0.017842975
0.16949886 0.15547681 -0.13655658 -0.032131452 -0.35433915 0.32211924 0.13779138 0.34035343
-0.37899098 0.2640811
00000000: 2e7d 423e 8313 7a3c 39eb d2bd bf90 c53e
00000010: d1f2 3a3e e86f dbbd e1b0 aabe 68a0 a839
00000020: 39d5 1d3e 5143 88bd 5b2c 91be 16ee 343e
00000030: 7a8e 633e 81f6 c2be 0bff 953d 8409 07be
00000040: fbbc 3abe ab77 1c3e d298 b93e 0a07 4c3e
00000050: 168c a6bd 11cc 2c3c b0b0 c0bd ba6d 7d3d
00000060: c443 8b3e d00c c8be 4441 c3be 9455 6f3e
00000070: 9a02 533e 2513 f3bd fa97 af3e 9da1 79be
00000080: f0eb bbbe 006e bfbd c8de 96bd 4b6d ce3d
00000090: ee18 353e 9270 3b3d 8ff4 89be 6e2b 923c
000000a0: 1c91 2d3e 5035 1f3e 7dd5 0bbe 459c 03bd
000000b0: f16b b5be d0ec a43e 2f19 0d3e ce42 ae3e
000000c0: 1b0b c2be a335 873e

sample_mlp2.bias f4 [50]
0.028124847 0.026792793 0.053105965 -0.030973047 -0.002069043 -0.13088305 0.082795374 -0.13052595
0.074991055 0.09946596 0.037401184 0.08575006 0.07050838 0.043876078 0.002982077 -0.047981188
0.04645902 -0.06685836 -0.012124076 0.02497205 0.010057967 0.013982444 0.031708114 -0.113832824
0.08075795 -0.0577211 0.10628161 -0.0686971 0.111362934 0.000333258 -0.0972351 0.059867065
0.079210356 0.09470353 0.06987159 -0.004664944 0.11570831 -0.09029108 -0.13328764 0.004331804
0.097087905 -0.042462587 -0.12967572 -0.09922696 -0.09468689 -0.009221799 0.077953614 -0.055965293
0.07209404 -0.06168819
00000000: 1466 e63c 8f7c db3c a485 593d 30bb fdbc
00000010: c898 07bb 3506 06be 9f90 a93d 98a8 05be
00000020: e994 993d cfb4 cb3d fc31 193d ba9d af3d
00000030: b366 903d 67b7 333d f36e 433b ec87 44bd
00000040: d04b 3e3d 09ed 88bd 0fa4 46bc 2f92 cc3c
00000050: 2cca 243c 9f16 653c 5ee0 013d 2f21 e9bd
00000060: 6d64 a53d f66c 6cbd 2caa d93d 11b1 8cbd
00000070: 4012 e43d 22b9 ae39 3223 c7bd 2b37 753d
00000080: 0a39 a23d edf3 c13d d618 8f3d 63dc 98bb
00000090: 7af8 ec3d 88ea b8bd 8e7c 08be cef1 8d3b
000000a0: 06d6 c63d 40ed 2dbd b6c9 04be 8137 cbbd
000000b0: 33eb c1bd 0717 17bc 25a6 9f3d dd3b 65bd
000000c0: 0aa6 933d c1ac 7cbd

predicate_mlp1.bias f4 [50]
0.076842144 0.1276001 0.034394342 -0.19264594 0.054000348 0.2509803 -0.22395884 0.09194972
0.21526957 -0.0021273454 -0.036873434 0.24163374 0.07312515 0.038947664 0.22590572 0.24056728
0.22294417 0.067300655 -0.17731337 0.22313155 0.091356196 -0.25887838 -0.16561109 0.18339024
0.011148229 0.06177182 0.2901975 -0.02961784 -0.1262716 -0.07255233 0.04084145 -0.028380414
0.23025876 0.05194855 0.10694795 0.08980657 0.12231194 0.09990197 -0.12714973 -0.116404824
0.008104832 0.05924968 0.200427 0.06059109 0.12813784 0.04930839 -0.17093389 0.011129167
0.20113353 0.25258186
00000000: 6a5f 9d3d 9aa9 023e 15e1 0c3d fa44 45be
00000010: 782f 5d3d 7d80 803e 7755 65be 2350 bc3d
00000020: a06f 5c3e ef6a 0bbb 9908 17bd d66e 773e
00000030: a3c2 953d 9687 1f3d d453 673e 4557 763e
00000040: 7a4b 643e edd4 893d a391 35be 997c 643e
00000050: f518 bb3d b58b 84be f495 29be a7ca 3b3e
00000060: 10a7 363c 7304 7d3d c494 943e 1da1 f2bc
00000070: 584d 01be 5196 94bd 5d49 273d 0b7e e8bc
00000080: f4c8 6b3e 01c8 543d 8707 db3d 82ec b73d
00000090: af7e fa3d 6799 cc3d 8a33 02be a765 eebd
000000a0: 21ca 043c cbaf 723d bc3c 4d3e 5d2e 783d
000000b0: 9136 033e 98f7 493d 4b09 2fbe 1c57 363c
000000c0: f3f5 4d3e 6952 813e

predicate_mlp2.bias f4 [50]
0.13963936 -0.06822082 -0.046963144 0.062492575 -0.053436067 -0.03921035 0.060588006 0.14480695
0.03977885 -0.058468763 0.15094556 -0.048822757 0.077224284 0.036851127 0.12716512 0.03438695
0.008937935 0.14179397 0.077522546 -0.052825436 0.041436303 -0.022481816 -0.10558387 0.12207116
0.14132266 0.097644515 0.04728687 0.08117849 -0.07136547 0.03800457 0.07146177 -0.100642085
0.13627897 0.048688136 -0.00950531 0.010029544 -0.08378468 -0.07664386 -0.06706024 0.11888327
0.0056165424 0.12717293 0.0154258525 -0.03474473 -0.04207819 -0.019483894 -0.008658525 0.14985682
-0.04334156 0.03650349
00000000: 9ffd 0e3e 5bb7 8bbd 6d5c 40bd 37f8 7f3d
00000010: c7df 5abd 089b 20bd 212b 783d 4648 143e
00000020: 26ef 223d f17c 6fbd 7991 1a3e 5ffa 47bd
00000030: c427 9e3d 35f1 163d 9337 023e 55d9 0c3d
00000040: 6b70 123c 7032 113e 24c4 9e3d 7c5f 58bd
00000050: 1db9 293d c92b b8bc 5b3c d8bd 7200 fa3d
00000060: e3b6 103e d9f9 c73d e1af 413d e840 a63d
00000070: 0f28 92bd aeaa 1b3d 8c5a 923d 701d cebd
00000080: b78c 0b3e 366d 473d 29bc 1bbc f552 243c
00000090: 4d97 abbd 75f7 9cbd e156 89bd 1279 f33d
000000a0: f90a b83b 9f39 023e b7bc 7c3c 7d50 0ebd
000000b0: 2e5a 2cbd b09c 9fbc 7cdc 0dbc 1174 193e
000000c0: eb86 31bd af84 153d

join_mlp1.bias f4 [50]
-0.38372558 0.30701178 -0.3012592 0.18858516 0.110194035 -0.24490395 0.28438053 -0.1904934
-0.13680466 0.31260714 0.11417909 -0.09253458 0.07540755 0.3709608 0.381665 0.16805448
0.27428457 0.34220025 -0.2068273 -0.06979592 0.2540756 0.1670149 0.17922708 0.29878935
-0.024040015 0.21945743 -0.14903982 0.26445004 0.19905418 -0.37077463 0.30585778 0.24824686
-0.35321492 0.012988526 -0.08954972 0.31169555 0.4023357 -0.002005364 0.098414496 0.17253304
0.12093404 -0.2095008 -0.10305868 0.22214173 -0.37583485 -0.3060693 0.34207463 -0.30601323
0.2948762 0.10012561
00000000: ae77 c4be a630 9d3e a53e 9abe 781c 413e
00000010: 69ad e13d 1ac8 7abe 539a 913e b410 43be
00000020: 8516 0cbe 0b0e a03e bad6 e93d c582 bdbd
00000030: 466f 9a3d 93ee bd3e 9869 c33e 7916 2c3e
00000040: 076f 8c3e df34 af3e 89ca 53be 2af1 8ebd
00000050: 3216 823e f405 2b3e 4e87 373e ebfa 983e
00000060: 91ef c4bc 73b9 603e e59d 18be ff65 873e
00000070: dcd4 4b3e 2cd6 bdbe 6499 9c3e 6d34 7e3e
00000080: 96d8 b4be d4cd 543c d865 b7bd 8f96 9f3e
00000090: f2fe cd3e 6d6c 03bb 8a8d c93d 80ac 303e
000000a0: 44ac f73d 6187 56be 6e10 d3bd 1f79 633e
000000b0: 6d6d c0be 1eb5 9cbe 6824 af3e c4ad 9cbe
000000c0: 03fa 963e a80e cd3d

join_mlp2.bias f4 [50]
0.11168124 -0.05622467 0.122599706 -0.04228925 -0.06093497 0.020134622 0.09994364 -0.09242068
0.0072075715 -0.072773784 -0.03520984 0.018409481 0.009823766 0.052848384 -0.04983561 -0.1500803
-0.0909647 -0.06616915 -0.0732981 -0.07072603 0.032529183 0.08718233 -0.09559386 0.08987754
-0.029885627 0.05589573 0.021205349 0.031364463 0.14643805 -0.044688005 0.10161088 -0.1288333
-0.020313425 -0.12750873 0.054823324 -0.0038435904 -0.055708632 0.07476719 0.024842832 0.06185789
-0.075111 -0.09664506 -0.042913415 -0.061751507 0.13600646 -0.10833821 0.025435477 0.04505067
0.12601751 -0.050238542
00000000: 22b9 e43d d74b 66bd 8e15 fb3d 7e37 2dbd
00000010: f296 79bd 5df1 a43c 40af cc3d 0e47 bdbd
00000020: 7e2d ec3b 6c0a 95bd 3138 10bd 7bcf 963c
00000030: dcf3 203c 8c77 583d 6d20 4cbd a6ae 19be
00000040: b34b babd b183 87bd 501d 96bd cfd8 90bd
00000050: 523d 053d a68c b23d b7c6 c3bd b711 b83d
00000060: b4d2 f4bc ecf2 643d d7b6 ad3c 0678 003d
00000070: dbf3 153e c50a 37bd 5d19 d03d e0ec 03be
00000080: 5768 a6bc a691 02be 6c8e 603d bfe4 7bbb
00000090: bc2e 64bd 8a1f 993d 3283 cb3c b35e 7d3d
000000a0: ccd3 99bd d8ed c5bd fac5 2fbd 26ef 7cbd
000000b0: 4745 0b3e 6ce0 ddbd 105e d03c 0d87 383d
000000c0: bc0a 013e eec6 4dbd

out_mlp1.weight f4 [50, 150]
-0.09681518 0.052083142 0.00463027 -0.077640094 -0.07705446 -0.06458549 0.02780239 0.061464984
0.023606885 -0.066368975 0.018151013 0.016108854 -0.019225445 -0.043492485 -0.0003146272 -0.04800174
0.02516625 0.056734778 0.045352414 -0.007577235 0.010554377 0.003473774 0.08133846 -0.063717194
-0.029135024 0.062539294 0.03360548 -0.019766249 -0.085734166 -0.095833816 -0.02313204 -0.068517506
-0.0051580854 0.038277585 0.00030746407 -0.05538671 -0.064715505 0.06548816 0.021006403 0.058420423
0.02792974 -0.017125903 -0.017405534 0.01093861 -0.06833835 0.0797577 -0.0918813 -0.08877504
-0.07896886 -0.074885644 -0.016575506 0.041365538 -0.021931117 -0.08741667 -0.08238715 -0.035314877
-0.068349764 -0.01716316 0.05176134 -0.019156696 -0.03895264 -0.053391993 0.026151115 -0.028252853
0.04520948 -0.019146511 0.014341687 -0.028575476 -0.017552909 -0.10287942 -0.012387185 -0.09061148
-0.0412702 -0.018351503 -0.001796328 -0.083320715 0.038315915 0.0003106436 0.04501877 0.044148102
-0.034641653 0.050054453 0.02725428 -0.021150328 0.052456133 0.060324706 -0.013457853 -0.04647812
-0.06481889 -0.08586533 -0.08660384 -0.07439264 -0.029217662 -0.07476596 -0.060850013 0.030091772
-0.027095707 0.018169701 -0.033446766 0.05250718 -0.10089393 -0.052697618 -0.058214493 0.04755802
-0.048938736 0.020468865 -0.07668924 0.087805346 0.051567078 -0.00056664745 -0.008248912 -0.027042432
-0.033694644 -0.071911976 -0.0066447845 -0.016205125 -0.014605259 -0.089480706 0.018076826 -0.030008981
-0.07622319 -0.06299189 -0.061298415 -0.037323914 -0.047402285 -0.09187864 0.0034831478 -0.061462417
0.011783731 0.07424973 -0.06336992 -0.090119466 -0.07528348 0.061792005 -0.07330618 0.06616836
0.013073315 0.019005844 0.010503073 -0.038017545 -0.0010614401 0.05324294 -0.036230344 -0.07101751
-0.020365622 0.022111304 0.022554843 0.021153724 -0.043241058 -0.013906631 0.026662853 -0.016612405
0.07877496 0.09310774 -0.021060875 0.047781147 -0.022670465 -0.16006619 0.081193596 0.023098858
0.0359768 -0.0010223938 -0.06027223 0.011123501 0.06387068 0.051240373 0.07292331 0.06487329
0.09943161 -0.04344679 -0.019900687 -0.071388416 -0.22689855 -0.07713298 -0.07460852 -0.028949304
0.00073812867 -0.012568224 -0.050888427 0.018844642 -0.24720168 0.055376686 0.018866997 0.015959056
0.09050775 -0.026664387 -0.020910894 -0.025913736 -0.001582408 0.01854143 0.07640528 0.006421095
-0.009448392 -0.0009737361 -0.041531507 0.060028818 -0.003911517 0.06233471 -0.039252132 0.052815303
-0.006259858 0.03509148 0.14235863 -0.08845004 0.22346635 -0.018898562 -0.13040417 -0.0038132593
0.057294793 -0.13798353 -0.20470437 0.12046194 0.3162489 0.10420654 0.10415321 0.14423116
-0.06587845 0.11238698 -0.14714806 0.07289132 0.23814063 0.09780294 0.07230101 -0.13658406
0.01644228 0.04050478 -0.040304057 -0.06131564 -0.098106846 0.13244799 0.06993227 0.13520414
0.024689466 0.12643899 -0.029105125 -0.08073806 -0.22275084 0.05962581 0.07386199 0.1799548
-0.3166022 0.14373226 -0.22141194 -0.14045529 -0.0853024 -0.15029562 0.092294805 0.06810854
-0.034871377 -0.0037142108 0.018593391 -0.024573347 -0.06099048 -0.014076547 0.05330437 0.020424586
00000000: 0947 c6bd 2255 553d 85b9 973b c501 9fbd
00000010: bbce 9dbd 6645 84bd d6c1 e33c b5c2 7b3d
00000020: 3a63 c13c 75ec 87bd 6fb1 943c b7f6 833c
00000030: ae7e 9dbc 2d25 32bd 8cf4 a4b9 799d 44bd
00000040: 7429 ce3c ba62 683d 74c3 393d 744a f8bb
00000050: 44ec 2c3c 42a8 633b c794 a63d 297e 82bd
00000060: 93ac eebc 9a14 803d e6a5 093d d4ec a1bc
00000070: 6595 afbd 8544 c4bd 677f bdbc e852 8cbd
00000080: 2805 a9bb f5c8 1c3d 2133 a139 2ddd 62bd
00000090: 9089 84bd a81e 863d 9f15 ac3c 414a 6f3d
000000a0: e9cc e43c 9f4b 8cbc 0d96 8ebc db37 333c
000000b0: faf4 8bbd 0158 a33d 432c bcbd b0cf b5bd
000000c0: 6dba a1bd a55d 99bd 5bc9 87bc e96e 293d
000000d0: e3a8 b3bc 8307 b3bd 98ba a8bd 55a6 10bd
000000e0: f6fa 8bbd c199 8cbc b303 543d 81ee 9cbc
000000f0: ce8c 1fbd 90b1 5abd dd3a d63c 8772 e7bc
00000100: 932d 393d 25d9 9cbc 65f9 6a3c 1e17 eabc
00000110: 1ecb 8fbc 72b2 d2bd 9ff3 4abc 8392 b9bd
00000120: f10a 29bd e455 96bc c472 ebba 0da4 aabd
00000130: 26f1 1c3d e1dd a239 9a65 383d a4d4 343d
00000140: 68e4 0dbd e605 4d3d 5e44 df3c 7443 adbc
00000150: 3edc 563d 0a17 773d 547e 5cbc d75f 3ebd
00000160: c4bf 84bd 2ada afbd 5b5d b1bd 2b5b 98bd
00000170: e159 efbc e51e 99bd dd3d 79bd 0583 f63c
00000180: d1f7 ddbc a0d8 943c 7aff 08bd c511 573d
00000190: 7aa1 cebd 75d9 57bd 5272 6ebd 33cc 423d
000001a0: fc73 48bd 52ae a73c 400f 9dbd 4ad3 b33d
000001b0: 0038 533d 118b 14ba 7226 07bc 1788 ddbc
000001c0: 6503 0abd 9646 93bd 7ebc d9bb 9cc0 84bc
000001d0: e54a 6fbc a941 b7bd da15 943c 65d5 f5bc
000001e0: e71a 9cbd e401 81bd 0c14 7bbd f6e0 18bd
000001f0: e628 42bd de2a bcbd 8645 643b 04c0 7bbd
00000200: 8d10 413c 3e10 983d 17c8 81bd 8e90 b8bd
00000210: 3a2e 9abd 9d19 7d3d 8d21 96bd 4783 873d
00000220: 7531 563c 25b2 9b3c 1515 2c3c 49b8 1bbd
00000230: 0520 8bba 4515 5a3d 4566 14bd a171 91bd
00000240: ced5 a6bc c422 b53c efc4 b83c 934a ad3c
00000250: 891d 31bd a3d8 63bc 0e6c da3c bd16 88bc
00000260: c454 a13d 45af be3d db87 acbc 2ab6 433d
00000270: 69b7 b9bc 64e8 23be d448 a63d d139 bd3c
00000280: 695c 133d d801 86ba 04e0 76bd 583f 363c
00000290: a2ce 823d 6de1 513d d158 953d 4adc 843d
000002a0: cda2 cb3d 43f5 31bd c406 a3bc 1734 92bd
000002b0: 1858 68be e5f7 9dbd 5acc 98bd 1727 edbc
000002c0: fa7e 413a f4ea 4dbc 6270 50bd 1460 9a3c
000002d0: 7022 7dbe aad2 623d f68e 9a3c 91bc 823c
000002e0: 215c b93d 466f dabc 534d abbc 0b49 d4bc
000002f0: cd68 cfba 32e4 973c 5f7a 9c3d 0d68 d23b
00000300: 6ecd 1abc 5342 7fba f11c 2abd c7e0 753d
00000310: 2f2c 80bb ae52 7f3d d8c6 20bd dc54 583d
00000320: 7f1f cdbb 15bc 0f3d 76c6 113e 4b25 b5bd
00000330: 5dd4 643e 28d1 9abc ac88 05be e0e7 79bb
00000340: f2ad 6a3d 8e4b 0dbe 069e 51be c0b4 f63d
00000350: 60eb a13e 3d6a d53d 474e d53d 55b1 133e
00000360: 48eb 86bd 252b e63d fbad 16be 0b48 953d
00000370: 23db 733e e84c c83d 8d12 943d b1dc 0bbe
00000380: f6b1 863c 57e8 253d de15 25bd 1c26 7bbd
00000390: 3eec c8bd 72a0 073e a638 8f3d f472 0a3e
000003a0: 9041 ca3c 3979 013e df6d eebc ff59 a5bd
000003b0: cc18 64be 313a 743d f444 973d 1246 383e
000003c0: af19 a2be 8d2e 133e d0b9 62be 83d3 0fbe
000003d0: 06b3 aebd 18e7 19be 0f05 bd3d 7d7c 8b3d
000003e0: 4ad5 0ebd 1e6a 73bb 2b51 983c 0b4e c9bc
000003f0: 27d1 79bd 51a1 66bc af55 5a3d 7651 a73c

out_mlp1.bias f4 [50]
-0.089932084 -0.0644924 0.023188917 0.0011601297 -0.033311404 -0.057665672 -0.020364014 0.0056320145
-0.0018246945 0.07117336 0.05924974 0.01027187 0.07466137 0.04526547 0.06432963 -0.0024460382
0.07061334 0.040239457 -0.024929794 0.04756382 0.02526459 -0.059659783 0.036645006 0.05961277
0.038732942 0.040006172 0.018106904 -0.07277429 0.037598986 0.067854404 0.08692722 0.00046849166
-0.07709827 0.027915897 0.0409183 0.02482706 0.021389816 -0.02336571 0.08424978 0.040995993
-0.03798958 -0.09656182 0.04151713 -8.1837825e-05 -0.072438836 0.018212615 0.09835326 0.017970575
-0.035517436 0.02263475
00000000: 502e b8bd 9714 84bd aff6 bd3c 7e0f 983a
00000010: 8a71 08bd d732 6cbd 6fd2 a6bc c38c b83b
00000020: 962a efba 57c3 913d dbaf 723d 584b 283c
00000030: 0fe8 983d 4968 393d 41bf 833d b64d 20bb
00000040: ba9d 903d 21d2 243d 9139 ccbc 48d2 423d
00000050: aff7 ce3c d15d 74bd 1319 163d 852c 743d
00000060: 6fa6 1e3d 83dd 233d ee54 943c b00a 95bd
00000070: 6501 1a3d 40f7 8a3d e606 b23d e39f f539
00000080: b3e5 9dbd e1af e43c f399 273d 1e62 cb3c
00000090: b239 af3c 7269 bfbc 268b ac3d 6aeb 273d
000000a0: f69a 1bbd 34c2 c5bd de0d 2a3d 59a0 abb8
000000b0: d05a 94bd 9f32 953c 6f6d c93d 0737 933c
000000c0: bb7a 11bd 836c b93c

out_mlp2.weight f4 [1, 50]
0.07015696 0.2624682 0.42724144 0.4695799 0.3858448 -0.027841575 0.4723606 0.23115547
0.71859986 -0.1832656 -0.21848191 -0.14926638 -0.17813888 0.18903007 -0.2233318 -0.24680428
-0.089343354 0.2920751 -0.11059805 0.22535993 0.2678249 -0.0981286 0.31188053 -0.10339339
0.29680914 0.5461 -0.12902746 -0.10043836 -0.1943827 -0.12140889 -0.22131939 -0.20550412
-0.034455653 0.32214305 0.16244152 -0.15969516 -0.13227607 0.17605796 -0.14061934 0.18139419
0.23970108 -0.045826834 0.22538109 0.33374888 0.12448129 0.2764348 0.21080086 -0.12787773
-0.26695362 -0.21023613
00000000: 74ae 8f3d 3b62 863e 64bf da3e c76c f03e
00000010: 738d c53e 0414 e4bc 40d9 f13e 05b4 6c3e
00000020: 29f6 373f faa9 3bbe b9b9 5fbe 49d9 18be
00000030: 0a6a 36be 1991 413e 17b1 64be 43ba 7cbe
00000040: a6f9 b6bd de8a 953e 3b81 e2bd c1c4 663e
00000050: 5820 893e a6f7 c8bd ceae 9f3e eabf d3bd
00000060: 5ef7 973e 36cd 0b3f c61f 04be a0b2 cdbd
00000070: 420c 47be 39a5 f8bd 8da1 62be ac6f 52be
00000080: 5f21 0dbd efef a43e 1257 263e 2187 23be
00000090: 6173 07be 8a48 343e 84fe 0fbe 66bf 393e
000000a0: 3374 753e ebb4 3bbd 4dca 663e 22e1 aa3e
000000b0: 0cf0 fe3d dd88 8d3e 2edc 573e 61f2 02be
000000c0: 25ae 88be 2448 57be

76 f4 [6, 50]
0.43647832 0.16023551 0.31450254 -0.12135629 0.3406111 -0.028226754 -0.32257497 0.27389544
-0.36080408 0.32121733 0.19745955 -0.38905638 -0.30662856 0.024385553 0.46196383 0.43154305
0.07642452 0.08979694 0.03218517 -0.31606102 -0.022772517 0.07950834 0.24980737 0.35621753
-0.2705632 -0.1409353 0.34804153 0.0006831382 -0.30471224 -0.28477925 -0.3479747 0.13186064
0.17807417 -0.16334383 -0.20779322 0.41749057 -0.18688887 0.057436436 0.24998647 -0.017883588
-0.005183607 0.11701948 0.36362606 -0.14959149 0.258638 0.2672339 0.05796245 0.36321628
-0.24132039 -0.3396187 -0.22928838 -0.08766323 0.31322178 0.26486975 0.08764951 0.20360915
0.33302426 0.37704545 0.12153705 0.3730118 -0.20815226 0.28553593 0.11663291 -0.24458542
0.18461423 -0.22694445 0.22677557 -0.035224043 -0.39271265 -0.049392246 0.24936143 0.1394885
0.30045283 -0.08270507 -0.3824173 -0.06323193 -0.30552334 -0.29715034 -0.1623698 0.36536664
-0.3429765 0.23814195 0.10533373 -0.052710675 -0.06447985 -0.3658638 0.25325942 -0.38814482
0.2683274 -0.19176199 -0.34803346 0.0711497 -0.31875557 0.111693844 -0.3515193 0.14530626
0.15844247 0.2156255 0.041599702 -0.39369902 0.076404996 -0.14476457 0.15782408 -0.40425697
-0.2278089 -0.28998947 -0.2027805 -0.14983225 -0.37419122 0.2676736 -0.35356036 0.18139094
-0.0090446565 -0.19899659 -0.20984067 -0.015112105 0.3645203 0.0759277 -0.20297231 0.32421267
0.17193788 -0.37191504 0.3962655 -0.06682377 0.20695974 0.28250402 -0.29334536 0.30929497
0.112678036 -0.19871303 0.23109592 -0.13197115 0.16628014 -0.048402883 0.29433712 -0.3201161
-0.19839613 -0.055097092 -0.31118622 -0.07291313 -0.26837024 -0.16697201 -0.35732087 0.21302588
-0.08406046 -0.059753265 -0.15049572 -0.2769045 0.06130168 0.41155145 0.0021480164 -0.38327718
0.25299552 0.12570345 -0.25361168 0.41283858 0.2950841 0.19561753 0.36126405 0.12206399
0.2231091 -0.31129435 -0.381008 -0.30939695 0.21997632 -0.21539494 -0.12812842 0.3233783
-0.27783692 -0.279447 0.37927353 -0.04045734 0.055377554 -0.27269116 -0.27203834 0.3101249
0.14184679 -0.24056746 0.04680699 -0.03923068 0.367681 0.033885054 -0.36949977 -0.014805659
-0.1642708 0.025830692 0.37435937 -0.33795303 0.49710187 -0.22319412 -0.17090857 0.0101861
-0.26054543 0.13548712 0.1452867 0.23176807 0.2715225 -0.34500456 0.055181284 0.041767284
0.4091083 -0.16676946 -0.32413435 -0.30816197 0.31071287 -0.043311253 0.14686623 0.26916516
-0.058357142 -0.0781435 -0.28574428 0.06381681 -0.03233628 -0.32898414 -0.0852429 -0.102688305
0.41880834 -0.12384554 -0.366104 0.05836922 0.17402463 0.26335922 0.3839881 -0.06551225
-0.3339598 -0.03395299 0.060407713 -0.04753492 0.24348128 0.040607523 0.01659057 -0.30874175
0.23689128 0.0070740706 0.0020800903 0.3306285 0.1411602 0.016294604 -0.33305764 0.2833104
0.16430084 -0.17099923 0.040882442 0.24644224 0.28408322 -0.097885706 0.37091827 0.28504023
-0.27008134 -0.11512949 -0.19740166 0.3780469 0.09272646 0.3130582 0.36033756 -0.36206904
00000000: 167a df3e c714 243e 7a06 a13e a689 f8bd
00000010: 9464 ae3e cb3b e7bc 8c28 a5be 063c 8c3e
00000020: 50bb b8be 9976 a43e d632 4a3e 6632 c7be
00000030: 6bfe 9cbe 36c4 c73c 8686 ec3e 36f3 dc3e
00000040: 7584 9c3d 75e7 b73d 99d4 033d c0d2 a1be
00000050: 6e8d babc 45d5 a23d 81cd 7f3e 2562 b63e
00000060: 4287 8abe 5851 10be 8032 b23e a114 333a
00000070: 3e03 9cbe 96ce 91be bd29 b2be 7a06 073e
00000080: 1359 363e 9b43 27be bfc7 54be 53c1 d53e
00000090: cc5f 3fbe 7842 6b3d 74fc 7f3e 9a80 92bc
000000a0: 3fdb a9bb e9a7 ef3d 322d ba3e 832e 19be
000000b0: 336c 843e e2d2 883e 096a 6d3d 7cf7 b93e
000000c0: b11c 77be 81e2 adbe 93ca 6abe c888 b3bd
000000d0: 9b5e a03e 029d 873e 9681 b33d eb7e 503e
000000e0: 2882 aa3e 1a0c c13e 6be8 f83d 67fb be3e
000000f0: de25 55be c431 923e 3cdd ee3d 9a74 7abe
00000100: 830b 3d3e 2064 68be db37 683e 1647 10bd
00000110: a211 c9be 864f 4abd 9a58 7f3e 13d6 0e3e
00000120: f4d4 993e 4761 a9bd 33cc c3be be7f 81bd
00000130: 8e6d 9cbe 1724 98be 4544 26be 5611 bb3e
00000140: 9e9a afbe 7cdb 733e 36b9 d73d 26e7 57bd
00000150: 030e 84bd 8052 bbbe 38ab 813e ebba c6be
00000160: 3562 893e 415d 44be 7131 b2be efb6 913d
00000170: ee33 a3be bebf e43d 56fa b3be 2acb 143e
00000180: be3e 223e eecc 5c3e 7364 2a3d eb92 c9be
00000190: 397a 9c3d 2a3d 14be a39c 213e c5fa cebe
000001a0: bc46 69be 8079 94be b1a5 4fbe a06d 19be
000001b0: fe95 bfbe 840c 893e dd05 b5be 8cbe 393e
000001c0: 0a30 14bc c3c5 4bbe 79e0 56be c398 77bc
000001d0: 68a2 ba3e fb7f 9b3d f9d7 4fbe 34ff a53e
000001e0: 7c10 303e a66b bebe 50e3 ca3e e7da 88bd
000001f0: 41ed 533e 5ea4 903e 5d31 96be e95b 9e3e
00000200: bec3 e63d 6e7b 4bbe 69a4 6c3e 7223 07be
00000210: 5745 2a3e 1a42 46bd 5bb3 963e 42e6 a3be
00000220: 5b28 4bbe 7dad 61bd cd53 9fbe 7b53 95bd
00000230: d367 89be b6fa 2abe c3f2 b6be 7523 5a3e
00000240: e427 acbd d7bf 74bd 8d1b 1abe 6dc6 8dbe
00000250: 7817 7b3d dfb6 d23e bcc5 0c3b e83c c4be
00000260: a188 813e 68b8 003e 64d9 81be 945f d33e
00000270: 4315 973e f64f 483e 9af7 b83e affc f93d
00000280: b676 643e f961 9fbe 7b13 c3be 4769 9ebe
00000290: 7941 613e 7e90 5cbe 1934 03be d791 a53e
000002a0: a440 8ebe ad13 8fbe 2430 c23e 99b6 25bd
000002b0: 93d3 623d 2d9e 8bbe 9c48 8bbe b1c8 9e3e
000002c0: 4940 113e 5157 76be b0b8 3f3d 59b0 20bd
000002d0: af40 bc3e 0ecb 0a3d 132f bdbe 6f93 72bc
000002e0: 9b36 28be e39a d33c 08ac bf3e 2e08 adbe
000002f0: 2384 fe3e 008d 64be a802 2fbe 9ae3 263c
00000300: 3666 85be 23bd 0a3e 09c6 143e 9c54 6d3e
00000310: ff04 8b3e 70a4 b0be c505 623d 2c14 2b3d
00000320: a576 d13e 9dc5 2abe f0f4 a5be 68c7 9dbe
00000330: c215 9f3e 2467 31bd 1a64 163e 04d0 893e
00000340: e607 6fbd b309 a0bd 134d 92be 63b2 823d
00000350: 0c73 04bd 9c70 a8be d493 aebd 3f4e d2bd
00000360: 0c6e d63e bba2 fdbd fc71 bbbe 9014 6f3d
00000370: 8333 323e 05d7 863e 179a c43e 492b 86bd
00000380: c7fc aabe 4a12 0bbd 146e 773d fab3 42bd
00000390: 2853 793e 1354 263d f2e8 873c 6613 9ebe
000003a0: a193 723e 9bcd e73b 2052 083b 2448 a93e
000003b0: 4d8c 103e 437c 853c 8886 aabe 100e 913e
000003c0: 7b3e 283e 6c1a 2fbe 5974 273d 5b5b 7c3e
000003d0: 5b73 913e 4d78 c8bd 00e9 bd3e cbf0 913e
000003e0: 1a48 8abe 03c9 ebbd a923 4abe 5d8f c13e
000003f0: 5fe7 bd3d 2a49 a03e 2a7e b83e 1d61 b9be

77 f4 [50, 50]
-0.023766832 -0.035465337 -0.0015652904 0.029743345 -0.0010194256 0.03673761 0.18556674 0.062047485
0.042911306 0.12774576 0.118824825 0.08674195 0.06868444 0.0044769174 0.20378211 -0.056916587
0.094677225 -0.042107802 0.12202907 0.091089986 0.13166252 -0.14941075 -0.020373095 -0.10289362
-0.06565736 0.0046702125 0.161458 0.1289453 0.13203843 0.08340833 0.13665386 -0.14174317
-0.16192898 -0.028647892 0.061915785 0.12592728 0.112827204 0.02864144 -0.08745216 0.10914949
-0.1119878 0.12997276 0.047117755 0.10215369 -0.009841952 0.19347572 0.1943337 -0.099200785
0.1639044 -0.04441955 0.14719558 0.11431518 0.018393973 -0.082184404 -0.03494618 -0.0044448236
0.0691608 0.05540001 0.07492787 -0.037691653 -0.0946076 -0.07155382 -0.066790126 -0.12949637
-0.05036517 0.0026993013 -0.07036129 -0.053033706 -0.06067326 0.02411722 -0.0065652146 0.1184758
-0.022885714 0.0353035 0.15951316 0.12804365 -0.04101599 -0.08180371 -0.054158367 0.13000476
-0.22913851 -0.06046557 -0.087618925 -0.07638166 -0.07101615 -0.048956443 0.0013149042 -0.066406354
-0.06513151 -0.12485857 0.14563695 -0.13953786 0.03132399 0.11535576 -0.14287274 0.025255222
-0.10077618 -0.03875589 0.060490895 -0.000455595 -0.060531136 -0.0137585625 -0.0016425349 0.0062892623
-0.034460593 0.0072486247 0.12315616 0.10546514 -0.10638008 0.06372772 -0.07896449 -0.0034467697
-0.088319905 0.07713766 -0.22846165 -0.1494482 -0.06941231 -0.12999097 -0.09038671 -0.06629246
0.07157091 -0.12880398 0.03480622 -0.08911388 0.21029471 -0.00860761 -0.082916304 0.11929407
-0.07640652 0.020565193 0.19768709 -0.046807606 -0.11257516 -0.031005312 -0.0722721 -0.12418868
-0.0042169862 -0.042189434 0.0010853213 -0.10415995 -0.12826146 -0.07281287 -0.06719597 -0.110526234
0.054684043 0.14534009 -0.0069771046 0.07907256 0.16069521 0.05241214 0.15561137 0.11601167
0.024051236 0.06531722 -0.14553297 -0.0050475723 -0.071978495 0.09013095 0.07169245 -0.12646802
0.072116986 -0.11925256 0.06832089 0.10396618 -0.083290055 0.10665644 -0.15579955 -0.10029185
-0.1547509 -0.011881366 -0.00068102736 -0.015417601 -0.050788745 -0.08348875 0.0014523597 -0.022587666
-0.016804732 -0.00551434 -0.14027648 -0.05702269 -0.025397973 0.01891253 0.10079915 -0.067062795
0.10644085 -0.11588409 0.104044884 -0.059967566 0.026046745 0.019278003 0.09537763 0.06811702
-0.06821834 -0.10982381 -0.14503744 0.07713393 -0.020040357 0.10610731 0.0009078597 0.0005450434
0.016155016 0.049898136 0.04163648 0.024852512 0.0016141401 -0.05318396 -0.06654781 -0.16658327
-0.12214579 -0.08583627 -0.033979535 0.062046118 -0.02885782 0.073985666 0.09678632 0.14243688
-0.016484711 -0.027351849 -0.14506179 -0.0697735 -0.009710134 -0.035449453 -0.16934575 0.01540813
0.062204998 -0.1101714 0.07575911 0.10085987 -0.07688376 -0.021922927 0.056894735 -0.10030377
-0.06255698 -0.10804763 -0.08660653 -0.12565227 -0.005468662 -0.10844614 0.008484588 -0.1043406
0.12110412 0.027238498 -0.08071982 -0.056841362 0.017236069 0.08973391 0.16700473 -0.046068013
-0.06325447 0.011273578 0.09882467 -0.07529711 -0.070911 -0.03542262 -0.09354378 0.07508535
00000000: a9b2 c2bc 1a44 11bd 6e2a cdba 51a8 f33c
00000010: 3f9e 85ba 2d7a 163d 3505 3e3e 8125 7e3d
00000020: c4c3 2f3d c9cf 023e 6e5a f33d c3a5 b13d
00000030: 6daa 8c3d 1bb3 923b 42ac 503e 5e21 69bd
00000040: 22e6 c13d 3b79 2cbd 61ea f93d 638d ba3d
00000050: 8ad2 063e 22ff 18be 7ae5 a6bc e4b9 d2bd
00000060: 5e77 86bd 9508 993b 3f55 253e 3d0a 043e
00000070: 1535 073e fdd1 aa3d fdee 0b3e 1f25 11be
00000080: b6d0 25be fcae eabc 689b 7d3d 15f3 003e
00000090: f311 e73d 74a1 ea3c 1e1a b3bd c589 df3d
000000a0: dc59 e5bd 9417 053e 8cfe 403d f435 d13d
000000b0: 2340 21bc 801e 463e 6aff 463e c829 cbbd
000000c0: 8ed6 273e 46f1 35bd 70ba 163e 141e ea3d
000000d0: f5ae 963c 4c50 a8bd ba23 0fbd e2a5 91bb
000000e0: 2da4 8d3d 1feb 623d c873 993d 9062 1abd
000000f0: a1c1 c1bd cf8a 92bd 43c9 88bd b29a 04be
00000100: b54b 4ebd c3e6 303b 9419 90bd df39 59bd
00000110: 8684 78bd 7a91 c53c 0321 d7bb 71a3 f23d
00000120: d27a bbbc 679a 103d 6b57 233e e01d 033e
00000130: 6200 28bd b488 a7bd 2ad5 5dbd f81f 053e
00000140: 49a3 6abe bfaa 77bd 8d71 b3bd fd6d 9cbd
00000150: ea70 91bd 8d86 48bd dd58 ac3a 0e00 88bd
00000160: ab63 85bd dab5 ffbd da21 153e 03e3 0ebe
00000170: 964d 003d a43f ec3d 3b4d 12be 0ae4 ce3c
00000180: be63 cebd 7fbe 1ebd 4dc5 773d eddc eeb9
00000190: 7fef 77bd 986b 61bc 534a d7ba 2816 ce3b
000001a0: 8d26 0dbd df85 ed3b 4c39 fc3d 1bfe d73d
000001b0: cddd d9bd ae83 823d 22b8 a1bd 33e3 61bb
000001c0: 11e1 b4bd 59fa 9d3d daf1 69be f308 19be
000001d0: 0b28 8ebd 5a1c 05be ab1c b9bd 57c4 87bd
000001e0: c593 923d 31e5 03be f890 0e3d 5781 b6bd
000001f0: 7f57 573e ef06 0dbc 06d0 a9bd 7350 f43d
00000200: 067b 9cbd 5678 a83c 7c6e 4a3e 55b9 3fbd
00000210: ce8d e6bd dafe fdbc 6503 94bd a256 febd
00000220: a52e 8abb d4ce 2cbd 5741 8e3a d051 d5bd
00000230: f956 03be ea1e 95bd 0a9e 89bd 945b e2bd
00000240: 60fc 5f3d 08d4 143e 32a0 e4bb cbf0 a13d
00000250: 498d 243e 1dae 563d 9658 1f3e 8797 ed3d
00000260: 1907 c53c 09c5 853d 9806 15be 1b66 a5bb
00000270: 7669 93bd 9396 b83d 7ed3 923d d580 01be
00000280: 12b2 933d b03a f4bd d3eb 8b3d 38ec d43d
00000290: fa93 aabd b16e da3d eb89 1fbe d065 cdbd
000002a0: 0577 1ebe 10aa 42bc f986 32ba 1b9a 7cbc
000002b0: dc07 50bd 26fc aabd 1b5d be3a c509 b9bc
000002c0: 14aa 89bc a3b1 b4bb a3a4 0fbe a090 69bd
000002d0: 690f d0bc 73ee 9a3c c96f ce3d 3858 89bd
000002e0: a9fd d93d a354 edbd 7c15 d53d 8da0 75bd
000002f0: fc5f d53c e7ec 9d3c 5955 c33d f080 8b3d
00000300: 0fb6 8bbd 4eeb e0bd b284 14be 65f8 9d3d
00000310: ad2b a4bc ca4e d93d 6ffd 6d3a 3ee1 0e3a
00000320: 8657 843c fd61 4c3d 038b 2a3d 7f97 cb3c
00000330: 8e91 d33a 6dd7 59bd 384a 88bd ce94 2abe
00000340: 9227 fabd edca afbd 202e 0bbd 1224 7e3d
00000350: 3c67 ecbc cc85 973d e837 c63d f9da 113e
00000360: f20a 87bc fc10 e0bc 148b 14be 69e5 8ebd
00000370: 4117 1fbc 7233 11bd f968 2dbe 6272 7c3c
00000380: abca 7e3d 8ba1 e1bd 9827 9b3d 9f8f ce3d
00000390: 3c75 9dbd b697 b3bc 740a 693d 106c cdbd
000003a0: e01d 80bd 1348 ddbd c45e b1bd fdaa 00be
000003b0: 7632 b3bb 0319 debd f102 0b3c 86b0 d5bd
000003c0: 7005 f83d 4523 df3c 6f50 a5bd 7dd2 68bd
000003d0: a832 8d3c 6ac6 b73d 4a03 2b3e d0b1 3cbd
000003e0: 8f8b 81bd d0b4 383c 9764 ca3d 5f35 9abd
000003f0: c939 91bd 4f17 11bd e293 bfbd 59c6 993d

78 f4 [13, 50]
0.23411691 -0.29950106 0.24190788 0.19091298 0.024081074 0.010587171 -0.15088974 -0.1429268
-0.30522215 0.11620141 -0.22714062 0.3098529 0.5531552 0.088467255 0.30679062 -0.26285306
-0.04044511 0.018973222 -0.43618995 -0.2455963 0.17010897 -0.111511566 0.20603208 -0.32060653
0.2188574 -0.24218865 -0.102401525 -0.2895969 -0.19982721 0.22754209 0.65888435 -0.23166753
0.40732867 0.1801472 0.07188532 0.056237713 -0.2229201 -0.1523822 -0.18276653 0.28193593
0.33318758 0.03264936 -0.2580067 0.13897857 0.079172134 -0.17838426 -0.066012405 0.20091645
-0.22957312 0.7479547 -0.29437825 -0.17004643 0.19017935 -0.09088842 0.043659862 -0.13974598
-0.23898667 0.13903065 0.34181336 0.040290527 -0.21897547 0.15703855 -0.047396872 -0.065830976
-0.1533659 0.0258371 -0.31210217 -0.17540175 0.23490888 0.06310862 -0.16051175 0.017513597
0.18218225 -0.04162181 0.16965507 0.0339146 0.19067606 -0.010191819 0.12347833 -0.26214135
-0.31684434 -0.24464375 -0.09753453 0.3034229 -0.063744225 -0.25081962 0.32676485 0.18386269
0.23694183 -0.1674751 0.099767834 0.06429698 0.07528172 -0.121938884 0.07856191 0.31282458
0.22740582 -0.24444744 -0.18188204 -0.09815948 0.1744497 -0.11446892 0.07891726 -0.11204997
0.20926636 0.10014816 0.0095024165 -0.17710067 -0.02585709 0.24747221 -0.21384132 0.065080725
0.38337228 0.07685538 -0.023454241 -0.24988219 -0.10441535 0.00019554255 0.14272572 -0.15504123
0.33249295 -0.25758037 -0.2600525 0.08908962 0.18079029 0.16432583 -0.074802674 -0.279543
-0.13193545 0.056397013 0.03353656 -0.23835625 -0.019380635 0.13777532 0.10300797 -0.12336122
0.0647915 -0.17218459 -0.052246597 0.3009746 -0.25127444 0.24556585 -0.30355608 0.26121727
-0.029159227 -0.15940064 -0.081997946 0.1541265 -0.11403257 0.09986588 -0.20740113 0.1364825
-0.1137595 0.03623586 -0.15338008 0.18087146 -0.24672838 -0.0061700935 -0.20149559 -0.36912298
-0.106697194 -0.30966341 -0.14228567 -0.10774525 -0.35017243 0.32895163 -0.23318996 0.17291017
0.15058105 0.01339475 -0.30481327 -0.26525053 -0.24991608 0.018486148 0.22921571 0.06483054
0.14004277 0.25888285 0.30647114 0.017515942 -0.16545084 0.06560499 -0.09757992 -0.30139592
0.12254149 -0.32262415 -0.071595885 -0.0832962 0.27930146 -0.04083355 -0.24927866 0.1400658
-0.05644845 -0.10074154 0.27250865 -0.225628 0.065182105 -0.24463706 -0.25560927 -0.29981378
-0.34480405 0.12651844 0.03500469 -0.14027165 -0.4051694 0.2705298 0.2057781 -0.12759724
-0.14888553 0.06633632 0.27288905 0.19406173 -0.26471853 0.12639703 0.15898621 -0.12929691
0.005657516 0.19780187 -0.2969533 0.21265319 -0.17097253 0.25253618 -0.073915966 -0.34957778
-0.24203251 -0.25418252 0.09781383 -0.04390641 0.15113966 -0.26086736 0.34722155 0.101719484
0.010503631 -0.11392056 -0.23343481 -0.053355794 -0.12974876 0.118907005 0.19819914 -0.17764339
0.10064048 -0.10837322 -0.16814274 -0.33969188 -0.18129128 0.23048796 -0.24217798 -0.13364762
0.02594881 -0.43080693 -0.3388379 0.25491825 0.03244984 -0.19781819 -0.1605139 -0.35853264
00000000: 58bc 6f3e 3458 99be b3b6 773e b17e 433e
00000010: ac45 c53c d075 2d3c d782 1abe 675b 12be
00000020: 1446 9cbe 01fb ed3d 8d97 68be 0aa5 9e3e
00000030: 949b 0d3f 522e b53d a913 9d3e ad94 86be
00000040: c6a9 25bd bb6d 9b3c 4a54 dfbe 997d 7bbe
00000050: 0c31 2e3e 2d60 e4bd 13fa 523e 8a26 a4be
00000060: 271c 603e 4d00 78be e4b7 d1bd 0b46 94be
00000070: 819f 4cbe cb00 693e a5ac 283f 413a 6dbe
00000080: 628d d03e 8278 383e 9c38 933d 8459 663d
00000090: 2b45 64be 140a 1cbe 2627 3bbe e859 903e
000000a0: 9097 aa3e 56bb 053d 7419 84be 6650 0e3e
000000b0: 0025 a23d 5daa 36be 8331 87bd 0bbd 4d3e
000000c0: 3715 6bbe f679 3f3f bfb8 96be a720 2ebe
000000d0: 60be 423e b523 babd afd4 323d 9219 0fbe
000000e0: ecb8 74be 0d5e 0e3e 2902 af3e ae07 253d
000000f0: 1b3b 60be b7ce 203e 3923 42bd 64d2 86bd
00000100: f30b 1dbe 53a8 d33c dbcb 9fbe 849c 33be
00000110: f48b 703e 183f 813d 315d 24be ad78 8f3c
00000120: fc8d 3a3e a27b 2abd 0fba 2d3e 09ea 0a3d
00000130: 9640 433e 96fb 26bc 35e2 fc3d 6437 86be
00000140: 6c39 a2be e483 7abe 2fc0 c7bd 3f5a 9b3e
00000150: 558c 82bd 6e6b 80be b94d a73e 8046 3c3e
00000160: e1a0 723e 987e 2bbe 1453 cc3d 23ae 833d
00000170: 4d2d 9a3d 18bb f9bd 11e5 a03d 8b2a a03e
00000180: 12dd 683e 6e50 7abe 493f 3abe d607 c9bd
00000190: f1a2 323e ae6e eabd 5f9f a13d 747a e5bd
000001a0: ec49 563e 7a1a cd3d 06b0 1b3c e159 35be
000001b0: 3fd2 d3bc 5b69 7d3e 38f9 5abe 0b49 853d
000001c0: 5f49 c43e 5a66 9d3d 1c23 c0bc 1ee1 7fbe
000001d0: b7d7 d5bd 8e0a 4d39 b126 123e 21c3 1ebe
000001e0: 843c aa3e 93e1 83be 9a25 85be 9e74 b63d
000001f0: 1721 393e 0845 283e 2532 99bd 4320 8fbe
00000200: 161a 07be 8e00 673d a25d 093d a913 74be
00000210: 23c4 9ebc f914 0d3e d8f5 d23d cfa4 fcbd
00000220: 68b1 843d 2851 30be 8700 56bd 5819 9a3e
00000230: 0ba7 80be 9d75 7b3e b46b 9bbe 45be 853e
00000240: 55df eebc ec39 23be 8aee a7bd 56d3 1d3e
00000250: e889 e9bd 7c86 cc3d f660 54be 12c2 0b3e
00000260: befa e8bd 0e6c 143d ab0f 1dbe 5e36 393e
00000270: 5da6 7cbe 7f2e cabb dc54 4ebe b0fd bcbe
00000280: 0f84 dabd 348c 9ebe 56b3 11be 8ba9 dcbd
00000290: cd49 b3be 596c a83e 59c9 6ebe 5d0f 313e
000002a0: eb31 1a3e a775 5b3c 7c10 9cbe ebce 87be
000002b0: 00ea 7fbe 4370 973c 86b7 6a3e e0c5 843d
000002c0: 5f67 0f3e 4b8c 843e c9e9 9c3e 987d 8f3c
000002d0: f26b 29be e95b 863d fbd7 c7bd 9150 9abe
000002e0: 08f7 fa3d fe2e a5be dda0 92bd 3397 aabd
000002f0: 9a00 8f3e 1541 27bd e842 7fbe 696d 0f3e
00000300: 7d36 67bd 9551 cebd 4186 8b3e 070b 67be
00000310: 327e 853d 2382 7abe 38df 82be 3181 99be
00000320: 288a b0be 0d8e 013e 1461 0f3d 5fa3 0fbe
00000330: 5d72 cfbe e282 8a3e 7fb7 523e daa8 02be
00000340: 7375 18be 56db 873d 1db8 8b3e 1eb8 463e
00000350: 3089 87be 396e 013e 48cd 223e 6966 04be
00000360: af62 b93b 938c 4a3e 430a 98be c2c1 593e
00000370: 6c13 2fbe 6c4c 813e 4161 97bd dcfb b2be
00000380: 5fd7 77be 3624 82be 9e52 c83d 35d7 33bd
00000390: 5bc4 1a3e 6890 85be 06c7 b13e 4e52 d03d
000003a0: 6c17 2c3c 2f4f e9bd 8909 6fbe 9b8b 5abd
000003b0: dcdc 04be 8485 f33d b7f4 4a3e 26e8 35be
000003c0: 991c ce3d c7f2 ddbd 9c2d 2cbe 18ec adbe
000003d0: 6ca4 39be 0905 6c3e 81fd 77be ecda 08be
000003e0: 9992 d43c ba92 dcbe 297c adbe a584 823e
000003f0: 20ea 043d da90 4abe c15d 24be 9791 b7be

79 f4 [50, 50]
-0.09898418 0.08273555 -0.045790963 0.01342884 0.050232943 0.16483743 0.09168045 -0.031271674
0.076785065 0.24087231 0.038961254 0.101364456 0.046251446 -0.27121997 0.19580543 -0.102728635
-0.05511117 -0.0088907415 0.046130106 -0.05876996 0.054239366 -0.072497115 0.13410197 0.08412387
0.102271445 0.19870812 0.054298695 0.058102123 0.01812122 -0.03456329 0.03254591 0.107182965
0.18574652 -0.1966661 0.09515059 0.0754424 -0.109863214 0.09482116 0.08777042 -0.0456364
0.14182235 0.0009058761 0.15378685 0.11074412 0.23624842 0.10272142 -0.49183258 -0.19352719
0.026393395 0.15779112 -0.005823937 0.073166825 -0.09062358 0.105803005 0.06535983 0.0022683882
0.10668347 -0.01274301 -0.07060955 -0.098322295 -0.16930434 0.12323517 0.11493832 0.011594843
0.1564714 0.059477836 -0.20120682 -0.11102783 0.083622806 -0.073901564 0.095087826 -0.06711775
0.06576232 0.16041535 0.044339146 0.19065168 0.14117119 0.10875419 0.08457882 -0.033388186
-0.004791409 -0.0741955 -0.010966634 0.055327572 0.007977577 0.07917676 0.03836168 0.016044106
-0.05168951 -0.12184367 -0.06842773 -0.09545759 -0.116133645 -0.076896116 -0.03528691 -0.064944975
-0.034537915 0.04408742 -0.14679419 0.17584781 0.07113894 -0.099365525 0.12533681 -0.04914682
0.119212694 -0.122741766 0.17062582 0.1321218 0.10548341 0.11486666 0.06739128 0.04802721
0.094427116 -0.00087895314 -0.039701298 0.10992287 0.08678542 -0.11080536 0.111393645 -0.064319134
-0.07745596 -0.05576037 -0.059913006 0.16238005 0.034003507 -0.049081333 -0.119675696 0.17801231
0.13651441 0.0376117 0.14443472 0.08521764 0.040248383 0.04920559 0.115313195 0.091721274
-0.0029525089 -0.034236677 -0.11901464 -0.029432703 0.15710834 -0.044901468 -0.033637535 0.120721735
0.06329645 -0.3565044 0.20152572 -0.0072223353 0.046273995 0.122328855 -0.083580695 0.13087416
0.13882981 0.09629727 -0.10368285 0.10455917 -0.14258118 -0.052425016 0.0067161666 0.054084204
0.007787487 -0.1523429 -0.070431165 0.12752005 0.0099925045 0.0950199 0.054565273 -0.00096010446
-0.12582007 0.04034284 -0.049947783 0.13996698 -0.036786463 -0.26519188 0.049964692 -0.08639972
-0.015937718 0.016651293 -0.21121007 0.07988006 0.1319318 0.07526496 0.06744908 0.01742175
-0.018986605 -0.112803414 0.046151366 -0.1218689 0.13456099 0.14799899 0.058001865 -0.48986027
0.041386496 -0.14975034 0.057081778 -0.095821835 0.14313678 -0.09569516 -0.105575666 -0.1090894
0.144754 0.19593997 -0.045333877 0.100739755 -0.0007220192 -0.009199438 -0.08625493 -0.026999343
-0.027737075 0.050316125 0.16570412 -0.01877573 -0.1199579 0.13515948 0.027624995 -0.09522938
-0.01810687 0.02480017 0.031176474 0.20571487 -0.15339911 -0.09154489 0.06172167 0.0003086327
-0.0523388 -0.0016334791 -0.021276858 -0.12705305 0.13293876 0.060664974 -0.020204753 -0.07829583
0.22950526 -0.25229707 0.08597246 -0.07604536 -0.028346892 0.059812687 -0.1303434 -0.050107647
0.14060634 -0.007043429 -0.041134827 0.1348311 -0.04461946 0.02418397 -0.29553312 -0.108677655
0.0988887 0.13573557 0.15217409 0.020014673 0.092320755 -0.077999726 0.16281293 0.0085546505
00000000: 38b8 cabd 4271 a93d 4e8f 3bbd a304 5c3c
00000010: 0fc1 4d3d 25cb 283e f6c2 bb3d ba16 00bd
00000020: 7d41 9d3d 3ba7 763e d695 1f3d 2b98 cf3d
00000030: 2872 3d3d 58dd 8abe 3881 483e 6463 d2bd
00000040: 40bc 61bd 79aa 11bc ecf2 3c3d c5b8 70bd
00000050: 192a 5e3d 5e79 94bd 0752 093e 2349 ac3d
00000060: b173 d13d 247a 4b3e 4f68 5e3d 7efc 6d3d
00000070: f472 943c 3d92 0dbd dc4e 053d be82 db3d
00000080: 5634 3e3e d762 49be 50de c23d 8c81 9a3d
00000090: f7ff e0bd 9931 c23d fac0 b33d 3ced 3abd
000000a0: e139 113e 5178 6d3a 4d7a 1d3e d0cd e23d
000000b0: 1beb 713e 9c5f d23d 7bd1 fbbe fe2b 46be
000000c0: f636 d83c ff93 213e b9d6 bebb 7dd8 953d
000000d0: db98 b9bd 3faf d83d 60db 853d 3da9 143b
000000e0: dd7c da3d 0fc8 50bc bd9b 90bd 335d c9bd
000000f0: 1e5e 2dbe b962 fc3d c864 eb3d 4cf8 3d3c
00000100: 0a3a 203e 089f 733d 2909 4ebe 8f62 e3bd
00000110: 6f42 ab3d b459 97bd 68bd c23d 0875 89bd
00000120: 65ae 863d ec43 243e f79c 353d 323a 433e
00000130: 2e8f 103e 84ba de3d a937 ad3d 0dc2 08bd
00000140: 4001 9dbb cff3 97bd 66ad 33bc 2a9f 623d
00000150: 62b4 023c 6d27 a23d 2321 1d3d ee6e 833c
00000160: 61b8 53bd 2d89 f9bd d623 8cbd 457f c3bd
00000170: 7ad7 edbd b67b 9dbd 0289 10bd df01 85bd
00000180: a177 0dbd 0395 343d 3751 16be 7311 343e
00000190: 4bb1 913d 2780 cbbd 4b58 003e 2d4e 49bd
000001a0: c925 f43d 0960 fbbd 89b8 2e3e f04a 073e
000001b0: b007 d83d 363f eb3d 7004 8a3d 2eb8 443d
000001c0: 0163 c13d 8c69 66ba d49d 22bd 3e1f e13d
000001d0: 8ebc b13d eced e2bd 5a22 e43d c0b9 83bd
000001e0: 3ba1 9ebd fc64 64bd 5767 75bd f546 263e
000001f0: 4347 0b3d 8209 49bd 8818 f5bd dc48 363e
00000200: 6fca 0b3e ba0e 1a3d b2e6 133e 9686 ae3d
00000210: 7ddb 243d cd8b 493d 5329 ec3d 5dd8 bb3d
00000220: e17e 41bb c23b 0cbd f3bd f3bd da1c f1bc
00000230: 02e1 203e 9aea 37bd 83c7 09bd f53c f73d
00000240: 92a1 813d bf87 b6be c25c 4e3e 57a9 ecbb
00000250: cd89 3d3d 8d87 fa3d 5b2c abbd e003 063e
00000260: 6729 0e3e 8137 c53d ad57 d4bd 1e23 d63d
00000270: cd00 12be 9dbb 56bd 4a13 dc3b 6687 5d3d
00000280: 2d2e ff3b c7ff 1bbe 373e 90bd 9e94 023e
00000290: 9ab7 233c cb99 c23d d67f 5f3d 85af 7bba
000002a0: fad6 00be 893e 253d 0c96 4cbd 8153 0f3e
000002b0: 67ad 16bd 3bc7 87be c7a7 4c3d 56f2 b0bd
000002c0: d18f 82bc 4b68 883c 7447 58be 2898 a33d
000002d0: 2119 073e 8424 9a3d be22 8a3d 0fb8 8e3c
000002e0: cc89 9bbc 7a05 e7bd 3709 3d3d 6796 f9bd
000002f0: 5bca 093e 0c8d 173e 5d93 6d3d f7ce fabe
00000300: e384 293d 2758 19be 95ce 693d 3d3e c4bd
00000310: 7392 123e d3fb c3bd 0e38 d8bd 436a dfbd
00000320: 643a 143e 7da4 483e 04b0 39bd a550 ce3d
00000330: e345 3dba 3db9 16bc 6da6 b0bd ba2d ddbc
00000340: dd38 e3bc 4818 4e3d 57ae 293e 8fcf 99bc
00000350: 7dac f5bd 3f67 0a3e d04d e23c 9f07 c3bd
00000360: dc54 94bc ba29 cb3c ce65 ff3c eba6 523e
00000370: a814 1dbe e37b bbbd ddcf 7c3d fbcf a139
00000380: 3661 56bd 771a d6ba ce4c aebc 321a 02be
00000390: 1921 083e d67b 783d 7084 a5bc 9059 a0bd
000003a0: 6d03 6b3e 152d 81be 5412 b03d abbd 9bbd
000003b0: be37 e8bc 26fe 743d be78 05be ad3d 4dbd
000003c0: 1cfb 0f3e 91cc e6bb fe7c 28bd 2a11 0a3e
000003d0: e5c2 36bd 761d c63c 1e50 97be 6492 debd
000003e0: 2986 ca3d 44fe 0a3e 86d3 1b3e d0f5 a33c
000003f0: aa12 bd3d 52be 9fbd 6fb8 263e ce28 0c3c

80 f4 [6, 50]
0.18317701 0.5560371 0.041266654 -0.37792388 0.103457876 0.20926698 -0.26397493 0.19045542
-0.15021086 -0.39172366 -0.13721801 -0.13940193 -0.24705213 0.19740279 -0.13844134 -0.18866804
-0.17806536 -0.29533496 -0.37450597 0.02295595 -0.3596255 0.06948791 0.10924509 0.5019581
-0.38223365 0.26262218 -0.13489321 0.019229932 -0.055576496 -0.05788828 -0.1905831 0.641813
-0.10816068 -0.26720807 -0.25829735 0.20501146 0.17974143 -0.23903975 -0.10817419 0.2704419
-0.124489665 -0.18905291 -0.080000766 0.12471953 0.3125426 0.38081878 0.53399545 -0.14096555
-0.29493278 -0.37164465 0.21315931 -0.33039507 -0.26436186 -0.3390486 0.06020881 -0.3703242
0.35310778 0.08812261 -0.15720205 -0.15896483 0.2453995 0.29933143 0.019342894 -0.29174566
0.08849055 0.12906803 -0.042060178 0.26475462 0.3597596 0.22290027 -0.12996441 -0.21096842
-0.055027578 0.31690753 0.34615862 -0.23050831 0.209731 -0.2650168 0.12151704 -0.13884656
-0.32684916 -0.33832255 0.004801448 0.3861587 0.10126488 0.2979792 -0.31286755 -0.19350192
-0.3275273 0.023431487 -0.18248743 -0.03928361 -0.31503996 0.16586187 0.07736151 0.046972066
0.28642634 0.3045745 0.2965221 0.19602668 0.21904303 -0.14037639 -0.22252153 -0.06856478
0.18593691 0.047871612 -0.15672094 0.009449486 -0.014464219 -0.027795943 -0.07225046 -0.18307722
-0.32902706 0.09336702 0.1274888 0.14760205 -0.008919136 0.041449957 0.09902857 0.38506415
0.0016961542 -0.32055 -0.36555234 0.36203796 -0.03151182 -0.22004539 0.2058626 0.027601447
-0.34563714 0.23042208 0.1223343 -0.39242604 -0.043431558 -0.015853306 -0.3826485 -0.20881985
-0.29706526 -0.12198056 -0.08076139 0.19243154 -0.28035262 -0.17477632 0.346037 0.14867131
-0.12889017 0.32732254 -0.2724956 0.17622182 0.10488645 -0.35951015 0.038085323 -0.3817627
-0.3239443 -0.013994466 0.20739095 -0.27097848 -0.39067328 0.38621378 -0.18757959 -0.39266273
-0.2894692 -0.22924814 0.015427429 0.33362374 -0.024163503 0.42515445 0.0744137 0.056698836
-0.14169356 0.33731255 0.32361555 0.3561338 -0.3203306 0.30489534 0.27130875 0.31727186
0.30894494 0.08396593 -0.28553504 -0.1899659 -0.3527163 -0.21205911 0.27947897 -0.38997242
0.3220005 -0.3731689 0.35146675 -0.23898648 0.038516846 -0.25006774 -0.23607184 -0.22375378
0.12586546 -0.24024415 0.26884374 -0.33546454 0.24696395 -0.21707088 0.34278047 0.40323368
-0.19699222 -0.30734798 0.035795905 -0.15350255 -0.26534894 0.122384615 0.11158941 0.002494195
0.10067048 -0.31539074 0.35850385 -0.2983151 -0.115329504 0.19032627 0.13824715 0.07875346
-0.12546177 0.23775224 -0.271352 -0.38894483 -0.2093361 -0.03733618 -0.29998 -0.29914585
0.021718137 0.35593307 0.0984432 -0.21566048 -0.14627713 0.33687845 -0.1409643 0.017565126
0.11730112 0.2978445 0.41340008 -0.065418586 -0.06234765 0.00036913157 -0.37210646 -0.20036805
0.45688036 -0.33737823 0.09429348 0.10164821 -0.2957296 0.33795235 0.115199916 0.17205065
-0.090624385 -0.2496752 0.26066202 0.21919784 -0.27205682 -0.0009425448 0.2352134 0.43311027
00000000: c192 3b3e 7358 0e3f 3907 293d 3d7f c1be
00000010: b9e1 d33d 154a 563e b927 87be bf06 433e
00000020: e0d0 19be 0190 c8be e182 0cbe 61bf 0ebe
00000030: 3cfb 7cbe f523 4a3e 91c3 0dbe 3232 41be
00000040: c456 36be 2536 97be 3fbf bfbe 1e0e bc3c
00000050: d520 b8be ad4f 8e3d e4bb df3d 5380 003f
00000060: 21b4 c3be 6a76 863e 7221 0abe 1788 9d3c
00000070: 2ea4 63bd 431c 6dbd 3728 43be db4d 243f
00000080: 5983 ddbd 7fcf 88be 8d3f 84be 86ee 513e
00000090: 230e 383e d6c6 74be 6e8a ddbd 5c77 8a3e
000000a0: 70f4 febd 1697 41be 71d7 a3bd f46c ff3d
000000b0: 9505 a03e aefa c23e edb3 083f 4659 10be
000000c0: 6e01 97be 3548 bebe 6f46 5a3e 8b29 a9be
000000d0: 705a 87be c797 adbe 839d 763d 229b bdbe
000000e0: 8bca b43e a079 b43d 93f9 20be adc7 22be
000000f0: 024a 7b3e f841 993e fd74 9e3c b05f 95be
00000100: 893a b53d 692a 043e 4b47 2cbd eb8d 873e
00000110: 6932 b83e f83f 643e 6415 05be 1b08 58be
00000120: 9964 61bd b441 a23e b43b b13e 5f0a 6cbe
00000130: b9c3 563e 48b0 87be eddd f83d cb2d 0ebe
00000140: c658 a7be 9d38 adbe 7755 9d3b 98b6 c53e
00000150: f663 cf3d bb90 983e 2d30 a0be 5e25 46be
00000160: a9b1 a7be 64f3 bf3c fcdd 3abe dae7 20bd
00000170: eb4c a1be b2d7 293e b66f 9e3d c865 403d
00000180: 79a6 923e 30f1 9b3e bfd1 973e 38bb 483e
00000190: d14c 603e d4be 0fbe afdc 63be b16b 8cbd
000001a0: 3f66 3e3e 0615 443d 747b 20be 04d2 1a3c
000001b0: 55fb 6cbc 51b4 e3bc 0df8 93bd 9878 3bbe
000001c0: 3c76 a8be 3537 bf3d 6d8c 023e fe24 173e
000001d0: 9121 12bc 6ec7 293d 7ecf ca3d 2127 c53e
000001e0: 7e51 de3a 211f a4be ad29 bbbe 0a5d b93e
000001f0: 8a12 01bd 9453 61be a5cd 523e 6e1c e23c
00000200: 5af7 b0be c4f3 6b3e 688a fa3d 11ec c8be
00000210: 4ae5 31bd cbde 81bc 81ea c3be dfd4 55be
00000220: f018 98be f2d0 f9bd 3a66 a5bd c60c 453e
00000230: 618a 8fbe 90f8 32be c32b b13e 4b3d 183e
00000240: c9fb 03be d296 a73e 8b84 8bbe 7e73 343e
00000250: b5ce d63d b711 b8be 5bff 1b3d 6776 c3be
00000260: 07dc a5be 0b49 65bc 4b5e 543e b1bd 8abe
00000270: 5406 c8be d0bd c53e dd14 40be 170b c9be
00000280: 4f35 94be 06c0 6abe 54c3 7c3c bbd0 aa3e
00000290: 8af2 c5bc d8ad d93e 3666 983d 0a3d 683d
000002a0: 1e18 11be 3bb4 ac3e f0b0 a53e 2b57 b63e
000002b0: 5f02 a4be 3e1b 9c3e fbe8 8a3e 7571 a23e
000002c0: 082e 9e3e 54f6 ab3d a631 92be 6c86 42be
000002d0: 3b97 b4be 0626 59be de17 8f3e 77aa c7be
000002e0: 40dd a43e fe0f bfbe 73f3 b33e dfb8 74be
000002f0: d7c3 1d3d e108 80be d1bc 71be b61f 65be
00000300: e0e2 003e 9002 76be e3a5 893e 02c2 abbe
00000310: 1ee4 7c3e d447 5ebe ec80 af3e a574 ce3e
00000320: 54b8 49be b75c 9dbe ba9e 123d c62f 1dbe
00000330: d1db 87be c9a4 fa3d fd88 e43d a675 233b
00000340: 532c ce3d e57a a1be d18d b73e c2bc 98be
00000350: e031 ecbd e4e4 423e a990 0d3e 7e49 a13d
00000360: 0d79 00be 5375 733e a6ee 8abe c723 c7be
00000370: 345c 56be d3ed 18bd fb96 99be a529 99be
00000380: 3cea b13c dc3c b63e 979c c93d 1ad6 5cbe
00000390: acc9 15be 557b ac3e f258 10be bde4 8f3c
000003a0: 923b f03d 137f 983e 2da9 d33e 2efa 85bd
000003b0: 4060 7fbd 0088 c139 bd84 bebe 482d 4dbe
000003c0: 39ec e93e d7bc acbe f11c c13d f02c d03d
000003d0: df69 97be 1708 ad3e efed eb3d 0c2e 303e
000003e0: 4799 b9bd dbaa 7fbe 7e75 853e 6675 603e
000003f0: 084b 8bbe 1c15 77ba c8db 703e a1c0 dd3e
