Models/Learned_index/lindex_tmp.onnx (onnx, 134777 bytes, 7 tensors)

fc1.weight f4 [128, 1]
0	0x3e98db24	0.2985469
1	0x3e2b3cf8	0.16722476
2	0x3f18890e	0.5958413
3	0x3ed5c950	0.41755152
4	0x3e9abd20	0.30222416
5	0xbf3cb51a	-0.7371384
6	0xbf56398e	-0.8368157
7	0x3e4d54d8	0.20051897
8	0x3f195b88	0.5990529
9	0x3f58dc88	0.84711504
10	0xbd65e820	-0.056129575
11	0xbeb3acb4	-0.350927
12	0xbf75e1a0	-0.960474
13	0x3e867834	0.26263583
14	0x3f7cdff6	0.9877924
15	0x3e879504	0.26480877
16	0xbe0e16d0	-0.1387589
17	0x3f373b74	0.71575093
18	0xbef60210	-0.4804845
19	0x3d93b2f0	0.07211864
20	0xbe849904	-0.25897992
21	0xbf6b26a4	-0.91855836
22	0x3f04825c	0.5176141
23	0x3e09ae18	0.13445318
24	0xbf521a5c	-0.8207147
25	0xbe426bb8	-0.18986404
26	0xbe0bc038	-0.13647544
27	0x3e2c4578	0.16823375
28	0x3eb280b4	0.34863818
29	0xbebd6d20	-0.36997318
30	0x3f4259d0	0.75918293
31	0x3e3558a0	0.17709589
32	0xbf3a36a8	-0.7273965
33	0x3f3730c4	0.71558785
34	0xbf4f6d74	-0.8102639
35	0x3f0ffbcc	0.56243587
36	0xbf1c8494	-0.611398
37	0x3e8ee1c0	0.2790661
38	0x3ea9ddd8	0.33177066
39	0xbf5b1740	-0.8558235
40	0x3ee4b5ac	0.44669855
41	0x3eda5f78	0.42650962
42	0xbf2dbcd4	-0.67866254
43	0xbf7088c4	-0.9395869
44	0xbeb33914	-0.35004485
45	0x3f7d1778	0.98863935
46	0x3e298818	0.16555822
47	0xbdf00890	-0.11720383
48	0x3f47991a	0.7796799
49	0x3ecac4c4	0.39603245
50	0xbeb88bc4	-0.36044133
51	0xbf4f3b5a	-0.8094994
52	0x3f0b9320	0.5452137
53	0x3ebc3944	0.3676244
54	0xbe43ed50	-0.19133496
55	0xbe88a344	-0.26687062
56	0x3eb6c2ec	0.3569559
57	0x3f12743e	0.5720862
58	0x3f2897bc	0.6585653
59	0x3e425208	0.18976605
60	0x3f2d5ad0	0.67716694
61	0x3ef1b55c	0.4720868
62	0xbf23116c	-0.6369846
63	0xbdeb4980	-0.114886284
64	0x3f07598c	0.5287101
65	0x3ed33a20	0.41255283
66	0x3e1def58	0.15423334
67	0xbe559778	-0.20858562
68	0x3f17d524	0.593096
69	0xbeae9ce4	-0.34104073
70	0x3d085860	0.033287406
71	0x3f7c7dba	0.98629344
72	0xbe4ec018	-0.20190465
73	0x3e5be010	0.21472192
74	0xbe530800	-0.2060852
75	0xbe93bc94	-0.2885481
76	0xbce42240	-0.027848363
77	0x3ec61520	0.38687992
78	0xbf7e6848	-0.9937787
79	0x3f52a31e	0.8228015
80	0xbf00f66c	-0.5037601
81	0x3f37fa26	0.7186607
82	0xbed4a540	-0.41532326
83	0xbf642b7a	-0.8912884
84	0x3f3cbd42	0.73726285
85	0xbed3d0ac	-0.41370142
86	0xbf1ac822	-0.6046163
87	0xbf5a0cf4	-0.85176015
88	0xbc34c680	-0.011033654
89	0x3d96eba0	0.07369161
90	0x3edc98f4	0.43085444
91	0xbf6c3c30	-0.9227934
92	0x3f7f6860	0.9976864
93	0x3f2a2326	0.6645988
94	0xbf041136	-0.5158876
95	0x3e28e1d8	0.16492403
96	0xbf7f27aa	-0.996699
97	0xbf502026	-0.81299055
98	0x3f56e600	0.839447
99	0xbf7f6992	-0.9977046
100	0xbf1993da	-0.5999123
101	0x3f00916c	0.50221896
102	0xbda4e300	-0.08051109
103	0x3f468154	0.7754109
104	0x3e8b7e4c	0.27244794
105	0xbf5dffd6	-0.867185
106	0xbeeede88	-0.46654153
107	0x3f3ae0bc	0.7299917
108	0x3d7689c0	0.060189962
109	0x3f223ab0	0.633708
110	0xbe68f838	-0.22750938
111	0xbe8dc178	-0.27686667
112	0x3ef695e8	0.48161244
113	0xbe9c07c0	-0.30474663
114	0xbf550c1a	-0.8322159
115	0xbf0b9c60	-0.54535484
116	0x3f42480c	0.75891185
117	0x3eba4584	0.3638116
118	0x3dfd1060	0.12356639
119	0xbd8a2520	-0.06745362
120	0x3f4a70cc	0.79078364
121	0xbefb43bc	-0.49075115
122	0xbe794b98	-0.24345243
123	0xbf74e042	-0.9565469
124	0xbee23214	-0.44178832
125	0xbee02d8c	-0.4378475
126	0x3e70a8d0	0.23501897
127	0xbe934c6c	-0.28769243

fc1.bias f4 [128]
0	0x3f769f14	0.96336484
1	0x3bbd2500	0.005772233
2	0xbdd2f550	-0.10300696
3	0xbe91c5a0	-0.28471088
4	0x3f68b010	0.9089365
5	0x3f619988	0.88124895
6	0xbedb9794	-0.42889082
7	0x3d938760	0.07203555
8	0xbdcfc8e0	-0.10145736
9	0x3e4b6930	0.19864345
10	0xbd6274c0	-0.055287123
11	0xbe5c68c0	-0.21524334
12	0xbe8febf8	-0.28109717
13	0xbf53716a	-0.8259493
14	0x3e5bed80	0.21477318
15	0x3ee75c4c	0.45187604
16	0xbe574c78	-0.21025264
17	0x3f6f2594	0.93416715
18	0x3e6734b8	0.22578704
19	0xbf4b5e40	-0.7944069
20	0x3d452880	0.048134327
21	0xbf69b358	-0.9128928
22	0xbefdd388	-0.49575448
23	0x3cbf1600	0.02332592
24	0x3f2fe72a	0.68712103
25	0xbf2519f4	-0.64492726
26	0xbdb3ac80	-0.08773136
27	0xbf63acc8	-0.8893552
28	0x3e43df70	0.19128203
29	0xbf2edae2	-0.6830274
30	0xbeed374c	-0.4633125
31	0x3db4bef0	0.08825481
32	0x3dd76220	0.10516763
33	0x3ee165e8	0.4402306
34	0x3efd81c0	0.49513054
35	0xbf20ac38	-0.62762785
36	0x3f1a8f16	0.6037458
37	0x3f7bd404	0.98370385
38	0x3f63faca	0.8905455
39	0xbe7c3f50	-0.24633527
40	0x3f60a858	0.8775687
41	0xbf6dd598	-0.92904043
42	0xbe4038f0	-0.1877172
43	0xbf2b3cba	-0.66889536
44	0x3f53b050	0.82690907
45	0x3eaf4ec0	0.3423977
46	0x3dc05b40	0.093924046
47	0xbf352846	-0.7076458
48	0xbf370ab0	-0.7150068
49	0x3f771ef8	0.9653163
50	0x3f613f10	0.8798685
51	0xbf121d4e	-0.57075965
52	0x3f132420	0.57477
53	0x3e878a60	0.2647276
54	0x3f41ad8a	0.75655425
55	0x3eca50c4	0.39514744
56	0x3d5c1e20	0.053739667
57	0xbdeb2a90	-0.114827275
58	0xbc164500	-0.009171724
59	0xbc8381c0	-0.01605308
60	0x3e736f80	0.23773003
61	0x3f04bfde	0.51855266
62	0x3f3e5880	0.7435379
63	0xbcd18e80	-0.025580645
64	0x3f4aed1a	0.7926804
65	0xbe457ba8	-0.19285452
66	0xbf45ae6c	-0.7721927
67	0x3eb21724	0.3478328
68	0xbf26f982	-0.6522447
69	0x3f05d9e4	0.522856
70	0xbe02f250	-0.12787747
71	0xbe1b5778	-0.15170085
72	0xbb823b00	-0.0039743185
73	0x3ec41744	0.38299
74	0xbcfea940	-0.031086564
75	0x3da3b420	0.079933405
76	0xbe9f2e60	-0.3109007
77	0x3a716800	0.00092089176
78	0xbf7574e0	-0.9588146
79	0xbedb768c	-0.42863882
80	0x3f3150d6	0.6926397
81	0xbe8db8a0	-0.2767992
82	0xbf743108	-0.95387316
83	0x3f14ddd4	0.5815098
84	0xbe48e318	-0.1961788
85	0xbf3345e8	-0.70028543
86	0xbe2f93e8	-0.17146266
87	0xbf49cbf2	-0.7882682
88	0x3f7d2fd2	0.98901093
89	0x3f515c94	0.8178189
90	0xbd8da010	-0.06915295
91	0x3d310f40	0.043227434
92	0x3f62a8ba	0.88538706
93	0xbf1dc880	-0.61634064
94	0x3d032200	0.032014847
95	0xbda8ab50	-0.082358
96	0x3f291898	0.6605315
97	0xbf21e7e2	-0.6324445
98	0x3e356320	0.17713594
99	0x3ea8484c	0.32867658
100	0x3f292e8e	0.6608666
101	0xbe8b29ac	-0.2718023
102	0xbed5ea60	-0.41780376
103	0x3f1ba75e	0.6080226
104	0xbf7897ce	-0.97106636
105	0x3e060518	0.1308788
106	0x3f67932e	0.90458953
107	0x3d785fe0	0.06063831
108	0xbf49b6d8	-0.7879462
109	0xbf3c09ea	-0.7345263
110	0x3f0976d8	0.53696966
111	0x3d077da0	0.03307879
112	0xbf66121c	-0.8987138
113	0xbdb429b0	-0.08797014
114	0x3e65ef98	0.22454679
115	0xbf79779c	-0.97448134
116	0x3e051eb8	0.13
117	0xbf16619c	-0.5874269
118	0x3f72fb1e	0.94914424
119	0x3d016640	0.031591654
120	0x3e86e49c	0.2634629
121	0xbf106004	-0.5639651
122	0x3f647fa2	0.8925725
123	0x3f41990e	0.7562417
124	0xbe948310	-0.29006243
125	0xbee8f1d4	-0.45497
126	0xbf43a732	-0.76426995
127	0xbed74ea8	-0.42052197

fc2.weight f4 [128, 128]
0	0xbc4f8812	-0.012666719
1	0x3d30e658	0.043188423
2	0x3d879e6e	0.06622015
3	0x3d9e2753	0.07722344
4	0xbd93d8b7	-0.072190695
5	0x3cbb4a91	0.022862704
6	0x3c8ce710	0.017200023
7	0x3d30b9f6	0.043146096
8	0x3d43464e	0.04767447
9	0xbc940a34	-0.018071271
10	0x3c41f30c	0.011837732
11	0xbd19b719	-0.03752813
12	0x3d9cc9d7	0.076556854
13	0xbbfccb35	-0.007714654
14	0xbdab8c54	-0.08376375
15	0x3dabf068	0.08395463
16	0xbd058d98	-0.032605737
17	0x3cf31001	0.029670717
18	0xbd69be61	-0.057066325
19	0xbd7720ee	-0.06033414
20	0xbd9463e3	-0.072456144
21	0x3cbe45ef	0.023226706
22	0xbc47c05f	-0.012191861
23	0xbc97781a	-0.018489886
24	0x3b86aa05	0.0041096234
25	0x3d49ba62	0.049250014
26	0xbdb4e562	-0.08832814
27	0xbcfafcb1	-0.03063807
28	0xbc823608	-0.015894905
29	0xbbdfaffb	-0.0068263984
30	0xbd3eb833	-0.046562385
31	0x3d805df7	0.06267922
32	0x3ca6404b	0.02029433
33	0xbbe0fd62	-0.006866143
34	0x3d9cafa9	0.07650692
35	0x3ccf8659	0.025332617
36	0xbd24f0c2	-0.040268667
37	0x3d61b17f	0.055100914
38	0x3d8ca9bc	0.06868312
39	0x3dab0c7a	0.08351989
40	0xbcf241f8	-0.029572472
41	0xbda7601b	-0.081726275
42	0x3b6a5d7b	0.0035761285
43	0x3d508608	0.050909072
44	0xbda5f485	-0.08103279
45	0x3d2d5b01	0.042323116
46	0xbd21266c	-0.039343283
47	0xbd0525eb	-0.032506865
48	0xbb4f4ed7	-0.0031632686
49	0xbd08e3d9	-0.033420417
50	0x3da3151d	0.079630114
51	0x3da04d84	0.07827285
52	0xbc43d5bd	-0.011952815
53	0x3cbd7c6e	0.023130622
54	0x3c6a81fc	0.014313217
55	0x3cdfa3a1	0.027299704
56	0xbd99069e	-0.07471965
57	0xbaf45d62	-0.0018643553
58	0x3c969540	0.018381715
59	0x3a05b70a	0.00051008223
60	0xbcf71aec	-0.030164205
61	0xbd16bd26	-0.03680148
62	0x3d4f980c	0.050682113
63	0xbd120ecd	-0.035658646
64	0xbc796c2f	-0.015223547
65	0xbd4dbc4e	-0.05022841
66	0x3cace762	0.021106426
67	0xbd61d8d7	-0.055138435
68	0xbcd42d67	-0.025900556
69	0xbda7aca1	-0.08187223
70	0x3dacb15c	0.08432266
71	0xbcc805ab	-0.024416765
72	0x3d6d0ef7	0.0578756
73	0x3da54fba	0.08071847
74	0x3c652868	0.013986684
75	0xbd13ef8b	-0.036117118
76	0xbd2cb5c9	-0.04216555
77	0xbc0880f4	-0.008331526
78	0x3d9d3aa9	0.07677204
79	0xbce9c557	-0.028536482
80	0x3dac2b04	0.08406642
81	0x3ce39c6d	0.02778455
82	0xbc9bd335	-0.01902161
83	0xbd29fc39	-0.041500304
84	0xbd7515f8	-0.059835404
85	0x3d4963fc	0.04916762
86	0x3d1283af	0.035770115
87	0x3d7d60a9	0.06185976
88	0x3d6c6daa	0.05772177
89	0xbd315033	-0.043289375
90	0xbcd28134	-0.025696374
91	0xb8aae61c	-8.149093e-05
92	0xbabcb912	-0.0014398417
93	0x3c8b2d4c	0.016989373
94	0xbd3d4dcb	-0.046216767
95	0xbc7ec4bf	-0.015549838
96	0xbd8dede7	-0.06930142
97	0x3d6e6411	0.0582009
98	0x3d836bf2	0.06417073
99	0x3cdd2c73	0.026998734
100	0x3b89af6b	0.0042018197
101	0x3d4e1663	0.05031432
102	0x3a5e38dc	0.00084771006
103	0x3d2015b0	0.039083183
104	0x3d3a82cd	0.045534898
105	0x3d348880	0.04407549
106	0xbd7e6f76	-0.062118016
107	0x3d837704	0.06419185
108	0xbcc878cb	-0.024471661
109	0xbd3d1805	-0.046165485
110	0xbcf56445	-0.029955039
111	0xbd842946	-0.06453185
112	0xbd8a1820	-0.06742883
113	0x3d98dba0	0.07463765
114	0x3d87275d	0.06599305
115	0xbd9c315d	-0.07626603
116	0xbd89948a	-0.06717785
117	0xbd4b02f2	-0.049563356
118	0xbda8e231	-0.082462676
119	0xbd73c278	-0.05951163
120	0x3d3d4c45	0.046215314
121	0xbbd36435	-0.0064511546
122	0x3cccd720	0.025004923
123	0x3d55e0c8	0.05221632
124	0xbcf757d8	-0.030193254
125	0xbcf40eb7	-0.029792173
126	0xbd483d87	-0.048886802
127	0x3d457ae8	0.048212916
128	0xbc83edeb	-0.016104659
129	0x3d51b67c	0.05119942
130	0xbd87f767	-0.06638985
131	0x3db38cc3	0.087670825
132	0x3bb85153	0.005624929
133	0xbd5a748e	-0.05333381
134	0xbcc2c5d0	-0.023775965
135	0xbc316b97	-0.010828874
136	0x3da40fb5	0.080108084
137	0x3cadf793	0.021236217
138	0xbd961d46	-0.07329802
139	0x3d8e1e4c	0.069393724
140	0xbd58ccdb	-0.05292974
141	0xbd5b4bc5	-0.053539056
142	0x3d5e8965	0.05433025
143	0xbd8171aa	-0.06320508
144	0xbd9ebb02	-0.07750513
145	0x3da5a9fd	0.08089063
146	0x3d61c2a7	0.055117276
147	0x3d12b287	0.03581479
148	0x3da92a3e	0.0826001
149	0x3d643f37	0.05572435
150	0xbd17e43b	-0.037082892
151	0xbd8d8cde	-0.06911634
152	0x3cc0c846	0.023532998
153	0x3c6b6464	0.014367197
154	0xbca19d20	-0.019728243
155	0x3d5e00b9	0.054199908
156	0xbd293c00	-0.041316986
157	0xbd182974	-0.037148908
158	0x3d1ba40b	0.03799824
159	0x3d34aadc	0.044108257
160	0x3b7a1a38	0.00381626
161	0xbcdbbc3e	-0.02682316
162	0x3b661b79	0.003511159
163	0x3d272138	0.040803164
164	0xbd808a45	-0.06276373
165	0x3caf1352	0.021371517
166	0xbd695de2	-0.0569743
167	0x3ce4354b	0.027857443
168	0xbc44b2c1	-0.012005509
169	0xbda29b36	-0.079397604
170	0xbda8aebb	-0.08236452
171	0x3c227690	0.009915963
172	0xbd546675	-0.051855523
173	0x3d93b6a1	0.07212568
174	0xbd222d88	-0.039594203
175	0xbd36ddd1	-0.044645134
176	0x3db28810	0.08717358
177	0xbc95b32d	-0.018273914
178	0x3cbb78b5	0.022884706
179	0x3c000151	0.007812814
180	0x3d8050f7	0.06265443
181	0x3d496fb2	0.049178787
182	0x3b9261eb	0.004467239
183	0x3d16aea7	0.036787655
184	0x3b816ca3	0.003949718
185	0xbd74bdae	-0.059751205
186	0xbc8c0c75	-0.017095784
187	0xbc8f5540	-0.017496705
188	0x3d9fa491	0.077950604
189	0x3bc36653	0.0059631257
190	0xbc7dfa83	-0.015501621
191	0xbd3694da	-0.04457555
192	0x3d75bfe3	0.05999745
193	0xbd6f87a6	-0.058478974
194	0xbd9ba1f7	-0.07599252
195	0x3ca67bd2	0.020322714
196	0x3d831ee2	0.06402375
197	0xbca369c9	-0.019947903
198	0x3d40f7dc	0.047111377
199	0x3cc33353	0.023828184
200	0x3d3008cf	0.04297715
201	0xbdb4aba1	-0.08821798
202	0x3cabe363	0.02098245
203	0x3d82ac6a	0.063805416
204	0x3d09e4c2	0.033665426
205	0x3cf212dc	0.029550008
206	0x3d73e9f5	0.05954929
207	0x3d75ef3b	0.0600426
208	0x3ca60545	0.020266185
209	0x3b89c0be	0.004203885
210	0x3daa2ccc	0.083093256
211	0xbd491e99	-0.049101446
212	0x3d062c00	0.032756805
213	0x3d61c5b1	0.055120174
214	0x3d454846	0.04816463
215	0x3d588c99	0.05286846
216	0x3d308866	0.04309883
217	0xbb145539	-0.0022633804
218	0xbdb4ad73	-0.08822145
219	0xbd0c6e1b	-0.034284692
220	0xbc43466a	-0.0119186435
221	0x3d8be0bd	0.06829975
222	0x3daa8827	0.0832675
223	0x3d99b0a4	0.07504395
224	0xbd31d591	-0.043416563
225	0xbd19a89b	-0.03751431
226	0xbd40afcd	-0.047042657
227	0x3d816bcd	0.063193895
228	0x3da65c01	0.08123017
229	0x3b669847	0.003518598
230	0xbd9b0949	-0.075701304
231	0xbd83baa8	-0.06432086
232	0xbd19a196	-0.037507616
233	0xbd349422	-0.044086583
234	0x3cd37c73	0.025816178
235	0x3cb70a9e	0.02234393
236	0x3cf02a84	0.029317148
237	0xbd0597a9	-0.032615338
238	0x3c93adaf	0.018027155
239	0xbcd9cd23	-0.026587075
240	0xbd8fc71f	-0.07020401
241	0xbd312612	-0.043249197
242	0x3ce3fce7	0.027830554
243	0xbd9a6967	-0.07539635
244	0xbd420b42	-0.047374018
245	0xbd76d2c6	-0.060259603
246	0x3d502988	0.050820857
247	0x3d0063c5	0.031345148
248	0x3c4ff8da	0.012693608
249	0xbda0fedd	-0.07861111
250	0xbcae8edf	-0.02130836
251	0xbd9d1c17	-0.07671373
252	0x3ccd474b	0.02505841
253	0xbd62dc78	-0.055386037
254	0xb889e86d	-6.575962e-05
255	0x3c96e401	0.018419268

fc2.bias f4 [128]
0	0xbcc0447d	-0.023470158
1	0xbcecd137	-0.028908355
2	0x3cd7595c	0.026287727
3	0x3d82c326	0.06384878
4	0x39b0c9a9	0.00033719584
5	0xbc7e7768	-0.015531398
6	0xbbb3dd1d	-0.0054890052
7	0x3d52fc87	0.05151036
8	0xbd690cf9	-0.056897137
9	0x3cec4f8c	0.028846525
10	0x3d263566	0.04057827
11	0x3d2d4f75	0.042312104
12	0xbc863f72	-0.016387675
13	0xbd5660cd	-0.05233841
14	0xbd78a752	-0.060706444
15	0xbdb06dff	-0.0861473
16	0x3d857c8b	0.06517895
17	0x3ce86a38	0.028370962
18	0x3d9effb9	0.07763619
19	0x3b93c0a5	0.004509049
20	0x3d18cc84	0.037304416
21	0x39993fb3	0.00029229894
22	0xbda46e04	-0.08028796
23	0xbd3f9fb3	-0.04678316
24	0x3c8451c0	0.016152263
25	0x3dabe406	0.083931014
26	0x3c9e6e8a	0.019339819
27	0xbd519447	-0.0511668
28	0xbc7fecb6	-0.015620401
29	0x3c1b2559	0.009469354
30	0xbd5538b0	-0.052056015
31	0x3d9674ee	0.07346521
32	0x3c9822ef	0.018571345
33	0x3d6a2f60	0.057174087
34	0x3d4bffbf	0.049804445
35	0x3ce8b4dd	0.028406555
36	0xbd190e47	-0.03736713
37	0xbc939bc9	-0.01801862
38	0x3db47ec7	0.08813243
39	0x3d6395ad	0.055562664
40	0x3c282153	0.010261851
41	0xbd8959ae	-0.06706558
42	0xbd361858	-0.04445681
43	0x3cd73fd6	0.026275557
44	0x3d93d184	0.07217696
45	0xbdabbede	-0.083860144
46	0xbd71b7d7	-0.059013214
47	0xbd51f63c	-0.051260218
48	0xbce18498	-0.027529046
49	0x3d973eaa	0.07384999
50	0x3c08886c	0.008333307
51	0x3cf5659f	0.029955683
52	0x3d800106	0.06250195
53	0x3d28a3f1	0.04117197
54	0xbd8078e2	-0.062730566
55	0x3d504ac4	0.050852552
56	0xbd067b9a	-0.03283272
57	0xbc8da694	-0.017291345
58	0xbc5d3cbc	-0.01350325
59	0x3dacaebf	0.08431768
60	0xbd216136	-0.03939935
61	0xbd36c484	-0.044621006
62	0xbd08a5aa	-0.033361115
63	0x3d7a0dcd	0.061048318
64	0xbcb2a5fd	-0.021807665
65	0xbd8897c4	-0.06669572
66	0x3d9230be	0.07138203
67	0x3d1565dc	0.036474094
68	0xbbef38a9	-0.0073004556
69	0x3d44ae74	0.048017934
70	0x3d9c4c29	0.07631714
71	0x3ca9ab7e	0.020711657
72	0x3c299089	0.010349401
73	0x3d68edc0	0.05686736
74	0x3da840f3	0.08215513
75	0x3c5859a4	0.013204966
76	0x3cf2df97	0.029647632
77	0xbd66ac2a	-0.056316532
78	0x3d1331b8	0.035936087
79	0xbd8676cf	-0.0656563
80	0xbc7437bb	-0.014905865
81	0x3d8e185e	0.069382414
82	0xbc49083f	-0.012270032
83	0x3cce3bc6	0.025174987
84	0xbc42cf0c	-0.011890184
85	0x3da9c88b	0.08290204
86	0xbd7f55a5	-0.062337536
87	0x3cef29b4	0.02919469
88	0xbc2fc266	-0.010727501
89	0x3d9c4c93	0.07631793
90	0x3c5f0aea	0.013613442
91	0xbd2a9f20	-0.04165566
92	0xbc4289f9	-0.011873716
93	0x3c2ee666	0.010675048
94	0xbc98951c	-0.018625788
95	0x3caade4a	0.020857949
96	0xbd10bf44	-0.035338655
97	0x3d0dc55f	0.034612056
98	0x3cb31698	0.02186136
99	0xbd95cfd7	-0.07315033
100	0x39c750d3	0.00038016457
101	0xbd303002	-0.043014534
102	0x3d2d280f	0.04227453
103	0xbd3b305c	-0.045700416
104	0x3d064d17	0.032788362
105	0x3d8b930e	0.06815158
106	0x3db05a83	0.08611014
107	0xbdb0a920	-0.08626008
108	0xbd8b387c	-0.06797883
109	0x3d8365cf	0.06415903
110	0x3bf2f58e	0.0074145263
111	0xbd98be01	-0.07458115
112	0x3d45fdf4	0.04833789
113	0x3d4d61dd	0.050142158
114	0xbcea06bf	-0.02856767
115	0x3d9b41ac	0.07580885
116	0xbd624fd2	-0.055251904
117	0x3da24ebe	0.07925175
118	0x3d82e993	0.06392207
119	0xbda673f0	-0.08127582
120	0x3d46bde4	0.048520938
121	0x3c562e6e	0.013072593
122	0xbc6bbb7f	-0.014387964
123	0xbbba915a	-0.005693597
124	0x3da6184f	0.08110105
125	0x3bae48c2	0.005318732
126	0xbc7462a4	-0.014916096
127	0x3c90cb93	0.017675197

fc3.weight f4 [128, 128]
0	0x3d942bce	0.072349176
1	0xbcb30c02	-0.021856312
2	0xbd8619d9	-0.06547899
3	0xbd3a04fa	-0.045414902
4	0x3d71ce4b	0.059034627
5	0x3d15b8c4	0.03655316
6	0x3d91a5ca	0.071117
7	0xbda66d6d	-0.0812634
8	0xbd9264cf	-0.07148134
9	0x3c1931a5	0.009350215
10	0x3d9f062d	0.0776485
11	0xbdb270be	-0.0871291
12	0x3d73dba9	0.059535656
13	0x3d8f4607	0.069957785
14	0x3cc0be00	0.023528099
15	0xbd9bf6ab	-0.076154076
16	0xbd2ca72e	-0.042151622
17	0x3d43600a	0.04769901
18	0x3d04b0a6	0.032395028
19	0xbd05f2a8	-0.03270212
20	0xbd0fd5ab	-0.03511588
21	0x3cef94ce	0.02924576
22	0x3d0a18c4	0.033715025
23	0x3d147032	0.03623981
24	0x3d020fec	0.031753466
25	0xbd0501cc	-0.032472417
26	0xbd8712b3	-0.065953635
27	0x3d874fdb	0.06607028
28	0xbd0737ba	-0.03301213
29	0xbd9f9dbd	-0.07793758
30	0x3cf58c77	0.029974205
31	0xbce639f8	-0.028103814
32	0xbc38e4cd	-0.011285019
33	0x3c8344a7	0.016023947
34	0xbd8c3359	-0.06845731
35	0xbd806be8	-0.062705815
36	0x3d4449b4	0.04792185
37	0xbd34617a	-0.044038273
38	0xbd28a56e	-0.04117339
39	0x3bafdabf	0.0053666527
40	0x3d95a485	0.0730677
41	0x3d6952e4	0.056963816
42	0xbd7e4224	-0.062074795
43	0xbd709fbd	-0.05874609
44	0xbd886153	-0.06659188
45	0x3cc7aefb	0.02437543
46	0x3cd5827e	0.0260632
47	0xbd98d800	-0.07463074
48	0x3d733239	0.059374068
49	0xbc970609	-0.018435495
50	0xbbbae0a2	-0.005703048
51	0xbda35df2	-0.07976903
52	0xbd9e7625	-0.07737378
53	0x3da092b8	0.078404844
54	0xbd56bf74	-0.052428678
55	0x3c07383c	0.008253153
56	0xbbfa4bb8	-0.007638421
57	0x3cb0b341	0.02156985
58	0xbd239b01	-0.039942745
59	0xbd9c50c8	-0.07632595
60	0xbb636217	-0.0034695917
61	0x3d0b6230	0.034029186
62	0xbda6a478	-0.08136839
63	0x3cd33eb5	0.025786737
64	0x3d71587e	0.058922283
65	0xbdb35e2f	-0.087581985
66	0xbd9eaa21	-0.07747293
67	0xbd8155c3	-0.06315186
68	0xbdb1e333	-0.08685913
69	0x3d226d9a	0.039655305
70	0xbd88b702	-0.06675531
71	0x3d20d69b	0.039267164
72	0x3db26a50	0.08711684
73	0x3d77786f	0.06041759
74	0xbd26a6e1	-0.040686492
75	0xbdb0cdfb	-0.08633038
76	0x3d9cbc74	0.07653132
77	0x3d000a85	0.031260032
78	0x3c09610f	0.008384957
79	0xbbcf7768	-0.006331373
80	0x3cd2ac12	0.025716815
81	0xbabc1341	-0.0014349
82	0xbd48eaa6	-0.049051903
83	0x3d8d9941	0.069139965
84	0x3d0c4d36	0.03425332
85	0x3d26e4c8	0.040745527
86	0xbd296928	-0.04136005
87	0xbd9306bc	-0.07179019
88	0xbd348ef1	-0.044081632
89	0xbd06d0f4	-0.032914117
90	0x3d962837	0.07331889
91	0xbdac5e09	-0.08416373
92	0xbbf23e97	-0.007392715
93	0xbdada0b3	-0.084779166
94	0xbd303553	-0.043019604
95	0xbb1511d8	-0.0022746231
96	0x3bfa72c9	0.007643078
97	0x3d6a18bc	0.057152495
98	0xbc72dfad	-0.014823836
99	0xbd31d0dc	-0.043412074
100	0x3d7b63c9	0.06137446
101	0x3ca22dcc	0.019797228
102	0xbd9ab5e8	-0.07554227
103	0x3bc75ff0	0.0060844347
104	0xbda29ff6	-0.079406664
105	0x3d449b7f	0.047999855
106	0xbb5089ad	-0.0031820342
107	0xbdb19c16	-0.08672349
108	0xbd377db6	-0.04479762
109	0x3d77e029	0.06051651
110	0xbcada658	-0.021197483
111	0x3daa5aee	0.08318125
112	0x3d1911bf	0.03737044
113	0xbda637e7	-0.08116131
114	0xbd8bfae9	-0.06834967
115	0xbd89ea7b	-0.06734177
116	0x3d8a9e35	0.06768457
117	0x3ccd1a48	0.025036946
118	0x3d798f9b	0.06092797
119	0x3d061fde	0.032745235
120	0xbc46e0b4	-0.012138534
121	0x3d0e7743	0.034781706
122	0xbc09452c	-0.008378308
123	0x3b7ae71b	0.0038284722
124	0x3d633845	0.055473585
125	0xbd0df035	-0.034652907
126	0xbd0ded5b	-0.034650188
127	0xbc12c649	-0.008958408
128	0x3d943424	0.072365075
129	0x3c9490c1	0.01813543
130	0x3db184f8	0.0866794
131	0x3d8641ea	0.06555541
132	0x3ca00274	0.01953242
133	0x3da70b60	0.081564665
134	0x3d2b2a0f	0.041788157
135	0x3c8bc214	0.017060317
136	0xbd9f2a11	-0.077716954
137	0x3d3ca2c6	0.04605367
138	0x3d07feab	0.033201855
139	0x3db38947	0.08766418
140	0x3c0dccd4	0.008654792
141	0x3d16476d	0.03668921
142	0x3d987cda	0.074456885
143	0xbda3461c	-0.07972357
144	0xbcc17d23	-0.02361924
145	0x3c57d191	0.013172523
146	0x3d8361cb	0.06415137
147	0xbcddb2dd	-0.027062828
148	0xbc81db2b	-0.015851578
149	0x3d7368db	0.05942617
150	0x3d98b4f6	0.074563906
151	0x3ab11717	0.001351091
152	0x3d1ac926	0.037789486
153	0x3d9494e0	0.07254958
154	0x3cfb0f9c	0.030647092
155	0xbc739896	-0.014867922
156	0xbd38ba81	-0.04509974
157	0x3d3cef05	0.046126384
158	0x3ce3391f	0.027737198
159	0xbdaa23a5	-0.0830758
160	0xbc6fb54a	-0.014630625
161	0xbda455b7	-0.08024161
162	0xbd889063	-0.066681646
163	0xbcdb3103	-0.026756769
164	0xbd3831e1	-0.044969443
165	0xbc27e5c0	-0.010247648
166	0xbd6f00f4	-0.05835052
167	0xbda2c110	-0.0794698
168	0x3d9e51d3	0.077304505
169	0xbb61378b	-0.0034365382
170	0x3cb23a6b	0.021756371
171	0xbd0b759a	-0.0340477
172	0xbda30ec1	-0.079617985
173	0xbd85380c	-0.06504831
174	0x3d9f5a99	0.07780952
175	0x3d536262	0.051607497
176	0xbd84a468	-0.064766705
177	0x3d162a0c	0.036661193
178	0xbd06dcb3	-0.03292532
179	0x3d201610	0.03908354
180	0x3d82e968	0.06392175
181	0x3d8fcd93	0.07021632
182	0x3d237da9	0.03991476
183	0xbc4ead16	-0.012614509
184	0x3c44eb30	0.012018964
185	0xbd19631c	-0.037448034
186	0x3d3861ff	0.04501533
187	0x3c6b58f2	0.014364468
188	0xbc0e09af	-0.008669301
189	0x3bda3a4c	0.0066597816
190	0x3bf050f1	0.0073338677
191	0xbc1f4525	-0.009721075
192	0x3d76e02d	0.060272384
193	0xbc5ddd61	-0.01354155
194	0xbda870f8	-0.08224672
195	0x3da837cb	0.08213767
196	0xbb91ebec	-0.004453173
197	0xbd9bb900	-0.07603645
198	0xbd487d23	-0.048947465
199	0xbc857832	-0.016292665
200	0x3b8b53f8	0.004251953
201	0xbda0aa3b	-0.07844969
202	0x3d3d388f	0.046196517
203	0xbca23c3a	-0.019804109
204	0x3d4dc6a6	0.050238274
205	0x3d942405	0.07233433
206	0x3cfe3b36	0.031034093
207	0xbdaa0dca	-0.08303411
208	0x3d0cc341	0.034365896
209	0xbd9da43f	-0.07697343
210	0x3d9933f7	0.07480615
211	0x3d482b44	0.048869386
212	0xbd69446d	-0.05695002
213	0x3ca96993	0.020680225
214	0xbd67a517	-0.056553926
215	0xbd94a32d	-0.07257686
216	0xbd2d4b04	-0.04230787
217	0xbd9b4a30	-0.075825095
218	0x3d3e32a7	0.046435025
219	0xbc0f4b76	-0.008746019
220	0x3c8fcde1	0.017554225
221	0x3d94ecd1	0.07271732
222	0x3d6f41c1	0.058412317
223	0xba30f6eb	-0.0006750661
224	0xbc83d7d7	-0.016094131
225	0x3d8c0560	0.06836963
226	0x3d88eed0	0.06686175
227	0xbd8b5c6c	-0.068047374
228	0x3d7b2f13	0.06132419
229	0xbd8d77ba	-0.06907602
230	0x3dad02cc	0.08447799
231	0xbd8ff25b	-0.070286475
232	0x3b6547b2	0.003498536
233	0x3d82ecb2	0.06392802
234	0x3d4086a0	0.04700339
235	0x3cda6ccf	0.026663212
236	0xbcc1fbb0	-0.023679584
237	0xbcc42867	-0.023945047
238	0xbd6b01d6	-0.057374798
239	0xbcba7f5d	-0.02276581
240	0x3db3e50d	0.08783922
241	0x3d3be1a8	0.0458695
242	0xbd885062	-0.06655957
243	0xbc867d4b	-0.016417166
244	0x3a0e2ac9	0.00054232456
245	0xbcaa2835	-0.020771125
246	0x3b4dc418	0.0031397399
247	0x3d8a6231	0.0675701
248	0x3bc5717f	0.0060254927
249	0xbca758c5	-0.02042807
250	0x3d8a7f83	0.06762602
251	0xbd654df9	-0.055982564
252	0xbd332cec	-0.043744013
253	0xbda2ca62	-0.07948758
254	0xbcbb0885	-0.02283121
255	0xbc43c1ce	-0.011948062

fc3.bias f4 [128]
0	0x3d97ba88	0.07408625
1	0xbc97e920	-0.01854378
2	0x3ccc6597	0.024950786
3	0x3d9fb59f	0.07798313
4	0x3d56d93d	0.05245327
5	0xbcfed6cc	-0.031108283
6	0x3d97fe2d	0.07421527
7	0xbce54b9b	-0.027990153
8	0x3da96591	0.082713254
9	0xbd66bb1a	-0.056330778
10	0xbbfa4cc7	-0.007638547
11	0x3d5e22b8	0.05423233
12	0x3d0adf2d	0.033904243
13	0x3dab9ed5	0.08379904
14	0xbcc9d790	-0.024638921
15	0x3d81cb97	0.0633766
16	0xbc71e595	-0.014764209
17	0x3b21c8a8	0.002468625
18	0xbd428311	-0.047488276
19	0x3ce1c9ea	0.0275621
20	0x3cc57cb3	0.024107313
21	0xbd674930	-0.05646628
22	0x3d86e90d	0.0658742
23	0x3d656b78	0.056010693
24	0xbd9097d9	-0.07060213
25	0x3cc95e18	0.024581
26	0x3d723634	0.059133723
27	0xbcec2cb3	-0.028829908
28	0x3ce32df1	0.027731868
29	0xbcd535ed	-0.02602669
30	0x3c92ba27	0.01791103
31	0xbd5370a3	-0.05162109
32	0xbc8af345	-0.016961703
33	0x3db30d72	0.08742799
34	0x3c2cf6b7	0.010556868
35	0x3db25d70	0.08709228
36	0xbdb4fd2c	-0.08837351
37	0x3cdb382b	0.026760181
38	0x3d86717d	0.06564615
39	0x3d93e393	0.07221141
40	0xbc83495c	-0.016026191
41	0x3da05e34	0.07830468
42	0xbc5bba85	-0.013411169
43	0x3d569c08	0.052394897
44	0x3d2a01c8	0.041505605
45	0xbd90d607	-0.070720725
46	0x3d407cf8	0.04699418
47	0x3cf7566e	0.03019258
48	0x3d357d67	0.044309046
49	0x3d41b927	0.047295716
50	0xbcc662f3	-0.024217105
51	0xbd22d52c	-0.039754078
52	0x3d89c277	0.06726544
53	0xbd6bbcb3	-0.057553004
54	0xbd6b079e	-0.05738031
55	0x3d64035b	0.055667263
56	0x3cde1604	0.027110107
57	0x3db0c04f	0.0863043
58	0x3daf0810	0.0854646
59	0xbd9e6ab3	-0.07735195
60	0x3b8d5992	0.004313656
61	0x3d4d171f	0.050070878
62	0xbd7b2bbd	-0.06132101
63	0x3d12fd6a	0.035886206
64	0x3cd24d2a	0.02567156
65	0x3d1c177d	0.038108338
66	0x3d87e062	0.066345945
67	0xbd8f74d5	-0.07004706
68	0x3c6f81e4	0.014618371
69	0xbd06db49	-0.03292397
70	0x3c932fe8	0.01796718
71	0x3d8cf7e8	0.06883222
72	0x3c4952d9	0.012287819
73	0xbd9292c4	-0.071568996
74	0x3d927745	0.07151655
75	0x3c74506f	0.014911755
76	0x3d8dcd2f	0.06923901
77	0x3d49797c	0.049188122
78	0x3d51b0d1	0.051194016
79	0xbd0fa300	-0.03506756
80	0xba4aa86c	-0.00077307853
81	0x3cc7ce94	0.024390496
82	0xbd8f09f6	-0.06984322
83	0xbdb27402	-0.08713533
84	0x3d9d53aa	0.07681973
85	0x3ce3df29	0.027816372
86	0x3d20fa89	0.03930143
87	0x3d897b8b	0.06713017
88	0x3d86d21d	0.06583045
89	0x3cda2751	0.026630076
90	0x3d4cf1c4	0.050035253
91	0x3d93c3a2	0.072150484
92	0xbbf19252	-0.007372179
93	0x3c87b37e	0.01656508
94	0x3c048c8d	0.008090151
95	0xbbadd2ac	-0.005304655
96	0x3bcb1897	0.0061979997
97	0x3cfb3b57	0.030667944
98	0xbd974ddf	-0.073878996
99	0x3db23a07	0.08702474
100	0xbbd7d334	-0.0065864567
101	0xbd6e36d2	-0.05815775
102	0xbd94c354	-0.072638184
103	0xbd92ab2a	-0.07161553
104	0x3d6ee969	0.058328066
105	0x3d40ecf4	0.047100976
106	0xbcb6dcfd	-0.022322172
107	0x3d864a47	0.06557136
108	0xbcadfc53	-0.021238482
109	0x3d598ae1	0.05311096
110	0xbcd50af2	-0.026006196
111	0x3d19167d	0.037374962
112	0xbd22f851	-0.039787594
113	0xbc91a0bf	-0.017776845
114	0x3d1fb449	0.038990293
115	0x3caa550b	0.020792505
116	0xbd259ab2	-0.040430732
117	0x3d20a7ce	0.03922253
118	0xbcb60cb3	-0.022222852
119	0x3d15df8f	0.036590155
120	0xbd3696c3	-0.04457737
121	0x3da46124	0.080263406
122	0xbc8f3dbd	-0.017485494
123	0xbd96438e	-0.07337104
124	0x3d2a70ee	0.041611604
125	0x3da35f7a	0.07977195
126	0xbd875a75	-0.0660905
127	0xbd6efe3d	-0.05834793

fc4.weight f4 [1, 128]
0	0xbd86860b	-0.065685354
1	0xbd8f972f	-0.07011258
2	0xbd734aac	-0.059397385
3	0xbd7d256b	-0.061803263
4	0xbd1521be	-0.036409132
5	0xbd113b99	-0.035457227
6	0xbd95fdf7	-0.073238306
7	0x3d9f5dae	0.0778154
8	0x3c99750a	0.018732566
9	0x3d40ff6e	0.047118597
10	0xbd9afce0	-0.07567763
11	0xbda50ddc	-0.08059284
12	0x3daa0dca	0.08303411
13	0xbd4a4be7	-0.049388792
14	0x3d1321d5	0.035920937
15	0xbda4f170	-0.08053863
16	0x3d94b74f	0.07261526
17	0xbd7dd8a9	-0.0619742
18	0xbd70c0fc	-0.058777794
19	0x3d47a257	0.048738804
20	0x3d855177	0.06509679
21	0x3ce99cdc	0.02851718
22	0x3da7f2f8	0.082006395
23	0xbcf9d284	-0.03049589
24	0xbd4a88b1	-0.049446765
25	0x3cc5597a	0.024090517
26	0xbd5dc529	-0.054143105
27	0x3ccbfbca	0.024900336
28	0x3d67a7aa	0.05655638
29	0x3ba03e18	0.0048902147
30	0xbd7fe037	-0.062469687
31	0xbcaab316	-0.020837348
32	0x3c485181	0.012226463
33	0x3da9d7c1	0.08293105
34	0xbce854b2	-0.028360698
35	0x3d414c07	0.047191646
36	0xbda2651c	-0.07929441
37	0x3d9955f0	0.074870944
38	0x3d8aaf64	0.06771734
39	0xbaf23df9	-0.0018481604
40	0xbd916fb4	-0.07101384
41	0x3cac631c	0.021043353
42	0xbd87783c	-0.0661473
43	0xbd4658ff	-0.048424717
44	0xbd70192e	-0.058617763
45	0x3d768953	0.060189556
46	0x3d4000f8	0.046875924
47	0x3d768d12	0.06019313
48	0x3d34e628	0.044164807
49	0x3ca7d7eb	0.0204887
50	0x3daede3a	0.0853848
51	0xbd366659	-0.0445312
52	0x3b75c21e	0.0037499736
53	0x3d3d65e4	0.04623975
54	0x3d2bc3f7	0.041934934
55	0xbc819f87	-0.015823139
56	0xbd514fca	-0.051101483
57	0xbd76f52b	-0.060292404
58	0xbcbac388	-0.022798315
59	0xbd8f419d	-0.069949366
60	0x3a74cedf	0.00093386875
61	0xbd9a6df7	-0.075405054
62	0xbd2334ce	-0.03984528
63	0x3d294a58	0.041330665
64	0xbd3edbf9	-0.0465965
65	0x3bcd9321	0.0062736426
66	0x3d7e4aef	0.06208318
67	0x3d610f5c	0.05494629
68	0xbc16c638	-0.0092025325
69	0xbda576de	-0.08079313
70	0x3db1a7ea	0.08674605
71	0x3d83e8aa	0.064408615
72	0xbd861391	-0.06546701
73	0x3b353207	0.0027648227
74	0x3d5d9fd7	0.054107513
75	0x3d68d3b0	0.056842506
76	0x3dab4eec	0.083646625
77	0xbd314214	-0.043275908
78	0x3cc66a4f	0.024220614
79	0xbda1962d	-0.07889972
80	0xbd2ae9f4	-0.04172702
81	0xbc8aaae2	-0.016927186
82	0x3d85eb07	0.065389685
83	0xbd52c09f	-0.05145323
84	0x3d562811	0.052284304
85	0xbc048b0c	-0.008089792
86	0x3d8f7c9b	0.070061885
87	0xbd92ea98	-0.071736515
88	0xbd69d8c9	-0.057091508
89	0xbc11bb5a	-0.008894766
90	0xbd1cdcd6	-0.038296543
91	0xbd1f0ab9	-0.038828585
92	0x3da00a9d	0.07814524
93	0x3c600831	0.013673828
94	0xbc9fcf1f	-0.019507943
95	0x3c88ed95	0.01671485
96	0x3ce0ac38	0.02742587
97	0x3d7ae87c	0.06125687
98	0x3d86c89a	0.065812305
99	0xbd0b2a62	-0.033975966
100	0x3d38c027	0.045105126
101	0x3d95ae8d	0.073086835
102	0x3c93c8b6	0.018040042
103	0xbd71f606	-0.059072517
104	0x3d064deb	0.032789152
105	0xbb3d3a4b	-0.0028873857
106	0x3cd6d43f	0.026224254
107	0x3d4b3559	0.049611423
108	0x3db4b776	0.08824055
109	0x3d368198	0.044557184
110	0xbdae1180	-0.084994316
111	0xbc11ace6	-0.00889132
112	0xbd3c5309	-0.045977626
113	0xbc9da5f1	-0.019244166
114	0x3d88e1fc	0.06683728
115	0x3d3aec97	0.045635786
116	0xbcd6259d	-0.026140982
117	0xbcedf1c7	-0.029045952
118	0xbd425c44	-0.047451273
119	0x3d744593	0.059636664
120	0x3c975388	0.018472448
121	0x3cacaaf8	0.021077618
122	0xbc46c022	-0.012130769
123	0x3d250bfe	0.04029464
124	0xbd2ec91f	-0.042672273
125	0x3d814273	0.06311502
126	0x3bc7e787	0.0061005983
127	0x3d6afc2e	0.057369404
