Models/Bloom_filter/result/model-dict-70.pt (torch, 533323 bytes, 7 tensors)

model.0.weight f4 [256, 2]
00000000: 8b04 05bb 5e44 ddb8 1389 55ba 7d48 4d39
00000010: 712f 663a c3e2 7539 031c 27bb f32f 0fbb
00000020: 3ca3 afba 8fd2 44bb b7ba b2bb 9ce0 2b3b
00000030: f85e 10bf db86 23bd a9eb 6139 63ff 05bb
00000040: a3c9 9bbe 5924 ce3e 6582 a4ba 1ec1 173a
00000050: dd47 2fbd 8010 ed3e c274 7cba 8827 04ba
00000060: 02a4 cbbf 44a8 253e e683 2bba 6956 0b3a
00000070: 535f 1cba 773b bd3a 2258 b5ba fe66 483a
00000080: bedd e5bb 144a 853b 5ba6 b0ba a2c4 dcb9
00000090: 7420 a4ba dbe9 0d3a bb65 a0ba 4a95 0e3a
000000a0: a9b8 4cbb 13b0 fb3a 5553 88ba ce7b 0f38
000000b0: ccd2 adba 68a9 05bb 953f 76be b0d8 3fbf
000000c0: 691d 54ba 887b 7d3a cdcc 9d3a 3e56 9b3a
000000d0: eb04 ffba 877b 2cba 591c 2abf 40df 2c3e
000000e0: c2e5 83ba 5c4d 24ba 7856 93ba aa1e 7f39
000000f0: 692d 34bb 171c 1aba e0a8 303d 88c0 72bf
00000100: f0ef b93e 200c d2bf 81f4 903e e2d2 96be
00000110: 71b1 df38 6008 c1bb 8a53 1b3a 2980 88ba
00000120: 41be 373a 8294 cfba 7d58 9cba 38d5 5ebb
00000130: e0e3 963e 1cbf f13d 878e 89ba 5e41 23bb
00000140: 8ba1 873e 878c f3bd 50f4 863e d09c eabd
00000150: 7c8d 33ba efd5 30b9 8990 673c f2b3 92bc
00000160: 322e d2b9 7ff4 05bb eb2e b4ba b17c dfb8
00000170: 6a57 7ab7 7517 1bba d712 843a 7266 82ba
00000180: 24ce d93a 199c 143a c530 173a 5a3b f4ba
00000190: a30c c6b9 26c7 11b9 fbbf 5abb 736c 373b
000001a0: ae95 41be 5512 b83e ae0b 83bb 7131 f0b7
000001b0: be73 4cbe 6ffe 44bf adfb 42b9 44b3 1cb9
000001c0: e2d5 a93e 8b74 373d 636f c039 ec3b 04ba
000001d0: e7b0 b4ba ac57 77ba ca1f 8d3e 8c0a d5bd
000001e0: fbcb b0b8 b714 0039 9282 b7b9 52fc 0aba
000001f0: 9b37 293a 60f2 8b3a e0a1 f8ba 0ed7 44bb
00000200: d72d 8aba ff5e a839 c489 a8ba 1615 beb9
00000210: 7148 35ba af25 1abb bf55 d3be 92f6 3cbd
00000220: aa91 943e 4c42 0dbe 7945 8c3e 5f11 2f3e
00000230: 3886 92ba 1acc 0bbb f4ed f0b9 08cb adb9
00000240: c809 7dba e68f 32b9 7363 a438 3847 54bb
00000250: 9cf2 09ba 8b8b dfb9 ddca 04be da64 cb3e
00000260: c197 883e bb61 7abe 740b 693e 7863 adbe
00000270: c23b 1d3a e4da 09b9 77c4 46b9 ff4a e1b9
00000280: 24b0 7f39 643c 82ba 3785 3eba bd64 48ba
00000290: c5bd 903e c7be aebe 12cc e0be 8bb6 86bd
000002a0: 9e50 51bf 3989 cabe 3ccb 09ba ce04 deba
000002b0: 15f0 38bd 7d94 23bf e08f 7dba be60 c0ba
000002c0: 28ed b9b9 8c07 43bb d7ce baba 164f 19ba
000002d0: 7c74 ac39 fe57 62ba 06ab 873e 072d f6bd
000002e0: 5872 81ba a051 883a f07a 973e 4224 62be
000002f0: 5e18 3b3b 75fc 373b 693d adba 67be 3f3a
00000300: 5228 98ba 9a8d 4eba 152b 86ba e5ae f2ba
00000310: f3a2 893d 3d76 2bbf f1a0 1fb9 55da 5c3a
00000320: e129 913e a690 97be 7470 47bb bafb c53a
00000330: f583 663e c00e e4be dc0c d4b9 7ef8 c23a
00000340: 2ba7 63ba a4de 5238 c140 87bd 8282 893e
00000350: d217 99ba 5de6 f538 7d6c 67ba 18f5 0c3a
00000360: c6ea e9be 6232 c33e c004 1bbe aca8 5a3e
00000370: 3530 67b9 d322 38ba 39d5 27bc 416c 08bf
00000380: 75c6 d4ba c879 d13a 7892 a1ba a047 663a
00000390: 8a3c 463e 45ed 163e b77f 86b7 e908 06bb
000003a0: 4390 813e acab 5abf 2847 1538 d20a ad39
000003b0: 97ca 8db9 b0ff e0ba 1840 5cba 1c24 a33a
000003c0: 37fb 8cba 36d2 acb8 baa2 a3ba 1fb6 8ebb
000003d0: 454c 883a c7a4 41bb 6e53 35ba eef9 993a
000003e0: d528 823e 6365 aabe df48 d339 a888 4fbb
000003f0: 16e2 113e cce2 e2be f61f 1abf 88e5 6d3e
-0.0020296897 -0.000105508356 -0.0008145731 0.00019577327 0.0008780873 0.00023449496 -0.0025498874 -0.0021848648
-0.0013400088 -0.003003273 -0.005454387 0.0026226407 -0.5639491 -0.03992353 0.00021545462 -0.0020446412
-0.30427274 0.40262106 -0.0012551068 0.00057889696 -0.042793144 0.4630165 -0.00096304354 -0.0005041291
-1.5909426 0.1617747 -0.0006542787 0.00053153053 -0.0005965132 0.0014437278 -0.001383547 0.00076447416
-0.007014959 0.0040676687 -0.0013477312 -0.00042108173 -0.0012521879 0.00054135703 -0.0012237349 0.0005439116
-0.0031237996 0.0019202254 -0.0010400811 3.420916e-05 -0.0013261675 -0.0020395163 -0.24047692 -0.74940014
-0.00080915407 0.00096695917 0.0012039185 0.0011851264 -0.0019456422 -0.00065796863 -0.66449505 0.16882038
-0.001006298 -0.0006267631 -0.001124098 0.00024330118 -0.0027492887 -0.00058788195 0.0431298 -0.9482503
0.3631587 -1.640995 0.28311542 -0.29457766 0.0001066652 -0.005890891 0.0005925229 -0.0010414171
0.0007009246 -0.0015837105 -0.0011928227 -0.00340016 0.2947073 0.11804029 -0.0010494747 -0.0024910788
0.26490435 -0.11892038 0.2635827 -0.11455691 -0.0006849391 -0.00016864364 0.014133581 -0.01790807
-0.0004008874 -0.002043992 -0.0013746893 -0.00010656694 -1.4921514e-05 -0.0005916276 0.0010076415 -0.0009948744
0.0016617221 0.00056690123 0.000576746 -0.0018633411 -0.00037774918 -0.00013902466 -0.003337859 0.0027988225
-0.18904755 0.35951486 -0.003999195 -2.8633252e-05 -0.19966027 -0.76950735 -0.00018595038 -0.00014944101
0.33170992 0.04478888 0.00036704083 -0.00050443294 -0.0013785631 -0.00094353664 0.27563316 -0.10402402
-8.430328e-05 0.00012214748 -0.00035001762 -0.0005301881 0.0006455124 0.0010677092 -0.0018969141 -0.003003541
-0.0010542226 0.00032114235 -0.001285844 -0.00036255334 -0.00069153967 -0.0023520996 -0.41276357 -0.046133585
0.29017383 -0.13794822 0.27396753 0.1709647 -0.0011178916 -0.002133137 -0.00045953656 -0.000331484
-0.00096526416 -0.00017029009 7.838653e-05 -0.0032391082 -0.0005262287 -0.00042637842 -0.12968011 0.3972538
0.2667828 -0.24451344 0.22758275 -0.3386495 0.00059979793 -0.00013146881 -0.0001895594 -0.0004297122
0.00024384313 -0.0009936211 -0.00072677754 -0.00076444057 0.28269783 -0.34129927 -0.43905693 -0.06577786
-0.8176364 -0.39557818 -0.00052564195 -0.0016938688 -0.045150835 -0.6389845 -0.0009672623 -0.0014677269
-0.00035462645 -0.0029759137 -0.0014252317 -0.00058482715 0.00032893184 -0.00086343277 0.26497668 -0.12020307
-0.0009875996 0.0010400303 0.2958598 -0.22084144 0.002854846 0.002807406 -0.0013217154 0.0007314444
-0.0011608696 -0.00078793766 -0.0010236228 -0.0018515257 0.06720533 -0.6697729 -0.00015223377 0.0008424868
0.28352264 -0.29602545 -0.0030432018 0.0015104928 0.22511275 -0.44542503 -0.00040445372 0.0014875082
-0.0008684273 5.0275252e-05 -0.06604148 0.26857382 -0.0011680073 0.00011725419 -0.00088281167 0.0005377098
-0.4568693 0.38124377 -0.1513853 0.21353406 -0.00022047835 -0.0007024232 -0.010243707 -0.5329018
-0.0016233461 0.0015981728 -0.0012326976 0.00087844767 0.19359031 0.14738949 -1.6033517e-05 -0.0020452088
0.25305375 -0.854182 3.5590638e-05 0.00033005193 -0.00027044557 -0.0017166045 -0.00084018847 0.0012446675
-0.001075602 -8.240754e-05 -0.0012484409 -0.0043552066 0.0010398707 -0.0029547678 -0.0006917034 0.0011747458
0.25421777 -0.33280477 0.0004029935 -0.0031667147 0.14246401 -0.44313657 -0.6020502 0.2323209

model.0.bias f4 [256]
00000000: 0000 0000 fa00 82ba 5c2b 20bb 0000 0000
00000010: 0000 0000 e8ee adba c8f9 2f3e e3c8 6db9
00000020: 7f1f 17bd b8e1 c1ba 8d49 d8bd 0000 0000
00000030: dddb 173e 139d 28ba a2ee 99ba 5ad0 d2ba
00000040: 8a5a 88bb 0000 0000 2b80 bdba f089 2bb9
00000050: 91a1 10ba 05e7 86b9 0000 0000 c394 4d3e
00000060: 18eb 3dba fc7a 94bb 0000 0000 d3a3 ca3d
00000070: 0000 0000 1023 a0ba 0000 0000 b60c 173e
00000080: 1adc 9cbc 1bfb 4dbd 7b78 b2b8 d6a9 f9b9
00000090: 28ae 1dba 0000 0000 3990 66be 0000 0000
000000a0: 440e 1abe d5de 18be 0000 0000 549a 32bc
000000b0: 895e 94ba 0000 0000 0000 0000 0262 b2ba
000000c0: 4c7b 13bb 6069 3fba 0000 0000 e30d d1ba
000000d0: 2bc5 4dbd 0000 0000 d43c 4f3e 08b6 6c37
000000e0: 65c6 0cbe 8d8a 9bb9 0000 0000 5b83 28be
000000f0: cb2d 69b9 0000 0000 3e9d e1ba 781e aeba
00000100: 0bde 90b9 0000 0000 0c07 07b8 b36b 163e
00000110: 2aaf 74bd 4ef4 44be 0000 0000 0000 0000
00000120: 3a65 6eba dfa8 84b8 0000 0000 97ae fbbd
00000130: c9f0 8abd 06a2 4c3c 2d4e 0fba 0000 0000
00000140: 4968 4db9 0000 0000 c38e 10bd bcc7 173e
00000150: dc67 663e 0000 0000 c48f 253e 0000 0000
00000160: 0000 0000 0000 0000 c998 ceb9 5c3d 19be
00000170: 0d6d aeba f649 c4bd 47ec 24bc 1460 7cb9
00000180: 0000 0000 0000 0000 4e9d 183e 155f 51ba
00000190: fde1 4abd 5479 5fba a870 ff3b b41a acba
000001a0: bd1d 6bb9 9aa6 9abd 89ba efb8 57ae 25b9
000001b0: 08a0 153d 1f3d 15bc a6c7 1e38 569f 723e
000001c0: a1af 01bb e716 c1ba bf2d 72be 0000 0000
000001d0: 0045 033d 3fa7 bfb9 d94c de37 20ba b5ba
000001e0: 3fb7 60ba ac5a 2dba 893b 5aba bbff 68ba
000001f0: 8cde 0c3c fb83 a9b9 91a5 183e 8565 473d
00000200: 0000 0000 df70 82be 0000 0000 0000 0000
00000210: 3a9a 083d a691 cdbd 1465 06bb 0000 0000
00000220: 64c8 04ba c09e 8dbb 63e0 503e d295 323e
00000230: d237 e7b9 f81d 5f39 0000 0000 466b 8eb9
00000240: cf47 d0b8 6256 b1ba 43b8 0bbb 5d1f 88bd
00000250: 0000 0000 d80d 28b9 c03d 54be 0000 0000
00000260: 5402 22b9 0000 0000 0000 0000 cef1 6cbe
00000270: 069d a7ba f6b8 b6b9 1dc6 273e ca96 163e
00000280: d524 18b9 58a8 49bd b4e8 a0bd 72cb 68b9
00000290: f6da 55be 4f0b 50be 0000 0000 4a7f 143e
000002a0: 701f 2fba 1422 57bd 1e1e ceba 0000 0000
000002b0: 9432 f1b9 0000 0000 0000 0000 24c1 19be
000002c0: bbc6 4bba 47bb 82be 0000 0000 e777 5cbb
000002d0: 8654 cfba 0e86 5539 0000 0000 0000 0000
000002e0: ef02 843e 3a6e a1ba 63cf a8ba f7cf 5abc
000002f0: 80e7 433e d7dc f9b9 7443 78bd 77c7 d1ba
00000300: c370 22bd 0000 0000 69c6 6abb 3611 2ebe
00000310: 0000 0000 0000 0000 de7e 94b9 78de 803d
00000320: ac71 49bc 4be4 793d 0000 0000 7583 163e
00000330: 0000 0000 78ed a0b9 3dee e6b8 0000 0000
00000340: 0000 0000 0000 0000 a09a a0ba d2c7 b2ba
00000350: d120 b8b9 0000 0000 0000 0000 0000 0000
00000360: 93e9 6dbe f8bc dbbd aae5 b3ba f168 c0b9
00000370: 5bc7 5db9 0000 0000 0000 0000 7085 dab8
00000380: 0000 0000 20d3 0e3e cd92 5dbb 339e 49be
00000390: 368d 62b9 0000 0000 1fe6 373e 9c07 4b3e
000003a0: 6dcf b239 ec68 a43e 88ee 0cbd c015 2bbc
000003b0: 0000 0000 f3a6 e6bc 8c36 453d a393 27be
000003c0: 91ae 0cba 5ee6 9ebd c8ff 1aba 0000 0000
000003d0: f35c e23c 0000 0000 83a0 6939 bac8 05bb
000003e0: 762a 0f3c 58c0 8c37 dc44 81bd 14d6 36be
000003f0: fe0e 073e 1052 7dba d74c 23bc 329f faba
0.0 -0.0009918504 -0.0024439907 0.0 0.0 -0.0013270052 0.17185128 -0.00022676917
-0.03689527 -0.0014792001 -0.10560904 0.0 0.14829965 -0.0006432097 -0.0011744092 -0.0016083822
-0.0041611837 0.0 -0.0014457753 -0.00016359217 -0.00055172393 -0.00025730595 0.0 0.2007628
-0.00072448095 -0.0045312624 0.0 0.09894528 0.0 -0.0012217481 0.0 0.14750943
-0.019147921 -0.0502883 -8.510143e-05 -0.0004761952 -0.0006015026 0.0 -0.22515954 0.0
-0.15044504 -0.14928754 0.0 -0.0109010525 -0.0011319678 0.0 0.0 -0.0013609531
-0.002250391 -0.0007301774 0.0 -0.0015949573 -0.050236862 0.0 0.20238048 1.4109079e-05
-0.13747557 -0.00029667132 0.0 -0.16456358 -0.00022237671 0.0 -0.0017213 -0.0013284227
-0.00027631255 0.0 -3.219307e-05 0.14689521 -0.059737362 -0.1923382 0.0 0.0
-0.00090940634 -6.325705e-05 0.0 -0.1228916 -0.067842074 0.012489801 -0.0005466666 0.0
-0.00019589173 0.0 -0.0352924 0.14822286 0.22500557 0.0 0.16168123 0.0
0.0 0.0 -0.00039405216 -0.14964813 -0.0013307646 -0.095844194 -0.0100660985 -0.00024068385
0.0 0.0 0.14903757 -0.00079868856 -0.049531925 -0.0008524854 0.007795412 -0.0013130517
-0.00022422425 -0.07551308 -0.00011431153 -0.00015800573 0.03652957 -0.009108811 3.7856073e-05 0.23693594
-0.001978852 -0.0014731557 -0.23650263 0.0 0.032048225 -0.00036554967 2.6500247e-05 -0.0013864674
-0.00085722277 -0.00066129374 -0.00083249115 -0.00088882045 0.008597981 -0.00032332525 0.14906909 0.0486808
0.0 -0.2547674 0.0 0.0 0.033350207 -0.10037546 -0.0020507025 0.0
-0.0005065261 -0.004321903 0.20398097 0.17439964 -0.00044101343 0.00021278101 0.0 -0.00027164276
-9.931588e-05 -0.0013529772 -0.0021319545 -0.06646607 0.0 -0.00016026886 -0.20726681 0.0
-0.00015450391 0.0 0.0 -0.23139116 -0.0012787885 -0.00034851552 0.16384168 0.14705959
-0.0001450957 -0.04923281 -0.078568846 -0.00022201033 -0.20884308 -0.20316814 0.0 0.14501682
-0.0006680405 -0.052522734 -0.0015725528 0.0 -0.00046004786 0.0 0.0 -0.15015084
-0.00077734486 -0.25533506 0.0 -0.0033640803 -0.0015818037 0.00020363202 0.0 0.0
0.25783488 -0.0012316175 -0.0012879189 -0.013355247 0.19131279 -0.0004765752 -0.060611203 -0.001600488
-0.03965832 0.0 -0.0035823828 -0.16998753 0.0 0.0 -0.00028323283 0.062924325
-0.012295168 0.061008733 0.0 0.14698584 0.0 -0.00030694506 -0.0001101163 0.0
0.0 0.0 -0.0012253113 -0.0013639873 -0.00035119665 0.0 0.0 0.0
-0.23233633 -0.10729402 -0.0013725061 -0.0003669928 -0.00021150468 0.0 0.0 -0.00010419905
0.0 0.13947725 -0.0033809424 -0.19689254 -0.00021605645 0.0 0.17958878 0.19827121
0.0003410535 0.321113 -0.03440717 -0.010442197 0.0 -0.02815578 0.048147723 -0.16364913
-0.00053665886 -0.07758783 -0.0005912748 0.0 0.027632212 0.0 0.00022280407 -0.0020413832
0.008738151 1.6778868e-05 -0.06311962 -0.17855102 0.13189313 -0.00096634123 -0.0099670505 -0.001912093

model.2.weight f4 [256, 256]
00000000: c71a 9b3a 268f 2bba c06a bab9 b14b b8ba
00000010: 0cf6 cbba a983 ddba 1aa6 28bf 92bd c7b9
00000020: da06 c03e 7e15 46ba bd7b 24bd da1c fbb9
00000030: 7b38 0438 500f 4438 a526 9b3a 735d 12ba
00000040: 15f1 58bb dd0b 1fbb 7353 3fba 9b3b 613a
00000050: 98f8 203a 6ba6 623a 6847 8a37 1eaa b63d
00000060: a786 cc3a beaa 97bc 60c7 3f3a e3d9 d4be
00000070: 825c da39 fe57 6239 aa77 f2b8 b619 343e
00000080: f875 02c0 b956 41bf 4232 433a de95 4e39
00000090: 2607 aa39 0d1c 733a 5452 e73e 49bb 80ba
000000a0: 8823 143b 9d2b 403b 92fb ce39 9a0a 683c
000000b0: d332 2aba 4d5e 7338 3d30 ba3a deb0 7c38
000000c0: 916a 3c3a 5696 833a 1437 8238 b613 9939
000000d0: 5bdd 5a3e a3f3 0438 9a3d 333e b4b7 f83a
000000e0: 06a8 5bbf 5047 8438 1e1e ceb9 2fb3 05bb
000000f0: 85d6 0f3a 4ae3 a53a b79f 84b9 3ab6 63ba
00000100: 3577 1d3b 4099 7739 73ab 07bb 5e4c 15bf
00000110: d40a 863d 9c24 d3bf f74e a4b8 7def 66ba
00000120: be62 0bba 6048 3d3b ee22 043a 7b09 663e
00000130: abeb 74bf 8923 a13e b455 c8ba 9bba a53a
00000140: 3804 593a ad9c af3a 3c5b 03bf f1a8 0bbf
00000150: b0d1 0ec0 85b6 ba3a 5afc a83e 8d1a 55ba
00000160: c1b0 4f3a e197 9d39 f1ef 223b 6b29 703a
00000170: 3695 3d3b 949d 56c0 9693 04bd b6a2 acba
00000180: c28c ceb9 80db cf3a 0b6b 993e c218 963a
00000190: 69ba 46bf 7a03 4abb 06c8 88be d929 9ab9
000001a0: 41af 173a afbc 9d3d 5ef8 76b9 5624 4b38
000001b0: e3d4 e53e fbd8 163e 9c30 a2b9 0cb8 513e
000001c0: 9d45 ceb9 b9bf 1c3b 0666 863e 5b45 ec39
000001d0: 5aec 84be 3714 aa3a b49e 3c3a 6afb 563b
000001e0: ec4b 4aba ee9c 813b 08f4 343b a8c2 f5b9
000001f0: 2a38 803e ca77 e53a c5d5 fd3d 4dc6 8abe
00000200: 2c88 6dba 9d5e 053f 5bb5 dd39 06b1 8cba
00000210: c92d 87be 2ba3 5dc0 f5d5 993b 9cbf 9c39
00000220: 93c8 07b9 bc85 863b 76f3 ff3d 364c b53e
00000230: 5dcf 873b 3729 b83a 8767 48b9 ead8 edb8
00000240: f59c 94ba 8700 31ba 830f 8bba 3cbe 893e
00000250: 6745 5bb9 8e2e 0f3a f0a1 023f 5a02 363a
00000260: 9502 0dba 7ca8 423a dece fcba a744 493f
00000270: 9a4e 2a3b 6df6 78ba f07d 1abf 8d2e 1fbf
00000280: cf9c 15b8 1149 a53d 2764 123f e43b aeba
00000290: dff0 fabe 57bb e73e 7df2 00ba 5668 19bf
000002a0: 2b4f 2c3b 0b57 48bf 9a65 3eba 988e 71ba
000002b0: 202d a2b9 f408 cb39 f948 65ba ab15 9639
000002c0: 6b28 a439 d189 053f ca9f 0f3a 7783 7abb
000002d0: 8399 9139 f550 1a3b 1bc0 513a 488a 6e3a
000002e0: f9b1 803e 3319 9c3b 31cd 2f3b 2fc9 1dbb
000002f0: 56b2 f23e 6142 2cba 6a68 2cbf 9884 933a
00000300: 4c51 893e 4aba 43bb 6d2e f5ba 7fd2 13be
00000310: 9269 81ba d630 a93a 7992 86ba 5da4 4ebf
00000320: c924 883e 3057 4dbf 7b91 eb39 ac16 623e
00000330: 493c 72ba fd22 9c3a ff96 653a 46d1 bdba
00000340: 5368 11ba 4c4e 0cba 8895 923b da9c 8fbb
00000350: 70fd 9a39 434e 743a 4cfa 13ba b174 52ba
00000360: f5bb 3b3f c606 19bd c9b4 c5b9 8a5b 8fba
00000370: 88ee de3a 238e 53b9 86ba f2ba 0222 b7ba
00000380: 5dda d3ba 7fb9 17bf 187c 1fbc 3810 14bf
00000390: e3d0 d3b9 f3bd ad39 308c aa3e 6d52 693e
000003a0: c972 963b f7f7 253e e22f bf3e 71a5 3ebc
000003b0: dce7 77b8 07f8 5e3e 9b86 24bc 939a 87bf
000003c0: 9e60 88b9 eb8d e03c a03a 97b9 0dab 0739
000003d0: a806 97bd bee6 88b9 cf69 d7b8 afcf b939
000003e0: db09 7e3e e4bf 533b 035c 59bf 13b7 01bb
000003f0: 0797 02bf ea8a 383a d3d5 9b3e 245c 45b9
0.0011833542 -0.0006544463 -0.0003555622 -0.0014060644 -0.0015560999 -0.00169002 -0.6587845 -0.0003809748
0.37505227 -0.0007556303 -0.04015707 -0.00047895947 3.1523854e-05 4.6744302e-05 0.0011837078 -0.0005583383
-0.003310268 -0.0024268546 -0.00072985067 0.0008591951 0.0006140559 0.0008646014 1.6484133e-05 0.08919166
0.0015604094 -0.018514033 0.0007315781 -0.41572484 0.00041649124 0.00021585819 -0.000115617484 0.17587933
-2.0384502 -0.75522953 0.00074461487 0.00019701521 0.00032430253 0.0009273894 0.4518 -0.000982144
0.0022604186 0.002932287 0.00039478816 0.014162684 -0.0006492559 5.802354e-05 0.001420505 6.0246202e-05
0.00071875105 0.001003931 6.209142e-05 0.0002919712 0.21373503 3.1698157e-05 0.17503968 0.0018975646
-0.8580326 6.3075335e-05 -0.0003931382 -0.0020400991 0.0005486983 0.0012656238 -0.00025296 -0.00086865167
0.0024027352 0.00023612846 -0.0020701557 -0.5831965 0.06545034 -1.6495547 -7.834838e-05 -0.000880949
-0.0005317143 0.002888225 0.00050406053 0.22464554 -0.956721 0.31472424 -0.0015284331 0.0012644114
0.0008278522 0.0013398133 -0.5131109 -0.5455466 -2.2315483 0.0014245069 0.3300503 -0.00081292616
0.0007922762 0.00030058532 0.0024862255 0.0009161445 0.0028928048 -3.3533678 -0.03236731 -0.001317105
-0.00039396255 0.0015858263 0.2996448 0.001145147 -0.7762819 -0.0030824826 -0.26715106 -0.00029404348
0.0005786308 0.07702004 -0.00023552912 4.8432812e-05 0.44888982 0.14731209 -0.00030935265 0.20480365
-0.00039343248 0.0023917987 0.26249713 0.00045065102 -0.25961572 0.0012975995 0.00071952795 0.0032803663
-0.0007717002 0.003955475 0.0027611274 -0.00046875072 0.2504285 0.0017507013 0.12394289 -0.27104416
-0.0009061124 0.52097493 0.00042287525 -0.001073391 -0.2640212 -3.463084 0.004694695 0.000298974
-0.00012949323 0.004105298 0.12497608 0.35409707 0.0041445927 0.0014050369 -0.00019112053 -0.00011341444
-0.0011338281 -0.0006752093 -0.0010609481 0.2690295 -0.00020911322 0.0005461954 0.51028347 0.00069430994
-0.0005379108 0.0007425619 -0.0019287725 0.7862038 0.0025986792 -0.00094971695 -0.60348415 -0.62180406
-3.5670408e-05 0.08070577 0.5718407 -0.0013292995 -0.49011895 0.45260116 -0.0004918946 -0.5992483
0.0026292305 -0.7825782 -0.00072630646 -0.00092146685 -0.0003093267 0.00038725848 -0.00087465305 0.00028626373
0.0003131063 0.52163416 0.00054788275 -0.0038225332 0.0002777093 0.002354679 0.0008001343 0.0009099585
0.25135782 0.004763746 0.0026825184 -0.0024076214 0.47401685 -0.00065711705 -0.67346823 0.0011254726
0.26819837 -0.0029865676 -0.0018705853 -0.14435767 -0.0009873381 0.0012908231 -0.0010267041 -0.8071955
0.26590565 -0.8021116 0.00044931084 0.22078961 -0.00092405506 0.0011912283 0.0008758157 -0.0014481924
-0.00055468566 -0.00053522433 0.004473392 -0.004382712 0.00029561995 0.0009319523 -0.0005644902 -0.00080282526
0.73333675 -0.037359975 -0.00037709464 -0.0010937315 0.0017008344 -0.00020175478 -0.0018518723 -0.0013971927
-0.00161631 -0.5926742 -0.009734176 -0.5783725 -0.0004040069 0.00033138655 0.3331008 0.22785349
0.00459132 0.16207872 0.3734122 -0.011636124 -5.9105325e-05 0.21774302 -0.010041858 -1.0594047
-0.00026011927 0.027411422 -0.00028844643 0.00012938325 -0.073743165 -0.00026111858 -0.00010271707 0.00035440686
0.24808447 0.003231042 -0.84906024 -0.0019792959 -0.510117 0.0007039743 0.30436572 -0.00018821709

model.2.bias f4 [256]
00000000: 3fb4 c1bd 2f43 82ba b497 30bc 83f1 7bbb
00000010: 53fd 28bd 289d 893d 51af 75bd c9d7 aa3d
00000020: 5bdc d7bb 652c 71bd 2c62 3aba 1e8a a3be
00000030: c993 21ba cccb 9b3c 19b9 f4b9 14e1 d6bb
00000040: b690 5bb9 6041 3aba 6d68 86be d8e2 bfbe
00000050: a588 e73c 2c0b 88be 4448 50ba 920b b7bb
00000060: fe95 f2bd 2c79 8ebd da21 b9bc 5047 c1ba
00000070: 36f0 fcbd 5297 6fbe 6d5e a3bd 6734 823b
00000080: 2e24 27ba aecc 3eba bb27 b53b b97d 8abe
00000090: f197 44ba 1499 c1ba 0f6f b3ba 3781 2e3e
000000a0: 2467 983d 6026 59bb e340 9ebe 4b9d be3d
000000b0: e715 1aba 9278 a3bb c92b 59ba cbec 1fbb
000000c0: 341d 9b3d 0365 b9ba 402b cabd 6428 97bc
000000d0: ab24 14be b6e8 c9be f10b 19be e786 97ba
000000e0: 205b 89be 350f 64ba 20e9 cb3d 7455 21bd
000000f0: ce1e 2aba 8d40 d6bd 270e 91bd 0288 98bc
00000100: 33d1 8aba 6b89 e93d a399 903d bc0f a7be
00000110: 7b2b 8f3c 5fe7 02be 2012 8abe 2042 41b9
00000120: 19ff b43d 56dc 17be 72c1 9e3d c98a 29ba
00000130: 624f 08be 4560 133c be0e 50ba 90c1 d83d
00000140: 0e0e 8fbe 0b73 07bd 330a 06be 74b0 26ba
00000150: 159e e3b9 c9cb 32bd d464 32ba 3254 51bd
00000160: 31f0 7ebd 0ca1 c2b9 2ade dc3c cc9d 3fbb
00000170: d0eb 173d 0417 37bd 09db c3ba 8e81 c9bd
00000180: b11c bcb9 f340 71be e706 18ba 6b56 cbbd
00000190: 9348 83be ed04 1db9 66d1 dd3d 1fc8 8bba
000001a0: e603 edb9 793f 3bbc 35d7 8d3d 730d c13d
000001b0: 6e6c 7ebe 75c4 babd a603 e93d 4819 6fbd
000001c0: b578 4c3d ee2c 7c39 f513 97bc 8f5d 93bb
000001d0: 3fb6 acbe 3f41 53bb e2ee bfbd 4675 84ba
000001e0: 555d 23be 962c 72ba 174b dd3a 7820 8aba
000001f0: c6ab 0bba 7998 a4be 6d82 e43d 0e83 98be
00000200: 7932 9abc 73c1 d1ba 5f99 f1bd 891f 31be
00000210: b739 18be f146 d9bd 8462 00be c855 1fb9
00000220: 3031 99be 253d d1bc 511c 05be 34df 9dba
00000230: d080 103e 90e2 1dbe 32da caba 25dd 46ba
00000240: a410 6dbd 5c4a 2bba 6605 1f3d 6853 3e3e
00000250: d3dd b8bd 0630 3dba ccc1 a7bd a139 2fba
00000260: 4f1b a5bd 22a0 d5bc 2363 503e 4ea5 1dba
00000270: aa2e 103e 4318 e0ba 367a 60be d84c a3ba
00000280: ef5d 64ba 9d5e 783c 2f1b 1e3d bc9a c7ba
00000290: b626 e8bd 11e3 46ba e829 edb9 59ee 9b3d
000002a0: 577b fcbc 5eb8 c73b 0799 e0bb 75dd 40bd
000002b0: 540c 6fbd 2371 6fbe f91d 3dbb 18cd 453e
000002c0: b8d9 97be f3cc b2bc e28e f8bc 57a8 f1bd
000002d0: 7a55 d13d 64fe f5bd e35a 50ba 9a03 02be
000002e0: fdb4 b7ba de18 4f3c 4fe9 d8b9 9b47 893d
000002f0: bda4 a4b9 2c25 b83d 228b 743d 19b0 4e3e
00000300: 8ca1 1e3d 90b5 05ba a8a0 0ebe 297e 65bd
00000310: b17f 2e3d 0bba aa3d 9222 883d e432 85ba
00000320: 6023 ac3d b856 2eba 6d1a 15ba f036 d63d
00000330: 62af e93b 0037 e73d 4551 69be c797 ed3c
00000340: 7e50 6ebe c9b4 78be c843 a7ba 32af 9fba
00000350: b1d3 bf3d 658f 48be 3432 fbbb 4ae2 7cbe
00000360: 9d15 31bb 371e e7b9 05ee 7dba 234d 263b
00000370: 3cb5 a8bb 9cf2 05ba 51bb 5bbe 47e5 dbb9
00000380: 569c 9d3d 1ba7 a2bd 48d3 9cbd 0bdc 1ebb
00000390: cab7 4c3d 362b daba 939b 58be 7547 b6bb
000003a0: c103 45ba 3b77 af3d 1be1 15ba 4016 aabe
000003b0: 7d2d 3ebe 6985 8dbd 5227 81bb d075 71bb
000003c0: 5a10 24be 8d88 18be 3501 6a3d 399b 96bc
000003d0: 4dae 863d 3dc6 a5bb 2b16 26be 03df acbe
000003e0: 72cb 053e 5059 b5ba 9ed3 713e d15d f2b9
000003f0: ed61 303e 095b cfbb 659a 23ba 24c4 8a3c
-0.09458207 -0.0009938235 -0.010778356 -0.0038443513 -0.041257214 0.06719428 -0.059981648 0.08341939
-0.0065875477 -0.05888023 -0.00071099657 -0.31941313 -0.00061636843 0.019018076 -0.00046677215 -0.006557593
-0.00020939377 -0.00071050785 -0.26251546 -0.37477756 0.0282634 -0.26571023 -0.0007945339 -0.005586096
-0.11845015 -0.069567055 -0.02259915 -0.0014745984 -0.12350504 -0.23397568 -0.07976995 0.003973532
-0.00063759356 -0.00072784245 0.005528418 -0.27049044 -0.00074994477 -0.0014770352 -0.0013689714 0.17041479
0.074415475 -0.0033134446 -0.3090888 0.09307345 -0.00058778975 -0.0049887383 -0.00082844176 -0.0024402614
0.075739294 -0.0014144484 -0.098715305 -0.018451877 -0.14467113 -0.39435357 -0.14945962 -0.001156059
-0.26827335 -0.0008699776 0.099565744 -0.039388135 -0.00064895756 -0.10461531 -0.070827775 -0.018619541
-0.0010590911 0.114031635 0.07060554 -0.32629192 0.017476788 -0.12783574 -0.26966953 -0.00018430548
0.088377185 -0.14830145 0.077517405 -0.0006467519 -0.13311532 0.00899512 -0.0007936767 0.10583794
-0.2794041 -0.033068698 -0.13089828 -0.0006358691 -0.00043414594 -0.043651376 -0.00068051857 -0.051105686
-0.062240783 -0.00037122553 0.026961405 -0.0029238341 0.037090123 -0.044699684 -0.0014942597 -0.09839164
-0.0003587953 -0.23559932 -0.00057993684 -0.09928592 -0.25641307 -0.00014974522 0.10830955 -0.0010664499
-0.00045207067 -0.011428707 0.06925813 0.09426393 -0.2484605 -0.091195025 0.11377649 -0.05837372
0.049919803 0.0002404933 -0.018442133 -0.004497237 -0.33732793 -0.0032234935 -0.09371735 -0.0010105751
-0.15953572 -0.0009238211 0.001688334 -0.0010538241 -0.00053280254 -0.32147577 0.11157689 -0.29787487
-0.018822895 -0.0016003087 -0.11796831 -0.17297186 -0.14865766 -0.10609234 -0.1253758 -0.00015195378
-0.2992034 -0.025541851 -0.12999083 -0.0012044669 0.14111638 -0.15418458 -0.0015476404 -0.00075860537
-0.057877198 -0.0006534213 0.038823508 0.18586504 -0.090266846 -0.0007216934 -0.08191261 -0.00066843076
-0.08061849 -0.026077334 0.20350318 -0.0006013707 0.14080301 -0.0017097074 -0.2192162 -0.0012458814
-0.0008711507 0.015159276 0.038600143 -0.001522861 -0.113355085 -0.0007586936 -0.00045235385 0.076138206
-0.030820532 0.0060949763 -0.00685418 -0.047086198 -0.058361366 -0.23383002 -0.0028856976 0.19316518
-0.29658294 -0.021826243 -0.03034157 -0.117996864 0.102213815 -0.12011412 -0.00079481135 -0.12696686
-0.0014015731 0.012640206 -0.0004137256 0.06703111 -0.00031403257 0.08991465 0.059703 0.20184363
0.03872828 -0.0005100602 -0.13928473 -0.05602852 0.042602245 0.08336266 0.06647219 -0.0010162261
0.08405185 -0.00066504953 -0.00056878367 0.10459697 0.007131503 0.11289787 -0.22784908 0.029003037
-0.23272893 -0.24287714 -0.0012761289 -0.001218295 0.09366549 -0.1958595 -0.007665897 -0.24695697
-0.002702094 -0.00044082265 -0.0009686652 0.0025375567 -0.005148558 -0.0005109699 -0.21458174 -0.0004194176
0.07695834 -0.07942029 -0.07657486 -0.0024240043 0.049979962 -0.0016644958 -0.21153097 -0.0055627176
-0.0007515513 0.08567663 -0.0005717442 -0.332201 -0.1857204 -0.069102116 -0.003941455 -0.0036843903
-0.16021863 -0.1489584 0.057130057 -0.018384563 0.06576214 -0.0050590322 -0.16219394 -0.33763894
0.1306589 -0.0013835821 0.23615882 -0.00046227736 0.17224856 -0.006327991 -0.0006240963 0.01693923

model.4.weight f4 [256, 256]
00000000: 5364 12bf 986c 193a 50cc 6f3a b73c ad3d
00000010: 6029 97bd b24a e0bd fa14 0cbe ca4c 13be
00000020: 7036 0ebb 83aa dabe 06c4 ceba d4f8 bbbb
00000030: 373b 02bb 54f3 983e 15e7 b8ba 2a4f babd
00000040: 3e9b 8bb7 65bc db3a d1d2 1fbb f545 4b3e
00000050: b5ae 543e a62e 6ec0 f850 03ba 5aba c83a
00000060: 5ad3 c43e b680 2abe 84de 27bf 1a42 973a
00000070: 241d 573d d5cb e13d 7485 163e 4bce 503b
00000080: 64ae 06b9 5a71 2e3a 603b 9abb f5b8 b73d
00000090: e456 2c39 413f 473a 5140 3cba c4c7 203e
000000a0: 5ae9 b43d c6e4 36bb cd86 583e 07df 89bd
000000b0: d402 9939 fdb5 683b ef14 ad3a 82bf 683a
000000c0: 16f4 c03b d58b ed3d 8fa1 d4bd 0047 163c
000000d0: 75ad 2fbd 40cc 57bd a5ba cc3c 11ff 513a
000000e0: 386b b73d 803a 01bb 3220 993d 5a24 913d
000000f0: 083d 373a 2a2a 2f3e 2455 403e 3522 ac3e
00000100: b516 273b 440a 28bc 6d20 053e 62c2 073e
00000110: dee4 d63d cc07 e93e 2490 1f3e 8714 7f3a
00000120: e1ad c3bd 92b2 123e ba9d 2a3e 664d 1d3a
00000130: 421e a43d 2726 bfbf 02da 18ba 4fcb ae3d
00000140: 0052 ec3e 719f dabd 748c 013e 309e d2ba
00000150: c062 abb9 231e f3be 8d07 eaba 808a acbc
00000160: 7851 01b8 544d 013b a08b f1be 8739 1abe
00000170: 6c22 363e 4653 993d 7476 34bb 23ea 87bd
00000180: c08e 7dba 4952 f0be 21e6 f1b9 ef89 b53d
00000190: e171 253e 6bec 33ba 178c 993e 2cc8 a03a
000001a0: eedb 9d3a b718 403c ba27 543d 63c2 37be
000001b0: 1412 ec3d d8d3 833c cbab 88bd 0cb3 ea38
000001c0: cc18 c63e 7cb1 013c 1cb2 4cbb 4d11 853a
000001d0: b996 f13e 2363 883a e422 0a3f 0658 8939
000001e0: 06e3 f63a 4d1d f23a bfe7 a73c 7d64 4139
000001f0: 6f5d b13a 4a12 ceba 124d 1fbe 3962 1ac0
00000200: f073 5cbe 13d8 d23a ceac 0e3e 0ba4 c5c0
00000210: b611 3abe 4a74 643e 9158 b1bd 0717 bd38
00000220: 3111 303f 3383 7abd cf79 873d babd 8bb9
00000230: 169e c33d 57bb 433d e8b3 7cba 61f1 6db9
00000240: a0e7 c03e cebe 8eba c894 05bf a2de 2d3e
00000250: 2b5c 2f3f 0a3a 04b9 6efe 673c 0b2a a8ba
00000260: 817b bf3d 132c e23b 46f0 ba3d 9f62 84ba
00000270: ddd3 1ebb 4b62 0bba 0cd2 9abe 805b b5ba
00000280: 3d99 a6ba 894e 013e f7cf 9e3d 009e 4eba
00000290: 7f5b 803e 9d86 963a 8c94 853a 3af9 913d
000002a0: 7faa b53d d87f d4bd 2e7a 033a 4b11 4739
000002b0: b18a 28be 6547 c4bb 21cd dc3a b4c4 08bc
000002c0: 0004 fc3b 8ff7 833e 0401 e73d 27dd 8f3e
000002d0: 4494 553d fc8a 18bf 7abf 5d39 6502 103e
000002e0: 5443 e5b9 d2f1 fc3b a615 0fba 4931 77bc
000002f0: 7dfe 5a3a d13a 853e a453 3b3e df7f da3d
00000300: b31e 423d 0961 1239 6281 203e 6099 3e3e
00000310: b382 ee3d 53ad bd3d 1f24 bb3d a37b 243a
00000320: 0a24 81be 4e60 87ba c82b f339 98c5 443e
00000330: 982e ed3e 9843 f3bd 61c3 82c0 44e1 91bd
00000340: fe58 c63d 6529 6b3c 0ca3 0fba c810 0aba
00000350: fb61 cbbd c04c 2cbe 2c32 3abb 74bc 5bbc
00000360: 2b6b 87bb c36e 1eba b71b a4b9 f616 2c3b
00000370: 65f3 c6bb 848e c73a a1e9 96be b6c6 78ba
00000380: 3c71 fb3e 9edc 53be a16a 353e 6409 bd3a
00000390: 5807 3bbc 8128 1a3b 82a9 81be c2a9 1fbc
000003a0: e5bb 9a3a dc0e 613e db7b d4ba d14a a93e
000003b0: db9f c73d 4f52 73be 532f a4ba a5a3 d33b
000003c0: 478c f33d 993e d13c 6c0a 2f3d 1177 fa3d
000003d0: 9ebd 373e aca7 fdba 1201 c03a e204 fc3a
000003e0: 2088 8dbe 5f56 153b 1f0b 063d ca73 a83a
000003f0: 9de0 1abd 1615 9eba 927b 3cbb da7e 0c3e
-0.5718433 0.00058526685 0.00091475714 0.08458846 -0.073809385 -0.10951747 -0.13679877 -0.14384761
-0.0021699928 -0.42708215 -0.0015774972 -0.0057364497 -0.001987172 0.29873145 -0.0014106954 -0.090971306
-1.6642382e-05 0.001676452 -0.002438713 0.19850905 0.2076977 -3.7215972 -0.00050093187 0.0015314326
0.38442498 -0.16650662 -0.65573907 0.0011540086 0.052518025 0.11025206 0.14699346 0.0031861241
-0.00012844201 0.0006654464 -0.004706785 0.08970825 0.00016435568 0.0007600673 -0.0007181215 0.15701205
0.08833571 -0.0027907356 0.21145172 -0.06731992 0.0002918454 0.0035508864 0.0013205091 0.00088786345
0.0058884723 0.115989365 -0.10382377 0.009172201 -0.04289003 -0.052685022 0.024991343 0.0008010725
0.08955997 -0.0019718707 0.07476844 0.07087012 0.00069899904 0.17105928 0.18782479 0.33619848
0.0025495712 -0.010256354 0.1300065 0.13257745 0.10492872 0.4551376 0.15582329 0.0009730537
-0.09554649 0.14325932 0.1666173 0.0006000608 0.08013584 -1.4933518 -0.00058308255 0.08534872
0.4615631 -0.10674942 0.12651235 -0.0016068872 -0.00032689236 -0.4748393 -0.0017855034 -0.021062136
-3.083187e-05 0.001972993 -0.47176838 -0.15061007 0.17786568 0.07486586 -0.0027536424 -0.06636455
-0.00096724555 -0.4693778 -0.0004613856 0.08864199 0.16156723 -0.0006863537 0.29989693 0.0012266687
0.0012043694 0.0117246425 0.0517957 -0.17945246 0.11526886 0.016092226 -0.06673392 0.000111913396
0.38690794 0.007915851 -0.003123409 0.0010152251 0.47185305 0.0010405522 0.5395949 0.0002619626
0.0018835969 0.0018471867 0.020496247 0.00018443349 0.0013531874 -0.0015722003 -0.15556744 -2.412245
-0.21528602 0.0016086124 0.13933107 -6.176275 -0.18170819 0.22309986 -0.08659471 9.0165115e-05
0.6877623 -0.061160278 0.0661503 -0.00026653503 0.09551637 0.047786083 -0.0009639845 -0.00022692002
0.37676716 -0.0010890604 -0.5218015 0.16979459 0.6850001 -0.00012610122 0.014159782 -0.0012829913
0.093497284 0.0069022267 0.0912786 -0.0010100192 -0.0024235167 -0.0005317076 -0.30238378 -0.0013836473
-0.0012710463 0.12627615 0.0775451 -0.000788182 0.25069806 0.001148421 0.0010191365 0.07127614
0.0887041 -0.10375947 0.00050154596 0.00018984561 -0.16459157 -0.005989956 0.0016845801 -0.008347679
0.0076909065 0.2577481 0.112794906 0.28098413 0.05214335 -0.59587073 0.00021147533 0.14063413
-0.00043728447 0.007719257 -0.0005458243 -0.015087434 0.0008353962 0.26021436 0.18293625 0.10668921
0.04739256 0.00013959793 0.15674356 0.18613195 0.11646023 0.092615746 0.09137749 0.0006274527
-0.25222808 -0.0010328384 0.0004638119 0.19216001 0.4632461 -0.11878127 -4.08635 -0.07123044
0.09684943 0.014353131 -0.0005479313 -0.0005266783 -0.09930798 -0.16826153 -0.0028411252 -0.01341163
-0.0041326485 -0.00060437265 -0.00031301167 0.0026258803 -0.0060714954 0.0015224968 -0.2947512 -0.00094900595
0.49109828 -0.20689628 0.17716457 0.0014422354 -0.011415325 0.0023522677 -0.25324637 -0.009745063
0.0011805265 0.21978325 -0.0016211228 0.33064893 0.09747287 -0.23761867 -0.0012526311 0.006458717
0.1189199 0.025542544 0.04273455 0.12229741 0.17943427 -0.0019352338 0.0014648756 0.0019227529
-0.27642918 0.0022787077 0.03272545 0.0012851891 -0.037811864 -0.0012060727 -0.0028760177 0.13720265

model.4.bias f4 [256]
00000000: 9fd2 ea3d d54a 813e 1b93 24ba a3ab 123d
00000010: b9fd 823d 8171 e23d 3136 eb3d 25c7 d23c
00000020: 628e 81bd e3d9 b5bb 76b6 fab9 38a6 adbb
00000030: 8c82 e53d 9216 39ba 46da aebc acf4 75bc
00000040: 3899 9c3d 9ce3 95ba e00f ebba 545b cbbd
00000050: c83e ce3d a32e f4bc f562 fb3c bbfb 26be
00000060: 0053 1aba f2e4 4f3e e943 0dbc 615c 903e
00000070: 009d b43d a8c5 21bc 2851 1abf 2229 7d3d
00000080: cd3e 883d 6743 00be 1877 4aba 906a 87ba
00000090: 6fc7 763c b483 163e f408 563b 298b 273e
000000a0: a23d 0b3e ffb2 883d 1628 f13c 6048 e13d
000000b0: eb06 79bd 7871 873d 2868 85ba c6e1 cdb9
000000c0: 0365 8bbb 5612 9e3d 60ba cdbd 826d e73c
000000d0: 42bc 183e b317 7cba 71a6 a3b9 dfb1 e4ba
000000e0: 9019 90bc b783 75bc 5135 853b cb72 81bc
000000f0: 5144 9fba 4faa 03bd 2948 e9bc 73dd 053a
00000100: d3d6 5bba dd81 19ba 5d60 8a3d a7ef ae3c
00000110: d72b 8fbc 8ec9 42bd 2ae7 f3bd b9df 6bbb
00000120: e4d5 97bd 862e 18bc fabe 8aba 23b6 4ebd
00000130: ecb2 cfbd 3fd0 6bba 1bfe a13c 0428 42ba
00000140: 30cd b13d 2279 00be 7e80 b53d d1de c8ba
00000150: 8b6f 913d 8f84 dabd df10 53bd ff8c 24be
00000160: 3fdd 3dba 4d4c 1bba 72cd 6cbc c7bb 6a3e
00000170: 9726 4e3c 3fa5 c4bb 9241 bbbc 6e38 17ba
00000180: 7e89 f23d 7a81 83bc aa32 3e3d 7a2f 663e
00000190: 36e3 cf3c 6170 8fbc 6060 acbb fca0 57ba
000001a0: d2b8 a2ba 0db4 8e3e 7b74 f7ba 9189 a3b9
000001b0: 32b2 44ba 49d3 943d e14e a4bc 6409 663d
000001c0: 6f43 cdb9 01fc f23d 5c05 15bc 5c9f 93ba
000001d0: 3cc9 a4ba 5bdf 8b3d 6417 443c b3dd 06bc
000001e0: 6f09 253e 9079 90bc b407 e43d a0c6 bdbd
000001f0: a9b1 8e3c 4b3d b53d f582 1fbc 1372 5abd
00000200: ed34 52bc eb0b 93ba e0b7 df3d 12aa e3bb
00000210: 106f f4bd 75ea 103d 6288 e43d 40e2 adbd
00000220: b7b9 e5ba ddb9 b83d e484 d9bb 4810 57ba
00000230: be74 6e3e a7ac 21bb 5263 6fbb 8215 f33d
00000240: 51ba 3fba 580a bbba 7a0b 5d3e f4c4 e3b9
00000250: a239 47ba 292b 87ba 037a eaba 114e 8cba
00000260: be0f 563d 21d8 603d 75db 993d ee1c 95bb
00000270: 5806 63bb 7b8f 7b3e 830d 3fba bfe1 113e
00000280: 9cf6 273e 41b8 c8ba ac27 1b3e e120 45ba
00000290: 3b03 25be 5468 85bd 6397 173e e365 75ba
000002a0: 7330 e23d 0d5a 77bc 025f 6d3e f8e9 123e
000002b0: 0284 813e 04bf 01be 1bd1 b5b9 2fd4 1fba
000002c0: 503f b8bc 4f46 36bc b025 6d3e 9fc0 23ba
000002d0: 4dd8 13bd fab4 25be 39ec 363d 24ee 953d
000002e0: b14c 5e3c 1081 e8bd ed6e bd3d b5db 07bd
000002f0: dcc3 16bb 8152 0fba f746 38ba 46d9 64ba
00000300: 5562 943d 0210 37bd 12c9 823b 777d 16bc
00000310: ea13 05be 5e49 dbba edbe cebd 4c85 fb3c
00000320: 0b80 2f3d 8538 b13b f7c1 85ba 5f09 513d
00000330: 45a1 dcba e316 d9bd 7b12 bbba 738e 00bb
00000340: 9369 e23d 5707 16ba 932c 90ba fa55 3bba
00000350: 86fb 31bd 6d67 7fbc 15ba c33c 8b74 18ba
00000360: c602 8cba 8650 183e 69fb 8dbd 6f33 96bc
00000370: e80e 2f3e 3e7f b63d e0f3 993b adee 2fbe
00000380: ec1c 3fbc 110d 833c 5bbb 04bc 69cb 99bc
00000390: 49a1 b83d ada2 43ba 0e47 0bbd 196e eebc
000003a0: e60f a0b9 fd78 b43b 5a2f a7ba 8a97 b4bb
000003b0: a2b2 84bb dbaf 773e 5ce8 8cbc 1b2a c1bc
000003c0: 50ef 173e a78f 15ba 1327 02bb d60d 403d
000003d0: f9ec 0d3c 8bca b9bb e744 e43d f80c 29bc
000003e0: 9e98 41bc 21f2 08bd 88e9 b3bc b562 26ba
000003f0: d43d e33d ccf5 babd 32d6 623e bc6a c4bc
0.11465954 0.25252405 -0.0006278024 0.035808217 0.0639605 0.110568054 0.114849456 0.025729725
-0.063259855 -0.0055496558 -0.0004781966 -0.005299356 0.112065405 -0.0007060553 -0.021344315 -0.015011948
0.07646412 -0.0011435631 -0.0017933808 -0.09929529 0.10070568 -0.029807394 0.030686835 -0.16306965
-0.0005887002 0.2030218 -0.008622148 0.2819548 0.08819008 -0.009873785 -0.60280085 0.061806805
0.06652603 -0.12525712 -0.0007723435 -0.0010331441 0.015062197 0.14698678 0.0032659145 0.16361679
0.1359773 0.06674766 0.02943806 0.110001326 -0.060797613 0.06613439 -0.0010178136 -0.0003926886
-0.004253985 0.07718341 -0.10045314 0.02825046 0.14915565 -0.00096165686 -0.0003121379 -0.0017448029
-0.017590314 -0.014985017 0.0040651937 -0.015801808 -0.0012151097 -0.03214484 -0.028476791 0.0005106546
-0.00083861983 -0.0005855838 0.06756661 0.02135451 -0.01747696 -0.0475555 -0.119093254 -0.0035991503
-0.07413843 -0.009288436 -0.001058548 -0.050466668 -0.101415485 -0.00089955697 0.019774487 -0.00074064755
0.086817145 -0.12546209 0.088623986 -0.0015325194 0.07101353 -0.10669815 -0.05152976 -0.1606941
-0.0007242746 -0.00059241505 -0.014453279 0.22923194 0.012582443 -0.006001144 -0.022858415 -0.00057686015
0.11842631 -0.01605295 0.046435036 0.22479048 0.025376897 -0.017509641 -0.005260512 -0.00082255877
-0.00124147 0.27871743 -0.0018879318 -0.00031192278 -0.000750336 0.07266862 -0.020057144 0.0561613
-0.0003915089 0.11864472 -0.009095516 -0.0011262703 -0.001257218 0.06829711 0.011968467 -0.008231568
0.1611688 -0.01763609 0.11134282 -0.092664 0.0174187 0.08849581 -0.009735812 -0.053331446
-0.012830001 -0.0011218762 0.10923743 -0.006947764 -0.11935246 0.035379846 0.111588255 -0.084904194
-0.0017526661 0.090198256 -0.0066381563 -0.0008204025 0.23286721 -0.002466956 -0.0036527705 0.11869337
-0.0007313835 -0.001427005 0.21586409 -0.00043443555 -0.00075998355 -0.0010312545 -0.0017889146 -0.0010704418
0.052261107 0.054893617 0.07512561 -0.004550568 -0.0034641232 0.24566452 -0.0007288085 0.14246272
0.16402668 -0.0015313701 0.15151852 -0.0007519853 -0.16114514 -0.0651404 0.14803843 -0.00093611906
0.11044397 -0.015097153 0.23180774 0.14347064 0.25296026 -0.12670523 -0.00034678806 -0.00060969865
-0.022491127 -0.011125161 0.23158908 -0.00062466593 -0.036094952 -0.16182318 0.044658873 0.07320812
0.013568089 -0.11352742 0.09249673 -0.033168513 -0.0023004925 -0.0005467311 -0.00070296176 -0.0008729886
0.07245318 -0.044693 0.0039912546 -0.009185187 -0.12995878 -0.0016730239 -0.1009501 0.03070321
0.04284672 0.005408349 -0.0010204901 0.051034328 -0.001683273 -0.106000684 -0.0014272475 -0.0019616156
0.11055293 -0.00057231396 -0.0010999612 -0.00071462954 -0.043452762 -0.0155886235 0.023892442 -0.0005815706
-0.0010681979 0.14874467 -0.06932718 -0.018335072 0.1709553 0.08910988 0.0046982616 -0.17180891
-0.01166461 0.015997441 -0.00810131 -0.018773751 0.09015138 -0.00074629 -0.03400331 -0.029105233
-0.00030529423 0.005507587 -0.0012755201 -0.005511229 -0.004049615 0.24188177 -0.017200641 -0.023579648
0.14837384 -0.0005705305 -0.0019859716 0.046888195 0.008662456 -0.005669897 0.111459546 -0.010318033
-0.011816172 -0.033434037 -0.021961942 -0.0006347106 0.11095777 -0.09128913 0.22152022 -0.023976676

model.6.weight f4 [1, 256]
00000000: f1cc d83e 62cf 543e 4ec5 ee39 003a 9bbf
00000010: c3bd 963b 75a4 903e 3f83 d83e f49b 23bf
00000020: 1b97 3bc0 faa8 363a d285 7c3a e24e 893b
00000030: 85c2 913e cab1 1eb9 2f2b 1ebf f0f8 1f3c
00000040: 6ce2 31bf 3240 483a 4666 0139 bb27 88bf
00000050: 4efe 31bf 2b03 21c0 9207 60c0 b254 0bbf
00000060: 40fa ceba c2b4 213f a65b 493b 1517 ca3e
00000070: 7d72 693e 98f8 3fbf 3412 49c0 90a1 1dc0
00000080: 40bd d4bf 16ea 3a40 2674 fcb7 b31c a939
00000090: 850f 33c0 e923 2540 4a9a 6abf 106c 133f
000000a0: a3a0 263f e442 eebf 3eef 90bf caeb 2a3f
000000b0: c6b8 3ebf 5b1b 4c3e 5a92 1c3a b6b3 bd3a
000000c0: 8050 ffba b083 b4bf 24ae 6ec0 1072 1cbe
000000d0: aa7f 533f f691 9b3a a26c 943a dd1e c7ba
000000e0: 529a c5bf 6a82 cd3b 5a4f 7fc0 5e40 e2bf
000000f0: 92b1 583a df3e 0dc0 9a00 2bbf 1c36 6fc0
00000100: 448f 723b 7fad 8039 5391 48bf 2e09 47c1
00000110: 0957 e1bb b839 1abf 19be 1ac0 17fe 3bbf
00000120: 7f2f e3bf 196b 183c 7b52 2339 d7a3 8a3b
00000130: 6784 4ac0 7e3e cc3a f1f4 8440 cf18 b5ba
00000140: ab26 913d 5e6e 68c0 da9d c0bf 8862 6f3a
00000150: 0302 3ec0 799a 22bf 16e1 96bf b339 73c0
00000160: cbea 6e3a 4990 643a 79e8 62c0 1ec0 303e
00000170: 1df2 51c0 1e37 d5b6 5e1c 4a3b 3988 1639
00000180: b8e1 023f f305 0d3c 2bfe a6be c745 2a3e
00000190: 81c5 92bf 60ef 5cbf 9dc5 563b 8693 033a
000001a0: 7fd5 4139 a698 ba3e 3d7a eb39 3244 003a
000001b0: 5da2 a739 46ab 2dc1 8fab 95ba 428b 47bf
000001c0: e0e0 1bbb cef5 023f a424 37c1 9e02 653b
000001d0: ab6c c538 47ca 46c0 f9b5 fcc0 0bb2 7dbf
000001e0: 8fe4 31c0 8867 78bf 601d 913e 2312 f6bf
000001f0: 8cab 95bf 255e 1940 a30f f0c0 0d98 3fc0
00000200: 9121 133c 7a1b 9c39 2649 a23e 8108 54bf
00000210: b00e 7dc0 2e15 e3bf e32f cc3e 17da 47c0
00000220: 5345 e43a 6d83 843e 1e03 8eb9 da93 c83a
00000230: 01c0 363e c534 353a 607e a93a 481e a73e
00000240: 5648 d53a 1702 793a 80ee 7c3e 5513 edb9
00000250: d775 4d3a 06f5 cb38 7f18 843a 10b9 913a
00000260: 57a6 6dbe de8d ebbd cfb0 9bbf 5627 2a3a
00000270: 472c df39 583d 483e 7eeb 0837 46ac 9c3f
00000280: b50d 153f 172c 6d40 c92d 873e efe2 173b
00000290: dbe7 87be 40c0 3bbf f346 b13e 7c2c 2a3a
000002a0: f996 903e abd4 3cc0 839b 343e 02c4 9c3f
000002b0: bded 553e c01d 7d40 d012 d33a a117 843b
000002c0: 3720 3ec1 0a1e f0ba 8f29 343e 8808 c138
000002d0: bb34 17c0 3f98 9abe 26c0 37bf a1bb 78bf
000002e0: 0040 b0bf 22db 20c0 7f1d 09bf ff84 b83c
000002f0: 88c4 af3a 3f53 be39 61bb 313a 1cfd d5ba
00000300: 8654 5fc0 df73 edbf 1a46 5fbf 41f3 0c3b
00000310: 2e29 6ec0 6df5 2d3a 31a5 c9bf 3ec7 ec3f
00000320: 3a11 9fbf a554 abbf 2531 9e3a ba41 1dc0
00000330: 4786 84ba a838 f8bf f1ef 9c3a 4d52 283a
00000340: 1279 903e 8f7e 123a ad95 09b8 55e7 2339
00000350: 6d86 9d40 5d97 c2ba bd5f 3ec0 c0d9 0d3a
00000360: 4e0c 1f3a 8fac b33e 154e b1c0 4334 ee3b
00000370: 774f 2a3f 21a2 9b3d cbbb 28c0 7a44 24c0
00000380: 97bb 5539 cbab 30bf ed6c be3b 0908 3c3b
00000390: b2d4 a9bf 6334 243a 4dc5 dbbf 1da1 adbf
000003a0: c3cd 8ebf 5f2e 14c0 03fb 363a a455 e1bf
000003b0: c70b 193a fcee 8d3e 8222 183c d2c0 5939
000003c0: 4996 b13e c583 5439 f4ae 253b 6406 3bbf
000003d0: 89cf 6f40 de41 8a3a a9c9 903e e72b d7c0
000003e0: af74 a5bb 9775 303c 0f5d 073c 1fd8 d93a
000003f0: 140e b9c0 fbcf 1640 6593 253e d135 15bf
0.42343858 0.20782235 0.000455419 -1.2127075 0.004600258 0.2825047 0.42287633 -0.6390984
-2.9310977 0.00069679285 0.0009632978 0.0041903118 0.2846872 -0.00015134286 -0.6178464 0.009763941
-0.6948612 0.00076389604 0.00012340499 -1.0637125 -0.69528663 -2.5158184 -3.500462 -0.5442611
-0.0015791133 0.6316644 0.0030724793 0.39470735 0.2279758 -0.749887 -3.141736 -2.462986
-1.6620255 2.9205375 -3.0094827e-05 0.00032255574 -2.7978222 2.5803168 -0.91641676 0.57586765
0.6508886 -1.8614163 -1.1323011 0.66766036 -0.7450069 0.1993231 0.0005972736 0.0014473114
-0.0019478947 -1.4102688 -3.7293787 -0.15277886 0.82616675 0.0011869061 0.0011323879 -0.0015191693
-1.543772 0.00627165 -3.9892182 -1.7675893 0.0008266206 -2.2069623 -0.6679779 -3.7376776
0.0037011662 0.00024543327 -0.7834675 -12.439741 -0.0068768305 -0.6024432 -2.4178526 -0.73434585
-1.774887 0.009302878 0.00015575618 0.004230957 -3.1643312 0.0015582589 4.1549 -0.0013816598
0.070874535 -3.6317363 -1.5048172 0.0009131809 -2.9688728 -0.63516957 -1.1787441 -3.8003967
0.00091139664 0.000871901 -3.545439 0.17260787 -3.2804024 -6.354311e-06 0.0030839662 0.00014355862
0.5112567 0.008607375 -0.3261579 0.1662818 -1.1466523 -0.8630276 0.0032771595 0.0005019236
0.00018485448 0.36444587 0.00044913767 0.00048929744 0.00031973692 -10.854315 -0.0011418926 -0.77946866
-0.002378516 0.5115632 -11.446445 0.0034944187 9.413933e-05 -3.106096 -7.8972135 -0.99099797
-2.779575 -0.97032976 0.28342724 -1.9224285 -1.1692977 2.3963711 -7.501909 -2.9936554
0.008980171 0.0002977511 0.31696433 -0.82825476 -3.9540215 -1.7740839 0.39880285 -3.1226861
0.001741568 0.2588152 -0.00027086673 0.0015302852 0.17846681 0.00069124653 0.001293134 0.3264029
0.0016272168 0.00094989076 0.24700356 -0.00045218566 0.0007837689 9.7254335e-05 0.0010078101 0.0011117775
-0.23207985 -0.115016684 -1.2163333 0.0006490847 0.00042566864 0.19554651 8.1610615e-06 1.2240074
0.5822404 3.705816 0.2640212 0.0023176034 -0.2654408 -0.73340225 0.34624442 0.0006491614
0.28240183 -2.9504802 0.17637448 1.2247317 0.20891471 3.9549408 0.0016103629 0.004031137
-11.882865 -0.0018319499 0.17593978 9.204546e-05 -2.3625934 -0.3019428 -0.7177757 -0.971613
-1.3769531 -2.5133748 -0.5356063 0.022524355 0.0013410011 0.00036301647 0.0006779936 -0.0016326043
-3.489534 -1.8550986 -0.8721634 0.0021507295 -3.7212634 0.00066359976 -1.5753537 1.8498304
-1.2427132 -1.3385206 0.001206909 -2.4571366 -0.0010110819 -1.939229 0.0011973364 0.0006420955
0.2821737 0.00055883167 -3.280274e-05 0.00015631069 4.9226594 -0.0014846135 -2.9745934 0.00054111704
0.0006067202 0.3509259 -5.5407815 0.0072694137 0.66527504 0.07599283 -2.636462 -2.5666795
0.00020383146 -0.69012135 0.005811325 0.0028691313 -1.3268034 0.000626391 -1.7169586 -1.3564793
-1.1156543 -2.3153303 0.00069801527 -1.760426 0.0005838242 0.27721393 0.009285571 0.00020766564
0.3468497 0.00020266983 0.0025281282 -0.73056626 3.747042 0.0010548194 0.28278854 -6.724109
-0.00504931 0.010770223 0.008261933 0.0016620195 -5.7829685 2.3564441 0.16169508 -0.5828524
