Models/Bloom_filter/result/model-dict-49.pt (torch, 533323 bytes, 7 tensors)

model.0.weight f4 [256, 2]
000000 5c bc df bb aa 15 ba b9 0e 95 33 bb 5a a4 2c 3a
       -0.006827874 -0.00035492826 -0.0027402076 0.00065857696
000010 b3 95 41 3b f0 c9 4e 3a e5 89 0c bc 0b d7 f0 bb
       0.002953869 0.00078883674 -0.0085777985 -0.007349854
000020 01 b6 93 bb a9 86 25 bc 67 4f 96 bc 5f 8c 10 3c
       -0.0045077805 -0.010102906 -0.018348409 0.00882253
000030 b8 ff 0e bf d8 d0 2d bd 72 ff 3d 3a 01 62 e1 bb
       -0.55858946 -0.042435497 0.0007247842 -0.006878138
000040 f7 f0 9f be 9b ae d2 3e f8 59 8a bb 42 40 ff 3a
       -0.3123853 0.41148838 -0.004222151 0.0019474106
000050 5b 00 2b bd 64 77 f0 3e 68 50 54 bb 9a 48 de ba
       -0.041748386 0.46966088 -0.0032396559 -0.0016958893
000060 4a 99 c3 bf 9b e7 09 3e 6b 3e 10 bb 01 5e ea 3a
       -1.5281155 0.13467257 -0.002200986 0.0017880799
000070 31 83 03 bb 69 23 9f 3b 82 82 98 bb 9d 89 28 3b
       -0.002006721 0.004856516 -0.0046542296 0.002571679
000080 fa 50 c1 bc d7 31 60 3c 56 8f 94 bb 38 aa b9 ba
       -0.023598183 0.013683758 -0.0045336885 -0.0014165109
000090 70 07 8a bb 70 b2 ee 3a 63 e4 86 bb 60 d3 ef 3a
       -0.0042123124 0.0018211138 -0.0041165813 0.0018297248
0000a0 9b 2b 2c bc 14 ab d3 3b e3 4c 65 bb 89 56 f1 38
       -0.010508443 0.006459603 -0.0034988455 0.00011507894
0000b0 53 2f 92 bb 63 d1 e0 bb 3b cf 69 be e4 6b 3b bf
       -0.004461208 -0.0068608983 -0.22832958 -0.73211503
0000c0 4c 63 32 bb 92 2d 55 3b de b5 84 3b 1e a3 82 3b
       -0.002721983 0.0032528383 0.0040500006 0.0039867302
0000d0 54 78 d6 bb 9a 0e 11 bb 3b 7c 28 bf ea 0d 24 3e
       -0.006545106 -0.0022133947 -0.6581456 0.16020933
0000e0 37 da 5d bb 48 2d 0a bb 60 d2 77 bb 12 8e 56 3a
       -0.003385199 -0.0021084119 -0.0037814602 0.0008184622
0000f0 fc 86 17 bc 1a 9b 01 bb 42 23 2d 3d 2e d6 6a bf
       -0.009248491 -0.0019776286 0.042269953 -0.9173306
000100 4d 59 b5 3e b0 3d cf bf e9 c3 90 3e ad 52 97 be
       0.35419694 -1.61907 0.28274468 -0.29555264
000110 ad 1f bc 39 b5 56 a2 bc d6 a0 02 3b 4c 98 65 bb
       0.00035881755 -0.019816736 0.0019932291 -0.0035033403
000120 e9 86 1a 3b af 92 ae bb 88 7c 83 bb d5 66 3b bc
       0.0023578948 -0.0053275446 -0.004012648 -0.011438091
000130 21 e2 8e 3e 01 83 e7 3d ca 5e 67 bb 14 4c 09 bc
       0.27906898 0.11304284 -0.0035304301 -0.008379955
000140 45 9c 8a 3e 77 cf fb bd 16 57 87 3e 98 f0 fd bd
       0.2707235 -0.1229543 0.2643363 -0.12399405
000150 d2 00 17 bb 81 b7 14 ba b8 54 42 3d 4a c1 76 bd
       -0.002304126 -0.0005673096 0.047444075 -0.06024293
000160 c8 c2 b0 ba b0 4f e1 bb 40 88 97 bb 88 f3 bb b9
       -0.0013485784 -0.0068759546 -0.0046243966 -0.00035848864
000170 3b 89 52 b8 2f 6e 02 bb e2 25 5e 3b a8 55 5b bb
       -5.0195707e-05 -0.00199021 0.0033897092 -0.0033467803
000180 42 2c b7 3b ae f6 f9 3a 4f 4d fe 3a d9 65 cd bb
       0.0055899927 0.0019070709 0.0019401702 -0.0062682447
000190 df 8e a6 ba e8 32 f5 b9 d5 f7 37 bc 47 42 1a 3c
       -0.0012707374 -0.0004676797 -0.011228521 0.009415216
0001a0 cd 54 44 be cc 4c b8 3e b9 6a 5c bc 2f 00 ca b8
       -0.19172974 0.3599609 -0.013453179 -9.632145e-05
0001b0 32 88 44 be f5 e4 42 bf 99 fa 23 ba 55 c8 03 ba
       -0.1919258 -0.7613061 -0.00062552985 -0.0005027105
0001c0 f0 98 9e 3e 10 d2 50 3d 53 d6 a1 3a d2 6a de ba
       0.30976057 0.05098158 0.0012347199 -0.0016969091
0001d0 fb f5 97 bb 4b 03 50 bb f5 17 8f 3e c7 56 d8 bd
       -0.0046374775 -0.0031740244 0.27947965 -0.105634265
0001e0 1a af 94 b9 1b 6e d7 39 e7 54 9a ba c3 c5 e9 ba
       -0.0002835922 0.0004109003 -0.001177457 -0.0017835427
0001f0 52 4f 0e 3b 7e 63 6b 3b 31 19 d1 bb 75 8a 25 bc
       0.002171476 0.0035917456 -0.006381177 -0.0101038115
000200 99 6a 68 bb d1 99 8d 3a ac bd 8d bb d9 db 9f ba
       -0.0035463928 0.0010803287 -0.004325589 -0.0012196257
000210 53 75 18 bb 2e a3 01 bc 04 bb d7 be 40 18 1e bd
       -0.002326329 -0.00791244 -0.4213487 -0.038597345
000220 eb 1a 9d 3e e9 f2 0f be 70 88 88 3e 6a 0b 29 3e
       0.306846 -0.14057507 0.26666594 0.1650826
000230 f0 73 76 bb 6c 23 eb bb df 9e ca ba c8 28 92 ba
       -0.0037605725 -0.0071758535 -0.0015458724 -0.001115107
000240 a1 cd 54 bb 2e 2b 16 ba e5 3f 8a 39 7d 86 32 bc
       -0.0032471197 -0.000572848 0.00026369016 -0.010896322
000250 9a 07 e8 ba f8 ff bb ba 46 d7 05 be 8a 7b cd 3e
       -0.0017702461 -0.0014343252 -0.13070402 0.40133315
000260 8c c6 88 3e d7 d3 78 be 09 43 78 3e d7 0d be be
       0.2671398 -0.2429956 0.24244322 -0.37119934
000270 89 3b 04 3b be df e7 b9 b7 29 27 ba 42 78 bd ba
       0.0020177087 -0.00044226454 -0.00063767604 -0.0014455395
000280 52 08 57 3a fa 0e 5b bb 07 3a 20 bb b5 87 28 bb
       0.0008202839 -0.0033425675 -0.002444865 -0.0025715653
000290 0d 61 8c 3e 56 db ab be 14 2c d2 be 5d 12 77 bd
       0.27417794 -0.33565778 -0.41049254 -0.060320247
0002a0 28 69 4f bf 11 d5 ca be 52 c5 e7 ba 3e b7 ba bb
       -0.8101983 -0.39615682 -0.0017682707 -0.0056981137
0002b0 3c 41 1f bd ff ae 1c bf bb 3e 55 bb 02 ca a1 bb
       -0.03888057 -0.6120452 -0.003253861 -0.0049374113
0002c0 bc 5c 9c ba 9d 04 24 bc 06 1b 9d bb 93 ee 00 bb
       -0.0011929492 -0.0100108655 -0.004794481 -0.0019673451
0002d0 b2 08 91 3a dc 5a 3e bb 98 70 86 3e 49 91 f6 bd
       0.0011065213 -0.0029045856 0.26257777 -0.1203943
0002e0 60 ba 59 bb 00 4a 65 3b bd 84 95 3e dd 21 67 be
       -0.003322266 0.0034986734 0.29202834 -0.22571512
0002f0 97 58 1d 3c fc ba 1a 3c 83 b1 91 bb 72 41 21 3b
       0.009603641 0.009443995 -0.00444621 0.002460566
000300 a4 ed 7f bb 17 b6 2d bb 7f ab 61 bb 7d 18 cc bb
       -0.0039051557 -0.002650624 -0.0034434495 -0.006228505
000310 be 74 84 3d 9d df 23 bf 58 3f 06 ba 76 bc 39 3b
       0.06467579 -0.6401308 -0.0005121133 0.0028341091
000320 10 87 90 3e 23 9d 97 be 42 ba 27 bc ad 80 a6 3b
       0.28228045 -0.29612073 -0.010237278 0.0050812573
000330 68 b8 69 3e d4 c0 e9 be 57 55 b2 ba e8 f7 a3 3b
       0.22824252 -0.4565493 -0.0013605756 0.005003918
000340 7e 74 3f bb 17 57 31 39 8a ca 8e bd e3 1d 95 3e
       -0.0029213722 0.00016912479 -0.06972225 0.29124364
000350 fd bf 80 bb fb cc ce 39 3b a0 42 bb 85 17 ed 3a
       -0.003929137 0.00039444104 -0.0029697556 0.0018088674
000360 c7 fc ec be 23 82 c4 3e 89 40 2f be 19 da 81 3e
       -0.46286604 0.38380536 -0.17114462 0.25361708
000370 78 6d 42 ba 50 db 1a bb fa 22 23 bb f5 e6 06 bf
       -0.0007416825 -0.0023629256 -0.0024892674 -0.5269616
000380 3f f1 b2 bb 0e 2b b0 3b a2 e1 87 bb 0a aa 41 3b
       -0.0054608877 0.0053762263 -0.0041467706 0.0029550814
000390 a6 86 58 3e 8d 90 e6 3d d4 39 62 b8 05 72 e1 bb
       0.21145114 0.112580396 -5.3936456e-05 -0.0068800473
0003a0 16 1a 7b 3e 4b 85 52 bf 97 15 fb 38 ec 86 91 3a
       0.2452167 -0.8223464 0.00011972634 0.0011102832
0003b0 aa 7d 6e ba 2a 39 bd bb b4 3a 39 bb 79 33 89 3b
       -0.0009097705 -0.0057746368 -0.002826375 0.004187044
0003c0 cc 21 6d bb 7d 57 91 b9 f8 9d 89 bb 45 0a 70 bc
       -0.0036183475 -0.0002772174 -0.0041997395 -0.014650886
0003d0 fc 40 65 3b 78 da 22 bc 8d 7e 18 bb 5d 7e 81 3b
       0.003498136 -0.009939782 -0.002326879 0.0039518313
0003e0 0b 3f 82 3e 16 4c ad be 61 b0 b1 3a a5 88 2e bc
       0.25438723 -0.3384711 0.0013556593 -0.010652696
0003f0 30 4f 0e 3e 33 d4 e0 be 8f 8d 18 bf 22 86 6a 3e
       0.13897395 -0.43911895 -0.59591 0.2290273

model.0.bias f4 [256]
000000 00 00 00 00 52 aa 5a bb 5e b3 06 bc 00 00 00 00
       0.0 -0.003336568 -0.008221475 0.0
000010 00 00 00 00 ff 46 92 bb 26 e6 2f 3e ba f9 47 ba
       0.0 -0.00446403 0.17177638 -0.000762846
000020 e6 cf 15 bd d5 0d a3 bb 27 b5 dd bd 00 00 00 00
       -0.03657522 -0.004976014 -0.10825568 0.0
000030 1a ef 14 3e d7 cd 0d bb f3 75 81 bb 17 4b b1 bb
       0.14544335 -0.0021637583 -0.003950828 -0.0054105627
000040 10 59 65 bc 00 00 00 00 66 5e 9f bb 81 43 10 ba
       -0.013998285 0.0 -0.004863548 -0.0005503223
000050 a1 44 f3 ba 6a e8 62 ba 00 00 00 00 4a 81 45 3e
       -0.0018559882 -0.0008655848 0.0 0.19287601
000060 91 b8 1f bb dd be 79 bc 00 00 00 00 d6 75 ce 3d
       -0.0024371485 -0.015243259 0.0 0.10081069
000070 00 00 00 00 67 ac 86 bb 00 00 00 00 18 65 11 3e
       0.0 -0.0041099074 0.0 0.1419872
000080 e0 10 93 bc 75 da 4b bd 5d 17 96 b9 2f f7 d1 ba
       -0.017952383 -0.049768884 -0.00028627636 -0.0016019101
000090 2b 9c 04 bb 00 00 00 00 33 93 5c be 00 00 00 00
       -0.0020234685 0.0 -0.21540527 0.0
0000a0 6e 3b 1b be f1 51 18 be 00 00 00 00 88 c2 16 bd
       -0.1515939 -0.14875008 0.0 -0.036806613
0000b0 c5 8e 79 bb 00 00 00 00 00 00 00 00 88 04 96 bb
       -0.0038079482 0.0 0.0 -0.004578177
0000c0 3f 10 f8 bb eb f9 20 bb 00 00 00 00 1c d0 af bb
       -0.007570296 -0.0024563025 0.0 -0.0053653847
0000d0 69 25 54 bd 00 00 00 00 2a a6 44 3e 95 12 47 38
       -0.05179349 0.0 0.19204012 4.7462603e-05
0000e0 08 83 09 be 38 cf 82 ba 00 00 00 00 ba 02 29 be
       -0.1342889 -0.0009979969 0.0 -0.16504946
0000f0 11 1a 44 ba 00 00 00 00 33 bd bd bb 0c 6f 92 bb
       -0.0007480691 0.0 -0.0057903766 -0.004468804
000100 79 aa 73 ba 00 00 00 00 09 1e e3 b8 34 58 12 3e
       -0.0009295117 0.0 -0.00010829798 0.1429146
000110 b1 89 8a bd 1d 76 41 be 00 00 00 00 00 00 00 00
       -0.06764544 -0.18892713 0.0 0.0
000120 37 7d 48 bb a4 21 5f b9 00 00 00 00 76 30 00 be
       -0.0030592212 -0.0002127947 0.0 -0.12518486
000130 c5 f3 96 bd 38 a5 94 3c d4 09 f1 ba 00 00 00 00
       -0.07370714 0.018145189 -0.001838977 0.0
000140 fc be 2c ba 00 00 00 00 cf 2d 0f bd 5c af 0b 3e
       -0.0006589738 0.0 -0.034955796 0.13641113
000150 8c 3c 61 3e 00 00 00 00 a5 b1 1f 3e 00 00 00 00
       0.21995753 0.0 0.1559511 0.0
000160 00 00 00 00 00 00 00 00 74 bf ad ba 74 77 19 be
       0.0 0.0 -0.001325591 -0.14986974
000170 37 b1 92 bb c9 15 d1 bd 30 b3 0a bd 1a 3f 54 ba
       -0.004476692 -0.10209233 -0.033862293 -0.0008096561
000180 00 00 00 00 00 00 00 00 fd b3 11 3e 71 14 30 bb
       0.0 0.0 0.14228816 -0.0026867653
000190 d7 f9 57 bd bd f0 3b bb b6 e3 0a 3c 35 bd 90 bb
       -0.0527285 -0.0028677427 0.008477142 -0.0044170865
0001a0 4a bb 45 ba 24 34 a2 bd 4a 9c c9 b9 02 56 0b ba
       -0.0007542862 -0.07920101 -0.00038454152 -0.00053152454
0001b0 5e bc 1d 3d 14 b5 1d bc 4e 88 05 39 44 12 6b 3e
       0.03850972 -0.009625692 0.00012734646 0.22956187
0001c0 77 21 da bb ef 62 a2 bb bb f6 73 be 00 00 00 00
       -0.0066568214 -0.0049556415 -0.23824589 0.0
0001d0 71 04 0c 3d f3 2d a1 ba ee f3 ba 38 d9 d4 98 bb
       0.034183923 -0.0012297019 8.9146066e-05 -0.0046640453
0001e0 62 fc 3c bb 2a ca 11 bb 11 88 37 bb 39 f3 43 bb
       -0.0028836955 -0.0022245743 -0.0028004686 -0.002989961
0001f0 f0 42 25 3c 8b 8f 8e ba b5 d5 19 3e 94 f5 40 3d
       0.01008676 -0.0010876519 0.15022929 0.0471092
000200 00 00 00 00 cd bf 83 be 00 00 00 00 00 00 00 00
       0.0 -0.2573227 0.0 0.0
000210 6c 1e 08 3d cd e2 cc bd 03 0d e2 bb 00 00 00 00
       0.033232138 -0.10004196 -0.006898524 0.0
000220 b7 56 df ba 1c 34 6e bc e9 fb 4e 3e 39 bf 2a 3e
       -0.0017039393 -0.014538791 0.20213284 0.16674508
000230 e2 73 c2 ba 1d a4 3b 3a 00 00 00 00 ee 8c 6f ba
       -0.0014835561 0.00071579387 0.0 -0.00091381266
000240 d4 29 af b9 0b 24 95 bb 36 02 eb bb d0 73 88 bd
       -0.00033409765 -0.004551416 -0.0071718944 -0.066627145
000250 00 00 00 00 34 55 0d ba ce 31 56 be 00 00 00 00
       0.0 -0.00053914194 -0.20917436 0.0
000260 8d 3f 08 ba 00 00 00 00 00 00 00 00 ef 67 78 be
       -0.0005197458 0.0 0.0 -0.24258398
000270 d3 f5 8c bb 35 ab 99 ba 98 1f 21 3e 69 2f 13 3e
       -0.0043017655 -0.0011723997 0.15734708 0.14373554
000280 c4 e7 ff b9 c7 4f 67 bd c5 d0 a8 bd 31 c7 43 ba
       -0.0004881007 -0.056472566 -0.08242945 -0.00074683415
000290 2c f9 5c be 7d 61 54 be 00 00 00 00 d5 a8 10 3e
       -0.21579427 -0.20740314 0.0 0.14126904
0002a0 d0 46 13 bb 75 f8 4b bd 11 58 ad bb 00 00 00 00
       -0.0022472627 -0.049797494 -0.0052900393 0.0
0002b0 a2 d8 ca ba 00 00 00 00 00 00 00 00 42 5a 18 be
       -0.0015475939 0.0 0.0 -0.1487818
0002c0 ba 5f 2b bb 40 9a 83 be 00 00 00 00 a5 69 39 bc
       -0.0026149587 -0.2570362 0.0 -0.0113166915
0002d0 cf 5c ae bb 89 92 33 3a 00 00 00 00 00 00 00 00
       -0.0053211222 0.00068501435 0.0 0.0
0002e0 89 87 7f 3e 33 c3 87 bb 00 f8 8d bb 6d c4 37 bd
       0.24954046 -0.0041431426 -0.0043325424 -0.04486506
0002f0 af 41 38 3e 1b 22 d2 ba 47 05 94 bd 69 6c b0 bb
       0.17993806 -0.0016031893 -0.07227569 -0.0053840172
000300 a0 a4 35 bd 00 00 00 00 93 71 45 bc af a4 2b be
       -0.04434645 0.0 -0.012051004 -0.1676204
000310 00 00 00 00 00 00 00 00 6e c5 79 ba ef c2 64 3d
       0.0 0.0 -0.00095280155 0.055849966
000320 32 90 7d bc ca 72 66 3d 00 00 00 00 c0 f1 0d 3e
       -0.015476273 0.056261815 0.0 0.13861752
000330 00 00 00 00 18 57 87 ba 0e 36 c2 b9 00 00 00 00
       0.0 -0.0010325639 -0.00037042837 0.0
000340 00 00 00 00 00 00 00 00 37 11 87 bb fe 69 96 bb
       0.0 0.0 -0.004121925 -0.004590272
000350 a0 d9 9a ba 00 00 00 00 00 00 00 00 00 00 00 00
       -0.0011814125 0.0 0.0 0.0
000360 5b af 74 be 09 14 dc bd cb 4a 97 bb e9 d0 a1 ba
       -0.23895018 -0.10746009 -0.0046170703 -0.0012345585
000370 c9 83 3a ba 00 00 00 00 00 00 00 00 6e c6 b7 b9
       -0.00071149744 0.0 0.0 -0.00035052322
000380 00 00 00 00 b6 27 12 3e 14 57 3a bc 94 56 49 be
       0.0 0.14272961 -0.0113733 -0.19661933
000390 7e 87 3e ba 00 00 00 00 e1 dc 2d 3e af 70 42 3e
       -0.0007268115 0.0 0.1697879 0.18988298
0003a0 ef 60 96 3a c6 9b a3 3e 26 5e 15 bd 7e e1 0f bd
       0.001147298 0.31954783 -0.03646674 -0.035127155
0003b0 00 00 00 00 f1 33 ca bc 24 e7 51 3d 1e eb 2e be
       0.0 -0.02468297 0.051245824 -0.17081878
0003c0 7b a0 ec ba 10 95 9a bd 38 5a 02 bb 00 00 00 00
       -0.0018053198 -0.07547963 -0.00198902 0.0
0003d0 39 d3 dd 3c 00 00 00 00 c8 7a 44 3a 10 06 e1 bb
       0.027078258 0.0 0.00074951025 -0.006867178
0003e0 73 87 1e 3c 71 be 6c 38 2f 02 7d bd ad 1a 3d be
       0.009675848 5.6444147e-05 -0.06176966 -0.18467207
0003f0 d5 c1 fd 3d 98 0a 55 bb fe f9 5d bc a2 c5 d2 bb
       0.12390486 -0.0032507535 -0.013548372 -0.006432251

model.2.weight f4 [256, 256]
000000 fc 70 82 3b e3 47 10 bb c2 c6 9c ba ca fd 9a bb
       0.003980754 -0.0022015504 -0.001196109 -0.004729961
000010 7b 87 ab bb f0 4a ba bb 57 fe 0c bf 06 fb a7 ba
       -0.0052346564 -0.005685203 -0.5507559 -0.00128159
000020 f5 64 c2 3e 47 96 26 bb 6a 08 5f bd 0b 2f d3 ba
       0.3796765 -0.0025419162 -0.054451384 -0.0016112042
000030 0a 65 de 38 c1 e2 24 39 ff 7a 82 3b 22 2f f6 ba
       0.00010604605 0.00015724731 0.0039819474 -0.0018782357
000040 79 72 36 bc 04 c2 05 bc 76 e7 20 bb 5b 6b 3d 3b
       -0.011135691 -0.008163933 -0.0024552024 0.00289031
000050 70 60 07 3b a7 9c 3e 3b 96 95 68 38 1c 2e c5 3d
       0.0020656846 0.0029085071 5.5452423e-05 0.09627935
000060 6d 01 ac 3b da 1a 7f bd fe 48 21 3b e7 be ea be
       0.0052491934 -0.062281467 0.0024610157 -0.45848772
000070 c8 a3 b7 3a dc 5a 3e 3a ee e9 cb b9 23 17 78 3e
       0.0014010603 0.0007261464 -0.00038893468 0.24227576
000080 96 0c fa bf 03 b0 29 bf a8 28 24 3b 00 bd 2d 3a
       -1.9535091 -0.662842 0.0025048647 0.00066275895
000090 61 fe 8e 3a 64 74 4c 3b 55 f8 ef 3e 5b 87 58 bb
       0.0010909551 0.0031197304 0.4686915 -0.0033039663
0000a0 fe 2a f9 3b 4f 9d 21 3c 45 12 ae 3a 62 25 43 3d
       0.007604002 0.009864165 0.0013280591 0.047643073
0000b0 06 23 0f bb dd ab 4c 39 5b 95 9c 3b c1 82 54 39
       -0.0021840944 0.0001951898 0.0047785467 0.00020266605
0000c0 3b 75 1e 3b 80 54 5d 3b fa 05 5b 39 8d bc 80 3a
       0.0024178762 0.003377229 0.00020887694 0.0009821818
0000d0 41 7e 4c 3e c9 9f df 38 5d 26 58 3e 8a 2b d1 3b
       0.19970037 0.00010663231 0.21108384 0.006383364
0000e0 d0 90 41 bf eb 7d 5e 39 11 58 ad ba d8 e1 e0 bb
       -0.7561159 0.00021218478 -0.0013225098 -0.00686286
0000f0 b0 ef f1 3a 72 82 8b 3b 46 12 5f ba 3b 81 3f bb
       0.0018458273 0.0042574937 -0.0008509498 -0.0029221314
000100 c2 6d 04 3c c0 3a 50 3a ee 31 e4 bb 2a 8f 2c bf
       0.008082809 0.0007943325 -0.00696396 -0.6740595
000110 ec c8 3a bd 57 56 f7 bf a3 2e 8a b9 20 37 42 bb
       -0.04560177 -1.9323224 -0.00026356158 -0.0029634908
000120 de 72 ea ba 43 2f 1f 3c df 40 de 3a 06 87 84 3e
       -0.0017887016 0.009715858 0.0016956589 0.25884265
000130 cb ed 6d bf d0 2b 94 3e fe 7a a8 bb 42 60 8b 3b
       -0.9294097 0.28939676 -0.005141615 0.004253418
000140 a2 82 36 3b 75 b0 93 3b 53 52 de be f8 5e e8 be
       0.002784886 0.0045071193 -0.43422183 -0.45384955
000150 b9 43 1c c0 a7 06 9d 3b a5 13 cc 3e e5 37 33 bb
       -2.4416335 0.004792053 0.39858738 -0.0027346548
000160 8f aa 2e 3b 59 89 84 3a 9a 07 09 3c 72 f9 49 3b
       0.0026651954 0.0010111734 0.008363629 0.0030818847
000170 34 70 1f 3c 32 70 4b c0 ee fd de bd 8c 2f 91 bb
       0.009731341 -3.1787229 -0.10888277 -0.004430717
000180 5b b5 ad ba b1 ce ae 3b e4 08 77 3e e4 76 7c 3b
       -0.0013252901 0.005334698 0.24124485 0.0038523013
000190 71 15 28 bf 4b e4 29 bc 91 21 70 be b0 a6 81 ba
       -0.65657717 -0.010369371 -0.23450305 -0.0009891596
0001a0 64 22 ff 3a 7c fa 9c 3d 42 b3 4f ba 83 d7 2a 39
       0.0019465205 0.076649636 -0.0007923135 0.00016292748
0001b0 6b 16 d5 3e 2e 1f e3 3d 78 66 88 ba f2 2a 5a 3e
       0.41618666 0.110899314 -0.0010406515 0.21305445
0001c0 66 79 ad ba c5 d2 03 3c cb 85 d2 bd a7 b3 c6 3a
       -0.0013235032 0.008045857 -0.10279425 0.0015159742
0001d0 e1 f3 c2 be 56 09 8f 3b f5 a0 1e 3b 58 cc 34 3c
       -0.3807669 0.0043651266 0.0024204825 0.0110350475
0001e0 46 21 2a bb 04 02 5a 3c 61 2e 18 3c d2 ae ce ba
       -0.0025959774 0.013306145 0.009288401 -0.0015768653
0001f0 e2 d8 5d 3e 3f fb c0 3b 78 66 1c 3e 51 6a 46 bd
       0.21664765 0.005889326 0.15273464 -0.048441235
000200 64 c3 47 bb 4c 23 12 3f c4 74 ba 3a 9c a4 6c bb
       -0.0030481452 0.5708511 0.0014225473 -0.0036108857
000210 46 60 c7 be 55 b4 5f c0 13 60 81 3c ae d2 83 3a
       -0.38940638 -3.4953816 0.015792882 0.0010057294
000220 05 63 e4 b9 f2 43 62 3c 6b b2 3b 3e 4a d5 54 3e
       -0.00043561324 0.013810145 0.1832978 0.20784488
000230 73 6e 64 3c b8 e0 9a 3b 10 8a 28 ba 2e 07 c8 b9
       0.013942349 0.0047264956 -0.00064292643 -0.00038152322
000240 1d f8 79 bb 7d db 14 bb 07 e6 69 bb 8b a1 82 3e
       -0.0038142272 -0.0022713833 -0.0035690085 0.25513873
000250 f0 67 38 ba af d4 f0 3a 23 52 d2 3e 8b 11 19 3b
       -0.0007034531 0.0018373932 0.4107829 0.0023356404
000260 25 2e ed ba a6 b4 23 3b ee 9b d4 bb 71 39 55 3f
       -0.0018095417 0.00249795 -0.006488315 0.83290774
000270 5a 3a 0f 3c 41 60 51 bb a5 94 0a bf 4b 78 2f bf
       0.008741939 -0.003194824 -0.54133064 -0.6854293
000280 d1 a5 fb b8 d4 51 16 bb 09 fb 1d 3f d3 87 92 bb
       -0.000119994984 -0.0022936957 0.61711174 -0.004471758
000290 1d be cc bf 82 b0 b5 3e ba e3 d8 ba d1 64 30 bf
       -1.5995518 0.35486227 -0.001654736 -0.68903834
0002a0 53 e9 10 3c be 0b 2e bf 77 1f 20 bb 0b 26 4b bb
       0.008844691 -0.6798667 -0.0024432817 -0.0030998017
0002b0 82 63 88 ba 79 c0 aa 3a ca d3 40 bb ac 71 7c 3a
       -0.0010405632 0.0013027332 -0.002942311 0.00096299755
0002c0 27 0e 8a 3a c7 25 12 3f 1a 93 f1 3a 50 ae 52 bc
       0.0010532782 0.57088894 0.001843068 -0.012858942
0002d0 62 e6 74 3a 99 c7 01 3c 3a 66 30 3b 7b 9c 48 3b
       0.0009342191 0.007921123 0.00269164 0.0030610848
0002e0 55 5b 59 3e 7d 47 83 3c 61 d9 13 3c 15 b2 04 bc
       0.21226247 0.0160253 0.009023995 -0.008099099
0002f0 7d 06 02 3f 92 de 10 bb f6 60 dd bf e8 1f 78 3b
       0.5079115 -0.0022105318 -1.7295215 0.0037860814
000300 37 17 87 3e 71 9b 24 bc 1f 32 ce bb 9b cc cd bd
       0.263849 -0.010046826 -0.006292596 -0.10048791
000310 9a ab 59 bb a5 49 8e 3b 7b 59 62 bb bd af 34 bf
       -0.0033213855 0.004342275 -0.0034538198 -0.70580655
000320 23 7b 3d 3e 1c c7 2f bf cb 1c c6 3a c8 3e 5c 3e
       0.18504004 -0.6866319 0.0015114782 0.21508324
000330 e5 b7 4b bb bf 4f 83 3b 7d 15 41 3b e4 a2 9f bb
       -0.0031084951 0.004007309 0.002946227 -0.004871713
000340 5d 93 f4 ba 4e fe eb ba c0 8d 76 3c 22 8e 71 bc
       -0.001865964 -0.0018004866 0.015048444 -0.01474336
000350 3f 58 82 3a ce 75 4d 3b ab e5 f8 ba 06 fe 30 bb
       0.0009944512 0.0031350735 -0.0018989345 -0.0027006879
000360 a4 d6 41 3f 77 28 44 bd 35 45 a6 ba 4d 20 71 bb
       0.7571814 -0.047890153 -0.001268542 -0.0036792934
000370 29 7c bb 3b b2 ea 31 ba 46 22 cc bb a0 03 9a bb
       0.005721588 -0.00067869865 -0.0062296716 -0.004700139
000380 d6 2a b2 bb ee 92 22 bf 76 20 06 bd e6 a7 f8 be
       -0.0054372353 -0.63505447 -0.0327458 -0.48565596
000390 e3 22 b2 ba c4 1d 92 3a 84 89 90 3e ba 5d 7d 3e
       -0.0013590719 0.0011147787 0.28229916 0.24742785
0003a0 de 0d 7d 3c 42 12 0b 3e 66 bc bd 3e 1a 55 20 bd
       0.015445201 0.13581184 0.370578 -0.03914366
0003b0 da 7c 50 b9 22 07 3d 3e dc 84 4b bc c9 82 b0 bf
       -0.00019882937 0.18459752 -0.012421813 -1.3789912
0003c0 5b 63 65 ba 0d fa a0 3d f5 5d 7e ba 42 31 e4 39
       -0.0008750462 0.078601934 -0.0009703332 0.0004352425
0003d0 13 1d 03 be 6b 44 66 ba 84 29 b5 b9 da 43 9c 3a
       -0.1280406 -0.0008783999 -0.00034553942 0.0011922077
0003e0 13 e0 59 3e 8e 14 32 3c 5a 14 3e bf 01 2e da bb
       0.21276884 0.010869158 -0.74249804 -0.006658316
0003f0 e6 b6 d1 be 15 33 1b 3b 52 e9 57 3e de fa 25 ba
       -0.40959853 0.002368157 0.21085098 -0.00063316326

model.2.bias f4 [256]
000000 ab 8e b7 bd 7d 1a 5b bb bf f3 dd 3b ff f4 09 bb
       -0.08962759 -0.0033432536 0.0067734416 -0.002105057
000010 85 24 06 bd 65 f4 6a 3d 85 c3 4e bd 7d 99 b6 3d
       -0.03274967 0.05736198 -0.05047943 0.08915994
000020 cf 89 b5 bc 32 f8 81 bd 83 bf 1c bb a9 55 7f be
       -0.022160439 -0.063461676 -0.002391786 -0.2493502
000030 8d e2 07 bb a3 58 cf 3b be cf cd ba fe b7 b0 bb
       -0.00207344 0.006327705 -0.0015702171 -0.0053930273
000040 38 a7 38 ba d3 a3 1c bb ee f2 81 be 8b 3a c0 be
       -0.00070439605 -0.0023901358 -0.25380653 -0.37544665
000050 5e e0 8d bb e7 eb 87 be 38 2a 2f bb bc f0 99 bc
       -0.004329725 -0.26547167 -0.0026728045 -0.018791549
000060 fe cd 07 be 69 41 8e bd 56 a7 cc bc ba 8b a2 bb
       -0.13262174 -0.0694607 -0.024982136 -0.0049605044
000070 e6 77 06 be b6 52 6e be 50 8a ea bd dd b3 ca 3c
       -0.13131675 -0.23273739 -0.11452162 0.024743969
000080 ba 90 0c bb 0f 76 20 bb 39 1c df 3b 2c ab 87 be
       -0.0021448568 -0.002448443 0.0068087843 -0.2649778
000090 24 55 25 bb 9f d0 a2 bb 4b e7 96 bb 34 9c 37 3e
       -0.002522775 -0.004968717 -0.004605209 0.1793068
0000a0 0d 74 9a 3d 7e 9f 36 bc 01 f5 9c be 4d 80 b9 3d
       0.07541666 -0.011146424 -0.30655673 0.090576746
0000b0 e6 95 01 bb 85 7a 89 bc 0d a4 36 bb eb 7e 06 bc
       -0.0019773184 -0.016782055 -0.0027868778 -0.008208971
0000c0 b0 29 94 3d 83 00 2a bc ee 39 c8 bd 0f 39 d2 3d
       0.07234514 -0.010376099 -0.09776674 0.10264789
0000d0 13 e7 13 be ae 37 b9 be 31 45 37 be 9e de 7e bb
       -0.14443617 -0.36175293 -0.17897488 -0.0038890014
0000e0 9d 1a 84 be 1b cc 3f bb 31 c4 e0 3d 14 93 18 bd
       -0.25801554 -0.0029265943 0.109749205 -0.03724964
0000f0 3c 12 0f bb fd 29 3f be c5 c5 7a bd 96 a5 ef bc
       -0.0021830937 -0.18668361 -0.061223764 -0.029253762
000100 40 7d 69 bb 84 fa 8a 3d b1 e6 e2 3d 8d 26 a7 be
       -0.0035627633 0.06786063 0.11079157 -0.326466
000110 79 fb c1 3c ea 36 02 be 73 71 8b be 5d 87 22 ba
       0.023679482 -0.1271626 -0.27234992 -0.000619998
000120 15 e0 b1 3d 6e ce 14 be 72 4a 97 3d 4a 95 0e bb
       0.086853184 -0.14531872 0.07387246 -0.0021756464
000130 19 fc 10 be 73 51 b1 3b ed f9 2e bb 7b 66 ea 3d
       -0.14158668 0.005411321 -0.002669926 0.11445328
000140 48 6c 8f be 41 25 e2 bc 4d 98 0a be 9b 2f 0c bb
       -0.280123 -0.027605655 -0.1353466 -0.002139068
000150 ce 6c bf ba 45 e3 98 bd e8 06 16 bb b8 b6 54 bd
       -0.001460457 -0.07465223 -0.00228923 -0.051932067
000160 24 7b 87 bd 6e ae a3 ba d9 7e 1a 3d e0 69 d0 bb
       -0.06615284 -0.0012487897 0.037718628 -0.0063602775
000170 fd 7c 45 3d bd 7e 0d bd fc b6 a4 bb 92 6a c1 bd
       0.0482149 -0.034544695 -0.0050266962 -0.09444155
000180 c8 33 9e ba e1 81 78 be 7c b5 ff ba 07 8b f3 bd
       -0.0012069875 -0.24268295 -0.0019509043 -0.11891752
000190 3d 5a 73 be 39 0d 04 ba ee f1 a1 3d c1 1c 6b bb
       -0.23764892 -0.0005037371 0.079074726 -0.0035875293
0001a0 4f 54 c7 ba 3c d8 9d bc 78 0e 8d 3d 30 66 c4 3d
       -0.0015207621 -0.019268148 0.06887525 0.09589803
0001b0 de 14 8a be f7 20 8e bd a3 27 f3 3d 18 1d 88 bd
       -0.26969045 -0.06939881 0.118727945 -0.06646174
0001c0 3d e6 4e 3d db 1b 08 bc 8a 2a 98 bc 4d de 77 bc
       0.05051254 -0.0083074225 -0.018574972 -0.015128684
0001d0 d3 cc af be f4 a9 31 bc 7d a0 d8 bd 0f cb 5e bb
       -0.34335956 -0.010843743 -0.10577486 -0.0033995544
0001e0 f0 1e 27 be a8 aa 4b bb 28 6f 4f 3c 34 54 68 bb
       -0.16320395 -0.003107706 0.012660779 -0.003545058
0001f0 4c ed ea ba 04 4f a7 be de 61 d8 3d 78 71 94 be
       -0.0017923503 -0.32677472 0.10565542 -0.2899282
000200 64 29 24 bd 5f 67 b0 bb 4b 5f f3 bd a3 05 33 be
       -0.040078536 -0.0053834165 -0.1188341 -0.17482619
000210 f7 a7 05 be 45 cd e3 bd 3c 28 ea bd 5c 00 06 ba
       -0.13052355 -0.111231364 -0.11433455 -0.0005111748
000220 8c 44 a4 be d0 b8 85 3d f6 0a 0b be 42 c5 84 bb
       -0.32083547 0.06529391 -0.135784 -0.0040518353
000230 3d 53 01 3e 5f 0c 21 be 19 99 aa bb 93 3e 27 bb
       0.12629409 -0.15727375 -0.005206239 -0.0025519475
000240 46 c1 93 bd c9 0d 10 bb d0 16 13 3d 0d da 32 3e
       -0.07214598 -0.0021980873 0.035910428 0.17465992
000250 38 f4 c6 bd da 1a 1f bb 68 46 9e bd ec 5c 13 bb
       -0.0971455 -0.002427748 -0.07728273 -0.0022485806
000260 98 3f 91 bd 8b 23 12 bb b2 b9 54 3e b1 94 04 bb
       -0.07092208 -0.0022299017 0.20773962 -0.0020230229
000270 fa 94 0d 3e 47 76 bc bb 16 1a 5d be bc 55 89 bb
       0.13826361 -0.0057514044 -0.21591982 -0.0041911285
000280 3a 0e 40 bb 76 be c4 3c 25 3d 02 3d c8 dd a7 bb
       -0.0029305355 0.0240166 0.031796593 -0.005122874
000290 b5 74 fe bd 8c 43 27 bb 39 74 c7 ba 00 3f af 3d
       -0.12424604 -0.0025522439 -0.0015217132 0.08556938
0002a0 41 dc d2 bc c2 b0 c6 3b e9 e2 bc bc a7 c9 4e bd
       -0.02573979 0.0060635516 -0.023057418 -0.05048528
0002b0 2e 46 73 bd b8 2b 5f be b7 0b 1f bc 30 9e 4d 3e
       -0.0593931 -0.21794021 -0.009707383 0.20079875
0002c0 46 80 93 be 83 a0 fa bc 4c 4d 1a bd d0 64 e3 bd
       -0.28808802 -0.030594116 -0.037671372 -0.11103213
0002d0 5c da ca 3d 84 0b f9 bd dc 39 2f bb d6 88 fa bd
       0.0990493 -0.121603996 -0.0026737368 -0.12233131
0002e0 2a 7f 9a bb da da 77 3c ef 6b b6 ba ce c4 8f 3d
       -0.004714866 0.015127862 -0.0013917665 0.070199594
0002f0 e9 76 8a ba 09 b2 e7 3d 60 78 1a 3d ec 55 41 3e
       -0.0010564002 0.113132544 0.037712455 0.18880433
000300 d5 00 38 bc d9 e5 e0 ba 7f 76 10 be 71 66 8a bd
       -0.011230667 -0.0017158344 -0.14107703 -0.067578204
000310 5f da ea 3d 84 e7 c3 3d ae e0 86 3d a7 0a 60 bb
       0.11467432 0.095656425 0.06585823 -0.0034186037
000320 9b ae b1 3d 6b 9e 12 bb 48 ca fa ba ab 4f e1 3d
       0.086758815 -0.0022372256 -0.0019133771 0.110015236
000330 13 e6 67 bc 32 f8 d7 3d f5 4f 62 be 6e cb d3 3c
       -0.014153975 0.105453864 -0.22100814 0.025853839
000340 6c 80 56 be ec ad 6c be 28 ab 8c bb 4c 4b 86 bb
       -0.20947427 -0.23113221 -0.0042928644 -0.0040983316
000350 ed 84 de 3d a4 c0 55 be 07 41 d3 bc 3e 38 78 be
       0.10865197 -0.20874268 -0.025787843 -0.24240205
000360 51 ed 14 bc 52 5e c2 ba d8 8d 55 bb c9 db 0b 3c
       -0.009089784 -0.0014829135 -0.0032585766 0.008536288
000370 17 e2 8d bc 82 4c e1 ba 1d b3 64 be 47 ee b8 ba
       -0.017319722 -0.0017188939 -0.22333951 -0.0014109098
000380 49 fb 91 3d 0f f6 ac bd 3b 4b 91 bd 8f 99 05 bc
       0.07128007 -0.084453695 -0.07094427 -0.008154287
000390 7b c7 90 3d 60 7a b7 bb 0f 1c 5d be af 4b 99 bc
       0.07069298 -0.005599305 -0.21592735 -0.018712847
0003a0 3c b0 25 bb 63 a3 a0 3d cb 18 fc ba 8a dd 9a be
       -0.0025282046 0.078436635 -0.0019233463 -0.30247146
0003b0 f3 4a 2d be 1c 41 50 bd 26 3c 59 bc 3c 11 4b bc
       -0.16923122 -0.050843343 -0.013258969 -0.012394246
0003c0 bc ea 0a be 11 07 1a be e8 6d 84 3d dd cf cf bc
       -0.13566107 -0.15041758 0.064662755 -0.025367672
0003d0 d2 25 64 3d f5 63 e2 ba 4c ff 19 be 21 81 a1 be
       0.05570013 -0.0017272221 -0.15038794 -0.3154383
0003e0 82 b3 0a 3e 7b 83 98 bb 3b dd 44 3e 28 d4 cb ba
       0.1354504 -0.0046543456 0.19225018 -0.0015550898
0003f0 9f 33 eb 3d 46 62 ae bc f7 96 09 bb 79 30 bf 3c
       0.11484455 -0.021287095 -0.0020994523 0.023338543

model.4.weight f4 [256, 256]
000000 cb 9c dc be 68 07 01 3b dd e3 08 3b b1 cc a4 3d
       -0.43088374 0.0019688252 0.002088777 0.08046854
000010 ab f0 01 bd 6d 32 c6 bd 19 f3 ff bc a9 0f 29 be
       -0.03172366 -0.09677587 -0.031243848 -0.1650988
000020 b8 33 ef bb cd c2 22 bf b0 e3 ad bb 56 1b 01 be
       -0.0072998665 -0.6357849 -0.0053066835 -0.12608084
000030 ff 0c db bb 0c a6 c1 3e c8 80 9b bb c4 7f 9b bd
       -0.006684899 0.37821996 -0.0047455765 -0.07592729
000040 a0 d1 6a b8 f4 cb b8 3b 28 69 06 bc fb 7b 95 3e
       -5.5985176e-05 0.0056395475 -0.008203782 0.29196152
000050 cf 36 5e 3e fc 8d cc bf 8c df dc ba b6 cf a8 3b
       0.21700595 -1.598083 -0.001685129 0.005151714
000060 60 af c7 3e 3c cc 08 be f9 54 1a bf 90 6a 7e 3b
       0.39000988 -0.13359159 -0.6028591 0.003882084
000070 d7 f7 f5 3c 23 3b 85 3d f5 4b 41 3e 56 3f 75 bc
       0.030025406 0.0650542 0.18876632 -0.014968714
000080 c3 88 e2 b9 d6 b4 12 3b 8f 63 17 3d ba 0f 11 3e
       -0.00043207975 0.0022385619 0.03696018 0.14166155
000090 cd ef 10 3a f5 90 27 3b cb 51 1e bb ca 6e 25 3e
       0.0005528897 0.002556858 -0.002415764 0.16155544
0000a0 53 55 b9 3d 14 d0 19 bc 23 3c a6 3d 15 59 47 bc
       0.090494774 -0.009387989 0.08116939 -0.012167235
0000b0 5c ae 80 3a 3d b5 43 3c 6f 8f 91 3b 37 bd 43 3b
       0.0009817588 0.011945066 0.0044421474 0.002986742
0000c0 4a 2e 93 bd 8b da 87 3d b2 18 2f 3d 51 34 af 3d
       -0.07186563 0.06633481 0.04274816 0.085549004
0000d0 fc 29 0c be b5 4e 80 3d c7 6a 51 3d 28 9b 30 3b
       -0.13687891 0.06265012 0.05112722 0.002694795
0000e0 b5 1c bd 3d 6b 5c d9 bb 07 08 e6 3d 66 3d be 3c
       0.09233991 -0.0066333315 0.11232 0.023222636
0000f0 5e 1a 1a 3b d1 86 0d 3e d7 3b 85 3e 7e df 4c 3e
       0.0023514251 0.1382096 0.26022217 0.2000713
000100 77 85 0c 3c ba 96 e1 3c b3 bc df 3d b5 44 97 3c
       0.008576742 0.027537692 0.109246634 0.01846538
000110 2a da 22 3d 2f 65 af 3e 18 07 da 3d 81 85 56 3b
       0.03975884 0.34256884 0.10645884 0.0032733383
000120 fa 5c 61 bc 6f 47 fc 3d d7 dc 1d 3e 71 4a 04 3b
       -0.0137550775 0.123183124 0.15416275 0.0020185972
000130 e8 20 e5 3d 65 9c a9 bf 13 8c 00 bb f3 08 4c 3d
       0.11187917 -1.3250853 -0.001961474 0.049813222
000140 25 f7 d6 3e e5 cc 63 be a9 8c 0f 3e e8 20 b1 bb
       0.4198543 -0.2224613 0.14018501 -0.005405534
000150 7a 22 90 ba a7 17 a9 bf 7d d1 c4 bb ca ab 4a bd
       -0.0010996603 -1.3210343 -0.0060064183 -0.049480237
000160 c2 14 b6 3c 17 7c d9 3b 30 12 f7 be 69 17 1a be
       0.022226695 0.006637107 -0.48256063 -0.15047993
000170 7f 6c 43 3e d9 7d 49 3c aa c4 17 bc 77 96 9a bd
       0.19084357 0.012298071 -0.009263197 -0.0754823
000180 c4 3d 55 bb da d5 1e bf 49 6f cb ba bc 86 c9 3d
       -0.0032538036 -0.6204506 -0.0015520836 0.09840152
000190 ee 92 0e be 74 50 17 bb e6 73 54 3e c9 37 87 3b
       -0.13923237 -0.0023088725 0.20747337 0.004126523
0001a0 86 c2 84 3b 9b 39 a2 3d 66 a2 87 bd 90 e0 df bd
       0.0040515093 0.079211436 -0.06622772 -0.10931504
0001b0 97 0e 07 3d 9f b2 4a ba 82 7e 09 be f0 16 b0 3c
       0.0329729 -0.0007732305 -0.13427165 0.021495312
0001c0 36 f9 cc 3e ce 77 ea 3c 2a 92 11 3d ea d1 5f 3b
       0.40033883 0.02862158 0.035539784 0.0034152218
0001d0 c5 ed fa 3e 98 67 65 3b 1b 3c e7 3e bd 02 67 3a
       0.4900953 0.0035004374 0.45163044 0.0008812359
0001e0 f3 2c 03 bc c8 9d cb 3b 01 ed b7 bc 4f a4 22 3a
       -0.008006322 0.0062138774 -0.02245188 0.00062042935
0001f0 fe 29 95 3b 10 4e ad bb 69 fe 1a be b2 ad e3 bf
       0.004552125 -0.005288847 -0.15136112 -1.7787383
000200 fa ee e7 bd 95 51 b1 3b 1c d0 7d 3e 31 ed d1 c0
       -0.11324878 0.0054113367 0.24786419 -6.560204
000210 91 90 56 be 98 f8 3e 3e ca 4c 8e be e3 05 9f 39
       -0.20953585 0.18649518 -0.2779296 0.0003033123
000220 6d 6b 84 3e 1b 14 53 bd 79 f1 67 3d 5c 0b 6b ba
       0.2586321 -0.051532846 0.05662677 -0.0008966231
000230 de 5e 16 3e 1d 52 8d 3d 4d 85 54 bb ba 1b 48 ba
       0.14684626 0.069004275 -0.0032428086 -0.0007633526
000240 99 99 c4 3e df 18 70 bb a1 79 01 bf 77 c2 24 3e
       0.38398436 -0.0036635918 -0.50576216 0.16089807
000250 b7 5b 6c 3f a7 67 de b9 0d 93 0b bd 0d 6d 8d bb
       0.92327446 -0.00042420367 -0.034075785 -0.0043159784
000260 02 bf e9 3d 10 e9 8e ba 08 99 90 3d c2 ab 5e bb
       0.11413385 -0.0010903198 0.070604384 -0.0033976887
000270 7c 13 26 3c 20 72 ea ba d3 e4 ce be 56 85 98 bb
       0.010136481 -0.0017886795 -0.40408954 -0.0046545668
000280 05 1c 8c bb 4f e7 2c 3c 0f 2b 13 3e d3 c3 2d bb
       -0.004275801 0.010553195 0.14371894 -0.0026514425
000290 30 40 65 3e 16 2f 7d 3b 76 ae 60 3b af a2 89 3d
       0.22387767 0.0038632802 0.0034283674 0.067204826
0002a0 4d 30 e0 3d e4 bb a3 bd 07 25 dd 3a 2d 85 52 3d
       0.10946713 -0.07994822 0.0016871997 0.051396538
0002b0 41 74 95 bd 10 b0 48 bd 60 b1 b9 3b f1 61 84 bc
       -0.07297564 -0.04899603 0.0056668967 -0.016159983
0002c0 7a 3e 2c 3d 20 91 a3 3e 2b aa 74 3d a8 72 88 3e
       0.04205177 0.3194666 0.059732597 0.26649976
0002d0 41 07 08 3d ed b7 0e bf 33 7d 3a 3a 2b 03 27 3e
       0.033210043 -0.557494 0.0007113993 0.16309802
0002e0 08 cf c0 ba e7 2d 41 bb d4 aa f0 ba 08 a4 84 3c
       -0.0014710138 -0.0029476823 -0.0018361458 0.016191497
0002f0 5a 2c 38 3b e4 e4 b1 3e 72 9e 57 3e a7 15 06 3e
       0.0028102607 0.34744942 0.21056536 0.13094197
000300 65 3a 07 bd 2e 35 f6 39 62 7b 2e 3e 6e b9 07 3e
       -0.033014674 0.00046960398 0.17039254 0.1325433
000310 aa 34 e3 3d 33 41 69 3d 43 c6 f7 3c 47 54 0a 3b
       0.11094029 0.056946944 0.030245906 0.0021107362
000320 d2 0d 2f be 77 b3 63 bb 91 81 cc 3a 5f 54 34 3e
       -0.17095116 -0.003474442 0.0015602579 0.1761031
000330 ef 48 2b 3f e5 38 1c be 87 ab 47 c0 b5 d7 85 bd
       0.6690816 -0.15256079 -3.1198442 -0.065352835
000340 9e 9c 0c 3d dd 79 6f 3c 9d 98 f1 ba fe 39 e8 ba
       0.03432905 0.014616457 -0.0018432323 -0.0017717478
000350 57 bf bf bd 6c d2 b8 bd fe 96 1c bc 89 a8 91 3c
       -0.09362667 -0.0902451 -0.009557484 0.01778056
000360 a3 c5 63 bc 5c 3d 05 bb 71 03 8a ba 11 ba 10 3c
       -0.013902101 -0.0020330762 -0.001052959 0.008833424
000370 42 51 a7 bc 84 d3 a7 3b 1d 1f 32 be 2a 38 51 bb
       -0.020424489 0.00512165 -0.17394681 -0.0031924346
000380 e4 65 e3 3e 9e 6f c1 3d 8d 58 84 3e 70 fa 9e 3b
       0.44413674 0.094451174 0.2584881 0.004851632
000390 27 36 b0 bc 8f a5 01 3c 79 c2 3b be c0 46 06 bd
       -0.021510197 0.007913007 -0.18335904 -0.032782316
0003a0 74 21 82 3b ac b4 36 3e c8 b2 b2 bb f2 87 71 3e
       0.003971273 0.17842358 -0.0054534413 0.23587015
0003b0 87 59 46 3d c8 dc 5c be fa 13 8a bb c8 fc b1 3c
       0.048425224 -0.21568596 -0.004213807 0.02172698
0003c0 4a 60 91 3c 65 ae 3b 3d bb f4 17 3d 69 a3 b9 3d
       0.01774611 0.045820612 0.037098628 0.09064371
0003d0 58 b6 28 3e cb 52 d5 bb 88 79 a1 3b 84 f2 d3 3b
       0.16475809 -0.006510114 0.0049278177 0.006468119
0003e0 ce 97 92 be 39 2f fb 3b 90 ec 64 bc 41 ab 8d 3b
       -0.28631443 0.0076655415 -0.0139724165 0.0043233936
0003f0 ad 37 12 bd 56 f2 84 bb 80 83 1e bc 18 16 73 3e
       -0.035697628 -0.004057209 -0.009674907 0.23738897

model.4.bias f4 [256]
000000 ff 75 bf 3d a3 95 5e 3e 0a 68 0a bb af e4 02 3d
       0.09348678 0.2173677 -0.002111914 0.03195637
000010 ef 4d 1f 3e 4f 62 c6 3d 93 fb ba 3d 0b 2f 99 3c
       0.15557073 0.096867196 0.09130015 0.01869919
000020 fe 36 81 bd e5 7d 96 bc 29 d9 d2 ba c9 09 92 bc
       -0.06309317 -0.018370578 -0.0016086447 -0.017826932
000030 d9 f1 cc 3d f3 40 1d bb b4 ce 9b bc 5b d3 5f bb
       0.10007066 -0.0023995012 -0.019019462 -0.0034153077
000040 c7 93 95 3d 04 1d 7c bb 95 af c5 bb 5e 2e c1 bd
       0.07303577 -0.0038469443 -0.006032894 -0.09432672
000050 fb 18 c1 3d c5 69 4c bd 2e 70 cb 3c ae 9b 29 be
       0.09428593 -0.049905557 0.024833765 -0.16563293
000060 50 c9 01 bb 0b a0 2a 3e ea 9a ed bc 00 95 6f 3e
       -0.001980383 0.16662614 -0.029004533 0.23396683
000070 f5 a6 98 3d 8e dc 65 bb f2 e2 f1 be 24 13 50 3d
       0.074537195 -0.0035074088 -0.47243458 0.050799504
000080 e1 92 0e 3d ac ce f3 bd a3 45 2a bb a3 c4 63 bb
       0.034808043 -0.11904654 -0.0025981448 -0.0034754656
000090 0c b0 b8 3b 45 fd cc 3d 16 e2 ca 3c 22 55 26 3e
       0.005636221 0.10009245 0.02476601 0.16243413
0000a0 a3 bb ff 3d f0 ef 29 3d 31 2e d5 3c 36 e2 c9 3d
       0.12486961 0.041488588 0.026023002 0.098575994
0000b0 32 1f 9b bd 48 ab 9b 3d 4d 64 60 bb 18 25 ad ba
       -0.075743094 0.07601029 -0.0034239471 -0.0013209907
0000c0 b5 76 6a bc c4 09 8b 3d 83 17 bd bd 12 ed d5 3c
       -0.0143105285 0.06788972 -0.09233 0.02611402
0000d0 24 17 03 3e 01 cb 52 bb 1a a1 89 ba ba 54 c0 bb
       0.12801796 -0.0032164457 -0.0010500283 -0.005869475
0000e0 0b b3 68 bc bd d8 2b bd 8e dc 0b 3d ac 80 e1 bb
       -0.014202843 -0.041954745 0.034145884 -0.006881794
0000f0 b8 f1 85 bb 89 3f 32 bd 2b 72 11 bb 0d b9 ac 3c
       -0.004087653 -0.043517623 -0.0022193294 0.021084333
000100 28 e2 38 bb 4b 10 01 bb 42 0e b3 3d 7c 36 32 3c
       -0.0028210972 -0.001969355 0.08742954 0.010877248
000110 e2 69 87 bc f5 b1 32 bd 21 55 02 be 8b 72 b5 bc
       -0.016529981 -0.043626744 -0.12727787 -0.022149345
000120 a7 a2 ac bd f8 40 d8 ba 9d 5e 69 bb 72 bf 13 3e
       -0.08429461 -0.0016498854 -0.0035609372 0.144285
000130 02 43 f2 bd 70 51 46 bb e6 b1 26 3d 0d 49 23 bb
       -0.11829187 -0.0030260943 0.040697 -0.0024915368
000140 ff 5d ea 3d 19 64 fd bd 61 9b 99 3d 60 ee a8 bb
       0.114437096 -0.12372608 0.07500339 -0.0051553696
000150 f1 a6 07 3d 74 36 d9 bd d4 b2 44 bd 36 e6 17 be
       0.033118192 -0.10606089 -0.048022106 -0.14833912
000160 ef ac 1f bb bf 9a 02 bb 71 19 96 bc 2b cb 4f 3e
       -0.002436455 -0.0019928662 -0.018322678 0.20292346
000170 06 0e aa 3c 60 60 a5 bc ee ec 8d 3d 3f 5a fe ba
       0.02075864 -0.020187557 0.069299564 -0.0019405558
000180 c4 16 ff 3d 85 4f 34 bd 90 c2 61 3d 6f ec 4b 3e
       0.12455514 -0.04402115 0.05511719 0.19914411
000190 b8 16 f1 bb 52 51 25 bd c9 f7 90 bc 10 58 35 bb
       -0.0073574446 -0.040360756 -0.017696278 -0.0027670898
0001a0 3c d9 88 bb 0f ce 6e 3e a4 1b d0 bb ce 88 89 ba
       -0.004176287 0.23320793 -0.0063509513 -0.0010493041
0001b0 53 6b 25 bb 81 4b 86 3d 8f 2e 8a bd 01 25 61 3d
       -0.0025240972 0.0655737 -0.067471616 0.05496693
0001c0 21 a0 ac ba c3 c2 ff 3d c8 ee 3a 3b db 4c 78 bb
       -0.0013170281 0.1248832 0.0028523672 -0.0037887606
0001d0 3d db 7b bb 70 81 73 3d b3 ce e4 3c 7a b2 66 bc
       -0.0038430237 0.059449613 0.027930593 -0.014080638
0001e0 f9 5a 1a 3e 18 50 49 bd 68 04 cb 3d 8f 0b 81 bd
       0.15073766 -0.04914865 0.0991295 -0.06301033
0001f0 35 1d c1 3c 78 4e c1 3d 5d 83 a8 3c f4 69 51 bd
       0.023573497 0.09438795 0.020570451 -0.051126435
000200 bf 0a 4f bc 8e 86 6a bb 4d b8 b8 3d 08 e8 3d 3d
       -0.012636839 -0.0035785767 0.090195276 0.04636386
000210 b7 43 f4 bd 88 55 9d 3d 26 e4 b9 3d 40 1a d6 bd
       -0.11926978 0.076823294 0.09076719 -0.104542255
000220 b1 32 c1 bb 13 22 a0 3d cc ee b6 bc f0 dd 34 bb
       -0.0058959355 0.07818999 -0.022330664 -0.0027598105
000230 54 5c 4f 3e a0 f7 07 bc f7 52 49 bc 82 a2 c5 3d
       0.20250064 -0.0082987845 -0.012287847 0.096501365
000240 00 3e 21 bb d5 4c 9d bb 9d 9c 32 3e ab 8d bf ba
       -0.0024603605 -0.004800419 0.17442556 -0.0014614364
000250 3c 8c 27 bb 7e 5a 63 bb 5c 31 c5 bb e9 fd 6b bb
       -0.0025565764 -0.0034691389 -0.006017847 -0.0036009497
000260 16 90 13 3d c5 71 39 3d 80 16 a1 3d 7d ce 7a bc
       0.036026083 0.045274515 0.0786562 -0.01530802
000270 21 ed 3e bc 9d 44 5e 3e 84 ac 20 bb 82 6a 0b 3e
       -0.011653216 0.21705861 -0.002451689 0.13614848
000280 47 e6 28 3e b8 bb cd bc 11 94 13 3e d8 c8 25 bb
       0.16494094 -0.025113925 0.14411952 -0.0025296714
000290 a0 e6 02 be 49 d3 99 bd 06 97 00 3e a1 60 4e bb
       -0.12783289 -0.075110026 0.12557611 -0.00314907
0002a0 fa da c4 3d a9 8f 82 3b 23 33 52 3e 97 ac 0d 3e
       0.09612079 0.003984411 0.2052732 0.13835369
0002b0 65 fd 5d 3e ff 34 30 be 2b e8 98 ba 4b 6a 06 bb
       0.21678694 -0.17207716 -0.0011665871 -0.0020510133
0002c0 a8 3b be bc b5 4a 19 bd 13 b8 51 3e 1e b7 09 bb
       -0.023221806 -0.03742476 0.20480375 -0.0021013687
0002d0 b6 57 7b bb af d7 eb bd 81 0d 71 3d a5 28 0c 3d
       -0.003835184 -0.11515748 0.05885077 0.03421845
0002e0 ee d7 a2 3c 03 af d4 bd a1 12 92 3d 5e 64 06 bd
       0.019878354 -0.10384943 0.071324594 -0.03281056
0002f0 cc e2 eb bb 22 11 f1 ba cd f9 1a bb d7 75 40 bb
       -0.007198667 -0.0018391947 -0.0023647428 -0.0029367113
000300 e2 50 5d 3d 0a 2b 14 bd ce 48 bf 3c 42 34 ec bc
       0.054032214 -0.036173858 0.023350146 -0.028833512
000310 0e 33 25 be 45 6b b8 bb 10 6a a4 bd dd e5 cf 3c
       -0.16132757 -0.005628022 -0.08028042 0.025378162
000320 c0 d4 6f 3d 6a 2b 94 3c b4 fa 60 bb 08 3f 0b 3d
       0.058552504 0.018087108 -0.0034329118 0.03399566
000330 71 8c b9 bb a1 80 ea bd 04 bf 80 bb 8d 3b d8 bb
       -0.005662494 -0.11450315 -0.003929021 -0.006598896
000340 20 d1 c5 3d 68 59 fc ba 71 80 72 bb 77 84 08 bb
       0.09659028 -0.0019252719 -0.0037002827 -0.0020830908
000350 2b e4 48 bd d1 25 56 bd f8 e8 48 3c d7 36 00 bb
       -0.049045723 -0.05228216 0.012262575 -0.0019563937
000360 0c 7f 6b bb b9 c8 01 3e 20 15 ac bd cc 23 1d bd
       -0.003593388 0.12674226 -0.08402467 -0.038364217
000370 ea e3 1f 3e 4f 89 ec 3d 08 32 98 3c b8 78 16 be
       0.15614286 0.11549627 0.018578544 -0.14694488
000380 f9 ac 20 bd ab 43 ea 3c 0e 1e 82 bb 23 00 27 bd
       -0.03922746 0.02859672 -0.003970868 -0.040771615
000390 5b 7d a5 3d 7f 87 24 bb b1 8c 85 bd 39 0b 6a bd
       0.0808055 -0.0025105176 -0.065209754 -0.05713961
0003a0 0e 56 97 bc 22 37 1a bc 12 9a 8c bb 26 ef 86 bb
       -0.018473651 -0.009412559 -0.0042908275 -0.004117864
0003b0 85 71 2a bc f4 d8 47 3e d5 e4 1f bb 8b 48 10 bd
       -0.010403042 0.19516355 -0.002439787 -0.035225432
0003c0 9a d8 00 3e 9e 8f fb ba e3 ea da bb d1 f8 0c 3d
       0.12582627 -0.0019192582 -0.0066808327 0.034416977
0003d0 cf d8 35 3d c9 5e 79 bc 08 04 cb 3d f2 d1 46 bc
       0.044396218 -0.015220352 0.09912878 -0.012135016
0003e0 3b d0 22 bd 74 92 de 3d 59 d5 1b bd fe ed 0b bb
       -0.039749365 0.108677775 -0.03804526 -0.0021351571
0003f0 78 50 e0 3d 7b af aa bd 55 7a 48 3e d2 59 96 3c
       0.10952848 -0.083342515 0.19577916 0.018353377

model.6.weight f4 [1, 256]
000000 e1 68 ce 3e 44 7c 47 3e 1c ce c8 3a a9 37 89 bf
       0.4031439 0.19480997 0.0015320214 -1.0720111
000010 8a 06 e0 3d f6 7e 7d 3e a2 88 c7 3e 69 e7 0a bf
       0.10938747 0.24755463 0.3897143 -0.54259354
000020 f2 cd 33 c0 76 8e 28 3b b5 5e 54 3b 4d f3 66 3c
       -2.809445 0.002571968 0.0032405083 0.014096093
000030 3e 45 83 3e d9 80 04 ba f0 ad e4 be b6 bc 55 ba
       0.25638765 -0.00050546 -0.44663954 -0.00081534253
000040 ca 23 15 bf c3 68 28 3b 0c a6 d9 39 34 76 8e bf
       -0.58257735 0.0025697208 0.0004151318 -1.1129823
000050 26 22 40 bf ff 5c 04 c0 f2 25 69 c0 49 e7 1c bf
       -0.75052106 -2.068176 -3.642941 -0.61290413
000060 23 11 ae bb 2e 6c 05 3f 56 57 29 3c 15 60 aa 3e
       -0.0053121014 0.52118194 0.010335764 0.3327643
000070 fd ab 90 3e a1 2e 4e bf be d0 a9 bf 1c ee 0d c0
       0.28256217 -0.805399 -1.3266828 -2.217658
000080 ec b2 b6 bf 3e 0a 17 40 e8 4f d4 b8 c5 38 8e 3a
       -1.4273353 2.3600001 -0.000101238315 0.0010850659
000090 00 19 20 c0 b5 6c 0b 40 de a7 6f bf c5 c2 21 3f
       -2.5015259 2.17851 -0.9361552 0.6318782
0000a0 93 57 31 3f c5 6f cc bf 4d f3 64 bf b0 ed 3c 3f
       0.6927425 -1.5971609 -0.8943375 0.7380018
0000b0 53 9a 4c bf cb dd 8f 3e d7 ac 03 3b 06 8a 9f 3b
       -0.7992298 0.28098902 0.0020092034 0.0048687486
0000c0 0b b8 d6 bb e8 01 6b bf 51 83 77 c0 84 c0 17 be
       -0.0065527014 -0.91799784 -3.86739 -0.14819533
0000d0 f1 8f 2f 3f 7a d5 82 3b 96 a6 79 3b c6 75 a7 bb
       0.6857901 0.0039927335 0.0038093678 -0.0051104752
0000e0 3d 30 93 bf 3f 84 b2 3c 1e 6f 4f c0 f5 c6 e7 bf
       -1.1499096 0.021791575 -3.241157 -1.8107592
0000f0 ca 3c 36 3b 3a 9e b5 bf 0c 34 43 bf 45 16 66 c0
       0.002780723 -1.4188912 -0.7625129 -3.5951092
000100 d2 fd 4b 3c 0d 71 58 3a b9 2b 28 bf 7f ec 13 c1
       0.012450652 0.0008256592 -0.65691715 -9.245238
000110 e8 1a d6 bb 5f 52 32 bf 90 44 0c c0 e4 e2 2c bf
       -0.006533969 -0.6965694 -2.1916847 -0.6753371
000120 88 6e da bf fd 00 ee ba 7b 5a 09 3a f4 22 c8 3d
       -1.7064981 -0.0018158254 0.0005239618 0.09772292
000130 a6 8f f7 bf 94 c4 ab 3b 64 5d 68 40 46 4d 98 bb
       -1.9340713 0.00524194 3.6307 -0.0046478836
000140 09 3c 44 3e 2d 1b 32 c0 dc e6 c5 bf 4f 52 49 3b
       0.19163527 -2.7829087 -1.5461078 0.0030719226
000150 83 d9 db bf 12 85 79 bf 77 90 81 bf f8 1c 72 c0
       -1.7175754 -0.97468674 -1.0122212 -3.783018
000160 9f ed 48 3b 86 38 40 3b bf a6 61 c0 88 d3 35 3e
       0.0030659211 0.0029330566 -3.5258024 0.17756474
000170 9a 76 68 c0 fb 4f b3 b7 dc d5 05 be d0 31 fd 39
       -3.6322389 -2.1375707e-05 -0.13069862 0.00048293034
000180 8c f3 0d 3f b4 a5 d1 3b 80 71 09 bf 5e 75 2f 3e
       0.5544975 0.006397927 -0.5368881 0.17134616
000190 96 70 6c bf 78 7d 12 bf f3 9e 34 3c c4 4f dd 3a
       -0.9235929 -0.572227 0.011024225 0.0016884734
0001a0 85 03 23 3a b7 ec a2 3e 4e 09 c6 3a 07 be d7 3a
       0.0006218481 0.31821224 0.0015108974 0.0016459831
0001b0 56 fa 8c 3a 6e f9 fe c0 a1 be 7b bb 95 76 55 bf
       0.0010755758 -7.967948 -0.0038413184 -0.83384067
0001c0 01 18 03 bc 87 83 0e 3f cc eb de c0 90 98 40 3c
       -0.008001328 0.55669445 -6.966284 0.011755124
0001d0 ea b0 b9 39 ad ac 2a c0 39 00 ed c0 ce 90 81 bf
       0.0003541776 -2.6667893 -7.406277 -1.0122316
0001e0 a5 35 15 c0 20 50 6c bf 6d ce 80 3e 63 8c 64 bf
       -2.3313992 -0.9230976 0.2515749 -0.89276713
0001f0 e1 f3 4f bf ac 19 22 40 e9 36 f7 c0 b0 4f 20 c0
       -0.81231505 2.532817 -7.725453 -2.5048637
000200 88 dc b6 b9 5f 48 86 3a 4c ef a4 3e 9b 62 d9 be
       -0.00034878054 0.0010244957 0.3221382 -0.42458043
000210 0e 99 78 c0 10 ec e8 bf b9 a5 99 3e 36 32 2a c0
       -3.8843417 -1.819704 0.3000925 -2.6593146
000220 8d f9 bf 3b 0c c8 92 3e 22 db 6e ba 56 af a8 3b
       0.005858606 0.2866825 -0.0009111633 0.005147855
000230 7a c1 30 3e c8 64 18 3b cb 8a 8e 3b ee 73 82 3e
       0.17261305 0.002325343 0.0043500415 0.25479072
000240 82 5e b3 3b 0f 6a 51 3b 53 e4 53 3e 42 61 c7 ba
       0.0054739127 0.0031954085 0.20692568 -0.001521148
000250 52 ca 2c 3b 9e 86 ab 39 5d 2f 5e 3b 4a 1b 75 3b
       0.002636571 0.0003271596 0.0033902742 0.0037400299
000260 c1 dc ca bd 04 c1 81 be 73 75 6f bf 64 19 0f 3b
       -0.09905387 -0.25342572 -0.9353859 0.0021835202
000270 29 b0 bb 3a de 60 48 3e 61 4c e6 37 e8 13 98 3f
       0.0014319468 0.19568202 2.7453703e-05 1.1881075
000280 36 78 25 3f 36 24 57 40 63 b2 9b 3e 0c 79 ff 3b
       0.6463655 3.3615851 0.30409536 0.0077964123
000290 73 d2 8b be f6 c9 af be dc dc b3 3e b8 1d 0f 3b
       -0.27308998 -0.3433377 0.3512944 0.0021837782
0002a0 79 90 7c 3e 02 2b 27 c0 60 40 39 3e 78 64 98 3f
       0.24664487 -2.612 0.18090963 1.1905661
0002b0 e0 cb 46 3e 88 01 49 40 ec 82 b1 3b e9 2d 5e 3c
       0.1941371 3.1407185 0.0054172184 0.0135607505
0002c0 57 0b 3d c1 db ef c9 bb 53 99 37 3e d4 56 a2 39
       -11.8152685 -0.006162626 0.17929582 0.0003096374
0002d0 7a 80 02 c0 b0 1c c3 bd ca 25 38 bf 5c 77 28 bf
       -2.0390916 -0.09526956 -0.7193266 -0.6580713
0002e0 d8 a0 95 bf 3b 22 1a c0 ba 93 c0 be 43 7e 32 3a
       -1.1689711 -2.4083393 -0.37612706 0.00068089756
0002f0 55 30 94 3b 0f 10 a0 3a fb 78 15 3b dc f6 b3 bb
       0.004522363 0.0012211817 0.0022807706 -0.0054920744
000300 40 78 5a c0 81 55 b8 bf 70 36 f2 be bc e7 fb 3b
       -3.4135895 -1.4401094 -0.47307158 0.007687537
000310 f8 9b 6e c0 78 4c 12 3b 51 93 b9 bf 2d 1b d7 3f
       -3.7282696 0.002232341 -1.4498082 1.6805168
000320 7f a5 bd bf c1 b5 b0 bf ce 09 85 3b f0 f7 24 c0
       -1.481613 -1.3805467 0.0040600067 -2.577633
000330 97 e7 5e bb df c2 48 bf c7 4b 84 3b 12 8f 0d 3b
       -0.003401255 -0.7842235 0.0040373537 0.002160017
000340 c9 1e 7d 3e 00 67 f6 3a da 6a e7 b8 09 56 0d 3a
       0.24718775 0.0018799007 -0.00011034841 0.00053915434
000350 e0 bb 9a 40 54 a9 e5 ba ab 23 21 c0 42 97 ee 3a
       4.835434 -0.0017521777 -2.517802 0.0018203037
000360 65 c2 05 3b c1 25 ba 3e 44 c8 b9 c0 e5 77 95 bb
       0.0020410058 0.3635693 -5.8056965 -0.0045614117
000370 cc 77 2a 3f 89 49 48 3e a2 6c 1b c0 96 1d 28 c0
       0.66589046 0.19559301 -2.4285054 -2.6268058
000380 4e 27 43 3a 32 69 20 bf 14 7b 9e ba a5 d8 dc ba
       0.00074445165 -0.62660515 -0.0012091123 -0.0016849233
000390 e9 64 46 bf 3f 18 0a 3b 3d 8f c4 bf ab 81 c0 bf
       -0.77497727 0.002107158 -1.5356213 -1.5039572
0003a0 d1 30 68 bf c6 25 8e bf cc e2 19 3b b3 05 e7 bf
       -0.9069949 -1.1105278 0.0023481129 -1.8048614
0003b0 ea 57 4d 3b 31 00 70 3e 16 18 f8 bb 04 5e 21 3c
       0.0031332918 0.23437573 -0.0075712306 0.009849075
0003c0 41 be b4 3e 6f b9 32 3a 86 56 0b 3c 52 23 60 bf
       0.35301402 0.0006817793 0.0085045155 -0.87553895
0003d0 84 5c 1a 40 48 81 89 3b 56 68 80 3e 1f ef ec c0
       2.4118967 0.0041963197 0.25079602 -7.4041896
0003e0 df 25 8b bc 6e 3f 79 3d d3 04 06 bb a4 34 b7 3b
       -0.016985832 0.060851507 -0.0020449653 0.005590992
0003f0 9e f2 a1 c0 07 96 1a 40 ff 57 29 3e 68 43 2f bf
       -5.0608664 2.415407 0.16537474 -0.6846223
