Models/Bloom_filter/result/model-dict-59.pt (torch, 533323 bytes, 7 tensors)

model.0.weight f4 [256, 2]
0	0xbb7b1ef4	-0.003831801
1	0xb950dc81	-0.0001991857
2	0xbac9900b	-0.0015378011
3	0x39c1c614	0.00036959408
4	0x3ad9474e	0.0016577037
5	0x39e81982	0.00044269493
6	0xbb9dbd35	-0.004813815
7	0xbb872891	-0.004124709
8	0xbb25ca4f	-0.0025297587
9	0xbbb9c989	-0.005669777
10	0xbc28b55f	-0.0102971485
11	0x3ba23d4a	0.004951154
12	0xbf11c3eb	-0.5693957
13	0xbd180ee6	-0.037123583
14	0x39d54109	0.0004067498
15	0xbb7cf83c	-0.0038600108
16	0xbe9d600f	-0.3073735
17	0x3ed0f952	0.40815216
18	0xbb1b4925	-0.002369472
19	0x3a8f3f47	0.0010928892
20	0xbd33bf12	-0.04388339
21	0x3eef361f	0.4672098
22	0xbaee4d1d	-0.001818094
23	0xba797da2	-0.0009517317
24	0xbfc89779	-1.5671226
25	0x3e0f44c1	0.13991071
26	0xbaa1e652	-0.0012351966
27	0x3a8386a9	0.0010034639
28	0xba939bac	-0.0011261604
29	0x3b329eb6	0.0027255244
30	0xbb2b2d13	-0.0026119396
31	0x3abd2ade	0.0014432331
32	0xbc58fa39	-0.0132432515
33	0x3bfba2d4	0.0076793227
34	0xbb26be8e	-0.002544317
35	0xba5063d5	-0.00079494464
36	0xbb1aeca7	-0.002363959
37	0x3a85f4f9	0.0010220102
38	0xbb176763	-0.0023102395
39	0x3a8696ec	0.0010268367
40	0xbbc13e5b	-0.005897326
41	0x3b6d938d	0.0036251277
42	0xbb00aea0	-0.0019635335
43	0x38877063	6.458235e-05
44	0xbb2413b3	-0.0025036156
45	0xbb7c5608	-0.0038503427
46	0xbe6e25e1	-0.23256637
47	0xbf3ed5c1	-0.7454491
48	0xbac838b4	-0.0015275688
49	0x3aef455c	0.0018254924
50	0x3b14f41a	0.0022728504
51	0x3b12a093	0.0022373542
52	0xbb70b8b0	-0.0036731176
53	0xbaa2cfdf	-0.001242157
54	0xbf2b8d44	-0.6701243
55	0x3e2c27c8	0.1681205
56	0xbaf901d7	-0.0018997741
57	0xba9b170f	-0.0011832434
58	0xbb0b13bb	-0.0021221477
59	0x39f0d10c	0.0004593212
60	0xbbaa131a	-0.0051902654
61	0xba9177b9	-0.0011098302
62	0x3d2d26d6	0.042273365
63	0xbf6d5634	-0.9270966
64	0x3eb78e63	0.3585082
65	0xbfd17c83	-1.6366123
66	0x3e9170a4	0.2840625
67	0xbe965d1c	-0.29367912
68	0x39532680	0.0002013687
69	0xbc363597	-0.011121175
70	0x3a929e08	0.0011186013
71	0xbb00d8dd	-0.001966051
72	0x3aad712b	0.0013232579
73	0xbb43f0e1	-0.0029898214
74	0xbb1394af	-0.0022519042
75	0xbbd256eb	-0.006419053
76	0x3e933979	0.28754786
77	0x3df58928	0.11989051
78	0xbb01d837	-0.0019812712
79	0xbb9a1a22	-0.0047028223
80	0x3e8824d8	0.2659061
81	0xbdfa68f7	-0.12227052
82	0x3e874bf5	0.26425138
83	0xbdeb60a0	-0.11493039
84	0xbaa97c48	-0.0012930715
85	0xb9a6eb69	-0.00031837382
86	0x3cda1cdc	0.02662509
87	0xbd0a7a83	-0.033808243
88	0xba466560	-0.00075682066
89	0xbb7ce3ae	-0.0038587856
90	0xbb2a148c	-0.0025952188
91	0xb952f4c7	-0.00020118347
92	0xb7ec4e46	-2.8169841e-05
93	0xba92657c	-0.0011169161
94	0x3af956a2	0.0019023011
95	0xbaf62e1b	-0.0018782051
96	0x3b4d97e8	0.003137106
97	0x3a8c4780	0.0010702461
98	0x3a8eb68c	0.0010888143
99	0xbb6689cc	-0.0035177348
100	0xba3af1d7	-0.0007131374
101	0xb9899aca	-0.00026246003
102	0xbbce7c1b	-0.0063014156
103	0x3bad23b3	0.0052837967
104	0xbe42fe36	-0.19042286
105	0x3eb72fa8	0.35778546
106	0xbbf7655c	-0.007549925
107	0xb862b9ff	-5.405582e-05
108	0xbe485cce	-0.19566652
109	0xbf41de96	-0.75730264
110	0xb9b80cf9	-0.0003510488
111	0xb993ea29	-0.00028212488
112	0x3ea3105a	0.31848413
113	0x3d3e774e	0.046500497
114	0x3a35a55d	0.0006929243
115	0xba79a412	-0.00095230446
116	0xbb2a8fae	-0.0026025581
117	0xbae9798f	-0.0017812717
118	0x3e8d3fad	0.27587643
119	0xbdd4d21b	-0.10391637
120	0xb926e1f8	-0.00015915174
121	0x3971cc8f	0.00023059755
122	0xba2d38b8	-0.0006607878
123	0xba833185	-0.0010009265
124	0x3a9fbac1	0.0012186394
125	0x3b041989	0.0020156822
126	0xbb6ab133	-0.0035811185
127	0xbbb9cdcc	-0.005670285
128	0xbb026e60	-0.0019902214
129	0x3a1eee95	0.0006062773
130	0xbb1f16ad	-0.002427499
131	0xba336ccb	-0.00068445195
132	0xbaab1e4e	-0.0013055296
133	0xbb9180be	-0.004440396
134	0xbed42f5c	-0.41442382
135	0xbd309a36	-0.043115817
136	0x3e984af0	0.29744673
137	0xbe09cf02	-0.13457873
138	0x3e8bf118	0.27332377
139	0x3e2e46ea	0.17019239
140	0xbb0a4f14	-0.0021104263
141	0xbb83f559	-0.0040270505
142	0xba636bc1	-0.00086754194
143	0xba240c54	-0.00062579405
144	0xbaeed9c5	-0.0018222859
145	0xb9a88cbf	-0.0003214832
146	0x391b2bed	0.00014798316
147	0xbbc8601b	-0.0061149723
148	0xba82369e	-0.000993449
149	0xba5302bb	-0.0008049418
150	0xbe040453	-0.12892275
151	0x3ecb16e2	0.39665896
152	0x3e8a3ab3	0.2699791
153	0xbe73c6f9	-0.23806371
154	0x3e73fc9c	0.23826832
155	0xbeb525ab	-0.353803
156	0x3a946ab4	0.0011323304
157	0xb9822054	-0.0002481962
158	0xb9bb9fc5	-0.00035786457
159	0xba54a90e	-0.00081123493
160	0x39f15a0a	0.00046034186
161	0xbaf5def5	-0.0018758463
162	0xbab3d69f	-0.0013720578
163	0xbabd28c0	-0.00144317
164	0x3e8eb92e	0.27875656
165	0xbeadc3dd	-0.33938494
166	0xbedabfa8	-0.42724347
167	0xbd83f303	-0.06442835
168	0xbf4f1e46	-0.8090557
169	0xbec46f75	-0.38366285
170	0xba82118f	-0.0009923446
171	0xbb5191e8	-0.0031977836
172	0xbd41fb69	-0.047358904
173	0xbf2263b9	-0.63433415
174	0xbaef5898	-0.0018260656
175	0xbb35978a	-0.0027708733
176	0xba2f8078	-0.00066948636
177	0xbbb8182c	-0.005618116
178	0xbb3055ac	-0.0026906533
179	0xba90b6e6	-0.0011040836
180	0x3a22c936	0.00062097923
181	0xbad5a76a	-0.0016300504
182	0x3e862d79	0.26206568
183	0xbdfcbd07	-0.123407416
184	0xbaf46092	-0.0018644503
185	0x3b00ad02	0.001963437
186	0x3e9604b0	0.2930045
187	0xbe65dc1f	-0.22447251
188	0x3bb09b02	0.005389572
189	0x3badabc3	0.0053000166
190	0xbb2386d4	-0.002495219
191	0x3ab4fe3c	0.0013808678
192	0xbb0fa04a	-0.0021915608
193	0xbac2f92d	-0.0014875286
194	0xbafd4aaa	-0.001932462
195	0xbb651389	-0.003495427
196	0x3d80fb3c	0.06297919
197	0xbf28adcc	-0.65890193
198	0xb996add8	-0.00028739753
199	0x3ad07852	0.0015904999
200	0x3e91434f	0.28371665
201	0xbe972fa8	-0.29528546
202	0xbbbc418a	-0.0057451176
203	0x3b3ae1d3	0.002851595
204	0x3e6d755b	0.23189299
205	0xbee64c17	-0.44979927
206	0xba482915	-0.0007635516
207	0x3b3809f2	0.00280821
208	0xbad6e3ca	-0.0016394791
209	0x38c70bf5	9.4912866e-05
210	0xbd873675	-0.06602184
211	0x3e90fd4d	0.28318253
212	0xbb1082ca	-0.0022050613
213	0x39681ced	0.0002213602
214	0xbada72a3	-0.0016666244
215	0x3a850e30	0.0010151323
216	0xbeeaf2f7	-0.45888492
217	0x3ec15510	0.3776021
218	0xbe245e27	-0.16051541
219	0x3e708410	0.23487878
220	0xb9da39f3	-0.00041623376
221	0xbaadcfeb	-0.0013260817
222	0xbb53fa32	-0.0032345173
223	0xbf080da5	-0.5314582
224	0xbb48d88f	-0.0030646657
225	0x3b45bb55	0.0030171473
226	0xbb188363	-0.0023271672
227	0x3ad95e35	0.0016583862
228	0x3e567e0f	0.20946525
229	0x3df4e200	0.119571686
230	0xb7fdea9c	-3.0269199e-05
231	0xbb7d0a2e	-0.0038610804
232	0x3e7ef801	0.24899293
233	0xbf55eafc	-0.8356168
234	0x388ce814	6.718948e-05
235	0x3a23575e	0.0006230975
236	0xba05d763	-0.00051056425
237	0xbb54622e	-0.0032407152
238	0xbacfe6ca	-0.0015861627
239	0x3b19fe84	0.002349765
240	0xbb0513ec	-0.0020306064
241	0xb92321f2	-0.00015557537
242	0xbb1a760a	-0.0023568892
243	0xbc06b5a4	-0.008222017
244	0x3b00a7f7	0.0019631365
245	0xbbb6c95c	-0.005578203
246	0xbaab28a5	-0.0013058378
247	0x3b11579a	0.0022177459
248	0x3e81f378	0.25381064
249	0xbeac1796	-0.33611745
250	0x3a477061	0.00076079933
251	0xbbc3e59e	-0.0059783002
252	0x3e0dc4d8	0.13844621
253	0xbee28531	-0.44242242
254	0xbf178719	-0.5919052
255	0x3e6decb0	0.2323482

model.0.bias f4 [256]
0	0x00000000	0.0
1	0xbaf56e6c	-0.0018724925
2	0xbb97305c	-0.004613919
3	0x00000000	0.0
4	0x00000000	0.0
5	0xbb242e53	-0.0025052025
6	0x3e2fd039	0.17169274
7	0xb9e073c7	-0.0004281087
8	0xbd152082	-0.036407955
9	0xbb3702f5	-0.0027925347
10	0xbddd552d	-0.108072616
11	0x00000000	0.0
12	0x3e1e058d	0.15431805
13	0xba9f28be	-0.001214288
14	0xbb114d99	-0.0022171496
15	0xbb46fe68	-0.003036404
16	0xbc00b56f	-0.007855757
17	0x00000000	0.0
18	0xbb32e02d	-0.0027294264
19	0xb9a1ebfb	-0.00030884132
20	0xba88854f	-0.0010415706
21	0xb9feae66	-0.00048576592
22	0x00000000	0.0
23	0x3e4bc3ca	0.19898906
24	0xbab34527	-0.0013677225
25	0xbc0c282e	-0.008554501
26	0x00000000	0.0
27	0x3dd25e4a	0.102718905
28	0x00000000	0.0
29	0xbb172887	-0.0023064928
30	0x00000000	0.0
31	0x3e169e5d	0.14708848
32	0xbc98d879	-0.01865791
33	0xbd4c9704	-0.049948707
34	0xb9287688	-0.00016065885
35	0xba6baa3b	-0.0008989905
36	0xba94d725	-0.0011355622
37	0x00000000	0.0
38	0xbe611520	-0.21980715
39	0x00000000	0.0
40	0xbe1a5843	-0.15072732
41	0xbe18135b	-0.14851134
42	0x00000000	0.0
43	0xbca938b8	-0.020656928
44	0xbb0c0d35	-0.0021370177
45	0x00000000	0.0
46	0x00000000	0.0
47	0xbb286134	-0.0025692703
48	0xbb8b3648	-0.004248414
49	0xbab4adea	-0.0013784741
50	0x00000000	0.0
51	0xbb4554f2	-0.0030110446
52	0xbd54912a	-0.05189625
53	0x00000000	0.0
54	0x3e4f0cb9	0.20219697
55	0x37df7069	2.6636017e-05
56	0xbe0dd7de	-0.13851878
57	0xba12d1cd	-0.0005600721
58	0x00000000	0.0
59	0xbe28e8f5	-0.16495116
60	0xb9dc1aaa	-0.00041981536
61	0x00000000	0.0
62	0xbb54f6da	-0.0032495768
63	0xbb245b64	-0.0025078887
64	0xba08be9b	-0.0005216391
65	0x00000000	0.0
66	0xb87eea80	-6.0776714e-05
67	0x3e179ca1	0.14805843
68	0xbd89eb77	-0.067343645
69	0xbe425f53	-0.18981676
70	0x00000000	0.0
71	0x00000000	0.0
72	0xbae10791	-0.0017168393
73	0xb8fa716f	-0.000119420576
74	0x00000000	0.0
75	0xbe004ab2	-0.12528494
76	0xbd8bd490	-0.068276525
77	0x3c9bb996	0.019009393
78	0xba87452d	-0.0010320299
79	0x00000000	0.0
80	0xb9c1e3fe	-0.00036981696
81	0x00000000	0.0
82	0xbd23e7b8	-0.040015906
83	0x3e0f4600	0.13991547
84	0x3e63f2e4	0.22260624
85	0x00000000	0.0
86	0x3e213ec7	0.15746604
87	0x00000000	0.0
88	0x00000000	0.0
89	0x00000000	0.0
90	0xba4303b1	-0.000743921
91	0xbe18adc3	-0.14910035
92	0xbb24a5d3	-0.0025123253
93	0xbdcf0af8	-0.10109514
94	0xbc9bad26	-0.019003462
95	0xb9ee39b0	-0.00045437878
96	0x00000000	0.0
97	0x00000000	0.0
98	0x3e1819d7	0.14853607
99	0xbac5a1fe	-0.0015078185
100	0xbd510f26	-0.051039837
101	0xbad2f1a5	-0.0016093744
102	0x3bddf3fc	0.00677347
103	0xbb22742f	-0.002478849
104	0xb9ddeefa	-0.00042330456
105	0xbd9694b6	-0.07352583
106	0xb9624971	-0.00021580399
107	0xb99c6427	-0.00029829258
108	0x3d28f413	0.041248392
109	0xbc43a2b0	-0.011940643
110	0x3895e07c	7.146687e-05
111	0x3e6c365a	0.23067608
112	0xbb74d457	-0.003735801
113	0xbb36434e	-0.0027811113
114	0xbe73c2ed	-0.23804827
115	0x00000000	0.0
116	0x3d068cea	0.03284923
117	0xba34e85b	-0.0006901079
118	0x3851d603	5.0028797e-05
119	0xbb2b898d	-0.0026174516
120	0xbad41e0e	-0.0016183273
121	0xbaa3a24f	-0.0012484285
122	0xbacdff32	-0.0015716313
123	0xbadbef50	-0.0016779695
124	0x3c223630	0.009900615
125	0xba2002fd	-0.0006103961
126	0x3e178d20	0.14799929
127	0x3d417846	0.047233842
128	0x00000000	0.0
129	0xbe83943c	-0.2569903
130	0x00000000	0.0
131	0x00000000	0.0
132	0x3d06374f	0.03276759
133	0xbdcfd9c5	-0.10148958
134	0xbb7db80c	-0.0038714437
135	0x00000000	0.0
136	0xba7aacdd	-0.0009562502
137	0xbc05ade8	-0.008159138
138	0x3e4dff8b	0.20117013
139	0x3e2e8a2c	0.17044896
140	0xba5a4119	-0.00083257403
141	0x39d29baa	0.000401703
142	0x00000000	0.0
143	0xba066f6f	-0.0005128299
144	0xb9449a6e	-0.00018749546
145	0xbb276537	-0.0025542506
146	0xbb83e294	-0.004024813
147	0xbd8b1fa9	-0.06793148
148	0x00000000	0.0
149	0xb99ea1d8	-0.0003025669
150	0xbe5585e9	-0.20851864
151	0x00000000	0.0
152	0xb998ece8	-0.00029168208
153	0x00000000	0.0
154	0x00000000	0.0
155	0xbe72687d	-0.23672672
156	0xbb1e3730	-0.002414178
157	0xba2c7a42	-0.0006579497
158	0x3e2550a6	0.16144046
159	0x3e10ae04	0.14128882
160	0xb98f9d01	-0.00027392062
161	0xbd5b088f	-0.05347496
162	0xbda3c4bd	-0.07996509
163	0xb9dbbe13	-0.0004191255
164	0xbe5706d8	-0.20998704
165	0xbe52fd82	-0.20604518
166	0x00000000	0.0
167	0x3e151c59	0.14561595
168	0xbaa54d74	-0.0012611584
169	0xbd508e81	-0.050917152
170	0xbb428f9d	-0.002968765
171	0x00000000	0.0
172	0xba63ac7b	-0.00086850644
173	0x00000000	0.0
174	0x00000000	0.0
175	0xbe1959e0	-0.14975691
176	0xbac059e9	-0.0014675233
177	0xbe8387ed	-0.2568964
178	0x00000000	0.0
179	0xbbd01b54	-0.006350914
180	0xbb43b461	-0.0029862153
181	0x39c98d39	0.00038442927
182	0x00000000	0.0
183	0x00000000	0.0
184	0x3e82ede2	0.25572115
185	0xbb18612f	-0.0023251285
186	0xbb1f5828	-0.002431402
187	0xbcce97d8	-0.02521889
188	0x3e3d36ab	0.18477885
189	0xba6bda6a	-0.0008997085
190	0xbd825201	-0.06363297
191	0xbb460496	-0.0030215136
192	0xbd303826	-0.043022297
193	0x00000000	0.0
194	0xbbdd9c5c	-0.0067630243
195	0xbe2c8eab	-0.16851299
196	0x00000000	0.0
197	0x00000000	0.0
198	0xba0c2be1	-0.00053471146
199	0x3d60ea80	0.054911137
200	0xbc63f725	-0.013913904
201	0x3d5ebf6f	0.054381784
202	0x00000000	0.0
203	0x3e0f24fb	0.1397895
204	0x00000000	0.0
205	0xba17e7b6	-0.00057947205
206	0xb959fbdf	-0.00020788562
207	0x00000000	0.0
208	0x00000000	0.0
209	0x00000000	0.0
210	0xbb17993f	-0.0023132113
211	0xbb28c86d	-0.0025754229
212	0xba2dce02	-0.0006630124
213	0x00000000	0.0
214	0x00000000	0.0
215	0x00000000	0.0
216	0xbe715d51	-0.23570754
217	0xbdddfd4a	-0.10839327
218	0xbb29cf3d	-0.0025910877
219	0xba359f49	-0.00069283374
220	0xb9d15829	-0.0003992927
221	0x00000000	0.0
222	0x00000000	0.0
223	0xb94e44fa	-0.00019671387
224	0x00000000	0.0
225	0x3e0fe20d	0.14051075
226	0xbbd12615	-0.0063827136
227	0xbe48169c	-0.19539875
228	0xb9d5d96d	-0.0004078852
229	0x00000000	0.0
230	0x3e34390d	0.17599888
231	0x3e460225	0.19336756
232	0x3a28c904	0.0006438645
233	0x3ea35bd5	0.31906
234	0xbd0e43fa	-0.034732796
235	0xbca17e41	-0.019713523
236	0x00000000	0.0
237	0xbce74490	-0.028230935
238	0x3d484de2	0.0489024
239	0xbe2b3f99	-0.1672348
240	0xba84cb83	-0.0010131452
241	0xbd803f3a	-0.062620595
242	0xba924f33	-0.0011162519
243	0x00000000	0.0
244	0x3cec65e8	0.028857186
245	0x00000000	0.0
246	0x39dc873c	0.00042062427
247	0xbb7c911e	-0.0038538645
248	0x3c262447	0.010140485
249	0x3804dc4f	3.167643e-05
250	0xbd88db52	-0.06682457
251	0xbe3a99e0	-0.18222761
252	0x3e006e1b	0.12542002
253	0xbaef1e22	-0.0018243233
254	0xbc4bf671	-0.012448893
255	0xbb6c921e	-0.0036097835

model.2.weight f4 [256, 256]
0	0x3b126898	0.0022340175
1	0xbaa1f0df	-0.001235511
2	0xba2ff6d6	-0.00067125016
3	0xbb2df66c	-0.0026544584
4	0xbb408662	-0.0029376973
5	0xbb51184e	-0.0031905356
6	0xbf16cd8c	-0.5890739
7	0xba3c8a8a	-0.0007192275
8	0x3ec13416	0.3773505
9	0xbabafa35	-0.0014265241
10	0xbd364266	-0.044496916
11	0xba6d085d	-0.0009042079
12	0x38799d97	5.9512993e-05
13	0x38b9110f	8.824665e-05
14	0x3b1273c9	0.0022346845
15	0xba8a2869	-0.0010540608
16	0xbbccc736	-0.0062493337
17	0xbb9620d6	-0.004581551
18	0xbab49932	-0.0013778566
19	0x3ad49a83	0.0016220364
20	0x3a97f239	0.0011592574
21	0x3ad5f11d	0.0016322468
22	0x3802868b	3.111972e-05
23	0x3dc8c73a	0.098036245
24	0x3b410ef7	0.0029458383
25	0xbd0f2a3f	-0.0349524
26	0x3ab506b2	0.00138112
27	0xbee2e50f	-0.44315383
28	0x3a4e1e51	0.0007862794
29	0x39d5a76a	0.0004075126
30	0xb964df6d	-0.00021827007
31	0x3e5de2af	0.21668504
32	0xc00221cd	-2.033313
33	0xbf3efd10	-0.7460489
34	0x3ab84092	0.0014057329
35	0x39c300ef	0.00037193994
36	0x3a207ecf	0.00061224116
37	0x3ae57aa8	0.0017507868
38	0x3ee46dfe	0.44615167
39	0xbaf307d7	-0.0018541765
40	0x3b8bd53d	0.0042673633
41	0x3bb5655c	0.0055357646
42	0x3a4360ad	0.00074530655
43	0x3cdb080d	0.026737237
44	0xbaa0a7c0	-0.0012257025
45	0x38e5b92c	0.00010954062
46	0x3b2fbfb3	0.0026817142
47	0x38ee85ab	0.00011373622
48	0x3ab1da3e	0.001356907
49	0x3af86bd3	0.0018953033
50	0x38f5d4e5	0.00011722165
51	0x3a107ee8	0.00055120746
52	0x3e4f2afb	0.2023124
53	0x387afee2	5.9842023e-05
54	0x3e473583	0.19454007
55	0x3b6ac5d9	0.0035823493
56	0xbf4bc54a	-0.79597914
57	0x38f9b985	0.00011907801
58	0xba428f9d	-0.0007421913
59	0xbb7c687a	-0.0038514421
60	0x3a87c647	0.0010358774
61	0x3b1c9630	0.002389323
62	0xb9fa602d	-0.00047755372
63	0xbad6f20d	-0.0016399041
64	0x3b94a2dc	0.004536016
65	0x39e9b77e	0.00044577935
66	0xbb80102b	-0.0039081774
67	0xbf298a0b	-0.6622626
68	0x3cb58d14	0.022161998
69	0xbfe44ad6	-1.7835338
70	0xb91b1894	-0.00014791108
71	0xbad9fd10	-0.0016631205
72	0xba83924e	-0.0010038109
73	0x3bb2ab86	0.005452576
74	0x3a7974f1	0.0009516022
75	0x3e75b3ca	0.23994365
76	0xbf76c5e7	-0.96395725
77	0x3ea06fa0	0.31335163
78	0xbb3d1a8b	-0.0028854932
79	0x3b1c6fc1	0.0023870321
80	0x3accd948	0.001562872
81	0x3b25c414	0.0025293874
82	0xbf009404	-0.50225854
83	0xbee44ebb	-0.44591317
84	0xc018a031	-2.3847773
85	0x3b303eba	0.0026892857
86	0x3ec48312	0.3838125
87	0xbac927d6	-0.0015346955
88	0x3ac40ba9	0.0014957088
89	0x3a14c1f4	0.0005674653
90	0x3b99cd48	0.004693661
91	0x3ae2b26e	0.0017295608
92	0x3bb2f405	0.0054612183
93	0xc0628dd0	-3.5399055
94	0xbd7a4954	-0.061105087
95	0xbb22f4f5	-0.0024865244
96	0xba42f85c	-0.0007437521
97	0x3b443431	0.0029938335
98	0x3e89ebc5	0.2693769
99	0x3b0daedd	0.002161912
100	0xbf3bdad3	-0.73380774
101	0xbbbeb025	-0.005819338
102	0xbe8b55bf	-0.27213857
103	0xba1184aa	-0.00055510795
104	0x3a8f2e7b	0.0010923886
105	0x3d8a18c1	0.06743003
106	0xb9e91f88	-0.00044464716
107	0x38bfc0ad	9.1434784e-05
108	0x3ee0499c	0.4380616
109	0x3e045b2b	0.12925403
110	0xba191895	-0.000584015
111	0x3e5697f6	0.20956406
112	0xba42b50c	-0.0007427491
113	0x3b93f5e1	0.004515395
114	0xbecfef46	-0.4061224
115	0x3a5f05ea	0.0008507656
116	0xbe9c89a1	-0.30573753
117	0x3b208b0d	0.0024496943
118	0x3ab20b6a	0.0013583724
119	0x3bcaedb2	0.0061928863
120	0xbabef43c	-0.0014568637
121	0x3bf4b0ec	0.00746738
122	0x3baaceda	0.005212647
123	0xba67fb35	-0.00088493834
124	0x3e796ca2	0.24357846
125	0x3b589a58	0.003305098
126	0x3e0d7f64	0.13818127
127	0xbe13c898	-0.14431989
128	0xbae036ce	-0.0017106177
129	0x3f045785	0.51696044
130	0x3a514746	0.0007983338
131	0xbb04cdd3	-0.0020264282
132	0xbea20505	-0.31644455
133	0xc0697672	-3.6478543
134	0x3c1135c2	0.0088629145
135	0x3a13f5cc	0.00056442316
136	0xb9802baa	-0.00024446595
137	0x3bfdf607	0.007750276
138	0x3e243fc8	0.16039956
139	0x3e9fa9bb	0.31184182
140	0x3c003210	0.007824436
141	0x3b2dd5f0	0.0026525222
142	0xb9bd2b5e	-0.000360812
143	0xb96082e3	-0.00021411064
144	0xbb0c4850	-0.0021405406
145	0xbaa713cd	-0.001274699
146	0xbb0343a7	-0.0020029338
147	0x3e83abb7	0.25716946
148	0xb9cefa1c	-0.00039477728
149	0x3a87273e	0.0010311378
150	0x3ee099df	0.43867394
151	0x3aabce20	0.0013107695
152	0xba851acc	-0.0010155081
153	0x3ab7be50	0.001401851
154	0xbb6ea20d	-0.0036412508
155	0x3f4e08b4	0.8048203
156	0x3ba0c1cb	0.0049059144
157	0xbaeb0117	-0.0017929402
158	0xbf1769eb	-0.59145993
159	0xbf31bd07	-0.6942906
160	0xb88d3942	-6.734069e-05
161	0x3d7a80cc	0.061157987
162	0x3f12398f	0.5711908
163	0xbb247743	-0.00250955
164	0xbf66679b	-0.9000184
165	0x3ebf1b60	0.37325573
166	0xba736fe8	-0.00092863897
167	0xbf2ba511	-0.67048746
168	0x3ba2a5e0	0.0049636215
169	0xbf4024e3	-0.75056285
170	0xbab3b8cb	-0.0013711689
171	0xbae4038e	-0.0017396079
172	0xba191546	-0.0005839657
173	0x3a3fa6c1	0.000731092
174	0xbad86e41	-0.001651235
175	0x3a0dabf1	0.00054043444
176	0x3a1af42d	0.0005911019
177	0x3f04851a	0.51765597
178	0x3a879275	0.001034333
179	0xbbec77e5	-0.007216441
180	0x3a097004	0.0005242827
181	0x3b91a9d4	0.004445294
182	0x3ac5fdaa	0.0015105505
183	0x3ae12a9d	0.0017178837
184	0x3e71fc9c	0.23631519
185	0x3c1358da	0.008993352
186	0x3ba5f210	0.0050642565
187	0xbb94f0a1	-0.0045452868
188	0x3f05eef5	0.52317744
189	0xbaa299c3	-0.0012405444
190	0xbf838933	-1.0276245
191	0x3b0b3f07	0.0021247284
192	0x3e871206	0.26380938
193	0xbbb8c12a	-0.0056382613
194	0xbb676f41	-0.0035314115
195	0xbe12c09a	-0.14331284
196	0xbaf4500d	-0.001863958
197	0x3b1fb459	0.002436897
198	0xbafe0e34	-0.0019382895
199	0xbf44cdd8	-0.7687659
200	0x3e7b1c58	0.24522531
201	0xbf422c2c	-0.7584865
202	0x3a5e5c7c	0.0008482409
203	0x3e609f96	0.21935877
204	0xbae4a765	-0.0017444907
205	0x3b136228	0.0022488926
206	0x3ad8b7b0	0.0016534235
207	0xbb332cc7	-0.0027339922
208	0xba89419c	-0.0010471824
209	0xba84707a	-0.0010104321
210	0x3c0a5d94	0.008445162
211	0xbc078fad	-0.008274001
212	0x3a124cff	0.00055809313
213	0x3ae69ba4	0.0017593992
214	0xba8bae24	-0.0010656756
215	0xbac6a7c8	-0.0015156204
216	0x3f333185	0.69997436
217	0xbd27c6df	-0.040961143
218	0xba3a9ed0	-0.0007119002
219	0xbb0751d7	-0.0020648146
220	0x3b526ed3	0.0032109513
221	0xb9c7b1aa	-0.00038088608
222	0xbb651e7f	-0.0034960804
223	0xbb2cdd2e	-0.002637695
224	0xbb47f97e	-0.00305137
225	0xbf27849e	-0.6543673
226	0xbc968b1b	-0.018376878
227	0xbf0e9808	-0.5570073
228	0xba47f093	-0.0007627096
229	0x3a23fff0	0.0006256094
230	0x3eaad719	0.3336723
231	0x3e7c66cc	0.24648589
232	0x3c0e0370	0.008667812
233	0x3e1da87e	0.15396306
234	0x3ebe8c6a	0.37216502
235	0xbcb3f50b	-0.021967432
236	0xb8ea0178	-0.00011158263
237	0x3e4e2f97	0.20135342
238	0xbc22aebd	-0.009929356
239	0xbf94ffa7	-1.1640519
240	0xba00bb28	-0.0004910701
241	0x3d859f01	0.06524468
242	0xba0ebfe8	-0.00054454664
243	0x39800fcb	0.0002442583
244	0xbde4ea85	-0.111775436
245	0xba0139c2	-0.0004929566
246	0xb94b55d0	-0.00019391556
247	0x3a2f64ae	0.00066907227
248	0x3e75afdb	0.23992865
249	0x3bc7e08f	0.0060997675
250	0xbf4ffcb3	-0.81244963
251	0xbb74e272	-0.0037366417
252	0xbecaa89c	-0.39581764
253	0x3aae31fd	0.0013290044
254	0x3e8cb083	0.27478418
255	0xb9ba4b9d	-0.0003553302

model.2.bias f4 [256]
0	0xbdb56b86	-0.08858399
1	0xbaf5ebd2	-0.0018762297
2	0xbca6b0c7	-0.020347966
3	0x3a88f400	0.0010448694
4	0xbd2a5a78	-0.041590184
5	0x3d86739e	0.06565021
6	0xbd65bec9	-0.05609015
7	0x3db7e17d	0.08978555
8	0xbc4bc215	-0.0124364095
9	0xbd834110	-0.06408894
10	0xbaafeec0	-0.0013422593
11	0xbe986730	-0.29766226
12	0xba9884a0	-0.0011636205
13	0x3c6e6417	0.0145502305
14	0xba67007e	-0.0008812024
15	0xbae7aca3	-0.0017675351
16	0xb9cf413c	-0.0003953072
17	0xbaafcfd9	-0.0013413384
18	0xbe830cb6	-0.25595635
19	0xbec08c51	-0.37607053
20	0x3c7ce225	0.015434776
21	0xbe8525e4	-0.2600547
22	0xbac49ade	-0.0014999767
23	0xbc2cc80b	-0.010545741
24	0xbdf587b2	-0.119887725
25	0xbd8b3995	-0.06798092
26	0xbcfafd97	-0.0306385
27	0xbb367110	-0.0027838387
28	0xbe01698f	-0.12637924
29	0xbe6c76d3	-0.23092203
30	0xbdbfb57a	-0.09360786
31	0x3c93cde9	0.018042522
32	0xba9dc4ef	-0.001203684
33	0xbab41a1b	-0.001374069
34	0x3a940e56	0.0011295776
35	0xbe88c217	-0.2671058
36	0xbab9921b	-0.0014157923
37	0xbb36be53	-0.0027884438
38	0xbb295fa8	-0.002584437
39	0x3e366fa4	0.17816025
40	0x3d998b3d	0.07497261
41	0xbbccf989	-0.006255333
42	0xbe9d4ba6	-0.30721778
43	0x3dcb6db4	0.099330336
44	0xba9171e6	-0.0011096566
45	0xbc1a4e3e	-0.009418068
46	0xbaccfea9	-0.001563986
47	0xbb96f55b	-0.0046068854
48	0x3d8ba7ad	0.06819091
49	0xbb55b7d7	-0.0032610798
50	0xbdcb33e6	-0.09922008
51	0x3d864f29	0.06558067
52	0xbe1592d9	-0.14606799
53	0xbec4c08b	-0.3842815
54	0xbe214fb9	-0.15753068
55	0xbb0f0855	-0.0021825035
56	0xbe8749db	-0.26423535
57	0xbad745d6	-0.0016424011
58	0x3dcdd7d3	0.10050931
59	0xbd16db76	-0.036830388
60	0xbaa094fc	-0.0012251432
61	0xbe0f0897	-0.1396812
62	0xbd95bec8	-0.07311779
63	0xbcad12dd	-0.021127159
64	0xbb0308c3	-0.0019994236
65	0x3dc471a1	0.095919855
66	0x3dc1228c	0.094304174
67	0xbea40206	-0.32032794
68	0x3c94e602	0.018176083
69	0xbe04bf32	-0.1296356
70	0xbe8920e4	-0.26782906
71	0xb9b66c26	-0.00034794322
72	0x3d8c34be	0.06845997
73	0xbe143db6	-0.14476666
74	0x3da5dc2b	0.08098634
75	0xbaa0096e	-0.0012209842
76	0xbe11eee8	-0.14251292
77	0x3bf7d24e	0.007562912
78	0xbac464b5	-0.0014983626
79	0x3dde4ae8	0.10854131
80	0xbe91de77	-0.2849004
81	0xbcd94488	-0.026521936
82	0xbe090c95	-0.13383706
83	0xba9d5810	-0.0012004394
84	0xba56db35	-0.00081961165
85	0xbda8c58f	-0.08240806
86	0xbaa863e3	-0.0012847151
87	0xbd699036	-0.057022296
88	0xbd83c93f	-0.06434869
89	0xba37b747	-0.00070082064
90	0x3cec6f20	0.028861582
91	0xbba81314	-0.0051292274
92	0x3d18294e	0.037148766
93	0xbd146f61	-0.03623903
94	0xbb38e006	-0.00282097
95	0xbdc9ad46	-0.098475024
96	0xba31909d	-0.0006773563
97	0xbe748246	-0.2387782
98	0xba8f80df	-0.0010948441
99	0xbde201cd	-0.110355
100	0xbe816807	-0.2527468
101	0xb994370d	-0.00028269776
102	0x3dca6e55	0.098843254
103	0xbb03f195	-0.0020133008
104	0xba5fba2a	-0.00085345155
105	0xbc57b519	-0.013165736
106	0x3d84f748	0.06492478
107	0x3da60bee	0.08107744
108	0xbe83a2de	-0.25710195
109	0xbda341b8	-0.07971519
110	0x3de7a829	0.11311371
111	0xbd812b9f	-0.06307148
112	0x3d572feb	0.052535933
113	0xbc3e5455	-0.011616786
114	0xbc8e598a	-0.01737668
115	0xbc0b1a68	-0.008490182
116	0xbeaccb41	-0.3374882
117	0xbbc76930	-0.0060855374
118	0xbdc3ffe3	-0.09570291
119	0xbafa102f	-0.0019078309
120	0xbe278b42	-0.16361716
121	0xbae4989b	-0.00174405
122	0x3c1bca0a	0.009508619
123	0xbb0261be	-0.0019894685
124	0xba83d6c7	-0.0010058515
125	0xbe9f8381	-0.31155017
126	0x3de32700	0.11091423
127	0xbe99a5a3	-0.30009183
128	0xbcbf79d6	-0.023373526
129	0xbb45feed	-0.0030211762
130	0xbdea277b	-0.114333116
131	0xbe3393be	-0.17536828
132	0xbe0ea5af	-0.13930391
133	0xbddf7362	-0.109106794
134	0xbdf647e2	-0.12025429
135	0xb99666f7	-0.00028686944
136	0xbe9be7bf	-0.30450246
137	0x3c56e055	0.013115008
138	0xbe04e2de	-0.12977168
139	0xbb15056f	-0.0022738834
140	0x3e0a35cc	0.13497084
141	0xbe221dea	-0.15831724
142	0xbb3f7a75	-0.0029217277
143	0xbabbb717	-0.0014321533
144	0xbd7b1186	-0.06129601
145	0xbaa1b00c	-0.0012335791
146	0x3d162dbc	0.03666471
147	0x3e3b9a8a	0.1832067
148	0xbdbedcf2	-0.09319486
149	0xbab2948a	-0.001362459
150	0xbda27ccc	-0.07933959
151	0xbaa56637	-0.0012618963
152	0xbd909f12	-0.0706159
153	0xbd49a5cb	-0.049230378
154	0x3e58fefd	0.2119102
155	0xba94ceb9	-0.0011353112
156	0x3e135344	0.14387232
157	0xbb5387ba	-0.0032276944
158	0xbe644bd1	-0.22294547
159	0xbb1a24f4	-0.002352056
160	0xbad78fd9	-0.0016446068
161	0x3c9a5205	0.018837938
162	0x3cfd271b	0.030902436
163	0xbb3c6991	-0.0028749446
164	0xbdf1f085	-0.118134536
165	0xbabbbca7	-0.001432319
166	0xba5fddf7	-0.000853985
167	0x3d9f262b	0.07770952
168	0xbcd93c65	-0.026518056
169	0x3bddb69f	0.006766155
170	0xbc540180	-0.012939811
171	0xbd34d12d	-0.044144798
172	0xbd79366b	-0.060842913
173	0xbe6730ce	-0.22577211
174	0xbbb28385	-0.0054478073
175	0x3e4cd021	0.2000127
176	0xbe945e2d	-0.289781
177	0xbcdf816d	-0.027283395
178	0xbcef31e7	-0.0291986
179	0xbde71d2e	-0.112848625
180	0x3dd2a7ae	0.102858886
181	0xbdf3ecfd	-0.11910436
182	0xbac4ac68	-0.0015004994
183	0xbe075511	-0.13216044
184	0xbb2d686c	-0.0026459945
185	0x3c9acefb	0.018897524
186	0xba4cbfec	-0.0007810581
187	0x3d8ab8db	0.0677354
188	0xba1b6995	-0.0005928514
189	0x3dd1f241	0.102512844
190	0x3d4eb3fe	0.050464623
191	0x3e45fc6c	0.19334573
192	0x3c26dcd8	0.010184489
193	0xba7c6cfa	-0.0009629276
194	0xbe0ce8d1	-0.13760687
195	0xbd7bda97	-0.06148776
196	0x3db8c95f	0.090227835
197	0x3dba3d2c	0.09093699
198	0x3d7cc0ec	0.061707422
199	0xbafb76da	-0.0019185201
200	0x3daac206	0.08337788
201	0xbaa490ad	-0.0012555324
202	0xba8cbe18	-0.0010737805
203	0x3dd9e1c7	0.10638767
204	0xbb47ce4f	-0.003048796
205	0x3ddc4ba7	0.10756617
206	0xbe67f373	-0.22651462
207	0x3cd38f13	0.025825059
208	0xbe59eac2	-0.21280959
209	0xbe74aa76	-0.2389315
210	0xbb1de2ce	-0.0024091485
211	0xbb16bb45	-0.0022999805
212	0x3dd6d1d3	0.104892395
213	0xbe43fbc2	-0.19139007
214	0xbc6d1c89	-0.014472135
215	0xbe79abe6	-0.2438198
216	0xbba727cb	-0.0051011792
217	0xba5a2903	-0.0008322151
218	0xbaefb152	-0.0018287099
219	0x3b9cfa36	0.0047905697
220	0xbc1f3f6d	-0.009719712
221	0xba7ce01e	-0.0009646433
222	0xbe655cd8	-0.22398698
223	0xba4f911c	-0.00079180463
224	0x3d9a1af0	0.07524669
225	0xbdb4155d	-0.08793137
226	0xbd8d6592	-0.069041386
227	0xbb95f3b0	-0.004576169
228	0x3d708590	0.058721125
229	0xbb4defc6	-0.0031423434
230	0xbe5bb965	-0.21457441
231	0xbc2c0f62	-0.010501714
232	0xbab9f812	-0.0014188311
233	0x3da80477	0.082039766
234	0xba8d7a0e	-0.0010793821
235	0xbe9eb786	-0.30999392
236	0xbe378046	-0.17920026
237	0xbd7d3fa5	-0.061828274
238	0xbbf3d35c	-0.0074409675
239	0xbbe3ec15	-0.0069556334
240	0xbe187313	-0.14887647
241	0xbe12a6e9	-0.14321484
242	0x3d7855c5	0.06062867
243	0xbcba8256	-0.022767227
244	0x3d8291b1	0.06375445
245	0xba7e19f2	-0.0009693197
246	0xbe2650db	-0.16241781
247	0xbea4cd43	-0.32187852
248	0x3e027ed5	0.12743695
249	0xbb2b2e2a	-0.0026120045
250	0x3e61f3d8	0.22065675
251	0xba64c707	-0.0008727167
252	0x3e1612b8	0.14655578
253	0xbc43ba82	-0.011946322
254	0xba9a6e2b	-0.00117821
255	0x3cbb0c31	0.022832962

model.4.weight f4 [256, 256]
0	0xbf0cf191	-0.550561
1	0x3a90d2a9	0.001104911
2	0x3ae25a50	0.0017269347
3	0x3d896de8	0.06710416
4	0xbccb7174	-0.024834372
5	0xbdce3380	-0.100684166
6	0xbe0891c1	-0.1333685
7	0xbe30e234	-0.1727379
8	0xbb863d6f	-0.004096679
9	0xbefefe68	-0.49803472
10	0xbb432c62	-0.0029781093
11	0xbd4c1a7c	-0.049829945
12	0xbb75dcbc	-0.00375156
13	0x3ea404d2	0.32034928
14	0xbb2e88f5	-0.0026631926
15	0xbdafd2b8	-0.08585113
16	0xb803c73c	-3.1418385e-05
17	0x3b4f6a80	0.0031649172
18	0xbb96dcdf	-0.0046039666
19	0x3e892dad	0.2679266
20	0x3e594f98	0.21221769
21	0xc0292023	-2.6425865
22	0xba77e855	-0.00094569224
23	0x3b3d792f	0.0028911342
24	0x3ec90d21	0.3926783
25	0xbe0e7d8b	-0.13915078
26	0xbf2e1c92	-0.68012345
27	0x3b0ec703	0.00217861
28	0x3d6bb98b	0.057549994
29	0x3db9b980	0.090685844
30	0x3e361482	0.1778126
31	0xba07b8e2	-0.0005177391
32	0xb97e4334	-0.00024248363
33	0x3aa4a9e7	0.0012562842
34	0x3c9cea2e	0.019154634
35	0x3e24b8db	0.16086142
36	0x39a2ad2e	0.00031028077
37	0x3abc1336	0.0014348987
38	0xbab1b25d	-0.0013557185
39	0x3e177e42	0.14794257
40	0x3db36a06	0.08760457
41	0xbbaca382	-0.005268515
42	0x3e381c0d	0.1797945
43	0xbd30c77b	-0.04315899
44	0x3a106edb	0.0005509683
45	0x3bdba9e2	0.006703601
46	0x3b2360da	0.0024929554
47	0x3adbb2d9	0.0016761675
48	0xbc26504f	-0.010150983
49	0x3dced127	0.100984864
50	0xbca86e47	-0.020560397
51	0x3dac0e3b	0.08401152
52	0xbd98ecdf	-0.074670546
53	0xbdcbb1ee	-0.09946047
54	0x3d29ed02	0.041485794
55	0x3ac638f7	0.0015123178
56	0x3e0476ad	0.12935896
57	0xbb73f776	-0.0037226356
58	0x3da9433c	0.08264777
59	0x3d8dbc12	0.06920637
60	0x3aacf6a8	0.0013196068
61	0x3e34511f	0.1760907
62	0x3e540bff	0.20707701
63	0x3e8fcc47	0.2808554
64	0x3b9db834	0.0048132185
65	0xbc718cd0	-0.014743045
66	0x3de14f48	0.1100145
67	0x3e09e88d	0.13467617
68	0x3d9bb53b	0.07602926
69	0x3ed7f9c9	0.42182758
70	0x3e0dec40	0.13859653
71	0x3af0c772	0.0018369986
72	0xbd0ec5cd	-0.034856606
73	0x3e0e76a2	0.13912442
74	0x3e288eb4	0.16460687
75	0x3a947b51	0.0011328255
76	0x3dace6c2	0.08442451
77	0xbfad08e0	-1.3518333
78	0xba904811	-0.0011007806
79	0x3d81ad63	0.06331899
80	0x3ee56e9c	0.4481095
81	0xbe202957	-0.1564077
82	0x3dfc0c70	0.1230706
83	0xbb46cede	-0.0030335705
84	0xba21c721	-0.0006171335
85	0xbf657ca1	-0.89643294
86	0xbb5ce8af	-0.0033708026
87	0xbce1e765	-0.027576158
88	0x3cbcb491	0.02303532
89	0x3b741ae4	0.0037247473
90	0xbef4286d	-0.47687092
91	0xbe187d1d	-0.14891477
92	0x3e42100e	0.18951437
93	0x3d285e7d	0.041105736
94	0xbbaa5873	-0.0051985322
95	0xbd44515e	-0.04792916
96	0xbaef5787	-0.0018260338
97	0xbf109eda	-0.5649239
98	0xba645623	-0.0008710345
99	0x3dc909a4	0.09816292
100	0x3ce08913	0.027409112
101	0xbaa9d593	-0.0012957327
102	0x3e86a5b2	0.2629829
103	0x3b17c489	0.0023157916
104	0x3b15025b	0.0022737
105	0x3d31f3ad	0.043445278
106	0xba86ed4b	-0.0010294107
107	0xbe29f86e	-0.16598675
108	0x3d89f937	0.06736987
109	0x3c78154d	0.015141797
110	0xbdaca54e	-0.08429967
111	0x3c8b7c58	0.017027065
112	0x3ed76553	0.42069492
113	0x3d0e9e27	0.034818795
114	0xbba30b76	-0.0049757315
115	0x3afb3729	0.0019166219
116	0x3f11b010	0.56909275
117	0x3b00bd84	0.001964421
118	0x3efb1697	0.49040672
119	0x3a01a4bc	0.0004945507
120	0xbbbe4c3f	-0.005807429
121	0x3b648a2c	0.0034872396
122	0x3c4c670a	0.012475738
123	0x39b68ca1	0.00034818522
124	0x3b276be7	0.0025546493
125	0xbb428462	-0.0029680957
126	0xbe1b06ca	-0.15139309
127	0xc0163c71	-2.347439
128	0xbe397ae1	-0.18113281
129	0x3b4705ba	0.0030368404
130	0x3e536fd4	0.20648128
131	0xc0cbd8f8	-6.3702354
132	0xbe70acdc	-0.2350344
133	0x3e48b2b8	0.19599426
134	0xbe1753a9	-0.14778008
135	0x39327cf9	0.00017021959
136	0x3f3fc987	0.7491688
137	0xbdade545	-0.08490995
138	0x3d91d175	0.07120029
139	0xba03e7c1	-0.00050317874
140	0x3dc6b1ef	0.09701907
141	0x3ca77055	0.020439306
142	0xbaee888f	-0.0018198657
143	0xb9e099f1	-0.00042839305
144	0x3ec4334c	0.38320386
145	0xbb06bdc9	-0.0020559898
146	0xbf0eb97f	-0.55751795
147	0x3e29dfa5	0.1658922
148	0x3f5af59c	0.8553102
149	0xb979a081	-0.00023806283
150	0xbc18863b	-0.009309347
151	0xbb1ebc82	-0.0024221246
152	0x3e111a16	0.14170107
153	0x3c557dfa	0.013030523
154	0x3d9d31a2	0.07675482
155	0xbaf9ed07	-0.0019067832
156	0x3c477443	0.012173715
157	0xba8391e6	-0.0010037988
158	0xbecf53a1	-0.4049349
159	0xbb2b303d	-0.0026121282
160	0xbb1d4222	-0.0023995717
161	0x3d8bf70c	0.0683423
162	0x3de6f7f2	0.112777606
163	0xbac3089d	-0.0014879886
164	0x3e7fe21f	0.24988602
165	0x3b0e160e	0.0021680626
166	0x3afc2eb7	0.0019239996
167	0x3d5b40a9	0.05352846
168	0x3dada47d	0.08478639
169	0xbdbca7f6	-0.092117235
170	0x3a783673	0.0009468563
171	0x3cb3c956	0.02194659
172	0xbe5c4f88	-0.21514714
173	0xbcaaaead	-0.020835245
174	0x3b506bdc	0.003180257
175	0xbc239277	-0.00998365
176	0x3cdea501	0.02717829
177	0x3e94fe44	0.2910024
178	0x3dac10b3	0.084016226
179	0x3e906b99	0.2820709
180	0x3d3a7bd5	0.04552825
181	0xbef9af1b	-0.48766407
182	0x39d150c6	0.00039923767
183	0x3e1deb9a	0.15421906
184	0xba5868e8	-0.00082553783
185	0xbce25eff	-0.027633188
186	0xba870fa9	-0.001030435
187	0x3c0b185c	0.008489694
188	0x3aceb725	0.0015771134
189	0x3e95fd13	0.29294643
190	0x3e4aa30a	0.19788757
191	0x3df29519	0.11844844
192	0x3c6e1901	0.014532329
193	0x398a2bd1	0.00026354057
194	0x3e306d2e	0.17229149
195	0x3e05b685	0.13057907
196	0x3de69dc4	0.1126056
197	0x3d81b007	0.06332403
198	0x3d6d8bbd	0.057994593
199	0x3a9b42c4	0.0011845459
200	0xbe69b609	-0.22823347
201	0xbaff927e	-0.0019498614
202	0x3a658984	0.0008756148
203	0x3e3a9082	0.18219188
204	0x3f14f210	0.5818186
205	0xbe0bbb49	-0.13645662
206	0xc07b96a4	-3.9310694
207	0xbd86de10	-0.06585324
208	0x3de1d37b	0.11026665
209	0xbc4f98eb	-0.012670736
210	0xba87958b	-0.001034425
211	0xba8252ea	-0.0009942923
212	0xbdc9c8e2	-0.098527685
213	0xbe445da7	-0.1917635
214	0xbbafc186	-0.005363646
215	0xbba3ce4c	-0.0049989577
216	0xbbffa6fc	-0.0078018885
217	0xba958cb6	-0.0011409733
218	0xba1ae82d	-0.00059092307
219	0x3ba270a6	0.0049572764
220	0xbc3bcbfd	-0.011462209
221	0x3b3c5dff	0.002874255
222	0xbe67d139	-0.22638406
223	0xbaead404	-0.0017915969
224	0x3ee7bedc	0.45262802
225	0xbcca4cbb	-0.024694791
226	0x3e83f16c	0.25770128
227	0x3b32701a	0.0027227462
228	0xbbc3de1d	-0.0059774057
229	0x3b91836a	0.0044407146
230	0xbea12f9f	-0.31481645
231	0xbc96b62c	-0.018397413
232	0x3b120f4f	0.0022286957
233	0x3e3e4ff9	0.18585195
234	0xbb489214	-0.0030604647
235	0x3e9bf2dc	0.30458724
236	0x3db82397	0.08991163
237	0xbe6e8018	-0.23291051
238	0xbb1afab2	-0.0023647961
239	0x3c47c5ef	0.012193187
240	0x3da46481	0.08026982
241	0x3d36584f	0.04451781
242	0x3d16d15b	0.03682075
243	0x3dad8c40	0.08474016
244	0x3e34285e	0.17593524
245	0xbb6f6f1a	-0.0036534728
246	0x3b353d30	0.0027654879
247	0x3b6de3bd	0.0036299073
248	0xbe8d2308	-0.2756579
249	0x3b8cf66a	0.004301836
250	0x3af45853	0.0018642045
251	0x3b1f0215	0.0024262716
252	0xbd3e7684	-0.046499744
253	0xbb153835	-0.0022769098
254	0xbbb1ea49	-0.0054295403
255	0x3e39e34a	0.1815311

model.4.bias f4 [256]
0	0x3dd8e4de	0.10590528
1	0x3e73075f	0.2373328
2	0xba9b58ef	-0.0011852066
3	0x3d01cd9c	0.031690225
4	0x3e1d57a6	0.15365466
5	0x3dd8d68b	0.10587796
6	0x3dd3f269	0.103489704
7	0x3ca50f1f	0.020148812
8	0xbd6cc08f	-0.057800826
9	0xbc28ed2b	-0.0103104515
10	0xba6ca80c	-0.00090277265
11	0xbc23e978	-0.010004394
12	0x3dddcf16	0.10830514
13	0xbaaf1f7a	-0.0013360821
14	0xbcb61049	-0.022224562
15	0xbce82a6f	-0.028340546
16	0x3d994a39	0.0748486
17	0xbb0d7c71	-0.0021589065
18	0xbb5de1d4	-0.0033856528
19	0xbdc6e0f9	-0.09710879
20	0x3dcd0e5b	0.10012504
21	0xbd3c868e	-0.04602676
22	0x3cad5dac	0.02116283
23	0xbe284262	-0.16431573
24	0xba91abc6	-0.0011113815
25	0x3e3d912a	0.18512407
26	0xbc85577e	-0.016277071
27	0x3e86ec3e	0.26352113
28	0x3da52f47	0.08065658
29	0xbb8a6483	-0.0042234077
30	0xbf184201	-0.59475714
31	0x3d707ad0	0.058710873
32	0x3d50c380	0.050967693
33	0xbdf6ae72	-0.120449916
34	0xbabf1cd1	-0.0014580732
35	0xbaffa5da	-0.0019504384
36	0x3b76cbdd	0.0037658133
37	0x3e0181a1	0.12647106
38	0x3c2c2491	0.010506765
39	0x3e25198e	0.1612303
40	0x3e0bb4c7	0.1364318
41	0x3d89117e	0.066927895
42	0x3d31bba9	0.043391857
43	0x3dd0b799	0.101912685
44	0xbd84e47c	-0.064888924
45	0x3d9cf6fa	0.076642945
46	0xbafbdb7a	-0.0019215189
47	0xba425662	-0.0007413385
48	0xbc039474	-0.008030999
49	0x3d969526	0.073526666
50	0xbdce583d	-0.10075424
51	0x3d0ddb4a	0.03463296
52	0x3e0dfd32	0.13866118
53	0xbaeda081	-0.0018129499
54	0xba1a798c	-0.00058927457
55	0xbb57df35	-0.0032939438
56	0xbca7b95c	-0.020474128
57	0xbcd3b987	-0.025845302
58	0x3cc1d8ba	0.023662914
59	0xbc151b3c	-0.009100731
60	0xbb165685	-0.0022939753
61	0xbd2c5ac6	-0.042078756
62	0xbcc4b022	-0.024009768
63	0x3c63e3be	0.013909278
64	0xbacf8377	-0.0015832026
65	0xba90dc94	-0.0011052066
66	0x3d9f9a8c	0.07793149
67	0x3c1aa8b9	0.009439641
68	0xbd0724b1	-0.032993976
69	0xbd4a8ce1	-0.04945076
70	0xbe02378f	-0.12716506
71	0xbc193e51	-0.009353236
72	0xbd976700	-0.073926926
73	0xbc8fa61c	-0.017535262
74	0xbb02f789	-0.0019983968
75	0x3da40b1d	0.08009932
76	0xbdcf1c15	-0.10112778
77	0xbade979d	-0.001698244
78	0x3ccee872	0.025257323
79	0xbab74563	-0.0013982471
80	0x3de196d1	0.11015094
81	0xbe0d6659	-0.13808574
82	0x3d9de5c7	0.07709842
83	0xbb3d9b6d	-0.0028931752
84	0x3d538470	0.051639974
85	0xbdd5fbce	-0.104484186
86	0xbd339482	-0.0438428
87	0xbe1c1c93	-0.15245275
88	0xbab3380f	-0.0013673323
89	0xba92973a	-0.0011183985
90	0xbcab5a74	-0.020917155
91	0x3e62b965	0.22141035
92	0x3c9397e4	0.018016763
93	0xbc399eb0	-0.011329338
94	0xbce74321	-0.028230252
95	0xba8ebdd4	-0.0010890313
96	0x3df19589	0.117961
97	0xbcdf9a58	-0.027295277
98	0x3d464ee9	0.0484151
99	0x3e5e6daf	0.21721528
100	0x3bc38e8e	0.0059679216
101	0xbce69678	-0.028147921
102	0xbc22b628	-0.009931125
103	0xbacb8a0f	-0.0015528816
104	0xbb19993f	-0.002343729
105	0x3e84f7dd	0.25970355
106	0xbb6994c1	-0.0035641643
107	0xba1a5e49	-0.00058886834
108	0xbab9aaf1	-0.0014165324
109	0x3d8aac86	0.067711875
110	0xbd1b187e	-0.037865154
111	0x3d56cbde	0.052440517
112	0xba41c152	-0.00073911727
113	0x3df1dc6b	0.118096195
114	0xbc4581ee	-0.012054903
115	0xbb0b5820	-0.0021262243
116	0xbb1629bb	-0.0022913057
117	0x3d8e43f9	0.069465585
118	0x3c8e46a2	0.017367665
119	0xbc4364b2	-0.011925863
120	0x3e1f69d6	0.15567717
121	0xbcd52c96	-0.026022237
122	0x3ddbc522	0.107309595
123	0xbdb57b53	-0.08861413
124	0x3c6efc0b	0.014586459
125	0x3db947a0	0.090468645
126	0x3c23790d	0.009977591
127	0xbd577b49	-0.05260781
128	0xbcc66bb4	-0.024221279
129	0xbb039d50	-0.002008278
130	0x3dd1a6ae	0.1023687
131	0x3c725cf7	0.014792672
132	0xbdef2ae5	-0.11678103
133	0x3d806ac2	0.062703624
134	0x3dd04804	0.10169986
135	0xbdce8a82	-0.10085012
136	0xbb58d85b	-0.0033087942
137	0x3db76c90	0.089562535
138	0xbc4d52c3	-0.012531939
139	0xbacb015e	-0.0015488078
140	0x3e621dbb	0.22081654
141	0xbb989c18	-0.0046572797
142	0xbbe1f736	-0.006895925
143	0x3ddb39fb	0.10704418
144	0xbab4fa59	-0.001380752
145	0xbb308dc8	-0.0026939977
146	0x3e48d4b9	0.19612397
147	0xba56fffa	-0.00082015956
148	0xbabc0def	-0.0014347414
149	0xbaff2e42	-0.0019468742
150	0xbb5d546d	-0.0033772246
151	0xbb04703e	-0.0020208503
152	0x3d470ff8	0.048599213
153	0x3d768ad3	0.060190987
154	0x3da893d9	0.08231325
155	0xbc0cc073	-0.008590805
156	0xbbd64ba0	-0.006539777
157	0x3e708328	0.23487532
158	0xbab4574b	-0.0013758925
159	0x3e1035ef	0.14083074
160	0x3e26b58f	0.16280197
161	0xbcc481f8	-0.023987755
162	0x3e1989e7	0.14994012
163	0xbaba13a0	-0.0014196523
164	0xbe219542	-0.15779594
165	0xbd9f6c0f	-0.077842824
166	0x3e0e48f6	0.1389502
167	0xbae7a3a1	-0.0017672667
168	0x3dd8292e	0.105547294
169	0xbc23e4ca	-0.010003278
170	0x3e654a2d	0.22391577
171	0x3e0f0873	0.13968067
172	0x3e73276e	0.2374551
173	0xbe1c16a4	-0.15243012
174	0xba2b9f5f	-0.00065468805
175	0xba96de27	-0.0011510298
176	0xbcb2b994	-0.021817006
177	0xbcac0e48	-0.021002904
178	0x3e64e0ca	0.22351375
179	0xba9a923d	-0.001179285
180	0xbc94d6c5	-0.018168816
181	0xbe1278c8	-0.14303887
182	0x3d69318e	0.056932025
183	0x3d60fbdd	0.054927696
184	0x3c7f2264	0.015572164
185	0xbdef2ad4	-0.11678091
186	0x3d91b5b1	0.07114733
187	0xbc96d77b	-0.018413296
188	0xbb86d3d9	-0.0041146097
189	0xba874948	-0.0010321522
190	0xbaadf1f7	-0.0013270964
191	0xbad80482	-0.0016480836
192	0x3d7f38f3	0.06231017
193	0xbd3bd002	-0.04585267
194	0x3c1e5bab	0.00966541
195	0xbc85a5cd	-0.016314412
196	0xbe13f61e	-0.14449355
197	0xbb4efddb	-0.0031584415
198	0xbdc8105c	-0.09768745
199	0x3ce936cb	0.02846851
200	0x3d570193	0.052491736
201	0x3c3e5257	0.011616311
202	0xbafc845c	-0.001926552
203	0x3d2fdb73	0.042933892
204	0xbb504268	-0.0031777862
205	0xbde4dc76	-0.11174862
206	0xbb21269f	-0.002458967
207	0xbb72b2fc	-0.0037032953
208	0x3dd8b654	0.10581651
209	0xba8d9e54	-0.0010804632
210	0xbb08174f	-0.0020765846
211	0xbaa1aad2	-0.0012334234
212	0xbd42a272	-0.0475182
213	0xbce441c8	-0.027863398
214	0x3d0591a9	0.032609615
215	0xba8fe7f0	-0.0010979157
216	0xbb04290d	-0.002016607
217	0x3e0f5954	0.1399892
218	0xbdaf8885	-0.08570961
219	0xbd0dc7ec	-0.03461449
220	0x3e2950f8	0.16534793
221	0x3de3fb6d	0.1113194
222	0x3afcdc4d	0.0019291729
223	0xbe248ae2	-0.16068605
224	0xbcb457d1	-0.02201453
225	0x3cc46a2b	0.023976406
226	0xbc7a944c	-0.015294146
227	0xbd1020cd	-0.03518753
228	0x3db895e5	0.09012965
229	0xbab8aad5	-0.0014088998
230	0xbd622778	-0.05521342
231	0xbd43012b	-0.047608536
232	0xbc1c2b88	-0.009531863
233	0x3b895364	0.004190849
234	0xbb1dcf7f	-0.0024079976
235	0xbba7ede9	-0.0051247966
236	0xbbc169f1	-0.005902522
237	0x3e6334f4	0.22188169
238	0xbab376e5	-0.001369205
239	0xbcb2e09b	-0.021835616
240	0x3e0e8d22	0.13921025
241	0xba8d2cbd	-0.0010770779
242	0xbb75b697	-0.0037492865
243	0x3d22cd39	0.039746497
244	0x3cb09369	0.021554666
245	0xbc211372	-0.009831296
246	0x3ddc5213	0.10757842
247	0xbc757499	-0.014981412
248	0xbcb6bde4	-0.022307344
249	0xbd81447f	-0.06311893
250	0xbd4ec832	-0.05048389
251	0xba9d0e9c	-0.0011982503
252	0x3e004fc7	0.12530433
253	0xbdc32efb	-0.09530445
254	0x3e5b39c7	0.21408759
255	0x3c141b2f	0.009039684

model.6.weight f4 [1, 256]
0	0x3ed7b529	0.42130402
1	0x3e4b57b7	0.1985768
2	0x3a616244	0.00085977116
3	0xbf936f2a	-1.15183
4	0x3db1c5bd	0.08680294
5	0x3e887761	0.2665358
6	0x3ed11d49	0.40842655
7	0xbf19883b	-0.59973496
8	0xc032434d	-2.7853577
9	0x3abd20bd	0.0014429312
10	0x3aee5d26	0.0018185719
11	0x3c019c1a	0.007910753
12	0x3e8add15	0.27121797
13	0xb9958386	-0.00028517487
14	0xbf02b255	-0.51053363
15	0x3c9700d2	0.018433008
16	0xbf297ac2	-0.6620294
17	0x3abd062d	0.0014421396
18	0x397449d9	0.00023297164
19	0xbf8b1f70	-1.0868969
20	0xbf384424	-0.71978974
21	0xc0139aff	-2.3063352
22	0xc0630312	-3.5470624
23	0xbf154d03	-0.58320636
24	0xbb435f68	-0.0029811505
25	0x3f14fc7a	0.5819775
26	0x3bbe116b	0.005800416
27	0x3ebca56c	0.36844957
28	0x3e8366a7	0.25664255
29	0xbf43abcc	-0.76434016
30	0xc018ce00	-2.3875732
31	0xc0178679	-2.3675826
32	0xbfc96224	-1.5733075
33	0x402a4f63	2.6610954
34	0xb86e4c8d	-5.6814915e-05
35	0x3a1fa14c	0.0006089404
36	0xc02766cf	-2.61565
37	0x40169e36	2.3534064
38	0xbf5c2e6f	-0.8600835
39	0x3f1b4b4d	0.60661775
40	0x3f2f3f15	0.6845563
41	0xbfdd60e4	-1.7295194
42	0xbf7f9a09	-0.99844414
43	0x3f35f8c1	0.71082693
44	0xbf44a62c	-0.7681606
45	0x3e7d400c	0.24731463
46	0x3a93cb2a	0.0011275758
47	0x3b3310d5	0.0027323265
48	0xbb710015	-0.003677373
49	0xbfa4806e	-1.2851694
50	0xc073ac11	-3.807377
51	0xbe39544b	-0.18098561
52	0x3f468a58	0.77554846
53	0x3b12d8c8	0.0022407044
54	0x3b0c1a92	0.0021378142
55	0xbb3bf4d0	-0.0028679855
56	0xbfb90f6e	-1.4457834
57	0x3c45ce48	0.012073107
58	0xc070cc97	-3.7624872
59	0xbfe07767	-1.7536439
60	0x3acc8b4a	0.0015605476
61	0xbfe39395	-1.7779413
62	0xbf2f5bfc	-0.6849973
63	0xc06e6ab4	-3.7252626
64	0x3be4f5b1	0.0069872965
65	0x39f2eede	0.00046335807
66	0xbf409eed	-0.752425
67	0xc13033b2	-11.012621
68	0xbc54b473	-0.012982476
69	0xbf28991a	-0.65858614
70	0xc00ec428	-2.2307224
71	0xbf3ba4dc	-0.7329843
72	0xbfe11cd1	-1.7586919
73	0x3c8fdf0e	0.017562415
74	0x399a2a4b	0.0002940468
75	0x3c907222	0.017632548
76	0xc032c0bb	-2.7930133
77	0x3b40ca94	0.002941762
78	0x407304f6	3.7971778
79	0xbb2af179	-0.002608387
80	0x3e0e6e60	0.13909292
81	0xc050cf1b	-3.2626407
82	0xbfc43b19	-1.5330535
83	0x3ae1f67a	0.0017239593
84	0xc01b9d31	-2.4314692
85	0xbf54cb03	-0.8312227
86	0xbf8f2d59	-1.1185714
87	0xc074c35d	-3.824424
88	0x3ae18599	0.0017205953
89	0x3ad7bf6a	0.0016460244
90	0xc0666928	-3.6001682
91	0x3e32caab	0.17460124
92	0xc05ff674	-3.4994173
93	0xb74942c9	-1.1996083e-05
94	0x3b0f4ca9	0.0021865761
95	0x398e1796	0.00027101923
96	0x3f0aac63	0.5416929
97	0x3aef0799	0.0018236517
98	0xbec3219d	-0.38111582
99	0x3e2c5b86	0.16831788
100	0xbf85b21b	-1.0444978
101	0xbf362b61	-0.7115994
102	0x3bcabaf2	0.0061868364
103	0x3a786679	0.0009475719
104	0x39b6f765	0.00034898068
105	0x3eb133e2	0.34609896
106	0x3a5e469b	0.0008479149
107	0x3a72266b	0.0009237292
108	0x3a1e3c3d	0.0006036198
109	0xc118b757	-9.544761
110	0xbb0d473e	-0.0021557356
111	0xbf5bf4f7	-0.8592066
112	0xbb932349	-0.0044902903
113	0x3f0aea74	0.54264
114	0xc11a3e33	-9.640185
115	0x3bd82ba6	0.006597
116	0x39400a0a	0.00018314287
117	0xc03c9db2	-2.947125
118	0xc0f961be	-7.7931814
119	0xbf7cb2ac	-0.9871013
120	0xc028d924	-2.6382532
121	0xbf6f091b	-0.9337327
122	0x3e897d29	0.26853302
123	0xbfb0f331	-1.3824216
124	0xbf83c894	-1.0295587
125	0x401df520	2.4680862
126	0xc0f7d93b	-7.7452674
127	0xc02e583d	-2.7241356
128	0x3c8ae21d	0.016953522
129	0x3a16b7fe	0.0005749463
130	0x3ea723cd	0.326445
131	0xbf07fee6	-0.5312332
132	0xc0783469	-3.8781989
133	0xbfe30a37	-1.7737492
134	0x3ead81ea	0.3388818
135	0xc03308c3	-2.7974098
136	0x3b5778b7	0.0032878348
137	0x3e906901	0.28205112
138	0xba060bc5	-0.0005113448
139	0x3b3d5502	0.002888978
140	0x3e32b433	0.17451553
141	0x3aab0bca	0.0013049778
142	0x3b1ffdb0	0.0024412684
143	0x3e923508	0.28556085
144	0x3b495305	0.003071965
145	0x3aeb0c1c	0.0017932686
146	0x3e670402	0.22560123
147	0xba5fc8b0	-0.00085366797
148	0x3ac1f0c0	0.001479648
149	0x3940856d	0.00018360252
150	0x3af9614b	0.0019026188
151	0x3b098d98	0.0020988937
152	0xbe472cba	-0.19450656
153	0xbe5ec7e9	-0.21755947
154	0xbf908066	-1.1289184
155	0x3aa09cf7	0.001225381
156	0x3a52a92f	0.00080360746
157	0x3e47e678	0.1952151
158	0x37813e3b	1.5406977e-05
159	0x3f9b49d0	1.2131901
160	0x3f1de235	0.6167329
161	0x406087ef	3.5082967
162	0x3e8fd450	0.2809167
163	0x3b8f5f11	0.0043753465
164	0xbe7e4871	-0.24832322
165	0xbf11a030	-0.5688505
166	0x3eb37e9d	0.35057536
167	0x3aa0a1d1	0.0012255256
168	0x3e885659	0.26628378
169	0xc0361136	-2.8448005
170	0x3e368805	0.17825325
171	0x3f9af487	1.2105874
172	0x3e4bee54	0.19915134
173	0x406c096e	3.6880755
174	0x3b473d73	0.0030401617
175	0x3bf95fa5	0.0076102787
176	0xc13d543c	-11.833065
177	0xbb62a7b2	-0.0034584817
178	0x3e35cd71	0.17754151
179	0x393635bb	0.00017376889
180	0xc00eb0a3	-2.229531
181	0xbdb87598	-0.09006804
182	0xbf3b706f	-0.73218435
183	0xbf56dac4	-0.8392756
184	0xbfa54f7b	-1.291488
185	0xc01fb75d	-2.4955666
186	0xbeda1514	-0.42594206
187	0x39c848b0	0.0003820113
188	0x3b263f43	0.0025367297
189	0x3a33a775	0.0006853261
190	0x3aa7c48d	0.0012799666
191	0xbb49fda0	-0.0030821338
192	0xc060dbcd	-3.5134156
193	0xbfd2ce99	-1.6469299
194	0xbf14586d	-0.5794743
195	0x3b8c93f1	0.004290097
196	0xc06e85e5	-3.7269223
197	0x3aa43481	0.0012527854
198	0xbfc11e9e	-1.5087469
199	0x3fe16885	1.7610022
200	0xbfac5c06	-1.3465583
201	0xbfa94e40	-1.3227005
202	0x3b1552a7	0.002278486
203	0xc021f0fe	-2.530334
204	0xbafa303d	-0.0019087862
205	0xbf702fc8	-0.9382291
206	0x3b144308	0.0022622962
207	0x3a9ee293	0.0012121968
208	0x3e8855b0	0.26627874
209	0x3a8a47cd	0.0010549963
210	0xb881def6	-6.192729e-05
211	0x399b94f6	0.00029674888
212	0x409cb4a8	4.897053
213	0x3b524db0	0.0032089762
214	0xc02d4709	-2.7074606
215	0x3a85e5ba	0.0010215559
216	0x3a962144	0.0011454006
217	0x3eb774fe	0.35831445
218	0xc0b3eb16	-5.622447
219	0x3c60d91c	0.013723638
220	0x3f2ca036	0.6743196
221	0x3e11d774	0.14242345
222	0xc02308ea	-2.547419
223	0xc022652f	-2.5374258
224	0x39db09d9	0.00041778272
225	0xbf320ff7	-0.6955561
226	0x3c33bfb5	0.0109709995
227	0x3bb3f218	0.0054915063
228	0xbf894a85	-1.0725867
229	0x3a9aff7b	0.0011825407
230	0xbfd462d2	-1.6592658
231	0xbfb6e98d	-1.4290024
232	0xbf85b154	-1.0444741
233	0xbfe4694b	-1.7844633
234	0x3aacb875	0.0013177531
235	0xbfe54ae0	-1.7913475
236	0x3ae3ddee	0.0017384866
237	0x3e83629a	0.25661165
238	0xbb8b3aaa	-0.0042489367
239	0x3b77527f	0.003773838
240	0x3eb401d8	0.35157657
241	0x39c89993	0.00038261394
242	0x3b9c64bd	0.004772751
243	0xbf446bff	-0.7672729
244	0x404c5c23	3.1931236
245	0x3b0ef274	0.0021811994
246	0x3e892a8a	0.26790267
247	0xc0e2bfed	-7.0859284
248	0xbc1c2db5	-0.009532382
249	0x3ca690ba	0.020332683
250	0xbb9a011e	-0.00469984
251	0x3b4da156	0.0031376681
252	0xc0b3407e	-5.6016226
253	0x40179fa3	2.3691185
254	0x3e279b4e	0.16367838
255	0xbf19e61b	-0.6011674
