Models/Bloom_filter/result/model-dict-95.pt (torch, 533323 bytes, 7 tensors)

model.0.weight f4 [256, 2]
000000 e5 11 fb b9 aa d1 d0 b7 9b 85 49 b9 04 bc 41 38
       -0.00047887783 -2.4893165e-05 -0.00019218626 4.618989e-05
000010 fc 3b 59 39 7d 0d 68 38 ff b4 1d ba 89 21 07 ba
       0.00020717079 5.5325672e-05 -0.0006016045 -0.00051548384
000020 b1 c1 a5 b9 e3 bf 39 ba 95 ac a8 ba e6 34 22 3a
       -0.00031615564 -0.0007085783 -0.0012868816 0.0006187692
000030 40 86 0d bf e6 56 27 bd f9 35 55 38 1a eb fc b9
       -0.55282974 -0.040854357 5.0833423e-05 -0.0004824035
000040 8d 05 99 be e1 37 cb 3e 14 41 9b b9 da 37 0f 39
       -0.29887047 0.3969107 -0.0002961239 0.00013658349
000050 05 1d 47 bd e2 8d eb 3e c6 40 6e b9 ab 70 f9 b8
       -0.04861166 0.46006685 -0.00022721579 -0.00011894231
000060 a1 b0 d7 bf 64 5e 48 3e ed dd 21 b9 d9 7f 03 39
       -1.6850778 0.19567257 -0.0001543683 0.0001254076
000070 71 93 13 b9 1a 96 b2 39 39 24 ab b9 12 21 3d 39
       -0.00014073939 0.0003406264 -0.0003264265 0.00018036764
000080 01 ef d8 ba ca 95 7b 3a ec b5 a6 b9 ff 58 d0 b8
       -0.0016550721 0.00095972104 -0.0003179753 -9.93479e-05
000090 97 e4 9a b9 03 ee 05 39 90 5f 97 b9 f6 8f 06 39
       -0.00029543482 0.00012772535 -0.00028872164 0.00012832865
0000a0 52 34 41 ba 38 87 ed 39 fb a7 80 b9 58 69 07 37
       -0.0007370162 0.00045304908 -0.00024539218 8.071154e-06
0000b0 29 0b a4 b9 e4 48 fc b9 b0 1e 70 be e7 56 40 bf
       -0.00031288833 -0.00048119493 -0.23449206 -0.751326
0000c0 57 2e 48 b9 f3 38 6f 39 55 ec 94 39 f8 98 92 39
       -0.00019090749 0.00022814031 0.0002840484 0.0002796126
0000d0 31 ac f0 b9 66 c7 22 b9 16 85 23 bf cb 28 30 3e
       -0.0004590466 -0.00015523806 -0.6387495 0.17203061
0000e0 f3 f4 78 b9 fe 0e 1b b9 8b 0c 8b b9 93 c4 70 38
       -0.00023742374 -0.00014787537 -0.0002652149 5.7403533e-05
0000f0 3e 0a 2a ba 33 70 11 b9 80 aa 41 3d 23 bf 75 bf
       -0.00064865116 -0.00013870075 0.047281742 -0.95994776
000100 05 b0 b7 3e 9b cc d2 bf 13 4b 8e 3e 69 1a 95 be
       0.3587648 -1.6468691 0.27791652 -0.29121712
000110 7f 1b d3 37 1c 2c b6 ba 70 96 12 39 25 d2 80 b9
       2.5165964e-05 -0.0013898644 0.00013979687 -0.00024570632
000120 29 68 2d 39 ad e6 c3 b9 00 8d 93 b9 fd 4b 52 ba
       0.00016537368 -0.00037365165 -0.00028143078 -0.00080221874
000130 38 c3 98 3e 45 c5 ed 3d 7e d1 81 b9 24 12 1a ba
       0.2983644 0.11609892 -0.0002476088 -0.0005877337
000140 52 71 88 3e 30 a9 e5 bd eb bd 87 3e 6b 27 ae bd
       0.26648957 -0.112139106 0.26512083 -0.08503612
000150 7f 73 29 b9 b2 e2 26 b8 4f c0 8c bb 8a bb 3f bc
       -0.00016160122 -3.978861e-05 -0.004295386 -0.011702428
000160 1a 5b c6 b8 8e d6 fc b9 af 0b aa b9 dd e9 d2 b7
       -9.458345e-05 -0.0004822504 -0.00032433632 -2.5142852e-05
000170 00 42 6c b6 e6 5d 12 b9 a9 49 79 39 4d 21 76 b9
       -3.5205157e-06 -0.00013958625 0.00023773931 -0.00023472794
000180 3c 8d cd 39 39 40 0c 39 1b af 0e 39 da 7d e6 b9
       0.00039205875 0.00013375365 0.00013607407 -0.00043962785
000190 1c e8 ba b8 ab 93 09 b8 67 71 4e ba b0 1a 2d 3a
       -8.912405e-05 -3.2800872e-05 -0.00078751746 0.0006603403
0001a0 5b c1 42 be 81 85 b9 3e 8e 58 77 ba 36 ae e2 b6
       -0.19019072 0.36234668 -0.0009435498 -6.7556057e-06
0001b0 31 51 4c be 33 f0 46 bf 60 03 38 b8 7e e2 13 b8
       -0.19952847 -0.77710265 -4.387216e-05 -3.525847e-05
0001c0 32 1c b1 3e a7 d1 4b 3d f3 9b b5 38 1b 97 f9 b8
       0.34591824 0.049760487 8.6598004e-05 -0.00011901391
0001d0 d3 86 aa b9 76 6d 69 b9 f0 7a 8d 3e da 93 d1 bd
       -0.0003252538 -0.00022261389 0.27632856 -0.102332786
0001e0 48 d9 a6 b7 fa bf f1 37 b5 2f ad b8 b7 2a 03 b9
       -1.9889922e-05 2.8818835e-05 -8.258169e-05 -0.00012509046
0001f0 72 b2 1f 39 a9 12 84 39 07 a5 ea b9 25 c4 39 ba
       0.00015229898 0.00025190905 -0.00044754913 -0.0007086418
000200 94 67 82 b9 59 e6 9e 38 73 0e 9f b9 75 63 b3 b8
       -0.00024872704 7.576933e-05 -0.0003033761 -8.5539104e-05
000210 73 15 2b b9 39 79 11 ba 8e 83 ce be f3 93 26 bd
       -0.00016315821 -0.00055493746 -0.40334743 -0.04066844
000220 3e 3e a7 3e c2 2f 21 be cd aa 88 3e 6a 79 37 3e
       0.32664675 -0.15740874 0.2669281 0.1791741
000230 e1 47 8a b9 76 ee 03 ba f6 5f e3 b8 cb 03 a4 b8
       -0.00026374965 -0.0005032787 -0.000108420776 -7.820836e-05
000240 5b cd 6e b9 f9 83 28 b8 d9 23 9b 37 be 55 48 ba
       -0.0002277395 -4.017723e-05 1.8494133e-05 -0.0007642171
000250 e5 2f 02 b9 cf f7 d2 b8 e6 d4 02 be b4 83 c9 3e
       -0.00012415608 -0.00010059738 -0.12776527 0.39358294
000260 51 14 88 3e 72 fb 7a be 7d 05 5d 3e d8 aa 9e be
       0.26578 -0.24509981 0.21584125 -0.30989718
000270 06 63 14 39 9b 19 02 b8 0a 96 3b b8 fe 9d d4 b8
       0.00014151269 -3.1018262e-05 -4.472401e-05 -0.00010138376
000280 8d 4d 71 38 38 d2 75 b9 4a cd 33 b9 ed 1e 3d b9
       5.7531102e-05 -0.00023443333 -0.00017147246 -0.00018035965
000290 13 11 90 3e 89 9f b1 be 3c dd ec be 72 ca a2 bd
       0.28138027 -0.34692028 -0.46262538 -0.0794877
0002a0 a2 56 56 bf 2e 23 cd be d5 0a 02 b9 fc 86 d1 b9
       -0.8372594 -0.40065902 -0.00012401801 -0.00039964158
0002b0 e7 da 38 bd 67 be 1c bf 2d 4c 6f b9 1d 8e b5 b9
       -0.045130637 -0.6122803 -0.00022821194 -0.00034628893
0002c0 64 77 af b8 9b 0e 38 ba 7e 4c b0 b9 62 af 10 b9
       -8.3668885e-05 -0.00070212194 -0.00033626327 -0.00013798245
0002d0 bd c0 a2 38 59 9c 55 b9 4e 74 89 3e 8d a1 f3 bd
       7.760662e-05 -0.00020371507 0.26846546 -0.11896048
0002e0 ed 53 74 b9 5e a6 80 39 57 a3 91 3e 3e 23 5f be
       -0.00023300918 0.00024538016 0.2844493 -0.21790788
0002f0 d8 91 30 3a bc a2 2d 3a 5e 7e a3 b9 ce f4 34 39
       0.00067355996 0.00066236756 -0.00031183934 0.00017257335
000300 db 98 8f b9 0c ef 42 b9 86 3d 7d b9 ad 07 e5 b9
       -0.00027388972 -0.00018590334 -0.0002415088 -0.00043684003
000310 00 c9 86 3d db ba 29 bf 00 a6 16 b8 7b 6d 50 39
       0.065813065 -0.66300744 -3.5917386e-05 0.0001987721
000320 b1 2e 8f 3e 9a ff 95 be bb 37 3c ba 18 d8 ba 39
       0.2796531 -0.2929657 -0.00071799353 0.00035637687
000330 59 75 62 3e ec d0 d6 be b9 1e c8 b8 60 00 b8 39
       0.22115077 -0.4195627 -9.542466e-05 0.00035095494
000340 a7 d8 56 b9 98 01 47 37 0e 90 51 bd e2 74 a3 3d
       -0.0002048934 1.1861695e-05 -0.051162772 0.07981278
000350 47 7b 90 b9 e8 10 e8 37 52 67 5a b9 4e 07 05 39
       -0.0002755767 2.7664428e-05 -0.0002082859 0.0001268659
000360 c2 cd e5 be 1a 6a bf 3e 23 89 a9 bd 1a e6 88 3d
       -0.44883543 0.37385637 -0.0827811 0.066845134
000370 a4 2e 5a b8 e2 c6 2d b9 cf 7b 9e bc 98 82 09 bf
       -5.2018688e-05 -0.00016572655 -0.019346146 -0.53714895
000380 1c ce c8 b9 0e b1 c5 39 7a 7b 98 b9 e3 52 59 39
       -0.00038300536 0.00037706684 -0.00029083696 0.0002072561
000390 6f ca 36 3e aa f6 29 3e 68 dd 7d b6 0e fd fc b9
       0.1785066 0.16598001 -3.7828813e-06 -0.00048253726
0003a0 f5 60 87 3e 6c 0b 56 bf d2 e0 0c 37 e7 4e a3 38
       0.2644116 -0.8361118 8.396995e-06 7.7871424e-05
0003b0 6b d0 85 b8 31 57 d4 b9 08 dc 4f b9 86 f6 99 39
       -6.380755e-05 -0.00040500754 -0.00019823026 0.00029366108
0003c0 0a 0d 85 b9 7c 19 a3 b7 0e 6e 9a b9 b0 ae 86 ba
       -0.00025377452 -1.9442981e-05 -0.00029455166 -0.001027545
0003d0 51 a1 80 39 df bf 36 ba ca 1f 2b b9 17 50 91 39
       0.00024534253 -0.000697134 -0.00016319673 0.00027716227
0003e0 fc d5 80 3e 09 a0 aa be 05 66 c7 38 69 db 43 ba
       0.25163257 -0.33325222 9.508062e-05 -0.00074713543
0003f0 3d 54 12 3e 50 2d e4 be 03 6f 18 bf fd b5 73 3e
       0.14289947 -0.4456582 -0.5954439 0.23799892

model.0.bias f4 [256]
000000 00 00 00 00 ac 61 75 b9 87 28 17 ba 00 00 00 00
       0.0 -0.00023401406 -0.0005766232 0.0
000010 00 00 00 00 c9 25 a4 b9 92 c4 28 3e 27 68 60 b8
       0.0 -0.0003130867 0.16481236 -5.350276e-05
000020 c5 3c 0c bd 7a f9 b6 b9 e1 32 d7 bd 00 00 00 00
       -0.03423764 -0.0003489962 -0.10507751 0.0
000030 5a 7c 21 3e 86 20 1f b9 76 45 91 b9 08 f4 c6 b9
       0.15770093 -0.00015175538 -0.00027708308 -0.0003794732
000040 c9 ae 80 ba 00 00 00 00 ed d6 b2 b9 98 e3 21 b8
       -0.0009817715 0.0 -0.00034110938 -3.8597354e-05
000050 34 7e 08 b9 32 a1 7e b8 00 00 00 00 7e b8 4a 3e
       -0.00013016985 -6.0708444e-05 0.0 0.1979694
000060 d1 3b 33 b9 ea 20 8c ba 00 00 00 00 09 d1 be 3d
       -0.00017093054 -0.0010690961 0.0 0.09317214
000070 00 00 00 00 b3 20 97 b9 00 00 00 00 cb 70 1e 3e
       0.0 -0.00028825327 0.0 0.15472715
000080 13 d3 80 bc fa d4 48 bd c5 6d a8 b7 f6 9d eb b8
       -0.015725648 -0.049031235 -2.0078276e-05 -0.00011235096
000090 65 cf 14 b9 00 00 00 00 71 f2 68 be 00 00 00 00
       -0.0001419164 0.0 -0.22748734 0.0
0000a0 61 b8 1c be 4e f8 1a be 00 00 00 00 5b 69 26 bc
       -0.1530471 -0.15133783 0.0 -0.010156955
0000b0 f0 05 8c b9 00 00 00 00 00 00 00 00 80 58 a8 b9
       -0.00026707305 0.0 0.0 -0.00032109395
0000c0 15 2f 0b ba 82 a4 34 b9 00 00 00 00 bc 4a c5 b9
       -0.0005309445 -0.00017227422 0.0 -0.0003763045
0000d0 35 22 51 bd 00 00 00 00 dd 48 50 3e c7 64 5f 36
       -0.051058013 0.0 0.20340295 3.328825e-06
0000e0 e8 47 17 be 34 ca 92 b8 00 00 00 00 ef 43 28 be
       -0.14773524 -6.999486e-05 0.0 -0.16432165
0000f0 46 0f 5c b8 00 00 00 00 c6 eb d4 b9 d8 52 a4 b9
       -5.2466312e-05 0.0 -0.00040611456 -0.0003134224
000100 7d b7 88 b8 00 00 00 00 48 dd fe b6 f5 81 0c 3e
       -6.519163e-05 0.0 -7.5955504e-06 0.1372145
000110 cb 00 83 bd bd 58 42 be 00 00 00 00 00 00 00 00
       -0.063966356 -0.18979163 0.0 0.0
000120 dc fb 60 b9 75 64 7a b7 00 00 00 00 fb 0e fd bd
       -0.0002145613 -1.4924551e-05 0.0 -0.12356373
000130 ba 17 85 bd e3 9f 46 3c 24 3e 07 b9 00 00 00 00
       -0.06498666 0.012123081 -0.00012897752 0.0
000140 f4 d9 41 b8 00 00 00 00 69 8f 1e bd 2c 9a 1b 3e
       -4.621777e-05 0.0 -0.038710985 0.1519553
000150 c3 90 6b 3e 00 00 00 00 44 5d 24 3e 00 00 00 00
       0.23004441 0.0 0.16051203 0.0
000160 00 00 00 00 00 00 00 00 91 f9 c2 b8 08 67 1c be
       0.0 0.0 -9.297126e-05 -0.15273678
000170 47 9d a4 b9 62 ff c2 bd 15 a5 1b bb 57 2d 6e b8
       -0.00031397698 -0.09521367 -0.002374952 -5.6785848e-05
000180 00 00 00 00 00 00 00 00 12 e7 19 3e b9 97 45 b9
       0.0 0.0 0.15029553 -0.00018843905
000190 6f 51 49 bd ba e6 52 b9 98 4d 6b 3b b6 6b a2 b9
       -0.049149927 -0.00020113113 0.0035904404 -0.000309793
0001a0 6c e3 5d b8 c6 4a 5f bd ba 3d e2 b7 04 5c 1c b8
       -5.290231e-05 -0.05451467 -2.6970043e-05 -3.7278995e-05
0001b0 7a c2 09 3d 5e 4b 2f bd bb d8 15 37 bb 8d 7b 3e
       0.033632733 -0.042796485 8.931554e-06 0.24565785
0001c0 97 c7 f4 b9 d0 39 b6 b9 57 64 70 be 00 00 00 00
       -0.00046688013 -0.0003475682 -0.23475777 0.0
0001d0 c4 2c da 3c ec de b4 b8 15 cb d1 36 9a 80 ab b9
       0.026632674 -8.624591e-05 6.2523272e-06 -0.00032711477
0001e0 10 13 54 b9 da 99 23 b9 85 f4 4d b9 e9 e3 5b b9
       -0.00020224997 -0.00015602206 -0.00019641414 -0.0002097037
0001f0 95 41 20 3c ae fa 9f b8 c4 88 1b 3e d7 40 45 3d
       0.009781261 -7.6284035e-05 0.1518889 0.04815754
000200 00 00 00 00 d8 57 80 be 00 00 00 00 00 00 00 00
       0.0 -0.2506702 0.0 0.0
000210 d9 fe 09 3d 45 ea c3 bd ea aa fd b9 00 00 00 00
       0.033690307 -0.09566168 -0.0004838326 0.0
000220 e0 9f fa b8 f2 a6 85 ba c8 4b 4c 3e a2 a7 38 3e
       -0.00011950708 -0.0010196848 0.19950783 0.18032697
000230 ca 35 da b8 be 90 52 38 00 00 00 00 79 68 86 b8
       -0.00010405069 5.0202703e-05 0.0 -6.4090775e-05
000240 3a 90 c4 b7 85 5c a7 b9 b3 db 03 ba 00 5c 87 bd
       -2.3432181e-05 -0.00031921655 -0.0005029991 -0.066093445
000250 00 00 00 00 9f 99 1e b8 a4 b0 53 be 00 00 00 00
       0.0 -3.7813206e-05 -0.20672852 0.0
000260 ff e4 18 b8 00 00 00 00 00 00 00 00 f7 f1 6e be
       -3.6452893e-05 0.0 0.0 -0.2333449
000270 f7 2e 9e b9 53 71 ac b8 e2 c7 28 3e 54 14 12 3e
       -0.000301711 -8.2227074e-05 0.16482499 0.14265567
000280 91 95 0f b8 4d d2 7d bd 7a 1b 97 bd ae b2 5b b8
       -3.423315e-05 -0.061968137 -0.073782876 -5.2380077e-05
000290 84 c9 51 be 34 22 4a be 00 00 00 00 7a fe 0c 3e
       -0.20487028 -0.1973961 0.0 0.1376895
0002a0 eb 44 25 b9 eb 99 45 bd 7c 85 c2 b9 00 00 00 00
       -0.000157613 -0.04824249 -0.00037102017 0.0
0002b0 b1 a0 e3 b8 00 00 00 00 00 00 00 00 75 d2 1b be
       -0.000108541346 0.0 0.0 -0.15217002
0002c0 f1 4f 40 b9 1a 52 80 be 00 00 00 00 de 0e 50 ba
       -0.00018340327 -0.2506264 0.0 -0.00079367857
0002d0 42 aa c3 b9 c7 82 49 38 00 00 00 00 00 00 00 00
       -0.0003732015 4.804393e-05 0.0 0.0
0002e0 3c ce 85 3e 49 59 98 b9 db 4f 9f b9 74 80 4e bb
       0.26133907 -0.00029058222 -0.0003038634 -0.003150967
0002f0 6b 83 4b 3e 2a ce eb b8 67 b0 85 bd 4d fa c5 b9
       0.1987435 -0.00011244074 -0.06527787 -0.00037761257
000300 5b 30 10 bd 00 00 00 00 e8 90 5d ba e7 6a 32 be
       -0.035202365 0.0 -0.00084520737 -0.17423593
000310 00 00 00 00 00 00 00 00 96 24 8c b8 4d e4 79 3d
       0.0 0.0 -6.682535e-05 0.06100874
000320 81 55 4d bc ce 7e 7d 3d 00 00 00 00 af b4 0e 3e
       -0.012532593 0.06188851 0.0 0.13936113
000330 00 00 00 00 d0 df 97 b8 8f f0 d9 b7 00 00 00 00
       0.0 -7.2419294e-05 -2.5980435e-05 0.0
000340 00 00 00 00 00 00 00 00 6d 91 97 b9 06 b9 a8 b9
       0.0 0.0 -0.00028909315 -0.0003218131
000350 fe c4 ad b8 00 00 00 00 00 00 00 00 00 00 00 00
       -8.2859755e-05 0.0 0.0 0.0
000360 6e d9 6b be 8f 57 d9 bd 76 c6 a9 b9 de 95 b5 b8
       -0.23032162 -0.106124036 -0.00032382057 -8.6586675e-05
000370 50 4d 51 b8 00 00 00 00 00 00 00 00 4b 3a ce b7
       -4.9901486e-05 0.0 0.0 -2.4584258e-05
000380 00 00 00 00 1f a3 0d 3e ea 1f 51 ba 5f 96 4b be
       0.0 0.13831757 -0.0007977473 -0.19881581
000390 5a ce 55 b8 00 00 00 00 73 79 39 3e 3d 3c 4e 3e
       -5.0975337e-05 0.0 0.18112735 0.20140167
0003a0 3e c0 a8 38 f8 68 a1 3e 65 d4 12 bd de 75 21 bb
       8.046672e-05 0.31525397 -0.035847086 -0.0024636905
0003b0 00 00 00 00 ef 9e d8 bc 1e f6 44 3d 18 98 29 be
       0.0 -0.026442973 0.04808628 -0.16561925
0003c0 a2 c4 04 b9 0d fc 95 bc 98 47 12 b9 00 00 00 00
       -0.00012661752 -0.018308664 -0.00013950316 0.0
0003d0 cb 02 01 3d 00 00 00 00 c0 7b 5c 38 fe 83 fc b9
       0.031496804 0.0 5.256734e-05 -0.00048163527
0003e0 55 32 18 3c 6f d5 84 36 8c d8 6d bd 25 5c 2e be
       0.009289344 3.9587535e-06 -0.058067843 -0.17027338
0003f0 c7 82 16 3e bd 11 6f b9 13 4b 17 bc db 85 ec b9
       0.14698325 -0.00022799424 -0.009234208 -0.00045113158

model.2.weight f4 [256, 256]
000000 03 61 92 39 7e e8 21 b9 be ed af b8 69 ed ad b9
       0.0002791957 -0.00015440767 -8.388933e-05 -0.00033174016
000010 6b 7c c0 b9 7a 0d d1 b9 4d b1 24 bf be 80 bc b8
       -0.00036713792 -0.00039873627 -0.6433304 -8.988519e-05
000020 ae a9 ba 3e 79 f0 3a b9 20 e0 9d bc 04 fc ec b8
       0.3645758 -0.00017827925 -0.01927191 -0.000113002985
000030 9b 90 f9 36 7d 07 39 37 2f 6c 92 39 39 21 0a b9
       7.4376126e-06 1.1028603e-05 0.00027927893 -0.00013173082
000040 a0 bc 4c ba 02 19 16 ba ce 8f 34 b9 6f 8f 54 39
       -0.000781009 -0.00057257724 -0.00017219709 0.00020271329
000050 4f ea 17 39 0b e6 55 39 bf 7f 82 36 80 2d 5d 3d
       0.00014487769 0.0002039896 3.8891735e-06 0.05399847
000060 e9 04 c1 39 cf 22 8f bb 4a fd 34 39 e3 8a 46 be
       0.00036815487 -0.004368163 0.00017260495 -0.19388919
000070 a3 13 ce 38 59 9c 55 38 90 d3 e4 b7 16 45 ec 3d
       9.826503e-05 5.0928767e-05 -2.7278234e-05 0.115366146
000080 b2 f8 09 c0 fa e5 38 bf fe 36 38 39 d0 f6 42 38
       -2.1558042 -0.72225916 0.00017568094 4.6483066e-05
000090 80 76 a0 38 b7 6e 65 39 a8 7a 1b 3f 44 fb 72 b9
       7.651467e-05 0.00021880386 0.60734034 -0.00023172522
0000a0 f5 cd 0b 3a f1 5b 35 3a 8c 56 c3 38 a9 fc 5a 3b
       0.0005333119 0.00069183024 9.314445e-05 0.0033414757
0000b0 6f 9f 20 b9 3d ad 65 37 99 b6 af 39 43 79 6e 37
       -0.00015318183 1.3689799e-05 0.00033514647 1.4214139e-05
0000c0 fc d0 31 39 ed 5e 78 39 28 c8 75 37 64 77 90 38
       0.00016957888 0.00023686486 1.46497405e-05 6.888693e-05
0000d0 67 d2 77 3e d4 f1 fa 36 40 7a 17 3e a8 b9 ea 39
       0.24201356 7.478733e-06 0.14792728 0.00044770283
0000e0 5e e3 42 bf 8d ac 79 37 7c 85 c2 b8 5a 5b fc b9
       -0.76128185 1.4881732e-05 -9.275504e-05 -0.00048133248
0000f0 3b bf 07 39 0d 8e 9c 39 31 53 7a b8 e6 e6 56 b9
       0.00012945842 0.00029860475 -5.9682123e-05 -0.00020494647
000100 1d 9b 14 3a 62 ab 69 38 87 09 00 ba 19 5d f1 be
       0.00056688656 5.571114e-05 -0.0004884232 -0.4714134
000110 dd cb 99 3d 27 66 9c bf 84 10 9b b7 c1 f1 59 b9
       0.07509587 -1.2218674 -1.848513e-05 -0.00020784793
000120 82 8b 03 b9 43 a2 32 3a f9 67 f9 38 61 c9 81 3e
       -0.00012545104 0.000681434 0.00011892612 0.25348952
000130 99 32 6e bf 54 98 98 3e bb 10 bd b9 9c 67 9c 39
       -0.93045956 0.29803717 -0.00036061354 0.00029831834
000140 ac ce 4c 39 75 bb a5 39 b2 37 09 bf 25 b3 1c bf
       0.00019531947 0.0003161092 -0.5360061 -0.6121085
000150 a9 13 07 c0 8b 35 b0 39 7b 40 80 3e 65 1d 49 b9
       -2.110575 0.0003360923 0.25049195 -0.00019179804
000160 75 01 44 39 2f ba 94 38 4b c5 19 3a a5 a6 62 39
       0.0001869256 7.091869e-05 0.0005865886 0.0002161512
000170 c3 ea 32 3a fd 87 e7 bf 5b 3c fa bb 7f ec a2 b9
       0.00068251434 -1.8088375 -0.0076365895 -0.0003107525
000180 3c ee c2 b8 ff 29 c4 39 e9 ad a4 3e 83 a7 8d 39
       -9.2950155e-05 0.00037415323 0.32163933 0.00027018422
000190 69 0a 40 bf 42 a6 3e ba bc 83 95 be 27 7d 91 b8
       -0.75015885 -0.0007272699 -0.29202068 -6.93745e-05
0001a0 0b 27 0f 39 b0 6f 44 3d 6f 13 69 b8 b6 b6 3f 37
       0.00013652087 0.047958076 -5.5569628e-05 1.1427028e-05
0001b0 4d 4e da 3e 8a 82 30 3d aa 10 99 b8 d7 cd 45 3e
       0.42637864 0.04309324 -7.2987124e-05 0.19316803
0001c0 e8 aa c2 b8 38 ee 13 3a dd ee 41 3f 5c fa de 38
       -9.282475e-05 0.00056431023 0.757551 0.00010632418
0001d0 7e 11 7a be be 82 a0 39 2a 02 32 39 28 e3 4a 3a
       -0.24420735 0.0003061499 0.00016976209 0.00077395374
0001e0 5c ea 3e b9 2f a4 74 3a fc c5 2a 3a 2e ef e7 b8
       -0.00018207118 0.00093323266 0.00065144873 -0.00011059489
0001f0 24 e3 8e 3e 1f 8f d8 39 af e2 c8 3d 7a 97 b4 be
       0.2790767 0.00041305364 0.098088615 -0.35271817
000200 2d 2b 60 b9 c3 60 28 3f 70 3c d1 38 f1 c6 84 b9
       -0.00021378389 0.65772647 9.977154e-05 -0.00025325225
000210 dc bb 81 be 75 4f 0c c0 3f 2e 91 3a 20 ee 93 38
       -0.25338638 -2.1923497 0.0011076404 7.0538605e-05
000220 06 25 00 b8 d1 e8 7d 3a 87 02 85 3d 4a e6 ac 3e
       -3.055206e-05 0.00096858764 0.06494623 0.33769447
000230 6a 2b 80 3a eb cc ad 39 94 21 3d b8 41 77 e0 b7
       0.0009778563 0.00033149807 -4.5092384e-05 -2.6758413e-05
000240 08 41 8c b9 16 0b 27 b9 db 3c 83 b9 cb 70 9e 3e
       -0.00026751333 -0.00015930491 -0.00025031608 0.3094543
000250 5a ef 4e b8 35 20 07 39 8e 3c 2c 3f 33 c5 2b 39
       -4.933714e-05 0.00012886601 0.672799 0.00016381293
000260 ec 13 05 b9 bf b4 37 39 9f 95 ee b9 8a 65 61 3f
       -0.0001269129 0.00017519573 -0.00045506374 0.8804556
000270 7d b9 20 3a e9 f4 6a b9 30 7a 24 bf 24 cb f9 be
       0.00061311555 -0.00022407215 -0.64248943 -0.48787796
000280 e6 31 0d b7 2e eb c0 3d 47 52 0f 3f b9 6e a4 b9
       -8.415873e-06 0.09419857 0.5598492 -0.00031363012
000290 b9 f3 62 be 3e 2b 19 3f 43 63 f3 b8 0a 3e f2 be
       -0.22163285 0.5983161 -0.00011605632 -0.47312957
0002a0 66 9d 22 3a 0d c2 38 bf 71 af 33 b9 b0 f7 63 b9
       0.0006203264 -0.721711 -0.00017136127 -0.00021740678
0002b0 60 0d 99 b8 c9 9c bf 38 02 63 58 b9 94 a4 8d 38
       -7.2981e-05 9.136793e-05 -0.00020636249 6.754059e-05
0002c0 1b ec 9a 38 41 b9 28 3f 6a 8b 07 39 a5 6b 6c ba
       7.38727e-05 0.65907675 0.00012926539 -0.0009018726
0002d0 e5 68 89 38 38 a2 11 3a 5e f3 45 39 e6 1e 61 39
       6.552207e-05 0.00055554835 0.00018878045 0.00021469183
0002e0 6d 73 78 3e 2d 51 93 3a 71 e9 25 3a ec e8 14 ba
       0.24262781 0.0011239402 0.0006329036 -0.000568046
0002f0 06 48 cc 3e 4b 91 22 b9 b8 3f 1e bf d2 37 8b 39
       0.398987 -0.0001550365 -0.6181598 0.00026553735
000300 1e 67 88 3e 98 b7 38 ba 39 63 e7 b9 03 6b bb bd
       0.26641172 -0.00070464006 -0.0004413368 -0.0915127
000310 62 43 74 b9 08 ac 9f 39 fc 00 7e b9 6a 17 5a bf
       -0.00023294755 0.00030455017 -0.00024223694 -0.8519198
000320 02 a6 84 3e 8e 47 51 bf ed 50 de 38 67 e8 4e 3e
       0.25907904 -0.8174981 0.000106008585 0.20205842
000330 8b 9b 64 b9 7e 5a 93 39 78 ac 58 39 73 23 b3 b9
       -0.00021801719 0.00028105447 0.00020663615 -0.00034167952
000340 7d 3a 09 b9 97 69 04 b9 60 56 8a 3a a2 88 87 ba
       -0.00013087127 -0.00012627836 0.0010554306 -0.0010340402
000350 67 45 92 38 b2 8f 66 39 dc a6 0b b9 7c 9d 46 b9
       6.97475e-05 0.0002198804 -0.00013318233 -0.00018941419
000360 a9 07 55 3f 16 73 90 bc 2a 95 ba b8 cd 4a 87 b9
       0.83214813 -0.017633002 -8.896955e-05 -0.00025804937
000370 ec 63 d2 39 50 a7 47 b8 9f 12 e5 b9 40 d4 ac b9
       0.0004012877 -4.760112e-05 -0.00043692157 -0.00032964535
000380 22 ef c7 b9 92 8e f0 be 46 83 16 bb a4 ff 16 bf
       -0.00038134406 -0.46983773 -0.0022966429 -0.58983827
000390 37 e6 c7 b8 68 f7 a3 38 1c 01 ae 3e 2b 60 78 3e
       -9.53194e-05 7.818529e-05 0.3398522 0.24255435
0003a0 12 fc 8d 3a 93 7d 1b 3e dc d6 bb 3e b6 eb 33 bb
       0.0010832569 0.15184622 0.36687362 -0.0027453727
0003b0 49 f5 69 b7 e9 76 6f 3e 9f 5c 43 bc 1e 4a 8e bf
       -1.3944992e-05 0.23385204 -0.011923938 -1.1116369
0003c0 83 b4 80 b8 d0 eb d3 3b 7a b8 8e b8 27 09 00 38
       -6.1371386e-05 0.00646732 -6.805449e-05 3.0526102e-05
0003d0 67 67 f6 bb 07 33 81 b8 4d 4b cb b7 97 5b af 38
       -0.0075196507 -6.160704e-05 -2.423455e-05 8.36171e-05
0003e0 4a fb 8d 3e 2f d6 47 3a 7f c9 5a bf b9 d5 f4 b9
       0.2773078 0.00076231634 -0.8546371 -0.00046698542
0003f0 d0 f3 19 bf fb 28 2e 39 85 0d a1 3e f5 41 3a b8
       -0.60137653 0.000166092 0.31455627 -4.4407283e-05

model.2.bias f4 [256]
000000 79 01 c5 bd 1f df 75 b9 28 a8 26 bb bc b2 34 bc
       -0.096194215 -0.0002344814 -0.0025429819 -0.011028942
000010 80 28 4f bd 20 5a 94 3d 8e b3 73 bd a4 26 9a 3d
       -0.050575733 0.072437525 -0.05949741 0.07526901
000020 7c b7 cb ba 45 29 89 bd a8 e5 2f b9 18 9f 9d be
       -0.0015542354 -0.06697325 -0.00016774854 -0.3078544
000030 b9 7c 18 b9 7c 4f f7 3c 79 f4 e6 b8 36 f4 56 bc
       -0.00014542312 0.030189268 -0.00011012791 -0.013119748
000040 eb 5b 53 b8 bf c6 2f b9 68 6c 8c be 88 0f be be
       -5.0391925e-05 -0.00016763339 -0.27426457 -0.37121224
000050 ba fe f4 3c eb a2 83 be ad 90 44 b9 1d bf ac ba
       0.02990662 -0.25710234 -0.00018745913 -0.0013179515
000060 a2 13 db bd 07 83 8a bd 53 d7 9d 3b 95 67 b6 b9
       -0.10697104 -0.06763273 0.0048169284 -0.0003479092
000070 cb cf de bd bf 5e 7e be e7 c6 7e bd 5c ba b5 bc
       -0.10879477 -0.2484083 -0.062201407 -0.02218359
000080 b5 bc 1d b9 c5 10 34 b9 22 e2 7d 3b ff 46 8a be
       -0.00015042986 -0.00017172385 0.0038739522 -0.2700729
000090 78 88 39 b9 d1 b4 b6 b9 e1 56 a9 b9 26 01 1e 3e
       -0.00017693813 -0.00034848464 -0.00032298922 0.15430126
0000a0 60 41 96 3d e4 ee 4c ba fe 20 9a be 39 7a c4 3d
       0.07336688 -0.000781758 -0.30103296 0.095936246
0000b0 61 6a 11 b9 41 46 9a ba fb f3 4c b9 86 ed 16 ba
       -0.00013867907 -0.0011770205 -0.00019545846 -0.00057574396
0000c0 99 16 c6 3d 7b 30 07 bb d9 19 c8 bd b1 eb 84 bc
       0.09672279 -0.0020628262 -0.09770555 -0.016225668
0000d0 f4 4c 18 be 08 87 ca be c7 e5 12 be e4 00 8f b9
       -0.14873105 -0.39556146 -0.14345466 -0.0002727575
0000e0 35 0e 89 be b2 3a 57 b9 d0 37 cb 3d 5a d8 1e bd
       -0.26768652 -0.00020525864 0.09922755 -0.038780548
0000f0 ae 8c 20 b9 a2 91 75 bd 3c 55 89 bd b9 bb b5 bb
       -0.00015311196 -0.05995334 -0.0670571 -0.00554606
000100 f4 01 83 b9 fd 04 05 3e e7 83 96 3d 02 07 a0 be
       -0.00024987722 0.12990184 0.07349377 -0.31255347
000110 40 7c 12 3c b1 a0 fc bd ce e1 8a be a5 62 36 b8
       0.008940756 -0.12335337 -0.271254 -4.348405e-05
000120 58 0d d0 3d ec 2d 1e be 8d e6 a2 3d 1d 01 20 b9
       0.10158795 -0.15447205 0.0795413 -0.00015259204
000130 e3 03 17 be d1 e8 49 3c 7d 5a 44 b9 51 53 ce 3d
       -0.14747576 0.012323574 -0.00018725726 0.10074485
000140 7e a8 8a be 1c ef 8c bd 3c 3c ed bd e9 4f 1d b9
       -0.27081674 -0.06881544 -0.115837544 -0.00015002456
000150 08 d0 d6 b8 cb bc 28 bc 2a 5b 28 b9 d5 e4 88 bc
       -0.00010243064 -0.010298918 -0.0001605569 -0.016710678
000160 c0 ed 74 bd b6 ad b7 b8 a7 55 bb 3c c5 bb a2 bb
       -0.05979705 -8.758476e-05 0.02286799 -0.0049662315
000170 3d 0b 17 3d e9 ba 5a bd 73 d6 b8 b9 58 ef bd bd
       0.036875952 -0.053400908 -0.00035254992 -0.09274167
000180 55 87 b1 b8 52 3c 75 be 6e 79 0f b9 c2 da 8c bd
       -8.465225e-05 -0.23948792 -0.00013682779 -0.06877662
000190 d8 12 9f be 64 2f 14 b8 e4 53 e8 3d b3 ea 83 b9
       -0.31069064 -3.5330086e-05 0.11344126 -0.00025161132
0001a0 88 ae df b8 9c ca 2d bc 03 88 87 3d 86 bb d4 3d
       -0.000106659776 -0.010607388 0.06617739 0.1038733
0001b0 42 1d 70 be d3 30 e1 bd 86 e5 c8 3d 09 27 79 bd
       -0.23448661 -0.109956406 0.09809403 -0.060828242
0001c0 71 44 5b 3d 4e 11 2c 3d c9 a3 97 bc 35 13 8b ba
       0.053532068 0.04200869 -0.018510716 -0.0010610583
0001d0 c8 46 a4 be d4 5e 47 ba c8 13 b3 bd 35 03 7a b9
       -0.32085252 -0.0007605378 -0.08744007 -0.00023843053
0001e0 0e 8d 3f be be 8c 64 b9 bc 21 e1 bb f0 5a 82 b9
       -0.18706152 -0.00021796205 -0.0068704765 -0.00024863286
0001f0 e3 cf 03 b9 57 e0 ad be 7e a2 d0 3d 45 de 96 be
       -0.00012570577 -0.3396022 0.10187243 -0.29466453
000200 d0 b8 bf bb a7 f4 c5 b9 91 4e e1 bd b1 58 1e be
       -0.005850889 -0.00037757048 -0.110013135 -0.1546352
000210 59 33 1a be 2c e8 c4 bd 21 0f ec bd 7c 6a 75 bc
       -0.1505865 -0.09614596 -0.11526323 -0.014979001
000220 99 74 9c be 05 c8 44 bd fb ef f4 bd ae fd 94 b9
       -0.30557707 -0.048042316 -0.11959835 -0.00028417766
000230 2d 82 07 3e 14 ee 29 be 7d 70 bf b9 5a ad 3b b9
       0.13233252 -0.16594726 -0.0003651417 -0.00017898288
000240 ec 7a 3c bd a9 a7 21 b9 d3 65 8a 3d 8d 75 43 3e
       -0.046015665 -0.00015416615 0.06757703 0.19087811
000250 84 0f 9d bd 8f e2 32 b9 83 88 9c bd 98 5d 25 b9
       -0.07668975 -0.00017059802 -0.07643225 -0.00015770493
000260 60 b8 ba bd 5b 9b c9 bb 5f 34 3f 3e f9 c6 14 b9
       -0.09117198 -0.006152553 0.18672322 -0.00014188503
000270 a1 ee 05 3e b8 7c d3 b9 31 44 57 be fa 1c 9a b9
       0.13079311 -0.0004033798 -0.21022107 -0.00029394758
000280 b0 84 57 b9 b6 89 e1 bb ad 53 36 3d c3 5f bc b9
       -0.00020553428 -0.0068828715 0.044513393 -0.00035929502
000290 61 6f f4 bd ef b2 3b b9 c2 1f 43 bc 29 47 95 3d
       -0.11935306 -0.00017900368 -0.011909427 0.07288963
0002a0 03 2d ce bc da ed 2c 3a 7e f6 d3 ba a1 fe 22 bd
       -0.025167948 0.0006596722 -0.0016171483 -0.039793614
0002b0 15 9a 73 bd b3 d4 66 be 42 7a 32 ba 92 f1 44 3e
       -0.059473116 -0.22542076 -0.0006808379 0.19232777
0002c0 37 0f 9a be c6 54 50 bc 7b fe dc bc 8e 89 e3 bd
       -0.30089733 -0.012715524 -0.026976814 -0.11110221
0002d0 d4 dc d0 3d 41 3b f2 bd 34 a2 44 b9 11 75 09 be
       0.101983696 -0.11827708 -0.00018752442 -0.13423564
0002e0 68 5f ad b9 fa 48 92 3c 4a b5 cc b8 fe 53 73 3d
       -0.00033068215 0.017857064 -9.761246e-05 0.059406273
0002f0 85 61 9b b8 f2 46 ac 3d 4e 5b 7a 3d 0b cd 51 3e
       -7.4091404e-05 0.08411969 0.06112223 0.20488374
000300 38 a1 63 3d da 5f fc b8 7a 01 0a be 7e c1 ad bd
       0.055573672 -0.0001203415 -0.13477126 -0.08484171
000310 d7 2c cf 3d e2 7d 63 3d ce cd 5d 3d ca 69 7b b9
       0.101159744 0.055539973 0.05415135 -0.00023976635
000320 11 5f a3 3d 23 88 24 b9 d1 b6 0c b9 b4 78 c7 3d
       0.07977117 -0.00015690974 -0.00013419545 0.09739819
000330 bb 63 58 3c d5 17 f2 3d 05 9b 6e be ee 0c f8 3c
       0.013207371 0.11820952 -0.23301323 0.030279603
000340 5a 56 55 be 51 a4 75 be 96 da 9d b9 73 b3 96 b9
       -0.20833722 -0.23988463 -0.00030108233 -0.0002874393
000350 8e 74 a5 3d 67 c5 53 be 35 10 ed ba e1 02 73 be
       0.08078872 -0.20680772 -0.0018086495 -0.23731567
000360 17 1f 27 ba af 1d da b8 ed a4 6f b9 11 f2 1c 3a
       -0.0006375177 -0.00010400579 -0.00022854256 0.00059869984
000370 2d 37 9f ba fc d2 fc b8 cc 26 48 be 5c 86 cf b8
       -0.0012147181 -0.00012055595 -0.1954605 -9.8955556e-05
000380 e1 38 ba 3d 29 00 9d bd 24 8e 77 bd f1 eb 15 ba
       0.0909288 -0.07666046 -0.06043829 -0.0005719057
000390 eb df 61 3d 1c e5 cd b9 14 c0 53 be 74 06 ac ba
       0.055145185 -0.00039271347 -0.2067874 -0.0013124482
0003a0 6e ee 39 b9 2d 41 a9 3d b3 72 0d b9 1f 8f ad be
       -0.00017731797 0.082643844 -0.00013489537 -0.33898255
0003b0 63 03 57 be 7a 66 9a bd 5c ea b8 ba 36 e0 63 ba
       -0.20997386 -0.07539077 -0.001410793 -0.0008692773
0003c0 ca 66 26 be cd e0 fd bd 6a bf 29 3d 3d 5e 22 bd
       -0.16250148 -0.12396393 0.041442312 -0.039640654
0003d0 a3 bf 78 3d 97 72 9c ba 7f 44 27 be cf d6 b4 be
       0.060729634 -0.0011936006 -0.16334723 -0.35320136
0003e0 42 72 fc 3d 4e 25 ab b9 a8 ad 70 3e 2d bb e4 b8
       0.123264804 -0.00032643456 0.23503745 -0.000109067514
0003f0 c4 1e 30 3e 62 b0 c3 ba 2d 66 1a b9 fa e8 04 3c
       0.17199236 -0.0014929886 -0.00014724648 0.008112187

model.4.weight f4 [256, 256]
000000 74 85 08 bf 23 cb 10 39 86 4e 62 39 f3 b8 ee 3d
       -0.53328633 0.00013808584 0.00021582292 0.1165637
000010 27 c4 61 be 5c 4c 0f be 98 5d 05 be 73 12 be bd
       -0.22047482 -0.13993973 -0.13023984 -0.09280863
000020 78 36 06 ba 6c e2 31 be 42 22 c3 b9 85 65 b1 ba
       -0.0005119811 -0.1737153 -0.00037218822 -0.0013534283
000030 07 d0 f5 b9 8d c8 8a 3e df 7f ae b9 9d 5c e4 bd
       -0.00046885034 0.27106133 -0.00033283138 -0.11150477
000040 6d c0 83 b6 c0 5f cf 39 0b d5 16 ba 47 76 36 3e
       -3.9265055e-06 0.00039553456 -0.0005753792 0.17818557
000050 2f 1f 68 3e 86 f6 8d c0 70 db f7 b8 5c 6f bd 39
       0.22668146 -4.436343 -0.00011818751 0.00036131858
000060 63 36 ce 3e 32 cd 2f be 56 c7 04 bf 93 bf 8e 39
       0.4027587 -0.1716812 -0.5186666 0.00027227085
000070 3b 6c b1 3c ab e2 f3 3d e2 03 d4 3d ee fd ed bd
       0.021658054 0.11908468 0.10352303 -0.11620699
000080 fd 35 fe b7 5c a1 24 39 17 d8 51 bd 37 63 b3 3d
       -3.03043e-05 0.0001570037 -0.05123147 0.08759158
000090 b5 a4 22 38 7d 09 3c 39 19 a9 31 b9 6c 02 11 3e
       3.8777205e-05 0.00017932612 -0.00016943029 0.1416108
0000a0 fa d5 c5 3d 90 9a 2c ba bf e4 ae 3d 74 ab 0e be
       0.096599534 -0.0006584311 0.085397236 -0.13932592
0000b0 57 67 90 38 7c 9e 5b 3a 63 58 a3 39 72 a7 5b 39
       6.8857036e-05 0.0008377803 0.00031155636 0.00020947846
0000c0 e7 a6 6f bd f2 ae fc 3d fc 99 58 be eb 18 25 3f
       -0.05850878 0.12338056 -0.2115249 0.64491147
0000d0 10 3d 11 bd 46 a8 4b bc 6b 21 b0 bd b0 2e 46 39
       -0.035458624 -0.012430256 -0.08600124 0.00018900144
0000e0 b6 f3 a9 3d cb ea f3 b9 ea cd d6 3c 8c e3 f7 3d
       0.08298437 -0.00046523506 0.026221234 0.12103948
0000f0 b2 ed 2c 39 b9 12 af 3c e9 2e 39 3e 8c fb b1 3e
       0.00016491747 0.021371232 0.18084301 0.34762228
000100 09 b0 1d 3a 2c 69 84 3d 81 c8 ae 3d 90 7b c7 3e
       0.0006015306 0.064653724 0.08534337 0.38961458
000110 f3 da 03 3e b5 7f d7 3e 98 42 22 3e f5 ba 70 39
       0.12876491 0.4208962 0.15845716 0.0002295783
000120 74 77 e2 bd 71 bd 3b 3e 5f e8 6a 3e a5 73 14 39
       -0.1105794 0.18333985 0.22940205 0.00014157461
000130 8f c6 21 bd 85 25 c9 bf 90 40 10 b9 a8 da a2 3d
       -0.039496 -1.5714575 -0.00013756962 0.079518616
000140 7e 44 c1 3e f6 1d 92 bd 67 a7 d2 3d 96 c4 c6 b9
       0.37747568 -0.07134621 0.10285836 -0.0003791197
000150 be be a1 b8 b2 70 e5 bd 37 dd dc b9 33 cc cc 3c
       -7.712607e-05 -0.112031356 -0.00042126488 0.024999714
000160 c1 cb 89 bd 3b 0e f4 39 2a 33 00 bf 94 f6 03 be
       -0.06728316 0.0004654991 -0.5007807 -0.12887031
000170 15 24 21 3e d9 06 44 3e 99 4f 2a ba fd 75 1c 3d
       0.1573642 0.19143237 -0.00064968463 0.03819846
000180 1a 4b 6f b9 23 4f b6 be 44 4a e4 b8 d9 4b cf 3d
       -0.00022820794 -0.35607252 -0.0001088572 0.10121889
000190 8c 31 af bd cb cc 29 b9 3a 5d 7b 3e a1 bc 97 39
       -0.08554372 -0.00016193387 0.24547282 0.00028941504
0001a0 9b fa 94 39 d3 80 15 3b f7 b6 39 3e dc 57 18 be
       0.00028415475 0.002281238 0.18136202 -0.14877266
0001b0 e9 07 1e 3e d2 df 9d bc 17 2a 45 be 4a bb 4d bd
       0.15432705 -0.019271765 -0.19254337 -0.05022744
0001c0 21 c2 c0 3e 50 5d d5 bd 3d f9 c7 3c 19 2a 7b 39
       0.3764811 -0.104181886 0.024410838 0.00023952908
0001d0 b9 a4 0e 3f de b6 80 39 c0 96 18 3f 03 9e 81 38
       0.55720097 0.0002455031 0.59605026 6.180631e-05
0001e0 e4 1f a4 3c 4f 7e e4 39 6e aa ae 3d 21 83 36 38
       0.020034738 0.00043581656 0.08528601 4.3514305e-05
0001f0 31 63 a7 39 42 7a c2 b9 aa 82 10 be 87 5d 3d c0
       0.00031926626 -0.00037093653 -0.14112344 -2.9588335
000200 26 8d 53 be 60 fb c6 39 6b 27 ab 3d 9b 2f ce c0
       -0.20659313 0.00037952792 0.08357128 -6.443311
000210 e1 bd 67 be 0d 06 68 3e 96 ed 84 be b6 73 b2 37
       -0.22631027 0.22658558 -0.25962514 2.1273136e-05
000220 76 6c 2d 3f ae 61 1c 3e 63 e6 31 bb de e0 83 b8
       0.67743623 0.15271637 -0.0027145378 -6.2884516e-05
000230 a8 9a b2 3d 8a f2 03 bc 22 7c 6e b9 4e 8e 60 b8
       0.087209046 -0.008053431 -0.00022743692 -5.3538293e-05
000240 15 00 b4 3e d2 b6 86 b9 46 e7 90 be d0 87 4a 3e
       0.35156313 -0.00025694683 -0.28301448 0.19778371
000250 d2 6f 07 3f 89 93 f9 b7 8c bd 5e bc 47 b4 9e b9
       0.52905 -2.9751815e-05 -0.013594996 -0.00030270425
000260 23 d6 c2 3d e9 72 d5 3a b0 66 b2 3d 0b e0 79 b9
       0.095134996 0.0016284856 0.08710992 -0.00023829953
000270 e8 63 38 bd 16 8b 03 b9 59 04 4f be 63 27 ab b9
       -0.045017153 -0.00012544947 -0.20216502 -0.00032645007
000280 fd 39 9d b9 61 32 54 3d 0c 15 87 3d 7c fe 42 b9
       -0.00029988578 0.051805858 0.06595811 -0.00018596085
000290 f2 bc a8 3e b2 0e 8e 39 a9 21 7c 39 36 9c cd 3c
       0.32956654 0.000270953 0.00024045132 0.025098901
0002a0 3c 59 63 3d e9 6d e2 bd 91 29 f8 38 b7 26 bf bc
       0.055505022 -0.1105612 0.00011833304 -0.02333389
0002b0 34 f4 86 be aa b2 59 3c 06 61 d0 39 fe 8b be bc
       -0.26358187 0.013287226 0.0003974514 -0.023260113
0002c0 e9 9f fd 3c d0 61 63 3e fc 68 05 3e 0f 1c 83 3e
       0.03096004 0.22205281 0.1302833 0.25607345
0002d0 a6 2d 50 3d 2e c8 65 bf ee 45 51 38 18 9b e5 3d
       0.050824784 -0.89758575 4.989461e-05 0.112112224
0002e0 ad 5d d8 b8 fd 04 06 3d 9e 08 07 b9 ba cb d0 bc
       -0.00010317131 0.0327196 -0.00012877813 -0.02548777
0002f0 62 ac 4e 39 34 32 41 3e 5f 23 2c 3e 17 b4 4d 3d
       0.00019709909 0.18866807 0.16810368 0.050220575
000300 f0 57 c8 3b 9d 24 0a 38 04 ce 04 3e bd 82 1e 3e
       0.0061139986 3.2935863e-05 0.12969214 0.1547956
000310 9f b4 51 3e 16 42 f6 3d b2 ce a9 3d b3 3a 1b 39
       0.20479058 0.12024324 0.08291377 0.00014803819
000320 39 0f 7f be 36 85 7f b9 91 7d e5 38 b9 a7 37 3e
       -0.2490815 -0.0002436832 0.000109429595 0.17935075
000330 7e 05 bb 3e ef aa b4 bd 88 37 71 c0 06 eb 80 bd
       0.36527628 -0.088216655 -3.7690144 -0.06294827
000340 83 8b 17 3e 80 5c f5 bc 7f 8e 07 b9 1c 4c 02 b9
       0.14799313 -0.029951334 -0.00012927687 -0.00012426119
000350 e7 f1 f5 bd 4d d4 e4 bd 6c b8 2f ba 35 ce 19 bd
       -0.1200903 -0.11173306 -0.0006703201 -0.03755017
000360 b6 99 7f ba f7 84 15 b9 18 e0 9a b8 2f 68 22 3a
       -0.0009750383 -0.0001425928 -7.385033e-05 0.0006195334
000370 42 c2 bb ba 34 54 bc 39 e5 8c 87 be d5 c7 6a b9
       -0.0014324861 0.0003592089 -0.26474681 -0.00022390422
000380 9b 6a 0c 3f 74 46 f7 be 59 18 30 3e d2 66 b2 39
       0.5485017 -0.4829594 0.17196788 0.00034027413
000390 66 cc af bd e6 7b 11 3a 2a 05 53 be 53 ae 16 bb
       -0.08583908 0.00055497733 -0.20607439 -0.002299209
0003a0 b7 07 92 39 90 47 5f 3e a1 87 c8 b9 61 40 b7 3e
       0.00027853038 0.21804643 -0.00038248024 0.35791305
0003b0 0a d5 0f 3d 3e a0 91 be a2 f2 9a b9 93 bb c7 3a
       0.03511528 -0.28442568 -0.00029553944 0.0015238397
0003c0 16 de 75 3e 64 30 11 bd 66 be 11 3d c4 c9 79 3e
       0.240105 -0.03544654 0.03558197 0.24393374
0003d0 cb c8 31 3e b1 62 ef b9 c5 33 b5 39 64 d7 ed 39
       0.17361753 -0.00045659163 0.00034561582 0.0004536464
0003e0 ba b6 9d be 1b ef 0c 3a 54 66 59 3d d9 f9 9e 39
       -0.30803472 0.00053762057 0.053076103 0.0003032226
0003f0 c7 13 1d bd 74 30 95 b9 0b e1 31 ba 61 f0 0b 3d
       -0.03834894 -0.00028455595 -0.0006785548 0.03416479

model.4.bias f4 [256]
000000 51 60 f3 3d 77 f8 8e 3e da 50 1b b9 25 6f 4b 3c
       0.11883605 0.2792394 -0.00014812071 0.012416636
000010 c1 70 8a bc b5 e5 f8 3d 73 af f5 3d 3f c2 eb 3c
       -0.016899468 0.12153188 0.11996355 0.028779147
000020 56 2e 8e bd 58 13 43 bc c8 9b ec b8 ec e0 a3 ba
       -0.06942432 -0.011906467 -0.000112823735 -0.0012502945
000030 3b a6 f9 3d ff ac 2e b9 b6 68 f8 bc 66 1e 68 bb
       0.12189909 -0.00016658379 -0.030323368 -0.003541851
000040 6d 27 9b 3d 16 75 8d b9 4a d6 dd b9 47 b3 cb bd
       0.07575879 -0.00026980852 -0.00042312063 -0.09946304
000050 23 cb e9 3d 69 e5 57 bb cd 99 33 3d 1c 91 1c be
       0.114156984 -0.0032943136 0.043847848 -0.1528973
000060 2c a4 11 b9 b0 d0 67 3e f5 55 05 bb 72 a3 99 3e
       -0.00013889436 0.22638202 -0.0020345424 0.3000751
000070 10 51 9a 3d a4 ea c2 bc 99 6f 13 bf bd f4 8e 3d
       0.07534993 -0.023793526 -0.5759216 0.06980274
000080 c7 95 9b 3d 4c 9d fd bd e7 12 3f b9 90 98 7f b9
       0.07596927 -0.123835176 -0.00018222221 -0.00024375529
000090 d9 08 3b 3d 69 07 f5 3d dd 15 33 bc 7a 83 25 3e
       0.045662735 0.11964304 -0.010930506 0.16163436
0000a0 c9 93 0e 3e c1 ef 76 3d 3f ad 00 3d df 46 04 3e
       0.13923563 0.06028724 0.03141522 0.1291766
0000b0 9c 16 44 bd bd 11 33 3d 5d cf 7b b9 42 4c c2 b8
       -0.047873124 0.04371809 -0.00024014474 -9.264845e-05
0000c0 a6 8d 83 ba 6b 12 db 3d 75 75 e1 bd ea fa aa 3c
       -0.0010036721 0.10696872 -0.11008731 0.020871598
0000d0 f1 02 19 3e 6d f0 6d b9 8f 71 9a b8 f9 d3 d7 b9
       0.14942528 -0.00022691647 -7.364444e-05 -0.00041165928
0000e0 4e e3 3e bc bb f1 86 bb 5e 31 87 3b 20 f7 fa bc
       -0.011650873 -0.004118172 0.004125758 -0.030635417
0000f0 ae 4e 96 b9 b0 d7 b9 bc 29 9c 2f bd 16 65 af bc
       -0.0002866885 -0.022685856 -0.042873535 -0.021410506
000100 b6 78 4f b9 22 df 10 b9 58 13 6c 3d fe ba b9 3c
       -0.00019786027 -0.00013816034 0.057635635 0.022672173
000110 a5 1d 87 bb 4d b5 2a bd 21 8c cf bd 20 81 e9 37
       -0.004123407 -0.04167681 -0.10134149 2.7835893e-05
000120 02 35 54 bd b0 9e 0f bb bc f0 82 b9 31 15 43 bc
       -0.051808365 -0.0021914653 -0.00024974893 -0.011906908
000130 d2 1a 99 bd 14 8c 5e b9 a3 f1 eb 3c e3 3b 37 b9
       -0.07475819 -0.00021223753 0.028801745 -0.0001747455
000140 95 75 a0 3d be 0a e5 bd 4c 42 ba 3d 9b 91 bd b9
       0.07834927 -0.111836895 0.090946764 -0.00036157374
000150 b3 cb 7a 3d a8 d4 d0 bd 1d f4 69 bd 00 bf 3c be
       0.06122942 -0.10196811 -0.05711757 -0.18432236
000160 b1 cd cf bc 9f 8f 12 b9 3e 09 6a bb 8c 1d 7c 3e
       -0.025366636 -0.00013977148 -0.0035711075 0.24620646
000170 3e 09 68 39 07 95 b9 ba 47 21 2b bc 64 b6 0e b9
       0.00022128687 -0.0014158793 -0.010444946 -0.00013610121
000180 57 09 e4 3d 5f 37 78 bb 6f 81 0f 3d f7 7c 73 3e
       0.11134594 -0.00378748 0.035035547 0.23778139
000190 b6 dd 30 3d ae e2 b9 3b b3 ad a2 ba 72 7f 4b b9
       0.04318019 0.0056727743 -0.0012411386 -0.00019407066
0001a0 43 91 99 b9 89 98 99 3e a3 88 e9 b9 e9 17 9b b8
       -0.00029290662 0.29999188 -0.00044543025 -7.3954296e-05
0001b0 4c a1 39 b9 1c 5c 98 3d 6c 10 9b bb 33 cb 4c 3d
       -0.00017703063 0.074394435 -0.0047321822 0.049998473
0001c0 4a b7 c1 b8 07 84 e4 3d d7 3f 2d bc ec 50 8b b9
       -9.2370974e-05 0.11157995 -0.010574303 -0.00026572437
0001d0 82 90 9b b9 b3 eb 8e 3d bc 72 9c bb bd cd fa ba
       -0.0002967157 0.0697855 -0.0047744196 -0.0019134801
0001e0 bd cf 21 3e 0c 99 ac bc eb 3c f9 3d d3 2f c4 bd
       0.15801902 -0.021069072 0.12169822 -0.09579434
0001f0 22 7b 9d 3c cf ee 94 3d 1f e2 1f bd 07 fc 07 bd
       0.019223753 0.072721116 -0.039034005 -0.033199336
000200 48 d8 46 bb 17 43 b6 b9 71 9d e0 3d ae 8a 90 bc
       -0.0030341316 -0.0003476373 0.109675296 -0.017644253
000210 12 05 dd bd 5d 4f d4 3c a1 9f f6 3d 5b 22 94 bd
       -0.10791983 0.02591675 0.120421655 -0.07233115
000220 21 cd d8 b9 5c ab ab 3d 31 45 16 bc d7 f6 4a b9
       -0.00041351563 0.083822936 -0.00917177 -0.00019356176
000230 c1 a7 86 3e 2f 94 18 ba 7e eb 61 ba 8e 45 09 3e
       0.2629986 -0.0005820421 -0.000861816 0.1340544
000240 f0 f0 34 b9 2a 49 b2 b9 7e e7 70 3e d2 f4 d6 b8
       -0.00017255894 -0.00034005317 0.23525807 -0.000102499165
000250 34 04 3c b9 0e 21 7f b9 f9 48 dd b9 5e 69 84 b9
       -0.00017930643 -0.00024331009 -0.00042206774 -0.00025255507
000260 36 aa 19 3d 8b e6 47 3d a0 27 7b 3d 2e b9 8c ba
       0.03751584 0.048803847 0.061317086 -0.001073634
000270 75 40 56 ba b6 34 8b 3e f3 4d 34 b9 4e 5d 14 3e
       -0.0008173057 0.27188653 -0.00017195176 0.14488718
000280 aa 95 25 3e da 84 c7 3c 80 d4 20 3e f8 09 3a b9
       0.16170374 0.02435534 0.15706062 -0.00017742056
000290 46 18 23 be df 4e 3f bd e8 36 1f 3e 9a 97 67 b9
       -0.15927228 -0.046706077 0.15548289 -0.00022086353
0002a0 f0 2c f9 3d 34 54 ef ba 52 18 7e 3e 45 0b 12 3e
       0.12166774 -0.0018259347 0.24813965 0.14262111
0002b0 e6 2d 8f 3e 1e f5 da bd 14 3a ae bb 52 d6 16 b9
       0.27964705 -0.10691284 -0.005316982 -0.00014384955
0002c0 df 24 1a bc e6 8f 39 bc 08 18 81 3e f6 8b 1a b9
       -0.009408205 -0.011325812 0.25213647 -0.00014738724
0002d0 33 29 07 bd e3 93 3d be 87 c9 4b 3d e9 4a bf 3d
       -0.032998275 -0.18513446 0.04975274 0.0934046
0002e0 c7 14 cd 3c 3e d2 d2 bd 4f 1f c0 3d 17 37 00 bc
       0.025034321 -0.10294007 0.09380972 -0.007825634
0002f0 39 28 12 ba cf 95 1a b9 f5 e8 2d b9 47 f9 57 b9
       -0.00055754517 -0.00014742393 -0.00016585349 -0.00020596861
000300 a1 8c a3 3d 51 ba 07 bd a0 cb 7e 3c be ce 2b bb
       0.07985807 -0.03313667 0.015551478 -0.0026215757
000310 cc 0c d4 bd 19 f3 ce b9 32 27 dc bd c2 3b 23 3d
       -0.10354003 -0.00039472504 -0.107496634 0.03985191
000320 69 ad 63 3d 1d 2e cc 3b 3c 77 7c b9 f2 a3 0b 3d
       0.0555853 0.006231083 -0.00024077011 0.034091897
000330 91 37 d0 b9 96 4e d4 bd 06 ee b1 b9 67 a6 f2 b9
       -0.00039714252 -0.103665516 -0.00033937412 -0.00046281816
000340 6c 91 f8 3d fc 96 0d b9 45 10 88 b9 05 4b 85 b9
       0.12137112 -0.00013503054 -0.00025952063 -0.0002542363
000350 35 38 bd bc dc ac f8 bb 73 2e 00 3d 7e e0 0f b9
       -0.02309809 -0.007588966 0.031294297 -0.00013721173
000360 2b 22 84 b9 ca a6 1f 3e 42 be 5f bd 91 c0 8d bb
       -0.0002520246 0.15590969 -0.054624803 -0.004325934
000370 6c 18 28 3e ce 9a bf 3d 52 51 5a bc 6b 3a 30 be
       0.16415566 0.093556985 -0.013325052 -0.17209785
000380 ee ca 0a bc b1 24 9e bb 55 87 fa ba 2a 3f a3 bb
       -0.008471234 -0.0048261513 -0.0019113818 -0.004981895
000390 ad 22 61 3d 3e a1 38 b9 b6 c1 ac bc aa 40 a7 bc
       0.05496471 -0.00017607675 -0.021088462 -0.020416576
0003a0 8e 1a cf 3c b7 c8 e3 3c 45 c7 9d b9 47 6b 57 3b
       0.025281217 0.02780567 -0.0003009384 0.0032870339
0003b0 70 91 4a bc 00 c3 88 3e 45 fb 84 bb a0 5e cd bb
       -0.012363777 0.26711273 -0.004058274 -0.0062673837
0003c0 b2 47 1f 3e bb fc 14 b9 d9 a9 f5 b9 a4 73 59 3d
       0.15554693 -0.0001420853 -0.00046856588 0.0530888
0003d0 20 d0 ec 3b 0b 88 c9 ba e2 c9 f8 3d f7 13 a2 3c
       0.007226959 -0.0015375627 0.12147881 0.01978491
0003e0 65 b4 36 bb c8 3d 01 bc 3d d1 bc bb 73 06 1d b9
       -0.002787852 -0.007888265 -0.005762248 -0.0001497509
0003f0 82 a8 f4 3d e7 f2 72 bd 06 d1 75 3e fe a6 55 bc
       0.11946203 -0.05931368 0.24005517 -0.013040302
