Models/Bloom_filter/result/model-dict-52.pt (torch, 533323 bytes, 7 tensors)

model.0.weight f4 [256, 2]
00000000: 5822 bcbb 8179 9cb9 f401 17bb eb2b 113a
00000010: 22c8 223b a3e2 2d3a 8a5a ecbb 9284 cabb
00000020: 4f6a 78bb 1730 0bbc c8c9 7cbc 7c18 f33b
00000030: aacd 0fbf fba3 3abd 20c4 1f3a fb84 bdbb
00000040: bd02 a0be cd40 d23e b5ac 68bb f8a2 d63a
00000050: bbc9 2dbd c231 ef3e 0a88 32bb dfe9 baba
00000060: 87cd c5bf 5db5 133e f095 f2ba 1913 c53a
00000070: d02b ddba b0d1 853b 243e 80bb a3b8 0d3b
00000080: 3c8e a2bc 5185 3c3c a4d8 79bb f51e 9cba
00000090: 6122 68bb 4bb7 c83a 26dc 62bb 37aa c93a
000000a0: 6ac6 10bc e0fc b13b 68d0 40bb e6ef ca38
000000b0: 23d9 75bb d40b bdbb 3914 6dbe b911 3cbf
000000c0: 7300 16bb b741 333b c42f 5f3b a7b3 5b3b
000000d0: ed57 b4bb d2f3 f3ba 2b9f 2abf 69d8 273e
000000e0: 1f8d 3abb 9761 e8ba 8f63 50bb 1d6a 343a
000000f0: f3d5 febb 67f7 d9ba 25f1 313d b3c7 6abf
00000100: 17f4 b63e 82a2 d0bf 015c 903e 1ab7 97be
00000110: d530 9e39 f781 88bc d4af db3a df0f 41bb
00000120: 84f0 013b a8cb 92bb 5a21 5dbb dc94 1dbc
00000130: 9b50 8f3e b7ca ee3d f18d 42bb 89e6 e6bb
00000140: 4213 893e e56b 00be 876c 873e 889a f2bd
00000150: a0f3 fdba e81b fab9 e466 233d d87d 4fbd
00000160: 2aa2 94ba a175 bdbb 18d8 7ebb 810b 9eb9
00000170: 3009 31b8 015b dbba 9fcc 3a3b 396f 38bb
00000180: ed06 9a3b 9330 d23a 56d6 d53a fab6 acbb
00000190: 690e 8cba c42e ceb9 b5b1 1abc c2b6 013c
000001a0: 2783 45be 7153 b63e 1d58 39bc b3db a9b8
000001b0: 03cd 44be b58b 40bf cbe2 09ba 26a1 ddb9
000001c0: 1d87 9f3e 80a3 343d eb15 883a b306 bbba
000001d0: 3290 7fbb 44ea 2ebb a049 8e3e cab2 d5bd
000001e0: d80d 7ab9 dc26 b539 6fc6 81ba 6093 c4ba
000001f0: 7555 ef3a 4eef 453b 88d3 afbb 4333 0bbc
00000200: 686f 43bb 9923 6e3a be5f 6ebb 136c 86ba
00000210: 1133 00bb fa04 dabb 0df8 d7be 17d6 1bbd
00000220: 7f24 9c3e e6e9 0abe e85d 893e e6c1 293e
00000230: e93c 4fbb 3db9 c5bb 3761 aaba 2bce 75ba
00000240: 16f1 32bb 088d fcb9 e480 6839 fc1d 16bc
00000250: 1d1c c3ba 0616 9eba cf16 03be da28 cc3e
00000260: dcbe 893e 41fe 75be 170a 733e aa27 bdbe
00000270: 7962 de3a 8cfa c2b9 8090 0cba 2452 9fba
00000280: f4d0 343a d733 38bb 04bb 06bb 08b7 0dbb
00000290: 731c 8c3e d2b7 adbe 15ce d6be 6685 8abd
000002a0: 0a54 4ebf 3305 c9be 4ae4 c2ba d301 9dbb
000002b0: 0a9d 1fbd 0f2e 1fbf 2e50 33bb 920b 88bb
000002c0: 8a7b 83ba 31eb 09bc 4c1b 84bb b2d5 d8ba
000002d0: dfe9 733a ea10 20bb 56aa 863e 9e1f fbbd
000002e0: 5a15 37bb f8cd 403b c9d8 953e bac1 67be
000002f0: 4d4f 043c 361c 023c 2606 75bb e998 073b
00000300: 7f34 57bb 1312 12bb a8c2 3dbb 939e abbb
00000310: 1cbc 7d3d ff52 25bf c5c5 e1b9 362e 1c3b
00000320: 545e 903e 455c 98be a409 0dbc 6d02 8c3b
00000330: 55f3 6b3e df91 e8be c5f4 95ba 90e0 893b
00000340: aafd 20bb 771f 1539 3ec1 89bd 8032 933e
00000350: d187 58bb 30e5 ad39 1ca8 23bb df5d c73a
00000360: 426c ecbe 36f9 c33e 93fd 2abe babc 7d3e
00000370: af7d 23ba 2837 02bb b9a2 f5ba bf78 07bf
00000380: 5578 96bb 2123 943b 5785 64bb 45d9 223b
00000390: b490 563e a605 eb3d dc3a 3eb8 6992 bdbb
000003a0: e7e7 783e 1c06 54bf 9b21 d338 b6be 743a
000003b0: eb8a 48ba 071d 9fbb b9c1 1bbb 2dbd 663b
000003c0: 8166 47bb 906e 74b9 d970 67bb 51d8 49bc
000003d0: 55c6 403b cbf0 08bc d23a 00bb 0bc7 593b
000003e0: 34bb 823e fbee acbe 996a 953a 49c3 12bc
000003f0: 7cef 0f3e 0580 e1be 94a9 18bf 6377 6d3e
-0.005741399 -0.00029845166 -0.0023041936 0.00055378553 0.0024838527 0.0006633198 -0.0072129415 -0.0061803544
-0.0037905162 -0.008495352 -0.015428968 0.0074186902 -0.56173193 -0.04556654 0.00060945936 -0.005783675
-0.3125209 0.41065064 -0.0035503332 0.0016375473 -0.042428713 0.4671765 -0.002724173 -0.0014260373
-1.5453347 0.14424653 -0.001850782 0.0015035599 -0.0016874019 0.0040838346 -0.0039136577 0.0021624945
-0.019843213 0.0115063945 -0.0038123513 -0.0011911081 -0.0035420882 0.0015313415 -0.0034616082 0.0015385811
-0.008836368 0.0054317564 -0.0029421095 9.676795e-05 -0.0037513457 -0.0057692323 -0.23152246 -0.7346454
-0.0022888451 0.0027352402 0.003405557 0.003352383 -0.0055036456 -0.0018612093 -0.6664912 0.16391148
-0.0028465462 -0.0017729279 -0.0031797623 0.0006882267 -0.0077769696 -0.0016629518 0.043442864 -0.91710967
0.357331 -1.6299593 0.28195193 -0.29631883 0.0003017249 -0.016663535 0.0016760775 -0.0029458923
0.0019827196 -0.004479844 -0.0033741803 -0.00961801 0.27991185 0.116597585 -0.0029686654 -0.007046525
0.26772505 -0.12541158 0.26449987 -0.11845881 -0.0019374974 -0.00047704508 0.039893046 -0.050657123
-0.0011339833 -0.0057818447 -0.0038886126 -0.0003014468 -4.2208645e-05 -0.0016735495 0.0028503311 -0.0028142466
0.0047005326 0.0016036205 0.0016314487 -0.005270836 -0.0010685447 -0.00039326225 -0.009441783 0.007917108
-0.19288312 0.35610536 -0.011312512 -8.09947e-05 -0.19218831 -0.75213176 -0.000525993 -0.0004227247
0.3115777 0.04410124 0.0010382509 -0.0014268964 -0.003899586 -0.0026689926 0.27790546 -0.10434492
-0.00023847015 0.00034551963 -0.0009901057 -0.0014997534 0.0018259721 0.003020245 -0.0053657927 -0.008496108
-0.0029821042 0.0009084284 -0.0036372985 -0.0010255597 -0.0019561688 -0.0066534253 -0.42181435 -0.03804597
0.30496594 -0.13565788 0.26829457 0.16577873 -0.0031621999 -0.006034045 -0.0012998943 -0.000937673
-0.0027304343 -0.00048170262 0.0002217326 -0.009162422 -0.0014885698 -0.0012061007 -0.1280167 0.39874917
0.26903427 -0.24022771 0.23734318 -0.36944324 0.0016966603 -0.00037189235 -0.00053621083 -0.0012155217
0.00068975915 -0.002810707 -0.0020558247 -0.0021623988 0.27365455 -0.33929306 -0.41954103 -0.06763725
-0.80596983 -0.3926178 -0.0014869061 -0.004791477 -0.038968123 -0.62179655 -0.0027361023 -0.00415177
-0.0010031324 -0.00841789 -0.0040315744 -0.0016543178 0.0009304564 -0.0024424144 0.2630183 -0.1226189
-0.002793631 0.0029419642 0.29266956 -0.22632495 0.008075547 0.007941296 -0.0037387698 0.0020690507
-0.0032837687 -0.0022288605 -0.0028955135 -0.0052374094 0.061946973 -0.64579767 -0.00043062694 0.0023831255
0.28196967 -0.29757896 -0.008608256 0.00427275 0.23042043 -0.4542379 -0.0011440745 0.004207678
-0.0024565258 0.00014221469 -0.06726311 0.28749466 -0.0033039937 0.0003316789 -0.0024972027 0.0015210471
-0.46176344 0.3827607 -0.16698293 0.24779025 -0.0006236685 -0.0019869301 -0.0018740512 -0.5291862
-0.0045919814 0.0045207893 -0.0034869516 0.002484874 0.20953637 0.11475687 -4.5354347e-05 -0.0057852757
0.24307214 -0.8282182 0.000100675235 0.00093362795 -0.0007650095 -0.0048557553 -0.002376659 0.0035207972
-0.0030426087 -0.00023310841 -0.0035315065 -0.01231964 0.002941509 -0.008358191 -0.001956631 0.003323021
0.2553345 -0.33776078 0.0011399566 -0.008957692 0.140562 -0.44042984 -0.59633756 0.23190074

model.0.bias f4 [256]
00000000: 0000 0000 41df 37bb 5189 e2bb 0000 0000
00000010: 0000 0000 d500 76bb 8210 313e bc27 28ba
00000020: 2c31 10bd fe1b 89bb 6c7f e0bd 0000 0000
00000030: 0c0d 1b3e df7a eeba fbb7 59bb 5215 95bb
00000040: b2da 40bc 0000 0000 f002 86bb 719e f2b9
00000050: 4b8f ccba 6bcd 3eba 0000 0000 e369 453e
00000060: 834e 06bb 9901 52bc 0000 0000 8ffd c63d
00000070: 0000 0000 897d 62bb 0000 0000 ac47 153e
00000080: 4438 75bc 4115 4cbd ce6b 7cb9 6a8e b0ba
00000090: 9e04 dfba 0000 0000 0f6c 5dbe 0000 0000
000000a0: b48a 1bbe 51f0 18be 0000 0000 f690 fdbc
000000b0: 21d9 51bb 0000 0000 0000 0000 e84b 7cbb
000000c0: 9297 d0bb db5c 07bb 0000 0000 bdd6 93bb
000000d0: d12e 53bd 0000 0000 a13c 4a3e a565 2738
000000e0: b419 0abe 7cfd 5bba 0000 0000 a85f 29be
000000f0: 0ee6 24ba 0000 0000 7c8c 9fbb 4744 76bb
00000100: 99e4 4cba 0000 0000 69fa beb8 c95e 133e
00000110: 5dd7 88bd 3163 42be 0000 0000 0000 0000
00000120: 7396 28bb bba0 3bb9 0000 0000 06df 01be
00000130: 8704 92bd 1c51 933c 54af caba 0000 0000
00000140: 4f42 11ba 0000 0000 66aa 1cbd 4dc9 093e
00000150: 0fc3 633e 0000 0000 3cbf 1f3e 0000 0000
00000160: 0000 0000 0000 0000 f619 92ba 51a4 17be
00000170: f2b3 76bb 9774 d1bd b642 e9bc 7979 32ba
00000180: 0000 0000 0000 0000 2ffb 113e 3910 14bb
00000190: 42ba 4fbd 2309 1ebb 4d00 0b3c bb6a 73bb
000001a0: e644 26ba 16d3 9bbd d987 a9b9 2e55 eab9
000001b0: d63f 0e3d 5486 e9bb 3e92 e038 1e3a 6a3e
000001c0: df6b b7bb 408c 88bb b440 75be 0000 0000
000001d0: f501 ef3c 8a88 87ba a634 9d38 5083 80bb
000001e0: 0eea 1ebb 7c2f f5ba 3354 1abb 8ac5 24bb
000001f0: 5528 3c3c 7ac1 6fba 5396 193e bac3 463d
00000200: 0000 0000 3f76 83be 0000 0000 0000 0000
00000210: 791e f03c db70 cebd 0615 bebb 0000 0000
00000220: 4bcd bbba db4c 48bc f6ee 4f3e 25f4 2b3e
00000230: 0b83 a3ba 5ac8 1d3a 0000 0000 fc6e 49ba
00000240: 7c4a 93b9 c4d1 7abb 339d c5bb 7f50 8cbd
00000250: 0000 0000 81b0 edb9 5460 54be 0000 0000
00000260: 9d23 e5b9 0000 0000 0000 0000 83dc 74be
00000270: 8510 6dbb 9f37 81ba 5e5f 253e 2b47 113e
00000280: 902f d7b9 ce7e 64bd 000b a6bd 9fa0 24ba
00000290: 6815 5bbe 8b26 53be 0000 0000 ac00 0f3e
000002a0: 7baf f7ba 0adf 4bbd e7c2 91bb 0000 0000
000002b0: dd91 aaba 0000 0000 0000 0000 fd15 19be
000002c0: e61a 10bb 8b6a 83be 0000 0000 fbe8 1bbc
000002d0: 7c9e 92bb d4ff 163a 0000 0000 0000 0000
000002e0: 82e7 7e3e 0b52 64bb 0cc2 6ebb cdb1 1abd
000002f0: 0980 383e 7fb2 b0ba 90be 92bd c959 94bb
00000300: ed13 37bd 0000 0000 1707 26bc 41c6 2abe
00000310: 0000 0000 0000 0000 2307 52ba efe4 633d
00000320: f5a4 6cbc beac 5f3d 0000 0000 1b5a 0f3e
00000330: 0000 0000 2f9c 63ba 3d4f a3b9 0000 0000
00000340: 0000 0000 0000 0000 3227 63bb 9be8 7cbb
00000350: c035 82ba 0000 0000 0000 0000 0000 0000
00000360: d327 74be c29d dcbd 6d70 7ebb 5f11 88ba
00000370: 7ad6 1cba 0000 0000 0000 0000 6588 9ab9
00000380: 0000 0000 4aa2 103e cab0 1cbc 0bcd 48be
00000390: 6936 20ba 0000 0000 5d3a 303e a8b8 413e
000003a0: 2ae7 7c3a 9d64 a33e d9b8 1cbd dcf9 f1bc
000003b0: 0000 0000 1808 e3bc 1e0d 4d3d 4030 2cbe
000003c0: 79f9 c6ba 6d0d 94bd 9739 dbba 0000 0000
000003d0: 1d71 d33c 0000 0000 0837 253a f537 bdbb
000003e0: 5bc2 243c c912 4738 5d86 89bd e444 3cbe
000003f0: 4a02 fd3d 3b24 33bb 0f1e 2ebc f53b b1bb
0.0 -0.0028056654 -0.006913342 0.0 0.0 -0.0037537117 0.17291453 -0.0006414612
-0.035203144 -0.004184245 -0.10961804 0.0 0.15141696 -0.0018194577 -0.0033221233 -0.0045496607
-0.011770891 0.0 -0.0040897056 -0.00046275885 -0.001560667 -0.00072785345 0.0 0.19278674
-0.0020493574 -0.012817764 0.0 0.09716331 0.0 -0.0034559688 0.0 0.14578122
-0.014967028 -0.049824957 -0.00024072753 -0.0013470177 -0.0017014926 0.0 -0.21623252 0.0
-0.1518963 -0.14935423 0.0 -0.030952912 -0.0032020288 0.0 0.0 -0.0038497392
-0.006365725 -0.0020654711 0.0 -0.004511683 -0.05155832 0.0 0.1974969 3.9910567e-05
-0.13486367 -0.0008391959 0.0 -0.16540396 -0.00062903843 0.0 -0.004869042 -0.0037577318
-0.0007816046 0.0 -9.1065485e-05 0.14391626 -0.06681702 -0.18983151 0.0 0.0
-0.002572444 -0.00017893586 0.0 -0.12682733 -0.0712977 0.017983012 -0.0015463629 0.0
-0.0005541192 0.0 -0.038248442 0.13455696 0.22242378 0.0 0.15600294 0.0
0.0 0.0 -0.0011146653 -0.14808775 -0.0037643877 -0.10227316 -0.028474193 -0.0006808262
0.0 0.0 0.14255975 -0.0022592677 -0.05071474 -0.0024114333 0.008483958 -0.0037142474
-0.0006342664 -0.07608621 -0.00032335406 -0.00044695422 0.034728847 -0.007126609 0.00010708392 0.22873732
-0.005597576 -0.0041671097 -0.23950464 0.0 0.029175738 -0.0010340374 7.49615e-05 -0.0039219037
-0.0024248394 -0.0018706168 -0.0023548722 -0.0025142157 0.011484225 -0.0009145957 0.1499875 0.048526503
0.0 -0.25676152 0.0 0.0 0.029311405 -0.10080119 -0.005800846 0.0
-0.001432815 -0.012225355 0.20306 0.16792352 -0.0012474967 0.00060189294 0.0 -0.00076840795
-0.0002809352 -0.0038272003 -0.0060307025 -0.06851291 0.0 -0.00045335668 -0.20739871 0.0
-0.00043704818 0.0 0.0 -0.23912244 -0.0036173176 -0.0009858495 0.16149661 0.14187305
-0.00041043432 -0.055784993 -0.08107567 -0.0006280038 -0.21394885 -0.20620172 0.0 0.139651
-0.0018896902 -0.049773254 -0.004448283 0.0 -0.0013013441 0.0 0.0 -0.14949794
-0.002198869 -0.25667223 0.0 -0.009515996 -0.004474459 0.0005760167 0.0 0.0
0.24893 -0.003483894 -0.003643158 -0.03776722 0.18017592 -0.001348093 -0.07165253 -0.004527305
-0.044696737 0.0 -0.010133526 -0.1667719 0.0 0.0 -0.0008011928 0.05563825
-0.014443626 0.0546081 0.0 0.13999216 0.0 -0.0008682636 -0.0003114882 0.0
0.0 0.0 -0.0034660813 -0.0038590792 -0.0009934232 0.0 0.0 0.0
-0.23843317 -0.107722774 -0.0038824335 -0.0010381154 -0.0005982887 0.0 0.0 -0.0002947479
0.0 0.14124408 -0.009563634 -0.19609468 -0.00061116234 0.0 0.17209764 0.18918097
0.0009647483 0.319127 -0.038262222 -0.029538088 0.0 -0.02771382 0.050061338 -0.16815281
-0.001518055 -0.07229123 -0.0016725537 0.0 0.025810773 0.0 0.0006302451 -0.005774493
0.010056104 4.7462792e-05 -0.06715081 -0.18385655 0.12353952 -0.0027334827 -0.010627284 -0.0054087588

model.2.weight f4 [256, 256]
00000000: b25f 5b3b c6a5 f2ba 21d4 83ba 0254 82bb
00000010: 6f3c 90bb 79a6 9cbb cccb 10bf 6440 8dba
00000020: 4404 c23e ac14 0cbb 4254 46bd 7994 b1ba
00000030: d501 bb38 5ca6 0a39 7570 5b3b 2403 cfba
00000040: 8c6a 19bc f8f2 e0bb 5c4d 07bb 3c47 1f3b
00000050: d3ab e33a 2f48 203b 6193 4338 21a2 b53d
00000060: f4a2 903b 6983 56bd 3f9f 073b 7f8c eebe
00000070: 7c6b 9a3a ea10 203a 5077 abb9 a0a3 663e
00000080: 1a4d 03c0 6152 33bf 8e09 0a3b e817 123a
00000090: 637b 703a 12ec 2b3b 8e49 e83e d812 36bb
000000a0: 2e85 d13b 0ae6 073c b35f 923a 1918 243d
000000b0: feb8 f0ba da1a 2c39 d2aa 833b 6bb2 3239
000000c0: 2f3e 053b d11c 3a3b 472c 3839 0082 583a
000000d0: 9e5d 503e 6f0a bc38 ecb6 4b3e eee2 af3b
000000e0: 6a08 3cbf cc16 3b39 e7c2 91ba 9919 bdbb
000000f0: 4470 cb3a 03a0 6a3b c793 3bba 6308 21bb
00000100: beb6 de3b d018 2f3a 9fe2 bfbb f934 2fbf
00000110: 0067 d6bc 0678 f3bf dc63 68b9 2250 23bb
00000120: 8e24 c5ba 54db 053c 5ee3 ba3a 4c60 863e
00000130: ec39 78bf 9a99 973e 65ac 8dbb 8866 6a3b
00000140: 2678 193b 0061 783b 8417 f5be 5d56 dfbe
00000150: 2028 1bc0 190a 843b 6362 c63e cab3 16bb
00000160: 96df 123b 0ee5 5e3a 9273 e63b 12d6 293b
00000170: df11 063c f415 58c0 a382 bbbd 4d2b 74bb
00000180: 7811 92ba c3fd 923b b420 7d3e e14a 543b
00000190: a581 31bf 23dc 0ebc cbf2 78be e40a 5aba
000001a0: c789 d63a a1cb a33d 9ba6 2eba 4ba8 0f39
000001b0: fa02 da3e fbfb f93d 3c65 65ba d7d8 573e
000001c0: f8de 91ba acb2 dd3b 074b 87be ac15 a73a
000001d0: 2c08 c2be d28d 703b ec62 053b c007 183c
000001e0: 590f 0fbb 7d51 373c f4ee ff3b eacb adba
000001f0: 3b12 613e 0546 a23b f2a5 153e 371a c8bd
00000200: 1dfa 27bb f929 0b3f c9c9 9c3a f6fc 46bb
00000210: e2bd c5be ea92 66c0 1994 593c 85b2 5d3a
00000220: db0b c0b9 6c43 3e3c 1c61 293e cf5e 7e3e
00000230: 7715 403c a83b 823b 03b9 0dba 0833 a8b9
00000240: c931 52bb 2058 faba 94ae 44bb aef2 833e
00000250: 3710 1bba 9682 ca3a 4b4d cb3e 4ab6 003b
00000260: dd70 c7ba 4fa8 093b 8dc7 b2bb 8e38 533f
00000270: 30e0 f03b 520f 30bb 38eb 15bf 33c0 37bf
00000280: 199b d3b8 8330 8d3c a39d 1a3f 176e 76bb
00000290: b965 acbf 087a af3e db60 b6ba d904 38bf
000002a0: 08b5 f33b 68d9 37bf c0a4 06bb 0dd3 2abb
000002b0: 4360 65ba f494 8f3a 1a25 22bb 8346 543a
000002c0: 9a2d 683a 4c24 0b3f d022 cb3a 5a28 31bc
000002d0: 9aee 4d3a 4342 da3b 9b54 143b bcb0 283b
000002e0: 3042 5c3e e9c7 5c3c c4a5 f83b 6b2a dfbb
000002f0: 81fe 033f eba2 f3ba f6b1 cfbf baa4 503b
00000300: 1f89 863e 456a 0abc ef62 adbb 11f5 d0bd
00000310: f708 37bb e04b 6f3b 8255 3ebb d6b9 3fbf
00000320: 7e95 533e d1a1 3abf a796 a63a ec29 543e
00000330: 664d 2bbb d6d5 5c3b 1b5c 223b 573c 86bb
00000340: fea8 cdba 3871 c6ba 9652 4f3c a81e 4bbc
00000350: 4a36 5b3a 55c4 2c3b f54a d1ba 37d4 14bb
00000360: 2580 3b3f 892a 32bd 3cd0 8bba 3ec2 4abb
00000370: b8a6 9d3b 6f9b 15ba d3a6 abbb 0882 81bb
00000380: 2bd1 95bb 1799 29bf d791 e1bc 2239 01bf
00000390: 80ca 95ba afbb 753a 2b19 9b3e 4d92 7f3e
000003a0: b3c9 543c c7fd 0f3e 27d3 bd3e b4d1 06bd
000003b0: 4f50 2fb9 29c7 443e 8775 53bc c7a5 a7bf
000003c0: 5de3 40ba 0ff1 943d 4ce4 55ba 0ce2 bf39
000003d0: cd49 f5bd a5a0 41ba 0d56 98b9 c466 833a
000003e0: 4723 5e3e 7fbe 153c df36 49bf 6276 b7bb
000003f0: e2ed d0be f080 023b ca32 6e3e 8091 0bba
0.0033473787 -0.0018512539 -0.0010057726 -0.0039772997 -0.0044017355 -0.0047805873 -0.5656097 -0.0010776636
0.3789388 -0.0021374626 -0.0484202 -0.0013548277 8.917196e-05 0.00013222679 0.0033483778 -0.0015793783
-0.009363782 -0.0068649016 -0.0020645475 0.0024303934 0.0017369933 0.0024457087 4.662888e-05 0.08868814
0.004413957 -0.052371416 0.0020694283 -0.46591565 0.00117813 0.0006106036 -0.00032704556 0.22523355
-2.051581 -0.70047575 0.0021062824 0.00055730203 0.00091736595 0.0026233238 0.45368618 -0.0027782228
0.00639405 0.008294592 0.0011167437 0.040062044 -0.0018365679 0.00016413201 0.004018166 0.00017041869
0.0020331254 0.0028398524 0.00017564102 0.00082591176 0.20348212 8.966482e-05 0.19893998 0.0053676283
-0.7345034 0.00017842202 -0.0011120707 -0.0057708737 0.0015521129 0.003580094 -0.00071555044 -0.002457165
0.006796687 0.00066794176 -0.0058558728 -0.68440205 -0.026172161 -1.9021003 -0.00022162445 -0.002491959
-0.0015040801 0.008169968 0.0014258435 0.26245344 -0.9696338 0.29609376 -0.0043235295 0.003576668
0.0023417561 0.0037899613 -0.47869503 -0.43620577 -2.424324 0.004029524 0.38746938 -0.0022995346
0.00224111 0.000850276 0.00703282 0.002591495 0.008182972 -3.37634 -0.09155776 -0.0037257255
-0.0011144122 0.004485817 0.24719507 0.0032393264 -0.69338447 -0.008719477 -0.24311368 -0.0008317663
0.0016367965 0.079978235 -0.00066623994 0.00013700237 0.42580396 0.122062646 -0.0008750742 0.21078812
-0.0011129072 0.006765684 -0.2642443 0.0012747548 -0.3789686 0.0036705625 0.0020353151 0.0092791915
-0.0021829216 0.011188862 0.007810468 -0.0013259624 0.2197961 0.0049521946 0.14614084 -0.09770625
-0.0025631257 0.5436092 0.0011961992 -0.0030363179 -0.38621432 -3.602717 0.013279938 0.00084570824
-0.00036629927 0.011612754 0.1654095 0.24840854 0.011723868 0.0039743967 -0.0005406292 -0.00032081478
-0.0032073131 -0.001909975 -0.0030011283 0.25771087 -0.0005915197 0.0015450295 0.39707407 0.0019639903
-0.0015216131 0.002100486 -0.005455917 0.8250817 0.007350944 -0.00268646 -0.5856204 -0.7177765
-0.00010090153 0.017235046 0.60396785 -0.003760224 -1.3468543 0.3427279 -0.0013914363 -0.71882397
0.007437352 -0.7181611 -0.0020544976 -0.0026065737 -0.0008750001 0.0010954426 -0.0024741353 0.0008097665
0.0008856893 0.5435226 0.0015498046 -0.010812843 0.0007855684 0.006660731 0.0022633437 0.0025740108
0.21509624 0.013475397 0.00758812 -0.0068104765 0.5156022 -0.0018587982 -1.6226184 0.0031836466
0.2627649 -0.008448188 -0.005291335 -0.10202993 -0.0027928927 0.003651373 -0.0029042666 -0.7489294
0.20662495 -0.7290316 0.0012709693 0.20719117 -0.0026138662 0.0033696792 0.0024774137 -0.0040965485
-0.0015690622 -0.0015139943 0.012653967 -0.012397446 0.0008362277 0.002636214 -0.0015967774 -0.0022709498
0.7324241 -0.043497596 -0.0010666917 -0.0030938531 0.004811134 -0.00057070603 -0.005238393 -0.0039522685
-0.004572054 -0.6624922 -0.027535362 -0.504778 -0.0011428148 0.00093739753 0.3029264 0.24958153
0.012987542 0.14061652 0.3707516 -0.032914832 -0.00016719218 0.19216599 -0.012906439 -1.3097466
-0.00073580985 0.07272541 -0.0008159324 0.00036598777 -0.11976967 -0.00073863036 -0.00029055812 0.0010025133
0.21693145 0.009139656 -0.7859935 -0.005598829 -0.4080649 0.0019913279 0.23261562 -0.00053241104

model.2.bias f4 [256]
00000000: 7e76 b7bd 803d 38bb 74a2 ba3b 60c7 d236
00000010: cc29 31bd 5b64 733d f212 46bd c4fd b83d
00000020: faa6 98bc 4ad9 7dbd 06ce 03bb ca96 85be
00000030: 3087 e4ba 5d91 d33b dc0f adba a5de 80bc
00000040: 8e45 1bba e7b6 03bb 62e8 84be bac0 bebe
00000050: 5b4a 1d3b 1c05 89be d04a 13bb 2372 81bc
00000060: 3e3b 01be f471 83bd a023 f0bc 8eae 88bb
00000070: 9032 05be 5d06 6ebe 2aa9 debd 4db6 d73c
00000080: 0d66 ecba 88ed 06bb 469e 053c 39e4 85be
00000090: bf06 0bbb 80e8 88bb 90c8 7dbb d6bc 353e
000000a0: a9e2 943d 7190 19bc f266 a1be 1a17 b83d
000000b0: a2ee d9ba f534 67bc 4694 19bb af30 e2bb
000000c0: f0fa 953d 522b 22bb 4c95 c1bd 5c31 c03d
000000d0: 8a48 13be c727 bbbe bffa 32be 9050 56bb
000000e0: bb65 85be 5f47 21bb 7aee d63d 3036 1bbd
000000f0: c39c f0ba a62a 38be 97fc 72bd 0504 c9bc
00000100: 3f56 44bb f3bf 973d 348c d93d 1f53 a7be
00000110: b664 d73c 1143 f9bd b6f8 8abe e2aa 08ba
00000120: 7d69 a83d 6598 14be 218a 993d 18cb efba
00000130: bc3f 13be 0f4e bd3b 1222 13bb 5e9a ed3d
00000140: 0996 8bbe b969 c4bc 3b34 0abe 6bc2 ebba
00000150: 36f7 a0ba 9f7f c1bd ec4f fcba 3ffb 5cbd
00000160: b44e 94bd 14a3 89ba fd92 083d d760 38bc
00000170: ca1f 353d 60a6 14bd 7c81 8abb b0c9 bcbd
00000180: 6e07 85ba 055a 71be 5b05 d7ba bbd2 e2bd
00000190: 4e5d 7abe bd14 deb9 9bb4 b83d 9cb3 45bb
000001a0: d69c a7ba f697 b3bc 78eb 8f3d 9fb1 a53d
000001b0: e411 84be 2a1a 99bd e01a e93d 14e5 92bd
000001c0: 308b 4b3d a615 41bc 1d68 94bc 966d 50bc
000001d0: 8f1e afbe 3765 15bc b6de cabd c657 3bbb
000001e0: bd49 25be 5842 2bbb 1b55 173c 9e5c 43bb
000001f0: 8d8b c5ba 0d35 a6be e528 d63d 4b16 98be
00000200: 4b82 28bd 9155 94bb c458 f8bd 4d09 33be
00000210: 8db5 09be efd0 e1bd 2ea0 f0bd d45b e1b9
00000220: f2a8 9dbe d3bd 6c3d ba8c 0abe ac49 5fbb
00000230: 4d9a 053e fdbe 1cbe e873 8fbb f3a1 0cbb
00000240: 303e 96bd 8944 f2ba aba6 183d 44bd 323e
00000250: 791d c5bd 0eca 05bb bf23 a5bd 9ed4 f7ba
00000260: 961d 8abd 2ba7 f5ba 0a58 593e 12f8 deba
00000270: cdc2 0a3e 9579 9ebb 4a28 61be d9f6 66bb
00000280: 027f 21bb ef72 953c e160 073d aa27 8dbb
00000290: cb09 f3bd 1da6 0cbb a1b7 a7ba aad2 a43d
000002a0: 924c e1bc 0520 d43b afd4 9ebc ffec 46bd
000002b0: dab5 79bd 0439 64be 40bd 05bc 2a55 4a3e
000002c0: 2161 93be e012 05bd a49e 0bbd 1e41 dcbd
000002d0: 3c5b cf3d 1066 f5bd ff57 13bb 8024 fdbd
000002e0: 01ea 81bb c075 9b3c 0c65 99ba 2d3e 9d3d
000002f0: 62dd 68ba f577 db3d f377 263d d381 3e3e
00000300: 3496 43bc f61c bdba 8885 10be 4a00 8abd
00000310: 5eb0 dc3d 6277 bb3d cc92 7d3d 4564 3cbb
00000320: 123f b23d 3894 f6ba 77e2 d2ba 9a87 de3d
00000330: 2cdb 23bc 15fe d93d abe5 64be 62ff c43c
00000340: 1ff3 53be 2f69 76be 8e92 6cbb dcd9 61bb
00000350: b317 da3d f609 4dbe 9ba3 b1bc 0a5c 7abe
00000360: f375 fabb 0671 a3ba db92 33bb 8b35 eb3b
00000370: 0e9d 6ebc fc72 bdba 388b 68be 7481 9bba
00000380: 4199 953d a712 b9bd cee9 8ebd 11af e0bb
00000390: 1e76 963d ab48 9abb 2d45 5ebe 3ae7 80bc
000003a0: cc52 0bbb c184 a83d f7fb d3ba c278 9cbe
000003b0: ffe0 2cbe 8c6f 62bd 72ab 36bc 86c1 2abc
000003c0: e423 11be d5f9 1dbe 84b1 803d 53e6 c0bc
000003d0: 3912 653d 4c5e beba 6710 1cbe b50f a4be
000003e0: 6de5 063e f73e 80bb 6b98 4f3e 0565 abba
000003f0: d6b1 023e 13a3 92bc 0265 e7ba b4b4 eb3c
-0.089581475 -0.0028112829 0.0056956355 6.281698e-06 -0.04325275 0.05942188 -0.04835791 0.09032777
-0.018634308 -0.0619748 -0.0020111813 -0.26091605 -0.0017435309 0.0064565376 -0.0013203579 -0.015731165
-0.0005923145 -0.0020098032 -0.25958544 -0.37256414 0.0024000618 -0.2676171 -0.0022475012 -0.015801495
-0.12620255 -0.06418219 -0.029313862 -0.004171199 -0.1300757 -0.23244615 -0.10872109 0.026332045
-0.0018035785 -0.0020588357 0.008155411 -0.26150683 -0.0021213738 -0.004178107 -0.003872428 0.17747816
0.072697945 -0.009372816 -0.31523854 0.08988781 -0.0016626904 -0.014111747 -0.0023434325 -0.006902776
0.07323253 -0.002474506 -0.09452304 0.093844146 -0.1438314 -0.36553785 -0.17478465 -0.0032701828
-0.26054177 -0.002460919 0.104947045 -0.037893474 -0.0018357266 -0.17985019 -0.05932292 -0.02453805
-0.0029958633 0.07409658 0.10622445 -0.32680604 0.02629314 -0.12170995 -0.27142876 -0.0005213452
0.08223245 -0.14511259 0.07497049 -0.001829478 -0.14379781 0.0057771276 -0.0022450727 0.11601709
-0.27262905 -0.023976194 -0.13496487 -0.0017987018 -0.0012280706 -0.0944817 -0.0019249893 -0.053950544
-0.07241574 -0.0010500872 0.033343304 -0.011253557 0.04421977 -0.03629148 -0.0042268615 -0.09218156
-0.0010149309 -0.23569496 -0.0016404794 -0.1107535 -0.24449655 -0.0004235859 0.09018823 -0.003016687
-0.001278783 -0.021923047 0.07027334 0.08090519 -0.257949 -0.074756935 0.11382079 -0.071725994
0.049693286 -0.011784947 -0.018116051 -0.01272144 -0.34203002 -0.00911837 -0.0990576 -0.0028586253
-0.1614141 -0.0026132073 0.009236599 -0.0029809843 -0.0015071497 -0.3246235 0.10457019 -0.29704508
-0.041139882 -0.004526802 -0.12126306 -0.17484017 -0.13448162 -0.11026179 -0.11749302 -0.00042983762
-0.30792958 0.057798218 -0.13530245 -0.0034071011 0.13047142 -0.15307231 -0.004377831 -0.0021458834
-0.0733608 -0.001848356 0.037268322 0.17455012 -0.09624762 -0.0020414623 -0.08063459 -0.0018907969
-0.06743924 -0.0018741837 0.2122499 -0.0017011187 0.13550873 -0.004836271 -0.21988025 -0.0035242348
-0.0024642353 0.018243281 0.033051375 -0.004307707 -0.11867102 -0.0021461316 -0.0012795815 0.080479935
-0.027502332 0.0064735436 -0.019388525 -0.04856586 -0.060964443 -0.22287375 -0.0081627965 0.1975905
-0.2878504 -0.032488704 -0.03408684 -0.107546076 0.101248235 -0.119823575 -0.002248287 -0.123604774
-0.003964663 0.018977046 -0.0011703088 0.07677875 -0.0008883086 0.10716239 0.040641736 0.18604212
-0.011937667 -0.0014428187 -0.14113438 -0.067383364 0.10775827 0.0915363 0.061907575 -0.0028746289
0.08703436 -0.0018812483 -0.001608922 0.10865708 -0.010000985 0.106441654 -0.22353236 0.024047557
-0.20698212 -0.24063562 -0.0036098096 -0.003446213 0.106490515 -0.20023331 -0.021684458 -0.24449173
-0.007643455 -0.0012469597 -0.0027400765 0.0071780137 -0.014563812 -0.0014453824 -0.22709358 -0.0011864142
0.073046215 -0.09036761 -0.069781885 -0.006856807 0.07346748 -0.0047083697 -0.21706076 -0.015735257
-0.0021259068 0.08228446 -0.0016173114 -0.3056088 -0.16882704 -0.05528216 -0.011149274 -0.010422116
-0.14173847 -0.15427335 0.062838584 -0.023547327 0.05592558 -0.0014523952 -0.15240632 -0.32043234
0.13173456 -0.003913756 0.20272987 -0.0013076371 0.12763152 -0.017900025 -0.0017654004 0.02877269

model.4.weight f4 [256, 256]
00000000: a305 ebbe 31ff d83a 9e37 e63a c9e0 a33d
00000010: c9ac b0bc e8af b1bd 674d 98bd 032a 24be
00000020: fe23 c9bb 3faf 18bf 7d38 92bb 0723 d9bd
00000030: 2932 b8bb e72b b33e 73c2 82bb c7bb aebd
00000040: 3174 45b8 8464 9b3b 130c e2bb bff0 9a3e
00000050: 65b6 5c3e 6bf2 04c0 6cba b9ba 5cf3 8d3b
00000060: 14bc cd3e 5d61 14be 74bd 22bf deee 553b
00000070: a570 503d 2906 9e3d c244 473e 6e60 89bb
00000080: 2c7d beb9 0cba f63a 5fda b33c 32d3 213e
00000090: f2bf f339 dbe6 0c3b 8a20 05bb b02d 1c3e
000000a0: 59c9 af3d a756 01bc 2b14 8e3d d0e7 b3bc
000000b0: 046a 583a 7991 243c ffcc 743b 3498 243b
000000c0: 777c 47bd e5fd b33d 1191 023d 6f26 bb3d
000000d0: 7f0c f4bd fc23 7d3d df76 6f3d e080 143b
000000e0: 024e fb3d 85c6 b6bb 9fdc d13d 8f71 ed3c
000000f0: 2c95 013b c637 173e 539c 803e e93f 593e
00000100: 1053 ec3b ac78 b5bb fcb7 e83d 5a17 153d
00000110: ad7b 633d 198c d03e 894b f63d f462 343b
00000120: 457b 8bbc 6351 023e 0823 203e 7b7b de3a
00000130: d6ba bd3d deba acbf 0d30 d8ba c210 7d3d
00000140: 0a08 d93e e019 64be 764b 053e aff1 94bb
00000150: 2a67 72ba ab1f a7bf 0380 a5bb 1eaa f7bc
00000160: 40f3 c33c 1ae1 b63b f8e2 f9be b5eb 1cbe
00000170: 157c 493e cfbb 173d 583d ffbb b7cf 74bd
00000180: 5e4f 33bb 6651 1dbf b610 abba 108b c83d
00000190: f292 793c f879 feba 0ba7 6a3e c467 633b
000001a0: 0f45 5f3b b21f 9b3d f82c 42bd 0c05 f2bd
000001b0: fcac db3c 4812 e93b 2401 09be 3ab9 c53c
000001c0: a528 c93e bef9 ee3c 74c5 fb3c 6734 3c3b
000001d0: 4f4b 053f eee6 403b 7bdc ec3e 7d40 423a
000001e0: bdd4 b7bb 9337 ab3b 9612 00bc 3ac3 083a
000001f0: cbdb 7a3b 7dba 91bb c4d4 21be 10be 06c0
00000200: 82c5 0abe cf1a 953b 8285 753e 8e71 cfc0
00000210: fd9f 5cbe a475 3d3e d536 73be 50b8 8539
00000220: 1484 963e 8114 7dbd bcc8 893d eda4 45ba
00000230: 6fa4 0b3e b8fa 773d 8fb4 32bb 4944 28ba
00000240: 2f11 c63e 84e4 49bb a374 09bf 7a7b 293e
00000250: 2ab3 633f 0a04 bbb9 b27a e2bc 7fd8 6dbb
00000260: a413 053e 8f57 70ba acde 983d 693d 3bbb
00000270: a506 f23b f323 c5ba 7d2c cebe 8440 80bb
00000280: 6ba1 6bbb 912b ff3c 849b 093e a51d 12bb
00000290: 0a52 673e b5e5 543b 71ee 3c3b bb15 863d
000002a0: b992 df3d 2cd6 abbd e0f4 b93a 91be 3d3d
000002b0: 9beb dfbd b165 41bd f024 9c3b ae57 88bc
000002c0: b107 113d 3f4f a23e 92c3 893d 9ec0 8d3e
000002d0: add8 263d fd28 09bf e9d0 1c3a 0aa4 1e3e
000002e0: 1f21 a2ba 3429 12bc 5c5f caba bd91 753c
000002f0: fcdd 1a3b d5d4 aa3e f7d2 553e 33a7 033e
00000300: 6e5d 93bc 3808 cf39 8343 2b3e d62a 123e
00000310: 4131 e33d fe83 7c3d 979b 2e3d 23a3 e83a
00000320: a77a 44be 3a78 3fbb 2ef7 ab3a bc41 3c3e
00000330: 48d0 203f 8de5 17be 499e 58c0 738f 74bd
00000340: 0df2 be3c 4909 4dba 6d27 cbba 8c46 c3ba
00000350: 4242 ccbd 8650 2cbe 30ac 03bc 086e 323c
00000360: 9b87 3fbc 9814 e0ba b61b 68ba 6f65 f33b
00000370: 93b1 8cbc fd1e 8d3b ede3 5ebe 8aed 2fbb
00000380: 5dc6 e03e 1f0f 5a3d e48e 8d3e a1ae 853b
00000390: 148f 64bc fc08 da3b 5559 8cbe 36d2 e1bc
000003a0: bfd9 5a3b 3b05 3c3e 7743 96bb 06ff 823e
000003b0: 3f8d 813d 77f9 63be 5037 68bb 95aa 953c
000003c0: 83f0 023d a3e0 2a3d 1884 f93c b540 c13d
000003d0: 8eb1 2b3e 1561 b3bb 01c8 873b 0239 b23b
000003e0: 7be0 92be 3137 d33b b3b2 64bc d940 6e3b
000003f0: 9411 2ebd d795 5fbb 1d4a 05bc b463 693e
-0.45902738 0.0016555545 0.0017564183 0.08001859 -0.021566765 -0.086761296 -0.07436638 -0.16031651
-0.006138324 -0.59642404 -0.0044623003 -0.10602384 -0.005621214 0.34994432 -0.0039904653 -0.085319094
-4.707667e-05 0.004742207 -0.006898412 0.302618 0.21553953 -2.077296 -0.0014169938 0.004331989
0.40182555 -0.14490266 -0.6357033 0.0032643597 0.050888676 0.07716019 0.19459823 -0.0041924035
-0.00036332884 0.0018823757 0.021954713 0.15803221 0.00046491582 0.0021499905 -0.0020313584 0.15251803
0.08583326 -0.007894195 0.069374405 -0.021961123 0.00082555437 0.010044449 0.0037353633 0.0025115134
-0.048702683 0.08788661 0.031876627 0.0913819 -0.11916446 0.061801895 0.058462974 0.0022659823
0.12270738 -0.0055778646 0.10247158 0.028984813 0.0019772751 0.1476737 0.25119266 0.21215786
0.0072120503 -0.005538067 0.11363217 0.036399223 0.05553787 0.40731886 0.12026126 0.00275248
-0.017026553 0.12726359 0.15638363 0.0016974056 0.09264152 -1.3494527 -0.0016493812 0.06178356
0.42388946 -0.22275496 0.13017067 -0.0045454125 -0.000924694 -1.3056539 -0.0050506606 -0.030232485
0.023919702 0.0055810334 -0.48805976 -0.1532429 0.1967624 0.037044343 -0.007789295 -0.059768405
-0.002736054 -0.6145233 -0.0013051245 0.09792149 0.015232788 -0.0019415012 0.22915284 0.00346993
0.0034068262 0.07574405 -0.047406167 -0.11817369 0.026815884 0.007112775 -0.13379341 0.024136174
0.39288822 0.02917182 0.030733801 0.0028717758 0.52068037 0.002943452 0.46261963 0.0007410122
-0.005610077 0.005225131 -0.007816931 0.00052170793 0.003827798 -0.00444728 -0.1580382 -2.1053505
-0.13551906 0.004550315 0.2397671 -6.4826117 -0.21545406 0.18501908 -0.23751386 0.0002550506
0.29397643 -0.061787132 0.0672774 -0.00075395295 0.13636945 0.06054184 -0.0027268266 -0.00064188667
0.38684985 -0.0030806372 -0.536936 0.16551009 0.8894526 -0.0003567043 -0.027646396 -0.0036292372
0.12995774 -0.00091683207 0.07464346 -0.002857054 0.007386046 -0.0015040621 -0.40268317 -0.003913941
-0.0035954367 0.031148704 0.13438231 -0.0022295502 0.22589889 0.003248555 0.0028828646 0.065471135
0.10916657 -0.083904594 0.0014187358 0.046324316 -0.1093361 -0.04721612 0.0047651455 -0.016643371
0.035407726 0.31701085 0.06726755 0.27686018 0.040733982 -0.5357817 0.0005982058 0.15492263
-0.001236949 -0.008920956 -0.0015439796 0.01498836 0.0023630848 0.33365503 0.20881258 0.1285675
-0.017988887 0.0003948824 0.16724972 0.14274153 0.11093379 0.061649315 0.04262885 0.0017748814
-0.19187413 -0.0029215948 0.001311993 0.1838445 0.6281781 -0.1483366 -3.384661 -0.059707116
0.023308778 -0.0007821513 -0.0015499421 -0.0014898344 -0.09973575 -0.16827592 -0.008036658 0.010890491
-0.011690046 -0.0017095981 -0.0008854227 0.0074278633 -0.017174518 0.0043066726 -0.21766634 -0.0026844465
0.4390134 0.053237077 0.2764808 0.0040796553 -0.013950128 0.006653903 -0.27411905 -0.027566057
0.0033393947 0.1836137 -0.004585679 0.25585192 0.06325769 -0.22263132 -0.003543336 0.018269816
0.03196765 0.041718137 0.030458495 0.0943617 0.1676695 -0.0054742196 0.0041437154 0.0054389248
-0.2868689 0.0064457883 -0.013958621 0.003635457 -0.042497233 -0.003411641 -0.008135346 0.2279194

model.4.bias f4 [256]
00000000: a9ab cb3d 6f21 683e 64c4 e8ba bb5a ff3c
00000010: 0202 243e 24c4 ca3d 6397 c63d e5ae 5a3c
00000020: 2cd7 6fbd 1d18 7dbc 5e4c b1ba 2f9a 75bc
00000030: 5428 d13d 873a 04bb 0cc9 9bbc 9f35 3cbb
00000040: dc8d 9a3d 84ff 53bb 163b a6bb c8c2 c7bd
00000050: 30e3 c93d fc7e 5ebd 1add cc3c e25b 2abe
00000060: 2645 daba 5eb0 343e 38cc c7bc 5351 7b3e
00000070: 4cc2 a13d 4223 1ebc e0ca 05bf d18a 543d
00000080: 8c87 113d 3dcb f8bd de2d 0fbb c386 3fbb
00000090: b8f0 5b3b 17f6 f53d beda cb3c 4bb7 253e
000000a0: 8b06 083e 9a3a 263d 6e5b 0e3d 67e1 c73d
000000b0: ac06 a1bd 49b9 9c3d e2af 3cbb fd97 91ba
000000c0: ca27 45bc 4a5c 8c3d 9197 c3bd 3ac3 be3c
000000d0: a575 063e 79b5 31bb 2476 67ba 51ba a1bb
000000e0: f2c6 bbbc b431 14bd 54d5 fa3c dfe6 15bb
000000f0: 3943 61bb b55b 48bd 6732 60bc 1b75 a83c
00000100: 3b77 1bbb 070e d9ba 6f4f ad3d 5b6d 9c3c
00000110: 177d 63bc 535e 44bd 73ce 09be ed91 a9bc
00000120: 7914 a3bd 3c3d d7bc 6a3c 44bb 207a 0d3e
00000130: 98da f0bd cdc2 26bb 64e9 163d cc4d 09bb
00000140: be1c ef3d a60f 08be c124 a33d 0f0d 8ebb
00000150: 616f 123d a837 dcbd 438e 41bd e38f 20be
00000160: c444 06bb a3a5 dbba 5025 abbc ce2f 583e
00000170: f6ae a23c 1f10 8bbc bace 783d 31e1 d5ba
00000180: f3cc fb3d c15e 1bbd 9386 533d 17eb 533e
00000190: 1db7 05bc 8e61 0abd 62cd 73bc 2c7d 18bb
000001a0: c725 66bb 95e6 763e b4fe aebb 1d4d 67ba
000001b0: 4419 0bbb 078b 823d bb63 68bd 76cf 623d
000001c0: 6028 91ba c9be fc3d ff9f 96bb 85ca 50bb
000001d0: b355 56bb 8963 6f3d 82a0 b03c 2cf6 81bc
000001e0: 4d59 173e 013d 41bd 31ce ce3d a910 a7bd
000001f0: 7cb3 953c 3e0d c03d 186b 533c fe20 67bd
00000200: f1a6 14bd 1035 45bb 8095 c73d 9e39 313d
00000210: ed65 00be 77f1 843d 55fa c33d 5451 debd
00000220: b774 a2bb 3fad a93d 32d3 99bc 8d16 18bb
00000230: 23e3 583e 66aa e4bb 304a 29bc eaa8 d23d
00000240: 0596 07bb 6045 84bb 5dc7 3a3e da12 a1ba
00000250: e8e2 0cbb 1f2d 3fbb 04d1 a5bb e270 46bb
00000260: 7be3 043d 2aaf 473d e806 a03d fae5 52bc
00000270: c88b 20bc 3503 683e b01b 07bb 12f0 0f3e
00000280: 4caf 283e 2fcf 98bc 58d9 173e 5667 0bbb
00000290: 9bc1 0fbe fc86 9fbd 3a63 053e 368a 2dbb
000002a0: 9fff c93d b134 c0bb 8e49 5b3e 4030 103e
000002b0: faf6 663e e8ea 1bbe 8993 80ba ff0d e2ba
000002c0: 198d cebc 68e6 00bd d836 5b3e 519b e7ba
000002d0: 41e0 78bc e7b6 00be 6d4a 673d a6f8 123d
000002e0: a740 963c fdef e0bd 4c00 903d 0504 e2bc
000002f0: c70f c7bb 77b5 caba a550 02bb 2cd6 21bb
00000300: bd3e 4b3d ea84 3cbd 2f2a 8b3c b4d2 c6bc
00000310: a1da 28be 0713 9bbb fd72 a8bd 008e ef3c
00000320: b745 703d 6f3a 5b3c 6d2e 3dbb cd5f 183d
00000330: 1306 9cbb 24e9 f0bd a9b2 5ebb 50d3 b5bb
00000340: 518a ca3d 2f32 d4ba 44ea 4bbb 8d97 e5ba
00000350: 8db8 33bd 01ca 31bd fadb 9e3c f99f d7ba
00000360: 7d06 46bb 899f 063e db0a adbd ddbd 03bd
00000370: 23e8 243e 7652 f13d 99dc 6c3c da76 1cbe
00000380: 121c 07bd c4cf d63c deba bbbc 27f5 57bd
00000390: a99b 9f3d 7759 0abb fd7d 82bd 0995 6bbd
000003a0: fffb 8bbc 6603 b0bb cb75 6cbb d33c a7bb
000003b0: 6fa7 0fbc 810a 503e 9c73 06bb 0a41 f9bc
000003c0: 2ac0 053e 6888 d3ba 8215 b8bb f89e 103d
000003d0: ff32 1c3d d50c 59bc 9669 cf3d d90a 75bc
000003e0: 2ce8 08bd aa5c ad3d c804 ffbc 0b54 ebba
000003f0: c76a ef3d 240e aabd 1245 523e 61e2 823c
0.09944851 0.22669004 -0.0017758724 0.031171193 0.16016391 0.09900692 0.096968435 0.013347362
-0.058554813 -0.015447644 -0.0013526788 -0.0149903735 0.1021277 -0.0020176487 -0.019016765 -0.0028718484
0.07546589 -0.0032348344 -0.0050729616 -0.097539485 0.09857786 -0.05432032 0.025007773 -0.16636613
-0.0016652688 0.17645404 -0.024389371 0.24542741 0.07898387 -0.009651961 -0.5226269 0.0518902
0.03552966 -0.121481396 -0.0021847407 -0.0029224611 0.0033560228 0.120098285 0.024884578 0.16183202
0.13283746 0.04058323 0.034755163 0.09759789 -0.07862601 0.07652528 -0.0028791358 -0.0011107918
-0.012033412 0.0685354 -0.095503934 0.02328645 0.13130815 -0.0027116223 -0.0008829555 -0.0049355407
-0.022922013 -0.036180213 0.0306193 -0.0022873206 -0.0034372343 -0.048915584 -0.013683892 0.020563653
-0.002372219 -0.0016559967 0.084624164 0.019095114 -0.013884804 -0.047941517 -0.1345766 -0.020699466
-0.07962889 -0.026274316 -0.0029943236 0.13816118 -0.117604434 -0.00254457 0.036843672 -0.0020950912
0.11675404 -0.1328722 0.079659946 -0.004335053 0.03575075 -0.10752803 -0.047254812 -0.15679888
-0.0020487765 -0.0016757738 -0.020891815 0.21111986 0.019858819 -0.01697546 0.060744025 -0.0016317723
0.1229495 -0.03793216 0.05164201 0.20695148 -0.008161333 -0.03378444 -0.01488051 -0.0023267968
-0.0035117732 0.24111398 -0.0053404216 -0.00088234415 -0.0021224776 0.063741736 -0.056735735 0.05537363
-0.0011074655 0.12341077 -0.0045967097 -0.0031858992 -0.003270489 0.058444533 0.021560911 -0.015864454
0.1478016 -0.04717732 0.10097922 -0.081574745 0.018274061 0.09377526 0.012903951 -0.05642795
-0.03629202 -0.0030091442 0.09745312 0.04326784 -0.12538882 0.06491368 0.095692314 -0.10855356
-0.004957761 0.08284997 -0.018777464 -0.00232068 0.21180396 -0.006978321 -0.010332629 0.10286124
-0.0020688784 -0.0040365905 0.18240114 -0.0012288943 -0.0021497551 -0.0029171181 -0.005060317 -0.0030279686
0.032443505 0.048751034 0.07813817 -0.0128722135 -0.009798951 0.22657473 -0.0020615868 0.14056423
0.1647312 -0.01865348 0.14829004 -0.002127131 -0.14038698 -0.07789418 0.13026133 -0.0026480085
0.09863209 -0.0058656563 0.21414778 0.14080906 0.22555152 -0.15226328 -0.0009809594 -0.0017246603
-0.025213765 -0.031469733 0.2140764 -0.0017670189 -0.015190185 -0.12569772 0.056467462 0.03588166
0.018341376 -0.10983274 0.070313066 -0.027589807 -0.006074879 -0.0015465458 -0.0019884494 -0.0024694307
0.04962038 -0.046025194 0.016987888 -0.024270393 -0.1648965 -0.004732493 -0.08225057 0.029242516
0.058660235 0.013380631 -0.0028866783 0.037200738 -0.0047614663 -0.11763218 -0.0033981001 -0.005548872
0.09889663 -0.0016189272 -0.0031114975 -0.0017516479 -0.043877173 -0.043405537 0.019392002 -0.0016450874
-0.003021627 0.13146795 -0.08449336 -0.03216349 0.16104178 0.11783306 0.014456891 -0.15279713
-0.032985754 0.026222117 -0.022916254 -0.05272403 0.07793362 -0.0021110454 -0.063716866 -0.057515178
-0.017087935 -0.005371499 -0.0036080952 -0.0051036864 -0.008767947 0.20316507 -0.0020515686 -0.03042652
0.13061586 -0.0016138675 -0.0056177983 0.035307854 0.03813457 -0.013247688 0.10127561 -0.0149562
-0.03342454 0.0846494 -0.03113021 -0.0017954124 0.11690288 -0.08303478 0.2053416 0.015977086

model.6.weight f4 [1, 256]
00000000: 7a22 d23e 333a 493e 78da a83a bd44 8cbf
00000010: 0f2e d83d 80b3 833e a1f9 cb3e 5161 0ebf
00000020: 0d3d 32c0 52bc 0d3b 1194 323b 9733 423c
00000030: 6374 873e 0ad7 deb9 e0f3 e8be 5cba 33ba
00000040: e0d8 1cbf 1e9d 0d3b 4f04 b739 2b90 8ebf
00000050: 08b2 3cbf 8ea7 04c0 cd81 66c0 cd46 20bf
00000060: c35e 92bb 8a0c 0b3f 0065 0e3c 195a b03e
00000070: b5ed 8f3e 12b1 4abf 0612 d5bf f404 10c0
00000080: 10d7 bdbf 9d25 1840 9e87 b2b8 672f 6f3a
00000090: 7d5b 23c0 87d8 0f40 e45a 65bf 47ec 1e3f
000000a0: 5afb 313f ea26 d0bf fd68 69bf befa 3b3f
000000b0: e0c3 48bf 9347 8e3e ce72 dd3a 8227 863b
000000c0: 3f8d b4bb 2346 85bf 61a8 79c0 9ac4 1dbe
000000d0: 4f42 363f f807 5c3b 2ded 513b 1dd0 8cbb
000000e0: 3d64 a0bf 8199 953c c4f3 58c0 27d9 e4bf
000000f0: 5d3d 193b c4b6 c1bf 4ea9 3bbf 124a 67c0
00000100: 1688 2b3c 2700 363a 15df 32bf ad7c 1dc1
00000110: 402c b4bb 3aa2 30bf 2182 0dc0 803d 32bf
00000120: 1b3f ddbf a592 d73c ddfe e639 2cc9 ae3d
00000130: 72f4 0fc0 ca6f 903b c94f 6b40 6f11 80bb
00000140: c6f2 373e a260 3bc0 093b c7bf a549 293b
00000150: b452 f9bf c0f8 70bf 6c49 87bf 46b4 73c0
00000160: f9f4 283b 96a2 213b bda5 63c0 fa3c 353e
00000170: 26e8 66c0 00c8 96b7 b5b4 bcbd 01e8 d439
00000180: 2c4e 0e3f f7d4 9f3b 4655 f7be a8cd 2e3e
00000190: 33b4 76bf c169 1cbf 9be1 173c d618 ba3a
000001a0: 5013 093a cf9f a73e 5186 a63a 216a b53a
000001b0: 1518 6d3a e0e2 08c1 03b0 53bb acf7 5bbf
000001c0: db77 dcbb 37bb 0e3f 34df fcc0 64f3 213c
000001d0: d94d 9b39 d322 31c0 0f37 f0c0 727e 7cbf
000001e0: 051e 1cc0 db98 6bbf fd62 853e f552 77bf
000001f0: 9c2f 62bf 3f4f 2040 c98b f8c0 9e11 26c0
00000200: db18 d03c f2d4 613a 9176 a63e 2cea debe
00000210: c6e8 78c0 4ce0 e5bf 9c75 a03e e42f 2bc0
00000220: 9d6d a13b c1eb 943e 7fd9 48ba 3ed8 8d3b
00000230: 14af 323e 2d25 003b 8bb9 6f3b 32ca 883e
00000240: 2ed4 963b 9f17 303b 4b47 5b3e b5a7 a7ba
00000250: d64b 113b b63b 9039 9bd4 3a3b f61a 4e3b
00000260: 774e fbbd c957 75be df1b 81bf c9a8 f03a
00000270: 8ad2 9d3a b087 493e 59a7 c137 95ec 993f
00000280: cf48 223f faa3 5840 db8f 993e a5d2 d63b
00000290: 3a68 84be 330e cfbe 8a14 b43e 10b0 f03a
000002a0: 8e57 833e e1fc 2ac0 f5e0 383e f0f7 993f
000002b0: 4bc8 483e 38d1 5740 7d44 953b 63d3 3a3c
000002c0: 9daf 3cc1 10ce a9bb 26b3 373e 1282 8839
000002d0: 3162 06c0 53f9 bcbd 13d8 3cbf 6593 32bf
000002e0: 5283 98bf 6d65 1cc0 8dfe c5be 0917 163a
000002f0: 4c33 793b d797 863a c460 fb3a 0154 97bb
00000300: e519 5ec0 6f39 bebf addf f7be a8ae d33b
00000310: 1dfc 6ec0 080a f63a 549b bbbf ac2f da3f
00000320: 40ea b6bf 8168 aebf 80bd 5f3b eb5b 25c0
00000330: d06f 3bbb b16f 52bf a273 5e3b 9611 ee3a
00000340: 8692 833e 0e32 cf3a 1d98 c2b8 eab1 ed39
00000350: 47d7 9b40 0fa7 0dbb 6b7c 24c0 71a0 c83a
00000360: 9cf3 e03a 3388 b93e 463c b8c0 ae79 7ebb
00000370: 90da 2b3f 059e 3b3e d7e9 1ec0 0d7c 26c0
00000380: b919 243a 5051 25bf e8a9 863c c4cf 063c
00000390: 3c96 53bf 723e e83a f4c3 c9bf dc84 bdbf
000003a0: c9e4 75bf 347e acbf 6766 013b af8e e8bf
000003b0: 6712 2c3b ccc1 773e 2a9e d0bb dce4 fc3b
000003c0: 3ec6 b43e 1a49 163a 1256 ea3b 5d63 56bf
000003d0: 5fc4 2940 702e 653b cb05 853e 370d eac0
000003e0: be03 6abc ce25 023d c7e1 38bb fb0d 9a3b
000003f0: 9c08 a9c0 5c3b 1940 2a86 293e 5c7c 26bf
0.4104193 0.19651107 0.0012882492 -1.0958477 0.1055566 0.25722885 0.3983889 -0.55617243
-2.7849762 0.002162714 0.00272489 0.01185312 0.26455984 -0.00042503356 -0.45498562 -0.0006856078
-0.61268425 0.0021608542 0.0003490769 -1.1137747 -0.73709154 -2.0727267 -3.6016724 -0.62608033
-0.004466863 0.5431601 0.008691072 0.3444374 0.28111044 -0.7917644 -1.6646125 -2.2503023
-1.4831257 2.3772957 -8.512962e-05 0.000912419 -2.552459 2.2475908 -0.89591813 0.6207928
0.6952416 -1.6261876 -0.91175824 0.7342948 -0.7842388 0.27788982 0.0016895176 0.004094065
-0.005510002 -1.0412029 -3.900902 -0.15407029 0.7119493 0.0033574086 0.0032032237 -0.00429727
-1.253059 0.018261673 -3.3898783 -1.787877 0.0023382523 -1.5133901 -0.73305213 -3.613896
0.010469457 0.0006942772 -0.69871646 -9.842938 -0.005498439 -0.6899754 -2.2110674 -0.6962509
-1.7284883 0.026315043 0.00044058906 0.08534464 -2.2492948 0.0044078575 3.6767447 -0.0039083282
0.17963704 -2.927773 -1.5564891 0.002583125 -1.9478364 -0.9412956 -1.0569282 -3.807878
0.002578078 0.002466356 -3.5569909 0.17699042 -3.6079192 -1.7974526e-05 -0.09214155 0.00040608647
0.5558803 0.0048776823 -0.48307246 0.17070639 -0.9636871 -0.6109887 0.009270097 0.0014198076
0.0005229013 0.32739112 0.0012704824 0.0013840833 0.0009044421 -8.555389 -0.0032300956 -0.8592479
-0.006728155 0.5575442 -7.9022465 0.009884689 0.00029621905 -2.7677505 -7.506721 -0.9863044
-2.4393322 -0.92030114 0.26052085 -0.9661096 -0.88353896 2.5048368 -7.7670636 -2.5948253
0.025402477 0.00086148 0.32512334 -0.43538034 -3.8892074 -1.7959075 0.3133973 -2.674798
0.004926397 0.29086116 -0.0007661804 0.0043287566 0.174496 0.0019553408 0.0036579098 0.26716763
0.0046029305 0.0026869548 0.21413915 -0.001279107 0.0022170446 0.00027510308 0.002850807 0.0031449175
-0.12270825 -0.23959269 -1.008663 0.0018360849 0.0012040895 0.19680667 2.308532e-05 1.2025324
0.6339235 3.3850083 0.29992566 0.0065558725 -0.2586077 -0.4044052 0.3517192 0.0018363018
0.25652736 -2.6716845 0.18054564 1.202879 0.19607656 3.3721447 0.0045552836 0.011402938
-11.792874 -0.0051820353 0.17939433 0.0002603685 -2.0997431 -0.09227242 -0.73767203 -0.69756156
-1.1915076 -2.4436905 -0.3867077 0.00057254784 0.003802496 0.001026864 0.0019178619 -0.0046181683
-3.4703305 -1.4861277 -0.4841284 0.0064600296 -3.7341378 0.00187713 -1.4656777 1.7045798
-1.4290237 -1.3625642 0.003414005 -2.5837352 -0.002860058 -0.8220168 0.0033943434 0.00181632
0.25697726 0.0015807764 -9.278974e-05 0.0004533672 4.870029 -0.0021614467 -2.5700939 0.0015306604
0.0017162445 0.36236724 -5.7573576 -0.003882985 0.67130375 0.18321998 -2.4830225 -2.6013215
0.00062599365 -0.645772 0.01643844 0.008228246 -0.82651114 0.0017718805 -1.5762925 -1.480617
-0.96052223 -1.3476014 0.0019744874 -1.8168544 0.0026256086 0.24195021 -0.006366511 0.007717712
0.35307497 0.0005732939 0.0071513737 -0.83745366 2.6526105 0.0034970306 0.25980982 -7.314113
-0.014283119 0.031774335 -0.0028210746 0.0047013736 -5.282301 2.394248 0.16555086 -0.6503351
