Models/Bloom_filter/result/model-dict-7.pt (torch, 533313 bytes, 7 tensors)

model.0.weight f4 [256, 2]
00000000: 0d3e 9ebd a09c 83bb 2807 febc 1436 f43b
00000010: ddea 083d ba41 123c 44cc c6bd e156 aabd
00000020: b6f1 50bd 4625 eabd 0d9f 54be 7c78 cc3d
00000030: a335 9fbe 5f67 91bc 7c61 063c ff67 9fbd
00000040: 2789 74be 58d3 a03e 3cb4 43bd 0b88 b43c
00000050: 3a73 abbc 04cd b73e be29 16bd 1537 9dbc
00000060: 1da3 4ebf 7a64 4a3e 820a ccbc f4c2 a53c
00000070: 5398 b9bc d49c 613d 48bb 57bd bd67 ee3c
00000080: 352f c6bd f689 913e db25 52bd e050 83bc
00000090: 2740 43bd fcd2 a83c 52d0 3ebd 479f a93c
000000a0: 029c bfbd 1504 c93d 762d 22bd 42b1 aa3a
000000b0: fac8 4ebd fa01 9fbd 70a0 13be 3ad7 b3be
000000c0: 7856 fcbc 77c6 163d 38b6 df3d f779 073e
000000d0: 0db0 97bd a030 cdbc a054 f7be 3beb 983d
000000e0: 36e9 1cbd 5e75 c3bc 2e47 2fbd 76bf 173c
000000f0: 1f58 d6bd 3f55 b7bc 5f0d 2f3c a09a 2bbf
00000100: a291 5c3e ffd7 5ebf 48d3 503e 57d4 55be
00000110: 745c 043e 9db8 39be 8dbc b83c aa62 22bd
00000120: 2e96 da3c a5f1 76bd a6fe 39bd 658b 04be
00000130: fa53 2c3e 08ad a53d 1fa4 23bd 5636 c2bd
00000140: 5d24 8a3e cc61 04be 4949 6d3e c320 0fbe
00000150: ef99 d5bc 755e d2bb 1710 633e a544 fdbd
00000160: cacd 7e3c baed 91bd ed59 56bd e9ee 84bb
00000170: fde7 14ba 7980 b8bc 991e 1d3d 1c21 1bbd
00000180: c68d 813d e3ca b03c 6adc b33c 9845 91bd
00000190: d59a 6bbc 1f6c adbb aec4 bcbd ee75 1a3e
000001a0: f372 3bbe a3f2 ac3e 13e5 1bbe c4de 8eba
000001b0: f180 04be 7fed f2be 23f5 e7bb 2f6a babb
000001c0: 6963 3c3e e557 803d 50f2 643c 394f 9dbc
000001d0: eef4 56bd 151f 13bd 4e1e 6a3e 12f4 b0bd
000001e0: a152 52bb 605e 983b 5e4f 5abc 0757 a5bc
000001f0: 464e c93c 057c 263d 8d03 2cbd b509 80bd
00000200: f461 24bd d24c 483c 8a7f 48bd 9d20 62bc
00000210: 94a8 d7bc a460 b7bd fc51 aebe 3f9d e9bc
00000220: 54a9 853e 3357 fabd afbd 5a3e f144 023e
00000230: 074f 2ebd ac4e a6bd ef4e 8fbc b5bf 4ebc
00000240: 9f82 16bd 126c d4bb 5cbb 553b 3f88 fcbd
00000250: a91b a4bc b7f7 84bc a9f9 e8bd 1977 aa3e
00000260: 667e 723e 2d5a 5fbe 0d9b 753e 8f09 c0be
00000270: a40c bb3c 58ff a3bb fb75 ecbb f401 86bc
00000280: 1030 183c 0bef 1abd f5a5 e2bc 0c65 eebc
00000290: b9ec 3f3e bc9e 66be b3c6 a1be da17 02bd
000002a0: 385a 16bf 908a 95be 90ec a3bc 340f 84bd
000002b0: 94f6 dbb9 b3df a8be 9cd2 16bd d8db 64bd
000002c0: f52e 5dbc 3903 e8bd c33b 5ebd a861 b6bc
000002d0: 3d28 4d3c d9a1 06bd 53f4 6a3e 213e 0dbe
000002e0: 4afe 19bd 692b 223d efca 5b3e 661c 23be
000002f0: dcc8 f53d 2925 143e 7617 4ebd 9b1a e43c
00000300: ca02 35bd 0cb9 f5bc 289c 1fbd dc59 90bd
00000310: 78ea 923d ae48 bdbe 05e6 bdbb c15d 033d
00000320: 1dc7 4c3e fc2d 51be 3342 edbd a486 6b3d
00000330: b3a8 483e 638d c0be a042 7cbc 66f1 673d
00000340: 6369 07bd 79db fa3a dbca 89bd 4644 993e
00000350: d51f 36bd df43 923b 4da7 09bd 1db0 a73c
00000360: 56a1 94be bf1a 843e 7574 12be cf58 5c3e
00000370: 8a83 09bc b90d dbbc 9a14 523c fa8d bebe
00000380: e61f 7dbd f732 793d f735 40bd 46f9 083d
00000390: 6d8e 463e 4f87 ac3d 1d01 20ba 5b73 9fbd
000003a0: 3599 353e 1653 1bbf 7b95 b13a 95db 4d3c
000003b0: aead 28bc 2cd5 85bd 4502 03bd 9e13 423d
000003c0: bab7 27bd 2e98 4dbb cf9e 1fbd a54b 01be
000003d0: 8564 293d 6559 e6bd aeb5 d7bc a52c 373d
000003e0: 0d1e 593e 46e7 8cbe 518b 803c 7ce3 f6bd
000003f0: bdb4 cd3d 1169 a0be 8bd5 eebe d34e 4d3e
-0.07726679 -0.004016474 -0.031009272 0.0074527357 0.033427108 0.008926803 -0.09706929 -0.08317352
-0.051011764 -0.114328906 -0.20763798 0.09983918 -0.3109561 -0.017749486 0.008201953 -0.077835076
-0.23880444 0.31411242 -0.047779307 0.022037527 -0.020928968 0.35898602 -0.036660902 -0.019191304
-0.8071764 0.19764891 -0.024907354 0.020234562 -0.022655642 0.055081204 -0.05266884 0.0291022
-0.09676973 0.28425568 -0.051305633 -0.016029775 -0.047668602 0.020608418 -0.04658539 0.020705832
-0.09355928 0.09815232 -0.039594136 0.0013022798 -0.050484635 -0.07764049 -0.14416671 -0.35125142
-0.03080295 0.036810365 0.10923427 0.1323012 -0.07406626 -0.0250476 -0.4830675 0.07466742
-0.038308345 -0.023859676 -0.04279249 0.009261956 -0.104660265 -0.022379516 0.01068434 -0.67032814
0.2153993 -0.87048334 0.20393097 -0.20881782 0.12925893 -0.1813683 0.022550846 -0.039644875
0.02668294 -0.060289044 -0.045408867 -0.129438 0.1682891 0.08089644 -0.03995144 -0.0948302
0.26980868 -0.12927932 0.23172487 -0.13977341 -0.026074378 -0.0064199516 0.22174107 -0.123666085
0.015551994 -0.07125421 -0.052331854 -0.0040568006 -0.0005680321 -0.022522198 0.03835926 -0.037873372
0.06325869 0.021581119 0.021955688 -0.07093352 -0.014380177 -0.00529243 -0.09217201 0.15084049
-0.18305568 0.33778867 -0.15224104 -0.001090013 -0.12939812 -0.4744682 -0.007078783 -0.0056889276
0.18397297 0.062667646 0.013973787 -0.019202815 -0.052479677 -0.035918314 0.22863123 -0.08640303
-0.0032092708 0.0046499223 -0.013324587 -0.0201831 0.024573456 0.040645618 -0.041995574 -0.062518515
-0.040132478 0.012225347 -0.048949756 -0.013801721 -0.026325502 -0.089539796 -0.34046924 -0.028517364
0.2610575 -0.12223663 0.21361421 0.12721612 -0.042555835 -0.08120474 -0.017493693 -0.012618949
-0.036745664 -0.0064826095 0.0032612896 -0.123306744 -0.02003272 -0.0162314 -0.11375744 0.3329399
0.2368103 -0.21811743 0.23984928 -0.37507293 0.022833176 -0.0050048046 -0.007216213 -0.016358353
0.009288803 -0.037825625 -0.027667025 -0.029100917 0.18742646 -0.2252149 -0.31596908 -0.031761028
-0.5873141 -0.29207277 -0.020010263 -0.06448212 -0.0004195465 -0.3298317 -0.036821947 -0.05587372
-0.013499965 -0.1132874 -0.054256212 -0.022263363 0.012521801 -0.032869194 0.22944765 -0.13793232
-0.037596025 0.03959218 0.21464132 -0.15928802 0.120012015 0.144673 -0.050315343 0.027844718
-0.044192113 -0.029995464 -0.03896728 -0.07048389 0.071736276 -0.36969513 -0.0057952427 0.032071833
0.1999783 -0.20427698 -0.11584892 0.05750145 0.19595604 -0.3760787 -0.015396744 0.0566267
-0.03305949 0.0019138894 -0.06728145 0.299349 -0.04446395 0.0044636573 -0.033606816 0.02046972
-0.2902934 0.25801656 -0.14302237 0.21518253 -0.008393178 -0.026739942 0.012822295 -0.37217695
-0.061798 0.06083962 -0.046926465 0.03344085 0.19390269 0.084242456 -0.00061036815 -0.07785674
0.17734225 -0.60673654 0.0013548577 0.0125645595 -0.010295315 -0.065348 -0.031984586 0.04738199
-0.0409467 -0.0031371224 -0.03896981 -0.12626512 0.04135563 -0.112475194 -0.026331749 0.04472031
0.2120287 -0.27520198 0.015691431 -0.12055108 0.10044239 -0.3133016 -0.46647295 0.200496

model.0.bias f4 [256]
00000000: 0000 0000 cba7 1abd d18a bebd 0000 0000
00000010: 0000 0000 7eea 4ebd a56b b53d 0070 0dbc
00000020: 791b d9bc b3a5 66bd d74e b3bd 0000 0000
00000030: 54de 253d 7a96 c8bc 8cbf 36bd 67ca 7abd
00000040: 79da cbbc 0000 0000 c86f 61bd ad11 ccbb
00000050: 6775 dfbb 387c 20bc 0000 0000 8526 c23d
00000060: e1ee e1bc ac94 a7bd 0000 0000 8330 a53d
00000070: 0000 0000 f180 3ebd 0000 0000 4880 f83d
00000080: 3e1f b1bc a635 19bd bc63 683d 5291 94bc
00000090: 4095 bbbc 0000 0000 1843 0fbe 0000 0000
000000a0: d8ac 16be f5db ffbd 0000 0000 8c66 08bd
000000b0: 371c 48bc 0000 0000 0000 0000 8935 54bd
000000c0: dc72 afbd 8bb5 e3bc 0000 0000 091f 5dbc
000000d0: 4f46 4ebd 0000 0000 83c0 023e 56cc 0c3a
000000e0: 4e52 b5bd ab02 39bc 0000 0000 280e 0fbe
000000f0: bcb2 0abc 0000 0000 da32 86bd acd7 fc3b
00000100: 9c56 2cbc 0000 0000 04a2 a0ba 4cff f23d
00000110: a1ab 7abd 5dbf 16be 0000 0000 0000 0000
00000120: 31cd 0dbd 0fa5 0fbb 0000 0000 7a08 d2bd
00000130: a2ff 80bd 42bf c73c e27a aabc 0000 0000
00000140: 3016 f4bb 0000 0000 39d9 e4bc fa07 e03d
00000150: 0adc 273e 0000 0000 1365 983d 0000 0000
00000160: 0000 0000 0000 0000 4cc6 75bc d650 fcbd
00000170: fa80 4fbd fea1 a6bd 1b9d b0bd 6e1d 16bc
00000180: 0000 0000 0000 0000 450e 8f3d 1a13 f9bc
00000190: 78da 21bd f0ec 04bd 70f3 023c 4ebd 4cbd
000001a0: b0d9 0bbc 575f afbd c397 8ebb f11a c5bb
000001b0: 11c3 b93c 4b13 38bc 08e9 bc3a 20a6 193e
000001c0: 2247 9abd 8bb4 65bd fdf8 55be 0000 0000
000001d0: 4088 ae3c 01ff 63bc 203a 843a 3d30 58bd
000001e0: 0daa 05bd 1ff5 4d3c 19c4 f6bc 5997 0abd
000001f0: ae9b 063c a910 44bc 5062 dc3d bd18 f93c
00000200: 0000 0000 4286 4cbe 0000 0000 0000 0000
00000210: 7696 b03c 06a3 a2bd 50e1 9fbd 0000 0000
00000220: 23f6 9dbc 4459 153c 37d2 ea3d cf50 f03d
00000230: 4e26 6bbc 88d9 0a3c 0000 0000 736d 29bc
00000240: d4c6 77bb 44f7 52bd 9c37 8fbd 8dfe 41bd
00000250: 0000 0000 26ec c7bb 23e8 5cbe 0000 0000
00000260: eeba c0bb 0000 0000 0000 0000 3a5c 7cbe
00000270: d365 47bd 1e5f 59bc dcbd d33d 2d18 eb3d
00000280: a1fe b4bb fc00 6bbd 32f6 8abd 3d78 0abc
00000290: 96da 40be 88f3 3abe 0000 0000 bec6 e93d
000002a0: 94df cbbc 4200 24bd afb5 3ebd 0000 0000
000002b0: c277 8fbc 0000 0000 0000 0000 cff6 09be
000002c0: 456b f2bc 3769 4bbe 0000 0000 5ff5 f6bd
000002d0: 6aa5 76bd 8a03 fe3b 0000 0000 0000 0000
000002e0: 2f62 313e 3afa b0bb 56d2 48bd b857 4ebd
000002f0: 11d1 cc3d be9e 94bc c6f3 81bd 648f 79bd
00000300: 7982 1fbd 0000 0000 0ff6 fa3c f84f 05be
00000310: 0000 0000 0000 0000 12a8 30bc e379 273d
00000320: ab22 8abc 3c0d 263d 0000 0000 0cb1 b63d
00000330: 0000 0000 d871 3fbc 7d5c 89bb 0000 0000
00000340: 0000 0000 0000 0000 450f 3fbd fa03 55bd
00000350: 4b0b 5bbc 0000 0000 0000 0000 0000 0000
00000360: 5f1b 5dbe 90ae 92bd 8a02 56bd 9fe5 64bc
00000370: 95ea 03bc 0000 0000 0000 0000 befa 81bb
00000380: 0000 0000 21dc e63d 95cf 99bd 15c3 ffbd
00000390: 42c1 06bc 0000 0000 6410 e03d 6a59 0f3e
000003a0: be2d d33d 1def 513e c010 ccbc ab63 c13c
000003b0: 0000 0000 f008 cbbc 654a 113d 5ff4 06be
000003c0: 265c a7bc f962 aabd 6964 b8bc 0000 0000
000003d0: 0ca7 013c 0000 0000 f9f6 0a3c 2dac 2fbc
000003e0: 5530 cf3b 6a71 273a e769 54bd 683d 19be
000003f0: d341 e83d b8ad 16bd 63dc 95bc e012 95bd
0.0 -0.037757676 -0.09303821 0.0 0.0 -0.050516598 0.08858422 -0.00863266
-0.026502358 -0.056310367 -0.08755272 0.0 0.04049523 -0.024485815 -0.044616267 -0.061228182
-0.02488445 0.0 -0.055038244 -0.006227693 -0.0068194154 -0.009795241 0.0 0.09480003
-0.027579727 -0.08182654 0.0 0.080658935 0.0 -0.046509687 0.0 0.12133843
-0.021621343 -0.03740468 0.05673574 -0.0181357 -0.022898316 0.0 -0.13990438 0.0
-0.14714372 -0.12493125 0.0 -0.03330092 -0.012213758 0.0 0.0 -0.051808868
-0.085668296 -0.027796527 0.0 -0.013496169 -0.05036002 0.0 0.1276875 0.00053710246
-0.08853589 -0.01129214 0.0 -0.13970244 -0.008465465 0.0 -0.06552668 0.00771614
-0.010518696 0.0 -0.0012255316 0.118651 -0.061198834 -0.14721437 0.0 0.0
-0.034619514 -0.002191845 0.0 -0.10255523 -0.06298758 0.024383191 -0.020810548 0.0
-0.007448934 0.0 -0.027935611 0.109390214 0.16392532 0.0 0.074411534 0.0
0.0 0.0 -0.015000891 -0.12320106 -0.05066011 -0.08136366 -0.086237155 -0.00916229
0.0 0.0 0.069851436 -0.030404616 -0.03951499 -0.032452524 0.00799261 -0.049985223
-0.008535787 -0.085631065 -0.0043515875 -0.0060151746 0.022676023 -0.011235069 0.001441271 0.15004778
-0.07533099 -0.056080382 -0.20895763 0.0 0.021305203 -0.013915778 0.0010088123 -0.05278038
-0.032632876 0.012570648 -0.030122804 -0.033835743 0.008215828 -0.011966863 0.10760939 0.030407304
0.0 -0.1997309 0.0 0.0 0.02155612 -0.079412505 -0.07806647 0.0
-0.019282406 0.009115521 0.114658765 0.11734163 -0.014352394 0.008474715 0.0 -0.010341036
-0.003780772 -0.051505342 -0.069930285 -0.0473619 0.0 -0.006101149 -0.21572928 0.0
-0.0058816588 0.0 0.0 -0.24644557 -0.04868109 -0.013267307 0.10338947 0.114792205
-0.005523518 -0.057373986 -0.06785239 -0.008451519 -0.18833384 -0.18256962 0.0 0.1141486
-0.024886884 -0.04003931 -0.046559986 0.0 -0.01751316 0.0 0.0 -0.13473056
-0.029592166 -0.19864355 0.0 -0.120585196 -0.060216345 0.0077518867 0.0 0.0
0.1732261 -0.005400923 -0.049028717 -0.050376624 0.10000814 -0.0181421 -0.06345324 -0.060927764
-0.038942788 0.0 0.030634908 -0.13018787 0.0 0.0 -0.010782259 0.040887725
-0.016862234 0.040539965 0.0 0.08920488 0.0 -0.011684857 -0.0041919337 0.0
0.0 0.0 -0.04664542 -0.052005745 -0.013369392 0.0 0.0 0.0
-0.21592472 -0.071622014 -0.052248515 -0.013970762 -0.008051534 0.0 0.0 -0.0039666584
0.0 0.11272455 -0.07510296 -0.12488381 -0.008224787 0.0 0.10940626 0.13998953
0.10311459 0.2050137 -0.02491033 0.023607096 0.0 -0.024784535 0.03547134 -0.13179158
-0.020429682 -0.08319659 -0.022508817 0.0 0.007913362 0.0 0.008481734 -0.010722202
0.0063229003 0.00063874444 -0.05185881 -0.14964831 0.1134068 -0.036786765 -0.018293565 -0.07278991

model.2.weight f4 [256, 256]
00000000: 6584 383d d917 ccbc 53c4 5dbc 5b3e 5bbd
00000010: 5fa3 72bd 2dc2 83bd ce4d 63be 0a9e 6dbc
00000020: 744c d43e 63a5 ebbc 2a81 ccbd 8d5d 95bc
00000030: 6f4b 9d3a 4d3d e93a 8b92 383d 991e aebc
00000040: 9cf3 85bc 0a35 bdbd 9c9b e3bc cff8 053d
00000050: 8a7d 863c 27d0 063d 4b80 243a 2281 f43d
00000060: 634f 733d 579c 83be 4625 e43c e545 a03e
00000070: 68e2 813c d5a1 063c da38 90bb 4839 2fbe
00000080: 3574 c3bf 392d 04be 70d3 303d dbc2 f53b
00000090: 7545 4a3c 079b 103d 228e ce3d ad24 19bd
000000a0: d13a b03d 949c e43d 733b 763c e805 183e
000000b0: 5279 cabc 56c2 103b ad7e 5d3d 984d 163b
000000c0: 8125 e03c 688a 1c3d ade8 1a3b 5e33 00bd
000000d0: 6dfb 5b3e d429 9e3a a18f 563e d9f0 933d
000000e0: 8c4e 98be b35c 1d3b 4934 75bc 850d 9fbd
000000f0: 5c1d ab3c 0358 453d 83c5 1dbc 773d 213c
00000100: a553 bb3d 5e46 133c 7f65 a1bd bee8 71be
00000110: 9e04 c9be 198d 0cbf 4777 43bb 3f5d 09bd
00000120: b1d1 a5bc 2e2d e13d a231 9d3c f12e ad3e
00000130: 9d00 7bbf 6dc3 773e 3553 6ebd db27 453d
00000140: a015 013d e4e9 503d be24 77bb 51ad 6bbe
00000150: 8ad3 90bf ea1e 5e3d 82ab 4e3e 9e83 fdbc
00000160: 4813 f73c aa7a 3b3c b6d5 c13d 00da 0e3d
00000170: e188 e13d bd87 9fbf b951 3abe 6b5f 4dbd
00000180: 0fb8 75bc 3446 773d d447 5e3e b88f 323d
00000190: 5741 a4bd 8052 f0bd b3eb 65be 9265 37bc
000001a0: f772 b43c 6b5f 913d 6ae6 12bc e0a9 f13a
000001b0: d1b5 913e f257 013e 55f2 40bc 78f5 8c3e
000001c0: 6163 75bc eb78 ba3d 552f c2be 7389 8c3c
000001d0: a0bc e9be fa54 4a3d 4c63 e03c cabf ff3d
000001e0: 91a8 f0bc 4d74 b83d 7744 d73d 952e 92bc
000001f0: bad3 b43d 667d 883d e210 753e 71be 353d
00000200: 6c49 0dbd 1e6c 0b3f dbdf 833c 145f 27bd
00000210: 5166 e1be 2af5 96bf e501 373e c878 3a3c
00000220: 3088 a1bb bde3 8c3d 6227 303e 4b7c 8cbe
00000230: 4590 213e 5615 5b3d 5c68 eebb 8c79 8dbb
00000240: e8cb 30bd 2391 d2bc 3dee 2abc 2c72 933e
00000250: a06c 02bc 3655 aa3c 666e 653e 6386 d83c
00000260: 6bc0 a7bc 5692 e73c 7c5f 96bd 1ac3 2b3f
00000270: 4d9a ca3d 2a16 14bd 1c90 f2be 346a a2be
00000280: c3fb b1ba 297d cbbe dcf2 0b3f 5846 4fbd
00000290: 6230 83c0 606c 173e 5e66 99bc 883e 3fbe
000002a0: a4fb cc3d bc9a 66be d4ba 5bbd 76ae 0fbd
000002b0: 23ee 40bc 2b89 713c 6f61 08bd 0e8c 323c
000002c0: 9c49 433c 98e8 093f 22dc aa3c 5002 15be
000002d0: f435 2d3c 1094 b73d a486 f93c 3ae3 0d3d
000002e0: 5369 b33e 83c7 4f3e ab23 d13d 5ce6 013a
000002f0: a42f bc3d 68ec ccbc da73 bbbf e87d 2f3d
00000300: 154d 4f3e 42d8 e8bd b969 00be 459b 863d
00000310: dff3 19bd 3a46 493d 8117 20bd 635f 3fbe
00000320: 76a3 e83c 8cde f7bd b21e 8c3c 02e5 63bd
00000330: 6215 10bd 1bbf 393d fe8f 083d 52d0 61bd
00000340: 29fb acbc 13e9 a6bc 3561 2e3e 1f02 01be
00000350: 9f61 383c d550 113d 8509 b0bc 425d fabc
00000360: a7ad af3f 3998 9ebd 7632 6bbc d28a 2abd
00000370: 799a 843d 2bac fbbb ce60 90bd 47dc 59bd
00000380: a506 7cbd 3c7a b5be d47d c4be 412b a83d
00000390: 6efb 7bbc 15b0 4e3c 65ff 75be 3f71 3d3e
000003a0: 5587 8e3d 831d 1f3e 18f7 6e3e d47c 4c3e
000003b0: 2a75 13bb 154e 0d3e 4e94 1ebd a5e2 01bf
000003c0: 423d 22bc 3a0a bc3d 2de8 33bc 0265 a13b
000003d0: affb c3be a6dc 22bc a621 80bb ca20 7b3d
000003e0: d5a3 ad3d 3ce7 fb3d e722 a1bd f44f 9abd
000003f0: 2e24 dcbd 9889 db3c cd3d 303e 75c9 eabb
0.045048136 -0.024913715 -0.013535577 -0.053526264 -0.059237834 -0.064335205 -0.22197649 -0.0145030115
0.4146458 -0.028765386 -0.099855736 -0.018233085 0.001200063 0.0017794758 0.04506163 -0.021254824
-0.016351514 -0.09238632 -0.027784161 0.032707985 0.016417284 0.032913353 0.00062752207 0.11938693
0.05940188 -0.25705215 0.027849805 0.31303325 0.01585503 0.008217295 -0.0044013085 -0.17111695
-1.5269839 -0.12907876 0.043170393 0.007500035 0.012345661 0.035304096 0.100857034 -0.037388492
0.08604968 0.111626774 0.015028822 0.14846003 -0.024716053 0.002208849 0.054075886 0.0022934433
0.027361633 0.038217932 0.002363722 -0.031298988 0.2148263 0.0012066909 0.20953228 0.072236724
-0.29747427 0.0024011552 -0.014966079 -0.077662505 0.020888023 0.048179638 -0.00962961 0.0098413145
0.09146813 0.008988945 -0.07880687 -0.2362394 -0.39261335 -0.549028 -0.0029825734 -0.033536192
-0.02024159 0.109949455 0.019188706 0.33824876 -0.9804781 0.24195643 -0.05818482 0.048133712
0.031514764 0.051004305 -0.003771111 -0.23015334 -1.1314557 0.0542287 0.20182613 -0.030946549
0.030160561 0.01144282 0.0946459 0.03487587 0.11012436 -1.2463299 -0.18195237 -0.050139826
-0.014997496 0.060369685 0.21707088 0.043594092 -0.08020275 -0.117344856 -0.22453193 -0.01119365
0.022027476 0.07098278 -0.008966068 0.0018437468 0.28459027 0.12631205 -0.011776526 0.27531028
-0.014977307 0.091050945 -0.37926736 0.017155385 -0.45651722 0.049397446 0.027391098 0.12487753
-0.029377254 0.090065576 0.105111055 -0.017844478 0.08829446 0.06664543 0.23932222 0.044371072
-0.03449385 0.5446185 0.016097954 -0.040862158 -0.44023374 -1.1793568 0.17871816 0.011381336
-0.004929565 0.06879375 0.17202523 -0.27438578 0.1577769 0.053487144 -0.007275624 -0.004317468
-0.04316321 -0.025703972 -0.010432777 0.28798044 -0.0079604685 0.020792585 0.22405395 0.026431268
-0.020477494 0.02826802 -0.07342431 0.67094576 0.09892712 -0.03615395 -0.47375572 -0.31721652
-0.0013579059 -0.39743927 0.5466745 -0.050604194 -4.099656 0.14787436 -0.01872557 -0.18676198
0.10008934 -0.22519964 -0.05364497 -0.03507849 -0.011775526 0.014742176 -0.033296045 0.010897649
0.011919405 0.53870535 0.02085692 -0.14551663 0.010571945 0.089637876 0.03045971 0.03464053
0.35041294 0.20290951 0.10211881 0.00049552857 0.09188774 -0.025015071 -1.464473 0.042844683
0.20244248 -0.11369373 -0.1254033 0.06572584 -0.03758609 0.04913924 -0.039084915 -0.18688731
0.028398257 -0.12102994 0.01710448 -0.05563832 -0.035176642 0.045348268 0.033340447 -0.05513031
-0.021115856 -0.02037481 0.17029269 -0.12598465 0.011253743 0.035477478 -0.021488914 -0.030562047
1.372487 -0.07743878 -0.014355293 -0.041636296 0.06474776 -0.007680436 -0.07049714 -0.05318859
-0.061529774 -0.3544482 -0.3837725 0.08211375 -0.01537977 0.012615223 -0.24023207 0.18500231
0.06959406 0.15538602 0.23336446 0.19969493 -0.0022500255 0.13799317 -0.038715653 -0.5073646
-0.0099023 0.09181638 -0.010980648 0.004925371 -0.38277957 -0.009940302 -0.003910261 0.061310567
0.08478514 0.12299964 -0.07867985 -0.07534781 -0.10749088 0.026799008 0.17211075 -0.007165129

model.2.bias f4 [256]
00000000: 4e89 5abd 9dff ccbc 352e e93d 1b8a 8a3c
00000010: 9ed2 2d3d fa21 b93d 3276 7b3d ed57 1abd
00000020: 2617 c1bd 5600 20bd 08ba ddbc d47c 0cbd
00000030: ec93 b5bc 94e7 143d 3a90 91bc 2c0b 85bc
00000040: 9699 02bc 5c21 54bc 80b5 3bbd 4fe2 08bd
00000050: 57c2 a0bc ce77 1dbd 034e 95bc 03e5 bcbc
00000060: e564 16bd ebe8 4a3c 364c 3abc 4524 a3bc
00000070: c774 88bd da1e 34be c5d6 77bd 3e8d bf3c
00000080: f0d5 c6bc 2dfb e2bc b031 183c 1bef 53bd
00000090: 55df e9bc 3279 49bc d375 55bd 7835 e93d
000000a0: 9769 943d c1f2 77bb 7e09 0cbe 6d77 8b3d
000000b0: e14d b7bc 2a33 11bc 452d 01bd 78cd 0bbc
000000c0: 949a e03c 97a8 1cba 28f4 d2bd 9eb4 b43d
000000d0: 325a bfbd fc51 c6bb 860d a8bd 1743 34bd
000000e0: 6076 27bd 48a7 07bd 22f9 0c3e e28d 47bd
000000f0: d74f a2bc d71f 0fbe 967a 27bb 1154 1bbc
00000100: d823 25bd 3d63 ed3d ffde 0a3e 60a7 55bd
00000110: 46dc ed3c 6aa8 82bd 4dfa 45be f3e7 e5bb
00000120: aa62 983d a289 80bd 2287 933d 2db1 c9bc
00000130: f66b a7bd a916 00bd 73f2 77bb 5bd7 bc3d
00000140: c3aa e4bd 5303 17bd f080 44bd b24c c6bc
00000150: f863 87bc ec41 6abe e938 d4bc 1805 d2bc
00000160: 86fc 6abb 7a89 67bc 5b0d dc3c 0afd 0ebc
00000170: ba40 e43d d687 3abc ec46 a7bc 050e d9bc
00000180: 01c9 5fbc 717f 1dbe 05db b4bc 9bca a6bd
00000190: 7c87 0fbe 23cb babb 1e67 cc3d cfa3 23bd
000001a0: 8ffa 8cbc 3af5 1abd 4306 893d 908e c23d
000001b0: c462 2abe 6519 05be 14d0 1c3e edeb 12bd
000001c0: 4298 653d 4ccf 603c 9da0 563c c8f9 99bc
000001d0: 7c36 05bd f076 34bc 5b80 84bd 1e93 1dbd
000001e0: 9646 b3bd fe0b 10bd 87d1 f63c c94f 24bd
000001f0: 5f28 a6bc a631 2f3b 5a36 763d cb5c 54be
00000200: 84ab 92bc 4588 79bd 561d 873b 8d73 11be
00000210: b344 723c 172b 02bd 5349 aebd e18c bdbb
00000220: 3e57 90be 4fca a13d 54e4 b9bd d002 b3bc
00000230: bb2c 0e3d c694 95bd 9851 71bd cd7e 39bc
00000240: e606 48bd e8c5 cbbc 1bcb 673d 7d89 9d3d
00000250: 62ba 8cbd b999 d9bc c2c9 95bc e873 d0bc
00000260: bc8c 23bd 7cba cebc 74d6 003e ae8a bbbc
00000270: e054 ac3d 6711 a9bc 7fc7 c2bd 678b 1dbd
00000280: fed5 07bd d0ee 4d39 7241 3fbc aee7 a5bc
00000290: f52a 22bd 689a ecbc 3911 8dbc e53f 463d
000002a0: 89fd 4abc 2b94 983c 7c77 eabc e207 bfbc
000002b0: 7a77 f7bc 3cd9 c4bd ea0d 70bc 3693 e23d
000002c0: c4c2 3dbd 976b 21bd 5198 3fbc 2716 1fbd
000002d0: 3525 f13c aebe 12be 88dd f7bc 153b 5cbd
000002e0: 3560 a1bc 3d58 203d 8f05 81bc 2a6f ab3d
000002f0: 10dd 43bc a03b de3d 3a6d 62bc 5328 343d
00000300: ef99 dcbc 5710 9fbc 979c 843c cc00 6fbd
00000310: 954a bf3d 3ad6 553d c537 bd3d 7175 1ebd
00000320: 01c8 913c 5966 cfbc 6b60 b1bc b43b ae3d
00000330: 5c57 b9bc b474 453d 4752 12be e2f0 613b
00000340: 9131 76bd 56ea f7bd d880 a5bc 17f4 8ebb
00000350: 8fbc 033e 8aea 1fbe 610a a8bc f13e 2bbe
00000360: 6766 73bc eb78 89bc 880a 17bd bd7c db3d
00000370: 27c6 0fbe bf58 9fbc 3d1b 04be 16cc 82bc
00000380: cd1e 983a 8d8c 96bd 5cb7 9cbc 0000 0000
00000390: 306d 963d c474 843d 7c92 21be 5455 d5bc
000003a0: ff5f eabc 0702 843d 4a4d b2bc 1485 34be
000003b0: c1a5 8ebd 205d afbc 35d5 bbbd 1bda 0f3e
000003c0: 219d e6bc e19b 67bd 669e c93d 0725 16bd
000003d0: 989d ca3d e51e a0bc 0648 26be 3e20 69be
000003e0: 7caf b63d e07d 7e3d c171 d23d 6a29 90bc
000003f0: 9239 593d ccd5 04bd b3a0 c2bc 11c3 a33d
-0.0533536 -0.02502423 0.113857664 0.016911557 0.04243719 0.09039684 0.061392017 -0.03768151
-0.09428243 -0.03906282 -0.027066246 -0.034298733 -0.022165261 0.036353663 -0.017768968 -0.016240679
-0.007971188 -0.012947407 -0.04582739 -0.03341895 -0.019623918 -0.038444333 -0.018225675 -0.02305842
-0.036717314 0.0123846335 -0.011370709 -0.019914756 -0.066628985 -0.17589894 -0.060507555 0.02338278
-0.024271935 -0.02770766 0.00928919 -0.0517417 -0.028548876 -0.012296962 -0.05211432 0.113871515
0.07246702 -0.0037833902 -0.13675496 0.06809888 -0.022376003 -0.008862296 -0.031537313 -0.008532874
0.027417459 -0.00059760496 -0.10300475 0.088235125 -0.09343375 -0.006052254 -0.082057044 -0.044009294
-0.040884376 -0.033118516 0.13766912 -0.048719294 -0.019813461 -0.1397699 -0.0025555245 -0.009480492
-0.040317386 0.11591194 0.13561629 -0.052161574 0.029035699 -0.06379779 -0.19333763 -0.007016176
0.07440694 -0.062762514 0.07203509 -0.024620617 -0.08174889 -0.03127161 -0.003783372 0.09220763
-0.11165383 -0.036868405 -0.047974527 -0.024206493 -0.016527161 -0.2287671 -0.025906043 -0.025637195
-0.0035856082 -0.014131898 0.026861837 -0.008727321 0.11145158 -0.011384925 -0.02041956 -0.026495943
-0.013658763 -0.15380646 -0.022077093 -0.08144113 -0.14016527 -0.0057004853 0.099806055 -0.039951142
-0.01720932 -0.037831523 0.066906475 0.09499848 -0.16639239 -0.12997968 0.1531375 -0.035869528
0.056053407 0.013721298 0.013099817 -0.018795863 -0.032522663 -0.011014685 -0.06469794 -0.03847038
-0.087536976 -0.035167687 0.030129207 -0.04011515 -0.020282922 0.0026732474 0.060110427 -0.20738523
-0.01790405 -0.060920972 0.00412337 -0.14204235 0.014786887 -0.031779375 -0.08510079 -0.0057846163
-0.2819156 0.078999154 -0.09076753 -0.021851927 0.034710627 -0.07303767 -0.058915704 -0.011321736
-0.048834704 -0.024874642 0.05659018 0.076922394 -0.06871487 -0.026562558 -0.018284682 -0.025445893
-0.039929137 -0.025235407 0.12581807 -0.022893276 0.08414626 -0.02063818 -0.09510707 -0.038463023
-0.033163063 0.00019639288 -0.011673318 -0.020252075 -0.03959175 -0.02888222 -0.017220126 0.04840078
-0.012389549 0.01862534 -0.028621428 -0.023319189 -0.030208338 -0.09611747 -0.014651755 0.110632345
-0.04632832 -0.039409246 -0.01169403 -0.038839485 0.029436687 -0.14330551 -0.030257002 -0.053767283
-0.019699195 0.03914665 -0.01574972 0.08370812 -0.011954561 0.10851216 -0.013819987 0.04398377
-0.02692887 -0.019416971 0.01618795 -0.05835037 0.09340397 0.052206255 0.09239153 -0.03868622
0.017795565 -0.025317358 -0.021652421 0.08507481 -0.022624664 0.048207 -0.14289199 0.0034475853
-0.060105864 -0.12105243 -0.020203039 -0.004362594 0.12864898 -0.15616813 -0.020512762 -0.16723229
-0.014855958 -0.016781291 -0.036875278 0.10717151 -0.14040433 -0.019451497 -0.12901016 -0.015966456
0.0011605859 -0.07351027 -0.019130401 0.0 0.073450446 0.06467584 -0.15778536 -0.026041664
-0.028610228 0.06445699 -0.02176537 -0.1762889 -0.06965209 -0.02140671 -0.091715254 0.14048044
-0.028151097 -0.056545142 0.09844665 -0.036656406 0.0989334 -0.019545982 -0.16238412 -0.22766206
0.0892019 0.062131763 0.10275603 -0.017597873 0.05303342 -0.032430455 -0.023758268 0.0799619

model.4.weight f4 [256, 256]
00000000: 6bcf 50bd b984 b63c 12d3 a83d efd0 f83d
00000010: d514 f73d 802a f63d 1326 f53d aab9 87bd
00000020: e683 aa3d 1c0f fabe 7df9 75bd c5f0 5d3d
00000030: a0ed 9abd 5ac8 ec3e 4cf7 5bbd e513 0bbe
00000040: c914 26ba 1fbc d13d b344 55bd 0357 1c3e
00000050: 6bf1 353e 4616 d33d 5037 9cbc caca 6e3d
00000060: f434 333e 6f06 663e 1363 5ebf 5750 633d
00000070: 485c e93d 2fe7 613e d8dc 563e a829 3bbe
00000080: d338 a0bb 1e86 cf3c c6e1 423e 15c6 ac3d
00000090: db04 cd3b 0b49 873d 69f3 dfbc 137c 563e
000000a0: ff8b c53e 24ee febc 59f8 763d da18 643c
000000b0: cc06 363c 56ca 61bd 8be7 4d3d 29e9 813d
000000c0: a825 b0bd 7060 c6bd f831 213e 0357 83bd
000000d0: c9e7 9cbd 1f27 25bd 143d 123e 78d1 f93c
000000e0: ebbc 093e f4bb 99bd 35cd b53e 8dd3 c9bd
000000f0: 26fe d93c e497 db3d 99bf 1c3e b1ac 283e
00000100: 07c6 c63d c7a4 c13d a23a 363e 5322 5e3e
00000110: e83e c9bd 87cd c6bc a365 0fbc 66b9 173d
00000120: f575 ed3d e038 ba3d 9562 ad3d b621 bb3c
00000130: 9cc8 3d3e 8540 83bd ff0d 55bd 9a45 0cbe
00000140: 255d 2f3d 4f23 093e d583 373e 8c8e 7abd
00000150: 15e3 4bbc 8ead c63e 2034 8bbd 4a22 39bf
00000160: 22c6 83bd 50d2 993d b69b 42bd d96f c5bd
00000170: a4f6 243e dad8 27bf bd2a 51bd d407 61bf
00000180: eed1 16bd 2485 b0bf 39e2 8fbc c3c3 e23c
00000190: 278c 2abf 890a d6bc 7adf 993d 8145 3f3d
000001a0: 7acb 3b3d f93e 4f3e 3be3 8abe 535b ae3d
000001b0: f0f6 523d e442 283e f48a 7a3b 4967 d4bd
000001c0: d8c3 963d 716b 193e 7dc6 3dbc 4e4d 1e3d
000001d0: 4e47 3b3e 3f40 223d 0666 363e 5063 233c
000001e0: 5f81 71bd e002 903d d23e d0bd cf10 e63b
000001f0: aeff 523d 6c09 873c b17b 9e3c 6d46 14c0
00000200: b9b4 3dbe 9dd3 7a3d b060 a73d 5127 8ec0
00000210: 7b07 dfbd 5cd3 343e 3f01 26be 4af2 603b
00000220: 60d0 7d3d 5fb7 4a3c a95e 443e a33d 26bc
00000230: 96f0 9cbc 8423 8ebd 6a4f 16bd 2388 0dbc
00000240: e564 a63e 4cd0 29bd bddf a1bc a521 fb3d
00000250: 5c07 5b3e fd4c 9dbb 8f11 b0bd c10d 48bd
00000260: 8cff 52bf 4c27 4abc 2c34 e9bb 0e7d 1dbd
00000270: 76a7 a8bd 393c 94bd 3473 56bf 4abf 57bd
00000280: 0731 46bd 5083 a93d 3d98 2a3d 77cc f5bc
00000290: bea9 633e 9911 333d 55e9 1e3d 2b9c ff3d
000002a0: e55f 2b3e 8fff 853e 8f6e ab3c 3f49 bebe
000002b0: c1ad 933e 62ce 81bd 5056 833d 5b39 12be
000002c0: 6e9e c93d 6ed0 2e3e 2ba2 32bd ca61 203e
000002d0: 3333 d73d d96d a23e e0e5 033c b15b 0e3e
000002e0: 1a5e 88bc 5b54 c63d 8d37 aabc 304f 953e
000002f0: 5842 023d 389c 1c3f d132 403e f182 503e
00000300: 9ca1 1dbe e222 ae3b c20f 893d b34b 2c3f
00000310: f587 7c3d 4803 953d a5a0 e4bc 3aac c33c
00000320: c89c fd3d fc0b 21bd 5ca4 903c 6d16 9cbd
00000330: d332 6c3e 161a 95bc 4852 2fbf 8daa a93d
00000340: 69f2 563e 6cb1 bd3e 0d98 66bd 773f a4bc
00000350: 46bf fb3d 74c0 13be 0d32 1c3d 3375 0d3e
00000360: 088f 34bd b879 bcbc 893a 43bc fc4e e03d
00000370: 5c53 85be 0266 6d3d 2237 10bf c9f9 13bd
00000380: 121c 40bd 90e4 ef3e e695 49bf 01e2 603d
00000390: 6fb4 d1bd 7b5d 643d b4cb 11bf b383 a8be
000003a0: dc13 383d 97e1 d93e 42c7 7cbd 511e 4bbd
000003b0: 320d 063c 63fe f13d 6979 42bd 4df5 893d
000003c0: f57e 5a3c f574 2c3e c0df 513e 2cd5 333d
000003d0: 3998 7a3e c9e0 96bd 0a24 cdbd 63e7 953d
000003e0: 9465 fbbd 4d2f b33d 1ba3 bb3d 6a65 483d
000003f0: e720 f3bc 140f 3cbd a739 e0bd d0b3 6c3e
-0.05097906 0.022280084 0.082433835 0.12149226 0.1206452 0.12019825 0.11970153 -0.066272095
0.08325939 -0.48839653 -0.060052384 0.054184694 -0.075648546 0.46246606 -0.053702638 -0.13581808
-0.00063354947 0.102409594 -0.05206747 0.15267567 0.17767875 0.10306983 -0.019069344 0.058298863
0.17500669 0.22463392 -0.86869925 0.05549654 0.113945544 0.22060846 0.20982683 -0.1827761
-0.0048895865 0.025332507 0.19031438 0.08436219 0.0062566823 0.06605729 -0.027337747 0.20945768
0.3858337 -0.031119414 0.060295437 0.013921941 0.011110019 -0.055124603 0.050269645 0.063433
-0.08600932 -0.09686363 0.15741718 -0.064130805 -0.07661397 -0.040320512 0.14281112 0.03049539
0.13450973 -0.07506552 0.35508123 -0.09854803 0.026610445 0.1072233 0.15307464 0.16472127
0.097057395 0.09455257 0.17795804 0.21692781 -0.098264515 -0.024267925 -0.008752259 0.037042044
0.11594764 0.09092879 0.08466069 0.022843223 0.18533558 -0.064087905 -0.0520153 -0.13698426
0.04281344 0.13392375 0.17921384 -0.0611711 -0.012444277 0.38804287 -0.067970514 -0.72317946
-0.06434275 0.07510817 -0.04751178 -0.09640474 0.16109711 -0.65565264 -0.05106615 -0.8790257
-0.0368213 -1.3790631 -0.017563926 0.027681237 -0.66620106 -0.02612807 0.07513328 0.046697143
0.045848347 0.20238866 -0.27126488 0.085135125 0.05150503 0.16431767 0.0038229795 -0.103712626
0.07361573 0.14982392 -0.011582968 0.038647942 0.1828892 0.03961205 0.17812356 0.009972408
-0.05896127 0.07031798 -0.10168232 0.0070210467 0.051513366 0.016483985 0.01934609 -2.3167984
-0.18525971 0.061236966 0.081727386 -4.4422994 -0.10890099 0.17658752 -0.16211413 0.0034324103
0.0619663 0.012372821 0.19176735 -0.010146531 -0.019157689 -0.06940368 -0.03669683 -0.008638415
0.3249885 -0.041458413 -0.019760007 0.122622766 0.21389526 -0.0048004375 -0.08597099 -0.04884124
-0.82421184 -0.012338471 -0.007116815 -0.03844934 -0.08235066 -0.07238049 -0.83769536 -0.05267266
-0.0483866 0.08276999 0.041649092 -0.030004723 0.2223272 0.043717954 0.03879674 0.124809586
0.167358 0.26171538 0.020926742 -0.37165257 0.288435 -0.063381925 0.06412947 -0.14279692
0.09844671 0.17071697 -0.043611687 0.15662304 0.10507812 0.31724432 0.008050412 0.13902165
-0.016646434 0.09684058 -0.020778442 0.29161978 0.03180155 0.6117587 0.18769385 0.2036245
-0.1539368 0.005314217 0.06692459 0.6730301 0.061653096 0.072760165 -0.027908633 0.023885835
0.12383419 -0.03931807 0.017656498 -0.07621465 0.23066263 -0.018200915 -0.68484926 0.08284483
0.2099091 0.37049425 -0.05629735 -0.020049794 0.12292342 -0.14428884 0.03813367 0.13814239
-0.044081718 -0.023007259 -0.011915811 0.10952565 -0.2604016 0.05795861 -0.56334126 -0.036126886
-0.04690177 0.46854067 -0.7874435 0.054903034 -0.10239493 0.055753212 -0.5695145 -0.3291298
0.044940814 0.42554924 -0.061713465 -0.04958946 0.008181857 0.118160985 -0.047479067 0.067362405
0.013335933 0.1684149 0.2049551 0.04390447 0.24472131 -0.07367093 -0.100166395 0.07319524
-0.12275234 0.08749256 0.09161969 0.04892484 -0.029678775 -0.045912817 -0.10948496 0.23115468

model.4.bias f4 [256]
00000000: 8cb4 893d b69d 813d 0cc8 c3bc a85f 1dbc
00000010: 2016 cd3c 6432 b73d 9ad1 733d a976 5db9
00000020: 0d45 f2bc b8fc 093d bf20 95bc a037 a6bc
00000030: 7f1e 9f3d 8371 debc 9f81 b73c 4e39 4ebc
00000040: ad0b 4d3d 4850 32bd e768 d7bc 32d9 b9bc
00000050: 912e 693c 7f0c f9bc 4ed2 0fbd f21a 5c3d
00000060: 7a96 b7bc b006 c83c caea c43c edbc 973c
00000070: 3007 8e3d 7fa9 33bc ea36 c23c 23da 9fbc
00000080: 62b9 1eba daea 6d38 e3db f0bc 3818 21bd
00000090: 8786 78bd 39ab b63d 2997 1e3d 25c9 d13d
000000a0: 6049 933d 5148 10bc 1870 053d 37f5 713d
000000b0: 140d 13bd 6452 913d 9ef2 09bd 53ec 74bc
000000c0: cc45 71bd b8e3 2c3d 66bc 4cbd 79c9 a23b
000000d0: 23a5 763c 689a 05bd 1eaf 42bc 8faf 09bd
000000e0: a04a 39bc db9e bd3c bbd9 493d ee70 853a
000000f0: 38f6 39bd 6a69 e5bc ad1e 4f3c d732 053d
00000100: 7ac3 02bd 4191 b6bc 8480 a33c c960 8f3d
00000110: a2a9 8cbc ff73 463c 0cab d1bc 0427 adbc
00000120: 995a 4cbd 1cf3 98bc 340e 25bd 66b4 703d
00000130: de6e 633d ef43 0cbd a7f3 073d 78f9 e6bc
00000140: 9555 9f3d 2955 35bc 4081 36bc 8cdf a5bc
00000150: 93ec fa3d 4d51 c6bc 3020 13bd 7fd8 a4bc
00000160: 7ade e1bc 33bf b8bc 334d 2abd 39db 633d
00000170: bdb7 f1bc 64fb ef3c 365a 513d 8de5 b3bc
00000180: 19ce 713d a28d 673d 05ce 7d3c d7c3 363d
00000190: 3b5e a6bc 1a7b a8bc 9a7e d63c 72b7 e0bc
000001a0: ad5c e4bc bed0 343c b25a 9abc 918c 42bc
000001b0: a3fe e9bc 5953 a53d 88cf 483d ea28 e33d
000001c0: 1430 74bc 1611 833d 77a9 833d fbce 10bd
000001d0: 1d30 d6bc 23c0 973d c642 b23c f5d4 f6bb
000001e0: c1a0 a43d 1425 5d3a b3e2 b23d 2460 c2bc
000001f0: fdf8 583d a377 31bc 1922 f63c 9ecb 04bd
00000200: 4032 9cbc a1df 25bd d2b7 8d3d e489 203d
00000210: 23cf 05be a143 48bd d016 2a3d 59bb 45bc
00000220: b54b 1ebc 46a0 823d eab1 3b3d a0d8 ffbc
00000230: 0ce3 643d c280 a8bc 6bee abbc 9f1e 623d
00000240: ba15 e4bc 4cbe 38bc f3a2 9cba 4dfe 71bc
00000250: ef00 edbc ad7c 47bc 5a00 01bc c7e8 26bd
00000260: b48b b0bb 84d7 2bbc 200a 323d 209b 19bd
00000270: 15c2 f9bc 8f70 813d 7348 e3bc e2fc b13d
00000280: da3d f03d 23b7 eb3c 17e0 a03d c382 eabc
00000290: 65db d83b 1e61 e03c 6a6f 563d 43f7 11bd
000002a0: fb13 b43d d8c2 b73c 97a6 433d 6763 c43d
000002b0: 46d8 7c3d 6ac4 c83c a34b 58bc 56c5 48bc
000002c0: d184 5bbc 389e 323d 1091 663d 68ce c2bc
000002d0: 2c50 91bc f9ba 33bc 295c a03d 8233 86bc
000002e0: e6b5 1b3d 4613 113c 90a5 e0bb f9a0 343d
000002f0: d12a bfbc dd8d 8abc b938 dbbc 271f 08bd
00000300: 2311 013d d6fc e13c 456d 803b 6cb9 2d3d
00000310: f002 89be b225 05bd 8cde cd3c 2f21 dd3c
00000320: 16c0 5d3d b001 13bc eaf6 debc 3a20 02bd
00000330: b48d 3cbc b179 dabc 6e49 9ebc 2bab 70bc
00000340: 5856 b13d f07a b2bc 8483 2bbd a31c c1bc
00000350: bd45 be3c 70a5 703d f83f 4d3d 7b5d b5bc
00000360: ea9c f7bb 549c 4d3d 1a62 58bd 972d 553d
00000370: ee37 623d f28a 913d f46a a73c effc 0dbd
00000380: 3080 5b3d 4713 e33c be71 6cbc 3248 623d
00000390: bd22 9e3d 04bc e8bc 300b c13b 2fa7 c3bc
000003a0: 6d32 a2bc c561 e1bc 64c6 25bc c57c 7f3d
000003b0: b592 5dbc c6b6 be3c 4a2d e2bc 57cb d13c
000003c0: 89b2 5a3d 0bec b1bc 7dda 0bbd dcf1 2b3d
000003d0: a52b f93c 0966 f73c 4262 b63d 6272 dabc
000003e0: 93fd 20bd 66f3 803d 3ceb 523d 00f0 c5bc
000003f0: 3dbc b23d fd11 1d3c 2e95 5a3d ddeb a23d
0.0672389 0.06328909 -0.0238991 -0.009605326 0.025034964 0.08945158 0.059526064 -0.00021120407
-0.029573942 0.033688277 -0.018204091 -0.020290196 0.077694885 -0.027153736 0.022400675 -0.012586905
0.050059963 -0.043533593 -0.026295139 -0.022686575 0.014232294 -0.030401466 -0.03511267 0.053736635
-0.02241062 0.024417251 0.024037737 0.018522704 0.06934965 -0.010965704 0.023707826 -0.019513195
-0.0006054846 5.6723926e-05 -0.029401725 -0.039329737 -0.06067517 0.08919377 0.038718376 0.102434434
0.071917295 -0.008806304 0.032577604 0.059071746 -0.035901144 0.07095793 -0.033678643 -0.014948922
-0.058904454 0.042209357 -0.04998436 0.004967865 0.01505402 -0.032617956 -0.0118825715 -0.03361469
-0.011309296 0.023147037 0.04927991 0.001018075 -0.045400828 -0.028004367 0.012641591 0.032519188
-0.031924702 -0.02228606 0.019958742 0.07000882 -0.017170731 0.012112617 -0.025594257 -0.021136768
-0.04989109 -0.018670611 -0.04029675 0.05876579 0.055525653 -0.034244474 0.03319135 -0.028195128
0.07779995 -0.011067667 -0.011139214 -0.020248197 0.12252154 -0.02420869 -0.03591937 -0.020122765
-0.027571905 -0.022552108 -0.04157753 0.05562899 -0.029506559 0.029294677 0.051111422 -0.021960044
0.05903444 0.056531556 0.015491013 0.04462036 -0.020308604 -0.020566512 0.026183415 -0.027431224
-0.027876223 0.011036096 -0.018842075 -0.011874334 -0.028563803 0.08072538 0.049026042 0.11091788
-0.014904041 0.06399743 0.06428807 -0.035353642 -0.02614599 0.07409694 0.021760356 -0.0075327107
0.08038474 0.0008436006 0.08734646 -0.023727484 0.05297183 -0.010831746 0.030045556 -0.032420747
-0.01906693 -0.040496472 0.069198266 0.039194003 -0.13067298 -0.04889262 0.041525662 -0.012068593
-0.009661605 0.06378226 0.04582397 -0.031231225 0.05588059 -0.020569209 -0.02098771 0.055204984
-0.027842391 -0.011275839 -0.0011950418 -0.014770103 -0.02893111 -0.012175721 -0.007873619 -0.040749338
-0.0053877477 -0.010488395 0.043466687 -0.037501454 -0.030488053 0.06320297 -0.027744507 0.08690812
0.11730547 0.02877385 0.07855242 -0.028626805 0.0066179507 0.02739006 0.052352346 -0.035636198
0.087928735 0.022431776 0.047766294 0.09589272 0.061729692 0.02450772 -0.013201627 -0.01225408
-0.013398365 0.04360792 0.056290686 -0.023780063 -0.017738424 -0.010969871 0.07830078 -0.016381983
0.03801527 0.008854693 -0.006855674 0.044098828 -0.023335846 -0.016913349 -0.026760446 -0.033232834
0.031510483 0.027586382 0.003919276 0.04241316 -0.26760054 -0.032506652 0.025130533 0.026993362
0.054138266 -0.00897257 -0.027217347 -0.031769015 -0.011508394 -0.026669355 -0.019322123 -0.014689247
0.08659047 -0.021787137 -0.04187347 -0.023573225 0.023226613 0.058751523 0.050109833 -0.022139302
-0.0075565474 0.050197914 -0.052827932 0.05204543 0.05522912 0.0710658 0.020436741 -0.034665044
0.053589046 0.027719153 -0.014431415 0.055244632 0.077214696 -0.028409965 0.005891226 -0.02388343
-0.019799436 -0.02751244 -0.010118101 0.06237485 -0.013523747 0.023280513 -0.027609486 0.025609655
0.05339292 -0.021719 -0.034143914 0.041978702 0.03041632 0.030200021 0.0890546 -0.02666587
-0.039304327 0.062964246 0.05149387 -0.024162292 0.0872731 0.009586808 0.053364925 0.079551436

model.6.weight f4 [1, 256]
00000000: aafa 963e 62f3 1b3e 3106 8e3c 8804 d4be
00000010: dc52 b33d add6 803e 15c7 973e 1e12 cabd
00000020: b958 e9bf 44ef ca3d e833 163d 55cf 1639
00000030: 28ee 8b3e 9e6e bbbb 4f91 d2be 5677 333b
00000040: 750d c9be 9839 ee3c 2cca 5dbb 3c10 78bf
00000050: 88da 94bf 8315 15c0 acde 61be d90e 4dbf
00000060: de39 76bd 3fb8 993d 46d9 ab3d 02e4 073e
00000070: e3ec 903e cdc3 94bf 7114 5cbe c2d5 5abf
00000080: b3cd 45bf 6d31 f8bd 6829 96ba 482e 493c
00000090: 172c 13c0 458e 2fbf 36cc a1bf 7d25 cc3e
000000a0: 4474 9e3e 7780 a3bf 4ae0 3abe 7d4e af3e
000000b0: 4d9f 99bf 402b 9d3e dbcb ba3c 48ad 613d
000000c0: 942e 33bc eb4d 65be dd67 7fbd b52c a6be
000000d0: e0d8 843d d457 393d 3c92 303d 2bb2 69b9
000000e0: 962d 89be f0c1 44be c47c b3be 4d8d 93be
000000f0: c100 013d be3b 96be c678 a0bf c644 11be
00000100: f446 103e f714 193c 5f28 a9bd 1e2c a2be
00000110: bfb7 bebe 4795 56be 8cf3 87bf 9260 58bf
00000120: 4afb 30bf 1755 a8bc ab4a c23b 0a32 6f3e
00000130: dab2 f4be 58f9 723d 08bd d63d 0770 57bd
00000140: 3e33 a43e d443 81bf dfc0 7fbf 4a5d 323d
00000150: 336e 16bf 6995 a4bf 8c0d fdbe bd84 87be
00000160: 611c 0e3d def3 073d f51d 49bf 6d41 093e
00000170: 6750 02c0 2f66 db3d cd29 dabe 8513 b33b
00000180: f6d7 b03e 55c4 263e 4795 debd 607e 083e
00000190: 827f e7be b42d 5ebe b9db d2be 8343 9e3c
000001a0: c63f fa3b 5907 bb3d b44d a03c e596 983c
000001b0: 2d6c 473c 82c1 99be 7f03 193e fff8 a2be
000001c0: 0a70 b9bd f47d b93e a970 34bf 7d44 083e
000001d0: f080 e33b cfaf 92be c483 dbbd 4b70 38bf
000001e0: 77a5 f0be c59c 17be 4945 8b3e 2ee2 8ebf
000001f0: 2ca6 a4be 6195 203d 94b9 04be 7525 7abf
00000200: 6673 76bd daf2 3d3c 4064 a83e 2df5 13bf
00000210: 20d4 17c0 dbea 0dc0 977a 813e af21 10be
00000220: 3151 9bbb ad2c 9b3e 704e 073e fb9c 6e3d
00000230: dd63 023e e411 28bd 0ff8 4c3d 71cc aa3e
00000240: f1b9 7d3d 16ab 533d 6dfe 623d f0a9 623a
00000250: d86b f43c 36a8 89bb 2c10 a0bc 685b 2d3d
00000260: 0f72 89be a0ba 98be 9942 4dbe 7634 f8ba
00000270: 0c2d 8f3c 1d31 203e 4ae2 a239 533f 1b3f
00000280: 2b14 dd3e 6bc4 bc3d 19db d73e 33b0 b43d
00000290: 5a7f 5abf bc7f 79be 945d 943e cb71 ca3c
000002a0: ecc4 793e 7db8 07c0 b041 133e ef7c 233f
000002b0: b19e 243e 994e af3d c819 7b3d d124 1d3e
000002c0: 26dd 4fbd d64b 073e bc5d 123e 73a3 653b
000002d0: 466a c9bf c018 32be 00da cebe b08a b6be
000002e0: 8bd0 d2be 5c75 1cbe 25eb f4bd 2665 f63d
000002f0: d27e 563d 0049 673c 956f d33c 9091 7ebd
00000300: 968f f8bf 218d d7bf 3320 a3be 8ed7 0d3e
00000310: e265 17c0 68c4 d63c 125d 8bbd 1148 b23d
00000320: eabf b5bf 3bb5 bbbf eaa9 3c3d cf96 9dbf
00000330: b604 a13c bb9a 72be 44c6 3c3d 2767 c33c
00000340: b2d8 773e f045 ae3c 9bac a3ba 56ed c73b
00000350: 6962 65be 01b9 383e 43a6 82be c7bf a83c
00000360: fbd4 d83c 1f0c cc3e 3572 45bf fdd4 253e
00000370: 9ec4 913e 96a0 b43e 7b54 bfbe 1bf2 30c0
00000380: 0564 343e 059a 84be 3fbf c1bc 5343 333e
00000390: 5c09 96be ce57 c33c 9d55 3ebf 057a aebe
000003a0: 8039 a2be 4148 45bf 46aa 54bc 897d a9bf
000003b0: 3b10 0ebe a052 ef3d 6178 afbd 5087 b83d
000003c0: 43d1 aa3e bcd0 fc3b 9c08 d13d 9d91 0fbf
000003d0: 6b4b b53d e4ac d83d 8c2e a03e e06d efc0
000003e0: bb6b cc3b 64c9 4d3e 84cf 2a3e b493 813d
000003f0: 3e22 0abf c457 6a3d 7fab ff3d dc5e b0bf
0.29488117 0.15229562 0.017336937 -0.41409707 0.087560385 0.25163785 0.29644075 -0.09866737
-1.8230201 0.099089175 0.036670595 0.00014382352 0.27330136 -0.0057199737 -0.41126487 0.0027384362
-0.3926808 0.029080197 -0.0033842428 -0.9689977 -1.162919 -2.329438 -0.22057599 -0.8010078
-0.06011378 0.07505845 0.08391051 0.13270572 0.2830573 -1.1622254 -0.21492173 -0.8548242
-0.77267 -0.12118802 -0.0011456432 0.012279101 -2.299566 -0.6857646 -1.2640445 0.3987235
0.3094808 -1.2773579 -0.18249622 0.3423957 -1.200174 0.3069706 0.022802284 0.055096895
-0.010936398 -0.22393005 -0.06235491 -0.32455984 0.06486678 0.045249775 0.04310821 -0.00022286984
-0.26792592 -0.19214606 -0.35056126 -0.2881874 0.03149486 -0.29342455 -1.2536857 -0.14186391
0.14089566 0.009343377 -0.08259653 -0.31674284 -0.37249562 -0.20955382 -1.06212 -0.84522355
-0.69133437 -0.020548386 0.0059293113 0.23358932 -0.47792703 0.059319824 0.104852736 -0.052597072
0.32070345 -1.0098825 -0.9990367 0.043546 -0.587619 -1.2858096 -0.49424398 -0.2646846
0.034695033 0.033191554 -0.78561336 0.13403864 -2.0361574 0.10712849 -0.42610016 0.0054649734
0.34539765 0.16285832 -0.10868316 0.13329458 -0.45214468 -0.21697122 -0.4118326 0.019319301
0.007636997 0.09132261 0.019568302 0.01862664 0.012171787 -0.30030447 0.1494274 -0.31830594
-0.09054573 0.36228907 -0.70484406 0.13307376 0.006942861 -0.28649756 -0.10718492 -0.72046345
-0.4700124 -0.14805897 0.27201298 -1.1162775 -0.3215803 0.03920496 -0.12961417 -0.97713405
-0.060168646 0.011593545 0.32888985 -0.57795984 -2.372322 -2.2174594 0.2528884 -0.1407535
-0.0047399034 0.30307522 0.13213515 0.058255177 0.12733407 -0.041032687 0.050041255 0.333591
0.061944906 0.051676832 0.05541842 0.00086465385 0.02983658 -0.0042009605 -0.019538961 0.0423235
-0.26844832 -0.29829884 -0.20044936 -0.0018936533 0.017477535 0.15643735 0.00031067646 0.606435
0.4317945 0.09217151 0.42159346 0.0882267 -0.85350573 -0.24365133 0.28977644 0.024712464
0.24391526 -2.1206353 0.14380527 0.6386251 0.16076161 0.08559913 0.061303884 0.15346076
-0.050748013 0.13212523 0.1429357 0.003504005 -1.5735557 -0.17392254 -0.40400696 -0.35652685
-0.4117473 -0.15279144 -0.11958913 0.12031011 0.05236704 0.014116526 0.025810042 -0.062150538
-1.9418819 -1.6839944 -0.31860504 0.13851759 -2.3655934 0.0262167 -0.06804861 0.08705152
-1.4199193 -1.4664682 0.04606048 -1.2311648 0.019655567 -0.23691837 0.04608752 0.023852898
0.24203756 0.021273583 -0.0012487354 0.0061012907 -0.22400822 0.18039323 -0.25517473 0.020599259
0.026468745 0.39852998 -0.7712739 0.1619453 0.2847032 0.35278767 -0.3736914 -2.764777
0.1761628 -0.25898758 -0.023650764 0.17506151 -0.29304016 0.02384558 -0.74349385 -0.3407747
-0.31684494 -0.77063376 -0.0129800495 -1.3241435 -0.13873379 0.11685681 -0.08567882 0.09010184
0.3336278 0.0077153128 0.1020672 -0.56081563 0.088522755 0.10579851 0.31285512 -7.4821625
0.0062384284 0.20096356 0.16680723 0.06327 -0.539585 0.057212606 0.12483882 -1.3778949
