Models/Bloom_filter/result/model-dict-21.pt (torch, 533323 bytes, 7 tensors)

model.0.weight f4 [256, 2]
000000 0e f7 0c bd 37 7d ea ba 55 4b 62 bc d9 8c 59 3b
       -0.034415297 -0.00178901 -0.013811906 0.0033195524
000010 b2 f0 73 3c 9d 49 82 3b 7d 18 31 bd fc bd 17 bd
       0.014888929 0.0039760605 -0.043236244 -0.037046418
000020 21 22 ba bc 78 95 50 bd d5 68 bd bd 9f 25 36 3d
       -0.022721352 -0.050923795 -0.09248511 0.044469472
000030 2a 8b f0 be c3 b9 c1 bc c2 6b 6f 3b 1f 01 0e bd
       -0.46981174 -0.023648148 0.0036532735 -0.034669038
000040 12 a8 9a be fb 49 cd 3e ac 56 ae bc 84 d2 20 3c
       -0.30206352 0.40095505 -0.021281563 0.009815816
000050 7e 3c 00 bd d3 6d e4 3e 4a c5 85 bc 4d 0d 0c bc
       -0.03130769 0.4461504 -0.016329426 -0.008548093
000060 fc 75 9e bf 54 a1 e7 3d dd c3 35 bc 56 aa 13 3c
       -1.2379756 0.11310068 -0.011094061 0.009012779
000070 36 bb 25 bc 0f 86 c8 3c 37 2e c0 bc d1 60 54 3c
       -0.010115435 0.024477987 -0.023459537 0.012962536
000080 45 60 bd bd ff 78 ba 3d a0 34 bb bc 94 f5 e9 bb
       -0.092468776 0.091051094 -0.022852242 -0.007139871
000090 48 ef ad bc 9a 64 16 3c 30 fb a9 bc cc 1a 17 3c
       -0.021232262 0.009179259 -0.020749658 0.0092226975
0000a0 5e f4 58 bd 9e 5c 05 3d 2e 79 90 bc af 0e 18 3a
       -0.05296742 0.03255903 -0.017635908 0.0005800528
0000b0 d6 35 b8 bc 43 a6 0d bd b7 02 81 be e2 86 22 bf
       -0.022486608 -0.034582388 -0.25197384 -0.63487065
0000c0 fc c9 60 bc 98 50 86 3c 03 3b a7 3c 7e 9e a4 3c
       -0.013720032 0.016395852 0.020413881 0.020095106
0000d0 dc 20 07 bd 22 ca 36 bc 77 72 1d bf 1c ec dd 3d
       -0.03299032 -0.011156591 -0.61502784 0.1083605
0000e0 be c7 8b bc b1 1e 2e bc 1f 24 9c bc 92 2e 87 3b
       -0.017063018 -0.010627435 -0.019060193 0.0041254247
0000f0 9f f1 3e bd 8b 51 23 bc eb 60 e7 3c 50 26 43 bf
       -0.046617147 -0.009968172 0.028244456 -0.76230335
000100 d5 4d 96 3e d1 cf a7 bf 1d 65 85 3e c1 f8 8c be
       0.29356256 -1.3110296 0.26053706 -0.27533534
000110 39 b7 ed 3a 5f 91 cc bd 0b 96 24 3c a5 a8 90 bc
       0.001813627 -0.09988665 0.010045539 -0.017658541
000120 4a b9 42 3c dc fb db bc 5a b0 a5 bc 17 26 6c bd
       0.011884997 -0.026853494 -0.020225693 -0.057653513
000130 37 4a 81 3e 11 50 ff 3d ba c6 91 bc 6a 02 2d bd
       0.25251934 0.12466443 -0.017794956 -0.04223863
000140 8e 76 95 3e 19 53 08 be f8 32 81 3e 70 ee fc bd
       0.29192013 -0.13312949 0.252342 -0.12350166
000150 38 48 3e bc 13 67 3b bb 49 c4 7f 3e 99 7e 1b be
       -0.011613898 -0.0028595373 0.2497722 -0.15185012
000160 64 bd de bb 9b f5 0d bd 38 f3 be bc 65 d7 ec ba
       -0.0067974795 -0.034658056 -0.023309335 -0.0018069564
000170 89 a6 84 b9 02 5c 24 bc 6f f7 8b 3c 73 31 8a bc
       -0.0002530108 -0.010031702 0.017085759 -0.016869282
000180 b6 d1 e6 3c ad 7d 1d 3c a6 39 20 3c c5 69 01 bd
       0.02817617 0.009612483 0.009779369 -0.03159501
000190 35 e2 d1 bb 1d 7d 1a bb 95 d2 67 bd 52 62 42 3d
       -0.00640514 -0.0023573108 -0.05659731 0.047457047
0001a0 47 d9 4e be 2c 1b c1 3e 49 e0 8a bd f9 8b fe b9
       -0.20200072 0.37716043 -0.0678106 -0.00048550943
0001b0 2b 4f 37 be 99 e3 2e bf 34 a2 4e bb 70 10 26 bb
       -0.17901294 -0.68316036 -0.0031529786 -0.0025339387
0001c0 56 a7 73 3e cc e7 50 3d 3e ef cb 3b dd 22 0c bc
       0.23794302 0.05100231 0.0062235883 -0.008553234
0001d0 26 7d bf bc c0 0f 83 bc 85 83 92 3e 70 c6 db bd
       -0.023375105 -0.015998721 0.28615966 -0.10731208
0001e0 85 5c bb ba fe bb 07 3b e8 79 c2 bb 4b 4a 13 bc
       -0.0014294541 0.0020711417 -0.0059349425 -0.008989881
0001f0 07 54 33 3c 08 4f 94 3c 33 be 03 bd 3d 9a 50 bd
       0.010945327 0.018104091 -0.03216381 -0.050928343
000200 d3 6f 92 bc 17 6f b2 3b 2e 9c b2 bc eb 70 c9 bb
       -0.017875588 0.005445372 -0.021802988 -0.006147494
000210 9e 1d 40 bc b7 5b 23 bd ca c1 ce be 67 c3 10 bd
       -0.011725811 -0.039882388 -0.40382224 -0.0353426
000220 09 3d a1 3e fd 9b 0e be 71 ea 84 3e 47 92 25 3e
       0.3149188 -0.13926692 0.25960115 0.16169082
000230 ae 47 9b bc ad 26 14 bd 60 53 ff bb 9a 2d b8 bb
       -0.018955078 -0.036169697 -0.0077919215 -0.0056206705
000240 4c 14 86 bc 73 3b 3d bb 56 45 ae 3a 80 f6 60 bd
       -0.0163671 -0.0028874546 0.001329581 -0.05492258
000250 57 31 12 bc 13 e7 ec bb 2b a8 0a be 5b b5 ce 3e
       -0.008922896 -0.0072296946 -0.13540713 0.40372738
000260 ba d3 8b 3e c8 0f 82 be b3 14 90 3e d2 b6 e0 be
       0.27309972 -0.25402665 0.28140792 -0.4388948
000270 de a0 26 3c 2b 18 12 bb 54 a5 52 bb 54 c1 ee bb
       0.01017019 -0.0022292237 -0.0032142 -0.00728623
000280 bd 84 87 3b c9 04 8a bc 4d e7 49 bc 6d 5e 54 bc
       0.0041356967 -0.016847985 -0.012323213 -0.012961966
000290 3e 91 79 3e 82 6d 9a be 1b 71 b9 be f9 78 16 bd
       0.24371812 -0.30161673 -0.36219105 -0.036736462
0002a0 3a 5e 3b bf 04 60 bd be 78 07 12 bc 11 49 eb bc
       -0.73190653 -0.36987317 -0.0089129135 -0.028721364
0002b0 d0 be d4 bc 72 e7 03 bf 63 5b 86 bc ac df cb bc
       -0.025969893 -0.5152503 -0.016400998 -0.024886928
0002c0 36 09 c5 bb d0 ae 4e bd cc f8 c5 bc 5d 78 22 bc
       -0.006013061 -0.050459683 -0.024166487 -0.009916392
0002d0 ab c2 b6 3b 97 de 6f bc d0 fe 80 3e c8 f4 0b be
       0.0055774054 -0.014640472 0.25194407 -0.13667595
0002e0 89 2e 89 bc 58 77 90 3c 6c d0 88 3e 33 91 55 be
       -0.016745823 0.017635033 0.26721513 -0.2085617
0002f0 a7 39 f5 3d b8 9f 19 3e 55 97 b7 bc 7a 33 4b 3c
       0.11973887 0.15002334 -0.022411028 0.01240241
000300 ea 3f a1 bc 7b e5 5a bc 4f 2f 8e bc 5e 97 00 bd
       -0.019683797 -0.0133603765 -0.017356543 -0.031394355
000310 74 ba b2 3d 8c 13 fd be f4 2a 29 bb a3 0c 6a 3c
       0.08726969 -0.49428976 -0.0025812956 0.014285239
000320 52 c4 84 3e 69 2a 8d be 43 5b 53 bd 3c d0 d1 3c
       0.2593103 -0.2757142 -0.051600706 0.02561199
000330 00 e6 59 3e be ed df be 6d b8 e0 bb d2 9e ce 3c
       0.21279144 -0.4373607 -0.0068579228 0.025222216
000340 c7 41 71 bc 7c 78 5f 3a 4a 51 9a bd 2e a9 a0 3e
       -0.014725155 0.00085247285 -0.07535036 0.31379074
000350 c5 3d a2 bc 8a 4b 02 3b b3 40 75 bc e9 61 15 3c
       -0.019804845 0.001988145 -0.014969039 0.009117582
000360 78 4e cd be 98 68 a8 3e ac 34 41 be d9 ac 91 3e
       -0.4009893 0.328923 -0.18867749 0.28452185
000370 dc 00 75 bb ad 23 43 bc b2 4c 50 3c 86 bc fd be
       -0.0037384545 -0.011910361 0.012713598 -0.49557894
000380 95 7d e1 bc 6e fe dd 3c dd 39 ab bc 52 0a 74 3c
       -0.027525702 0.02709886 -0.020901615 0.014895039
000390 60 4e 59 3e 21 6a cb 3d e8 88 8e b9 2f 0b 0e bd
       0.21221304 0.09932352 -0.00027186354 -0.034678634
0003a0 12 04 5a 3e 94 59 3d bf a5 32 1e 3a 15 62 b7 3b
       0.21290615 -0.7396481 0.00060347683 0.005596409
0003b0 55 43 96 bb 7d 71 ee bc a2 69 69 bc 65 e3 ac 3c
       -0.0045856633 -0.02910685 -0.014246376 0.021104524
0003c0 5f 68 95 bc 2e 26 b7 ba 22 6a ad bc 5e 3d 97 bd
       -0.018238245 -0.001397317 -0.021168772 -0.07384752
0003d0 50 92 90 3c e4 36 4d bd 3d 29 40 bc 5c 2d a3 3c
       0.017647892 -0.050101176 -0.011728582 0.01991909
0003e0 29 5b 82 3e 60 2c ad be f6 f6 df 3b 52 ef 5b bd
       0.25460175 -0.33822918 0.00683486 -0.05369503
0003f0 da 43 02 3e 48 02 cb be 65 8c 0a bf f5 27 5f 3e
       0.12721196 -0.39650178 -0.54120475 0.21792586

model.0.bias f4 [256]
000000 00 00 00 00 8f c5 89 bc 4b bd 29 bd 00 00 00 00
       0.0 -0.016817836 -0.04144029 0.0
000010 00 00 00 00 aa 53 b8 bc 4b e8 0f 3e 3e fe 7b bb
       0.0 -0.022500832 0.14053456 -0.00384511
000020 41 d4 1c bd ad 77 cd bc a1 ef d9 bd 00 00 00 00
       -0.03828836 -0.02508148 -0.10641409 0.0
000030 53 6b f5 3d 87 b0 32 bc 82 25 a3 bc 44 69 df bc
       0.11983361 -0.010906345 -0.019915346 -0.027271874
000040 11 4e 3f bd 00 00 00 00 37 d3 c8 bc 39 ca 35 bb
       -0.04670531 0.0 -0.024514778 -0.0027738942
000050 bf 45 19 bc 1c f7 8e bb 00 00 00 00 5c 6d 32 3e
       -0.009355008 -0.004362954 0.0 0.1742453
000060 91 44 49 bc a0 5a 9d bd 00 00 00 00 0a ce c3 3d
       -0.012284414 -0.07683301 0.0 0.09560783
000070 00 00 00 00 82 b4 a9 bc 00 00 00 00 52 cb fd 3d
       0.0 -0.020715956 0.0 0.12392296
000080 0f 4c 68 bc a2 43 3c bd 01 51 bc ba 48 53 04 bc
       -0.01417829 -0.045962937 -0.0014367403 -0.008076496
000090 81 1a 27 bc 00 00 00 00 4a 33 54 be 00 00 00 00
       -0.01019919 0.0 -0.2072269 0.0
0000a0 e2 fd 28 be 6c 08 12 be 00 00 00 00 f5 c9 12 bd
       -0.16503099 -0.14261025 0.0 -0.035837132
0000b0 69 3c 9d bc 00 00 00 00 00 00 00 00 ce 0a bd bc
       -0.019193845 0.0 0.0 -0.023076441
0000c0 1e 4b 1c bd b8 d9 4a bc 00 00 00 00 c0 8b dd bc
       -0.038157575 -0.01238101 0.0 -0.027044177
0000d0 6a 3b 59 bd 00 00 00 00 d7 fb 36 3e 1c db 7a 39
       -0.053035177 0.0 0.17869507 0.00023923483
0000e0 6b 78 d3 bd dd d5 a4 bb 00 00 00 00 cf a1 30 be
       -0.10325702 -0.0050303773 0.0 -0.17249225
0000f0 d2 1c 77 bb 00 00 00 00 92 18 ef bc 27 86 b8 bc
       -0.0037706387 0.0 -0.02918652 -0.022524906
000100 04 86 99 bb 00 00 00 00 f2 18 0f ba 75 c6 0a 3e
       -0.0046851654 0.0 -0.0005458734 0.13552268
000110 bd 60 8c bd f6 48 3b be 00 00 00 00 00 00 00 00
       -0.06854389 -0.18289551 0.0 0.0
000120 4c a4 7c bc cc 82 8c ba 00 00 00 00 9d 85 01 be
       -0.015420031 -0.0010720133 0.0 -0.12648626
000130 35 cc 92 bd 2e 3e af 3c 23 de 17 bc 00 00 00 00
       -0.07167856 0.021391954 -0.00926927 0.0
000140 4c 96 59 bb 00 00 00 00 7e b6 18 bd 27 f1 fb 3d
       -0.0033201156 0.0 -0.037283413 0.123018555
000150 22 bb 52 3e 00 00 00 00 02 ab f7 3d 00 00 00 00
       0.20579198 0.0 0.12093164 0.0
000160 00 00 00 00 00 00 00 00 53 f1 da bb 3e 17 0f be
       0.0 0.0 -0.0066816 -0.1397371
000170 8d d9 b8 bc 63 30 b4 bd 1e b4 b2 bd 55 ba 85 bb
       -0.022564674 -0.087982915 -0.08725761 -0.0040810504
000180 00 00 00 00 00 00 00 00 c1 7a c5 3d f8 e1 5d bc
       0.0 0.0 0.09642554 -0.013542645
000190 38 84 48 bd e0 d3 6c bc 59 32 0a 3c 4f 63 b6 bc
       -0.04895422 -0.014454812 0.008434855 -0.02226415
0001a0 47 2a 79 bb 04 b9 ae bd d0 0d fe ba df 94 2f bb
       -0.0038019584 -0.08531383 -0.0019382779 -0.0026791615
0001b0 52 2d 10 3d cb 72 4a bc 55 44 28 3a 35 0a 51 3e
       0.03519947 -0.01235647 0.00064188737 0.2041405
0001c0 6d 6f 09 bd b2 a0 cc bc 29 eb 70 be 00 00 00 00
       -0.03355353 -0.02497897 -0.23527206 0.0
0001d0 55 ae f3 3c 03 1b cb bb 4d 95 eb 39 fb 95 c0 bc
       0.029746214 -0.0061982884 0.0004493393 -0.023509016
0001e0 0a 25 6e bc 53 b6 37 bc 25 ef 66 bc 10 ec 76 bc
       -0.014535198 -0.011212903 -0.014095102 -0.01507093
0001f0 d3 ef 18 3c e4 92 b3 bb d9 15 0d 3e 5e 59 1d 3d
       0.009334522 -0.005480157 0.13777865 0.038415305
000200 00 00 00 00 3e 11 7f be 00 00 00 00 00 00 00 00
       0.0 -0.24908921 0.0 0.0
000210 12 2f ec 3c a4 ea b4 bd 94 6c 0e bd 00 00 00 00
       0.028831039 -0.08833817 -0.034771517 0.0
000220 67 b7 0c bc fe 96 07 bd d8 4b 3a 3e ac 36 21 3e
       -0.008588648 -0.03310298 0.18192995 0.15743512
000230 ec 08 f5 bb b4 78 6c 3b 00 00 00 00 5e ee 96 bb
       -0.00747787 0.0036082687 0.0 -0.0046060523
000240 15 ba dc ba 45 ef bb bc c2 11 14 bd 03 21 84 bd
       -0.0016840125 -0.022941241 -0.036149748 -0.06451609
000250 00 00 00 00 c1 18 32 bb db 5e 62 be 00 00 00 00
       0.0 -0.00271754 -0.22106497 0.0
000260 a6 b0 2b bb 00 00 00 00 00 00 00 00 55 9d 87 be
       -0.002619782 0.0 0.0 -0.26487222
000270 c5 a0 b1 bc 29 a4 c1 bb 9a 4b 0a 3e 0f 1b 07 3e
       -0.021683106 -0.005909462 0.13505402 0.13193916
000280 37 3c 21 bb 54 bd 80 bd 50 2f a2 bd b0 b4 76 bb
       -0.0024602541 -0.062861115 -0.079191804 -0.003764432
000290 ae 9d 5f be 11 7c 5f be 00 00 00 00 23 2a 07 3e
       -0.21837494 -0.21824671 0.0 0.13199668
0002a0 75 76 39 bc 6e 87 3f bd 24 6f da bc 00 00 00 00
       -0.011319746 -0.046760015 -0.026664324 0.0
0002b0 52 9c ff bb 00 00 00 00 00 00 00 00 da 2e 12 be
       -0.0078006173 0.0 0.0 -0.14275685
0002c0 05 f4 57 bc 17 aa 7d be 00 00 00 00 d3 a3 69 bd
       -0.013180737 -0.24771915 0.0 -0.057041
0002d0 1b b8 db bc 20 48 62 3b 00 00 00 00 00 00 00 00
       -0.026821187 0.0034527853 0.0 0.0
0002e0 49 a3 50 3e 81 d5 aa bc 95 e5 b2 bc df 2d 48 bd
       0.20374788 -0.02085376 -0.021837989 -0.04887187
0002f0 89 02 02 3e 83 65 04 bc ed db a0 bd b5 50 de bc
       0.1269628 -0.008080843 -0.078544475 -0.027138093
000300 7a cd 3a bd 00 00 00 00 a2 9c d3 bc ff 44 23 be
       -0.045606114 0.0 -0.025831524 -0.15944289
000310 00 00 00 00 00 00 00 00 c1 5e 9d bb 16 ef 4c 3d
       0.0 0.0 -0.0048025553 0.050032698
000320 bf e1 a2 bc b2 73 4d 3d 00 00 00 00 69 52 0c 3e
       -0.019883035 0.050159164 0.0 0.13703312
000330 00 00 00 00 8a 8b aa bb fa ba f4 ba 00 00 00 00
       0.0 -0.0052046226 -0.0018671446 0.0
000340 00 00 00 00 00 00 00 00 99 33 aa bc e1 b0 bd bc
       0.0 0.0 -0.020776557 -0.023155631
000350 86 21 c3 bb 00 00 00 00 00 00 00 00 00 00 00 00
       -0.005954924 0.0 0.0 0.0
000360 83 ce 81 be b7 6d bc bd 9c a5 be bc 67 e8 cb bb
       -0.25352868 -0.09200614 -0.023272328 -0.006222773
000370 3f 08 6b bb 00 00 00 00 00 00 00 00 81 94 e7 ba
       -0.003586307 0.0 0.0 -0.0017668159
000380 00 00 00 00 e2 65 0a 3e 92 c1 6a bd 56 08 40 be
       0.0 0.13515428 -0.05731351 -0.1875318
000390 c7 16 70 bb 00 00 00 00 1f ff 1b 3e 02 bc 34 3e
       -0.003663467 0.0 0.1523404 0.17649844
0003a0 14 e0 af 3d 33 82 8b 3e 55 a9 04 bd 36 57 f0 3c
       0.085876614 0.27247772 -0.03238805 0.02933846
0003b0 00 00 00 00 40 6f cc bc 4e 08 30 3d 0a 75 2d be
       0.0 -0.024955392 0.04297667 -0.16939178
0003c0 cc 16 15 bc 83 b1 ac bd f3 42 24 bc 00 00 00 00
       -0.0090996735 -0.08432295 -0.010025728 0.0
0003d0 10 84 48 3c 00 00 00 00 4e 96 77 3b 2c 0e 0b bd
       0.012238517 0.0 0.0037778798 -0.033949062
0003e0 79 7f cf 3b bd 29 95 39 ac 31 85 bd 48 1f 34 be
       0.0063323346 0.00028450592 -0.06503615 -0.17590058
0003f0 81 b5 00 3e 9a 3a 86 bc 4d 27 8f bc 9b cc 04 bd
       0.12569238 -0.016385365 -0.017474795 -0.03242169

model.2.weight f4 [256, 256]
000000 84 5f a4 3c b4 cf 35 bc 74 8e c5 bb e8 4e c3 bc
       0.020065077 -0.011096884 -0.0060289446 -0.023841336
000010 21 26 d8 bc 78 c0 ea bc 6a 74 21 bf 19 ad d3 bb
       -0.026385369 -0.02865623 -0.6306826 -0.006459844
000020 47 02 b8 3e 99 eb 51 bc 91 37 9e bd e5 0e 05 bc
       0.35939237 -0.0128125185 -0.07725442 -0.008121227
000030 3a 1f 0c 3a 8b c6 4f 3a 1c 6c a4 3c 5b 1c 1b bc
       0.00053452293 0.00079260085 0.020071082 -0.00946721
000040 fe 2d ce bb dd 8c 28 bd 91 c2 4a bc 02 b1 6e 3c
       -0.006292104 -0.041149963 -0.01237549 0.014568569
000050 4a 97 2a 3c 86 31 70 3c ca 8a 92 39 01 cc 54 3d
       0.010412047 0.014660245 0.00027950696 0.051952366
000060 61 bf d8 3c e1 ba a0 be f1 3c 4b 3c f7 72 13 bf
       0.026458444 -0.31392577 0.012404666 -0.575973
000070 fc 68 e7 3b 93 de 6f 3b 30 7a 00 bb 4b 5e 45 3e
       0.0070620757 0.003660117 -0.001960408 0.19274251
000080 2c 74 df bf 79 9a eb be 32 dc 4e 3c 40 ee 5a 3b
       -1.7457328 -0.4601629 0.012625741 0.0033406168
000090 5c 30 b4 3b 28 d1 80 3c a0 a6 c7 3e 9c 6c 88 bc
       0.005498929 0.015724733 0.38994312 -0.016653351
0000a0 c0 fd 1c 3d 29 a7 4b 3d eb 59 db 3b d6 f4 0c 3e
       0.038327932 0.049719963 0.0066940687 0.13765272
0000b0 61 5e 34 bc 54 f4 80 3a 23 50 c5 3c 28 e5 85 3a
       -0.01100883 0.000983844 0.024086064 0.0010215389
0000c0 0d ad 47 3c 0e 73 8b 3c 1a ff 89 3a 71 39 a2 3b
       0.012187255 0.017022636 0.0010528297 0.004950695
0000d0 12 ec 48 3e 22 e5 0c 3a 48 35 96 3e b7 c9 03 3d
       0.19621304 0.00053747196 0.29337525 0.032174792
0000e0 0f b3 de be e5 2e 8c 3a 24 6f da bb 96 b0 0d bd
       -0.43495986 0.0010695128 -0.006666081 -0.034592234
0000f0 34 6f 18 3c c2 cc af 3c 64 8c 8c bb c5 51 71 bc
       0.009303857 0.02145994 -0.004289197 -0.014728968
000100 d6 df 26 3d 90 32 83 3b 93 c6 0f bd 3c f8 0d bf
       0.04074081 0.0040038303 -0.035101485 -0.554569
000110 6d a8 cf be 81 d5 a3 bf 62 20 ae ba 51 bc 74 bc
       -0.40558186 -1.2799531 -0.0013284797 -0.014937476
000120 74 b7 13 bc ce 97 48 3d 6e 08 0c 3c 6d 1f 5f 3e
       -0.009015907 0.048972897 0.008546932 0.21789332
000130 36 f8 9c bf f7 a5 80 3e 85 4e d4 bc d7 a1 af 3c
       -1.2263248 0.2512662 -0.025916347 0.021439476
000140 47 fc 65 3c 2a 1b ba 3c d0 5a 67 be ed 12 00 bf
       0.014037198 0.022718031 -0.22593236 -0.5002888
000150 2d f5 18 c0 1a df c5 3c 07 9e c9 3e 7a d6 61 bc
       -2.3899643 0.024154235 0.39378378 -0.013784045
000160 c3 19 5c 3c b9 02 a7 3b 4e ac 2c 3d 80 83 7e 3c
       0.013433876 0.00509676 0.04215651 0.015534282
000170 99 e9 48 3d 87 d9 2d c0 cc 4b ce be bd f3 b6 bc
       0.0490509 -2.7164018 -0.40292203 -0.02233302
000180 98 e4 da bb 2f 47 dc 3c 0c 5a 91 3e 13 11 9f 3c
       -0.0066800825 0.026889412 0.28389013 0.019417321
000190 e5 c8 de be b8 15 56 bd 03 f7 21 be 1e 60 a3 bb
       -0.43512645 -0.052266806 -0.15816884 -0.0049858233
0001a0 9b bf 20 3c c2 63 ec bb 28 dd 82 bb ee 47 57 3a
       0.009811307 -0.0072140405 -0.003993649 0.00082123175
0001b0 9b 83 98 3e 23 56 af 3d fd e1 ab bb 4d 5a 47 3e
       0.29787907 0.08561351 -0.0052454458 0.19468041
0001c0 f9 98 da bb 9c 1d 26 3d a1 6f 32 be 98 63 fa 3b
       -0.006671068 0.04055558 -0.17425396 0.007641267
0001d0 9c 3c c4 be 21 3e b4 3c 22 e4 47 3c cf d3 63 3d
       -0.3832749 0.022002282 0.012200387 0.05562192
0001e0 81 62 56 bc a0 5b 89 3d 3a c4 3f 3d a9 38 02 bc
       -0.013085009 0.06706929 0.046817996 -0.007948079
0001f0 6f 8c 08 3e 1b 2e f3 3c 03 b7 4a 3e 3c 63 8c 3e
       0.13334821 0.02968507 0.19796376 0.2741946
000200 cc b9 7b bc d0 e2 31 3f 44 f5 ea 3b 69 19 95 bc
       -0.015364122 0.69486713 0.007170351 -0.018200593
000210 e8 e6 c4 be 1c 67 27 c0 3b 07 a3 3d 7c 1d a6 3b
       -0.38457417 -2.6156683 0.079603635 0.005069433
000220 55 e5 0f bb 57 8f 8e 3d ff f5 72 3e 88 2f 29 bc
       -0.002195676 0.06960934 0.23726653 -0.010326274
000230 82 ec 8f 3d 71 2a c3 3c 5f 61 54 bb 2c 0f fc ba
       0.07027532 0.023823949 -0.003240667 -0.0019230596
000240 93 7e 9d bc 3d 94 3b bc bd 5e 93 bc 17 d4 69 3e
       -0.019225394 -0.011448917 -0.01798951 0.22834812
000250 68 5f 68 bb 81 bc 17 3c 8b 85 37 3e b0 e2 40 3c
       -0.0035457257 0.009261251 0.17922036 0.0117727965
000260 21 70 15 bc 2a 4a 4e 3c 10 f5 05 bd da 72 49 3f
       -0.009120972 0.012590924 -0.032704413 0.78690875
000270 a5 7b 34 3d 22 eb 83 bc 24 2f 7d be e5 aa 14 bf
       0.04406323 -0.016103331 -0.24725014 -0.58073264
000280 8e 8d 1e ba 99 1d c3 be cf e7 16 3f 61 a5 b8 bc
       -0.0006048315 -0.3810852 0.5894746 -0.022539796
000290 36 b2 f3 c0 09 d1 2b be 26 a7 08 bc ac ea 04 bf
       -7.6155043 -0.1677896 -0.008340633 -0.5192058
0002a0 08 9b 36 3d bf 73 06 bf ee c5 49 bc 18 fe 7f bc
       0.044581443 -0.52520365 -0.0123152565 -0.0156245455
0002b0 49 de ab bb e9 2a d7 3b 80 fc 72 bc cf 0d 9f 3b
       -0.0052450043 0.0065663946 -0.0148307085 0.004853941
0002c0 b2 f7 ad 3b b2 18 31 3f f7 34 18 3c e7 bd 84 bd
       0.0053090686 0.6917831 0.009289972 -0.064815335
0002d0 20 4d 9a 3b 8f 89 23 3d ec 48 5e 3c 9e cb 7c 3c
       0.004708901 0.039926108 0.013567191 0.0154294055
0002e0 2b 4d 8d 3e 23 6d a5 3d 9c 4e 3a 3d f3 54 09 bd
       0.27597937 0.08077457 0.045485124 -0.03352828
0002f0 22 70 e4 3e 71 8d 36 bc a9 8d 91 c0 01 55 9c 3c
       0.446168 -0.011142121 -4.5485425 0.019083502
000300 1d c6 80 3e b9 6c 4f bd 5a a1 d1 bc 7f 66 f5 bd
       0.25151148 -0.050640795 -0.025589634 -0.1198244
000310 3e 25 89 bc d8 4c b3 3c f2 9c 8e bc 80 64 57 be
       -0.016741391 0.021887228 -0.017408822 -0.21034431
000320 d0 da 5f bc 78 10 26 be 49 a5 f9 3b bf c7 1c 3e
       -0.013663009 -0.1621722 0.0076185805 0.15310572
000330 d1 5a 80 bc 99 77 a5 3c 2b 4f 73 3c 4f 29 c9 bc
       -0.015668305 0.02019863 0.014850418 -0.02455583
000340 08 19 1a bc 44 b0 14 bc f5 57 9b 3d d7 31 98 bd
       -0.009405382 -0.009075228 0.07585136 -0.07431381
000350 76 40 a4 3b d3 73 81 3c f9 d1 1c bc fa 07 5f bc
       0.005012567 0.0158023 -0.009571546 -0.013612742
000360 1c 07 81 3f 66 b8 81 bd f1 84 d1 bb 5e ec 97 bc
       1.0080295 -0.06333999 -0.0063940217 -0.018545326
000370 f6 40 ec 3c 6a 32 60 bb 83 9d 00 bd 50 13 c2 bc
       0.02883957 -0.0034209737 -0.031400215 -0.02369085
000380 04 83 e0 bc d6 d8 12 bf 00 04 29 be 01 fe 6b be
       -0.027406223 -0.57362115 -0.16505432 -0.23046114
000390 05 79 e0 bb b2 1f b8 3b 62 ce 84 3d 39 bb a7 3e
       -0.006850364 0.0056190128 0.06484677 0.32760027
0003a0 0a e6 89 3d 2d 79 13 3e 7b 59 90 3e bc 9b e3 3d
       0.067333296 0.14401694 0.28193268 0.11113688
0003b0 0e 5c 83 ba 69 60 ea 3d af d6 f7 bc c4 10 97 bf
       -0.0010021941 0.1144417 -0.030253736 -1.1801991
0003c0 58 87 90 bb f2 5d 92 3c 1b 44 a0 bb 25 c6 0f 3b
       -0.0044106655 0.017867062 -0.0048909313 0.0021938172
0003d0 b3 66 7a be f1 14 91 bb 3d 49 e4 ba 0e ea c4 3b
       -0.24453239 -0.0044275452 -0.0017416846 0.006009347
0003e0 30 5b 08 3e 0a 67 60 3d 96 a6 44 bf 4d 77 09 bd
       0.13316035 0.054785766 -0.7681669 -0.03356104
0003f0 40 67 f7 be c9 91 43 3c 91 26 a5 3d 87 27 51 bb
       -0.4832096 0.011936613 0.080639966 -0.003191443

model.2.bias f4 [256]
000000 d9 10 96 bd 00 fe 3c bc b0 7f f1 3d bc 20 6d 3c
       -0.07327432 -0.011535168 0.117919326 0.0144731365
000010 71 88 a6 bc 16 16 de 3c cf 3d f5 3a 1e d5 91 3d
       -0.020328732 0.02711014 0.0018710437 0.07120727
000020 c1 02 2c bd 86 bb bb bc 4a 85 45 bc c9 62 29 bd
       -0.041994814 -0.022916567 -0.012055704 -0.041353974
000030 ef 37 2b bc 6e 72 b1 3c 74 ac 01 bc e2 1c cb bc
       -0.010450347 0.02166101 -0.007914651 -0.024794046
000040 64 af 68 bb 5e 62 45 bc ac 5b 7a bd 51 44 9f be
       -0.0035504932 -0.012047378 -0.06112258 -0.3110681
000050 c3 11 5e bc 8e 1e 09 bd 22 c8 58 bc 76 45 28 bc
       -0.013554039 -0.033476405 -0.013231309 -0.010270467
000060 f2 35 a3 bd af c0 f8 bc 0b 23 bc bc c1 d3 cc bc
       -0.079692736 -0.030365316 -0.022965929 -0.025003316
000070 53 c8 cf bd 3f 2f 60 be 72 61 bc bd 90 7b 08 3d
       -0.10145631 -0.21893023 -0.09198274 0.033320963
000080 1a 21 31 bc 5b 33 4a bc 09 63 1a 3c ee 37 67 be
       -0.010811115 -0.012341346 0.009423026 -0.22579929
000090 38 57 50 bc 74 2a cd bc fb 27 be bc b0 64 2b 3e
       -0.012716107 -0.025044657 -0.023212424 0.16737628
0000a0 e9 a7 a9 3d 26 e1 dc ba d4 9d 8c be d0 b7 c0 3d
       0.082839794 -0.0016851767 -0.27464163 0.094100595
0000b0 fe 4a 23 bc 48 59 81 bb 4b 26 66 bc 42 c2 d9 bb
       -0.00996661 -0.0039474107 -0.014047216 -0.006645472
0000c0 0c 1f 72 3d 44 e2 cd 3b 17 a1 cd bd 86 20 c6 3d
       0.05911164 0.0062830765 -0.10040491 0.09674172
0000d0 7d 48 dc bd 06 7e 73 bb 1f ad 3d be 00 95 a0 bc
       -0.107560135 -0.0037153973 -0.18523072 -0.019602299
0000e0 da a9 64 be ec af 71 bc 6f e6 05 3e 50 dd 37 bd
       -0.22330418 -0.014751416 0.13076185 -0.044888794
0000f0 65 0c 34 bc 13 c2 3a be 74 71 3a bd af 2e ce bc
       -0.010989283 -0.18238096 -0.045518354 -0.025168745
000100 55 1c 93 bc 0f 42 c1 3d eb 01 15 3e 08 6b 1e be
       -0.017957846 0.09436428 0.14551513 -0.15470517
000110 64 99 d0 3c 5d 59 e6 bd 58 e3 8a be 4f ce 4c bb
       0.025463767 -0.112475134 -0.27126575 -0.00312509
000120 56 e2 bd 3d 27 5d 19 be ec a8 88 3d 74 ac 33 bc
       0.09271686 -0.14976941 0.06672844 -0.010966409
000130 71 09 13 be ea 8d dd 3c af 7d 5c bc af 11 af 3d
       -0.1435907 0.027045209 -0.0134577 0.08548295
000140 6b 2f 44 be 0e 12 f2 bc 40 11 e0 bd a6 a6 30 bc
       -0.19158714 -0.029549625 -0.1094079 -0.01078192
000150 28 38 f1 bb 1d 6f 3d be cd 0d 3d bc c7 32 e2 bc
       -0.0073614307 -0.18499418 -0.011538935 -0.027612103
000160 f4 ef 3f bd 4b 42 ce bb f4 36 82 3d 65 ad a4 bc
       -0.046859697 -0.006294524 0.06358138 -0.020102212
000170 08 8f 96 3d 28 d6 be bc 6f 8f cf bc 62 55 86 bd
       0.073515 -0.023295477 -0.02533695 -0.06559254
000180 a0 5a c7 bb 16 89 58 be 7f 1c 21 bc 0f 7b 00 be
       -0.0060838014 -0.21146044 -0.009833454 -0.12546943
000190 16 29 61 be d5 66 26 bb b7 9a ce 3d 79 22 94 bc
       -0.2198833 -0.0025390883 0.10088103 -0.018082844
0001a0 e1 2d fb bb 00 07 55 bd ab cc 9b 3d b4 d5 d7 3d
       -0.0076653813 -0.05200863 0.07607397 0.105388075
0001b0 94 67 80 be 0e bd e8 bd 35 73 9b 3d 76 73 71 bd
       -0.25079024 -0.11364184 0.07590333 -0.058948003
0001c0 8a 2e 31 3d 17 a3 93 3a d0 42 0e 3b 82 2a 09 bc
       0.043257274 0.0011263815 0.0021707304 -0.008371951
0001d0 7e a6 3a be 34 28 52 bc 7b 91 a2 bd 81 5f 8c bc
       -0.18227574 -0.012826968 -0.079379044 -0.017135384
0001e0 f1 3a 10 be 85 52 80 bc 9e 01 fb 3c ac 5f 92 bc
       -0.14084984 -0.015664348 0.03064042 -0.017867886
0001f0 98 04 14 bc fe ce 29 be 44 6c 9b 3d ec 07 89 be
       -0.009034298 -0.16582868 0.075890094 -0.26763856
000200 a9 d0 49 bd 5d 4a de bc 98 bf e5 bd b8 af 34 be
       -0.04927126 -0.027135069 -0.11218184 -0.17645156
000210 b9 86 6c bd 19 fe 92 bd 08 90 e2 bd 83 db 28 bb
       -0.05774567 -0.071773715 -0.11062628 -0.0025765605
000220 15 a8 c7 be 48 4d af 3d af 83 02 be 79 4e a7 bc
       -0.38995424 0.08559662 -0.12745546 -0.02042316
000230 55 00 78 3d 85 1f fc bd 56 f9 d6 bc 88 bf 52 bc
       0.06054719 -0.123106994 -0.02624194 -0.012863047
000240 5f 6c bd bd f1 86 35 bc b5 fd 4c 3d 78 59 17 3e
       -0.09249186 -0.011079536 0.05004664 0.14780223
000250 31 ad b7 bd 35 d8 41 bc b3 21 30 bd 17 b2 39 bc
       -0.089685805 -0.011831333 -0.043000888 -0.011333964
000260 7b c7 8e bd f5 28 38 bc 1e 75 3c 3e 0d 11 27 bc
       -0.06971642 -0.011240234 0.18404052 -0.010196936
000270 34 35 a8 3d 57 7c ed bc 27 31 31 be a5 0e ad bc
       0.08213273 -0.028989954 -0.17303906 -0.021125147
000280 5c 03 72 bc e9 85 87 3c da c1 4f 3c 23 88 d3 bc
       -0.014771309 0.016543346 0.012680495 -0.025821751
000290 b6 fe 89 bd c1 c5 52 bc 19 56 fb bb 20 34 d3 3d
       -0.067380354 -0.012864531 -0.0076701757 0.103126764
0002a0 e4 c3 31 bc 78 0d f1 3c 9d de 50 bc 65 bd 53 bd
       -0.010849927 0.029425368 -0.012748388 -0.051694293
0002b0 30 6e 3a bd 2d 08 3d be b1 65 3a bc 2a 50 3a 3e
       -0.04551524 -0.1846015 -0.011376784 0.18194643
0002c0 58 39 46 be 77 60 01 bd 21 f2 14 bd 63 42 bf bd
       -0.19357812 -0.031586137 -0.036363725 -0.09338834
0002d0 1c e5 8d 3d 18 b7 0f be 4a ce 5c bc e3 10 ec bd
       0.06928465 -0.14034688 -0.0134769175 -0.115266584
0002e0 7c af c2 bc 3c f9 46 3d b7 df e5 bb 0e ba 98 3d
       -0.023765318 0.048577532 -0.0070151943 0.07457362
0002f0 f5 7a ae bb eb a4 21 3e 55 6b 92 bc 5f b1 0e 3e
       -0.005324716 0.15785567 -0.017873446 0.13934849
000300 43 9d c3 bc 1a b3 0d bc d0 7b 0f be 8f 0b 84 bd
       -0.0238787 -0.008648658 -0.14012074 -0.06447517
000310 a5 79 02 3e ae 1b ed 3d 86 c7 b4 3d 97 28 8d bc
       0.12741716 0.11577545 0.088271186 -0.017231269
000320 29 53 82 3d db c1 38 bc 2f 03 1e bc 18 5e c3 3d
       0.06363518 -0.0112766875 -0.009644314 0.09539431
000330 2d 0a 98 bc c1 6e b1 3d 65 50 54 be 63 3e 24 3c
       -0.01855954 0.08663703 -0.20733793 0.01002464
000340 28 d1 1e be ee e2 36 be 68 42 b1 bc 04 3a a9 bc
       -0.15509474 -0.17860004 -0.02163811 -0.020657547
000350 87 65 fd 3d 3f e2 4a be 05 b2 15 bc 56 d4 62 be
       0.123728804 -0.19812869 -0.009136681 -0.22151312
000360 cd d3 d8 bb d1 ed f4 bb 1a 8d 86 bc 24 22 fe 3d
       -0.0066170455 -0.007474639 -0.016424704 0.124088556
000370 d0 97 85 bd 9f f3 0d bc f4 76 3b be 3e 09 e9 bb
       -0.065230966 -0.008664041 -0.18307096 -0.0071116975
000380 80 9d e4 3c aa 42 a4 bd a3 12 8a bd 00 00 00 00
       0.027907133 -0.08020528 -0.06741836 0.0
000390 2b 79 9c 3d 94 34 e7 bc 2e da 45 be 65 7f f7 bc
       0.076402985 -0.028223313 -0.1932151 -0.030212114
0003a0 b8 c9 50 bc a1 51 9d 3d 07 d6 1e bc 11 97 85 be
       -0.012743406 0.07681585 -0.009694583 -0.26091817
0003b0 fd c7 00 be ec b5 fc bc b4 d6 7e bd 9e 52 36 3e
       -0.1257629 -0.030848466 -0.062216476 0.17804953
0003c0 94 8f b1 bd 24 d8 af bd a5 cf c7 3d 4a b0 2e bd
       -0.086699635 -0.085861474 0.09756402 -0.04264859
0003d0 f9 75 8a 3d 8e a3 0e bc 43 0d 25 be 04 95 94 be
       0.06760783 -0.008705987 -0.1611834 -0.2901994
0003e0 15 0a fa 3d 70 2f c0 bc 25 80 e4 3d 88 6c 00 bc
       0.12208954 -0.02346012 0.11157254 -0.007838376
0003f0 fc ce ce 3d aa aa 6c bc 46 61 2d bc 97 02 79 3d
       0.10098073 -0.014444986 -0.010582274 0.060793485

model.4.weight f4 [256, 256]
000000 03 a4 57 be 9d 97 22 3c 53 6f 88 3b 5d ee e6 3c
       -0.2105866 0.009923843 0.0041636615 0.028189832
000010 09 4e 93 3d f6 6b ea bd 46 dd cb 3d ca 22 05 be
       0.071926184 -0.11446373 0.09954314 -0.13001552
000020 2d e6 17 3d c8 67 5c bf 1d 1f db bc a4 6b d9 3d
       0.037084747 -0.8609586 -0.026748234 0.10616234
000030 85 03 0a bd a8 b4 3c 3f 97 f3 c3 bc 19 2a 0f bc
       -0.033694763 0.7371316 -0.023919864 -0.008738064
000040 2a f3 93 b9 d9 dd e8 3c 93 a3 56 bd ea 76 0a 3f
       -0.00028219196 0.028426098 -0.05240209 0.540877
000050 4d 3b 1e 3e b8 83 0a 3e 99 29 0b bc e0 b8 d4 3c
       0.15452309 0.13526809 -0.008493804 0.025967062
000060 b7 16 80 3e 55 3c fc 3c a1 13 0c bf 07 4c a0 3c
       0.2501733 0.030790487 -0.5471745 0.019567503
000070 c6 8a 15 3e b1 f1 a1 3d eb da 62 3e 61 dc 97 bd
       0.14603719 0.07907427 0.22153823 -0.07415081
000080 c2 ba 0e bb 20 de 38 3c 95 1c f6 3d ee 29 47 3e
       -0.0021778797 0.0112834275 0.1201717 0.19449589
000090 3a a3 36 3b 12 27 53 3c 6c 80 47 bc 83 1e 1a 3e
       0.0027868287 0.012887733 -0.012176614 0.15050702
0000a0 13 db 9f 3e 6b 19 63 bc f1 86 1a bd 39 c9 c0 bc
       0.31221828 -0.013861041 -0.037726346 -0.02353345
0000b0 87 27 a2 3b fa 23 c9 bc bc 6c b7 3c 82 89 5a 3c
       0.0049485597 -0.024553288 0.022390716 0.0133384485
0000c0 16 0c cc bd b8 bb 11 be 73 d0 74 3e cb 62 9e 3b
       -0.09963243 -0.14231765 0.23907642 0.0048335544
0000d0 3c c3 0e be f5 6e ff 3d f7 14 0d 3e 89 8b 5e 3c
       -0.13941664 0.12472335 0.13777529 0.013583072
0000e0 00 9d 17 3e 68 f3 08 bd b0 0a 4b 3e 6a 34 20 3d
       0.14805984 -0.033435255 0.19828296 0.039112486
0000f0 ee 2f 42 3c ad 4a 62 3e bd 9d 75 3e 37 a7 23 3e
       0.011852248 0.22098799 0.23985954 0.15981756
000100 e7 12 31 3d 29 27 14 3e b9 dc 39 3d 8c 53 47 3e
       0.043230917 0.14468063 0.045376513 0.19465464
000110 d6 0c a7 bc 69 66 f7 bd 0f 01 14 3c 2c 29 87 3c
       -0.020391863 -0.1208008 0.0090334555 0.016499124
000120 80 30 77 3a ca 8a be 3d 60 8c f7 3d 89 b3 26 3c
       0.00094295293 0.09303816 0.12087321 0.01017464
000130 0a 55 4e 3e b2 6d 4f bf 44 fc 21 bc 4f 43 25 bd
       0.20149627 -0.81026757 -0.009886805 -0.040347394
000140 7f d6 68 3d 68 dc e0 3d 86 ae 3d 3e de 33 df bc
       0.056845184 0.10979539 0.18523607 -0.027246412
000150 da a0 b5 bb 32 31 5d 3e ca 03 f8 bc 58 84 59 be
       -0.0055428566 0.21600798 -0.030275244 -0.21241891
000160 42 9a 75 3c 56 07 09 3d 2e b7 dd be e1 39 a8 bc
       0.014990391 0.03345426 -0.43303818 -0.020535411
000170 43 b1 2a 3e 1d 15 d5 be 03 3f 3f bd 84 57 aa be
       0.16669182 -0.4161767 -0.046690952 -0.33269894
000180 ca 5a 86 bc 16 3c 1f bf 4e 2d 00 bc 22 c3 9e bc
       -0.016400713 -0.6220106 -0.0078233015 -0.019380156
000190 40 33 b4 bd c2 ac 3e bc 00 8e 1f 3d 20 64 aa 3c
       -0.08798838 -0.011637868 0.03895378 0.020799696
0001a0 00 4b a7 3c 4b 37 35 3e 11 58 01 be 4c c6 77 bd
       0.020421505 0.17696874 -0.12631251 -0.060491845
0001b0 d6 e1 ed 3c 95 07 24 3e 36 ca 53 bd e8 2a 89 bb
       0.029038351 0.16018517 -0.051706515 -0.004186023
0001c0 05 9e 90 3e 31 08 1f 3e e4 cd 48 bd b1 04 8d 3c
       0.2824556 0.15530469 -0.049024478 0.017214151
0001d0 ea c9 bc 3d 04 8a 90 3c 06 6e 97 3d 95 8c 91 3b
       0.092181996 0.017643936 0.07394032 0.0044418075
0001e0 e0 59 ad bc 75 4a 00 3d a2 21 f7 bd 8f f2 4c 3b
       -0.02116102 0.031321008 -0.12066962 0.0031272506
0001f0 c1 f6 bb 3c 8a 6d 26 be 34 3e 6d bd c3 39 03 c0
       0.02294481 -0.16252723 -0.05792065 -2.0504005
000200 4a 98 a8 bd 7c 71 df 3c ab 07 4d 3e f7 fc cd c0
       -0.08232172 0.027275793 0.20022456 -6.4371295
000210 63 95 0c be fe b7 1b 3e 9b 8d ae be 47 63 c8 3a
       -0.13728862 0.15206906 -0.3409241 0.0015288376
000220 60 9c 12 3e 2b 0e d3 bd 08 b4 62 3e 85 17 94 bb
       0.14317465 -0.10305437 0.22138989 -0.0045194053
000230 e5 2e 02 3d 4f 2d 8b 3c c8 e6 85 bc 11 29 7c bb
       0.031783003 0.016989378 -0.016345397 -0.0038476626
000240 2d 71 a8 3e 86 46 97 bc 07 24 83 be f0 8d 69 3e
       0.32898846 -0.018466245 -0.25613424 0.22808051
000250 02 11 3a 3f dd 20 0c bb 86 3f dd bd c2 36 b2 bc
       0.726822 -0.0021381893 -0.10803132 -0.021754626
000260 27 52 94 be 9a 15 b4 bb bd 74 17 3d ca 4b 8c bc
       -0.28968927 -0.005495739 0.036976565 -0.017125983
000270 c2 5d cd bc fe b6 13 bc be d2 e0 be c6 31 c0 bc
       -0.025069121 -0.009015797 -0.43910784 -0.023461234
000280 f1 8d b0 bc 37 3a 66 bc 73 5b 0a 3e d8 f6 5a bc
       -0.021552058 -0.014051965 0.13511448 -0.013364516
000290 c9 0e 5f 3e 2d 85 9f 3c 38 90 8d 3c d6 5c 23 3e
       0.21782984 0.019472683 0.017280683 0.15953383
0002a0 b0 c2 c7 3d da e7 73 3e b1 b7 18 3c fd cb 28 be
       0.097539306 0.23818913 0.009321139 -0.16484065
0002b0 e9 4e c2 3b dc e1 f2 bd a0 fe e9 3c 41 86 03 bd
       0.005929817 -0.118594855 0.028563797 -0.032110456
0002c0 c4 7a 69 3d 08 80 00 3e ff 0e 6e bd 82 4c 62 3e
       0.057001844 0.1254884 -0.05811977 0.22099498
0002d0 6a 35 9e 3d 89 cf 90 be ec ff 6a 3b fe b7 3b 3e
       0.07725032 -0.28283337 0.0035858108 0.18331906
0002e0 8a f6 f2 bb 63 eb 02 3e 03 a2 17 bc 55 b6 f6 3d
       -0.0074146437 0.12785105 -0.009254935 0.12046496
0002f0 8c 14 68 3c 4a 6e 11 3f 4a 98 e5 3d 22 35 9f 3d
       0.014165055 0.5680891 0.112106875 0.07773806
000300 dc e2 70 be 2f 20 1b 3b 0a df d9 3d 9f b2 b0 3e
       -0.2352404 0.0023670306 0.106382445 0.34511277
000310 01 bc 8a 3d 68 75 a6 3c 99 d8 4a bd 88 4f 2e 3c
       0.0677414 0.020319656 -0.04952297 0.010639079
000320 e1 c5 5c 3d 33 77 8f bc 82 d9 00 3c e4 49 65 3d
       0.05389965 -0.017512893 0.007864358 0.05597867
000330 e4 be 4b 3f ad 2c 53 be ad 16 4c bf 97 bc 5f bd
       0.7958815 -0.20622511 -0.797221 -0.054623213
000340 35 38 5d 3e b5 46 0f 3e 6f 38 18 bc 2a 51 12 bc
       0.21603473 0.13991816 -0.009290799 -0.008930484
000350 82 f1 84 39 79 b3 95 3e f1 24 8b 3c 44 99 18 3d
       0.0002535694 0.2923849 0.016985388 0.03725554
000360 c8 d8 a0 bc 4e e6 27 bc 49 ea ad bb 03 f5 8f 3c
       -0.01963462 -0.01024778 -0.00530747 0.017572885
000370 f4 d6 d2 bd 2c 7b d3 3c 18 20 f5 3d ac d1 83 bc
       -0.10294905 0.025815569 0.11969012 -0.01609119
000380 3b d2 39 3e 24 17 1b 3d 81 75 0a be db 54 c8 3c
       0.18146603 0.037863865 -0.13521387 0.024454525
000390 c5 b2 69 bd b2 5e 23 3d 9e 38 0c 3d 00 12 52 be
       -0.057055254 0.03988523 0.03423368 -0.20514679
0003a0 11 fb a3 3c b5 7b 9d 3e 89 2e e1 bc 63 b3 3d bd
       0.020017179 0.30758443 -0.02748801 -0.046313655
0003b0 98 22 82 3a 41 23 b6 bc fa fe ad bc 65 59 3a 3d
       0.0009928523 -0.022233607 -0.021239746 0.04549541
0003c0 63 5f 3e 3d d3 c2 b9 bc df 1c 72 3d b4 c8 80 3d
       0.046477687 -0.022675907 0.059109565 0.06288281
0003d0 56 ce 4e 3e ff 67 06 bd d7 ed 10 bd d9 89 05 3d
       0.20195898 -0.032814022 -0.03538307 0.032602165
0003e0 0b 7b 81 be ce 42 1e 3d f0 ad aa bc 07 85 b2 3c
       -0.25289187 0.03863793 -0.020834893 0.021791948
0003f0 30 07 4e 3c 76 87 a7 bc 04 bf 47 bd 1c 01 a2 3e
       0.012574956 -0.020450335 -0.04876615 0.3164147

model.4.bias f4 [256]
000000 24 f2 80 3d 15 08 1b 3e 51 68 2e bc da 50 7d bc
       0.06296185 0.15139802 -0.010644988 -0.015461171
000010 4f a9 df 3d b0 30 bc 3d cf 8f 6d 3d 81 37 45 bc
       0.10920965 0.09188974 0.057998475 -0.012037159
000020 be 63 0c bd e7 77 65 3d ea d8 04 bc 2a 12 14 bc
       -0.03427481 0.05602255 -0.008108357 -0.009037534
000030 2d 56 b6 3d aa 28 46 bc f0 eb b1 3b 99 05 8d bc
       0.089031555 -0.012094656 0.0054297373 -0.017214583
000040 ab c4 1b 3d b0 d8 9e bc c7 e4 3f bc 57 17 3e bd
       0.038029354 -0.019390434 -0.01171226 -0.046408977
000050 03 d3 51 39 59 f4 97 bd c1 6e 4f bb 2e 36 eb bc
       0.00020010401 -0.074196525 -0.0031651708 -0.028712358
000060 b6 8b 23 bc b8 2e 71 3d 4e d8 31 3d 37 ad ed 3d
       -0.00998204 0.058882445 0.043419175 0.11605304
000070 eb 8f 80 3d 47 70 83 ba 9c 1b e5 bb ba 2a 00 bc
       0.0627745 -0.0010027968 -0.0069918167 -0.007822687
000080 93 be 63 bc 23 00 ec bd 4d 90 56 bc 0c 82 8f bc
       -0.013900417 -0.115234636 -0.013095927 -0.017518066
000090 2b 8c 86 bd 15 a8 9d 3d 64 8c ae 3c 15 15 1b 3e
       -0.06569704 0.07698075 0.021307178 0.15144761
0000a0 0c 54 d4 3d 76 a3 a2 b9 b2 e1 c9 3b dd 06 a4 3d
       0.10367593 -0.00031020836 0.006160938 0.080091216
0000b0 07 27 84 bd 39 a2 89 3d 4f c7 75 bc 39 2f da bb
       -0.064527564 0.06720395 -0.015001132 -0.0066584614
0000c0 6c 90 0f bd 70 33 0c 3d 31 f1 d4 bd bd af 22 bd
       -0.03504984 0.034228742 -0.10397566 -0.03971838
0000d0 94 4f cb 3c 52 09 6e bc 1b 6e ad bb 54 5c f2 bc
       0.02481822 -0.014528589 -0.0052926666 -0.029585041
0000e0 48 53 a0 bb 25 01 f6 bc f4 4a de 3c 3c 6b 15 bd
       -0.0048927404 -0.030029843 0.02713535 -0.03647922
0000f0 0a c9 a8 bc b0 a3 3d bd 1f 54 cd 3b 97 7f 4f 3b
       -0.020603675 -0.046298683 0.0062661315 0.0031661743
000100 ea f9 68 bc cc a2 22 bc 19 c0 7b 3d 68 f6 1c bd
       -0.01421974 -0.009926509 0.061462495 -0.03832093
000110 2a 25 8f bd b7 54 49 bc 7a c2 6e bd 16 e7 17 bd
       -0.0698951 -0.012288264 -0.058290936 -0.037085615
000120 5a 9d b7 bd 60 40 08 bc ef 08 93 bc 79 21 09 3e
       -0.08965559 -0.008316129 -0.017948596 0.13391675
000130 bf 89 38 3d ad e7 79 bc 37 b7 3c 3d 63 c2 4d bc
       0.04505324 -0.01525299 0.046073165 -0.012558552
000140 74 73 c1 3d 85 25 8d bd c5 a5 dc 3c 90 df d4 bc
       0.09445849 -0.06891922 0.026934514 -0.02598551
000150 46 12 85 3d 37 6e 7d bd 82 5e 6f bd 0f 72 ce bd
       0.06497626 -0.061872687 -0.05843974 -0.10080349
000160 f1 35 49 bc fc 93 24 bc 08 ce 98 bc ae 93 12 3e
       -0.012280927 -0.010045048 -0.01865293 0.14314148
000170 e3 ff b2 bc 94 e8 65 3d 90 87 7c 3d c4 41 20 bc
       -0.021850532 0.056130007 0.06165272 -0.009781305
000180 bd 2e e7 3d 2b 13 e8 3d e8 f0 19 3c d2 c9 0c 3e
       0.112882115 0.11331781 0.009395815 0.13748863
000190 80 9a b2 ba 4d 73 9e bd da 5d 86 3c 20 2f 48 bc
       -0.0013626367 -0.07736836 0.016402174 -0.012218267
0001a0 14 72 ac bc 3b ee f9 3d 0b 1f 03 bd 57 4f ad bb
       -0.02105049 0.12203642 -0.032012027 -0.005288999
0001b0 1b 73 50 bc 05 8b 96 bc 0e 6a c8 3d d5 41 5b 3d
       -0.012722756 -0.018376837 0.09785853 0.05352958
0001c0 7d 87 d9 bb e5 52 ed 3d 3f 38 8c 3d 68 71 9c bc
       -0.006638466 0.115880765 0.068466656 -0.019097045
0001d0 c9 08 48 bc 57 e9 bd bc ea 91 ad 3c 83 92 10 bc
       -0.012209126 -0.023182554 0.021187741 -0.008823994
0001e0 8c ef 83 3d 8f 63 7e bd be 64 bf 3d 10 07 26 bd
       0.06442174 -0.062106665 0.09345387 -0.04053408
0001f0 d0 b5 dd 3c b4 03 06 3d 41 72 4d 3d 7b 8a de bc
       0.027064234 0.032718375 0.05015779 -0.027165642
000200 04 78 3c bd da c3 93 bc a4 ef 85 3d 0e bd d4 3c
       -0.046012893 -0.018037725 0.065398484 0.025969055
000210 e7 98 0d be 2f b2 6e 3d 98 ba 8e 3d b7 c1 75 bd
       -0.13827859 0.058275398 0.06969184 -0.059999194
000220 f4 73 f3 bc 4c d5 76 3d af da b0 3d ff e9 63 bc
       -0.029718377 0.06026201 0.086354606 -0.0139107695
000230 a1 71 0f 3e 43 1b 16 bc e2 28 19 bc 40 aa a8 3d
       0.1400819 -0.009161773 -0.009348126 0.082355976
000240 26 2f 4b bc ad 37 c6 bc 2f ec ab 3d 5e 61 f1 bb
       -0.012401378 -0.02419647 0.08394658 -0.0073663434
000250 1d 21 53 bc 14 3f 8f bc 38 79 64 bb 02 b0 94 bc
       -0.012886313 -0.017486133 -0.003486229 -0.018150333
000260 cb a1 29 bd 29 5e 01 3d f9 b6 66 3d 29 d6 88 bc
       -0.041414063 0.03158394 0.05632684 -0.016703682
000270 73 e4 90 bc fa b2 1d 3e 58 78 4a bc e5 d0 fc 3d
       -0.017687058 0.15400305 -0.012357794 0.12344531
000280 41 a6 25 3e d1 5d 49 bd 82 f3 c8 3d a5 e8 50 bc
       0.16176702 -0.049161736 0.098120704 -0.012750779
000290 53 6d 8f bd 11 06 0b bd 79 b2 bd 3d ad 07 82 bc
       -0.07003274 -0.033941332 0.092625566 -0.0158728
0002a0 90 98 ba 3d 6e 60 bd bb df 1a 13 3e 12 9e fc 3d
       0.0911113 -0.0057793176 0.1436572 0.12334837
0002b0 a9 ca 1a 3e 2d d4 94 3d 4e ae c0 bb 20 61 29 bc
       0.15116371 0.07267032 -0.0058801537 -0.010338098
0002c0 84 7c 15 bd d1 46 ac 3d 1e f9 15 3e 01 8a 2d bc
       -0.0364957 0.08411945 0.14645812 -0.010591985
0002d0 69 d1 f0 bb 27 7d aa bd 2d 61 73 3d aa d3 94 3c
       -0.0073491824 -0.08324652 0.059418846 0.018167336
0002e0 0c e4 d7 3c 99 00 bc bd 43 50 bf 3c 96 b6 99 3d
       0.026353858 -0.091798015 0.023353701 0.07505529
0002f0 73 69 01 bd a1 db f6 bb e6 49 43 bc 19 86 72 bc
       -0.031594705 -0.007533506 -0.011919474 -0.014802479
000300 53 f9 01 3d 5c 9f c0 bb 40 3c 65 3c 18 9d b5 3d
       0.031731915 -0.005878372 0.0139914155 0.08867854
000310 3c e2 5b be 9c 63 e8 bc f9 17 76 bc 74 64 82 bb
       -0.2147302 -0.02836781 -0.015020364 -0.00397926
000320 3f f7 09 3d 88 25 88 3c 19 97 7b bc 97 52 b0 3c
       0.033683058 0.016619459 -0.015355849 0.021523757
000330 2d d0 e9 bc 20 66 a5 bd 3c 01 0d bc 93 70 28 bc
       -0.028541649 -0.080761194 -0.008606251 -0.010280746
000340 e6 2a ba 3d 9b fe 1e bc 3e ca 98 bc a5 07 2c bc
       0.090902135 -0.009704257 -0.018651124 -0.0104998695
000350 ba f7 bd bd 3f c4 f7 3d d9 a7 03 3c b4 90 21 bc
       -0.09275766 0.12097978 0.0080356235 -0.00986116
000360 52 60 94 bc 9b e0 bd 3d de 54 d6 bd 50 53 dc 3d
       -0.018112335 0.09271356 -0.10465406 0.10758078
000370 86 7e ab 3d d3 c2 bc 3d 1a 98 bd 3c 57 4e fb bd
       0.08373742 0.09216847 0.023143817 -0.122708015
000380 6e a9 ec 3d c3 fb 82 3c 6e 1a a5 bc e4 61 f0 3d
       0.11555754 0.01598919 -0.020154204 0.11737421
000390 a2 43 a4 3c a0 53 4f bc 48 82 85 bc c3 a9 aa bd
       0.020051781 -0.012654215 -0.016297475 -0.08333161
0003a0 11 52 56 bd 01 3b 7f bd e3 2c b1 bc 8b d9 2c 3c
       -0.05232436 -0.06231213 -0.021627849 0.010549913
0003b0 ef 5c 50 bd 0b f6 cb 3d 3a 7c 49 bc 16 30 49 3d
       -0.05086988 0.09959038 -0.012297684 0.049118124
0003c0 97 a0 bf 3d 92 7f 1e bc f9 ed 09 bd a4 45 6e 3d
       0.09356802 -0.00967397 -0.033674214 0.058171883
0003d0 69 ff 12 3d 45 d9 23 3d 01 43 c5 3d 64 6c 92 bc
       0.03588811 0.040002126 0.096319206 -0.01787395
0003e0 7a 08 bd bc 4d 84 03 3e c1 63 e8 3d ec 53 30 bc
       -0.023075331 0.12843437 0.113471515 -0.010762196
0003f0 63 76 5f 3d d3 53 85 bd 8c aa 0c 3e 92 1e 8b 3d
       0.05455626 -0.06510129 0.13736933 0.0679294

model.6.weight f4 [1, 256]
000000 70 3b a2 3e 00 c7 4e 3e 06 0a fd 3b d0 9b 32 bf
       0.31685972 0.201931 0.007722142 -0.69769
000010 33 f2 0d 3e e2 ba 79 3e c9 9e 9d 3e d7 cb 90 be
       0.13861923 0.24387696 0.30785206 -0.28280517
000020 31 e3 07 c0 30 e9 34 3d 54 ce 85 3c 79 58 86 38
       -2.1232417 0.044167697 0.016333736 6.406097e-05
000030 f1 69 8c 3e f7 f7 26 bb a5 c6 ad be 93 aa 86 bb
       0.27424577 -0.0025477388 -0.33940616 -0.0041096895
000040 30 94 4c be b3 37 54 3c a9 93 c5 ba 54 9b 7b bf
       -0.19978404 0.012952733 -0.0015073913 -0.98283887
000050 9a e1 6b bf 57 8c 0f c0 7c fd 52 c0 f3 c9 31 bf
       -0.92141116 -2.2429407 -3.2967215 -0.69448775
000060 81 58 db bc 31 44 5d 3d f3 fa eb 3c 33 d7 4f 3e
       -0.0267756 0.05402011 0.028806185 0.20296936
000070 92 24 99 3e 60 5d 5d bf 5d e8 8b be fa cd 30 bf
       0.29910713 -0.86470604 -0.27325717 -0.69064295
000080 ed 74 48 bf fa 62 1a 3f f9 c4 05 ba 6c 37 b3 3b
       -0.78303415 0.60307276 -0.00051028986 0.0054692533
000090 40 cd 13 c0 03 68 d0 be 62 a6 c0 bf 59 42 1d 3f
       -2.3094025 -0.40704355 -1.5050776 0.61429363
0000a0 bb 67 02 3f 57 0d a0 bf 58 85 eb bd 31 8f 12 3f
       0.5093953 -1.2504071 -0.11500043 0.5724974
0000b0 be fb 7b bf 1f 02 9e 3e 73 67 26 3c 11 0a c9 3c
       -0.98431003 0.30860993 0.0101565 0.024540933
0000c0 e5 4d e4 bc 14 ff f1 bd ac 12 53 c0 2c 21 c1 be
       -0.027869174 -0.118162304 -3.2980146 -0.3772062
0000d0 f9 eb 02 3d d6 1b a5 3c 61 4b 9d 3c c4 04 d3 bc
       0.031963322 0.020154875 0.019200983 -0.025759108
0000e0 47 ff 59 bf 0a 5d 3d bd 65 12 05 be 65 f4 9e bf
       -0.8515515 -0.046231307 -0.12995298 -1.2418333
0000f0 64 a4 65 3c 26 8d ae be cb c4 b7 bf ef 6e e2 bf
       0.014016245 -0.34092063 -1.4356931 -1.7690104
000100 a8 86 80 3d 83 5e 88 3b 7f 9e 07 bf 8f f4 c1 be
       0.06275684 0.0041616573 -0.5297622 -0.37881896
000110 a7 4f ff bb 06 8f 66 bf 51 2e b8 bf 35 64 16 bf
       -0.0077914777 -0.90061986 -1.4389135 -0.58746654
000120 a3 77 a0 bf 95 f4 15 bc a5 14 2d 3b bb 8f 2d 3e
       -1.253651 -0.009152551 0.002641001 0.1694936
000130 a7 85 3a be e8 72 d8 3c 5f 1d ed 3c 28 eb bf bc
       -0.18215047 0.02642198 0.02894467 -0.02342756
000140 37 4d 9f 3e f2 65 f9 bf 43 87 a3 bf 42 b0 7d 3c
       0.31113598 -1.9484236 -1.2775654 0.015483918
000150 5b dd 6f be 7f c6 83 bf 2c 5f 4e be 94 89 2f bf
       -0.23424284 -1.0294951 -0.20153493 -0.685693
000160 a4 31 7d 3c bc 38 72 3c 27 9d 29 c0 2d e2 40 3e
       0.01545373 0.014784034 -2.6502168 0.18836279
000170 47 25 63 c0 6e 29 29 3d b3 c6 8e be e1 86 1f 3b
       -3.5491502 0.041299276 -0.2788597 0.0024341869
000180 8c a0 02 3f b9 1b 03 3e 93 a9 25 bf e4 a8 3c 3e
       0.51026225 0.12803544 -0.64711875 0.18423802
000190 1a e3 3d bf 35 cc 0f bf 90 ec 8a bc ef fb 0c 3c
       -0.74174654 -0.5617097 -0.016958505 0.0086049875
0001a0 af 6a 4d 3b 41 d1 54 3e af 8c f9 3b 4e ee 07 3c
       0.0031344106 0.20782949 0.0076156477 0.008296562
0001b0 74 a6 b1 3b ac b6 72 bf ae 74 d1 3d 10 4d da be
       0.005421454 -0.94809985 0.10227333 -0.4263692
0001c0 48 31 25 bd d0 76 05 3f 24 7b ea be ef b1 72 3d
       -0.0403302 0.5213442 -0.45797074 0.059251722
0001d0 82 5c 45 3b 77 7d 8a be ac cf 80 c0 f2 9d 88 bf
       0.0030114953 -0.27048847 -4.0253506 -1.0673201
0001e0 14 56 ef bd ce 86 42 bf 24 46 87 3e e2 74 4a bf
       -0.1168634 -0.75986946 0.264207 -0.790846
0001f0 3e b6 9f bd de 93 e1 3f 8a 04 a6 c0 9b 62 9a bf
       -0.07798432 1.762325 -5.188054 -1.2061342
000200 95 cd fe 3a 55 36 a9 3b 3d 87 a8 3e c7 51 f7 be
       0.001943993 0.0051639476 0.3291568 -0.4830458
000210 49 9e 37 c0 db 88 e8 bf cb 23 7e 3e 94 59 aa be
       -2.869036 -1.8166765 0.24818341 -0.33271468
000220 42 e9 f1 3c c7 f0 9f 3e 2c 3a b7 3d 0e 90 d4 3c
       0.029530171 0.31238386 0.08946642 0.025947597
000230 46 2c 35 3e b6 b8 95 bc dd 97 b6 3c 9f db 98 3e
       0.1769267 -0.018276554 0.02228921 0.29855058
000240 e4 06 e2 3c 5d f1 83 3c 36 e3 f1 3d 30 3e fb bb
       0.027591176 0.016106302 0.11810915 -0.0076673254
000250 e5 bc 59 3c 0d 25 d8 3a 5d 97 0e bc 4e 6e 9a 3c
       0.013289665 0.0016490534 -0.00870308 0.018851425
000260 f9 5d bc be a8 6c e1 be ff 94 9d be 9d 1b 5d ba
       -0.36790445 -0.4402821 -0.30777737 -0.00084345957
000270 ad 25 f9 3b 3a e4 57 3e f3 19 11 39 3b 8f 5c 3f
       0.0076033683 0.21083155 0.00013837944 0.8615605
000280 1a 4f 23 3f c3 44 c0 3d f4 8f bc 3e 5a f6 20 3d
       0.63792574 0.09388115 0.36828578 0.03929744
000290 1f 72 1d bf 4f 05 8a be 82 d6 b8 3e b5 57 34 3c
       -0.6150226 -0.26957175 0.36101156 0.011007239
0002a0 1b b7 78 3e 5a d4 00 c0 63 38 49 3e 9d 21 5d 3f
       0.24288599 -2.012961 0.19650416 0.86379415
0002b0 54 53 4d 3e cf bd 93 3d ff af df 3c 7c fc 8b 3d
       0.20051318 0.072139375 0.027305601 0.06835267
0002c0 7f 23 29 c1 4b 36 b4 3d b5 86 45 3e 86 91 cc 3a
       -10.571166 0.08799418 0.19289668 0.0015607334
0002d0 70 ec af bf bd 8e 9d be c2 64 19 be f7 ec 45 bf
       -1.374403 -0.30772963 -0.14979842 -0.77314705
0002e0 54 74 6b bf 9b 7a a8 bf 00 13 ab be d8 46 a0 3d
       -0.9197438 -1.3162416 -0.33412933 0.078260124
0002f0 ab 9c bb 3c 04 09 ce 3b 35 5a 3c 3c d3 c6 e2 bc
       0.022901854 0.006287696 0.011496116 -0.027682697
000300 64 51 27 c0 bc 9d 92 bf 2a 34 0b bf 39 61 c4 3d
       -2.6143427 -1.1454387 -0.5437647 0.09588856
000310 78 b1 55 c0 99 5a 38 3c 20 fb 67 bf 56 f0 9d 3c
       -3.3389568 0.011252069 -0.9061756 0.01927964
000320 72 4e d4 bf 4c dc ba bf aa f4 a7 3c 73 b5 fa bf
       -1.658644 -1.4598479 0.020502407 -1.9586624
000330 7a 71 8c bc 7a 90 22 bf 36 2a a8 3c 5a 46 6d ba
       -0.017143954 -0.63501704 0.02052794 -0.0009051316
000340 91 d8 7c 3e 8c 3f 1b 3c 57 ce 11 ba d1 19 32 3b
       0.24691989 0.0094756 -0.0005562058 0.0027176032
000350 b6 9c 52 40 bb 10 11 3e 6c 92 eb bc 76 53 16 3c
       3.2908149 0.14166538 -0.028756343 0.009175172
000360 54 8d 28 3c 8f 95 d0 3e 4a 35 ac c0 f1 91 f7 3d
       0.0102876015 0.40739104 -5.381505 0.12088383
000370 07 11 f5 3e 8c f8 a7 3e cd 04 8e bf 04 6e 55 c0
       0.47864553 0.32806814 -1.1095215 -3.3348398
000380 6b aa 08 3e 52 8b b1 be 35 5b c7 bb 32 bc 0b 3e
       0.1334626 -0.34676605 -0.006083871 0.1364601
000390 98 14 ef bd 59 04 2e 3c 6b 8b 83 bf 0c a9 b9 bf
       -0.1167385 0.010621154 -1.0276922 -1.4504714
0003a0 fd 14 a9 be 6f 05 34 bf 0f ea 41 3c c8 31 ca bf
       -0.33023825 -0.7032079 0.011835589 -1.5796442
0003b0 bb 59 87 3c ba a1 20 3e 10 50 1c bd 62 54 2c 3d
       0.016522279 0.15686694 -0.03816229 0.04207266
0003c0 0a 56 c0 3e fb 36 61 3b 89 95 2f 3d 73 80 80 bf
       0.37565643 0.0034365046 0.042867217 -1.00392
0003d0 24 5b 7b 3c 97 6f a4 3c c6 ca 89 3e 2a 10 0d c1
       0.015341554 0.020072741 0.26912516 -8.816446
0003e0 a0 9a 32 3b 58 a5 1d 3e ba 70 07 3e 40 dc e6 3c
       0.0027252808 0.15395105 0.13226596 0.028181195
0003f0 43 96 67 be 03 aa 49 3f f1 b9 33 3e 96 37 a2 bf
       -0.22615914 0.7877504 0.175514 -1.2673213
