Models/Bloom_filter/result/model-dict-20.pt (torch, 533323 bytes, 7 tensors)

model.0.weight f4 [256, 2]
-0.036462445 -0.0018954019 -0.014633338 0.003516964 0.015774323 0.0042125387 -0.045807526 -0.039249443
-0.024072468 -0.053952217 -0.09798514 0.04711421 -0.46154684 -0.024665708 0.003870518 -0.036730703
-0.3011664 0.3989633 -0.022547267 0.010399638 -0.026662258 0.44240576 -0.017300565 -0.009056374
-1.2266833 0.107042894 -0.011753796 0.0095487125 -0.010716996 0.025933683 -0.024854567 0.013733423
-0.097174 0.097630896 -0.024211245 -0.007564494 -0.02249494 0.0097251 -0.021983774 0.009771173
-0.05611753 0.034495637 -0.018684546 0.0006145471 -0.023823876 -0.03663852 -0.23988746 -0.6346538
-0.014536006 0.017370768 0.021627875 0.021289974 -0.03495244 -0.011820062 -0.6117569 0.10654199
-0.01807778 -0.011259467 -0.020193728 0.004370781 -0.049389496 -0.010560901 0.024129765 -0.74836516
0.29309615 -1.2866436 0.25827092 -0.27366424 0.001922662 -0.10582687 0.010642744 -0.018708514
0.012591754 -0.028450543 -0.021428527 -0.0610821 0.25247204 0.12140551 -0.0188532 -0.04475076
0.29079884 -0.13547143 0.2527881 -0.12388366 -0.012304543 -0.0030295837 0.25437072 -0.1496632
-0.0072017238 -0.036719013 -0.024695558 -0.0019144184 -0.0002680562 -0.010628255 0.018101756 -0.017872576
0.0298518 0.01018408 0.010360881 -0.033473935 -0.006786061 -0.0024974968 -0.059963107 0.050279543
-0.20287548 0.37578464 -0.07184254 -0.00051437423 -0.18437119 -0.6739389 -0.0033404892 -0.0026846086
0.225132 0.055051386 0.0065936944 -0.009061795 -0.024765281 -0.016950129 0.28488126 -0.10825252
-0.0015144595 0.0021942933 -0.006287909 -0.009524482 0.011596241 0.019180818 -0.03407669 -0.05395703
-0.018938607 0.0057692043 -0.023099605 -0.006513087 -0.012423076 -0.042253934 -0.39749038 -0.03398452
0.31167734 -0.13885531 0.25811583 0.16054028 -0.020082327 -0.03832076 -0.008255294 -0.00595493
-0.01734038 -0.0030591562 0.0014086863 -0.058188774 -0.009453474 -0.0076596634 -0.13311242 0.40168992
0.27310237 -0.2525719 0.28423876 -0.4360654 0.010775047 -0.0023617744 -0.003405335 -0.007719554
0.00438186 -0.017850107 -0.0130561115 -0.013732816 0.245023 -0.29532218 -0.364326 -0.039212734
-0.7320194 -0.37214592 -0.009442868 -0.030429417 -0.02237317 -0.5041314 -0.017376203 -0.026366927
-0.0063706706 -0.053460564 -0.025603566 -0.0105061745 0.0059090895 -0.015511172 0.25238803 -0.13564217
-0.017741535 0.018683624 0.26299784 -0.20319578 0.11912332 0.14663659 -0.02374389 0.013139991
-0.020854393 -0.014154941 -0.018388797 -0.033261336 0.084699176 -0.4880237 -0.0027347885 0.015134807
0.25876206 -0.2728025 -0.05466949 0.027135177 0.21751797 -0.43217248 -0.0072657876 0.026722208
-0.015600866 0.00090316887 -0.080675766 0.31255916 -0.020982793 0.002106391 -0.015859164 0.009659786
-0.3940947 0.32551277 -0.1888085 0.28093737 -0.0039607733 -0.012618626 0.01908892 -0.48900703
-0.029162608 0.028710412 -0.02214473 0.015780814 0.21218064 0.09950493 -0.0002880343 -0.036740914
0.21146286 -0.7332834 0.000639366 0.005929203 -0.004858355 -0.030837938 -0.015093587 0.022359738
-0.019322842 -0.001480411 -0.022427551 -0.07823931 0.018700602 -0.053080685 -0.012426021 0.021103498
0.2559346 -0.33353445 0.007241539 -0.056888375 0.12484588 -0.3957022 -0.5383249 0.22064528
00000000: a559 15bd 226f f8ba abc0 6fbc dd7c 663b
00000010: 2739 813c 5609 8a3b aca0 3bbd 06c4 20bd
00000020: a033 c5bc 00fd 5cbd 6fac c8bd d4fa 403d
00000030: de4f ecbe bd0f cabc 84a8 7d3b ef72 16bd
00000040: 7b32 9abe eb44 cc3e 0cb5 b8bc 3e63 2a3c
00000050: cf6a dabc 0283 e23e eab9 8dbc 3061 14bc
00000060: f503 9dbf 4e39 db3d fe92 40bc 3472 1c3c
00000070: 5796 2fbc e072 d43c ce9b cbbc 2702 613c
00000080: 2a03 c7bd b5f2 c73d a956 c6bc 93df f7bb
00000090: 4f47 b8bc 0756 1f3c 5117 b4bc 4517 203c
000000a0: 7fdb 65bd 4c4b 0d3d 5510 99bc 8f19 213a
000000b0: 4a2a c3bc 4612 16bd 0fa5 75be ac78 22bf
000000c0: 6e28 6ebc 244d 8e3c f12c b13c 5068 ae3c
000000d0: 4a2a 0fbd efa8 41bc 1a9c 1cbf b032 da3d
000000e0: da17 94bc a179 38bc 516d a5bc c538 8f3b
000000f0: a44c 4abd a107 2dbc c9ab c53c dc94 3fbf
00000100: b310 963e bdb0 a4bf 163c 843e b81d 8cbe
00000110: d501 fc3a c2bb d8bd e75e 2e3c 9942 99bc
00000120: a54d 4e3c 1d11 e9bc e18a afbc 3931 7abd
00000130: 0444 813e 74a3 f83d 0772 9abc 934c 37bd
00000140: 96e3 943e 06b9 0abe 716d 813e b7b6 fdbd
00000150: fe98 49bc fb8b 46bb e13c 823e 4f41 19be
00000160: 70fc ebbb ad66 16bd 574e cabc 39ed faba
00000170: e589 8cb9 2222 2ebc 224a 943c 8269 92bc
00000180: c38b f43c 21db 263c afc0 293c f71b 09bd
00000190: 9b5d debb 0bad 23bb e09b 75bd ecf1 4d3d
000001a0: 97be 4fbe d866 c03e 2e22 93bd 12d7 06ba
000001b0: cdcb 3cbe 4287 2cbf 1cec 5abb 42f0 2fbb
000001c0: 0189 663e 907d 613d eb0f d83b ec77 14bc
000001d0: 8fe0 cabc ffda 8abc f5db 913e 7fb3 ddbd
000001e0: d480 c6ba 22ce 0f3b ce0a cebb 930c 1cbc
000001f0: 29fe 3d3c 1721 9d3c 0094 0bbd 0c02 5dbd
00000200: 2325 9bbc 980b bd3b 623b bdbc bc6b d5bb
00000210: 288a 4bbc 7612 2dbd dc83 cbbe 5a33 0bbd
00000220: 2c94 9f3e 1630 0ebe c227 843e ac64 243e
00000230: b183 a4bc 3bf6 1cbd 3641 07bc 9321 c3bb
00000240: 6a0d 8ebc 207c 48bb aba3 b83a 5a57 6ebd
00000250: bee2 1abc eafd fabb 9f4e 08be 4daa cd3e
00000260: 13d4 8b3e 1b51 81be be87 913e f743 dfbe
00000270: d389 303c 00c8 1abb 0a2c 5fbb 50f4 fcbb
00000280: b595 8f3b 633a 92bc 4de9 55bc 9bff 60bc
00000290: 4fe7 7a3e 7834 97be f088 babe 889d 20bd
000002a0: a065 3bbf e989 bebe 42b6 1abc 1d47 f9bc
000002b0: f047 b7bc c10e 01bf 8a58 8ebc 74ff d7bc
000002c0: 0fc1 d0bb 77f9 5abd 92be d1bc 1722 2cbc
000002d0: 09a1 c13b 9222 7ebc 0139 813e c8e5 0abe
000002e0: b256 91bc 660e 993c a7a7 863e 8e12 50be
000002f0: edf6 f33d e727 163e 8c82 c2bc 1e49 573c
00000300: d5d6 aabc 20ea 67bc 1aa4 96bc 0a3d 08bd
00000310: c376 ad3d 3ede f9be 233a 33bb fbf7 773c
00000320: 767c 843e c5ac 8bbe 1ded 5fbd 974a de3c
00000330: 08bd 5e3e b645 ddbe d815 eebb 88e8 da3c
00000340: c69a 7fbc a3c2 6c3a 5639 a5bd c107 a03e
00000350: 1be4 abbc 600b 0a3b 14eb 81bc 1444 1e3c
00000360: c8c6 c9be 9ca9 a63e 0457 41be 06d7 8f3e
00000370: 60c9 81bb 5abe 4ebc 5e60 9c3c 215f fabe
00000380: 6ce6 eebc 1932 eb3c dd68 b5bc c446 813c
00000390: e245 593e 3ec9 cb3d 4f03 97b9 a47d 16bd
000003a0: b889 583e 76b8 3bbf 209b 273a c249 c23b
000003b0: d632 9fbb d89f fcbc 184b 77bc c52b b73c
000003c0: f04a 9ebc 5a0a c2ba fcb9 b7bc ee3b a0bd
000003d0: 0132 993c 226b 59bd 8296 4bbc 3ee1 ac3c
000003e0: dc09 833e 07c5 aabe 6f4a ed3b c903 69bd
000003f0: 32af ff3d 7b99 cabe a9cf 09bf d6f0 613e

model.0.bias f4 [256]
0.0 -0.017818114 -0.04390497 0.0 0.0 -0.023838922 0.1376531 -0.0040737423
-0.03451601 -0.026573068 -0.10626285 0.0 0.11629186 -0.011554943 -0.021099543 -0.02889375
-0.048669927 0.0 -0.025972594 -0.00293885 -0.0099113425 -0.0046223844 0.0 0.1681578
-0.013014959 -0.0814019 0.0 0.0949082 0.0 -0.021948034 0.0 0.13001172
-0.016916184 -0.046235427 -0.0015207155 -0.008556976 -0.010805763 0.0 -0.20358196 0.0
-0.16623579 -0.14092362 0.0 -0.034621358 -0.020335227 0.0 0.0 -0.024448644
-0.040426932 -0.013117304 0.0 -0.028652577 -0.052679002 0.0 0.17253049 0.00025346177
-0.10698856 -0.00532951 0.0 -0.17209257 -0.003994875 0.0 -0.0309222 -0.02386439
-0.004963788 0.0 -0.000578329 0.13891053 -0.07095978 -0.1825145 0.0 0.0
-0.01633702 -0.0011357238 0.0 -0.12663324 -0.068433635 0.021348547 -0.009820485 0.0
-0.0035172317 0.0 -0.032607704 0.11891994 0.20084576 0.0 0.12269336 0.0
0.0 0.0 -0.007078961 -0.1375709 -0.023906486 -0.09289103 -0.09146396 -0.004323761
0.0 0.0 0.09547886 -0.014348048 -0.046395857 -0.015314455 0.0145854205 -0.023588233
-0.0040280353 -0.085452296 -0.002053534 -0.0028384938 0.038134214 -0.010829764 0.00068006484 0.20275891
-0.03554861 -0.026464464 -0.23447503 0.0 0.030285034 -0.0065669036 0.00047606244 -0.024907187
-0.015399573 -0.011879778 -0.014928743 -0.015967159 0.008791173 -0.0058057685 0.1360027 0.037411787
0.0 -0.24697015 0.0 0.0 0.032502428 -0.09030615 -0.036839787 0.0
-0.009099455 -0.029100375 0.17841536 0.1573101 -0.007922561 0.0038228598 0.0 -0.0048799687
-0.0017841524 -0.024305549 -0.038299583 -0.0639279 0.0 -0.0028791483 -0.22081032 0.0
-0.0027755762 0.0 0.0 -0.26696804 -0.022972552 -0.0062608714 0.13381076 0.13466689
-0.002606566 -0.066091426 -0.08067445 -0.0039882846 -0.21702027 -0.21593216 0.0 0.13443038
-0.011991276 -0.047208205 -0.028250108 0.0 -0.008264506 0.0 0.0 -0.14021383
-0.013964609 -0.2453972 0.0 -0.06043292 -0.028416216 0.003658133 0.0 0.0
0.20276909 -0.022089608 -0.023136701 -0.052730206 0.12871501 -0.008561405 -0.076000854 -0.028751876
-0.04530147 0.0 -0.023306444 -0.16040307 0.0 0.0 -0.0050881393 0.051156003
-0.02174729 0.05273416 0.0 0.13712224 0.0 -0.0055141035 -0.0019781874 0.0
0.0 0.0 -0.022012113 -0.024537826 -0.006309041 0.0 0.0 0.0
-0.25802684 -0.08954165 -0.024656184 -0.0065928353 -0.003799575 0.0 0.0 -0.0018718874
0.0 0.13641626 -0.060721837 -0.187302 -0.0038813462 0.0 0.149189 0.17789741
0.09016809 0.26998705 -0.03161569 0.02525707 0.0 -0.025846357 0.03798658 -0.17013344
-0.009640781 -0.08507642 -0.010621949 0.0 0.015601639 0.0 0.004002563 -0.035585895
0.0077670175 0.00030142415 -0.06113267 -0.17459132 0.12252435 -0.017359685 -0.017708104 -0.034349587
00000000: 0000 0000 4bf7 91bc b3d5 33bd 0000 0000
00000010: 0000 0000 d849 c3bc eff4 0c3e 077d 85bb
00000020: a960 0dbd c3af d9bc 56a0 d9bd 0000 0000
00000030: 6d2a ee3d f250 3dbc f3d8 acbc 96b2 ecbc
00000040: 1e5a 47bd 0000 0000 7ac4 d4bc b999 40bb
00000050: 2f63 22bc 5f77 97bb 0000 0000 8f31 2c3e
00000060: b23c 55bc 0ab6 a6bd 0000 0000 3b5f c23d
00000070: 0000 0000 5dcc b3bc 0000 0000 cb21 053e
00000080: cf93 8abc 5c61 3dbd bf52 c7ba 8f32 0cbc
00000090: a80a 31bc 0000 0000 ca77 50be 0000 0000
000000a0: b739 2abe 484e 10be 0000 0000 20cf 0dbd
000000b0: 1096 a6bc 0000 0000 0000 0000 8648 c8bc
000000c0: b696 25bd f6e9 56bc 0000 0000 cfb8 eabc
000000d0: f0c5 57bd 0000 0000 d5ab 303e 10e3 8439
000000e0: d11c dbbd 2ca3 aebb 0000 0000 0939 30be
000000f0: 71e7 82bb 0000 0000 8e50 fdbc 417f c3bc
00000100: 46a7 a2bb 0000 0000 019b 17ba 903e 0e3e
00000110: 5c53 91bd 15e5 3abe 0000 0000 0000 0000
00000120: 37d5 85bc 91dc 94ba 0000 0000 25ac 01be
00000130: ef26 8cbd 26e3 ae3c 19e6 20bc 0000 0000
00000140: 5b81 66bb 0000 0000 a88f 05bd 4c8c f33d
00000150: 83aa 4d3e 0000 0000 a846 fb3d 0000 0000
00000160: 0000 0000 0000 0000 a1f6 e7bb 63df 0cbe
00000170: 89d7 c3bc a73d bebd 7551 bbbd 56ae 8dbb
00000180: 0000 0000 0000 0000 6c8a c33d 1314 6bbc
00000190: 9509 3ebd 7be9 7abc b0f7 6e3c 1c3c c1bc
000001a0: 9cfd 83bb 9d01 afbd 9594 06bb 0606 3abb
000001b0: 9f32 1c3d 536f 31bc 6146 323a 08a0 4f3e
000001c0: 6b9b 11bd 01cc d8bc 391a 70be 0000 0000
000001d0: 5218 f83c 2e2f d7bb 0598 f939 280a ccbc
000001e0: 7e4e 7cbc 66a3 42bc b097 74bc 8fcd 82bc
000001f0: da08 103c 513e bebb 4b44 0b3e 1a3d 193d
00000200: 0000 0000 bee5 7cbe 0000 0000 0000 0000
00000210: 4421 053d 6ef2 b8bd 51e5 16bd 0000 0000
00000220: e115 15bc e963 eebc 84b2 363e e615 213e
00000230: a1cd 01bc f288 7a3b 0000 0000 25e8 9fbb
00000240: 38da e9ba 6e1c c7bc 06e0 1cbd a1ec 82bd
00000250: 0000 0000 18b0 3cbb 1a1c 62be 0000 0000
00000260: 71e6 35bb 0000 0000 0000 0000 09b0 88be
00000270: ef30 bcbc ff27 cdbb b005 093e 1ee6 093e
00000280: ecd2 2abb f15a 87bd a538 a5bd 28b0 82bb
00000290: 903a 5ebe 521d 5dbe 0000 0000 1ea8 093e
000002a0: 0f77 44bc 645d 41bd c56c e7bc 0000 0000
000002b0: da67 07bc 0000 0000 0000 0000 3794 0fbe
000002c0: d1cb 64bc 6749 7bbe 0000 0000 8288 77bd
000002d0: 20c9 e8bc 4abd 6f3b 0000 0000 0000 0000
000002e0: b3a2 4f3e 44f5 b4bc 2e89 bdbc a1fb 57bd
000002f0: decd 033e 2345 0cbc 56a6 9bbd 0e89 ebbc
00000300: 098e 39bd 0000 0000 28ed bebc b440 24be
00000310: 0000 0000 0000 0000 68ba a6bb f588 513d
00000320: 5f27 b2bc c6ff 573d 0000 0000 c669 0c3e
00000330: 0000 0000 a7af b4bb 7aa4 01bb 0000 0000
00000340: 0000 0000 0000 0000 bf52 b4bc 8d03 c9bc
00000350: 12bc cebb 0000 0000 0000 0000 0000 0000
00000360: 181c 84be 9d61 b7bd c4fb c9bc b608 d8bb
00000370: 4a02 79bb 0000 0000 0000 0000 1e5a f5ba
00000380: 0000 0000 b4b0 0b3e 76b7 78bd 18cc 3fbe
00000390: 2f5e 7ebb 0000 0000 00c5 183e bd2a 363e
000003a0: 0caa b83d be3b 8a3e 747f 01bd eae7 ce3c
000003b0: 0000 0000 bdbb d3bc d197 1b3d 7637 2ebe
000003c0: 5ef4 1dbc 8c3c aebd af07 2ebc 0000 0000
000003d0: 049e 7f3c 0000 0000 ef27 833b 84c2 11bd
000003e0: 7782 fe3b 7708 9e39 4066 7abd 11c8 32be
000003f0: 0cee fa3d e635 8ebc 9610 91bc 27b2 0cbd

model.2.weight f4 [256, 256]
0.021258278 -0.011756785 -0.006387484 -0.02525916 -0.027954455 -0.030360375 -0.63776314 -0.006844003
0.3662134 -0.01357449 -0.07348371 -0.008604121 0.00056630507 0.00083973474 0.021264616 -0.010030225
-0.0066298833 -0.043597322 -0.013111453 0.015434993 0.0110311825 0.015532125 0.00029612918 0.04137081
0.028031895 -0.3325972 0.013142384 -0.5657024 0.007482054 0.003877792 -0.002076991 0.17039311
-1.718203 -0.44207093 0.013376597 0.0035392863 0.0058259442 0.016659912 0.37522024 -0.017643927
0.040607214 0.05267674 0.007092125 0.13605484 -0.011663511 0.0010423544 0.0255186 0.001082289
0.012912012 0.018035201 0.001115453 0.005245148 0.20111966 0.00056944176 0.2859615 0.034088437
-0.43200636 0.0011331025 -0.007062527 -0.036648944 0.009857147 0.022736222 -0.004544266 -0.015604921
0.043164056 0.0042419224 -0.037189182 -0.5490654 -0.40169045 -1.2339635 -0.0014074869 -0.015825838
-0.009552035 0.051885176 0.009055151 0.23268421 -1.2392199 0.24785934 -0.027457556 0.022714509
0.01487198 0.024068953 -0.21449524 -0.5005309 -2.4001508 0.025590567 0.38233006 -0.014603788
0.014232848 0.0053998926 0.04466369 0.016457846 0.051967833 -2.8524585 -0.39553308 -0.023661118
-0.007077358 0.028488625 0.28123006 0.02057205 -0.4154547 -0.055375393 -0.1752844 -0.005282302
0.010394866 -0.0019399069 -0.00423115 0.00087006955 0.30555767 0.09584662 -0.005557349 0.20855579
-0.007067828 0.04296699 -0.18423454 0.008095698 -0.38243636 0.023310732 0.012925947 0.058929846
-0.013863199 0.071056925 0.04960211 -0.008420752 0.1290667 0.031450056 0.21161911 0.27279276
-0.016277563 0.68658274 0.0075967554 -0.019282883 -0.38274848 -2.7513163 0.08433718 0.005370857
-0.0023262743 0.0737497 0.22798988 -0.015705911 0.07445533 0.025240684 -0.003433391 -0.002037409
-0.020368617 -0.012129716 -0.019059217 0.23470144 -0.003756594 0.009811986 0.18190297 0.012472981
-0.0096633835 0.013339691 -0.03464928 0.77669644 0.046683606 -0.017061103 -0.24905801 -0.57923096
-0.0006407988 -0.3774601 0.59963566 -0.02388014 -7.9471498 -0.17220095 -0.008836696 -0.5184588
0.047232706 -0.50774175 -0.013047671 -0.016553711 -0.005556882 0.006956877 -0.015712503 0.005142597
0.0056248 0.68324614 0.009842428 -0.06866952 0.004988933 0.04230052 0.014373967 0.01634696
0.29766798 0.085578844 0.048189886 -0.026140938 0.42681348 -0.011804747 -4.7039156 0.020218458
0.25252333 -0.053652328 -0.026848411 -0.11263789 -0.01773686 0.02318885 -0.018444259 -0.19607584
-0.017281389 -0.1460097 0.008071628 0.14065692 -0.016600078 0.021399977 0.015733404 -0.026016135
-0.009964708 -0.009614947 0.08036216 -0.07873311 0.005310661 0.016742041 -0.010140758 -0.014422326
1.0146241 -0.05934426 -0.0067742974 -0.019648165 0.030554606 -0.0036244176 -0.033267543 -0.025099827
-0.029036123 -0.56769973 -0.1748685 -0.20488873 -0.0072577675 0.005953177 0.049227674 0.3201251
0.07766421 0.1607176 0.28766596 0.11555252 -0.0010617892 0.1131089 -0.018886138 -1.1321225
-0.004672914 0.023920702 -0.005181759 0.0023242966 -0.25614566 -0.0046908534 -0.0018452603 0.0063667265
0.12749046 0.058043934 -0.75957155 -0.035556618 -0.4738246 0.01264652 0.08085144 -0.0033812278
00000000: d725 ae3c 889f 40bc 194e d1bb 4cec cebc
00000010: be00 e5bc 52b6 f8bc 7244 23bf a943 e0bb
00000020: 5380 bb3e 8a67 5ebc a17e 96bd 4df8 0cbc
00000030: 1774 143a a521 5c3a 2233 ae3c d055 24bc
00000040: 7e3f d9bb 1b93 32bd 6bd1 56bc 0ee3 7c3c
00000050: 22bc 343c 747a 7e3c c941 9b39 7074 293d
00000060: 25a3 e53c 2e4a aabe 2753 573c dfd1 10bf
00000070: 052c f53b 8e22 7e3b 201e 08bb 887b 2e3e
00000080: 13ee dbbf 1f57 e2be 8429 5b3c 5ff3 673b
00000090: 90e7 be3b 5e7a 883c de1c c03e ff89 90bc
000000a0: c053 263d 91c3 573d 0e65 e83b f651 0b3e
000000b0: 5018 3fbc 9c9f 883a 620c d13c 98db 8d3a
000000c0: e78c 533c 8fbe 933c 6434 923a 7edf ab3b
000000d0: 50f2 4d3e 9746 153a 8c69 923e 51a0 0b3d
000000e0: f02f ddbe 9c84 943a c56c e7bb 341d 16bd
000000f0: df7f 213c 5041 ba3c 11e8 94bb c8ab 7fbc
00000100: cbcc 303d d3ff 8a3b af53 18bd 8d8f 0cbf
00000110: 5faa cdbe 84f2 9dbf 6c7b b8ba 30a5 81bc
00000120: 2380 1cbc 8d85 543d 0e5c 143c c544 6e3e
00000130: c29e 9ebf d7ce 7d3e abee e0bc c713 ba3c
00000140: 9ba9 733c 412c c53c a4a4 5bbe cb22 00bf
00000150: 129c 19c0 4fa3 d13c c4c0 c33e ba44 6fbc
00000160: e430 693c 95f1 b03b 46f1 363d 9bd2 863c
00000170: 39dc 543d ae8e 36c0 5083 cabe f6d4 c1bc
00000180: 2fe9 e7bb fa60 e93c 63fd 8f3e b786 a83c
00000190: 7ab6 d4be 4fd1 62bd c17d 33be 2917 adbb
000001a0: 3a4f 2a3c 7944 feba 75a5 8abb 6115 643a
000001b0: 0e72 9c3e 3c4b c43d 6c1a b6bb a68f 553e
000001c0: 3d99 e7bb 28fe 2f3d fba7 3cbe d2a3 043c
000001d0: b3ce c3be 26f6 be3c 5ac7 533c 6c60 713d
000001e0: 7922 63bc 4b86 913d 952b 4b3d 32f7 09bc
000001f0: 102a 043e c6d1 003d aeb2 583e 7eab 8b3e
00000200: 8658 85bc e3c3 2f3f 34ee f83b 23f7 9dbc
00000210: 9cf7 c3be 9115 30c0 f9b8 ac3d 04fe af3b
00000220: 6874 18bb 150a 973d 2e76 693e afa9 80bc
00000230: 097c 983d 8dc5 ce3c be02 61bb 0d86 05bb
00000240: 16dc a6bc b7bb 46bc 1322 9cbc 9355 703e
00000250: 3031 76bb 74c2 203c c644 3a3e 795b 4c3c
00000260: 2b53 1ebc b88e 5a3c 67ec 0dbd 94d5 463f
00000270: 4f37 3f3d bac3 8bbc 1009 7fbe 7b48 14bf
00000280: 48fb 27ba 7342 c1be b981 193f 49a0 c3bc
00000290: 0d4f fec0 7255 30be cac7 10bc b7b9 04bf
000002a0: 1577 413d 5dfb 01bf e6c5 55bc a69b 87bc
000002b0: 8116 b6bb 84f6 e33b 82b7 80bc 3b83 a83b
000002c0: 3e50 b83b 38e9 2e3f 2342 213c 9ba2 8cbd
000002d0: 347a a33b 4f43 2d3d ca80 6b3c 0fea 853c
000002e0: f067 983e f643 af3d c262 453d 8525 d6bc
000002f0: 4c87 da3e b368 41bc 7a86 96c0 2ea1 a53c
00000300: bd4a 813e 8bc2 5bbd 33f1 dbbc b2ae e6bd
00000310: e44c 91bc 8bf6 bd3c 6a18 97bc 1bc8 48be
00000320: b391 8dbc 9183 15be dd3e 043c 5e08 103e
00000330: e3fc 87bc 014f af3c 57e3 803c ca1f d5bc
00000340: 0443 23bc 0388 1dbc eb94 a43d d33e a1bd
00000350: 0e05 ae3b 9b26 893c 6c25 26bc 9f4b 6cbc
00000360: 34df 813f f712 73bd edfa ddbb 30f5 a0bc
00000370: a74d fa3c a387 6dbb 8c43 08bd 279e cdbc
00000380: 2add edbc c554 11bf ba10 33be 5ace 51be
00000390: 91d2 edbb de12 c33b f5a2 493d 70e7 a33e
000003a0: 6a0e 9f3d 2893 243e f448 933e cda6 ec3d
000003b0: bc2b 8bba a4a5 e73d 1ab7 9abc 64e9 90bf
000003c0: 3e1f 99bb 59f5 c33c bfcb a9bb 3a53 183b
000003d0: 8625 83be bbb5 99bb a9dc f1ba f99f d03b
000003e0: dc8c 023e 7abf 6d3d 4873 42bf d1a3 11bd
000003f0: 2399 f2be 5933 4f3c 7195 a53d 9797 5dbb

model.2.bias f4 [256]
-0.057503708 -0.011809067 0.12370066 0.019927984 -0.023453455 0.025253767 0.005807693 0.07121872
-0.044491973 -0.027582072 -0.012772665 -0.04042532 -0.010665207 0.026477022 -0.008385317 -0.02627979
-0.0037616428 -0.01276389 -0.06335554 -0.30783758 -0.015277026 -0.035045408 -0.014018167 -0.010881324
-0.07915771 -0.02942887 -0.021543078 -0.026490264 -0.09565051 -0.219168 -0.087876774 0.035161894
-0.011454059 -0.013075254 0.007865911 -0.22317874 -0.013472347 -0.026534058 -0.024592852 0.16983937
0.08686992 -0.0017853864 -0.26189303 0.09377208 -0.010559236 -0.00418216 -0.014882596 -0.00704065
0.060191866 0.009347341 -0.105906695 0.09521552 -0.109630615 -0.004693718 -0.177052 -0.02076806
-0.21987496 -0.015628722 0.13304028 -0.042648435 -0.011642582 -0.18033157 -0.038486205 -0.026404263
-0.01902592 0.10005286 0.14649144 -0.14710681 0.028810816 -0.11155302 -0.26646686 -0.0033109388
0.09339395 -0.15053785 0.06658738 -0.011618573 -0.14830536 0.020771377 -0.014258024 0.08572259
-0.18667397 -0.029159361 -0.11106463 -0.011423101 -0.0077992138 -0.18681361 -0.0122250775 -0.02856964
-0.045906875 -0.0066688512 0.06788687 -0.021650396 0.07393858 -0.022291245 -0.026843691 -0.061956726
-0.0064455797 -0.2065154 -0.010418273 -0.1302692 -0.2187705 -0.0026900806 0.10713 -0.019158253
-0.008121183 -0.06049012 0.07522371 0.10368185 -0.24988401 -0.12021012 0.07522868 -0.061978288
0.049454767 0.004319414 -0.00018887117 -0.008869755 -0.1608805 -0.0128105655 -0.07185188 -0.018154263
-0.1379998 -0.016595889 0.026483696 -0.018930422 -0.009571563 -0.15543243 0.0711703 -0.2675895
-0.047365554 -0.028748667 -0.10444783 -0.17944035 -0.05401895 -0.06790473 -0.121078305 -0.002729774
-0.383255 0.09070776 -0.12478098 -0.02163766 0.061350416 -0.117885455 -0.0278024 -0.013627966
-0.09322477 -0.011738417 0.0507744 0.1450107 -0.092551626 -0.012534933 -0.041967627 -0.01200799
-0.066075504 -0.0119086895 0.17886499 -0.010803387 0.08317457 -0.030713975 -0.1742517 -0.02238152
-0.015649742 0.017343273 0.006493953 -0.027357373 -0.067628354 -0.013629547 -0.008126238 0.103902616
-0.0092723835 0.026773512 -0.013506512 -0.05390317 -0.040956166 -0.18324293 -0.012053338 0.17746721
-0.1942458 -0.036178473 -0.032403205 -0.089361735 0.057385392 -0.12670292 -0.014278316 -0.11481874
-0.02517858 0.045481242 -0.007432383 0.07619937 -0.005641407 0.15392953 -0.0144273415 0.13691868
-0.024585074 -0.009162874 -0.14296412 -0.059572645 0.12873429 0.11386177 0.09211165 -0.018256113
0.05935888 -0.011947252 -0.010217887 0.09480239 -0.024639407 0.081412524 -0.20594454 0.013568507
-0.15797167 -0.17864242 -0.022924956 -0.02188594 0.12710877 -0.19596128 -0.009680054 -0.22213067
-0.0070105623 -0.0079191495 -0.017401358 0.13104978 -0.06911062 -0.009179248 -0.18123688 -0.0075346264
0.021358408 -0.08509098 -0.065825246 0.0 0.078634955 -0.02990175 -0.19102576 -0.026778508
-0.013501239 0.07742818 -0.010271057 -0.2579095 -0.12362872 -0.030766651 -0.05737184 0.18339214
-0.0812539 -0.07792972 0.09375419 -0.042517 0.066479415 -0.009223789 -0.15871918 -0.29006147
0.12239038 -0.024855187 0.11230335 -0.008304514 0.09979373 -0.0153039945 -0.011211533 0.060219586
00000000: 0289 6bbd d17a 41bc c656 fd3d 0340 a33c
00000010: 7621 c0bc fde0 ce3c 764e be3b 1fdb 913d
00000020: 373d 36bd ccf3 e1bc 7144 51bc 0595 25bd
00000030: 1fbd 2ebc 57e6 d83c 9262 09bc b748 d7bc
00000040: e585 76bb a31f 51bc 8dc0 81bd e39c 9dbe
00000050: 7e4c 7abc c68b 0fbd 74ac 65bc 9547 32bc
00000060: 701d a2bd d014 f1bc 1c7b b0bc 1c02 d9bc
00000070: 6ae4 c3bd 946d 60be bdf8 b3bd eb05 103d
00000080: cea9 3bbc 9739 56bc 06e0 003c f888 64be
00000090: 1ebb 5cbc f45d d9bc f376 c9bc 5fea 2d3e
000000a0: dbe8 b13d a003 eaba d816 86be 940b c03d
000000b0: a500 2dbc 800a 89bb 22d6 73bc 41b5 e6bb
000000c0: bf8b 763d 9725 193c 9ce5 d8bd 5b00 c33d
000000d0: 0486 e0bd c3cd 99bb 1f4d 35be c721 aabc
000000e0: e726 61be ce07 80bc b63b 083e 20b0 2ebd
000000f0: 87c0 3ebc d7a8 38be b6a3 1dbd c14d d8bc
00000100: 3fdc 9bbc 84e8 cc3d da01 163e 2ba3 16be
00000110: a904 ec3c e975 e4bd 586e 88be 56fc 58bb
00000120: 5445 bf3d 9826 1abe f75e 883d d45b 3ebc
00000130: 5cdd 17be bc28 aa3c 7d9a 69bc 538f af3d
00000140: 7627 3fbe 9ddf eebc da75 e3bd f527 3bbc
00000150: 8c90 ffbb 114c 3fbe b14b 48bc e10a eabc
00000160: d908 3cbd 6186 dabb 4508 8b3d 2c5c b1bc
00000170: 1c6d 973d 219c b6bc 4de7 dbbc 56c6 7dbd
00000180: 7135 d3bb c678 53be 67b1 2abc 4a65 05be
00000190: 6005 60be 104c 30bb f966 db3d c5f1 9cbc
000001a0: b60e 05bc 7dc4 77bd e30e 9a3d 2657 d43d
000001b0: 98e1 7fbe b930 f6bd 7f11 9a3d f2dc 7dbd
000001c0: 1591 4a3d df89 8d3b b80b 46b9 7352 11bc
000001d0: dcbd 24be 68e3 51bc 1427 93bd 40b8 94bc
000001e0: d24f 0dbe 1af4 87bc 56f4 d83c f913 9bbc
000001f0: 0cd2 1cbc ae29 1fbe bcc1 913d 7e01 89be
00000200: 6202 42bd 5382 ebbc bee8 d5bd 36bf 37be
00000210: f942 5dbd a311 8bbd e7f7 f7bd 02e6 32bb
00000220: 003a c4be fdc4 b93d 2c8d ffbd 7641 b1bc
00000230: 934a 7b3d ee6d f1bd dcc1 e3bc d547 5fbc
00000240: a1ec bebd 7d52 40bc d1f8 4f3d af7d 143e
00000250: b58b bdbd 525f 4dbc 3fe6 2bbd 29bd 44bc
00000260: 9852 87bd aa1c 43bc 6228 373e b000 31bc
00000270: 6e57 aa3d e09b fbbc 0a6f 32be 7359 b7bc
00000280: e333 80bc 7b13 8e3c 3acb d43b 921c e0bc
00000290: bc80 8abd 774e 5fbc ea23 05bc e5ca d43d
000002a0: 32eb 17bc 2054 db3c 6b4a 5dbc 92c9 5cbd
000002b0: a7c1 27bd 09a4 3bbe 5d7b 45bc f7b9 353e
000002c0: 5fe8 46be e12f 14bd 39b9 04bd 4903 b7bd
000002d0: f20c 6b3d 69be 01be 99ef 69bc 1626 ebbd
000002e0: 4f43 cebc 8a4a 3a3d 598b f3bb 6a0e 9c3d
000002f0: 8ddb b8bb b49f 1d3e a860 6cbc 6934 0c3e
00000300: a366 c9bc e11f 16bc 3065 12be 7202 74bd
00000310: ecd2 033e 5c30 e93d 08a5 bc3d d88d 95bc
00000320: 4c22 733d 68be 43bc ed68 27bc c127 c23d
00000330: 95d8 c9bc 9cbb a63d 20e3 52be 714e 5e3c
00000340: 53c3 21be 0aee 36be 1ecd bbbc 254a b3bc
00000350: cd28 023e 13aa 48be 1799 1ebc 3976 63be
00000360: dcb8 e5bb 52bf 01bc 4b8d 8ebc ea31 063e
00000370: de89 8dbd 8e64 16bc 2996 39be 07e5 f6bb
00000380: d4f7 ae3c 2e44 aebd 63cf 86bd 0000 0000
00000390: 5d0b a13d 84f4 f4bc 429c 43be 9a5e dbbc
000003a0: 4d34 5dbc aa92 9e3d ef47 28bc b70c 84be
000003b0: 0e31 fdbd 580a fcbc bcfe 6abd 26cb 3b3e
000003c0: 7268 a6bd 9e99 9fbd 3202 c03d 4e26 2ebd
000003d0: 5c26 883d 601f 17bc 4887 22be f082 94be
000003e0: cfa7 fa3d 1b9d cbbc 4cff e53d a80f 08bc
000003f0: a860 cc3d 9bbd 7abc 94b0 37bc d0a8 763d

model.4.weight f4 [256, 256]
-0.19603258 0.010514044 0.0030540219 0.022151522 0.08685598 -0.08927619 0.09799669 -0.14110357
0.03929007 -0.84328246 -0.028338887 0.11178066 -0.035698943 0.7403843 -0.025342446 -0.011941032
-0.00029897346 0.030116599 -0.06578797 0.5424391 0.15744548 0.14332944 -0.008998948 0.027511412
0.23920496 0.036739532 -0.54949063 0.020731026 0.14619516 0.08245379 0.22228253 -0.078946866
-0.0023074038 0.011954407 0.14158006 0.18852232 0.0029525612 0.0136542125 -0.012900722 0.15098509
0.31307322 -0.014685345 -0.043617122 -0.025287054 0.005242871 -0.026013438 0.023722226 0.014131738
-0.099764235 -0.15699363 0.24734399 -0.0014448301 -0.13943197 0.10989951 0.14550883 0.014390827
0.14663784 -0.035423547 0.2093783 0.049666267 0.012557165 0.21161433 0.23881225 0.17138402
0.04580187 0.13818036 0.046783477 0.17554405 -0.028448662 -0.124922425 0.009032328 0.017480405
0.0038760821 0.097840846 0.11793975 0.010779785 0.21051149 -0.8299457 -0.010474749 -0.042956047
0.04083743 0.11639628 0.18466039 -0.028866868 -0.0058724782 0.22260512 -0.032075617 -0.23762067
0.018948888 0.03544361 -0.41664627 -0.019398605 0.16605902 -0.43800867 -0.049468007 -0.36645964
-0.017375903 -0.6184237 -0.008288541 -0.03185476 -0.09256874 -0.012329905 0.037991043 0.022036491
0.021635914 0.19849305 -0.1324016 -0.057453055 0.020502836 0.16874006 -0.044832032 -0.004728014
0.26715848 0.16178463 -0.050853536 0.018238075 0.090640076 0.018692994 0.073646784 0.004706008
-0.020177983 0.033183623 -0.12020736 0.0033132283 0.024309348 -0.15095623 -0.053393528 -2.1006975
-0.09152509 0.028897885 0.20404743 -6.346982 -0.13348572 0.15799469 -0.3320203 0.0016197636
0.15865886 -0.10562293 0.22292882 -0.0047881766 0.024497628 0.011822853 -0.017317444 -0.004076464
0.32954118 -0.01956446 -0.23969358 0.2265974 0.72538865 -0.0022653232 -0.099951625 -0.02304835
-0.32258433 -0.005822565 0.0335227 -0.01814425 -0.028143654 -0.009551918 -0.46452016 -0.024856374
-0.02283371 -0.017987529 0.13871138 -0.01415931 0.2213697 0.020630786 0.018308183 0.16035992
0.0938716 0.25098532 0.009875466 -0.19335642 0.019882027 -0.120129 0.030262541 -0.033375762
0.05001536 0.13636956 -0.03854734 0.21228161 0.07894625 -0.22669049 0.0037990496 0.18655281
-0.0078555 0.12665951 -0.009805354 0.124541596 0.015007434 0.57751703 0.11851766 0.08654152
-0.22921383 0.002507798 0.09838999 0.35754108 0.06551617 0.02703195 -0.053039268 0.011271827
0.059171684 -0.018554326 0.008332063 0.051175315 0.7890591 -0.20014189 -0.79310715 -0.042535555
0.2149101 0.15084423 -0.009843305 -0.009461536 0.0038545697 0.31379023 0.017995529 0.042477917
-0.020802433 -0.010857193 -0.005623103 0.018589715 -0.10907132 0.027350836 0.13839474 -0.017048264
0.14390054 0.08901154 -0.16219214 0.025908925 -0.062993616 0.042256966 0.046341114 -0.23706505
0.02120772 0.31356066 -0.029122626 -0.055179264 0.0069508683 -0.0034572617 -0.022502296 0.046680354
0.037676953 -0.028778112 0.056616593 0.06808199 0.201903 -0.03476512 -0.03748718 0.03454122
-0.24327604 0.040935725 -0.020080531 0.023087904 0.012542795 -0.021666318 -0.05166623 0.3105286
00000000: c4bc 48be 1943 2c3c fc25 483b 1c77 b53c
00000010: 8ce1 b13d 6fd6 b6bd 7db2 c83d 747d 10be
00000020: a0ee 203d 5ce1 57bf f426 e8bc 42ed e43d
00000030: 0e39 12bd d389 3d3f f69a cfbc 51a4 43bc
00000040: 8abf 9cb9 16b7 f63c d8bb 86bd 4add 0a3f
00000050: 6339 213e f4c4 123e 5370 13bc 9d5f e13c
00000060: 25f2 743e 317c 163d 6bab 0cbf 1dd4 a93c
00000070: 2fb4 153e 88dd a83d 089e 633e e5ae a1bd
00000080: d037 17bb 6bdc 433c 5dfa 103e ff0b 413e
00000090: c27f 413b ebb5 5f3c 8d5d 53bc d69b 1a3e
000000a0: 224b a03e cd9a 70bc dea7 32bd cc26 cfbc
000000b0: 64cc ab3b 221a d5bc 1d55 c23c ce88 673c
000000c0: 3151 ccbd f0c2 20be be47 7d3e 7460 bdba
000000d0: 41c7 0ebe ff12 e13d 4400 153e 81c7 6b3c
000000e0: 3b28 163e 4818 11bd 4467 563e db6e 4b3d
000000f0: 91bc 4d3c 6db1 583e 338b 743e 4b7f 2f3e
00000100: be9a 3b3d 277f 0d3e 08a0 3f3d d2c1 333e
00000110: 2b0d e9bc 54d7 ffbd 54fc 133c 1133 8f3c
00000120: de05 7e3b c860 c83d 658a f13d b29d 303c
00000130: 5390 573e 5277 54bf 489e 2bbc aef2 2fbd
00000140: 2645 273d 2c61 ee3d 9d17 3d3e 367a ecbc
00000150: eb6d c0bb 99f2 633e b961 03bd d552 73be
00000160: b33a 9b3c 522d 113d a952 d5be d3e9 9ebc
00000170: 600b 2a3e ac42 e0be f79e 4abd 99a0 bbbe
00000180: e957 8ebc 0451 1ebf a9cc 07bc 237a 02bd
00000190: ae94 bdbd 5f03 4abc 7f9c 1b3d df85 b43c
000001a0: cd3d b13c c341 4b3e 4994 07be e553 6bbd
000001b0: 90f5 a73c 32ca 2c3e cba1 37bd 75ed 9abb
000001c0: ffc8 883e dfaa 253e cc4b 50bd 0468 953c
000001d0: 81a1 b93d 0d22 993c 20d4 963d db34 9a3b
000001e0: 4c4c a5bc 8deb 073d 472f f6bd bf22 593b
000001f0: 6624 c73c 4594 1abe 2cb3 5abd d471 06c0
00000200: 8271 bbbd 42bb ec3c cff1 503e 7a1a cbc0
00000210: 7bb0 08be 5cc9 213e 91fe a9be 3f4e d43a
00000220: 7877 223e d650 d8bd 7447 643e 23e6 9cbb
00000230: 40af c83c a4b4 413c 50dd 8dbc dc93 85bb
00000240: 9fb9 a83e a545 a0bc 3c72 75be 2609 683e
00000250: 12b3 393f d175 14bb 70b3 ccbd e5cf bcbc
00000260: c629 a5be 37cb bebb 194f 093d 40a3 94bc
00000270: 858d e6bc a67f 1cbc 96d5 edbe 989f cbbc
00000280: c30d bbbc 955a 93bc 5b0a 0e3e 73fc 67bc
00000290: bdae 623e e501 a93c 0bfb 953c 6435 243e
000002a0: c13f c03d 2681 803e b5cc 213c 3aff 45be
000002b0: a2df a23c 3106 f6bd 26e9 f73c 06b5 08bd
000002c0: e8dc 4c3d 76a4 0b3e d1e3 1dbd 5a60 593e
000002d0: 92ae a13d 8d21 68be 7af9 783b b307 3f3e
000002e0: 5bb4 00bc 08b3 013e a3a6 20bc aa0f ff3d
000002f0: bee1 753c 28d8 133f 63b9 f23d ae3c b13d
00000300: 08b7 6abe de59 243b b180 c93d a00f b73e
00000310: 572d 863d 1c72 dd3c b43f 59bd 78ad 383c
00000320: 025e 723d 3eff 97bc 3583 083c 359d 513d
00000330: c7ff 493f fff1 4cbe 1209 4bbf c339 2ebd
00000340: 6511 5c3e e976 1a3e d045 21bc 8f04 1bbc
00000350: f39c 7c3b 1da9 a03e 5c6b 933c 53fd 2d3d
00000360: dd69 aabc 5ee2 31bc 0242 b8bb 7549 983c
00000370: c960 dfbd dc0e e03c 5ab7 0d3e cda8 8bbc
00000380: aa5a 133e af4b b63d b215 26be f43e d43c
00000390: cc02 81bd a415 2d3d 2ed0 3d3d 2ec1 72be
000003a0: d0bb ad3c 068b a03e 9392 eebc a703 62bd
000003b0: 1cc4 e33b 3a93 62bb bc56 b8bc e633 3f3d
000003c0: 2653 1a3d 13c0 ebbc cde6 673d 926e 8b3d
000003d0: a9bf 4e3e df65 0ebd 288c 19bd 187b 0d3d
000003e0: 5b1d 79be 38ac 273d ed7f a4bc d822 bd3c
000003f0: 4c80 4d3c 907d b1bc f89f 53bd 9bfd 9e3e

model.4.bias f4 [256]
0.06218253 0.14680423 -0.0112781 -0.016337913 0.103629954 0.09025916 0.057793994 -0.014755519
-0.037146557 0.05453971 -0.008590502 -0.009574998 0.08682692 -0.012813901 0.006657764 -0.01823853
0.03275279 -0.020543456 -0.012408719 -0.0483184 0.0019221283 -0.07401996 -0.0095499735 -0.01906974
-0.010575676 0.051685557 0.04275886 0.10821032 0.06416216 0.00041736846 -0.0012981903 -0.0063290196
-0.014971885 -0.113339916 -0.013874737 -0.018559828 -0.067780055 0.080816746 0.018612117 0.14926025
0.101827316 -0.0057917903 -0.00037258005 0.081675336 -0.06508612 0.06712402 -0.015893051 -0.0070544276
-0.037175916 0.031310715 -0.09803307 -0.043410078 0.026135508 -0.015392542 -0.005607391 -0.031344306
-0.0051266626 -0.0317511 0.03214871 -0.038881402 -0.021828908 -0.047011983 0.0052596903 0.0035882636
-0.015065385 -0.0105168605 0.060086377 -0.04318922 -0.07528066 -0.011196835 -0.05986228 -0.037669573
-0.092055425 -0.008810738 -0.019016176 0.12802708 0.04933868 -0.016160052 0.04855813 -0.0133054
0.090243265 -0.06847693 0.01898759 -0.027530912 0.07556811 -0.06223313 -0.056650225 -0.093878105
-0.013011263 -0.010642342 -0.026232002 0.13813017 -0.026125064 0.055048075 0.05926594 -0.010362927
0.1113546 0.1083294 0.006522079 0.13182604 -0.0031524529 -0.076459445 0.022494162 -0.012944918
-0.02230236 0.11144878 -0.033915684 -0.005603499 -0.013479384 -0.020446124 0.0941923 0.06143049
-0.007033253 0.114243805 0.07160627 -0.020232787 -0.012506778 -0.01848147 0.02795993 -0.009030085
0.0721702 -0.059668552 0.09179003 -0.04445764 0.038542375 0.031723086 0.046873074 -0.0241753
-0.04857061 -0.019110348 0.06434749 0.023942847 -0.14114146 0.04658368 0.07056842 -0.06193484
-0.031485446 0.06045043 0.08331098 -0.014738032 0.13526352 -0.009706675 -0.009904062 0.080792
-0.013138898 -0.025635397 0.07951399 -0.0078044375 -0.01365271 -0.018525857 -0.0037156076 -0.019229764
-0.045204565 0.027028032 0.058980696 -0.017697055 -0.018738471 0.14870128 -0.013092692 0.12327397
0.1599684 -0.008639472 0.09388174 -0.0135090435 -0.06294711 -0.03089027 0.090499625 -0.016816687
0.08920417 -0.012606739 0.13810661 0.123170786 0.14531428 0.0687098 -0.006229881 -0.010952884
-0.037129655 0.08165312 0.14094856 -0.01122184 -0.011979127 -0.08295298 0.0598747 0.012701276
0.02729872 -0.08143577 0.020432496 0.07158664 -0.03347361 -0.007981441 -0.012628311 -0.015682675
0.029589226 -0.009838936 0.013769075 0.085123986 -0.22665001 -0.03005488 -0.0136916535 0.025662724
0.039721325 0.015112629 -0.014824248 0.014588963 -0.03023902 -0.08540685 -0.009118169 -0.00894223
0.08923482 -0.010281328 -0.01976031 -0.011124231 -0.09488029 0.115606226 0.021165777 -0.010447548
-0.019189572 0.09102716 -0.10627088 0.10280085 0.08161427 0.08806357 0.024015382 -0.12389244
0.11036302 0.016042236 -0.021352833 0.112034045 0.019518394 -0.013406746 -0.011830244 -0.08058111
-0.04771944 -0.06530634 -0.022914076 0.015649717 -0.053474396 0.091642864 -0.013029033 0.044747096
0.09125698 -0.010249253 -0.03567726 0.057051904 0.03820945 0.03857693 0.09460188 -0.0190965
-0.024447475 0.12286851 0.10821847 -0.011402188 0.061350897 -0.06771271 0.13227625 0.07176054
00000000: 1cb3 7e3d d953 163e c8c7 38bc 16d7 85bc
00000010: f13b d43d cbd9 b83d 65b9 6c3d 22c1 71bc
00000020: fd26 18bd 0865 5f3d 2dbf 0cbc 74e0 1cbc
00000030: 50d2 b13d 65f1 51bc 5f29 da3b f868 95bc
00000040: ca27 063d c04a a8bc f14d 4bbc 84e9 45bd
00000050: ecef fb3a c797 97bd 7e77 1cbc 2538 9cbc
00000060: 9a45 2dbc 3cb4 533d ea23 2f3d 5f9d dd3d
00000070: 7367 833d 3fd2 da39 0a28 aaba aa63 cfbb
00000080: a34c 75bc c21e e8bd dd52 63bc c80a 98bc
00000090: 45d0 8abd 4083 a53d 7078 983c aed7 183e
000000a0: d78a d03d 0fc9 bdbb d956 c3b9 6645 a73d
000000b0: df4b 85bd 5178 893d 2532 82bc d428 e7bb
000000c0: c645 18bd aa3f 003d 90c5 c8bd c4ce 31bd
000000d0: 221a d63c 0031 7cbc 34be b7bb e362 00bd
000000e0: 90fd a7bb 710d 02bd 5eae 033d 1b42 1fbd
000000f0: 8ad2 b2bc a38f 40bd 7b59 ac3b 1329 6b3b
00000100: ced4 76bc e94e 2cbc 221d 763d 2ee7 30bd
00000110: bf2c 9abd ee72 37bc 2632 75bd 694b 1abd
00000120: 8e87 bcbd ea5a 10bc d0c7 9bbc 8819 033e
00000130: 5b17 4a3d 1662 84bc e4e4 463d e4fe 59bc
00000140: 76d1 b83d a23d 8cbd dd8b 9b3c 8288 e1bc
00000150: 74c3 9a3d 2be8 7ebd 110a 68bd 2a43 c0bd
00000160: 312d 55bc 385d 2ebc 7fe4 d6bc ff71 0d3e
00000170: 3b04 d6bc 177a 613d d8c0 723d 44c9 29bc
00000180: e10d e43d cedb dd3d 2ab7 d53b 68fd 063e
00000190: 6299 4ebb c596 9cbd ad45 b83c ec16 54bc
000001a0: 70b3 b6bc 423f e43d 2ceb 0abd 8e9d b7bb
000001b0: a2d8 5cbc a17e a7bc e5e7 c03d 8a9e 7b3d
000001c0: 3477 e6bb a8f8 e93d 4fa6 923d 3bbf a5bc
000001d0: 3be9 4cbc 7466 97bc 390c e53c ecf2 13bc
000001e0: f8cd 933d 0367 74bd 69fc bb3d 3719 36bd
000001f0: 9cde 1d3d 11f0 013d fbfd 3f3d 470b c6bc
00000200: faf1 46bd 4e8d 9cbc 9ec8 833d ca23 c43c
00000210: 6387 10be 87ce 3e3d 2d86 903d 63af 7dbd
00000220: e2f6 00bd df9a 773d f29e aa3d c977 71bc
00000230: 8582 0a3e bf08 1fbc a644 22bc 4776 a53d
00000240: 8844 57bc 5301 d2bc 3bd8 a23d 5ebc ffbb
00000250: 9eaf 5fbc 8ac3 97bc 8d81 73bb bd87 9dbc
00000260: 6c28 39bd e469 dd3c be95 713d 6af9 90bc
00000270: 6c81 99bc 2645 183e bb82 56bc 1077 fc3d
00000280: c2ce 233e 928c 0dbc 1245 c03d 0955 5dbc
00000290: 6aea 80bd 970d fdbc de57 b93d 26c3 89bc
000002a0: adb0 b63d 7f8c 4ebc d26b 0d3e f740 fc3d
000002b0: 44cd 143e b9b7 8c3d 0824 ccbb ba73 33bc
000002c0: 4415 18bd c039 a73d d254 103e cfdb 37bc
000002d0: 1a44 44bc 41e3 a9bd 2c3f 753d 0319 503c
000002e0: 91a1 df3c ccc7 a6bd 0d62 a73c 049c 923d
000002f0: a01b 09bd 97c4 02bc fae6 4ebc f478 80bc
00000300: 1b65 f23c 7d33 21bc b097 613c 7c55 ae3d
00000310: f116 68be a735 f6bc f552 60bc a23a d23c
00000320: d4b2 223d f69a 773c 67e1 72bc 8c06 6f3c
00000330: d2b7 f7bc c9e9 aebd 5f64 15bc 6e82 12bc
00000340: bfc0 b63d 0473 28bc 60e0 a1bc 6842 36bc
00000350: 9950 c2bd f5c2 ec3d da63 ad3c 312c 2bbc
00000360: 7333 9dbc 736c ba3d 8ca4 d9bd 4189 d23d
00000370: 6225 a73d ac5a b43d e8bb c43c 52bb fdbd
00000380: 0206 e23d 026b 833c 23ec aebc 1b72 e53d
00000390: 0ae5 9f3c f8a7 5bbc a4d3 41bc b607 a5bd
000003a0: 7675 43bd 55bf 85bd 4db6 bbbc d633 803c
000003b0: f807 5bbd 41af bb3d ba77 55bc bb48 373d
000003c0: f1e4 ba3d 7cec 27bc 5222 12bd 42af 693d
000003d0: 8381 1c3d d802 1e3d a1be c13d 4370 9cbc
000003e0: 1246 c8bc 7ca2 fb3d a5a1 dd3d 3ed0 3abc
000003f0: 144b 7b3d f6ac 8abd 6d73 073e 31f7 923d

model.6.weight f4 [1, 256]
0.3109542 0.20042862 0.008181366 -0.6813908 0.13738897 0.24529082 0.30196592 -0.2796283
-2.0892627 0.04914089 0.017305123 6.787006e-05 0.27589104 -0.0026992701 -0.34772417 -0.004354092
-0.18281548 0.013722984 -0.0015970344 -0.9892889 -0.9406822 -2.2666478 -3.2158673 -0.7038585
-0.02836778 0.047357168 0.034726955 0.19656831 0.2945799 -0.86655116 -0.2812364 -0.6846342
-0.76855695 0.31963283 -0.00054063764 0.005794508 -2.3106742 -0.4320386 -1.5120612 0.61400473
0.49685505 -1.2415688 -0.06541414 0.5666362 -1.0019773 0.30478692 0.010760479 0.026000338
-0.029516278 -0.10495539 -3.2175703 -0.39889315 0.024124147 0.021353543 0.02034278 -0.0272911
-0.83694226 -0.06245332 -0.15622878 -1.1706353 0.014849777 -0.30369207 -1.4618729 -1.5915079
0.06648891 0.004409204 -0.5044156 -0.08463788 -0.006516726 -0.8782967 -1.4127221 -0.5904359
-1.2090822 -0.009696896 0.0027980665 0.17075829 -0.20359229 0.02799313 0.039258823 -0.02482065
0.30950764 -1.8956604 -1.2561624 0.016404757 -0.26689008 -1.0400295 -0.20729698 -0.42767265
0.016372748 0.015663188 -2.5646498 0.1864221 -3.5436492 0.048098326 -0.29272923 0.0025789563
0.5090384 0.12915738 -0.62803704 0.18233246 -0.7441145 -0.5671331 -0.026598934 0.009116837
0.0033208127 0.20153286 0.008068518 0.008789851 0.0057438556 -0.43249637 0.10473992 -0.40133658
-0.042728867 0.52050245 -0.47875473 0.062774874 0.0032493197 -0.1258005 -3.7478943 -1.0725456
-0.14139734 -0.7410862 0.26611143 -0.79842865 -0.09053902 1.6506222 -4.902767 -1.1667503
0.0027015936 0.0054710186 0.3244724 -0.5012804 -2.8113265 -1.8244689 0.25505072 -0.1852056
0.031286333 0.30804026 0.09236907 0.02749083 0.17524864 -0.019363495 0.023614753 0.31081522
0.029232068 0.017064244 0.114516474 -0.008123233 0.014079952 0.0017471195 -0.00922048 0.019972496
-0.38941032 -0.43795612 -0.2918257 -0.00089361833 0.008055502 0.209279 0.000146609 0.8445764
0.63771254 0.012060108 0.3691563 0.041634656 -0.6339643 -0.27512106 0.3653327 0.011661825
0.24391703 -1.9999582 0.19465797 0.84703445 0.19897941 0.0722694 0.028929342 0.07241718
-10.378667 0.09146577 0.19103542 0.0016535498 -1.3767412 -0.31918916 -0.17013471 -0.78279227
-0.9173674 -1.1850891 -0.32693097 0.08045443 0.02426368 0.0066616186 0.012179843 -0.029328926
-2.5672035 -1.1592745 -0.5348055 0.098516524 -3.2930276 0.011921209 -0.86773044 0.013957358
-1.6413485 -1.4940691 0.021722548 -1.9006398 -0.018163392 -0.603446 0.021748826 0.011178986
0.24831194 0.010039109 -0.00058928184 0.0028792156 3.0553696 0.14255023 -0.024896635 0.009720767
0.010899447 0.41427204 -5.2631836 0.122136675 0.4603657 0.32714036 -1.052952 -3.3530948
0.1343681 -0.33334547 -0.0064456533 0.13707156 -0.0815125 0.011252801 -1.0227787 -1.4051845
-0.34150973 -0.739399 0.0125394575 -1.5564972 0.017703123 0.1534208 -0.040431924 0.043371834
0.38117722 0.003640862 0.045416575 -1.0072775 0.024425032 0.029927688 0.27206174 -8.8052845
0.0028873526 0.15489614 0.13321076 0.029857136 -0.25407228 0.44350627 0.17359017 -1.2954499
00000000: 6435 9f3e 293d 4d3e 230b 063c a16f 2ebf
00000010: b2af 0c3e 842d 7b3e 479b 9a3e 712b 8fbe
00000020: 7bb6 05c0 f547 493d 79c3 8d3c 7655 8e38
00000030: 9741 8d3e 3de6 30bb e708 b2be c5ac 8ebb
00000040: fb33 3bbe 5ed6 603c 9553 d1ba 0a42 7dbf
00000050: 8cd0 70bf c210 11c0 c5d0 4dc0 1230 34bf
00000060: 8c63 e8bc 97f9 413d da3d 0e3d 3449 493e
00000070: 2dd3 963e 4cd6 5dbf 38fe 8fbe 3044 2fbf
00000080: 26c0 44bf eaa6 a33e 94b9 0dba dbdf bd3b
00000090: 16e2 13c0 2a34 ddbe 398b c1bf 6a2f 1d3f
000000a0: c963 fe3e baeb 9ebf d9f7 85bd 120f 113f
000000b0: cb40 80bf 080d 9c3e b84c 303c a9fe d43c
000000c0: 1fcc f1bc daf2 d6bd acec 4dc0 b93b ccbe
000000d0: 01a0 c53c a0ed ae3c e7a5 a63c 9691 dfbc
000000e0: d941 56bf 0dcf 7fbd 70fa 1fbe 61d7 95bf
000000f0: 7b4c 733c 877d 9bbe a71e bbbf 88b6 cbbf
00000100: 562b 883d 157b 903b 6121 01bf a056 adbd
00000110: 438a d5bb 0dd8 60bf 14d4 b4bf cf26 17bf
00000120: 35c3 9abf bbdf 1ebc c45f 373b 43db 2e3e
00000130: 7f7a 50be d951 e53c dccd 203d ad54 cbbc
00000140: c977 9e3e 00a5 f2bf eec9 a0bf 4563 863c
00000150: d1a5 88be b01f 85bf a945 54be e9f7 dabe
00000160: 2420 863c 1650 803c 3923 24c0 6fe5 3e3e
00000170: 26cb 62c0 c002 453d 9be0 95be b503 293b
00000180: 5750 023f d541 043e 09c7 20bf 5cb5 3a3e
00000190: 4a7e 3ebf a32f 11bf 02e6 d9bc c95e 153c
000001a0: fea1 593b a15e 4e3e d131 043c 4f03 103c
000001b0: f436 bc3b 2a70 ddbe e281 d63d fd7b cdbe
000001c0: 7704 2fbd a63f 053f 571f f5be 1d90 803d
000001d0: 8af2 543b d9d1 00be 80dd 6fc0 2d49 89bf
000001e0: 77ca 10be d3b7 3dbf c23f 883e d265 4cbf
000001f0: 866c b9bd 9747 d33f 78e3 9cc0 1358 95bf
00000200: 380d 313b 3b46 b33b 3f21 a63e ea53 00bf
00000210: c6ec 33c0 3288 e9bf 0296 823e 89a6 3dbe
00000220: 1926 003d 74b7 9d3e ff2b bd3d 7334 e13c
00000230: 6174 333e 31a0 9ebc ba73 c13c 2c23 9f3e
00000240: 1778 ef3c 50ca 8b3c 9d87 ea3d 4f17 05bc
00000250: 99af 663c 9aff e43a 7f11 17bc 5c9d a33c
00000260: ca60 c7be c93b e0be 2e6a 95be b641 6aba
00000270: 39fb 033c 3c4d 563e 0ebb 1939 2936 583f
00000280: 2141 233f c297 453c 0e02 bd3e 1a89 2a3d
00000290: 7c4b 22bf abdc 8cbe e30c bb3e 3d11 3f3c
000002a0: 63c5 793e a1fe ffbf 6b54 473e 40d7 583f
000002b0: 42c1 4b3e fb01 943d 3afd ec3c 754f 943d
000002c0: 050f 26c1 6852 bb3d ca9e 433e edbb d83a
000002d0: 0e39 b0bf c36c a3be cb37 2ebe 1365 48bf
000002e0: 97d8 6abf 00b1 97bf 7f63 a7be 4bc5 a43d
000002f0: a0c4 c63c b549 da3b f78d 473c 3743 f0bc
00000300: 104d 24c0 1b63 94bf 03e9 08bf 08c3 c93d
00000310: f7c0 52c0 2d51 433c 9523 5ebf 67ad 643c
00000320: b517 d2bf a83d bfbf 7cf3 b13c 2a48 f3bf
00000330: 65cb 94bc 707b 1abf 982a b23c 1128 373c
00000340: 7c45 7e3e 137b 243c 097a 1aba 39b1 3c3b
00000350: 2d8b 4340 b0f8 113e 07f4 cbbc da43 1f3c
00000360: 9893 323c 771b d43e 006c a8c0 cb22 fa3d
00000370: 0eb5 eb3e f17e a73e 22c7 86bf 1b99 56c0
00000380: cb97 093e 42ac aabe 0f36 d3bb 7d5c 0c3e
00000390: 07f0 a6bd ab5d 383c 6aea 82bf 16dd b3bf
000003a0: 5dda aebe 4149 3dbf 4c72 4d3c 4d3b c7bf
000003b0: 2406 913c 581a 1d3e f29b 25bd aaa6 313d
000003c0: a929 c33e 879b 6e3b bb06 3a3d 78ee 80bf
000003d0: 0117 c83c e92a f53c ad4b 8b3e 72e2 0cc1
000003e0: bd39 3d3b 189d 1e3e 6768 083e f496 f43c
000003f0: c315 82be 4113 e33e 9fc1 313e 4dd1 a5bf
