Models/Bloom_filter/result/model-dict-37.pt (torch, 533323 bytes, 7 tensors)

model.0.weight f4 [256, 2]
-0.013656674 -0.00070990453 -0.0054807873 0.0013172427 0.0059081386 0.0015777802 -0.017156754 -0.014700698
-0.00901617 -0.020207185 -0.036699317 0.017646259 -0.54190385 -0.04249562 0.0014496665 -0.013757207
-0.31252816 0.4167638 -0.008444873 0.0038950844 -0.030571215 0.466606 -0.0064797495 -0.003392008
-1.4555848 0.11245343 -0.004402272 0.0035764019 -0.004013949 0.009713156 -0.009309085 0.0051437076
-0.047199555 0.027369361 -0.00906799 -0.0028332125 -0.008425196 0.0036424748 -0.008233722 0.0036596966
-0.021018306 0.012920078 -0.0069981623 0.00023017338 -0.0089230165 -0.013722731 -0.26090494 -0.7023578
-0.0054443316 0.006506116 0.008100551 0.0079740025 -0.0130910985 -0.0044270894 -0.6386457 0.15600812
-0.006770857 -0.0042171096 -0.0075634313 0.0016370349 -0.018498227 -0.003955525 0.04547196 -0.8680201
0.33831108 -1.529387 0.27872956 -0.2916718 0.000717684 -0.039636165 0.0039867274 -0.007007154
0.0047161053 -0.010655809 -0.008025837 -0.02287773 0.27588126 0.11458488 -0.0070613376 -0.016761038
0.2793917 -0.12818517 0.2656979 -0.121007875 -0.004608562 -0.0011346966 0.15631397 -0.09363499
-0.0026973384 -0.013752837 -0.009249419 -0.00071702566 -0.000100398225 -0.0039806897 0.0067798765 -0.0066940123
0.011180741 0.0038143995 0.0038806032 -0.012537337 -0.0025416457 -0.0009354227 -0.022458572 0.0188317
-0.19422434 0.36889 -0.026908178 -0.00019265596 -0.18778813 -0.7505348 -0.0012511449 -0.0010054886
0.29925394 0.051213812 0.0024696067 -0.0033940475 -0.009275584 -0.006348479 0.28399375 -0.10916206
-0.0005672231 0.00082185614 -0.0023550729 -0.003567325 0.004343244 0.0071839746 -0.012763216 -0.020208996
-0.0070932657 0.002160804 -0.00865176 -0.0024394165 -0.004652973 -0.01582595 -0.41546243 -0.044411536
0.31096047 -0.14460285 0.2640878 0.1646174 -0.007521653 -0.014352675 -0.0030919544 -0.0022303646
-0.00649468 -0.0011457738 0.0005274162 -0.021794107 -0.0035407313 -0.0028688447 -0.13833545 0.40539944
0.2745663 -0.24616285 0.2598472 -0.40298656 0.0040356917 -0.00088458887 -0.0012754381 -0.0028912737
0.0016406784 -0.006685588 -0.0048900596 -0.005143479 0.26363266 -0.3243015 -0.39831442 -0.05885301
-0.80685043 -0.3917138 -0.0035367806 -0.011397004 -0.037824612 -0.5775109 -0.0065081622 -0.009875488
-0.0023860598 -0.02002309 -0.009589609 -0.0039349576 0.0022131924 -0.0058095646 0.265273 -0.1198981
-0.0066449805 0.0069978177 0.28794765 -0.22141461 0.019208573 0.018889274 -0.008893023 0.0049214656
-0.0078108385 -0.005301604 -0.006887364 -0.012457852 0.06293652 -0.591095 -0.001024296 0.005668603
0.27805012 -0.29257938 -0.020475943 0.010163197 0.2177031 -0.43493512 -0.0027213355 0.010008516
-0.0058431383 0.00033827242 -0.06959819 0.30334532 -0.007858803 0.0007889355 -0.0059399144 0.0036179794
-0.45605785 0.37664348 -0.18203788 0.2750088 -0.0014834655 -0.004726173 0.0012681664 -0.5142659
-0.010922512 0.010753183 -0.008294099 0.0059105633 0.21519867 0.10766893 -0.00010788017 -0.013761021
0.23357417 -0.79823685 0.00023946885 0.002220717 -0.0018196646 -0.011550051 -0.0056531313 0.008374654
-0.0072371857 -0.0005544721 -0.0084000435 -0.029303757 0.0069967466 -0.019880911 -0.0046540727 0.007904195
0.25791374 -0.3401256 0.0027115026 -0.021306835 0.14005268 -0.42918232 -0.5746837 0.22597626
00000000: 3ec0 5fbc e318 3aba 2d98 b3bb 55a7 ac3a
00000010: 0f99 c13b 85cd ce3a 528c 8cbc 32db 70bc
00000020: 8fb8 13bc 8a89 a5bc 0652 16bd e38e 903c
00000030: 36ba 0abf e30f 2ebd bc02 be3a e965 61bc
00000040: b103 a0be 1162 d53e 5d5c 0abc ac44 7f3b
00000050: 7c70 fabc fbe6 ee3e 1454 d4bb 734c 5ebb
00000060: 9a50 babf fc4d e63d ef40 90bb 1162 6a3b
00000070: 7287 83bb ee23 1f3c 2285 18bc 8c8c a83b
00000080: 5254 41bd b635 e03c e891 14bc 6bad 39bb
00000090: d509 0abc 96b6 6e3b bce6 06bc 85d7 6f3b
000000a0: 952e acbc bcae 533c d750 e5bb b25a 7139
000000b0: d831 12bc 4ed5 60bc 5595 85be b9cd 33bf
000000c0: 5d66 b2bb 4231 d53b 2cb8 043c 64a5 023c
000000d0: 0c7c 56bc 1e11 91bb 497e 23bf 98c0 1f3e
000000e0: 11de ddbb ae2f 8abb a9d6 f7bb c791 d63a
000000f0: 9889 97bc 599d 81bb ce40 3a3d 9136 5ebf
00000100: 1c37 ad3e f4c2 c3bf a4b5 8e3e 0256 95be
00000110: f522 3c3a 8859 22bd 18a3 823b 459c e5bb
00000120: 8f89 9a3b b495 2ebc cd7e 03bc 146a bbbc
00000130: 4f40 8d3e 7aab ea3d cb62 e7bb 724e 89bc
00000140: 6e0c 8f3e f942 03be 8e09 883e fad2 f7bd
00000150: 6c03 97bb 1aba 94ba c510 203e b4c3 bfbd
00000160: d4c5 30bb 9453 61bc e08a 17bc c7f6 3bba
00000170: e38c d2b8 7270 82bb ba29 de3b 7259 dbbb
00000180: 6d2f 373c 01fb 793b b851 7e3b 6769 4dbc
00000190: bd91 26bb 2837 75ba 0afb b7bc f044 9a3c
000001a0: bfe2 46be 26df bc3e 8a6e dcbc b103 4ab9
000001b0: 884b 40be 0c23 40bf 75fd a3ba 99ca 83ba
000001c0: d037 993e 93c5 513d 20d9 213b ab6e 5ebb
000001d0: 9ef8 17bc e706 d0bb a167 913e 5c90 dfbd
000001e0: b3b1 14ba d571 573a 9157 1abb c8c9 69bb
000001f0: c551 8e3b 8c67 eb3b cf1c 51bc 568d a5bc
00000200: a06e e8bb 479c 0d3b 1dc0 0dbc 9ede 1fbb
00000210: f777 98bb 6ca5 81bc 7eb7 d4be dfe8 35bd
00000220: 3636 9f3e c512 14be 8436 873e 7791 283e
00000230: 3378 f6bb 7b27 6bbc 63a2 4abb 4f2b 12bb
00000240: 53d1 d4bb ca2d 96ba 4d42 0a3a 8e89 b2bc
00000250: 9d0b 68bb 3a03 3cbb cfa7 0dbe 8490 cf3e
00000260: f493 8c3e 1d12 7cbe b10a 853e 4154 cebe
00000270: d63d 843b c1e3 67ba 9a2c a7ba 867b 3dbb
00000280: 080c d73a c712 dbbb cb3c a0bb a18a a8bb
00000290: dcfa 863e d90a a6be deef cbbe db0f 71bd
000002a0: c08d 4ebf b68e c8be 55c9 67bb 80ba 3abc
000002b0: fbed 1abd c1d7 13bf 6c42 d5bb cccc 21bc
000002c0: 715f 1cbb 7707 a4bc bc1d 1dbc d1f0 80bb
000002d0: 350b 113b 295e bebb ddd1 873e 238d f5bd
000002e0: 23be d9bb f34d e53b e06d 933e 83ba 62be
000002f0: 4c5b 9d3c aebd 9a3c 0bb4 11bc 3f44 a13b
00000300: 10f2 ffbb 14b9 adbb 66af e1bb 051c 4cbc
00000310: dde4 803d 0052 17bf ac41 86ba b0bf b93b
00000320: 965c 8e3e f7cc 95be 2abd a7bc 8a83 263c
00000330: 90ed 5e3e d1af debe 6f58 32bb c2fa 233c
00000340: cc77 bfbb 285a b139 7f89 8ebd 1450 9b3e
00000350: 35c2 00bc 91d0 4e3a 9da3 c2bb 9f1b 6d3b
00000360: 6a80 e9be 6ad7 c03e 2368 3abe f4cd 8c3e
00000370: d870 c2ba 03de 9abb 9a38 a63a eea6 03bf
00000380: 56f4 32bc 1e2e 303c f9e3 07bc 66ad c13b
00000390: 0a5d 5c3e 8781 dc3d ba3d e2b8 e875 61bc
000003a0: 112e 6f3e 4059 4cbf ee19 7b39 7389 113b
000003b0: d081 eeba 6d3c 3dbc e73d b9bb d835 093c
000003c0: ea25 edbb fe59 11ba 56a0 09bc 6f0e f0bc
000003d0: f744 e53b 4bdd a2bc 3181 98bb 9980 013c
000003e0: 450d 843e f124 aebe 77b3 313b ac8b aebc
000003f0: f869 0f3e c9bd dbbe 791e 13bf 5266 673e

model.0.bias f4 [256]
0.0 -0.0066735907 -0.016444055 0.0 0.0 -0.008928661 0.16195634 -0.0015257947
-0.039424624 -0.009952702 -0.11288077 0.0 0.14399698 -0.004327808 -0.00790273 -0.010821855
-0.027998466 0.0 -0.009727755 -0.0011007192 -0.003712227 -0.0017312865 0.0 0.19626854
-0.004874627 -0.030488579 0.0 0.095234595 0.0 -0.008220367 0.0 0.1382901
-0.013158678 -0.0488013 -0.000572591 -0.003204039 -0.00404721 0.0 -0.2129761 0.0
-0.15863483 -0.15045758 0.0 -0.02372835 -0.0076164105 0.0 0.0 -0.00915697
-0.015141619 -0.004912938 0.0 -0.010731492 -0.053501006 0.0 0.19728914 9.493166e-05
-0.13114828 -0.0019961288 0.0 -0.17168468 -0.0014962393 0.0 -0.011581542 -0.008938211
-0.0018591487 0.0 -0.00021661063 0.14350837 -0.06687492 -0.18744728 0.0 0.0
-0.006118858 -0.00042561808 0.0 -0.13057142 -0.072175264 0.02023442 -0.0036782029 0.0
-0.0013180362 0.0 -0.03491637 0.12936205 0.22046298 0.0 0.14121678 0.0
0.0 0.0 -0.0026513608 -0.14704269 -0.008953988 -0.09824517 -0.067729145 -0.0016194214
0.0 0.0 0.13502653 -0.005373895 -0.052219573 -0.005735872 0.0062753554 -0.00883477
-0.0015086747 -0.0824578 -0.00076913496 -0.0010631203 0.040579706 -0.010809616 0.00025471018 0.22040251
-0.013314546 -0.009911956 -0.24101485 0.0 0.031094098 -0.0024595705 0.00017830422 -0.009328722
-0.005767782 -0.0044494495 -0.005601312 -0.005980328 0.0103545915 -0.0021754513 0.14724433 0.0435264
0.0 -0.25924575 0.0 0.0 0.03178484 -0.09787792 -0.013797975 0.0
-0.0034081095 -0.029079538 0.19974552 0.16235444 -0.0029673134 0.0014317658 0.0 -0.0018277484
-0.0006682406 -0.009103448 -0.014344758 -0.066439465 0.0 -0.0010783569 -0.21361074 0.0
-0.0010395613 0.0 0.0 -0.25639877 -0.008604116 -0.0023449583 0.15299015 0.13762029
-0.0009762675 -0.06061065 -0.08163034 -0.0014937689 -0.22172602 -0.21214038 0.0 0.13629402
-0.0044948314 -0.050681386 -0.010580793 0.0 -0.003095397 0.0 0.0 -0.14744313
-0.0052302685 -0.258626 0.0 -0.02263492 -0.0106429625 0.0013701209 0.0 0.0
0.23514509 -0.008286845 -0.008665669 -0.04149278 0.16604555 -0.0032065953 -0.07099161 -0.010768766
-0.044865668 0.0 -0.024103642 -0.167009 0.0 0.0 -0.0019057324 0.053545903
-0.014658094 0.053963736 0.0 0.1391304 0.0 -0.0020652676 -0.0007409067 0.0
0.0 0.0 -0.00824441 -0.009187435 -0.0023629854 0.0 0.0 0.0
-0.24784003 -0.103880346 -0.009234764 -0.0024692842 -0.0014230908 0.0 0.0 -0.000701094
0.0 0.1401617 -0.022748012 -0.20082335 -0.0014537211 0.0 0.16345936 0.18911038
0.0022947511 0.31363755 -0.036074273 0.015143853 0.0 -0.026506191 0.04834875 -0.17752407
-0.0036108836 -0.07663181 -0.003978311 0.0 0.023297483 0.0 0.001499122 -0.013735287
0.010322298 0.0001128959 -0.067694575 -0.18555135 0.12237195 -0.0065019457 -0.014398236 -0.012865372
00000000: 0000 0000 23ae dabb afb5 86bc 0000 0000
00000010: 0000 0000 8549 12bc e2d7 253e 2dfd c7ba
00000020: b77b 21bd a810 23bc 082e e7bd 0000 0000
00000030: f273 133e 49d0 8dbb 747a 01bc 264e 31bc
00000040: 0a5d e5bc 0000 0000 2961 1fbc 0246 90ba
00000050: d648 73bb 56ec e2ba 0000 0000 9ffa 483e
00000060: 56bb 9fbb 2fc3 f9bc 0000 0000 5b0a c33d
00000070: 0000 0000 b8ae 06bc 0000 0000 ec9b 0d3e
00000080: 7f97 57bc dfe3 47bd ee19 16ba dbfa 51bb
00000090: 759e 84bb 0000 0000 6816 5abe 0000 0000
000000a0: 2b71 22be 8d11 1abe 0000 0000 f561 c2bc
000000b0: 1593 f9bb 0000 0000 0000 0000 1e07 16bc
000000c0: 8e14 78bc b6fc a0bb 0000 0000 24d3 2fbc
000000d0: df23 5bbd 0000 0000 2a06 4a3e 0c16 c738
000000e0: bc4b 06be 7cd1 02bb 0000 0000 1cce 2fbe
000000f0: 761d c4ba 0000 0000 82c0 3dbc 9371 12bc
00000100: aeae f3ba 0000 0000 f921 63b9 dcf3 123e
00000110: b8f5 88bd 2ef2 3fbe 0000 0000 0000 0000
00000120: b380 c8bb 7e25 dfb9 0000 0000 84b4 05be
00000130: a0d0 93bd a8c2 a53c 010e 71bb 0000 0000
00000140: f5c1 acba 0000 0000 7804 0fbd 7c77 043e
00000150: 0cc1 613e 0000 0000 229b 103e 0000 0000
00000160: 0000 0000 0000 0000 74c2 2dbb 5c92 16be
00000170: bfb3 12bc c434 c9bd 94b5 8abd c442 d4ba
00000180: 0000 0000 0000 0000 6544 0a3e 8017 b0bb
00000190: 31e4 55bd fbf3 bbbb 7fa1 cd3b b6bf 10bc
000001a0: b9be c5ba a3df a8bd c69f 49ba 6658 8bba
000001b0: e836 263d d11a 31bc 9f8a 8539 32b1 613e
000001c0: 4125 5abc c265 22bc 99cc 76be 0000 0000
000001d0: 0db9 fe3c bf30 21bb 2df7 3a39 7fd7 18bc
000001e0: aaff bcbb b0cc 91bb 368b b7bb a1f6 c3bb
000001f0: 4ea6 293c 0492 0ebb 38c7 163e bd48 323d
00000200: 0000 0000 dcbb 84be 0000 0000 0000 0000
00000210: d230 023d 3874 c8bd e710 62bc 0000 0000
00000220: 975a 5fbb 3638 eebc 178a 4c3e 3e40 263e
00000230: 4277 42bb 17aa bb3a 0000 0000 0f91 efba
00000240: de2c 2fba a126 15bc 4706 6bbc 6a11 88bd
00000250: 0000 0000 a757 8dba c6bc 5abe 0000 0000
00000260: e441 88ba 0000 0000 0000 0000 b346 83be
00000270: 47f8 0cbc dfad 19bb 73a9 1c3e 55ec 0c3e
00000280: 34ec 7fba df42 78bd cf2d a7bd 91ca c3ba
00000290: 250c 63be 543b 59be 0000 0000 a990 0b3e
000002a0: 6149 93bb 4997 4fbd 105b 2dbc 0000 0000
000002b0: 25dc 4abb 0000 0000 0000 0000 55fb 16be
000002c0: ac62 abbb a16a 84be 0000 0000 de6c b9bc
000002d0: d25f 2ebc a195 b33a 0000 0000 0000 0000
000002e0: e0c9 703e 8cc5 07bc 73fa 0dbc 55f4 29bd
000002f0: d807 2a3e be25 52bb 0d64 91bd 7a6f 30bc
00000300: 10c5 37bd 0000 0000 0075 c5bc 6804 2bbe
00000310: 0000 0000 0000 0000 c5c9 f9ba f352 5b3d
00000320: 8128 70bc 1409 5d3d 0000 0000 3378 0e3e
00000330: 0000 0000 7159 07bb 6839 42ba 0000 0000
00000340: 0000 0000 0000 0000 9013 07bc e586 16bc
00000350: 51dc 1abb 0000 0000 0000 0000 0000 0000
00000360: c7c9 7dbe 38bf d4bd 684d 17bc b7d3 21bb
00000370: 0187 baba 0000 0000 0000 0000 9fc9 37ba
00000380: 0000 0000 8c86 0f3e 0a5a babc a3a4 4dbe
00000390: c98a beba 0000 0000 e461 273e 27a6 413e
000003a0: 8963 163b 1a95 a03e 9ec2 13bd ec1d 783c
000003b0: 0000 0000 8323 d9bc 5709 463d dfc8 35be
000003c0: 93a4 6cbb 23f1 9cbd 7e5c 82bb 0000 0000
000003d0: 5dda be3c 0000 0000 307e c43a f809 61bc
000003e0: db1e 293c 86c2 ec38 74a3 8abd 2c01 3ebe
000003f0: 259e fa3d 460e d5bb 94e6 6bbc 48c9 52bc

model.2.weight f4 [256, 256]
0.007962047 -0.0044033984 -0.00239238 -0.009460564 -0.010470024 -0.011371173 -0.5328595 -0.0025633532
0.3782684 -0.005084176 -0.07030799 -0.0032226269 0.00021210645 0.00031451584 0.007964437 -0.0037567252
-0.02227289 -0.016328968 -0.004910738 0.0057810107 0.004131649 0.0058174054 0.000110912326 0.08228022
0.0104990965 -0.124571346 0.004922365 -0.42882952 0.0028023112 0.0014523909 -0.00077792205 0.2760587
-1.9066261 -0.57314277 0.005010069 0.0013256074 0.0021820578 0.0062398827 0.5121027 -0.0066083795
0.015209035 0.01972966 0.0026562964 0.15928885 -0.004368486 0.00039040582 0.009557742 0.00040535931
0.004836079 0.0067549143 0.0004177822 0.0019644958 0.19394004 0.00021327905 0.21741441 0.012767591
-0.66128856 0.0004243982 -0.0026451983 -0.013726648 0.0036919047 0.008515566 -0.0017020148 -0.0058446582
0.016166711 0.0015887729 -0.013928861 -0.6380942 -0.26486936 -1.9391533 -0.0005271588 -0.0059273797
-0.0035776445 0.019433029 0.0033915474 0.2317997 -0.9608591 0.2472249 -0.01028393 0.008507406
0.0055701495 0.009014849 -0.3475944 -0.4780575 -2.4493377 0.009584756 0.38813242 -0.0054696817
0.0053307517 0.002022484 0.01672839 0.0061641866 0.019464005 -2.6545873 -0.2177802 -0.008862031
-0.0026507596 0.010670121 0.23002441 0.007705124 -0.564857 -0.020740133 -0.15966986 -0.0019784526
0.0038933035 0.084912226 -0.0015847338 0.0003258769 0.32078937 0.05088492 -0.0020814443 0.23919198
-0.0026471857 0.016092807 -0.07362324 0.003032153 -0.388653 0.008730847 0.0048412923 0.022071593
-0.0051923078 0.026614087 0.018578058 -0.0031539444 0.18711682 0.01177945 0.17926481 0.21857063
-0.0060967007 0.68714833 0.0028452857 -0.0072222585 -0.4003621 -2.8413033 0.031587902 0.002011595
-0.0008712852 0.02762215 0.20135944 0.034946553 0.027886583 0.009453633 -0.0012859401 -0.00076309795
-0.007628969 -0.0045430763 -0.0071384986 0.25910857 -0.0014070016 0.003675035 0.2970605 0.004671594
-0.0036193281 0.004996237 -0.012977513 0.88889915 0.01748506 -0.006390079 -0.38834167 -0.61378044
-0.00024000616 -0.24891819 0.56682575 -0.0089441165 -3.1458454 0.174838 -0.0033096948 -0.6094431
0.017690577 -0.6033003 -0.004886894 -0.006200022 -0.002081268 0.0026056417 -0.0058850218 0.0019261257
0.0021066994 0.6856474 0.0036863857 -0.025719622 0.0018685648 0.015843319 0.005383645 0.006122586
0.22163396 0.032052763 0.018049208 -0.055135768 0.4413125 -0.0044213617 -2.4097738 0.0075726747
0.26555258 -0.020095004 -0.012586043 -0.12440204 -0.0066432226 0.008685137 -0.0069081094 -0.43672398
0.07864645 -0.4099577 0.0030231616 0.20484824 -0.0062174117 0.0080151595 0.0058928523 -0.0097440835
-0.003732181 -0.003601217 0.03009893 -0.029488716 0.0019890375 0.0062705707 -0.0037981258 -0.005401741
0.8697263 -0.06315388 -0.0025372547 -0.007359084 0.011443949 -0.0013574889 -0.012460188 -0.009400911
-0.010875207 -0.62046003 -0.06549604 -0.45149648 -0.0027183273 0.0022297078 0.18158731 0.22582026
0.030892491 0.14357105 0.35647222 -0.0060969847 -0.0003976856 0.14560384 -0.023237333 -1.7857587
-0.0017502111 0.09020427 -0.0019407974 0.00087054376 -0.15228738 -0.0017569184 -0.0006911255 0.0023845774
0.18575768 0.02173979 -0.7131171 -0.013317528 -0.4909342 0.004736633 0.08982893 -0.0012664124
00000000: 3f73 023c 624a 90bb 7ac9 1cbb 7b00 1bbc
00000010: 778a 2bbc 284e 3abc 7b69 08bf eefd 27bb
00000020: 65ac c13e 2999 a6bb a3fd 8fbd b532 53bb
00000030: e468 5e39 9ae5 a439 457d 023c 6433 76bb
00000040: a375 b6bc 54c4 85bc 42ea a0bb a26e bd3b
00000050: c962 873b ef9f be3b 9a99 e838 8882 a83d
00000060: 6704 2c3c 431f ffbd ca4b a13b 8b8f dbbe
00000070: fba6 373b 275e be3a 77ed 4bba 9157 8d3e
00000080: 530c f4bf 7cb9 12bf 812b a43b 01c0 ad3a
00000090: db00 0f3b ee77 cc3b 2a19 033f 1b8b d8bb
000000a0: 512f 793c 19a0 a13c 4215 2e3b 9e1c 233e
000000b0: 8425 8fbb 62af cc39 1398 1c3c 6886 d439
000000c0: f977 9e3b 5458 dd3b c709 db39 c5be 003b
000000d0: 3898 463e a9a3 5f39 e2a1 5e3e 282f 513c
000000e0: 354a 29bf c381 de39 105b 2dbb bce5 60bc
000000f0: e2f3 713b df84 0b3c 2416 dfba 8c84 bfbb
00000100: 0d70 843c 5f3e d03a e135 64bc 245a 23bf
00000110: f59c 87be 2d36 f8bf 0731 0aba 773a c2bb
00000120: ea76 6abb 0432 9f3c b944 5e3b e75c 6d3e
00000130: ddfa 75bf 8628 7d3e ee7d 28bc a662 0b3c
00000140: cd85 b63b 04b3 133c e5f7 b1be f4c3 f4be
00000150: f3c1 1cc0 6109 1d3c 4bb9 c63e 043b b3bb
00000160: 96ad ae3b a78b 043b fa09 893c f2fc c93b
00000170: fa72 9f3c c2e4 29c0 c601 5fbe 0d32 11bc
00000180: 5eb8 2dbb bbd1 2e3c 858b 6b3e 447b fc3b
00000190: 789a 10bf 36e7 a9bc 7f80 23be eda8 01bb
000001a0: cb26 7f3b 76e6 ad3d d8b6 cfba 75da aa39
000001b0: 813e a43e b56c 503d d768 08bb beee 743e
000001c0: 687c 2dbb 10d5 833c c8c7 96bd 16b7 463b
000001d0: 87fd c6be d40b 0f3c b4a3 9e3b 7ccf b43c
000001e0: 3c24 aabb c905 da3c 0331 983c 68b2 4ebb
000001f0: 8d9b 3f3e 98fe 403c 3291 373e fbd0 5f3e
00000200: d5c6 c7bb f4e8 2f3f f977 3a3b b2a8 ecbb
00000210: 43fc ccbe ead7 35c0 5162 013d f7d4 033b
00000220: f666 64ba d947 e23c 2b31 4e3e 1e24 0f3d
00000230: 6772 e43c 69e3 1a3c fd8c a8ba a30a 48ba
00000240: 6efc f9bb 16de 94bb 11ea e9bb e1a9 843e
00000250: 246b b8ba dbd8 703b 5018 983e 2c14 993b
00000260: 4032 6dbb 79b7 a33b a29f 54bc e58e 633f
00000270: d43c 8f3c de63 d1bb b8d4 c6be b720 1dbf
00000280: 2aaa 7bb9 69e4 7ebe 7e1b 113f 588a 12bc
00000290: 8855 49c0 bc08 333e 77e7 58bb 7704 1cbf
000002a0: d4eb 903c e371 1abf 3d22 a0bb 8e29 cbbb
000002b0: e265 08bb 6ac3 2a3b 24d7 c0bb 0e76 fc3a
000002c0: 8d10 0a3b 9786 2f3f 4a97 713b f5b1 d2bc
000002d0: a1ea f43a d9c9 813c 4a69 b03b f99f c83b
000002e0: 03f4 623e c249 033d efdb 933c 0bd6 61bd
000002f0: b6f3 e13e 12e1 90bb bc39 1ac0 3324 f83b
00000300: 82f6 873e 479e a4bc b135 4ebc 7fc6 febd
00000310: 64af d9bb 1b4c 0e3c 6c5d e2bb 499a dfbe
00000320: 6411 a13d fae5 d1be 3c20 463b bdc3 513e
00000330: 6ebb cbbb 0452 033c d418 c13b a6a5 1fbc
00000340: 9b97 74bb 6502 6cbb 0892 f63c 5292 f1bc
00000350: 835a 023b 5c79 cd3b fae9 78bb 1601 b1bb
00000360: 62a6 5e3f d256 81bd 1248 26bb 7924 f1bb
00000370: 677f 3b3c c5ed b1ba d125 4cbc 4706 1abc
00000380: ed2d 32bc 78d6 1ebf ca22 86bd 8c2a e7be
00000390: f725 32bb 4a20 123b 06f2 393e 6d3d 673e
000003a0: 4012 fd3c 4a04 133e 8783 b63e 37c9 c7bb
000003b0: 7580 d0b9 2c19 153e 385c bebc be93 e4bf
000003c0: 5767 e5ba 04bd b83d 5b62 feba 3435 643a
000003d0: 39f1 1bbe 6648 e6ba a62c 35ba 9246 1c3b
000003e0: 4337 3e3e a517 b23c d88e 36bf c331 5abc
000003f0: ba5b fbbe c235 9b3b 3bf8 b73d c0fd a5ba

model.2.bias f4 [256]
-0.070338175 -0.0045772796 0.013547799 -0.0005018332 -0.03751335 0.046459883 -0.027906867 0.09199365
-0.016663995 -0.054511838 -0.0047838963 -0.18126094 -0.0041468665 0.005129806 -0.0031406463 -0.021364685
-0.0014088874 -0.0047805957 -0.24419507 -0.36416337 -0.0058140275 -0.19235998 -0.0053459704 -0.0040753563
-0.12418469 -0.061492395 -0.025836058 -0.009921679 -0.111614496 -0.23204319 -0.1242242 0.03467322
-0.004290003 -0.0048972163 -0.0038039614 -0.25207603 -0.005045892 -0.009938109 -0.009211038 0.18871662
0.077402934 -0.0006687022 -0.297156 0.102909155 -0.003954904 -0.0015663865 -0.0055741305 -0.016419051
0.05715474 -0.007852765 -0.09962022 0.12103215 -0.13111173 -0.29002938 -0.1992541 -0.0077785286
-0.25504187 -0.0058535845 0.12527287 -0.033138413 -0.0043664817 -0.22361326 -0.059204344 -0.024587534
-0.007126009 0.041831695 0.12763654 -0.30281097 0.031275272 -0.13029765 -0.27165806 -0.00124008
0.100339696 -0.15453696 0.05880486 -0.00435159 -0.14874893 0.022759816 -0.0053402134 0.11431437
-0.24369012 -0.030269865 -0.12519519 -0.0042784256 -0.002921112 -0.06335508 -0.0045787683 -0.052109666
-0.0703699 -0.0024977475 0.04796665 -0.01887921 0.04605819 -0.02781363 -0.010054074 -0.08397193
-0.0024141395 -0.24377532 -0.003902073 -0.12586103 -0.23012796 -0.0010075424 0.050146483 -0.0071755424
-0.0030417298 -0.028713178 0.07317381 0.1044843 -0.2786144 -0.07949136 0.11856055 -0.07149179
0.044511694 -0.0036405562 -0.0103895245 -0.0033221096 -0.32639855 -0.0053926017 -0.098265216 -0.006799568
-0.15717939 -0.0062158336 0.028542604 -0.007090207 -0.0035849432 -0.2931593 0.09815533 -0.28340745
-0.048209425 -0.010767565 -0.12415974 -0.18035048 -0.108018726 -0.10273643 -0.11457995 -0.0010224187
-0.3737908 0.07960793 -0.1367126 -0.008104218 0.108152784 -0.14248995 -0.010413179 -0.00510424
-0.08941656 -0.0043964735 0.035922527 0.16383341 -0.10055865 -0.004855515 -0.070369214 -0.004497465
-0.07024198 -0.0044602915 0.21857923 -0.0040463186 0.12459682 -0.011503589 -0.21259552 -0.008382822
-0.005861468 0.024586048 0.027980175 -0.010246438 -0.11872629 -0.005104834 -0.0030436327 0.09274371
-0.022125822 0.016581368 -0.0050570434 -0.05608581 -0.053623863 -0.20775789 -0.019416073 0.2001854
-0.26961556 -0.046624497 -0.031228092 -0.11003737 0.09170117 -0.123968706 -0.0053478344 -0.12179205
-0.0094303675 0.029514555 -0.0027837227 0.07818906 -0.0021129434 0.12802777 0.002816061 0.1668606
-0.0130774565 -0.0034319006 -0.14252576 -0.06935777 0.13540389 0.10668707 0.08102938 -0.006837671
0.07961202 -0.004474753 -0.0038270133 0.10352947 -0.019646242 0.10051101 -0.22762313 0.016819622
-0.22165784 -0.22434367 -0.008586305 -0.008197215 0.108015515 -0.20975794 -0.003625612 -0.24072103
-0.0181808 -0.0029660284 -0.006517592 0.01707373 -0.034641784 -0.0034380204 -0.21839964 -0.0028220096
0.055463508 -0.08658271 -0.07431921 -0.016309679 0.08558103 -0.011199362 -0.2055904 -0.037428223
-0.0050567524 0.081001155 -0.0038469518 -0.2893456 -0.14835028 -0.019189019 -0.02474361 0.014592316
-0.12670133 -0.14002274 0.07370132 -0.037519317 0.053741205 -0.0034546792 -0.1494504 -0.2976379
0.12626527 -0.00930932 0.1593122 -0.0031103902 0.083558865 -0.005731974 -0.0041991873 0.038603533
00000000: 760d 90bd 01fd 95bb 96f7 5d3c 758d 03ba
00000010: 99a7 19bd b84c 3e3d f19c e4bc 2b67 bc3d
00000020: ee82 88bc ce47 5fbd 3bc2 9cbb 789c 39be
00000030: 70e2 87bb ef17 a83b 4dd3 4dbb fe04 afbc
00000040: 6baa b8ba 8ba6 9cbb 460e 7abe 9f73 babe
00000050: 9983 bebb 04fa 44be 402d afbb 918a 85bb
00000060: 8b54 febd 73df 7bbd 24a6 d3bc 8a8e 22bc
00000070: 2496 e4bd bb9c 6dbe 4269 febd 8205 0e3d
00000080: 2793 8cbb d478 a0bb e24b 79bb 1c10 81be
00000090: 0358 a5bb 73d3 22bc e5e9 16bc ee3e 413e
000000a0: 6e85 9e3d d84b 2fba d524 98be 09c2 d23d
000000b0: 2498 81bb 364f cdba 32a7 b6bb 3f81 86bc
000000c0: 171b 6a3d e2a8 00bc b005 ccbd b4df f73d
000000d0: 2742 06be bb7e 94be 4409 4cbe 07e3 febb
000000e0: d994 82be 6dcf bfbb 8847 003e 25bc 07bd
000000f0: b414 8fbb e0fa 64be 4180 72bd cc6b c9bc
00000100: 4c81 e9bb b657 2b3d 27b3 023e 0a0a 9bbe
00000110: 801a 003d bf6c 05be c416 8bbe 2e8a a2ba
00000120: e67e cd3d f03e 1ebe 5ddd 703d c897 8ebb
00000130: a451 18be cb72 ba3c f5fc aebb a71d ea3d
00000140: e789 79be 82f8 f7bc 2b33 00be 0932 8cbb
00000150: 2170 3fbb 4fc0 81bd 7e09 96bb f270 55bd
00000160: 181e 90bd 40b1 23bb ae78 443d 93a8 9abc
00000170: 83a7 3c3d 69d9 e3bc d8b9 24bc 7af9 abbd
00000180: 8a36 1ebb 3da0 79be ecb9 7fbb b7e1 00be
00000190: aaa6 6bbe 830f 84ba 6666 4d3d d020 ebbb
000001a0: c257 47bb e637 ebbc 27dc 953d ddfb d53d
000001b0: 8ca6 8ebe 5ecc a2bd e0cf f23d 4a6a 92bd
000001c0: e551 363d 6696 6ebb d338 2abc c0b7 59bb
000001d0: b61d a7be 6cb4 b0bb 463f c9bd e9ce debb
000001e0: a2f3 20be 31ae cbbb 2ed2 e93c f854 e8bb
000001f0: 5ef1 6abb fa18 96be a905 c93d c81a 91be
00000200: 3f77 45bd 716a 30bc 7647 febd ccad 38be
00000210: ec38 ddbd 7a67 d2bd e5a8 eabd ae02 86ba
00000220: 8261 bfbe 7b09 a33d 63fe 0bbe 8ec7 04bc
00000230: 357f dd3d e3e8 11be 0a9c 2abc 7841 a7bb
00000240: 0820 b7bd 4b10 90bb 8023 133d f2c3 273e
00000250: b2f1 cdbd 031b 9fbb bc1d 90bd 795f 93bb
00000260: 07db 8fbd a327 92bb 3cd3 5f3e fb96 84bb
00000270: 9e2c ff3d 8d79 3cbc a4b2 59be 1b58 09bc
00000280: 8f11 c0bb ae68 c93c ae36 e53c ade0 27bc
00000290: c526 f3bd 7446 a7bb af77 47bb 6af0 bd3d
000002a0: 3641 b5bc a6d5 873c 8eb5 a5bb 3cba 65bd
000002b0: b2a4 5bbd 7cbe 54be 750e 9fbc 67fd 4c3e
000002c0: 0d0b 8abe 54f9 3ebd 0ed2 ffbc 465b e1bd
000002d0: d3cd bb3d 4ee3 fdbd e33c afbb 1c6e f9bd
000002e0: d481 1abc 82c8 f13c 1e6f 36bb 9621 a03d
000002f0: 4f79 0abb b619 033e aa8d 383b 81dd 2a3e
00000300: d442 56bc bde9 60bb 46f2 11be 720b 8ebd
00000310: 51a7 0a3e c07e da3d bbf2 a53d 8b0e e0bb
00000320: a00b a33d f3a0 92bb a1ce 7abb 4207 d43d
00000330: 28f1 a0bc b7d8 cd3d 0a16 69be 4ec9 893c
00000340: 46fa 62be 59ba 65be 93ad 0cbc 9d4d 06bc
00000350: 3d37 dd3d c9ca 56be ad9b 6dbb 937f 76be
00000360: e7ef 94bc b361 42bb 8691 d5bb 35de 8b3c
00000370: 8be4 0dbd 6950 61bb 28a4 5fbe 77f1 38bb
00000380: b42d 633d 4752 b1bd ac34 98bd e09b 85bc
00000390: 1b45 af3d 877d 37bc 4a86 52be 564e 19bd
000003a0: 1db3 a5bb efe3 a53d 241d 7cbb 1b25 94be
000003b0: 23e9 17be 4a32 9dbc 1cb3 cabc 9c14 6f3c
000003c0: febd 01be 1f62 0fbe b8f0 963d dbad 19bd
000003d0: bd1f 5c3d e667 62bb 8709 19be ff63 98be
000003e0: af4b 013e 1e86 18bc bd22 233e b0d7 4bbb
000003f0: e920 ab3d 48d3 bbbb 5699 89bb bd1e 1e3d

model.4.weight f4 [256, 256]
-0.3099053 0.003937918 0.0041778376 0.076506376 -0.035822093 -0.16066062 0.12550692 -0.17808084
0.014715837 -0.7629758 -0.010614086 -0.064260535 -0.0133707 0.54613966 -0.009491792 -0.028686237
-0.00011197793 0.011279853 -0.01640867 0.35648477 0.15051268 0.190716 -0.0033704857 0.010304127
0.37813616 -0.08909718 -0.45076162 0.007764694 0.016836058 0.025248569 0.20984702 -0.045478884
-0.00086421793 0.004477425 0.056506198 0.118419364 0.0011058544 0.0051140618 -0.0048318547 0.16841283
0.13218895 -0.005500241 0.03448311 -0.016956007 0.0019636496 -0.009743071 0.008884898 0.0059738867
-0.08574417 -0.038371135 0.108218186 0.059765846 -0.17591122 0.066004165 0.056698382 0.0053899544
0.05230534 -0.013267563 0.12653486 0.03274186 0.004703168 0.15577841 0.28080454 0.11014492
0.017154641 0.15525462 0.08887457 0.12849447 0.0036182501 0.09809001 0.08864712 0.0065471195
-0.009079026 0.098907895 0.14561012 0.0040374678 0.16525379 -0.9960551 -0.0039232117 0.020880947
0.09200903 -0.12047995 0.18811126 -0.010811796 -0.0021994698 -0.97411567 -0.012013646 -0.04786842
-0.013835238 0.013275114 -0.5316757 -0.0941248 0.1549348 -0.13724001 -0.018527646 -0.11205111
-0.0065080496 -0.52860373 -0.0031043782 0.0701205 -0.27693075 -0.004618056 0.12956066 0.008253606
0.008103565 0.097203046 -0.10386225 -0.10160868 -0.13112831 0.041835595 -0.0872196 -0.020190166
0.4640218 0.10689958 0.023229828 0.006830906 0.51577437 0.0070013492 0.26564255 0.0017625911
-0.06735097 0.0124285985 -0.10995567 0.001240943 0.009104868 -0.022396106 -0.11488595 -1.0363892
-0.05303278 0.010823403 0.21787551 -6.8509727 -0.20233229 0.13200785 -0.4970697 0.0006066654
0.14824672 -0.050689716 0.05614561 -0.0017933672 0.1497867 0.056865007 -0.006486054 -0.0015268081
0.36480296 -0.007327681 -0.3648281 0.17576048 0.9508284 -0.0008484645 -0.113088354 -0.00863254
0.05507639 -0.0021807875 0.051372264 -0.0067958366 -0.020723552 -0.0035776007 -0.41429916 -0.00930976
-0.008552181 -0.033971973 0.15747848 -0.0053032422 0.1744228 0.007727083 0.0068571963 0.11241786
0.11511323 -0.024717424 0.0036987748 0.012426506 -0.10069825 -0.122036904 0.011334558 -0.03184236
0.04942193 0.25612158 0.031622443 0.26965612 0.03172357 -0.6272285 0.0014228944 0.18821782
-0.0029422266 0.014464781 -0.0036725402 0.044589154 0.0056209033 0.43227562 0.16950548 0.09671874
-0.09909986 0.0009392717 0.10425533 0.13612604 0.080839194 0.037861686 -0.01767743 0.0042217574
-0.06645089 -0.006949351 0.0031207267 0.13029344 0.8039365 -0.19638483 -1.3388697 -0.089323044
0.15270461 0.11187041 -0.003686715 -0.0035437348 -0.05898979 0.13896492 0.006740086 0.011776734
-0.027806077 -0.0040664254 -0.0021060617 0.017668042 -0.04085174 0.010243991 -0.025393156 -0.0063853
0.43971652 0.09084358 0.16897658 0.009703921 -0.03743177 0.01582708 0.0032173481 -0.06556905
0.00794308 0.20002207 -0.0109076165 0.11213596 -0.04981237 -0.18952675 -0.008428184 0.04100383
-0.03839101 0.011147266 0.054532737 0.09039233 0.171044 -0.013021106 0.009856302 0.012937114
-0.27672362 0.01533212 -0.03065469 0.008647374 -0.031326253 -0.008114967 -0.019351117 0.31525597
00000000: e8ab 9ebe a709 813b 3ee6 883b 60af 9c3d
00000010: 30ba 12bd 3884 24be e384 003e d35a 36be
00000020: b21a 713c 6252 43bf b4e6 2dbc 079b 83bd
00000030: c810 5bbc cfcf 0b3f 7683 1bbc 66ff eabc
00000040: b2d5 eab8 22cf 383c 7a6b 86bc 2c85 b63e
00000050: ff1f 1a3e 0e4b 433e 5ee3 5cbb a4d2 283c
00000060: 109b c13e 9578 b6bd 3aca e6be f96e fe3b
00000070: c6eb 893c 16d6 ce3c 23e2 563e 1148 3abd
00000080: af8c 62ba 5db7 923b 0b73 673d da85 f23d
00000090: 51f2 903a dc93 a73b 8954 9ebb 6a74 2c3e
000000a0: 8a5c 073e 5e3b b4bb 293e 0d3d 53e7 8abc
000000b0: 93b0 003b 67a1 1fbc f791 113c 98c0 c33b
000000c0: a49a afbd 0d2b 1dbd 7fa1 dd3d 08cd 743d
000000d0: 1222 34be 312d 873d 903c 683d 379e b03b
000000e0: 203e 563d 3160 59bc 5b92 013e 541c 063d
000000f0: 081d 9a3b 6084 1f3e 9dc5 8f3e a993 e13d
00000100: e487 8c3c 11fb 1e3e df03 b63d 0e94 033e
00000110: 2a20 6d3b 6ae3 c83d 9f8c b53d 3889 d63b
00000120: 32c0 14bc 3990 ca3d d21a 153e bc4c 843b
00000130: 4a38 293e 78fd 7ebf 498e 80bb 850e ab3c
00000140: 3b6f bc3d 31be f6bd 3da0 403e f623 31bc
00000150: fb24 10bb a55f 79bf e2d4 44bc ad11 44bd
00000160: 32ad 62bc dd7f 593c e61b 08bf 81c4 c0bd
00000170: 3aa7 1e3e a588 0cbe 4ac7 97bc 0d7b e5bd
00000180: 7a41 d5bb 9352 07bf d372 4bbb 569b 8f3d
00000190: dec9 8dbe 1053 97bb 8dab 043e 223a 073c
000001a0: d1c4 043c 6412 c73d bbb5 d4bd 3618 d0bd
000001b0: 8046 06be cd5b 2b3d 31a0 b2bd d965 a5bc
000001c0: 4494 ed3e 2bee da3d 7b4c be3c cbd5 df3b
000001d0: ca09 043f 936b e53b 4d02 883e be06 e73a
000001e0: 4eef 89bd 52a1 4b3c 7030 e1bd 23a7 a23a
000001f0: 962c 153c 0a78 b7bc 5349 ebbd 67a8 84bf
00000200: e638 59bd a454 313c c21a 5f3e 2b3b dbc0
00000210: 3230 4fbe 112d 073e eb7f febe a008 1f3a
00000220: fdcd 173e 05a0 4fbd f0f8 653d 6b0f ebba
00000230: af61 193e 48eb 683d f788 d4bb 2e1f c8ba
00000240: 74c7 ba3e 0b1d f0bb c0ca babe 8efa 333e
00000250: 7d69 733f 7d6b 5eba de9a e7bd 7f6f 0dbc
00000260: c897 613d 8beb 0ebb b96b 523d 9caf debb
00000270: 70c4 a9bc 2e76 6abb 051f d4be f787 18bc
00000280: 721e 0cbc 3226 0bbd 0a42 213e d2c6 adbb
00000290: e49b 323e 7833 fd3b 55b2 e03b 563b e63d
000002a0: 7cc0 eb3d 327c cabc 2567 723b 8b98 4b3c
000002b0: e23a cebd 7cee f9bd 95b4 393c 226d 02bd
000002c0: a66e 4a3d 5e22 833e 8986 013d 5e10 8a3e
000002d0: 93f0 013d 0c92 20bf 6a80 ba3a 2cbc 403e
000002e0: 5fd2 40bb b0fd 6c3c 00af 70bb 1ea3 363d
000002f0: 8e2f b83b 3b53 dd3e d892 2d3e 7a14 c63d
00000300: def4 cabd 7539 763a d283 d53d a064 0b3e
00000310: 058f a53d db14 1b3d 42d0 90bc ab56 8a3b
00000320: 6717 88bd 62b7 e3bb 1b85 4c3b a56b 053e
00000330: c8ce 4d3f 1b19 49be 1560 abbf 00ef b6bd
00000340: 995e 1c3e 501c e53d d09c 71bb 013e 68bb
00000350: 479f 71bd d24c 0e3e f0db dc3b 34f3 403c
00000360: 92c9 e3bc a63f 85bb da05 0abb 92bc 903c
00000370: 2754 27bd 6ad6 273c 4f05 d0bc c73b d1bb
00000380: 8622 e13e 330c ba3d 3208 2d3e 32fd 1e3c
00000390: 0e52 19bd cba7 813c 25da 523b 1149 86bd
000003a0: b123 023c 96d2 4c3e dcb5 32bc 8aa7 e53d
000003b0: 0e08 4cbd 4d13 42be 5e16 0abc a2f3 273d
000003c0: e43f 1dbd 06a3 363c b85d 5f3d 9d1f b93d
000003d0: 2926 2f3e 7a56 55bc 547c 213c 30f6 533c
000003e0: b8ae 8dbe 9233 7b3c 8b1f fbbc b7ad 0d3c
000003f0: f54f 00bd a3f4 04bc 3c86 9ebc 3b69 a13e

model.4.bias f4 [256]
0.08047124 0.19838694 -0.0042241155 0.013002249 0.15065989 0.094673544 0.08025864 0.014302633
-0.060568016 -0.036743637 -0.003217506 -0.0035862415 0.09810379 -0.0047993255 -0.029312123 -0.0068310774
0.063341714 -0.007694406 -0.012066605 -0.0735766 0.048901603 -0.06500877 0.030999787 -0.1442052
-0.0039610337 0.14014532 -0.058012985 0.19307357 0.06679765 0.0048674513 -0.19501413 0.033252187
0.014760285 -0.1361408 -0.005196643 -0.006951399 -0.03234676 0.02289782 0.029421182 0.17396246
0.121994965 0.010391632 0.033296295 0.09681282 -0.08550229 0.068049595 -0.0068483525 -0.0026421612
-0.028622996 0.05381141 -0.10017699 0.0031061615 0.101401985 -0.006119152 -0.002100198 -0.011739743
-0.0089915255 -0.038974233 0.02199496 -0.016028225 -0.00817586 -0.04825668 -0.0031437832 0.021518797
-0.005642574 -0.003938977 0.08019848 0.0035867272 -0.033089295 -0.04082308 -0.098901816 -0.025456794
-0.08805132 -0.0032999942 -0.007122356 0.15748993 -0.07171526 -0.0060525965 0.02074656 -0.00498341
0.11555319 -0.09113378 0.06010867 -0.010311437 -0.0053410474 -0.10522833 -0.059415992 -0.13646208
-0.0048732404 -0.003986003 -0.028938292 0.1884112 0.008033144 -0.040377855 0.068376325 -0.0038813734
0.1315192 0.09771012 0.049096096 0.1843088 -0.0032060447 -0.058320887 -0.035394937 -0.0052531213
-0.00835314 0.19492473 -0.012702768 -0.0020987503 -0.005048537 0.037457906 0.06942712 0.04844486
-0.0026342336 0.1322862 -0.03510095 -0.007578033 -0.0075456034 0.02350754 0.02268708 -0.007275343
0.11355678 -0.076182954 0.0978727 -0.050264828 0.040416803 0.070523515 0.036214694 -0.036384016
-0.023701122 -0.007157637 0.082582526 0.044376217 -0.15521555 0.07849323 0.087125 -0.086785644
-0.011792667 0.072916955 -0.044664357 -0.0055199955 0.1829516 -0.016598687 -0.003709504 0.09151918
-0.0049210545 -0.009601486 0.14787671 -0.002923071 -0.0051135 -0.0069387453 -0.012036504 -0.007202386
-0.00072588574 0.04284132 0.071883224 -0.0066282433 -0.023308005 0.19894066 -0.0049037077 0.13664906
0.17939559 -0.031310633 0.13177054 -0.0050596856 -0.12856539 -0.081212066 0.12011872 -0.006298566
0.09416028 0.023512047 0.1903659 0.13744691 0.19767378 -0.098757215 -0.0023333314 -0.0041023036
-0.025661865 -0.048778124 0.19100083 -0.0042030206 0.015590575 -0.10757104 0.054925848 0.027529968
0.0224011 -0.10424311 0.051717356 -0.037191786 -0.014093241 -0.0036758052 -0.0047298055 -0.005873817
0.04252 -0.034778897 0.022337511 -0.027595561 -0.1965979 -0.011256806 -0.054310918 0.014872601
0.050147917 0.023931937 -0.0068662874 0.043969367 -0.011325756 -0.11710113 -0.0063744397 -0.013198685
0.09476616 -0.0038508046 -0.0074010654 -0.0041664634 -0.07224796 0.12592037 -0.003147763 -0.003913052
-0.0071872645 0.12123353 -0.09237953 0.07225603 0.14164656 0.11631896 0.026786856 -0.14717335
0.10690722 0.020990593 -0.00799753 0.11739123 0.056732528 -0.0050213747 -0.06128407 -0.061456855
-0.039742704 -0.053287055 -0.008582233 -0.004681281 -0.02067504 0.16192923 -0.0048799054 0.077009104
0.12073774 -0.003838776 -0.013362569 0.028089138 0.045328423 -0.029335909 0.098996334 -0.014146839
-0.009597068 0.1449549 0.10606844 -0.004270604 0.027700227 -0.08095747 0.18123998 0.031550474
00000000: 1bce a43d f225 4b3e 736a 8abb 6307 553c
00000010: 9646 1a3e 34e4 c13d a45e a43d 9755 6a3c
00000020: 2b16 78bd 7f80 16bd cbdc 52bb 2607 6bbb
00000030: a4ea c83d a943 9dbb fa1f f0bc 3bd7 dfbb
00000040: 4db9 813d 5b21 fcbb 02b3 45bc 54af 96bd
00000050: 0c4d 483d 5123 85bd 44f3 fd3c 87aa 13be
00000060: 8fcb 81bb 4182 0f3e 069f 6dbd 14b5 453e
00000070: 35cd 883d 247f 9f3b c9b1 47be 7233 083d
00000080: 1fd5 713c 7e68 0bbe 9a48 aabb 90c8 e3bb
00000090: 097e 04bd 3694 bb3c b104 f13c 3723 323e
000000a0: 7fd8 f93d aa41 2a3c b261 083d cd45 c63d
000000b0: d31b afbd 965d 8b3d 2568 e0bb 1c28 2dbb
000000c0: c67a eabc 5a69 5c3d 9829 cdbd be90 4b3b
000000d0: d8ab cf3d 2b83 c8bb 7aa3 09bb 0d58 40bc
000000e0: 3151 13bc 72a3 1fbd c62e b43c a04d 83bc
000000f0: 0bf4 05bc cca8 45bd ee07 4ebb 3048 b03c
00000100: 57e5 b8bb 8912 81bb 1a3f a43d 4c0f 6b3b
00000110: a488 07bd 1a36 27bd 098d cabd c48a d0bc
00000120: 4054 b4bd b744 58bb a762 e9bb 0a45 213e
00000130: 73df 92bd dc54 c6bb b1f4 a93c df4b a3bb
00000140: 27a7 ec3d 59a4 babd 8234 763d 4df1 28bc
00000150: f403 afbb f381 d7bd 2f5e 73bd b7bc 0bbe
00000160: b4af 9fbb 049d 82bb ff0f edbc deee 403e
00000170: 739d 033c 4063 25bd e308 8c3d a45e 7ebb
00000180: f8ac 063e 3e1c c83d fd18 493d 72bb 3c3e
00000190: 811c 52bb e2e1 6ebd 48fa 10bd 6022 acbb
000001a0: 9cdb 08bc 599a 473e 451f 50bc 308b 09bb
000001b0: 336e a5bb 766d 193d ce2f 8e3d 1e6e 463d
000001c0: 1ba3 2cbb 0976 073e 04c6 0fbd 2651 f8bb
000001d0: 1c41 f7bb e292 c03c 41da b93c 0066 eebb
000001e0: 7590 e83d cf05 9cbd 7b71 c83d 7ee2 4dbd
000001f0: 178c 253d a26e 903d dc55 143d 6807 15bd
00000200: db28 c2bc 9c8a eabb 0721 a93d d6c3 353d
00000210: d3f0 1ebe 0fc1 a03d 986e b23d acbc b1bd
00000220: 0836 41bc 7c55 953d f9f1 36bd 14e1 b4bb
00000230: aa57 3b3e f8f9 87bc 261b 73bb 686e bb3d
00000240: cc40 a1bb 8d4f 1dbc fe6c 173e fe90 3fbb
00000250: 268f a7bb 6a5e e3bb c234 45bc fe01 ecbb
00000260: 5e49 3eba 617a 2f3d 8337 933d bc31 d9bb
00000270: 6ef0 bebc 1ab7 4b3e 48af a0bb bbed 0b3e
00000280: 7ab3 373e 943f 00bd dbee 063e b8cb a5bb
00000290: a5a6 03be 8352 a6bd ce00 f63d 3364 cebb
000002a0: 1bd7 c03d 569c c03c 47ef 423e e2be 0c3e
000002b0: ff6a 4a3e 3941 cabd ceea 18bb 9e6c 86bb
000002c0: d538 d2bc 92cb 47bd b995 433e 7eb9 89bb
000002d0: 9c6f 7f3c 354e dcbd edf9 603d 8786 e13c
000002e0: 8382 b73c 697d d5bd 94d5 533d 6a56 18bd
000002f0: 56e7 66bc c7e5 70bb 7cfc 9abb 2679 c0bb
00000300: 7429 2e3d 5174 0ebd 28fd b63c 1610 e2bc
00000310: f650 49be 776e 38bc 2075 5ebd 36ac 733c
00000320: e767 4d3d e90c c43c 98fe e0bb 3919 343d
00000330: aa8f 39bc b8d2 efbd ade0 d0bb 4c3f 58bc
00000340: c314 c23d c85d 7cbb a384 f2bb d486 88bb
00000350: bdf6 93bd 45f1 003e b34a 4ebb 0f39 80bb
00000360: 2583 ebbb 4949 f83d 7b31 bdbd f8fa 933d
00000370: cc0b 113e a338 ee3d 1c70 db3c 9cb4 16be
00000380: 2cf2 da3d 77f4 ab3c 1208 03bc d06a f03d
00000390: 5e60 683d 588a a4bb 0105 7bbd 2fba 7bbd
000003a0: 3fc9 22bd 8743 5abd 7f9c 0cbc 6e65 99bb
000003b0: b45e a9bc c7d0 253e 9de7 9fbb f3b6 9d3d
000003c0: 5945 f73d f993 7bbb adee 5abc 311b e63c
000003d0: 4caa 393d dc51 f0bc 97be ca3d 25c8 67bc
000003e0: 053d 1dbc 0f6f 143e 693a d93d 6cf0 8bbb
000003f0: 96eb e23c 08cd a5bd f996 393e 123b 013d

model.6.weight f4 [1, 256]
0.37577984 0.19616826 0.0030642503 -0.9564775 0.12619533 0.23817004 0.36920536 -0.47427967
-2.6951814 0.005144287 0.0064814524 2.5311778e-05 0.25544637 -0.0010109886 -0.37628302 -0.0016307952
-0.4833975 0.0051397914 0.00083032 -1.0132388 -0.8526149 -2.0830271 -3.6813684 -0.52057105
-0.01062492 0.37975615 0.020672925 0.27458557 0.30917796 -0.85243136 -0.2131808 -1.791856
-1.1658484 2.3839703 -0.00020249031 0.002170278 -2.345186 0.4078538 -1.128328 0.65402144
0.66532606 -1.3900998 -0.89699906 0.7140716 -0.85032105 0.30945596 0.004018678 0.0097381575
-0.013106287 -0.33828464 -3.7788374 -0.12622273 0.55508256 0.007990541 0.007619252 -0.01022164
-0.9711367 0.0056326687 -2.4751701 -1.8751366 0.0055618235 -0.95823413 -0.9581137 -3.3021107
0.02490299 0.00165143 -0.5363862 -5.998677 -0.013061047 -0.84362054 -1.7102121 -0.6039138
-1.5912321 -0.0036318954 0.001047994 0.12798157 -0.8156483 0.010484591 2.9998698 -0.009296398
0.24094558 -2.3790245 -1.4898728 0.0061442587 -0.63110244 -1.0526961 -0.6536283 -3.294608
0.006132257 0.0058665103 -3.3174205 0.184958 -3.7433054 -4.275431e-05 -0.22727977 0.00096592575
0.550169 0.06065451 -0.70017403 0.17893107 -0.8242157 -0.5188745 0.022049941 0.0033932123
0.0012437804 0.2745873 0.0030219993 0.0032921892 0.0021512983 -5.6616235 0.027041385 -0.64623785
-0.016003741 0.55538344 0.0017614973 0.023511833 0.00073261664 -1.9541523 -6.5991144 -1.043999
-1.4639275 -0.9320361 0.24703625 -0.78079146 -0.45983616 2.5464644 -7.298739 -2.0633497
0.0033144495 0.0020491295 0.34553674 -0.41779512 -3.6383286 -1.8374802 0.25144133 -2.3353238
0.011718005 0.32041377 -0.0018224496 0.010296409 0.17309704 0.0046510003 0.0088446895 0.23077953
0.010948568 0.0063912487 0.1688994 -0.0030425012 0.005273498 0.00065436366 0.0067810076 0.0074805664
-0.09144389 -0.3740465 -0.6867066 -0.0003346965 0.0028640877 0.20124476 5.4911117e-05 1.0974088
0.67414016 3.0250037 0.3097853 0.015593881 -0.35174218 -0.06898197 0.3613024 0.0043678517
0.23737873 -2.311452 0.18919218 1.0997797 0.19534874 0.6438508 0.010835161 0.027123332
-11.788 0.005286897 0.18711795 0.0006193169 -1.7600822 -0.15500759 -0.47373083 -0.69286716
-1.0157465 -2.2563276 -0.37024447 -0.0034472488 0.009051005 0.0024425753 0.004561848 -0.010984889
-3.176621 -1.3030728 -0.5362634 0.0019912084 -3.5908628 0.0044649853 -1.3615777 1.3799279
-1.6717328 -1.3704871 0.008120562 -2.5181048 -0.0068029687 -0.7685813 0.008086785 0.0043203277
0.23874773 0.0037600566 -0.00022071176 0.0010783821 4.739451 0.08883455 -1.822269 0.0036408545
0.0040822867 0.38220304 -6.1507044 0.0322372 0.634848 0.24814716 -2.023767 -2.914792
0.072316594 -0.54396933 -0.0024141667 0.08014611 -0.552845 0.0042146025 -1.3369883 -1.59688
-0.6407649 -0.5498993 0.0046965424 -1.7120874 0.006328176 0.19629715 -0.015143486 0.041417427
0.36572227 0.0013636508 0.017010175 -0.99608815 1.5984725 0.0084363865 0.24619761 -7.9703307
0.0009813292 0.11215584 0.07264077 0.01118274 -2.2343254 2.4123023 0.17238669 -0.87473863
00000000: 3766 c03e 55e0 483e 97d1 483b b6db 74bf
00000010: 5939 013e d9e2 733e 7c08 bd3e c9d4 f2be
00000020: da7d 2cc0 6891 a83b 5d62 d43b a154 d437
00000030: dec9 823e 2683 84ba 2ba8 c0be 68c0 d5ba
00000040: e17f f7be b26b a83b d5a9 593a cfb1 81bf
00000050: f844 5abf 5150 05c0 8a9b 6bc0 2544 05bf
00000060: 2514 2ebc 666f c23e 445a a93c 7b96 8c3e
00000070: 934c 9e3e f138 5abf 114c 5abe 8a5b e5bf
00000080: 853a 95bf f892 1840 9453 54b9 393b 0e3b
00000090: 8717 16c0 37d2 d03e 0d6d 90bf f36d 273f
000000a0: cf52 2a3f caee b1bf bba1 65bf 65cd 363f
000000b0: a4ae 59bf 0371 9e3e 1daf 833b cb8c 1f3c
000000c0: c1bb 56bc a533 adbe 79d8 71c0 8840 01be
000000d0: e419 0e3f c2ea 023c ebaa f93b aa78 27bc
000000e0: 6a9c 78bf 4092 b83b 3069 1ec0 7a04 f0bf
000000f0: f53f b63b d54e 75bf f046 75bf c855 53c0
00000100: 5b01 cc3c cc74 d83a 9b50 09bf 29f5 bfc0
00000110: 00fe 55bc 84f7 57bf 3be8 dabf 189a 1abf
00000120: 7ead cbbf 1805 6ebb d85c 893a 9a0d 033e
00000130: 54ce 50bf 90c7 2b3c defd 3f40 eb4f 18bc
00000140: 70ba 763e f041 18c0 27b4 bebf c755 c93b
00000150: ee8f 21bf bfbe 86bf 2f54 27bf dcda 52c0
00000160: 1af1 c83b db3b c03b 9e50 54c0 a165 3d3e
00000170: 5192 6fc0 1753 33b8 07bc 68be 2e36 7d3a
00000180: e0d7 0c3f dd70 783d 9b3e 33bf b539 373e
00000190: cdff 52bf f6d4 04bf 14a2 b43c a860 5e3b
000001a0: 5806 a33a b596 8c3e bc0c 463b c5c1 573b
000001b0: ccfc 0c3b 052c b5c0 e585 dd3c d86f 25bf
000001c0: 471a 83bc 9c2d 0e3f 0be2 e63a e39b c03c
000001d0: 120d 403a aa21 fabf f22b d3c0 c2a1 85bf
000001e0: fa61 bbbf eb99 6ebf 12f7 7c3e f3e1 47bf
000001f0: a56f ebbe 46f9 2240 458f e9c0 ec0d 04c0
00000200: 3c37 593b b04a 063b 31ea b03e 3ee9 d5be
00000210: 60da 68c0 8d32 ebbf ebbc 803e f275 15c0
00000220: e0fc 3f3c 460d a43e 43df eeba 45b2 283c
00000230: 5a40 313e 6b67 983b 51e9 103c 7851 6c3e
00000240: 9f61 333c ae6d d13b f7f3 2c3e b364 47bb
00000250: 4fcd ac3b 9a89 2b3a 3733 de3b 8a1f f53b
00000260: ef46 bbbd 0683 bfbe 01cc 2fbf 347a afb9
00000270: 6bb3 3b3b 1b13 4e3e 5d50 6638 e477 8c3f
00000280: 7394 2c3f a999 4140 2e9c 9e3e 7a7d 7f3c
00000290: 8d17 b4be 6b46 8dbd a1fc b83e 3220 8f3b
000002a0: 6913 733e d4ee 13c0 98bb 413e 95c5 8c3f
000002b0: 8009 483e 68d3 243f f685 313c c031 de3c
000002c0: a69b 3cc1 b53d ad3b d99b 3f3e a759 223a
000002d0: 604a e1bf 4fba 1ebe d98c f2be be5f 31bf
000002e0: fb03 82bf ac67 10c0 af90 bdbe 3deb 61bb
000002f0: ab4a 143c 9d13 203b 8e7b 953b f7f9 33bc
00000300: c24d 4bc0 17cb a6bf 8f48 09bf ef7e 023b
00000310: b2d0 65c0 034f 923b 2e48 aebf 7aa1 b03f
00000320: 57fb d5bf 1f6c afbf 1b0c 053c a128 21c0
00000330: 70eb debb bec1 44bf 6f7e 043c 8991 8d3b
00000340: 497a 743e 486b 763b dd6e 67b9 8058 8d3a
00000350: 95a9 9740 e3ee b53d 1c40 e9bf 679b 6e3b
00000360: b4c4 853b 1eb0 c33e 92d2 c4c0 270b 043d
00000370: 6685 223f 4a1a 7e3e 6685 01c0 f48b 3ac0
00000380: b91a 943d 9341 0bbf ff36 1ebb a523 a43d
00000390: 4087 0dbf a61a 8a3b 6f22 abbf 9066 ccbf
000003a0: 2b09 24bf 33c6 0cbf 74e5 993b ae25 dbbf
000003b0: 965c cf3b 1f02 493e 621c 78bc 52a5 293d
000003c0: f33f bb3e 87bc b23a ec58 8b3c a2ff 7ebf
000003d0: bf9a cc3f c538 0a3c 3a1b 7c3e f30c ffc0
000003e0: f29f 803a f6b1 e53d afc4 943d d037 373c
000003f0: 30ff 0ec0 2963 1a40 2386 303e dfee 5fbf
