Models/Bloom_filter/result/model-dict-89.pt (torch, 533323 bytes, 7 tensors)

model.0.weight f4 [256, 2]
-0.0006772521 -3.520543e-05 -0.00027179858 6.532464e-05 0.00029299446 7.824469e-05 -0.0008508335 -0.00072902883
-0.00044712782 -0.001002114 -0.0018199886 0.00087510596 -0.5557314 -0.03701171 7.1891714e-05 -0.0006822404
-0.30131626 0.39810592 -0.000418797 0.00019316463 -0.04589205 0.46305 -0.0003213405 -0.00016821516
-1.66823 0.19448912 -0.00021831755 0.00017735997 -0.00019904254 0.00048173545 -0.0004616543 0.00025508634
-0.002340698 0.0013572915 -0.00044970305 -0.00014050337 -0.0004178241 0.00018063649 -0.0004083277 0.00018149112
-0.0010423278 0.00064072805 -0.0003470506 1.1414689e-05 -0.00044250785 -0.00068053685 -0.23636995 -0.7566552
-0.000269994 0.0003226496 0.00040171985 0.0003954462 -0.0006492087 -0.00021954766 -0.6380339 0.17745396
-0.00033577695 -0.00020913506 -0.00037508432 8.118325e-05 -0.0009173689 -0.00019616123 0.0424159 -0.96182567
0.3634885 -1.643935 0.28155625 -0.29290518 3.5591445e-05 -0.0019656182 0.00019770971 -0.00034749522
0.00023388217 -0.0005284442 -0.0003980173 -0.0011345369 0.2973259 0.11793603 -0.0003501811 -0.00083120994
0.26406187 -0.11626284 0.2633017 -0.09688805 -0.00022854663 -5.627209e-05 -0.00607482 -0.016550323
-0.00013376583 -0.00068202446 -0.00045869965 -3.5558693e-05 -4.9788982e-06 -0.0001974113 0.0003362248 -0.00033196702
0.0005544693 0.00018916238 0.00019244473 -0.0006217491 -0.0001260447 -4.638907e-05 -0.0011137602 0.0009338985
-0.18976957 0.36492723 -0.0013344242 -9.554182e-06 -0.19333029 -0.7795503 -6.2046274e-05 -4.9864604e-05
0.3402048 0.049989764 0.00012247187 -0.00016831644 -0.00045999387 -0.00031483275 0.2758268 -0.100914314
-2.8129854e-05 4.0757364e-05 -0.00011679261 -0.00017691003 0.00021539086 0.0003562652 -0.00063295057 -0.0010022036
-0.0003517688 0.0001071575 -0.00042905475 -0.000120974626 -0.00023074908 -0.00078483607 -0.40333998 -0.046883613
0.30595264 -0.14702931 0.2681794 0.1790065 -0.0003730109 -0.0007117706 -0.00015333375 -0.00011060766
-0.00032208298 -5.682137e-05 2.61556e-05 -0.0010808096 -0.00017559105 -0.00014227167 -0.12750906 0.39584613
0.26673925 -0.24374703 0.21715443 -0.31595856 0.00020013709 -4.38682e-05 -6.32515e-05 -0.00014338309
8.136411e-05 -0.00033155028 -0.00024250719 -0.00025507517 0.28427327 -0.34575638 -0.4603015 -0.06966254
-0.8337575 -0.39868644 -0.00017539451 -0.00056519976 -0.046908133 -0.6309016 -0.00032275094 -0.00048974203
-0.00011832983 -0.0009929753 -0.00047556515 -0.00019514283 0.000109756314 -0.00028810633 0.26560307 -0.12132509
-0.00032953432 0.00034703355 0.2874824 -0.21779755 0.0009525912 0.0009367617 -0.00044102367 0.00024406472
-0.0003873519 -0.00026291265 -0.0003415534 -0.0006178045 0.06638516 -0.6665903 -5.07966e-05 0.00028111492
0.28258795 -0.29450518 -0.0010154317 0.00050401024 0.22104503 -0.42862836 -0.00013495576 0.00049633865
-0.0002897714 1.6775504e-05 -0.07233653 0.11292108 -0.00038973807 3.912461e-05 -0.00029456965 0.00017942111
-0.4524578 0.37436324 -0.117074266 0.094536565 -7.3567826e-05 -0.00023438066 -0.019286975 -0.53807145
-0.00054166967 0.00053327024 -0.0004113173 0.00029311498 0.1833176 0.16123688 -5.3499825e-06 -0.00068242894
0.2644288 -0.8413455 1.1875658e-05 0.00011013032 -9.024058e-05 -0.00057278184 -0.00028034742 0.00041531364
-0.0003589027 -2.7497399e-05 -0.00041657448 -0.0014532295 0.00034698038 -0.0009859286 -0.00023080377 0.0003919824
0.25223452 -0.33299762 0.00013446726 -0.0010566517 0.1441985 -0.44450495 -0.5994859 0.23463659
00000000: 9e89 31ba 8ba9 13b8 3080 8eb9 e6fe 8838
00000010: 0d9d 9939 4c17 a438 780a 5fba 4c1c 3fba
00000020: 7b6c eab9 5e59 83ba af8c eeba 5e67 653a
00000030: 6a44 0ebf 9799 17bd 92c4 9638 61d8 32ba
00000040: 2046 9abe 8ad4 cb3e fb91 dbb9 3c8c 4a39
00000050: 4df9 3bbd e414 ed3e 9879 a8b9 ea62 30b9
00000060: 9088 d5bf 2828 473e 2cec 64b9 b4f9 3939
00000070: 13b6 50b9 7091 fc39 310a f2b9 1cbd 8539
00000080: 6566 19bb 25e7 b13a 1fc6 ebb9 1654 13b9
00000090: 670f dbb9 3d69 3d39 d114 d6b9 a74e 3e39
000000a0: b89e 88ba 88f6 273a 58f4 b5b9 b781 3f37
000000b0: 6600 e8b9 0e66 32ba f70a 72be 28b4 41bf
000000c0: fb8d 8db9 4c29 a939 ed9d d239 e453 cf39
000000d0: a92f 2aba 6036 66b9 3156 23bf 7eb6 353e
000000e0: 380b b0b9 444b 5bb9 f7a6 c4b9 ed40 aa38
000000f0: 967b 70ba a1b0 4db9 4bbc 2d3d 353a 76bf
00000100: 2a1b ba3e 766c d2bf 2428 903e abf7 95be
00000110: 0648 1538 9ad1 00bb 4c50 4f39 0530 b6b9
00000120: 443e 7539 4a87 0aba faac d0b9 beb4 94ba
00000130: 1a3b 983e 7288 f13d 8398 b7b9 8ee5 59ba
00000140: 1e33 873e 361b eebd 7bcf 863e 3e6d c6bd
00000150: 05a6 6fb9 b205 6cb8 490f c7bb 8b94 87bc
00000160: 7e43 0cb9 e3c9 32ba a07d f0b9 db24 15b8
00000170: 6910 a7b6 3100 4fb9 5447 b039 dc0b aeb9
00000180: ce59 113a e459 4639 fdca 4939 e0fc 22ba
00000190: de2a 04b9 e291 42b8 97fb 91ba ded0 743a
000001a0: f452 42be bed7 ba3e d9e7 aeba e64a 20b7
000001b0: 60f8 45be 9c90 47bf d71e 82b8 b625 51b8
000001c0: 532f ae3e 11c2 4c3d cb6b 0039 1a7e 30b9
000001d0: 552b f1b9 2310 a5b9 2c39 8d3e 2aac cebd
000001e0: 67f8 ebb7 e3f2 2a38 8eee f4b8 ed80 39b9
000001f0: 8bda 6139 1bc9 ba39 98ec 25ba 5f5c 83ba
00000200: 9c6d b8b9 bfb9 e038 c1f2 e0b9 c2b3 fdb8
00000210: 3cf5 71b9 75bd 4dba 9482 cebe 0809 40bd
00000220: d3a5 9c3e da8e 16be cf4e 893e 7b4d 373e
00000230: ad90 c3b9 1e96 3aba 37c8 20b9 09f6 e7b8
00000240: 3fdd a8b9 7b53 6eb8 b968 db37 f4a9 8dba
00000250: dd1e 38b9 c32e 15b9 bc91 02be 58ac ca3e
00000260: 0c92 883e d298 79be bb5d 5e3e 52c5 a1be
00000270: e4db 5139 1fff 37b8 e4a5 84b8 1b59 16b9
00000280: 06a2 aa38 edd3 adb9 8749 7eb9 9cbb 85b9
00000290: 448c 913e fb06 b1be a3ac ebbe 3cab 8ebd
000002a0: 2271 55bf a120 ccbe 1bea 37b9 ea29 14ba
000002b0: be22 40bd c482 21bf e636 a9b9 0862 00ba
000002c0: d827 f8b8 b926 82ba 4655 f9b9 419f 4cb9
000002d0: f92c e638 fa0c 97b9 20fd 873e 4a79 f8bd
000002e0: 59c5 acb9 0ef2 b539 e530 933e 5206 5fbe
000002f0: 50b7 793a 0391 753a 3239 e7b9 a0eb 7f39
00000300: 7e15 cbb9 8ad7 89b9 8512 b3b9 28f4 21ba
00000310: f1f4 873d a9a5 2abf 6f0e 55b8 9b62 9339
00000320: 5eaf 903e 62c9 96be 3c18 85ba 8e1f 043a
00000330: a159 623e 2d75 dbbe e982 0db9 b91c 023a
00000340: 75ec 97b9 1fb9 8c37 2d25 94bd 2b43 e73d
00000350: c255 ccb9 bb19 2438 7870 9ab9 fd22 3c39
00000360: 8ca8 e7be 8aac bf3e a2c4 efbd 639c c13d
00000370: 6d48 9ab8 14c4 75b9 b8ff 9dbc 0dbf 09bf
00000380: d6fe 0dba 29cb 0b3a 13a6 d7b9 3aad 9939
00000390: 9cb7 3b3e 481b 253e 0084 b3b6 08e5 32ba
000003a0: 3663 873e 6b62 57bf 903d 4737 c4f5 e638
000003b0: 8b3f bdb8 bd26 16ba 98fb 92b9 74be d939
000003c0: 1b2b bcb9 37aa e6b7 ae67 dab9 4a7a beba
000003d0: ebea b539 463a 81ba ea03 72b9 fd82 cd39
000003e0: e224 813e aa7e aabe c8ff 0c39 597f 8aba
000003f0: c6a8 133e 2796 e3be e877 19bf 9344 703e

model.0.bias f4 [256]
0.0 -0.0003309565 -0.0008154959 0.0 0.0 -0.00044278713 0.16799209 -7.5666896e-05
-0.03362525 -0.0004935722 -0.104942285 0.0 0.15536948 -0.0002146232 -0.00039186983 -0.0005366743
-0.00138849 0.0 -0.00048242067 -5.4586853e-05 -0.00018409552 -8.58574e-05 0.0 0.19748546
-0.00024174151 -0.0015119804 0.0 0.09430277 0.0 -0.00040766547 0.0 0.1519804
-0.01706007 -0.050072365 -2.839615e-05 -0.00015889319 -0.00020070809 0.0 -0.22566374 0.0
-0.15229397 -0.15087403 0.0 -0.014364567 -0.0003777111 0.0 0.0 -0.00045411495
-0.0007508984 -0.00024364237 0.0 -0.0005321905 -0.05211735 0.0 0.20578183 4.7078197e-06
-0.14596389 -9.8991455e-05 0.0 -0.16374707 -7.420129e-05 0.0 -0.0005743521 -0.0004432598
-9.219834e-05 0.0 -1.0742061e-05 0.14302012 -0.06309511 -0.1907422 0.0 0.0
-0.00030344416 -2.1107204e-05 0.0 -0.12158638 -0.06696524 0.015968947 -0.00018240715 0.0
-6.536412e-05 0.0 -0.036119524 0.15205635 0.23293345 0.0 0.15806814 0.0
0.0 0.0 -0.00013148389 -0.15188357 -0.0004440454 -0.09484424 -0.0033587911 -8.0309364e-05
0.0 0.0 0.14860857 -0.00026650156 -0.049552385 -0.00028445295 0.010612136 -0.00043813122
-7.481792e-05 -0.07705249 -3.814286e-05 -5.2722622e-05 0.0339216 -0.060525365 1.26316245e-05 0.24327485
-0.0006602873 -0.0004915493 -0.23379578 0.0 0.029840726 -0.00012197484 8.842391e-06 -0.00046262983
-0.00028603204 -0.00022065728 -0.00027777842 -0.00029657639 0.009348856 -0.00010788509 0.15013202 0.048028134
0.0 -0.25153098 0.0 0.0 0.032999787 -0.0964988 -0.0006842657 0.0
-0.00016901412 -0.0014421071 0.20211056 0.17836662 -0.00014715447 7.09995e-05 0.0 -9.0641064e-05
-3.313916e-05 -0.00045145556 -0.0007113784 -0.069646515 0.0 -5.3477757e-05 -0.20770982 0.0
-5.1554216e-05 0.0 0.0 -0.23196958 -0.00042669885 -0.00011629082 0.16574408 0.14373666
-4.8414662e-05 -0.03454513 -0.076518886 -7.4079144e-05 -0.20685533 -0.20017496 0.0 0.14312139
-0.00022290749 -0.049221635 -0.0005247194 0.0 -0.0001535053 0.0 0.0 -0.14942163
-0.00025937968 -0.25156268 0.0 -0.0011224735 -0.00052780623 6.794586e-05 0.0 0.0
0.25976393 -0.00041095767 -0.00042974626 -0.004456313 0.19840893 -0.00015901944 -0.062154572 -0.0005340428
-0.034218725 0.0 -0.0011953461 -0.1752365 0.0 0.0 -9.450846e-05 0.061138723
-0.012038419 0.062685125 0.0 0.14066434 0.0 -0.00010242038 -3.674308e-05 0.0
0.0 0.0 -0.0004088567 -0.0004551282 -0.00011718534 0.0 0.0 0.0
-0.23218837 -0.10416915 -0.00045796888 -0.00012245588 -7.057392e-05 0.0 0.0 -3.4768513e-05
0.0 0.14149773 -0.0011282191 -0.19896145 -7.2092436e-05 0.0 0.18260351 0.20418629
0.00011380106 0.31571314 -0.031932577 -0.0034843036 0.0 -0.026484784 0.053215984 -0.15854727
-0.00017906999 -0.025893515 -0.00019729364 0.0 0.029109523 0.0 7.434374e-05 -0.00068115746
0.008793636 5.598701e-06 -0.060074173 -0.17256264 0.14394018 -0.00032244305 -0.008803922 -0.0006380165
00000000: 0000 0000 3b84 adb9 01c7 55ba 0000 0000
00000010: 0000 0000 e225 e8b9 1e06 2c3e 5baf 9eb8
00000020: a1ba 09bd 1263 01ba fbeb d6bd 0000 0000
00000030: 2d19 1f3e 7a0c 61b9 e173 cdb9 9aaf 0cba
00000040: fefd b5ba 0000 0000 68ed fcb9 30f4 64b8
00000050: c409 41b9 570e b4b8 0000 0000 a139 4a3e
00000060: fe7b 7db9 a52d c6ba 0000 0000 d021 c13d
00000070: 0000 0000 efbb d5b9 0000 0000 c0a0 1b3e
00000080: 8fc1 8bbc ae18 4dbd 4534 eeb7 919c 26b9
00000090: 2b75 52b9 0000 0000 6514 67be 0000 0000
000000a0: f3f2 1bbe b97e 1abe 0000 0000 5c59 6bbc
000000b0: 8707 c6b9 0000 0000 0000 0000 4716 eeb9
000000c0: f0d7 44ba 407a 7fb9 0000 0000 b382 0bba
000000d0: 0179 55bd 0000 0000 79b8 523e ddf7 9d36
000000e0: 8f77 15be a299 cfb8 0000 0000 50ad 27be
000000f0: 849c 9bb8 0000 0000 1e90 16ba 5365 e8b9
00000100: 9b5a c1b8 0000 0000 cd38 34b7 de73 123e
00000110: 0238 81bd ec51 43be 0000 0000 0000 0000
00000120: 9617 9fb9 600f b1b7 0000 0000 4802 f9bd
00000130: 1225 89bd 4fd1 823c 8c44 3fb9 0000 0000
00000140: 1814 89b8 0000 0000 11f2 13bd a9b4 1b3e
00000150: 1b86 6e3e 0000 0000 9ddc 213e 0000 0000
00000160: 0000 0000 0000 0000 f0de 09b9 5e87 1bbe
00000170: c4ce e8b9 b23d c2bd 2a1f 5cbb c36b a8b8
00000180: 0000 0000 0000 0000 d82c 183e 3cb9 8bb9
00000190: 71f7 4abd a122 95b9 86de 2d3c fab4 e5b9
000001a0: 91e7 9cb8 b2cd 9dbd 96fb 1fb8 7c22 5db8
000001b0: 60f1 0a3d 72e9 77bd 6aec 5337 0b1d 793e
000001c0: 2117 2dba 51db 00ba 2968 6fbe 0000 0000
000001d0: 8a74 f43c becc ffb8 c859 1437 208d f2b9
000001e0: 92f6 95b9 3d60 67b9 caa2 91b9 cf7d 9bb9
000001f0: f22b 193c 5e40 e2b8 35bc 193e 26b9 443d
00000200: 0000 0000 abc8 80be 0000 0000 0000 0000
00000210: c92a 073d 2aa1 c5bd 4b60 33ba 0000 0000
00000220: 6239 31b9 1605 bdba 12f6 4e3e bda5 363e
00000230: 7a4d 1ab9 91e5 9438 0000 0000 8d16 beb8
00000240: e7fe 0ab8 57b1 ecb9 cc7b 3aba d5a2 8ebd
00000250: 0000 0000 4e4d 60b8 e2b1 54be 0000 0000
00000260: eb3b 58b8 0000 0000 0000 0000 6f89 6dbe
00000270: 8db6 dfb9 29e1 f3b8 d1b8 293e b42f 133e
00000280: d910 4bb8 327f 0dbd efb5 9cbd f05a 9bb8
00000290: e2d1 53be aafa 4cbe 0000 0000 6a8e 123e
000002a0: 46bc 69b9 a09c 49bd 538d 09ba 0000 0000
000002b0: 44f6 20b9 0000 0000 0000 0000 fc01 19be
000002c0: 5afd 87b9 d3cc 80be 0000 0000 f61f 93ba
000002d0: 7a5c 0aba 287e 8e38 0000 0000 0000 0000
000002e0: c7ff 843e ce75 d7b9 914f e1b9 4306 92bb
000002f0: b62b 4b3e 75be 26b9 cb95 7ebd 01ff 0bba
00000300: ef28 0cbd 0000 0000 29ad 9cba 3271 33be
00000310: 0000 0000 0000 0000 d832 c6b8 996c 7a3d
00000320: ca3c 45bc 0f61 803d 0000 0000 500a 103e
00000330: 0000 0000 86ca d6b8 951c 1ab8 0000 0000
00000340: 0000 0000 0000 0000 d15b d6b9 469e eeb9
00000350: 66c1 f5b8 0000 0000 0000 0000 0000 0000
00000360: cac2 6dbe a356 d5bd 8b1b f0b9 8067 00b9
00000370: 1601 94b8 0000 0000 0000 0000 68d4 11b8
00000380: 0000 0000 c8e4 103e c0e0 93ba 8dbc 4bbe
00000390: 5530 97b8 0000 0000 6afc 3a3e 3616 513e
000003a0: 7ba8 ee38 27a5 a13e bccb 02bd ea58 64bb
000003b0: 0000 0000 9ef6 d8bc 01f9 593d 375a 22be
000003c0: bcc4 3bb9 a31e d4bc 9ce0 4eb9 0000 0000
000003d0: 1877 ee3c 0000 0000 fee8 9b38 b48f 32ba
000003e0: 2f13 103c 7adc bb36 5610 76bd 43b4 30be
000003f0: 0e65 133e 930d a9b9 533e 10bc 9040 27ba

model.2.weight f4 [256, 256]
0.00039485545 -0.00021837321 -0.00011864235 -0.00046916655 -0.0005192277 -0.00056391786 -0.65059984 -0.00012711973
0.36945987 -0.0002521336 -0.021157349 -0.00015981637 1.0518709e-05 1.559742e-05 0.0003949734 -0.00018630284
-0.0011045549 -0.00080978236 -0.00024353343 0.00028668944 0.0002048959 0.00028849448 5.5003457e-06 0.045748938
0.00052066345 -0.0061777206 0.00024410928 -0.22551364 0.00013897165 7.202658e-05 -3.8578488e-05 0.12299891
-2.145227 -0.7271932 0.00024845518 6.5738364e-05 0.00010821225 0.00030944392 0.55022615 -0.00032772028
0.0007542437 0.0009784286 0.00013172979 0.0047256947 -0.00021664092 1.9360823e-05 0.0004739871 2.0102498e-05
0.00023983003 0.00033498756 2.0718575e-05 9.74243e-05 0.23528296 1.0576812e-05 0.1404369 0.00063316815
-0.7949749 2.1046628e-05 -0.00013117986 -0.0006807305 0.000183088 0.00042230575 -8.4406056e-05 -0.00028984662
0.0008017351 7.878962e-05 -0.00069075625 -0.4955797 0.08796886 -1.3610896 -2.6142883e-05 -0.0002939509
-0.00017742153 0.0009637283 0.00016819232 0.2430628 -0.93605 0.29808205 -0.0005100002 0.0004219026
0.00027623412 0.0004470622 -0.54512346 -0.5651934 -2.142846 0.00047532344 0.26908147 -0.00027125102
0.0002643628 0.00010029843 0.00082958845 0.0003056941 0.00096526113 -2.3345041 -0.01080012 -0.00043948533
-0.00013145426 0.00052915193 0.31945184 0.00038210856 -0.7619323 -0.0010285367 -0.28937536 -9.811488e-05
0.00019307609 0.06782522 -7.858984e-05 1.6160837e-05 0.44465327 0.0609452 -0.00010322393 0.18222535
-0.00013127792 0.00079808047 0.6735635 0.00015036893 -0.24688703 0.0004329785 0.00024008841 0.0010945727
-0.00025749436 0.001319827 0.0009213156 -0.00015640915 0.27690178 0.0005841587 0.097485684 -0.41162774
-0.00030234613 0.6061219 0.00014110327 -0.00035816437 -0.2518718 -2.4987845 0.0015664966 9.9759825e-05
-4.320854e-05 0.0013698364 0.06270502 0.34407535 0.0013829437 0.00046882464 -6.3772255e-05 -3.784341e-05
-0.00037833332 -0.00022530038 -0.0003540118 0.30767006 -6.97757e-05 0.00018225028 0.6039156 0.0002316744
-0.00017948767 0.00024777348 -0.00064357877 0.8442915 0.00086711446 -0.00031689653 -0.64845574 -0.5056402
-1.190232e-05 0.1374507 0.55835676 -0.000443554 -0.24615139 0.5604849 -0.00016413396 -0.5042889
0.0008773073 -0.7458924 -0.00024234985 -0.00030747027 -0.00010321521 0.00012921842 -0.00029184794 9.551944e-05
0.00010447581 0.60721105 0.0001828147 -0.0012754786 9.266482e-05 0.0007856979 0.00026698486 0.00030362766
0.23778585 0.0015895511 0.0008950925 -0.0008033681 0.41422582 -0.00021926317 -0.6436016 0.00037554148
0.26883155 -0.0009965424 -0.0006241616 -0.111708865 -0.0003294474 0.0004307143 -0.0003425863 -0.8936732
0.26263738 -0.8633931 0.00014992364 0.20363288 -0.00030833296 0.00039748574 0.00029223465 -0.0004832275
-0.00018508534 -0.00017859048 0.0014926513 -0.0014624003 9.864103e-05 0.00031096875 -0.0001883551 -0.00026788184
0.78323793 -0.018991167 -0.00012582568 -0.00036494786 0.0005675216 -6.731996e-05 -0.0006179199 -0.0004662069
-0.0005393196 -0.47833297 -0.0032480548 -0.59532756 -0.00013480627 0.00011057519 0.34747413 0.234147
0.0015320086 0.14879635 0.37655467 -0.0038826813 -1.972178e-05 0.23272485 -0.011976493 -1.0786533
-8.679572e-05 0.009146425 -9.624685e-05 4.317177e-05 -0.016155306 -8.712859e-05 -3.4273933e-05 0.00011825647
0.2752766 0.0010781115 -0.8706198 -0.0006604361 -0.55617636 0.00023489789 0.3135619 -6.2802916e-05
00000000: 9a04 cf39 1dfb 64b9 a0cf f8b8 78fa f5b9
00000010: c81c 08ba e3d3 13ba b68d 26bf 714b 05b9
00000020: d829 bd3e cd30 84b9 2d52 adbc 6194 27b9
00000030: 8379 3037 34d7 8237 6f14 cf39 4a5a 43b9
00000040: b6c6 90ba 9347 54ba 025d 7fb9 ce4e 9639
00000050: 53d9 5639 1341 9739 9c8f b836 3d63 3b3d
00000060: 227d 083a 7a6e cabb 96f7 7f39 0ced 66be
00000070: ebb8 1139 fa0c 9738 56cf 21b8 dae6 fb3d
00000080: 664b 09c0 5529 3abf 1743 8239 04dd 8938
00000090: 02f0 e238 dc3c a239 9fdb 0c3f dfd1 abb9
000000a0: 70b8 453a 9e3e 803a f220 0a39 00da 9a3b
000000b0: 1b2a 63b9 0d69 a237 7981 f839 c9a1 a837
000000c0: e27a 7b39 45a1 af39 cdcc ad37 4650 cc38
000000d0: 04ee 703e 1073 3137 b1ce 0f3e 32fb 253a
000000e0: 7a83 4bbf 4a8d b037 538d 09b9 0d73 32ba
000000f0: 50fb 3f39 eb68 dd39 2803 b1b8 8ef6 97b9
00000100: 882b 523a db3b a538 de13 35ba 9fbc fdbe
00000110: 0529 b43d 2f38 aebf 6a4d dbb7 6c1d 9ab9
00000120: 3b0a 3ab9 b6a2 7c3a c85c 3039 74e5 783e
00000130: f9a0 6fbf 369e 983e 89b1 05ba cf32 dd39
00000140: 84d3 9039 ac63 ea39 368d 0bbf 84b0 10bf
00000150: 6424 09c0 d534 f939 0cc5 893e b236 8eb9
00000160: 2d9a 8a39 4f57 d238 bd78 593a 9145 a039
00000170: 9409 7d3a 8468 15c0 fdf2 30bc b96a e6b9
00000180: fcd6 09b9 c9b6 0a3a 318f a33e be55 c839
00000190: ff0d 43bf f7cf 86ba 0229 94be 06c3 cdb8
000001a0: 7874 4a39 f3e7 8a3d 99d0 a4b8 2291 8737
000001b0: 98a9 e33e ada1 793d ed79 d8b8 4899 3a3e
000001c0: a6a7 09b9 4636 513a a86e 2c3f 5aac 1d39
000001d0: f4cf 7cbe 6401 e339 3ec0 7b39 c477 8f3a
000001e0: 4f00 87b9 0cfe ac3a 7184 713a c301 24b9
000001f0: 12c6 8d3e 3a22 193a 93a6 c73d dfc0 d2be
00000200: 3684 9eb9 ce2a 1b3f 1ff5 1339 02c8 bbb9
00000210: 57f5 80be 16ec 1fc0 e752 cd3a 2636 d138
00000220: d13a 35b8 158c b33a 7d6b 803d a52a b03e
00000230: e443 b53a 94cc f539 78bd 85b8 0dba 1eb8
00000240: 0a5b c6b9 9c3e 6cb9 a99a b9b9 ee86 9d3e
00000250: 8b54 92b8 701a 3f39 369a 1a3f a0ed 7239
00000260: db34 3cb9 98e7 8139 d7b5 28ba 7d23 583f
00000270: 114f 633a 2225 a6b9 3201 26bf a371 01bf
00000280: 13b0 47b7 e0bf 0c3e 78f0 0e3f cf8c e8b9
00000290: 1c0f 7cbe f07b 0f3f 601b 2cb9 1419 01bf
000002a0: 19fb 653a cef2 3ebf 4b1f 7eb9 f633 a1b9
000002b0: 3e75 d8b8 ce7e 0739 2b03 99b9 9c51 c838
000002c0: 061a db38 2f72 1b3f f3b1 3f39 f62d a7ba
000002d0: 0c55 c238 4bf7 4d3a 1afa 8b39 3730 9f39
000002e0: 227e 733e 7c58 d03a a4a4 6a3a 1f99 52ba
000002f0: 6815 d43e 02ea 65b9 13c3 24bf 53e4 c439
00000300: 4aa4 893e 6a9e 82ba c79e 23ba 9ec7 e4bd
00000310: aeb9 acb9 7fd1 e139 289d b3b9 c4c7 64bf
00000320: 6878 863e 5507 5dbf d234 1d39 2385 503e
00000330: c0a7 a1b9 a265 d039 1237 9939 b259 fdb9
00000340: 7813 42b9 0444 3bb9 11a5 c33a 03ae bfba
00000350: 80dd ce38 8509 a339 3081 45b9 7e72 8cb9
00000360: 4882 483f 5d93 9bbc 13f0 03b9 7956 bfb9
00000370: bbc5 143a 212e 8db8 e7fb 21ba 3b6d f4b9
00000380: 2061 0dba 0fe8 f4be 51dd 54bb 6367 18bf
00000390: c85a 0db9 9ae4 e738 21e8 b13e 3bc4 6f3e
000003a0: aecd c83a 125e 183e c6cb c03e 9574 7ebb
000003b0: 3370 a5b7 6c4f 6e3e 0d39 44bc 5011 8abf
000003c0: 1906 b6b8 e3da 153c 22d8 c9b8 5613 3538
000003d0: 2258 84bc ceb8 b6b8 5bc1 0fb8 7500 f838
000003e0: 0ef1 8c3e 6b4f 8d3a f0e0 5ebf 1e21 2dba
000003f0: 9361 0ebf ec4e 7639 2f8b a03e 0fb5 83b8

model.2.bias f4 [256]
-0.1014171 -0.00033161815 -0.0035964567 -0.014401815 -0.047973294 0.07412057 -0.059297573 0.077163815
-0.0021980752 -0.065175235 -0.000237242 -0.31384107 -0.00020566523 0.025528213 -0.00015574995 -0.014682932
-6.986921e-05 -0.0002370788 -0.26747605 -0.3681944 0.024739819 -0.2639921 -0.00026511558 -0.0018639357
-0.10989816 -0.067047596 -0.0034152372 -0.00049203227 -0.113477804 -0.2397026 -0.06790175 -0.01854917
-0.00021274877 -0.00024286294 0.004049724 -0.27000198 -0.00025023735 -0.0004928477 -0.0004567917 0.15915069
0.07313436 -0.0011056169 -0.29717794 0.0977331 -0.00019613044 -0.0016646187 -0.00027643103 -0.00081425265
0.09085994 -0.000912015 -0.094022386 -0.028703667 -0.1457118 -0.39530742 -0.1468153 -0.00038575003
-0.2667079 -0.00029028946 0.08984359 -0.038173147 -0.00021654172 -0.06647103 -0.07130239 -0.012666247
-0.00035338936 0.12667692 0.07746328 -0.30832848 0.011121423 -0.118920304 -0.27341408 -6.149754e-05
0.100538366 -0.14838931 0.0774027 -0.00021580399 -0.14220156 0.0068107108 -0.0002648309 0.09675352
-0.27625114 -0.06360586 -0.11953147 -0.00021217458 -0.00014486296 -0.014565372 -0.00022707153 -0.029292373
-0.062793024 -0.00012386835 0.022925887 -0.0022424588 0.03827332 -0.05279207 -0.0004985981 -0.09321428
-0.00011972157 -0.23993595 -0.00019351036 -0.06629771 -0.30407754 -4.9965838e-05 0.11380366 -0.00035584596
-0.00015084457 -0.014317818 0.06706674 0.10125717 -0.23389259 -0.106750645 0.10369614 -0.062251475
0.051488284 0.03724455 -0.021159094 -0.0015006191 -0.3230368 -0.0010755861 -0.086551666 -0.00033720268
-0.17110886 -0.00030825502 -0.014185093 -0.00035163644 -0.00017778293 -0.34075427 0.105225496 -0.29387647
-0.013209485 -0.0005339831 -0.109072454 -0.16368349 -0.15019792 -0.09888004 -0.1159247 -5.0702354e-05
-0.29610303 -0.041560322 -0.12160348 -0.0004019018 0.13173376 -0.16468371 -0.0005164074 -0.00025312896
-0.043092158 -0.00021803148 0.058449276 0.18936136 -0.08186509 -0.00024123497 -0.07802199 -0.00022303726
-0.091416605 -0.008701247 0.19294849 -0.00020066391 0.13356382 -0.0005704845 -0.21435563 -0.00041571914
-0.00029068053 -0.0038095224 0.04670009 -0.00050813414 -0.11067743 -0.00025315827 -0.016842846 0.0743861
-0.027116802 0.003189211 -0.0022870554 -0.036000814 -0.052820675 -0.2282637 -0.0009628824 0.19102098
-0.30121157 -0.016424382 -0.025628718 -0.11517443 0.102897204 -0.12225762 -0.00026520767 -0.1307905
-0.00046767236 0.014541555 -0.00013804997 0.062656574 -0.00010478452 0.08099712 0.06164976 0.19981438
0.054255053 -0.00017019443 -0.13378866 -0.07749686 0.087230705 0.05589787 0.060086317 -0.00033909053
0.083097875 -0.00022191115 -0.00018978775 0.10169938 0.013530586 0.11582923 -0.22919369 0.022361286
-0.21248393 -0.24370784 -0.00042581023 -0.00040651433 0.080075935 -0.214217 -0.0025579098 -0.24187519
-0.0009016212 -0.00014709106 -0.00032321838 0.0008467163 -0.0017179463 -0.0001704968 -0.20236208 -0.00013994849
0.09445128 -0.08784111 -0.06677857 -0.00080882997 0.056451954 -0.00055539346 -0.20463999 -0.0018561429
-0.00025077286 0.08230112 -0.00019077712 -0.3429509 -0.19400036 -0.070091926 -0.0019952364 -0.0012293867
-0.16307415 -0.12710847 0.047558714 -0.03548933 0.05957596 -0.0016880711 -0.16650398 -0.354299
0.12584952 -0.0004616659 0.23500673 -0.00015424975 0.17209452 -0.0021114843 -0.00020824572 0.0071386686
00000000: c5b3 cfbd 09dd adb9 88b2 6bbb 97f5 6bbc
00000010: a57f 44bd 87cc 973d 03e2 72bd 1008 9e3d
00000020: 950d 10bb 987a 85bd 2ac4 78b9 c7af a0be
00000030: d7a7 57b9 8b20 d13c cf50 23b9 ae90 70bc
00000040: bf86 92b8 5b98 78b9 9ff2 88be fa83 bcbe
00000050: 29ab ca3c f929 87be 36ff 8ab9 4e4f f4ba
00000060: 4912 e1bd 4050 89bd 2cd2 5fbb bafb 00ba
00000070: 0d67 e8bd 9974 75be 1310 8bbd 6ef4 97bc
00000080: 5015 5fb9 06a9 7eb9 8cb3 843b b33d 8abe
00000090: 4a32 83b9 7332 01ba 8b7d efb9 66f8 223e
000000a0: 78c7 953d 59ea 90ba b527 98be 4b28 c83d
000000b0: 5da8 4db9 562f daba f2ed 90b9 9273 55ba
000000c0: c714 ba3d 4a14 6fba cf8e c0bd f423 ebbc
000000d0: 7935 15be bc65 cabe c056 16be 7e3e cab9
000000e0: f08d 88be fe31 98b9 ebff b73d 725b 1cbd
000000f0: 7a0f 63b9 f721 88bd fd06 92bd 1786 4fbc
00000100: 1e47 b9b9 98b7 013e 11a5 9e3d 3bdd 9dbe
00000110: a136 363c 7d8c f3bd eefc 8bbe 3ef8 80b8
00000120: 0fe7 cd3d 5ef3 17be 4f85 9e3d 7149 62b9
00000130: 499d 11be 622c df3b 00d9 8ab9 b626 c63d
00000140: ca70 8dbe ca43 82bd eacc f4bd 2e7b 5eb9
00000150: 5be6 17b9 99a3 6ebc 0d1a 6eb9 8ff6 efbc
00000160: a199 80bd a8e2 01b9 12cf bb3c 37f6 12bb
00000170: 7cc4 1c3d 7f3c 58bd 5ab4 02ba 21e7 bebd
00000180: 0713 fbb8 c5b1 75be 0be9 4ab9 18c7 87bd
00000190: 0db0 9bbe 6992 51b8 e511 e93d d690 bab9
000001a0: 082c 1eb9 4895 6abc 495a 893d eb5f cf3d
000001b0: 8a81 6fbe 15a0 dabd a45e d43d 67fb 7ebd
000001c0: 61e5 523d be8d 183d d655 adbc 6cb0 c4ba
000001d0: 1465 a5be aefa 8cba 0042 b1bd 94ca b0b9
000001e0: 2937 2fbe 4a9d a1b9 9868 68bc d85b b8b9
000001f0: 3e6b 3ab9 5877 aebe 7780 d73d fa76 96be
00000200: 996c 58bc 00fb 0bba 6161 dfbd a59c 27be
00000210: 7ccd 19be 9e81 cabd ee69 edbd 3da9 54b8
00000220: d19a 97be 283b 2abd 3f0b f9bd 59b6 d2b9
00000230: 37e5 063e d9a2 28be 845f 07ba 65b6 84b9
00000240: 6781 30bd 619f 64b9 8268 6f3d f2e7 413e
00000250: e2a8 a7bd 05f4 7cb9 fec9 9fbd 1cdf 69b9
00000260: a138 bbbd ad8f 0ebc 4a94 453e 4f69 52b9
00000270: f4c4 083e 918c 15ba 0b80 5bbe e1f4 d9b9
00000280: 7b66 98b9 2ea9 79bb 9848 3f3d 4e34 05ba
00000290: d9aa e2bd 54ba 84b9 02fa 89bc bd57 983d
000002a0: 0e24 debc 1502 513b 6ce2 15bb 9775 13bd
000002b0: 7e5a 58bd f6bd 69be f269 7cba 019b 433e
000002c0: 6738 9abe 6d8c 86bc 51f3 d1bc 92e0 ebbd
000002d0: c5bb d23d 3462 fabd 920b 8bb9 f2ed 05be
000002e0: ec31 f5b9 b43f 6e3c 82c1 10b9 1752 803d
000002f0: c3bf dbb8 d1e1 a53d 7584 7c3d 249c 4c3e
00000300: 8c3a 5e3d 3876 32b9 e5ff 08be acb6 9ebd
00000310: 03a6 b23d 2af5 643d 121d 763d f6c7 b1b9
00000320: 382f aa3d d2b0 68b9 c301 47b9 c447 d03d
00000330: 64af 5d3c e037 ed3d c0b1 6abe 042f b73c
00000340: 6395 59be 8c8e 79be 483f dfb9 6e21 d5b9
00000350: dafe a33d b45b 5bbe 9ba2 27bb 21ae 77be
00000360: c65a 6cba 753c 1ab9 a375 a9b9 2bf6 5d3a
00000370: b62c e1ba 63c7 32b9 0138 4fbe 23bf 12b9
00000380: ac6f c13d 0ae6 b3bd 34c3 88bd a907 54ba
00000390: 2a3a 673d d397 11ba 258d 51be d249 f3ba
000003a0: 2a7a 83b9 7d8d a83d 580b 48b9 4397 afbe
000003b0: 08a8 46be 5b8c 8fbd 83c2 02bb 5f23 a1ba
000003c0: e9fc 26be b928 02be edcc 423d 425d 11bd
000003d0: ec05 743d 4442 ddba 0580 2abe ae66 b5be
000003e0: b2de 003e c00b f2b9 9ba5 703e 1abe 21b9
000003f0: 8c39 303e d460 0abb 895c 5ab9 7eeb e93b

model.4.weight f4 [256, 256]
-0.5389986 0.00019528865 0.0003052315 0.12087996 -0.21497789 -0.13776661 -0.11299085 -0.10615245
-0.0007240703 -0.23361078 -0.0005263655 -0.0019141115 -0.00066307705 0.25473666 -0.00047071517 -0.10324949
-5.5531646e-06 0.00055938767 -0.0008137366 0.15346588 0.2258041 -4.185766 -0.00016714817 0.00051100086
0.3969911 -0.1782568 -0.50266606 0.00038506175 0.045394786 0.13438022 0.13196714 -0.081729695
-4.285816e-05 0.00022204427 -0.057521377 0.07895292 5.484132e-05 0.00025361442 -0.00023962052 0.1568509
0.09140052 -0.0009311967 0.15819022 -0.13354816 9.738213e-05 0.00118484 0.0004406217 0.00029625732
-0.045556262 0.12187484 -0.19322479 0.5419899 -0.03277665 -0.01757946 -0.07436414 0.00026729758
0.09265981 -0.0006579623 0.03863053 0.12312012 0.00023323768 0.06714173 0.20510088 0.3679007
0.0008507286 0.053623248 0.10991199 0.17817746 0.12850356 0.43488118 0.15586036 0.00032468233
-0.120309286 0.17096597 0.22096749 0.00020022511 -0.00052379153 -1.5946771 -0.00019456046 0.08350315
0.4328912 -0.058578294 0.11403893 -0.000536176 -0.00010907657 -0.15844058 -0.0005957715 0.038994513
-0.04402309 0.00065833546 -0.49824238 -0.12997468 0.14786455 0.2061327 -0.00091882655 0.042805687
-0.00032274536 -0.3562239 -0.00015395253 0.094961435 -0.005400033 -0.00022901804 0.25914708 0.00040931196
0.0004018695 0.027047513 0.15712576 -0.15118986 0.119220085 0.012533157 -0.1780614 -0.035904218
0.35051024 -0.06833212 0.0124374945 0.00033875395 0.5821356 0.00034720785 0.59582347 8.74099e-05
0.037073612 0.0006163581 0.09286051 6.1540406e-05 0.00045152573 -0.00052460196 -0.14433625 -2.7661781
-0.2099245 0.000536751 0.079255715 -6.3964095 -0.23869425 0.22183035 -0.2213455 3.008575e-05
0.69452345 0.122056656 0.02489308 -8.893582e-05 0.090737335 0.00816692 -0.00032165507 -7.571718e-05
0.35481063 -0.00036339345 -0.32484686 0.19582056 0.55357057 -4.2076776e-05 -0.019276293 -0.00042810282
0.098209985 0.0023031041 0.084646255 -0.00033701732 -0.045058463 -0.00017741937 -0.24520591 -0.0004616879
-0.0004241177 0.07955218 0.059546404 -0.0002629936 0.3060199 0.0003831991 0.00034006182 0.014843029
0.05026672 -0.122604236 0.00016735349 -0.039025508 -0.27480438 0.03317007 0.00056209817 -0.028773379
0.021609683 0.24007016 0.14047521 0.27538946 0.050783228 -0.8648615 7.056419e-05 0.11604107
-0.00014590993 0.020740006 -0.0001821269 -0.030915726 0.0002787506 0.18173937 0.17855294 0.065900095
-0.0109346155 4.6580168e-05 0.13829775 0.1893412 0.19750085 0.1285783 0.07752236 0.00020936495
-0.24291027 -0.00034462954 0.0001547608 0.17539486 0.37861103 -0.09640231 -3.872535 -0.044908646
0.13699768 -0.019672757 -0.00018283098 -0.00017574044 -0.103661716 -0.13699447 -0.00094801263 -0.03365964
-0.001378951 -0.00020166338 -0.00010444423 0.0008761882 -0.0020259125 0.00050801324 -0.3123263 -0.00031665878
0.5231104 -0.43812335 0.17852104 0.00048123585 -0.062448867 0.0007848926 -0.26026428 -0.0032516832
0.0003939129 0.21011376 -0.0005409296 0.35675684 0.070927605 -0.2808515 -0.0004179718 0.002155097
0.26118976 -0.017456783 0.022640724 0.23268405 0.17561369 -0.000645739 0.0004887917 0.0006415705
-0.3162864 0.0007603454 0.04539745 0.0004288363 -0.05374699 -0.00040243453 -0.0009596573 0.055303704
00000000: d0fb 09bf 66c6 4c39 7a07 a039 ea8f f73d
00000010: 2a23 5cbe b112 0dbe bf67 e7bd 7566 d9bd
00000020: 89cf 3dba aa37 6fbe cafb 09ba ede2 faba
00000030: 59d2 2dba d86c 823e 52ca f6b9 7874 d3bd
00000040: 5255 bab6 dfa3 123a f050 55ba 2926 1d3e
00000050: 3139 673e ccf1 85c0 7f44 2fb9 b0f4 053a
00000060: 6b42 cb3e f388 36be b9ae 00bf 1de2 c939
00000070: e2ef 393d f89a 093e 6522 073e e661 a7bd
00000080: 99c2 33b8 8ed4 6839 899b 6bbd 12b2 a13d
00000090: 6b05 6638 8df7 8439 a542 7bb9 869d 203e
000000a0: 3230 bb3d 8d1b 74ba 9efc 213e d9c0 08be
000000b0: a239 cc38 a24c 9b3a 3e03 e739 fc52 9b39
000000c0: 3499 3abd 8499 f93d b8dc 45be dabf 0a3f
000000d0: cf40 06bd cd02 90bc 3a4c 98bd 1324 8c39
000000e0: 6dc4 bd3d 1a7b 2cba 0c3b 1e3d 6726 fc3d
000000f0: 4391 7439 9a81 893d f705 523e 7b5d bc3e
00000100: 6e03 5f3a 0da4 5b3d 8a19 e13d 2774 363e
00000110: 7096 033e bfa8 de3e dc99 1f3e 203a aa39
00000120: b764 f6bd b411 2f3e 4d45 623e 85f3 5139
00000130: 0e4f 09ba 611e ccbf ed02 4cb9 b303 ab3d
00000140: eaa3 dd3e cbef 6fbd 3e8d e93d 2a8e 0cba
00000150: 0ac0 e4b8 3f3e 22be 8c2d 1cba b6b8 1f3d
00000160: 8e51 34bd 2594 2c3a a019 ffbe 1518 05be
00000170: ce69 173e 7314 533e 68dd 70ba 0455 2f3d
00000180: 2636 a9b9 fb62 b6be 516e 21b9 247b c23d
00000190: c3f2 b0bb 9024 70b9 edae 843e ec98 d639
000001a0: 03b2 d239 bf92 dd3c 93e5 203e 84d1 1abe
000001b0: a929 f43d df57 4d3c ba55 36be 4d10 13bd
000001c0: 1476 b33e b6f1 8bbd a2c6 4b3c c99a b139
000001d0: d706 153f 7309 b639 e387 183f d54f b738
000001e0: 80da 173d 1893 213a a72d be3d 410f 8138
000001f0: c2ba ec39 7185 09ba e2cc 13be 1009 31c0
00000200: 73f6 56be c0b4 0c3a d250 a23d 63af ccc0
00000210: 446c 74be 7f27 633e 65a8 62be a860 fc37
00000220: 4acc 313f d7f8 f93d 93ec cb3c 0e83 bab8
00000230: 7fd4 b93d 8cce 053c d0a3 a8b9 5aca 9eb8
00000240: bda9 b53e d885 beb9 5452 a6be 2f85 483e
00000250: cdb6 0d3f 987b 30b8 51e9 9dbc fd72 e0b9
00000260: 5122 c93d adef 163b 045b ad3d b3b1 b0b9
00000270: 398f 38bd a609 3ab9 4217 7bbe b30e f2b9
00000280: 1d5c deb9 41ec a23d eee6 733d 67e2 89b9
00000290: a4ae 9c3e 1de8 c839 534a b239 2d30 733c
000002a0: 7ae4 4d3d ee17 fbbd 9c7b 2f39 36d9 1fbd
000002b0: 29b3 8cbe 57dd 073d c559 133a 26b6 ebbc
000002c0: ca06 b13c f4d4 753e bcd8 0f3e d9ff 8c3e
000002d0: 1302 503d 9067 5dbf dcfb 9338 f1a6 ed3d
000002e0: 66ff 18b9 f2e6 a93c 51f9 3eb9 fa42 fdbc
000002f0: 4625 9239 e319 3a3e 95d6 363e a1f6 863d
00000300: 1a27 33bc 135f 4338 ed9d 0d3e a9e2 413e
00000310: aa3d 4a3e 08aa 033e 0bc4 9e3d fa88 5b39
00000320: 78bd 78be 65af b4b9 4947 2239 b69a 333e
00000330: 4ed9 c13e 936e c5bd 9dd7 77c0 21f2 37bd
00000340: 1f49 0c3e c328 a1bc 51b6 3fb9 f746 38b9
00000350: 984c d4bd 4748 0cbe 0d84 78ba b1de 09bd
00000360: ebbd b4ba 9a75 53b9 1209 dbb8 ffaf 653a
00000370: 2cc5 04bb 312c 053a 3ce9 9fbe 3905 a6b9
00000380: 90ea 053f b451 e0be 38ce 363e 624e fc39
00000390: 62ca 7fbd 40c1 4d3a 5c41 85be 311a 55bb
000003a0: 1886 ce39 1028 573e 2ccd 0dba d5a8 b63e
000003b0: 7e42 913d c5cb 8fbe 3a23 dbb9 873c 0d3b
000003c0: aaba 853e 8701 8fbc 0a79 b93c ba44 6e3e
000003d0: 13d4 333e d046 29ba 4122 003a 112f 283a
000003e0: 4bf0 a1be eb51 473a adf2 393d 6fd5 e039
000003f0: ce25 5cbd d9fd d2b9 8391 7bba 2386 623d

model.4.bias f4 [256]
0.12183616 0.27385074 -0.00020948148 0.012299221 -0.023900112 0.11965902 0.12410089 0.035942487
-0.07523825 -0.016838638 -0.00015956204 -0.0017682601 0.12017609 -0.00023559449 -0.032021046 -0.005009093
0.0767353 -0.0003815793 -0.0005984053 -0.1029694 0.109470025 -0.007121217 0.05149849 -0.1562015
-0.00019643467 0.22030176 -0.0028774128 0.29513115 0.08143162 -0.020271542 -0.5815732 0.067933895
0.077132486 -0.10227247 -0.0002577094 -0.00034473184 0.03903508 0.13136643 -0.002301663 0.16585323
0.14435795 0.055873286 0.02424368 0.12744464 -0.05095868 0.05147866 -0.00033962616 -0.00013103
-0.0014194634 0.10195005 -0.108416826 0.02579543 0.15018046 -0.0003209167 -0.00010415288 -0.0005821949
-0.0110843135 -0.0056167897 0.004368607 -0.030343158 -0.0004054527 -0.03173773 -0.038196243 -0.02268988
-0.0002798251 -0.00019539373 0.061653983 0.026311915 -0.005831581 -0.039956544 -0.10539835 -5.6368037e-05
-0.057529617 -0.0030993065 -0.0003532073 -0.01683926 -0.08930472 -0.00030015808 0.036889132 -0.00024713663
0.07040674 -0.11674586 0.08701234 -0.00051136303 0.062558904 -0.107920595 -0.052846003 -0.18244955
-0.00024167294 -0.00019767375 -0.0044886065 0.24103492 0.0051570563 -0.0020024271 -0.014771946 -0.00019248282
0.11511871 -0.005356475 0.031860054 0.2351371 0.04145853 0.0037119824 -0.0017553002 -0.00027446545
-0.00041424533 0.2958405 -0.00062995154 -0.000104590996 -0.00025036777 0.07159305 -0.0066925627 0.048571657
-0.00013063673 0.11524982 -0.0077832695 -0.00037580662 -0.0004196324 0.07104221 0.0028330048 -0.008516006
0.15635353 -0.020938255 0.11994957 -0.09534335 0.010064595 0.09082072 -0.03477991 -0.036750477
-0.0042824214 -0.0004916471 0.114290774 -0.015418076 -0.11778096 0.026912054 0.11980601 -0.07142373
-0.00058481557 0.087899975 -0.012971306 -0.0002737468 0.25667378 -0.0008231574 -0.0012188329 0.1369403
-0.00024404438 -0.00047700884 0.23008522 -0.00014496014 -0.0002535866 -0.0003441027 -0.00059691165 -0.00035717856
0.045402754 0.05000099 0.059211656 -0.0015184022 -0.0011558778 0.2663114 -0.00024318552 0.146175
0.16603464 0.02564923 0.16067542 -0.00025091754 -0.16228712 -0.050080348 0.15759236 -0.00031235552
0.119515255 -0.0011653563 0.2424378 0.14210853 0.2742662 -0.11487295 -0.0075196326 -0.00020344093
-0.0099903615 -0.016017694 0.24625619 -0.00020844504 -0.04119336 -0.17467389 0.046446573 0.083757035
0.017165396 -0.10824019 0.09651683 -0.011067488 -0.00078615296 -0.00019989154 -0.00023455985 -0.00029129308
0.079259 -0.03590027 0.016600177 -0.0036513878 -0.11414265 -0.00055824494 -0.10905116 0.041546326
0.05142738 0.0040500863 -0.00034051167 0.03441349 -0.000561661 -0.1000925 -0.00047996393 -0.0006545418
0.11949836 -0.0001909675 -0.00036703076 -0.00025563466 -0.027948644 -0.0107327085 0.029544521 -0.00019405395
-0.00035642867 0.1576748 -0.057887953 -0.0061179656 0.16676928 0.08738585 -0.0072869454 -0.17810948
-0.011980524 -0.0034697538 -0.002703191 -0.006961614 0.06329329 -0.00024901738 -0.02981035 -0.01692003
0.02676171 0.020562219 -0.000425608 0.011374639 -0.017485622 0.2632461 -0.0057394486 -0.008863687
0.1578409 -0.00019466749 -0.0006626744 0.049378157 0.0031131748 -0.0021621408 0.11976592 0.0130996145
-0.0039427453 -0.0111560775 -0.008067425 -0.00021178671 0.114980645 -0.07157969 0.23422128 -0.010485452
00000000: 3d85 f93d 2a36 8c3e 42a8 5bb9 ac82 493c
00000010: 2bca c3bc ca0f f53d 9b28 fe3d 6e38 133d
00000020: 8316 9abd 2ff1 89bc 1c50 27b9 f7c4 e7ba
00000030: e21e f63d ea09 77b9 8028 03bd 5123 a4bb
00000040: 6627 9d3d b50e c8b9 4dde 1cba 9fe1 d2bd
00000050: d231 e03d 1959 e9bb 15f0 523d 49f3 1fbe
00000060: 08fa 4db9 c996 613e fa92 3cbb 6e1b 973e
00000070: 9fc5 a63d 8110 a6bc fbe1 14bf ed20 8b3d
00000080: a3f7 9d3d 3b74 d1bd 2c1d 87b9 20bd b4b9
00000090: 3fe3 1f3d ec84 063e 7fd7 16bb 6ed5 293e
000000a0: 92d2 133e 63db 643d af9a c63c d980 023e
000000b0: 0dba 50bd 4adb 523d da0f b2b9 1965 09b9
000000c0: 4a0d baba 30cb d03d a409 debd f050 d33c
000000d0: e8c8 193e b640 a8b9 a76c dab8 709e 18ba
000000e0: fb9a 35bc 0c0d b8bb 8826 8f3b 3792 f8bc
000000f0: f192 d4b9 6cff 01bd aa73 1cbd 21e0 b9bc
00000100: 7db5 92b9 9be2 4cb9 e388 7c3d 168c d73c
00000110: d916 bfbb 79a9 23bd 17db d7bd b86c 6cb8
00000120: 2da4 6bbd bc1d 4bbb ae2e b9b9 7df2 89bc
00000130: 65e5 b6bd 895e 9db9 0f19 173d 1e92 81b9
00000140: 6931 903d 7418 efbd 8733 b23d fe0c 06ba
00000150: e21e 803d 7905 ddbd 0d75 58bd 0ed4 3abe
00000160: 9669 7db9 a546 4fb9 2915 93bb dcd1 763e
00000170: 86fc a83b 273b 03bb 0806 72bc 37d5 49b9
00000180: 5cc3 eb3d 5e85 afbb b07f 023d c8c7 703e
00000190: 6bd0 293d bb44 733b 1a12 e6ba 21e6 8fb9
000001a0: 112f d9b9 6878 973e 5523 25ba dd57 dbb8
000001b0: cb43 83b9 619f 923d 494d dbbb 13f3 463d
000001c0: 88fb 08b9 1908 ec3d cc0a ffbb e907 c5b9
000001d0: 1b02 dcb9 947e 913d efa9 393b b886 0bbc
000001e0: 241b 203e b486 abbc 1fa8 f53d 6043 c3bd
000001f0: f9e5 243c 3700 ba3d 6175 0ebd ab87 16bd
00000200: 8e53 8cbb e1e1 00ba 4811 ea3d 199c 7cbc
00000210: 2537 f1bd ab76 dc3c da5c f53d 9b46 92bd
00000220: 4f4e 19ba e704 b43d 9a85 54bc ac85 8fb9
00000230: bf6a 833e 28c9 57ba 3fc1 9fba 143a 0c3e
00000240: 2ae6 7fb9 0b17 fab9 769b 6b3e 7100 18b9
00000250: d1f3 84b9 af68 b4b9 107a 1cba b243 bbb9
00000260: 3df8 393d d7cd 4c3d ec87 723d 2005 c7ba
00000270: d380 97ba f859 883e 9eff 7eb9 e6ae 153e
00000280: fc04 2a3e 561e d23c 1988 243e 958d 83b9
00000290: 982e 26be 0d21 4dbd e45f 213e a6c3 a3b9
000002a0: 6ac4 f43d debe 98ba 9d41 783e e684 113e
000002b0: 9f6c 8c3e 8242 ebbd 4067 f6bb c252 55b9
000002c0: 9dae 23bc 8a37 83bc 952a 7c3e 0a92 5ab9
000002d0: 5eba 28bd b6dd 32be c33e 3e3d cf88 ab3d
000002e0: 729e 8c3c 08ad ddbd 9eaa c53d 6954 35bc
000002f0: d515 4eba fa99 51b9 2ef4 75b9 b2b8 98b9
00000300: 8b52 a23d 290c 13bd 18fd 873c 1f4c 6fbb
00000310: 9fc3 e9bd 2f57 12ba 3756 dfbd 7b2c 2a3d
00000320: 84a5 523d 96b6 843b b486 b2b9 29f5 0c3d
00000330: 6f3c 13ba 4cfd ccbd aba3 fbb9 8e95 2bba
00000340: 8ebb f43d 733e 48b9 096e c0b9 b406 86b9
00000350: 8ef4 e4bc 3ed8 2fbc 5a07 f23c f67a 4bb9
00000360: 0cdf bab9 8175 213e eb1b 6dbd 3779 c8bb
00000370: 91c5 2a3e 5af7 b23d 54c7 eebb 5562 36be
00000380: f649 44bc cf64 63bb 0528 31bb 401e e4bb
00000390: ea9f 813d 8c8e 82b9 d634 f4bc e09b 8abc
000003a0: 603b db3c 1972 a83c 2424 dfb9 b25c 3a3c
000003b0: 023e 8fbc 31c8 863e fc11 bcbb ff38 11bc
000003c0: 0ba1 213e a81f 4cb9 54b7 2dba c040 4a3d
000003d0: 6806 4c3b b4b2 0dbb d647 f53d c49f 563c
000003e0: 2532 81bb fbc7 36bc 3c2d 04bc 1013 5eb9
000003f0: f97a eb3d 5f98 92bd b4d7 6f3e 2ccb 2bbc

model.6.weight f4 [1, 256]
0.43375254 0.2191525 0.00015196044 -1.1736326 0.0058657397 0.3169375 0.45789406 -0.7448167
-3.1671393 0.017121222 0.00032142547 0.0013981952 0.3173126 -5.049927e-05 -0.67249334 0.0032579754
-0.72437507 0.0002548924 4.117684e-05 -1.3049315 -0.67603827 -2.830845 -3.44682 -0.9445095
-0.00052690605 0.65954006 0.001025199 0.41078615 0.1805366 -0.6951706 -4.1087136 -2.785097
-1.7183625 3.0771458 -1.0041835e-05 0.00010762861 -2.9312677 2.690676 -0.90545994 0.5404473
0.598056 -2.0690327 -1.71603 0.59465504 -0.76905066 0.13045256 0.00019929535 0.00048293464
-0.0006499628 -1.5780858 -3.4887729 -0.07798734 0.882316 0.0003960395 0.00037785183 -0.00050690834
-1.491899 0.0020205693 -4.1296053 -1.7995002 0.00027582215 -2.827956 -0.73362404 -3.9404762
0.0012349805 8.189551e-05 -0.8041264 -13.314172 -0.0022946093 -0.60703087 -2.6740534 -0.6887968
-1.7849747 0.0031041089 5.1971925e-05 0.0014117517 -3.4014633 0.00051994476 4.8565 -0.00046102388
0.14897332 -4.0299735 -1.5264906 0.0003047043 -3.5286293 -0.4255032 -1.1649011 -3.9227817
0.0003041077 0.00029093065 -3.6065161 0.16946515 -2.9005268 -2.1202534e-06 -0.009923938 4.790191e-05
0.47609678 0.0028720705 -0.35271564 0.16163193 -1.325064 -0.9903637 0.0010935036 0.00016747975
6.168126e-05 0.374486 0.00014986611 0.00016326137 0.00010668796 -11.880819 -0.00038102092 -0.6391671
-0.00079364824 0.47601193 -12.96616 0.0011659939 3.1396954e-05 -3.1520362 -8.112388 -0.99078137
-2.8662915 -1.0977125 0.31692168 -2.0708454 -1.2966057 2.2752457 -7.587134 -3.085474
0.00299648 9.2675924e-05 0.29227552 -1.1364142 -4.003742 -1.8250656 0.4700319 -3.688202
0.0005811166 0.20945318 0.012940703 0.0005106183 0.19291373 0.00023065116 0.00043148475 0.38656405
0.00054295536 0.00031693626 0.2623399 -0.00015088292 0.00026152382 3.2451106e-05 0.00033628102 0.00037097273
-0.23117337 -0.5536513 -1.2457337 0.00021658397 0.00014203478 0.20560738 2.7231365e-06 1.1970295
0.5431369 3.8476365 0.2489656 0.00077332876 -0.27051204 -0.80009 0.3392136 0.0002166095
0.31675667 -3.0193992 0.17263648 1.2060977 0.21991655 4.263335 0.00045295907 0.0013450892
-11.829142 0.0026756641 0.17622201 3.0709743e-05 -2.5689888 -0.6057208 -0.77460104 -0.99868107
-1.4382833 -2.585047 -0.68043756 0.007515789 0.00044712776 0.00012032886 0.00022622988 -0.00054475816
-3.4527533 -2.0897152 -1.1488764 0.00056593545 -3.6369133 0.00022142591 -1.7096962 1.9609253
-1.209841 -1.2731665 0.00040271314 -2.4134622 -0.00033737163 -3.8020306 0.00039946864 0.00021425182
0.31665733 0.0001864673 -1.0945388e-05 4.9603084e-05 4.933499 0.0074628945 -3.1544418 0.00018055644
0.00020244783 0.3415199 -5.4715643 0.0024256073 0.6273632 0.24201275 -2.6771636 -2.8999128
0.008714389 -0.6339483 0.0019390904 0.00064054877 -1.4547867 0.00020901105 -1.7685615 -1.3820727
-1.2000589 -2.7384708 0.00023290972 -1.7910559 -0.0052605686 0.29091173 0.0030983542 -6.177105e-06
0.33953708 6.7260735e-05 0.00084357406 -0.6960203 4.29166 0.0002780283 0.31611475 -6.386291
-0.0016848382 0.0035937405 0.0026304754 0.00055456813 -6.169156 2.358506 0.16038063 -0.6786037
00000000: d014 de3e 8369 603e 9257 1f39 9839 96bf
00000010: 6435 c03b a245 a23e 1771 ea3e 4fac 3ebf
00000020: 69b2 4ac0 ce41 8c3c ff84 a839 a543 b73a
00000030: cc76 a23e 2ecf 53b8 8628 2cbf c283 553b
00000040: a570 39bf 14a3 8539 4cb5 2c38 ff07 a7bf
00000050: d810 2dbf 912c 35c0 b398 5cc0 60cb 71bf
00000060: 1120 0aba 9ed7 283f f85f 863a 9052 d23e
00000070: 96de 383e b3f6 31bf 957a 83c0 073f 32c0
00000080: 4df3 dbbf f5ef 4440 5a79 28b7 acb6 e138
00000090: e499 3bc0 0934 2c40 39cc 67bf c15a 0a3f
000000a0: 331a 193f 086b 04c0 dfa6 dbbf 503b 183f
000000b0: 81e0 44bf 5b95 053e f0f9 5039 6432 fd39
000000c0: 4462 2aba b7fe c9bf 0e48 5fc0 d4b7 9fbd
000000d0: 76df 613f 86a3 cf39 6a1a c639 0be2 04ba
000000e0: 8cf6 bebf 876b 043b ba25 84c0 0656 e6bf
000000f0: 399c 9039 3bfd 34c0 c9ce 3bbf c330 7cc0
00000100: 12df a13a 51bf ab38 3adb 4dbf d906 55c1
00000110: 2861 16bb 6066 1bbf b123 2bc0 fd54 30bf
00000120: 0d7a e4bf 4e6e 4b3b 6efc 5938 870a b93a
00000130: 93b1 59c0 e74c 083a 7368 9b40 94b5 f1b9
00000140: 768c 183e 8bf5 80c0 0b64 c3bf b8c0 9f39
00000150: 10d5 61c0 8edb d9be 7b1b 95bf db0e 7bc0
00000160: a570 9f39 0d88 9839 29d1 66c0 4688 2d3e
00000170: 3ba2 39c0 ad49 0eb6 0398 22bc 49ea 4838
00000180: f5c2 f33e 5939 3c3b 2597 b4be d782 253e
00000190: b29b a9bf 7a88 7dbf e453 8f3a 819d 2f39
000001a0: e05a 8138 a1bc bf3e 6125 1d39 2431 2b39
000001b0: aabd df38 d617 3ec1 c3c3 c7b9 74a0 23bf
000001c0: d50c 50ba d6b7 f33e 6475 4fc1 43d4 983a
000001d0: 39b0 0338 f6ba 49c0 57cc 01c1 d9a3 7dbf
000001e0: 5271 37c0 d881 8cbf 8f43 a23e bb88 04c0
000001f0: 2df7 a5bf a09d 1140 cdc9 f2c0 6878 45c0
00000200: 9860 443b 025b c238 23a5 953e 0576 91bf
00000210: a81e 80c0 c09b e9bf 05a8 f03e 800b 6cc0
00000220: 1356 183a e57a 563e 3e05 543c 04db 053a
00000230: 2d8b 453e f3da 7139 e738 e239 b9eb c53e
00000240: 1e55 0e3a 772a a639 6a51 863e 5336 1eb9
00000250: 221d 8939 1c1c 0838 e04e b039 1e7f c239
00000260: b6b8 6cbe 17bc 0dbf 3474 9fbf d11a 6339
00000270: 2cef 1439 be8a 523e 21bf 3636 4338 993f
00000280: 050b 0b3f ad3f 7640 d7f0 7e3e 37b9 4a3a
00000290: 8e80 8abe b3d2 4cbf 68ad ad3e ab21 6339
000002a0: ee2d a23e d63d 41c0 9ec7 303e 6961 9a3f
000002b0: ce31 613e 3e6d 8840 237b ed39 b44d b03a
000002c0: 2a44 3dc1 325a 2f3b 8b73 343e 56ce 0038
000002d0: 506a 24c0 8510 1bbf 414c 46bf 90a9 7fbf
000002e0: ab19 b8bf 6971 25c0 2831 2ebf 0247 f63b
000002f0: 796c ea39 1159 fc38 1f38 6d39 1ace 0eba
00000300: e9f9 5cc0 e5bd 05c0 620e 93bf 495b 143a
00000310: 30c3 68c0 912e 6839 53d7 dabf 9aff fa3f
00000320: 12dc 9abf 1ff7 a2bf 3e23 d339 2a76 1ac0
00000330: 41e1 b0b9 7854 73c0 c66f d139 c9a8 6039
00000340: e920 a23e 6f86 4339 15a2 37b7 e80c 5038
00000350: 39df 9d40 4c8b f43b 60e2 49c0 c053 3d39
00000360: 2d48 5439 b2db ae3e 0e17 afc0 f0f6 1e3b
00000370: e09a 203f 31d2 773e a656 2bc0 2c98 39c0
00000380: ccc6 0e3c 704a 22bf 1429 fe3a 80ea 273a
00000390: 7336 babf fa29 5b39 3960 e2bf c2e7 b0bf
000003a0: 889b 99bf 1b43 2fc0 3a39 7439 5241 e5bf
000003b0: d960 acbb 62f2 943e c20d 4b3b ee44 cfb6
000003c0: ced7 ad3e 550e 8d38 4c23 5d3a 632e 32bf
000003d0: 4755 8940 54c4 9139 cbd9 a13e 7f5c ccc0
000003e0: cad5 dcba f684 6b3b 0e64 2c3b 7060 113a
000003f0: ba69 c5c0 c3f1 1640 d23a 243e f9b8 2dbf
