Models/Bloom_filter/result/model-dict-34.pt (torch, 533323 bytes, 7 tensors)

model.0.weight f4 [256, 2]
00000000: 6f0b 85bc d24f 5dba 2594 d5bb 2853 cd3a
00000010: 643b e63b 82ef f53a b524 a7bc 6337 8fbc
00000020: 58ac 2fbc c4dc c4bc fac3 32bd 8fe9 ab3c
00000030: bd4b 07bf 8ab8 42bd 5ff7 e13a 5806 86bc
00000040: af29 9fbe 43a7 d43e f08a 24bc 07c9 973b
00000050: d12d f3bc 92e5 ed3e e081 fcbb 6c2e 84bb
00000060: 868f b5bf 03cf ce3d d48c abbb 9d5d 8b3b
00000070: 0c6b 9cbb 5441 3d3c 8b61 35bc 7171 c83b
00000080: ade9 65bd f650 053d 86af 30bc 1cd0 5cbb
00000090: fd28 24bc 34f1 8d3b 0a6e 20bc bd9c 8e3b
000000a0: 42c3 ccbc 20bd 7b3c 615a 08bc 3a83 8f39
000000b0: d0db 2dbc 5db0 85bc e91e 8abe f627 33bf
000000c0: 6928 d4bb ac88 fd3b 0ad5 1d3c 4e5e 1b3c
000000d0: 1f12 7fbc 7684 acbb e8eb 21bf 165b 163e
000000e0: a4ec 03bc e655 a4bb 235e 13bc de2b ff3a
000000f0: bd36 b4bc 1424 9abb 180c 333d ef04 5bbf
00000100: 3809 a93e fa54 c0bf af4c 8e3e f57b 93be
00000110: 69bd 5f3a 6e12 41bd 965b 9b3b 4787 08bc
00000120: d2c7 b73b 469f 4fbc a260 1cbc c7e0 debc
00000130: 286f 8c3e 93db ed3d a795 09bc d349 a3bc
00000140: 3e99 903e f688 05be f874 873e 9afb fabd
00000150: d096 b3bb 1adf b0ba 3dc0 3d3e 6dbb f7bd
00000160: 1d39 52bb 75fb 85bc 4038 34bc 4c88 5fba
00000170: 6164 fab8 851f 9bbb bb19 043c 416d 02bc
00000180: 6ed9 593c d9a3 943b 9838 973b 0148 74bc
00000190: ee16 46bb bcce 91ba 63cb dabc f375 b73c
000001a0: 1440 4dbe bb50 bc3e 7c12 03bd f13d 70b9
000001b0: 4488 41be da82 3dbf ce05 c3ba 6abb 9cba
000001c0: 5ecf 933e 8e5f 513d 5c79 403b d042 84bb
000001d0: 56ba 34bc 7e64 f7bb 8aad 923e bfbc d8bd
000001e0: 28d5 30ba 5c1b 803a 158c 37bb 8603 8bbb
000001f0: 6440 a93b a7f9 0b3c c5ae 78bc 42e1 c4bc
00000200: 0a35 0abc c567 283b 8c92 28bc f91e 3ebb
00000210: e251 b5bb ab2d 9abc 9a8c d3be 52b6 13bd
00000220: 5603 9e3e 54cb 16be 7016 883e 42c5 283e
00000230: d08d 12bc 5ed3 8bbc 74fa 70bb 0bd4 2dbb
00000240: e816 fdbb 2a99 b2ba 0a6c 243a 3852 d4bc
00000250: cff9 89bb 2c97 5fbb cd56 0bbe a3c0 d13e
00000260: ce8d 8d3e 8c5a 7ebe e93c 863e 73ff d3be
00000270: e943 9d3b 02e2 89ba bece c6ba b656 61bb
00000280: 88bd ff3a 1c43 02bc 188f bebb 2a6f c8bb
00000290: ad33 853e a204 a6be 35c1 c3be ad84 6ebd
000002a0: e99d 4ebf 88f7 c4be 5dd2 89bb 5e10 5ebc
000002b0: 6539 13bd 5369 11bf 049d fdbb b36a 40bc
000002c0: cdf6 39bb ad11 c3bc 92d8 3abc 1357 99bb
000002d0: 6f7d 2c3b c963 e2bb 419a 863e fd79 01be
000002e0: 1279 01bc aa58 083c 5c24 923e bca8 5ebe
000002f0: 1722 bb3c 0806 b83c 6b46 2dbc 60c8 bf3b
00000300: 3b30 18bc 5c98 cebb 0e32 06bc 7bbb 72bc
00000310: 5877 683d fabf 13bf 3ea9 9fba d0e5 dc3b
00000320: 7467 8c3e 15b3 96be d07a c7bc 0006 463c
00000330: 2ecf 5d3e 3e33 e1be d817 54bb 9e02 433c
00000340: f2b2 e3bb 91e9 d239 8091 91bd f19f 9c3e
00000350: b91f 19bc 1df3 753a 8278 e7bb 74fc 8c3b
00000360: 8c93 e6be f48b be3e 334e 40be 2acf 8d3e
00000370: 3c3c e7ba 622c b8bb 1293 c83a 70bf 02bf
00000380: 84d1 54bc a184 513c d99a 21bc 9353 e63b
00000390: 009e 5c3e fd98 de3d ae86 06b9 dd0f 86bc
000003a0: 5216 683e 3ef3 4bbf e84e 9539 d813 2d3b
000003b0: f2d1 0dbb 670b 61bc 924b dcbb 932c 233c
000003c0: 9602 0dbc 28db 2cba 2fab 23bc 8fbd 0ebd
000003d0: 6453 083c d4ae c1bc d75c b5bb ec01 1a3c
000003e0: 458e 833e 0977 afbe e453 533b 6893 cfbc
000003f0: 1b40 0b3e a6c7 dabe 13b1 11bf c83f 673e
-0.016240804 -0.0008442375 -0.0065179043 0.0015665041 0.007026123 0.0018763395 -0.020403245 -0.017482465
-0.010722242 -0.02403105 -0.04364393 0.020985393 -0.5284994 -0.04753927 0.001723986 -0.016360447
-0.3108649 0.4153386 -0.010042891 0.0046321186 -0.029684933 0.4646421 -0.007705912 -0.004033854
-1.4184425 0.10098078 -0.005235294 0.004253103 -0.004773503 0.01155122 -0.011070619 0.006117039
-0.056131054 0.032547913 -0.010784036 -0.0033693379 -0.010019538 0.004331732 -0.00979186 0.0043521808
-0.02499545 0.015364915 -0.008322329 0.00027372857 -0.010611489 -0.016319448 -0.26976708 -0.6998285
-0.006474544 0.00773724 0.009633312 0.009482933 -0.015568285 -0.005264814 -0.6325059 0.14683184
-0.008052025 -0.0050151227 -0.008994612 0.001946803 -0.021998757 -0.004704008 0.043712705 -0.85554403
0.33014846 -1.5025933 0.2779288 -0.2880551 0.0008534999 -0.047136717 0.0047411425 -0.008333034
0.0056085372 -0.012672251 -0.009544523 -0.027206792 0.27428555 0.11614146 -0.008397496 -0.019932663
0.28241915 -0.13040528 0.26456428 -0.122550204 -0.0054806247 -0.0013494224 0.18530364 -0.120962955
-0.00320775 -0.016355256 -0.010999739 -0.0008527085 -0.00011939626 -0.004733982 0.008062775 -0.0079606185
0.013296468 0.0045361337 0.004614901 -0.014909745 -0.003022607 -0.0011124234 -0.02670831 0.02239511
-0.20043975 0.36780342 -0.03200005 -0.00022911259 -0.18899637 -0.7402779 -0.0014879049 -0.0011957709
0.28869146 0.05111652 0.002936921 -0.004036285 -0.011030754 -0.0075498214 0.28648025 -0.105828755
-0.000674563 0.0009773779 -0.002800708 -0.0042423634 0.0051651467 0.0085434085 -0.015178387 -0.024033193
-0.008435497 0.0025696617 -0.010288846 -0.002901016 -0.005533443 -0.018820604 -0.41318208 -0.036062546
0.3086192 -0.14726001 0.26579618 0.16481498 -0.008944944 -0.017068561 -0.0036770375 -0.0026524093
-0.007723678 -0.0013625969 0.00062722026 -0.025918111 -0.0042106877 -0.0034117205 -0.1360733 0.40967283
0.2764725 -0.24839228 0.26218346 -0.4140583 0.0047993553 -0.0010519626 -0.0015167815 -0.003438396
0.0019511441 -0.00795057 -0.005815398 -0.0061167674 0.26015988 -0.3242541 -0.38233343 -0.058232
-0.807097 -0.384701 -0.0042059855 -0.013553707 -0.035943408 -0.56801337 -0.007739665 -0.011744189
-0.0028375864 -0.02381214 -0.011404173 -0.0046795695 0.0026319881 -0.006908868 0.2628956 -0.12644191
-0.007902401 0.00832192 0.28543365 -0.21744055 0.022843404 0.022463813 -0.010575871 0.005852744
-0.009288843 -0.0063047837 -0.008190645 -0.014815207 0.05675444 -0.5771481 -0.0012181175 0.006741263
0.27422678 -0.29433504 -0.024350554 0.012086391 0.21661064 -0.43984407 -0.0032362845 0.011902479
-0.006948822 0.00040228342 -0.0710783 0.30590776 -0.009345942 0.0009382235 -0.007063926 0.0043025557
-0.45034444 0.3721615 -0.1877983 0.27697116 -0.0017641853 -0.005620525 0.001530262 -0.5107336
-0.012989406 0.012787969 -0.009863579 0.007029006 0.21544647 0.10869024 -0.00012829408 -0.016364986
0.22664765 -0.79668033 0.00028478284 0.0026409533 -0.002164003 -0.013735629 -0.006722876 0.009959358
-0.008606574 -0.0006593936 -0.009989544 -0.034848746 0.008320663 -0.023642935 -0.005534749 0.009399872
0.2569448 -0.34270504 0.0032246048 -0.025338843 0.13598673 -0.42730445 -0.5691082 0.22582924

model.0.bias f4 [256]
00000000: 0000 0000 b407 02bc ad33 a0bc 0000 0000
00000010: 0000 0000 edf7 2dbc c6b2 263e 38d5 edba
00000020: 1c3c 20bd c8eb 41bc d079 e2bd 0000 0000
00000030: fdcc 0f3e d8a5 a8bb b0fa 19bc 46db 52bc
00000040: 9761 08bd 0000 0000 fd89 3dbc df92 abba
00000050: 1da9 90bb 0fee 06bb 0000 0000 bc8b 443e
00000060: f9f4 bdbb a882 14bd 0000 0000 050f ca3d
00000070: 0000 0000 5c2b 20bc 0000 0000 e480 0a3e
00000080: 9649 b1bc 669f 4cbd 4681 32ba e5b6 79bb
00000090: 4eb6 9dbb 0000 0000 535a 5bbe 0000 0000
000000a0: 69c6 22be 2fe9 18be 0000 0000 3158 d5bc
000000b0: 3666 14bc 0000 0000 0000 0000 3f6b 32bc
000000c0: f782 93bc 5973 bfbb 0000 0000 b918 51bc
000000d0: d0b6 51bd 0000 0000 841a 4c3e 4bc2 ec38
000000e0: a32c 01be 9b92 1bbb 0000 0000 822e 30be
000000f0: e939 e9ba 0000 0000 f3a8 61bc 7d27 2ebc
00000100: 8fe5 10bb 0000 0000 180e 87b9 1d4d 143e
00000110: 9dd3 8bbd bc87 3fbe 0000 0000 0000 0000
00000120: 9071 eebb b2af 04ba 0000 0000 63c7 02be
00000130: 2723 8fbd 081a a63c 9c55 8fbb 0000 0000
00000140: d272 cdba 0000 0000 a619 10bd 5682 073e
00000150: 6a2b 613e 0000 0000 e574 0f3e 0000 0000
00000160: 0000 0000 0000 0000 8ba3 4ebb 01e8 15be
00000170: 1176 2ebc 0921 cabd d1f4 a4bd 366d fcba
00000180: 0000 0000 0000 0000 4f44 023e e969 d1bb
00000190: 8680 50bd f684 dfbb 7443 293c a323 2cbc
000001a0: ec29 ebba 5985 a5bd f2c6 6fba f4b6 a5ba
000001b0: 3ee3 1c3d 15d9 49bc e3cf 9e39 1f58 603e
000001c0: 5bb6 81bc f320 41bc be2d 76be 0000 0000
000001d0: 89cc d23c 33b1 3fbb 6258 5e39 8bc3 35bc
000001e0: dfc2 e0bb b163 adbb 9b46 dabb d80b e9bb
000001f0: 4d91 173c b88c 29bb 0c27 143e 99d7 353d
00000200: 0000 0000 e7d3 84be 0000 0000 0000 0000
00000210: 07a4 d23c 382c c8bd 056c 86bc 0000 0000
00000220: 46cf 84bb 1da6 0dbd b830 4c3e 5a9c 263e
00000230: d843 67bb d72c df3a 0000 0000 a272 0ebb
00000240: a552 50ba 945f 31bc 8abf 8bbc 9e46 87bd
00000250: 0000 0000 8a16 a8ba 575a 5bbe 0000 0000
00000260: b60a a2ba 0000 0000 0000 0000 567c 84be
00000270: bca5 27bc 77c2 36bb 1b27 1d3e 184b 0f3e
00000280: bd2c 98ba f3b1 80bd a2f2 a8bd 8bd7 e8ba
00000290: 6041 63be bf2c 5abe 0000 0000 e503 0e3e
000002a0: 7428 afbb 5f6e 48bd cd28 4ebc 0000 0000
000002b0: 113f 71bb 0000 0000 0000 0000 102e 16be
000002c0: 58d1 cbbb 3583 84be 0000 0000 5c83 dcbc
000002d0: 475f 4fbc 2391 d53a 0000 0000 0000 0000
000002e0: 6907 6e3e 8f76 21bc 2ad8 28bc e3f8 38bd
000002f0: 2008 213e d1e9 79bb 658b 95bd 60d2 51bc
00000300: 86fb 3dbd 0000 0000 98d2 eabc 9d59 28be
00000310: 0000 0000 0000 0000 8d86 14bb 8b88 523d
00000320: 305b 7cbc 2e8b 563d 0000 0000 1af4 0a3e
00000330: 0000 0000 daf5 20bb 40fa 66ba 0000 0000
00000340: 0000 0000 0000 0000 eea2 20bc 4905 33bc
00000350: 602a 38bb 0000 0000 0000 0000 0000 0000
00000360: ce7e 80be 447b d7bd fdee 33bc ed72 40bb
00000370: e6d2 ddba 0000 0000 0000 0000 c190 5aba
00000380: 0000 0000 48e1 0c3e 1e9d ddbc acdc 4cbe
00000390: fb98 e2ba 0000 0000 9755 283e a138 443e
000003a0: afd8 323b 64ad 9e3e adf0 14bd 2f95 ce3c
000003b0: 0000 0000 97ef d1bc 5378 343d 8db1 34be
000003c0: d7b5 8cbb 499e a5bd d907 9bbb 0000 0000
000003d0: f9c2 ac3c 0000 0000 a3ac e93a 39cf 85bc
000003e0: 3de3 0c3c 9ec7 0c39 f108 87bd 9248 3dbe
000003f0: d013 023e 305f fdbb 8a80 58bc 2aac 7abc
0.0 -0.007936407 -0.019555891 0.0 0.0 -0.010618192 0.16279134 -0.0018145209
-0.039119825 -0.011836 -0.1105839 0.0 0.1404304 -0.0051467232 -0.009398147 -0.012869662
-0.033296194 0.0 -0.0115685435 -0.0013090036 -0.004414691 -0.0020588671 0.0 0.1919393
-0.0057970253 -0.036257416 0.0 0.09866146 0.0 -0.009775963 0.0 0.1352573
-0.021641534 -0.0499567 -0.00068094244 -0.0038103398 -0.004812992 0.0 -0.21421175 0.0
-0.15896 -0.14932702 0.0 -0.02604303 -0.009057572 0.0 0.0 -0.010889827
-0.018006785 -0.005842608 0.0 -0.012762242 -0.051199734 0.0 0.1993199 0.00011289547
-0.12614684 -0.0023738507 0.0 -0.17205241 -0.0017793748 0.0 -0.013773191 -0.010629532
-0.0022109484 0.0 -0.00025759707 0.14482541 -0.068274714 -0.18704122 0.0 0.0
-0.0072767213 -0.0005061581 0.0 -0.12771372 -0.06989127 0.020276085 -0.004374219 0.0
-0.0015674478 0.0 -0.03518071 0.13233313 0.21989217 0.0 0.14009435 0.0
0.0 0.0 -0.0031530585 -0.14639284 -0.010648266 -0.09869582 -0.080545075 -0.0019258622
0.0 0.0 0.1272137 -0.0063907993 -0.05090382 -0.00682127 0.0103310235 -0.010506543
-0.0017941571 -0.08082075 -0.00091467716 -0.0012643025 0.038302653 -0.012319823 0.00030290996 0.21908616
-0.015834024 -0.011787641 -0.24040887 0.0 0.025732296 -0.0029249906 0.00021204495 -0.011093984
-0.006859168 -0.005291425 -0.006661249 -0.0071120076 0.009250951 -0.0025871228 0.1446802 0.044395063
0.0 -0.2594292 0.0 0.0 0.02571298 -0.09774059 -0.01640893 0.0
-0.004053029 -0.034582246 0.1994046 0.16270581 -0.003528824 0.0017026913 0.0 -0.0021735807
-0.00079468853 -0.01082601 -0.017059106 -0.06605266 0.0 -0.00128241 -0.2142118 0.0
-0.0012362811 0.0 0.0 -0.2587611 -0.010232385 -0.0027886906 0.15346949 0.1399349
-0.0011610013 -0.06283941 -0.082494035 -0.0017764432 -0.22192907 -0.21306132 0.0 0.13868673
-0.0053453986 -0.048933383 -0.01258297 0.0 -0.0036811272 0.0 0.0 -0.14666009
-0.006220024 -0.25881353 0.0 -0.026918106 -0.012656993 0.0016293864 0.0 0.0
0.23245014 -0.009854927 -0.010305444 -0.045159232 0.15725756 -0.003813375 -0.07301978 -0.012806505
-0.04638245 0.0 -0.028664872 -0.16440435 0.0 0.0 -0.0022663206 0.05139975
-0.0154026 0.052378826 0.0 0.1356968 0.0 -0.0024560601 -0.0008811094 0.0
0.0 0.0 -0.00980447 -0.010926553 -0.002810143 0.0 0.0 0.0
-0.25096744 -0.10521558 -0.010982272 -0.0029365376 -0.0016923815 0.0 0.0 -0.000833761
0.0 0.13757813 -0.027052458 -0.20006055 -0.0017288023 0.0 0.164389 0.19162227
0.0027289798 0.30991662 -0.03636234 0.02521762 0.0 -0.02562694 0.044060063 -0.17645855
-0.004294138 -0.08086831 -0.00473116 0.0 0.021089064 0.0 0.0017827939 -0.016334163
0.0085991 0.00013425804 -0.06593502 -0.18484715 0.1270287 -0.0077322945 -0.01321424 -0.015299836

model.2.weight f4 [256, 256]
00000000: d722 1b3c 1698 abbb 6674 3abb 4855 38bc
00000010: a600 4cbc 228f 5dbc f1ca 0bbf f1c7 47bb
00000020: 9b90 be3e c81f c6bb d7a2 86bd e329 7bbb
00000030: 5f3f 8439 8519 c439 ba2e 1b3c 0a65 92bb
00000040: 4ffc d8bc 1714 9fbc 6b5d bfbb 5047 e13b
00000050: fa00 a13b 35b2 e23b 9b4e 0a39 d3e7 8b3d
00000060: 3e91 4c3c a6b2 17be 59d1 bf3b 97a8 d5be
00000070: cf67 5a3b c763 e23a 3e84 72ba b545 873e
00000080: 4454 f1bf 7bf6 0abf 623c c33b 9fa0 ce3a
00000090: 0410 2a3b b428 f33b c612 dd3e efc1 00bc
000000a0: 322b 943c 9135 c03c 5406 4f3b a2ff 493e
000000b0: ae3b aabb ec6a f339 df39 3a3c fcbd fc39
000000c0: 5d74 bc3b 249d 033c cc3d 023a a31b 193b
000000d0: 94ab 493e 83fa 8439 f231 683e 97c4 783c
000000e0: e1f2 13bf 2f4e 043a cd28 4ebb 25ba 85bc
000000f0: f4dd 8f3b e9eb 253c 99a6 04bb 08c2 e3bb
00000100: 5b7f 9d3c 1da6 f73a 7db2 87bc 2caf 1dbf
00000110: 46c6 98be 306c f2bf 8257 24ba 86fb e6bb
00000120: f069 8bbb 2d52 bd3c d029 843b 3d78 6d3e
00000130: 284c 83bf 1615 7c3e 1260 48bc 3cc3 253c
00000140: 720f d93b c3a5 2f3c 68cd a4be a5a4 edbe
00000150: b055 20c0 44c0 3a3c f207 ca3e 9e25 d5bb
00000160: 83bb cf3b 0aa0 1d3b 6bf8 a23c ed35 f03b
00000170: 089f bd3c 18d8 27c0 799a 84be a4ab 2cbc
00000180: 8397 4ebb 42e6 4f3c de63 7e3e 9320 163c
00000190: d3d1 09bf fd0d cabc 128e 26be d631 1abb
000001a0: 28b7 973b 9395 9a3d 2c05 f7ba d82e cb39
000001b0: 40a6 9c3e a567 653d ff38 22bb 0352 703e
000001c0: 4850 4ebb dec7 9c3c af31 b3bd 9c51 6c3b
000001d0: 9d9a cebe 141d 2a3c 82a8 bc3b 9306 d73c
000001e0: 7356 cabb a8a3 013d 6ffd b43c 6acf 75bb
000001f0: 14df 3d3e bd83 653c 7224 393e 9ca7 813e
00000200: 8594 edbb cbff 223f ebc0 5d3b 48b8 0cbc
00000210: 7217 d4be 9d86 2dc0 eedd 193d c2c7 1c3b
00000220: 9ecf 87ba b08c 063d 3a97 513e 7075 5a3c
00000230: 65d6 073d cd32 383c f771 c8ba 3ee5 6dba
00000240: b4a4 14bc b209 b1bb b716 0bbc c394 813e
00000250: ca50 dbba fd35 8f3b 8136 453e c40b b63b
00000260: f009 8dbb 9db2 c23b fedb 7cbc d7c1 4d3f
00000270: 7957 aa3c 5303 f9bb f0bc b6be f63d 1cbf
00000280: 93a4 95b9 c018 8dbe a99b 0d3f e844 2ebc
00000290: 0835 6fc0 9e8c 353d 36f9 80bb 0390 17bf
000002a0: 1f58 ac3c 5ce4 14bf 796f bebb 299b f1bb
000002b0: 8235 22bb 7913 4b3b d354 e5bb 781d 163b
000002c0: f530 243b 2d7f 223f 36a7 8f3b 7090 fabc
000002d0: 1aa1 113b f658 9a3c 03cb d13b b296 ee3b
000002e0: 1fe6 5e3e 4121 1c3d 45d6 af3c 3206 63bd
000002f0: a295 e13e 534b acbb d172 2fc0 488c 133c
00000300: dd3c 8a3e 68c4 c3bc 293b 75bc 5f54 0dbe
00000310: 4c70 01bc a139 293c 6f99 06bc 50f3 b4be
00000320: cf6e 853d bac3 a7be bf9d 6b3b d56a 593e
00000330: dd48 f2bb 0d2b 1c3c f1a2 e53b 28db 3dbc
00000340: d46f 91bb 9755 8cbb 1d9d 123d 46a4 0fbd
00000350: 8005 1b3b e85a f43b f801 94bb 997f d2bb
00000360: 9566 543f 6945 6dbd 10bf 45bb f962 0fbc
00000370: 17fa 5e3c 2199 d3ba 18c7 72bc 7f2b 37bc
00000380: 58e5 53bc cfd0 1dbf 6684 9fbd eb1f dbbe
00000390: e5db 53bb f7c6 2d3b ac19 233e 546b 7a3e
000003a0: a17a 163d f695 103e 601d b13e f787 263c
000003b0: c2f4 f7b9 13bb 0e3e f7e6 bcbc 2c1a ddbf
000003c0: ba67 08bb 468d 9f3d 7542 17bb 17b2 873a
000003d0: dfc2 2ebe e0ed 08bb f674 57ba 58d9 393b
000003e0: bc65 3b3e e1ca d33c 9feb 42bf ccbd 81bc
000003f0: a99b fabe 7b94 b83b 02bb a03d 6e66 c5ba
0.009468756 -0.005236636 -0.0028450727 -0.011250801 -0.0124513265 -0.013522895 -0.5460654 -0.0030484165
0.372197 -0.006046269 -0.06574028 -0.0038324527 0.00025224217 0.00037403047 0.00947159 -0.004467611
-0.026487498 -0.01941876 -0.0058399937 0.006874956 0.0049134465 0.0069182166 0.00013189988 0.06831326
0.0124858 -0.14814243 0.0058538136 -0.41730186 0.0033326035 0.0017272168 -0.0009251273 0.2642037
-1.8853841 -0.5428235 0.005958126 0.0015764422 0.0025949487 0.0074206237 0.43178385 -0.007858737
0.018087003 0.023463042 0.0031589465 0.19726422 -0.0051951027 0.00046428235 0.011366337 0.00048206735
0.0057511763 0.008033071 0.0004968315 0.002336242 0.19694358 0.00025363648 0.22675303 0.015183589
-0.5779248 0.00050470507 -0.0031457425 -0.016324112 0.0043904725 0.010127046 -0.0020240902 -0.0069506206
0.019225767 0.001889411 -0.016564602 -0.61595416 -0.2983877 -1.8939266 -0.0006269143 -0.007049027
-0.004254572 0.023110474 0.0040333048 0.23190399 -1.0257616 0.24617419 -0.012229936 0.010117348
0.0066241557 0.010720673 -0.32187963 -0.46414676 -2.50523 0.011398379 0.39459187 -0.0065047285
0.006339492 0.002405169 0.019893846 0.007330647 0.023147121 -2.6225643 -0.25899103 -0.010538969
-0.0031523413 0.012689175 0.24842784 0.00916304 -0.5383579 -0.024664873 -0.16265133 -0.002352824
0.004629988 0.0754806 -0.0018846146 0.0003875408 0.3059559 0.056007046 -0.002475321 0.23468785
-0.0031480957 0.019138273 -0.08749711 0.0036059385 -0.40352336 0.010382909 0.0057573924 0.026248252
-0.0061748563 0.031650215 0.022093503 -0.0037507662 0.18542129 0.01400846 0.18080309 0.25323188
-0.007250371 0.6367156 0.0033836912 -0.008588858 -0.41424137 -2.7113411 0.037565164 0.0023922776
-0.0010361557 0.032849014 0.20467845 0.013333663 0.033163447 0.011242581 -0.0015292753 -0.0009074992
-0.009072471 -0.005402767 -0.008489302 0.2530881 -0.0016732451 0.0043704496 0.19259073 0.005555602
-0.004304163 0.0059417025 -0.01543331 0.803739 0.020793663 -0.007599273 -0.35691023 -0.61032045
-0.00028542112 -0.27557945 0.55315644 -0.010636546 -3.7376118 0.044323556 -0.0039359583 -0.5920412
0.021038113 -0.5816095 -0.0058116284 -0.007373233 -0.0024751131 0.0030986948 -0.006998637 0.0022905748
0.0025053595 0.63475305 0.004383947 -0.030586451 0.0022221268 0.018841248 0.0064023747 0.007281148
0.21767472 0.03811765 0.021464476 -0.05542583 0.44059473 -0.005258003 -2.7413828 0.009005614
0.2699956 -0.023897365 -0.014967718 -0.13801716 -0.007900309 0.010328681 -0.008215292 -0.35341883
0.06515276 -0.32766515 0.0035952178 0.2123216 -0.00739394 0.0095317485 0.0070079495 -0.011587895
-0.00443838 -0.004282664 0.035794366 -0.035068773 0.0023654401 0.007457126 -0.0045168363 -0.006423902
0.8296903 -0.057927523 -0.0030173697 -0.008751624 0.013609431 -0.0016143658 -0.014817975 -0.011179804
-0.012933098 -0.6164674 -0.07788925 -0.4279779 -0.0032327112 0.0026516297 0.15927762 0.24455005
0.03673804 0.14119706 0.34592724 0.0101642525 -0.0004729387 0.1393855 -0.023059351 -1.7273612
-0.002081378 0.07790618 -0.0023080383 0.0010352758 -0.17066525 -0.0020893738 -0.00082190277 0.0028358307
0.18300527 0.025853576 -0.7614078 -0.015837573 -0.48946884 0.0056329346 0.07848169 -0.0015060434

model.2.bias f4 [256]
00000000: 91e7 8fbd 2f5f b2bb dafb 833c da3a 393b
00000010: 685f 25bd f55d 383d aef2 9ebc 6cb5 ad3d
00000020: de57 a2bc 0fc6 4bbd cf6b babb 89e3 1cbe
00000030: 0399 a1bb fb29 043c d6c5 74bb b0cb 43bc
00000040: 1a9c dbba 034b babb a345 66be ce2a bdbe
00000050: fe63 d3bb e597 20be e046 d0bb f5d0 9ebb
00000060: 3ae8 f6bd 817b 7fbd bee2 a3bc 5751 41bc
00000070: 8d67 d8bd d487 6fbe f12a 01be a412 123d
00000080: e02c a7bb 8fd6 bebb e20f b33b ed11 81be
00000090: 25a2 c4bb 20a3 41bc 6378 33bc 2ae5 3d3e
000000a0: 7f2d a53d 8b77 50ba c72d 99be 3ed3 cd3d
000000b0: e31d 9abb f228 f4ba 1b37 d9bb 18f5 9fbc
000000c0: 1033 793d b0f4 abb9 d366 ccbd 035e f33d
000000d0: 1575 06be 3752 83be 9e97 4bbe be8e 17bc
000000e0: f960 82be 141b e4bb 6402 023e d961 f8bc
000000f0: ab27 aabb f814 62be 7224 64bd 158f acbc
00000100: 66d8 0abc 90fc 7e3d 636f 063e 665b 92be
00000110: 6882 e03c b1ca 06be 2bad 8cbe 2c4c c1ba
00000120: a0ed ce3d 7afb 17be 877f 6c3d 8e93 a9bb
00000130: eede 1abe fd22 a73c 9119 d0bb fbad e73d
00000140: 4b28 6abe 6424 e7bc 6d88 02be 12b9 a6bb
00000150: dfa9 63bb ae51 94bd 146e b2bb ca78 1ebd
00000160: 3ee0 8abd 2aab 42bb 48e6 4e3d 02f7 99bc
00000170: e062 4b3d e410 b6bc 42e5 43bc 8670 a5bd
00000180: 6c26 3cbb cb62 70be cf0e 98bb 9ef0 01be
00000190: d6a9 6fbe 110d 9dba b9d0 263d 63cf 0bbc
000001a0: 3d10 6dbb dd1c d0bc 8dc4 983d 668e df3d
000001b0: 0301 8dbe ea29 a9bd acd9 e73d dec2 8bbd
000001c0: 1bcf 243d 7ae2 a4bb 4075 0dbc 4475 81bb
000001d0: 2dd0 9fbe 8f98 d1bb 7600 bdbd 277c 04bc
000001e0: 7a69 21be 2a39 f2bb b9ab ed3c bc25 0abc
000001f0: 0ab3 8bbb f8cb 91be ba50 c13d 0add 8dbe
00000200: b915 52bd 61cc 51bc f405 00be b5a5 37be
00000210: b469 ccbd 51f6 c6bd 8a4e efbd 165e 9fba
00000220: a1ab c6be c183 aa3d 5a86 07be 6de7 1dbc
00000230: 1a1c cf3d f58c 11be b7e4 4abc 81e7 c6bb
00000240: 1977 bcbd 3553 abbb 968c 263d dba7 273e
00000250: 3f3e d8bd 6882 bcbb 2f0d 82bd ba42 afbb
00000260: f1cd 97bd adcf adbb 536c 603e 74ad 9dbb
00000270: dab6 e83d e323 60bc ca88 54be 4d55 23bc
00000280: cd69 e4bb 6578 963c 89db bf3c 1aa5 47bc
00000290: 8767 f7bd 70ed c6bb 4036 6dbb 9555 c23d
000002a0: 9d90 7abc 1d77 953c a221 c5bb 217d 64bd
000002b0: 4a4b 4fbd 61bb 53be cb27 bdbc 78fa 4d3e
000002c0: 2add 87be 50f0 2cbd daba 04bd fd86 f4bd
000002d0: bad4 aa3d 0928 f2bd ba65 d0bb 4a25 febd
000002e0: 90be 37bc 0d83 003d 99f4 58bb 7125 983d
000002f0: 48ad 24bb 8203 0b3e afd0 22ba 454b 1f3e
00000300: 1f54 6abc 87bc 85bb f2cf 12be 109f 83bd
00000310: 1531 073e d5b3 d73d 5368 ab3d c439 05bc
00000320: 7d73 903d c15f aebb 2d22 95bb aed8 d13d
00000330: cab7 acbc 3442 c43d e0f3 68be d553 1d3c
00000340: f6a5 5ebe 1d6d 60be 7a4c 27bc 7eb7 1fbc
00000350: 49d9 e33d f186 5dbe 7848 8dbb ff8c 77be
00000360: cc1e b1bc 3d2a 67bb 39fb fdbb c355 a63c
00000370: 07be 28bd 90f9 85bb 93b3 5fbe a8f0 5bbb
00000380: 8be1 5e3d 5fd7 a2bd ded6 a3bd 45e4 9ebc
00000390: 3ac0 ae3d 8036 5abc 983c 54be f650 36bd
000003a0: f70d c5bb ab60 a53d dbe8 95bb f88d 92be
000003b0: 6a28 19be 9b0a 9cbc 3f89 f0bc c364 b13d
000003c0: 52a3 f2bd 0a5b 0abe c095 a03d 2371 34bd
000003d0: eab7 4c3d 9f9f 86bb 8219 1ebe 4340 9abe
000003e0: eacb ff3d b662 35bc 5334 143e 656a 72bb
000003f0: c05d b93d e25d dfbb dca2 a3bb 094c 2c3d
-0.0702659 -0.0054434757 0.016111303 0.0028263838 -0.04037419 0.04501148 -0.019402828 0.08481869
-0.019817289 -0.04974943 -0.0056891213 -0.15321173 -0.0049315705 0.00806665 -0.0037349365 -0.011950418
-0.0016754896 -0.0056852116 -0.22487502 -0.3694672 -0.006451129 -0.15682943 -0.006356105 -0.004846687
-0.120560125 -0.062373642 -0.02000558 -0.011799178 -0.10566626 -0.23391658 -0.12614037 0.03566231
-0.005101785 -0.005823917 0.00546454 -0.2520899 -0.0060007744 -0.011818677 -0.010953995 0.1854445
0.08065318 -0.00079523836 -0.29917738 0.10050057 -0.00470327 -0.0018627925 -0.0066288835 -0.01952605
0.060839713 -0.00032797968 -0.0998055 0.11883166 -0.13130601 -0.25648662 -0.19882056 -0.009250341
-0.2546461 -0.006961236 0.12696224 -0.030320095 -0.005192717 -0.22078311 -0.05569882 -0.02106432
-0.008474445 0.06225258 0.13128428 -0.28585356 0.027405933 -0.13163258 -0.27475867 -0.0014747432
0.10103917 -0.14842024 0.057738807 -0.0051750606 -0.15124103 0.020402426 -0.006350704 0.11312481
-0.22866933 -0.028215595 -0.12747355 -0.00508798 -0.0034738702 -0.07242142 -0.0054452512 -0.038689412
-0.06781052 -0.0029704073 0.050512582 -0.01879454 0.04965484 -0.022224851 -0.011956515 -0.08078103
-0.0028709425 -0.23475187 -0.004640437 -0.12689444 -0.23404631 -0.0011982044 0.040726397 -0.008533332
-0.003617301 -0.025404388 0.07459364 0.10915832 -0.27539834 -0.082599476 0.113208145 -0.06824277
0.040236574 -0.005031881 -0.008633912 -0.0039507467 -0.31213513 -0.00639636 -0.092286035 -0.008086241
-0.15762892 -0.0073920684 0.029012548 -0.008431848 -0.0042632865 -0.28475928 0.094392255 -0.27707702
-0.051290248 -0.012805075 -0.12502271 -0.17934306 -0.09981099 -0.0971495 -0.11684902 -0.0012158777
-0.38802817 0.08325911 -0.13234845 -0.009637696 0.10112782 -0.14213927 -0.012383631 -0.006070078
-0.092024036 -0.005228425 0.040661417 0.16372626 -0.105587475 -0.0057528503 -0.06350171 -0.0053485306
-0.07412327 -0.005304298 0.21916322 -0.004811937 0.11363001 -0.013680431 -0.20755306 -0.009969068
-0.0069706202 0.018367955 0.023420112 -0.012185359 -0.12080293 -0.006070785 -0.0036195666 0.0948898
-0.015293268 0.018245274 -0.0060159722 -0.055783395 -0.05060891 -0.20676948 -0.023090264 0.20115077
-0.26535922 -0.042221367 -0.032404758 -0.119398095 0.083413556 -0.11824042 -0.006359783 -0.12409456
-0.011214867 0.03137498 -0.0033104776 0.074290164 -0.0025127698 0.13575557 -0.0006210906 0.15556057
-0.014302283 -0.004081312 -0.14337137 -0.06426823 0.13202317 0.10532347 0.08369508 -0.008131448
0.07053278 -0.0053214733 -0.004551193 0.102464065 -0.021083731 0.0958294 -0.22749281 0.009602507
-0.21742997 -0.21916623 -0.0102111045 -0.009748338 0.11125428 -0.21633507 -0.0043116175 -0.2417488
-0.02162113 -0.0035272979 -0.0077508953 0.020304566 -0.04119685 -0.004088588 -0.21845846 -0.003356019
0.054414313 -0.07951235 -0.07999967 -0.019395957 0.08532758 -0.013318658 -0.2072624 -0.044510804
-0.0060136276 0.080750786 -0.0045748777 -0.2862394 -0.14956823 -0.019048026 -0.029362319 0.08661797
-0.11847557 -0.13511291 0.078410625 -0.044053208 0.04998008 -0.004108384 -0.15439418 -0.30127153
0.124900654 -0.011070898 0.14473085 -0.0036989686 0.090510845 -0.0068166116 -0.0049937796 0.0420647

model.4.weight f4 [256, 256]
00000000: 8c99 92be 9474 993b edcd a23b 7427 843d
00000010: 1bf2 99bc b714 31be 196e 1b3e 38ea 1abe
00000020: 285d 8f3c 12b2 58bf c9ce 4ebc 4999 92bc
00000030: f041 82bc 5d28 143f aaf0 38bc ca76 16bd
00000040: 82a2 0bb9 cdc7 5b3c 20db 9fbc bc88 cb3e
00000050: 3449 153e 2f3c 963e c657 83bb ccc4 483c
00000060: adf5 b63e e1ff aabd 97f3 d9be f049 173c
00000070: 0775 a43c 0671 9f3c 63a7 573e c522 0dbd
00000080: 5ab5 86ba 607a ae3b 2724 7a3d a5df fa3d
00000090: d35f ac3a 9f49 c73b 1d4a bcbb e29b 293e
000000a0: 0bf3 2e3e 3556 d6bb 1dbc 2e3c c03a a4bc
000000b0: ba0a 193b 1ad6 3dbc f21d 2d3c 9ecb e83b
000000c0: 763b 8fbd 9e42 3fbd 7437 f83d 6cc6 593d
000000d0: f3a2 32be 2cc1 a03d e511 603d f909 d23b
000000e0: 3581 763d 3b41 81bc 11f6 093e d3d2 dd3b
000000f0: 8646 b73b 75c5 223e 1fc8 8a3e 8756 dd3d
00000100: 6b1f a73c 1e02 1a3e 4d9a 883d 4e71 6d3e
00000110: 472f 2d3c 7ecd c23c 1e49 993d b921 ff3b
00000120: 7a95 95bc a6d1 bf3d 6037 213e 8b55 9d3b
00000130: a372 2e3e 1470 64bf ebe1 98bb bd39 893b
00000140: 737c cdbd 6658 7fbd 08f8 363e 17a9 52bc
00000150: 9a6b 2bbb 4813 45bf bf13 6abc 6f27 3bbd
00000160: f81c 09bd 0c54 813c 41b2 01bf f767 aebd
00000170: 632c 2c3e 42ef 32be c97f b4bc 3b13 04be
00000180: e49b fdbb cf51 f8be b4f2 71bb 3977 793d
00000190: 5ce7 69be bef5 b3bb d0e5 d33d 8fd0 203c
000001a0: 26e4 1d3c 43a2 d73d ba99 c4bd 87cf bbbd
000001b0: 1bbc 0abe dfff 623d 8da3 babd 2575 05bd
000001c0: cdbf dd3e dc9c 083e ae7f 083b 3118 053c
000001d0: 8eae be3e 3f6a 083c c32d 533e 265f 093b
000001e0: e63d 93bd e029 723c c2b5 c6bd 886e c13a
000001f0: 9e66 313c 63cf 8abd f215 f3bd 6387 93bf
00000200: cd60 86bd 01e3 523c 01c0 533e c04b dbc0
00000210: 1188 48be caa7 f13d 6ac6 f0be d720 3d3a
00000220: b30b f63d 21f2 86bd b5d0 913d fec4 0bbb
00000230: f86a 063e da27 473d 0ec1 fcbb b5fd edba
00000240: 01ec b23e 41c6 0ebc 3959 a5be fee5 4a3e
00000250: e38d 6a3f ea40 84ba c58c e8bd bf32 28bc
00000260: 03d3 9a3c 9cf6 29bb d080 573d 8369 04bc
00000270: 9769 f7bc 8169 8bbb 1634 dbbe eb64 35bc
00000280: dea1 26bc f0b1 df3a aef0 1e3e c2a8 cebb
00000290: 8ff2 2e3e 6e8e 163c 849b 053c ad65 ef3d
000002a0: 96d6 023e 3550 063d 7722 903b 58b2 7cbc
000002b0: de90 0abe 87d5 06be 9fd8 5c3c ed47 dabc
000002c0: a9d0 563d 788d 543e 4263 b7bb 27ec 8d3e
000002d0: 2343 a03c afb1 1dbf 04cb dd3a 4d11 483e
000002e0: 364f 65bb 39ea 5f3d 161d 8fbb 07ec 403d
000002f0: e109 db3b 6555 eb3e b98c 153e bbe9 ae3d
00000300: 49da 05be a168 923a 431c a83d f2ab 153e
00000310: 2311 9f3d af8f ee3c 69d5 78bc 2c84 a43b
00000320: 1e39 46bd 5867 07bc 6f38 733b 6bfa 023e
00000330: 1e2f 4e3f 6b06 48be 5996 98bf b3e9 d0bd
00000340: 416e 663e c1b3 f73d 7baa 8fbb fb17 8abb
00000350: 7229 73bd a006 2d3e 5e53 033c 31d5 a63c
00000360: 3472 07bd fc76 9ebb 4024 24bb e81f ac3c
00000370: c1fd 46bd e198 473c 196f b33c a0d3 f8bb
00000380: 9c6e e03e 4dc9 a53d 44bd 093e 3313 3d3c
00000390: 959e 1cbd 7f30 9a3c 6559 fc3c 13b2 9fbd
000003a0: f7c3 1a3c 31cc 643e d986 54bc 4c16 b23d
000003b0: 9896 66bd c1ab 12be dc37 24bc 99b5 383d
000003c0: 74ac c53b 8249 00bc 95f3 4d3d f638 6d3d
000003d0: 6468 403e ceb4 7dbc 0d0b 403c f111 7c3c
000003e0: 9de7 8abe 235e 953c a3c0 07bd 957c 283c
000003f0: 5f42 11bc 4f1d 1ebc 5f85 bcbc 8593 aa3e
-0.28632772 0.0046830866 0.004968396 0.064528376 -0.018792203 -0.17293058 0.15178718 -0.1512841
0.017500475 -0.84646714 -0.012622544 -0.017895358 -0.015900582 0.5787409 -0.0112878475 -0.03673438
-0.00013316612 0.013414335 -0.019513667 0.39752758 0.14578706 0.2934279 -0.004008266 0.012253951
0.3573431 -0.08349586 -0.42568657 0.009233937 0.020075334 0.019463073 0.21059947 -0.034456987
-0.0010277436 0.005324647 0.061069634 0.12249688 0.0013151116 0.0060817744 -0.0057461397 0.16563371
0.17084901 -0.0065410384 0.010664967 -0.020047545 0.002335234 -0.01158669 0.010566222 0.007104351
-0.06993763 -0.04669439 0.12119952 0.053167745 -0.17444973 0.078493446 0.054704566 0.0064098802
0.060181815 -0.015778175 0.13472773 0.006769517 0.005593124 0.15895636 0.27105805 0.108075194
0.020400723 0.1503987 0.066700555 0.23187754 0.010570354 0.023779627 0.07484649 0.0077860025
-0.018259753 0.09366159 0.1574378 0.0048014573 0.17035918 -0.8923352 -0.0046656034 0.004187791
-0.100335024 -0.062340163 0.17868054 -0.012857697 -0.0026156665 -0.76982546 -0.014286934 -0.045691904
-0.033474892 0.015787147 -0.5066262 -0.085159235 0.16813807 -0.17474082 -0.022033589 -0.12897961
-0.007739531 -0.48499915 -0.0036918344 0.060904715 -0.22842163 -0.0054919412 0.10346568 0.009815349
0.009636914 0.10528996 -0.095996335 -0.09170442 -0.13548319 0.0554198 -0.09113226 -0.03258242
0.43310395 0.13341087 0.0020828056 0.008123443 0.3724255 0.008326112 0.20622925 0.0020961254
-0.071895406 0.014780492 -0.09702636 0.0014757672 0.0108276885 -0.06777837 -0.1186942 -1.1525692
-0.06561432 0.012871505 0.20678712 -6.852997 -0.19583155 0.11799581 -0.47026378 0.00072146714
0.1201395 -0.06589151 0.07119886 -0.0021327133 0.13126743 0.04862199 -0.0077134436 -0.0018157276
0.34945682 -0.00871426 -0.32294634 0.19814298 0.9162275 -0.0010090147 -0.11354975 -0.010266005
0.018899446 -0.0025934344 0.05261308 -0.008081797 -0.030201716 -0.0042545204 -0.42813176 -0.011071424
-0.010170428 0.0017066579 0.155215 -0.0063067386 0.17084716 0.009189231 0.008154754 0.11689315
0.1277717 0.032791335 0.00439864 -0.01542338 -0.13531825 -0.13167392 0.013479381 -0.026645625
0.052445088 0.20757091 -0.0055965493 0.27719232 0.019563263 -0.6159925 0.0016921465 0.1953785
-0.003498984 0.05466673 -0.004367481 0.047100093 0.0066845273 0.45963588 0.14604463 0.08540674
-0.1307155 0.0011170098 0.082085155 0.14616373 0.077669404 0.029121248 -0.0151876 0.005020639
-0.048394315 -0.008264385 0.0037112494 0.1279084 0.80540645 -0.19533698 -1.1920882 -0.102008246
0.22502996 0.12094832 -0.0043843365 -0.0042142845 -0.059365697 0.16897058 0.008015482 0.02036533
-0.033067897 -0.0048359614 -0.002504602 0.021011308 -0.048581842 0.012182445 0.021903561 -0.007593587
0.43834388 0.08095036 0.13451105 0.011540222 -0.038237173 0.018821953 0.030804345 -0.07797637
0.009446136 0.22343518 -0.012971603 0.08695659 -0.05629596 -0.14323331 -0.010023084 0.04509506
0.006032521 -0.007830026 0.050281126 0.05791565 0.18789822 -0.015485002 0.011721385 0.015385137
-0.27129832 0.018233364 -0.033142697 0.010283609 -0.008865922 -0.009650542 -0.023012815 0.33315673

model.4.bias f4 [256]
00000000: 1bc1 963d 73d2 473e a59b a4bb 5343 a13b
00000010: 6a1f 183e 1252 c53d 2473 933d 7567 1f3c
00000020: 40bd 54bd eafa 32bd 82c3 7abb 11c0 8bbb
00000030: c7e3 ca3d dc05 bbbb b47a d1bc 0a19 05bc
00000040: 870d 703d 5deb 15bc 0b1c 6bbc 8faa 93bd
00000050: bb39 283d 9bcc 89bd d2ac f13c 94f4 08be
00000060: fc5a 9abb 8116 073e 9e6d 82bd 79ca 3c3e
00000070: 61ca 823d 0968 d83b fb86 39bd efaf df3c
00000080: 6886 363c 54da 0abe a281 cabb 9871 07bc
00000090: 8d47 0bbd ccf3 87bc 5ec8 033d 7bf8 2d3e
000000a0: ea10 ee3d a047 d13b e1e4 f13c f953 c23d
000000b0: 215c aabd e849 873d 176f 05bc 75ec 4dbb
000000c0: 366c 0bbd a77f 583d d551 e7bd 2da8 1bbc
000000d0: 03be bb3d 67d5 e9bb eaae 23bb babd 64bc
000000e0: ccf2 cebb 17be 3cbd c27a af3b 20b4 ccbc
000000f0: 9f4c 1fbc 8feb 44bd cb7d 933b c992 ea3b
00000100: 3be2 dbbb 227f 99bb a537 9c3d e870 02bb
00000110: 122e 21bd 88f8 0bbd e61a bdbd 5e02 f1bc
00000120: d166 b6bd 4b98 80bb 2dc6 0abc f524 223e
00000130: 7df3 85bd 82dc ebbb 368e 9f3c 0f32 c2bb
00000140: 0d70 e23d 6b58 b7bd 796a 5c3d 43e9 48bc
00000150: bd34 8cbc 5184 d1bd 37ff 89bd 514a 0bbe
00000160: 21e7 bdbb 6154 9bbb 9587 c8bc a02b 3e3e
00000170: d74d 523b 73af 44bd 2fc6 853d 4240 97bb
00000180: 630e 033e 0a52 e63d d1ed 243d 0300 3a3e
00000190: f57c 173b f605 89bd 98b9 afbc eccd c9bb
000001a0: 49c1 22bc 8536 3c3e 4981 77bc 0992 23bb
000001b0: 68bc c4bb 9278 b63c f222 a93d 5a78 4a3d
000001c0: 1c4e 4dbb b977 043e f58f b03c 06a7 13bc
000001d0: de04 13bc dad6 593c c332 bf3c febd 30bc
000001e0: f130 c63d 254f 9bbd 1a13 cb3d 99a3 5bbd
000001f0: 5501 1c3d cab2 863d d932 3c3d 678f 03bd
00000200: 77ec ddbc a975 0bbc 79f3 a13d 2a9a 223d
00000210: 9e7a 1abe bf5d 9e3d fe09 b63d 65f5 adbd
00000220: a9c5 65bc ac91 8f3d a34a 38bc 6b1b d7bb
00000230: 9bdb 373e 0cb5 a1bc f68d 90bb e095 c13d
00000240: 49c4 bfbb 0e14 3bbc 2bdd 0d3e c0d0 63bb
00000250: 0344 c7bb 3332 07bc 3286 6abc 5755 0cbc
00000260: 3fce 84bc 143a 2d3d 6c8e 903d 9b25 01bc
00000270: 0a5e 16bc 8540 473e 6317 bfbb 8ba6 0a3e
00000280: 3c26 343e bfa8 f1bc 57b2 fa3d 152b c5bb
00000290: 0d57 02be 46b9 a1bd e6b2 ef3d a072 f5bb
000002a0: 602f c43d 8057 c03c 6f66 403e 5070 0a3e
000002b0: 4509 473e 5c0e a0bc 8ada 35bb 7bdc 9fbb
000002c0: 01b6 babc 77fb 6d3d 8907 403e 15c9 a3bb
000002d0: fe6b 8e3c e8bc cabd b709 5a3d 3764 fe3c
000002e0: 7675 8e3c 043b e2bd f279 3c3d ef7d 21bd
000002f0: 4964 84bc a6f5 8ebb 8a50 b8bb 24e5 e4bb
00000300: a5d0 3a3d e4de b5bc bf4c b43c 0290 723d
00000310: 9710 49be bf54 5bbc 099b 1ebd 6a29 643c
00000320: 6233 483d 9fb5 b03c edc8 05bc e7b2 2f3d
00000330: baac 5cbc 371e d3bd b19d cabb 1795 80bc
00000340: 021f c53d 170f 96bb 1634 10bc 805c a2bb
00000350: 0aac afbd c609 083e 2a53 7fbc 737c 98bb
00000360: 0d0a 0cbc fb72 f13d 97a2 bcbd fffe c13d
00000370: e8e6 053e 084d e33d d105 b83c 37fc 12be
00000380: d734 f83d 25a1 ab3c 5ad3 1bbc 56c5 013e
00000390: e2b2 4a3d c9ac c3bb 26c0 7fbd af33 90bd
000003a0: 9053 44bd 449a 66bd 0c38 27bc bda1 1ebb
000003b0: 1b2e c9bc 7eb7 1b3e ad29 bebb ed5a 9d3d
000003c0: c755 f13d 6497 95bb ce2d 82bc 03b2 c43c
000003d0: 18fb 523d d0d8 ffbc a064 cd3d 22f1 46bc
000003e0: edfd 3abc ee25 173e e094 f43d 576b a6bb
000003f0: 67ff d63b 54bc a5bd fa9d 373e a7e0 173d
0.07361051 0.19513874 -0.005023437 0.0049213558 0.14855734 0.09634794 0.07199696 0.009729256
-0.051938295 -0.04369632 -0.0038263504 -0.0042648395 0.09906726 -0.0057074856 -0.025571205 -0.008123646
0.05860665 -0.009150353 -0.014349948 -0.07210266 0.04107068 -0.067284785 0.029501352 -0.13374549
-0.004710553 0.13192178 -0.06368564 0.18436612 0.06386257 0.006604199 -0.045294743 0.027305571
0.011140443 -0.13559848 -0.006180004 -0.008266829 -0.034003783 -0.016595744 0.032173507 0.16989319
0.1162432 0.006386712 0.029528083 0.09488673 -0.083183534 0.066058934 -0.008144162 -0.0031421457
-0.034038745 0.052856114 -0.11294905 -0.009500545 0.09167101 -0.0071360352 -0.0024976083 -0.01396125
-0.0063155647 -0.04607972 0.00535521 -0.024988234 -0.009722858 -0.04807621 0.0045010797 0.0071586114
-0.0067103184 -0.004684345 0.07627801 -0.0019903723 -0.039350577 -0.034172565 -0.09233646 -0.029420074
-0.089063294 -0.0039244047 -0.0084701 0.1583441 -0.06540582 -0.0071979174 0.019476991 -0.0059263776
0.11056528 -0.08952411 0.053812478 -0.012262645 -0.017114991 -0.102303155 -0.067381315 -0.13602568
-0.005795375 -0.0047402834 -0.024478713 0.18571329 0.0032089853 -0.048018884 0.06531941 -0.0046158144
0.12798457 0.112461165 0.040265862 0.18164067 0.0023115252 -0.0669059 -0.021450803 -0.006158581
-0.009933778 0.18380173 -0.015106508 -0.002495887 -0.006003905 0.02227429 0.082586184 0.049431182
-0.0031327074 0.12936296 0.021553019 -0.009011989 -0.008973328 0.0132958535 0.023339635 -0.010787485
0.096773036 -0.07583455 0.09915753 -0.053622816 0.038087208 0.0657707 0.04594693 -0.03211918
-0.027090294 -0.008511939 0.07907767 0.039697804 -0.15085837 0.077327244 0.088886246 -0.08494071
-0.014024177 0.070102066 -0.0112482635 -0.006564548 0.17954867 -0.01973965 -0.0044114543 0.094524145
-0.0058522564 -0.011418356 0.138539 -0.0034761876 -0.0060811057 -0.0082517145 -0.014314221 -0.0085652685
-0.016211627 0.042291716 0.07058415 -0.007882501 -0.009177694 0.19458206 -0.0058316453 0.13540094
0.1759271 -0.02949941 0.12241047 -0.0060170987 -0.1272852 -0.07896666 0.11704044 -0.007490471
0.095793486 0.023479223 0.18789075 0.13519406 0.1943713 -0.019538097 -0.0027748668 -0.0048785782
-0.022791864 0.058101144 0.18752874 -0.004998336 0.017385479 -0.09899312 0.05323192 0.031053646
0.017389994 -0.110464126 0.046014734 -0.03942674 -0.016161101 -0.0043627797 -0.0056248354 -0.0069853235
0.045609135 -0.02220101 0.022009252 0.059219368 -0.19635235 -0.013386904 -0.03872207 0.0139258895
0.048877127 0.021570979 -0.00816558 0.042895224 -0.013468916 -0.103084974 -0.006183349 -0.015696092
0.09625055 -0.0045794356 -0.008801481 -0.0049548745 -0.08577736 0.13284978 -0.015583793 -0.0046535074
-0.008547318 0.11789509 -0.09210699 0.09472465 0.13076365 0.11098677 0.022463711 -0.14354025
0.121194534 0.020950863 -0.009510839 0.12672934 0.049487002 -0.0059715253 -0.062439106 -0.07041108
-0.047931254 -0.056299463 -0.010206234 -0.002420529 -0.024558118 0.15206715 -0.005803308 0.07683358
0.11783939 -0.0045651663 -0.015890982 0.024010664 0.051508993 -0.031231314 0.10028958 -0.0121424515
-0.01141308 0.14760563 0.11942458 -0.005078714 0.006561208 -0.08092561 0.17931357 0.03707948

model.6.weight f4 [1, 256]
00000000: 44b0 b83e c5d7 473e b7d1 6e3b b035 6abf
00000010: a295 023e 0247 793e 2f7d b63e 1475 e1be
00000020: f2f9 25c0 3977 c83b f292 fc3b 8a82 fc37
00000030: b121 873e f695 9dba ba1a b9be 2333 feba
00000040: 172a e0be 8e4a c83b fe6c 813a 86f7 79bf
00000050: ebd1 61bf 6e7c 04c0 8043 6ac0 820d 03bf
00000060: ff04 4fbc 9aad a63e ece6 ca3c 2429 833e
00000070: aeeb 9c3e 853e 5abf 0284 b1bc a637 cfbf
00000080: 5b0d 87bf d5af 1440 4a81 7cb9 7925 293b
00000090: eeab 15c0 1e73 a93b 4934 9bbf 94d8 263f
000000a0: 72d4 263f 6447 aebf d6e7 57bf 4af0 313f
000000b0: 93fa 57bf 439d 9d3e 7e9a 9c3b 94bd 3d3c
000000c0: ca5d 7fbc 928a 72be 54a1 70c0 2aa6 01be
000000d0: b813 ff3e 3ebc 1b3c 4d74 143c 3d29 47bc
000000e0: e643 6cbf e0c6 df3b 9ef9 02c0 92a5 e8bf
000000f0: ccbc d83b 53a5 56bf 9535 82bf f709 4ac0
00000100: d89b f23c beb4 003b 0996 0bbf 182c 9ac0
00000110: 9e7c 7ebc 85d6 61bf 8d9d c9bf d266 17bf
00000120: 3f65 c5bf a287 8dbb f15a a33a 54a4 073e
00000130: 6400 eabe 1849 4c3c dd29 2b40 3522 35bc
00000140: f885 803e 3326 12c0 5261 b9bf f56e ef3b
00000150: 6975 adbe a397 89bf 334d 0abf a50b 43c0
00000160: 33f7 ee3b 279c e43b 6df1 4dc0 b958 3d3e
00000170: d837 6fc0 2e42 55b8 0c4d 6cbe 0e90 963a
00000180: a3ee 093f 1378 983d 11fe 36bf 676c 373e
00000190: 9662 51bf beaa 06bf a360 15bb 6454 843b
000001a0: 8bdf c13a 08f3 833e 8286 6b3b d64a 803b
000001b0: 14ab 273b 1c77 9cc0 4ba0 373d 699f 18bf
000001c0: f0e8 9bbc 1e97 0b3f 38dd 85bd 7a0e e53c
000001d0: 7564 643a 54e3 ddbf 3e63 cac0 f8b8 87bf
000001e0: 9758 88bf 5e4c 6cbf 1528 823e 8545 45bf
000001f0: fee9 b2be 7ca4 1f40 ec70 e0c0 dae6 f5bf
00000200: 113e 833b 01b4 1f3b b23e b23e 29bf ddbe
00000210: 7d4a 5fc0 f449 e7bf 178b 7e3e edb0 07c0
00000220: 2d51 643c 7eca a33e 19cd 743b 4d9e 483c
00000230: d166 303e 2d3e b53b 2055 2c3c b4d5 693e
00000240: 6d53 553c fb0e f93b a062 1e3e a41f 6dbb
00000250: 8680 cd3b 9fff 4b3a 601f 043c a8c0 113c
00000260: 792b d6bd a809 cfbe 4b92 1cbf c5ae d0b9
00000270: f5b7 673b 6c04 4f3e 9df2 8838 87a2 893f
00000280: 954a 2c3f a91c 3440 1b01 9d3e d4ea 973c
00000290: 93d5 b9be 4a71 8dbd 8088 bb3e 5b35 aa3b
000002a0: 8df2 783e aaee 0ec0 cf2e 423e 2bef 893f
000002b0: 0ad4 463e 9057 5c3c d01d 533c 831e 043d
000002c0: 818b 3bc1 8917 1d3c 20f6 3f3e 9412 413a
000002d0: cbf9 d4bf 807f 36be 68ee b7be 71de 33bf
000002e0: 925b 80bf ccf8 0cc0 01f0 bdbe 74ea 95bb
000002f0: 18a7 303c 9e62 3e3b a3c4 b13b 2b08 56bc
00000300: b0a0 46c0 85de a5bf fd5e 05bf 4505 423c
00000310: a0ab 63c0 70fe ad3b 9806 a9bf 5f0d 9e3f
00000320: 758d dabf e289 aebf 5e39 1e3c 9641 1ec0
00000330: 278d 04bc 246f 3ebf 9f07 1e3c fe5a a83b
00000340: f78d 7a3e 2886 923b cb9c 89b9 8817 a83a
00000350: 30b5 9440 dc77 c93d 738f cbbf 1ce1 8d3b
00000360: 8714 9f3b 18ac c73e 9028 c4c0 f73c 673d
00000370: f53f 1e3f ece0 843e e73f f2bf f51b 40c0
00000380: 3b53 ad3d 1efa 04bf f826 3cbb 81b9 bb3d
00000390: 1d6b f4be f23c a43b 5a2f a0bf e129 cabf
000003a0: 3cad 0bbf f71f 06bf 8104 b73b a047 d9bf
000003b0: 6808 f73b 5e10 3a3e 9e87 93bc cd78 1f3d
000003c0: 1944 be3e c38e d43a 92b7 a53c 0593 80bf
000003d0: 354d a53f 57fe 2a3c d3d4 813e b2ed 02c1
000003e0: f1f6 983a 1808 f13d 5148 ab3d 6be3 593c
000003f0: 5bb4 98bf dede 1540 5950 303e 429b 6ebf
0.3607198 0.19515903 0.0036440918 -0.9148817 0.12752393 0.24343494 0.35642383 -0.44034636
-2.5933805 0.006117728 0.007707947 3.0101528e-05 0.26392892 -0.0012022841 -0.36153203 -0.0019393902
-0.43782112 0.0061124032 0.0009874401 -0.97643316 -0.88210934 -2.0700946 -3.6603699 -0.51192486
-0.0126354685 0.32554322 0.024768315 0.25617325 0.3064856 -0.8525165 -0.021669392 -1.6188858
-1.0550951 2.323232 -0.00024080757 0.002580969 -2.3386188 0.0051711937 -1.2125331 0.6517422
0.65167916 -1.3615537 -0.8433813 0.69507277 -0.8436672 0.30784044 0.004779159 0.0115808435
-0.015586326 -0.23685673 -3.7598467 -0.12661043 0.49819732 0.00950533 0.009060931 -0.012155828
-0.92291105 0.0068291277 -2.0464854 -1.8175528 0.006614303 -0.83846015 -1.0172602 -3.1568582
0.029615328 0.001963898 -0.5452581 -4.8178825 -0.015532641 -0.88217956 -1.5751206 -0.59141266
-1.5421523 -0.004319147 0.0012463016 0.1324628 -0.45703423 0.012468599 2.6744301 -0.011055519
0.2510221 -2.2835815 -1.4482825 0.0073069283 -0.3387864 -1.0749401 -0.54024047 -3.0475857
0.007292652 0.0069766226 -3.2178605 0.18490876 -3.7377834 -5.0844792e-05 -0.23076266 0.0011487023
0.53879756 0.07444777 -0.71481425 0.17912446 -0.81791055 -0.5260428 -0.0022793196 0.0040383805
0.0014791352 0.25771356 0.0035938327 0.003915171 0.0025584148 -4.8895397 0.0448306 -0.5961824
-0.019031972 0.5452746 -0.06536335 0.027961005 0.0008712479 -1.7335 -6.3246145 -1.0603323
-1.0652035 -0.9230403 0.25421205 -0.77059203 -0.34944147 2.4944143 -7.0137844 -1.9211075
0.0040052016 0.0024368765 0.34813458 -0.43309906 -3.4889214 -1.8069444 0.24857746 -2.1201737
0.013935369 0.31990427 0.0037353693 0.012244773 0.17226721 0.0055310936 0.010518342 0.22835428
0.013020379 0.0076006628 0.1546731 -0.003618219 0.0062714247 0.0007781926 0.008064121 0.0088960305
-0.104575105 -0.40437055 -0.61160725 -0.00039803065 0.003535745 0.2021653 6.5301756e-05 1.0752724
0.67301303 2.8142493 0.30664906 0.018544592 -0.36295757 -0.06906374 0.3662758 0.0051943487
0.24311276 -2.233317 0.18963169 1.0776113 0.19416824 0.013448611 0.012885526 0.03225566
-11.721559 0.009588131 0.18746233 0.0007365134 -1.6638731 -0.17822075 -0.35924077 -0.70261294
-1.0027945 -2.2026854 -0.3709717 -0.004575068 0.010782026 0.002905048 0.0054250523 -0.013063471
-3.1035576 -1.2958533 -0.52098066 0.011842077 -3.5573502 0.0053098723 -1.3205137 1.234783
-1.7074419 -1.3635828 0.009657232 -2.472753 -0.008090294 -0.7438834 0.009645372 0.0051378002
0.24468218 0.004471559 -0.00026247496 0.0012824396 4.6471176 0.098373145 -1.5903152 0.0043298136
0.004854742 0.38998485 -6.1299515 0.056454625 0.6181634 0.25952852 -1.8925751 -3.0017064
0.084631406 -0.5194415 -0.002870975 0.091662414 -0.4773797 0.005012148 -1.251445 -1.579403
-0.5456121 -0.52392524 0.0055852537 -1.6974983 0.007538844 0.18170306 -0.018009003 0.038933564
0.3716133 0.0016216863 0.020229135 -1.0044867 1.2914187 0.010436616 0.25357684 -8.183031
0.0011670274 0.11769122 0.08363403 0.01329885 -1.193004 2.3417277 0.1721815 -0.93205655
