Models/Bloom_filter/result/model-dict-85.pt (torch, 533323 bytes, 7 tensors)

model.0.weight f4 [256, 2]
000000 b9 b0 5f ba 08 0c 3a b8 bb 8b b3 b9 6a 9b ac 38
       -0.00085331086 -4.435706e-05 -0.00034245648 8.230547e-05
000010 aa 8b c1 39 2b bf ce 38 9e 82 8c ba 8c ca 70 ba
       0.00036915886 9.858453e-05 -0.0010720079 -0.0009185455
000020 54 ae 13 ba 0b 7e a5 ba 94 47 16 bb dd 84 90 3a
       -0.0005633582 -0.0012626065 -0.0022930847 0.0011025924
000030 c3 c0 0e bf ee d5 25 bd 8d f5 bd 38 4d 56 61 ba
       -0.5576288 -0.040487222 9.05796e-05 -0.00085959287
000040 e1 ce 9b be 6c 4a cb 3e c4 52 0a ba 07 33 7f 39
       -0.30431274 0.39705217 -0.0005276615 0.00024337704
000050 bc 94 3d bd 73 e0 ed 3e 6d 45 d4 b9 0d 3d 5e b9
       -0.046284422 0.46460304 -0.00040487517 -0.00021194313
000060 0a 68 d2 bf 50 44 3f 3e ea 36 90 b9 d1 51 6a 39
       -1.6438 0.18678403 -0.00027506734 0.00022346458
000070 71 7b 83 b9 39 1c 1f 3a 96 7a 18 ba d7 80 a8 39
       -0.00025078238 0.0006069574 -0.00058166066 0.0003213945
000080 f0 46 41 bb 37 26 e0 3a ad 87 14 ba 8d a0 39 b9
       -0.0029491745 0.0017101233 -0.0005665969 -0.00017702785
000090 3e 00 0a ba 07 a6 6e 39 58 dd 06 ba f6 c6 6f 39
       -0.00052643183 0.00022759299 -0.0005144677 0.00022866935
0000a0 aa 22 ac ba 16 a0 53 3a 03 41 e5 b9 08 4a 71 37
       -0.0013132889 0.0008072866 -0.0004372672 1.4381956e-05
0000b0 b8 27 12 ba b0 c5 60 ba 82 f1 6f be 0b 02 41 bf
       -0.00055753766 -0.00085743796 -0.23431972 -0.7539374
0000c0 06 5a b2 b9 7e 22 d5 39 fd ae 04 3a 52 9c 02 3a
       -0.00034017878 0.00040652225 0.00050614757 0.00049824
0000d0 2d 6d 56 ba 19 07 91 b9 ff ff 23 bf 81 90 31 3e
       -0.00081797206 -0.00027661843 -0.64062494 0.1734028
0000e0 ab ce dd b9 17 26 8a b9 7a c5 f7 b9 eb 82 d6 38
       -0.00042306384 -0.0002634979 -0.00047258643 0.000102287006
0000f0 27 7f 97 ba 62 94 81 b9 de 4c 43 3d f0 fd 73 bf
       -0.001155828 -0.0002471535 0.04768073 -0.9530935
000100 2d c1 b7 3e 4d 31 d4 bf a9 51 90 3e 5a 94 96 be
       0.3588957 -1.6577545 0.28187302 -0.29410058
000110 f5 15 3c 38 3f 4e 22 bb 0a 9a 82 39 5a 8c e5 b9
       4.4843142e-05 -0.0024765877 0.000249103 -0.00043782854
000120 e8 7e 9a 39 93 89 2e ba bb 75 03 ba 17 5d bb ba
       0.00029467721 -0.00066580734 -0.00050147966 -0.0014294711
000130 b2 5c 97 3e 2d 15 f3 3d c1 52 e7 b9 f4 44 89 ba
       0.29562908 0.11869273 -0.0004412141 -0.001047282
000140 f2 48 87 3e ad 5d e7 bd f6 20 87 3e 4f 7b d2 bd
       0.2642284 -0.11297164 0.26392335 -0.102774255
000150 fa f8 96 b9 c4 af 94 b8 40 ce fa bb f3 d2 aa bc
       -0.00028795731 -7.089929e-05 -0.0076539814 -0.020852542
000160 9a b9 30 b9 fa 43 61 ba 6f 80 17 ba d0 e9 3b b8
       -0.0001685381 -0.0008593198 -0.0005779331 -4.480203e-05
000170 55 7e d2 b6 62 67 82 b9 52 1a de 39 41 4a db b9
       -6.2731947e-06 -0.00024872558 0.0004236275 -0.00041826259
000180 c7 22 37 3a b5 e9 79 39 19 40 7e 39 2c 5b 4d ba
       0.0006986078 0.00023833553 0.00024247206 -0.0007833715
000190 3c 86 26 b9 2f 26 75 b8 44 ee b7 ba 47 3a 9a 3a
       -0.00015881 -5.8448113e-05 -0.0014032801 0.0011766636
0001a0 a0 ad 44 be 51 fd ba 3e 3f 5f dc ba ac f5 49 b7
       -0.19206858 0.3652139 -0.0016813054 -1.20377335e-05
0001b0 cd b6 4e be 7e 80 48 bf 0d f2 a3 b8 86 c1 83 b8
       -0.2018692 -0.78321064 -7.817531e-05 -6.282613e-05
0001c0 9d 6a ac 3e bd 31 46 3d f1 cd 21 39 45 5f 5e b9
       0.3367509 0.048387278 0.00015430876 -0.0002120706
0001d0 12 ee 17 ba 84 f8 cf b9 ba be 8d 3e f2 e9 cd bd
       -0.0005795668 -0.00039667275 0.27684575 -0.10054387
0001e0 5d a7 14 b8 f6 62 57 38 ea 4c 1a b9 a5 b9 69 b9
       -3.544182e-05 5.135216e-05 -0.00014715237 -0.0002228977
0001f0 f6 47 8e 39 4e 57 eb 39 5c 0e 51 ba d9 81 a5 ba
       0.00027137966 0.0004488774 -0.0007974857 -0.0012627199
000200 82 5e e8 b9 75 92 0d 39 4e b6 0d ba 8b d3 1f b9
       -0.00044320902 0.00013501367 -0.00054058887 -0.00015242228
000210 6a 6d 98 b9 73 9c 81 ba c3 7e d0 be 23 e5 41 bd
       -0.0002907322 -0.0009888544 -0.40721712 -0.047337662
000220 02 e9 97 3e ee 3a 12 be 8c a8 8b 3e 76 f3 35 3e
       0.29669958 -0.14280292 0.2727703 0.17768654
000230 21 67 f6 b9 3d 17 6b ba 5a 94 4a b9 2f 21 12 b9
       -0.00046997613 -0.00089680013 -0.00019319486 -0.00013936007
000240 8f c2 d4 b9 59 23 96 b8 b3 38 0a 38 37 7d b2 ba
       -0.00040580748 -7.1591414e-05 3.295457e-05 -0.0013617639
000250 95 fb 67 b9 41 f6 3b b9 f3 d1 01 be 6c 54 cb 3e
       -0.00022123598 -0.00017925446 -0.12677746 0.39712846
000260 84 d4 88 3e be fe 77 be a0 64 62 3e 47 2d a2 be
       0.26724637 -0.2421827 0.22108698 -0.3167517
000270 a9 34 84 39 b9 d3 67 b8 00 21 a7 b8 72 6e 3d b9
       0.00025216237 -5.5271874e-05 -7.969327e-05 -0.00018065589
000280 2a fd d6 38 97 03 db b9 ba 31 a0 b9 ed 7e a8 b9
       0.00010251471 -0.0004177361 -0.00030554627 -0.00032138024
000290 8d c2 91 3e 26 18 ae be 6c 6b e9 be f0 d7 96 bd
       0.28468743 -0.340028 -0.4558977 -0.073654056
0002a0 17 a7 56 bf 7d c4 cc be 4d b9 67 b9 84 ad 3a ba
       -0.8384871 -0.3999366 -0.00022098907 -0.0007121193
0002b0 85 26 31 bd 48 2a 21 bf a6 33 d5 b9 9e c1 21 ba
       -0.043249626 -0.6295514 -0.00040665007 -0.0006170514
0002c0 96 54 1c b9 13 fc a3 ba df 12 1d ba da e7 80 b9
       -0.0001490883 -0.0012511037 -0.0005991887 -0.00024586805
0002d0 2f 01 11 39 f8 50 be b9 1f 0b 88 3e f0 0d ef bd
       0.00013828719 -0.0003629995 0.26570985 -0.1167258
0002e0 0e af d9 b9 21 3e e5 39 ae a5 93 3e 90 8b 5e be
       -0.0004151989 0.00043724573 0.2883734 -0.21732926
0002f0 72 50 9d 3a e7 b2 9a 3a eb a9 11 ba 10 39 a1 39
       0.0012002124 0.0011802585 -0.0005556631 0.00030750828
000300 58 e0 ff b9 0e ad ad b9 c7 9f e1 b9 e3 0d 4c ba
       -0.0004880454 -0.00033126067 -0.00043034388 -0.00077840517
000310 b3 9e 83 3d 5d 86 2b bf 64 38 86 b8 d0 b2 b9 39
       0.06426754 -0.670019 -6.4001215e-05 0.00035419175
000320 55 ff 90 3e 83 fb 96 be 92 b1 a7 ba 0c 78 26 3a
       0.28319803 -0.29488763 -0.0012794009 0.0006350286
000330 c4 1d 62 3e 8d 9c dc be 19 4c 32 b9 5e ef 23 3a
       0.22081667 -0.4308819 -0.00017003751 0.0006253625
000340 85 6a bf b9 eb 4d b1 37 98 35 ba bd 95 1c 12 3e
       -0.00036509722 2.1136328e-05 -0.090922534 0.14268716
000350 5b b9 00 ba 39 c2 4e 38 1d 96 c2 b9 2b 0b 6d 39
       -0.00049104326 4.929511e-05 -0.00037114407 0.00022606242
000360 75 70 e9 be a5 b6 c1 3e 49 0c 17 be ad f0 f3 3d
       -0.4559361 0.3783466 -0.1475078 0.1191114
000370 5a 63 c2 b8 41 d3 9a b9 18 35 81 bc 27 5c 0a bf
       -9.2691465e-05 -0.00029530565 -0.015772387 -0.54046863
000380 ff e7 32 ba e2 21 30 3a 96 da 07 ba 01 a0 c1 39
       -0.0006824731 0.0006718916 -0.0005182413 0.0003693104
000390 b5 05 3e 3e 8d 08 24 3e 1e 2e e2 b6 50 66 61 ba
       0.18556865 0.16018887 -6.7406936e-06 -0.00085983146
0003a0 b1 1b 83 3e f6 23 5a bf 8b 08 7b 37 65 7f 11 39
       0.25607064 -0.8521112 1.4962755e-05 0.00013875736
0003b0 4c 71 ee b8 59 2f 3d ba 09 31 b9 b9 58 2c 09 3a
       -0.000113698276 -0.0007216833 -0.00035322484 0.0005232743
0003c0 76 15 ed b9 f9 4f 11 b8 da 96 09 ba c8 fd ef ba
       -0.00045220152 -3.4645174e-05 -0.0005248614 -0.0018309886
0003d0 1f 35 e5 39 02 d2 a2 ba a5 76 98 b9 a2 77 01 3a
       0.00043717862 -0.0012422206 -0.00029080096 0.0004938786
0003e0 b9 26 81 3e cb 64 aa be 20 a7 31 39 8a 7f ae ba
       0.25224856 -0.33280024 0.00016942294 -0.0013313156
0003f0 15 c9 12 3e 8d ee e2 be af 4c 19 bf b1 77 72 3e
       0.14334519 -0.44322625 -0.59882635 0.23678471

model.0.bias f4 [256]
000000 00 00 00 00 04 9f da b9 67 ac 86 ba 00 00 00 00
       0.0 -0.00041698676 -0.0010274769 0.0
000010 00 00 00 00 67 3f 12 ba 9a 12 2e 3e 5c ef c7 b8
       0.0 -0.00055789057 0.16999283 -9.5336436e-05
000020 08 bf 0c bd 5f 05 23 ba e1 09 d9 bd 00 00 00 00
       -0.03436187 -0.0006218757 -0.105975874 0.0
000030 92 ea 1c 3e 7b c6 8d b9 21 6e 01 ba e8 41 31 ba
       0.15323856 -0.00027041495 -0.000493737 -0.0006761835
000040 29 4d e5 ba 00 00 00 00 14 56 1f ba ff 3b 90 b8
       -0.0017494309 0.0 -0.00060781953 -6.87763e-05
000050 f6 37 73 b9 9f dc e2 b8 00 00 00 00 df 35 4e 3e
       -0.00023195133 -0.00010817614 0.0 0.20137738
000060 45 b0 9f b9 e3 b1 f9 ba 00 00 00 00 64 f1 c3 3d
       -0.00030458174 -0.0019050207 0.0 0.09567526
000070 00 00 00 00 70 a5 06 ba 00 00 00 00 11 02 1b 3e
       0.0 -0.00051363464 0.0 0.15137507
000080 59 d9 a4 bc 83 94 46 bd a0 0f 16 b8 46 ec 51 b9
       -0.02012317 -0.048481476 -3.577734e-05 -0.00020019812
000090 48 95 84 b9 00 00 00 00 fb 93 67 be 00 00 00 00
       -0.00025288225 0.0 -0.22615044 0.0
0000a0 31 b9 1b be 9c 9f 18 be 00 00 00 00 87 43 94 bc
       -0.15207364 -0.14904636 0.0 -0.018098606
0000b0 cd 81 f9 b9 00 00 00 00 00 00 00 00 c9 fc 15 ba
       -0.0004758969 0.0 0.0 -0.0005721567
0000c0 5d 03 78 ba 86 f1 a0 b9 00 00 00 00 01 c7 2f ba
       -0.00094609504 -0.00030697527 0.0 -0.0006705374
0000d0 6b 4d 56 bd 00 00 00 00 25 4f 4d 3e 3b 08 c7 36
       -0.052319925 0.0 0.20049722 5.9316203e-06
0000e0 1e c0 12 be 69 c8 02 b9 00 00 00 00 70 5d 26 be
       -0.143311 -0.00012472425 0.0 -0.16246581
0000f0 db 0f c4 b8 00 00 00 00 5a b3 3d ba 73 67 12 ba
       -9.3489616e-05 0.0 -0.00072365033 -0.0005584873
000100 ce 9d f3 b8 00 00 00 00 3e 12 63 b7 fd 44 12 3e
       -0.00011616536 0.0 -1.3534502e-05 0.1428413
000110 a7 97 6d bd b4 6d 43 be 00 00 00 00 00 00 00 00
       -0.058005955 -0.19084817 0.0 0.0
000120 c7 72 c8 b9 18 16 df b7 00 00 00 00 86 90 ff bd
       -0.00038232488 -2.659396e-05 0.0 -0.124787375
000130 70 8b 88 bd 1b 44 74 3c 5b fd 70 b9 00 00 00 00
       -0.066672206 0.014908816 -0.00022982566 0.0
000140 09 b6 ac b8 00 00 00 00 92 73 1c bd 30 e6 1a 3e
       -8.235506e-05 0.0 -0.038196154 0.15126872
000150 8b 69 67 3e 00 00 00 00 e5 92 24 3e 00 00 00 00
       0.22598855 0.0 0.16071661 0.0
000160 00 00 00 00 00 00 00 00 6e b6 2d b9 5b ae 1b be
       0.0 0.0 -0.00016566526 -0.1520323
000170 9f a9 12 ba 25 ed c4 bd fc ab 8a bb 1a 34 d4 b8
       -0.00055947335 -0.09615544 -0.004231928 -0.000101186524
000180 00 00 00 00 00 00 00 00 7a ba 18 3e 48 0b b0 b9
       0.0 0.0 0.14914885 -0.0003357774
000190 d6 d8 4c bd 02 e7 bb b9 63 88 3c 3b b1 b5 10 ba
       -0.05001148 -0.00035839534 0.0028767816 -0.0005520238
0001a0 01 b1 c5 b8 05 0f c6 bd dd 91 49 b8 cf 4e 8b b8
       -9.4266616e-05 -0.096708335 -4.805798e-05 -6.642716e-05
0001b0 92 e8 07 3d 31 2d 9c bd 57 81 85 37 80 d1 79 3e
       0.03318078 -0.07625807 1.5915064e-05 0.24396324
0001c0 29 16 5a ba 79 5a 22 ba a3 94 6f be 00 00 00 00
       -0.0008319342 -0.0006193291 -0.23396544 0.0
0001d0 ff f7 06 3d 92 25 21 b9 34 ea 3a 37 f2 cc 18 ba
       0.03295135 -0.00015368153 1.1140994e-05 -0.0005828879
0001e0 98 f2 bc b9 93 c2 91 b9 98 7e b7 b9 04 e9 c3 b9
       -0.000360389 -0.00027801524 -0.000349988 -0.00037366909
0001f0 46 64 12 3c 18 88 0e b9 56 37 1d 3e ac d2 47 3d
       0.00893504 -0.00013592874 0.1535314 0.048784897
000200 00 00 00 00 9f 33 81 be 00 00 00 00 00 00 00 00
       0.0 -0.25234696 0.0 0.0
000210 e8 fa 01 3d b9 f0 c6 bd 51 01 62 ba 00 00 00 00
       0.031733423 -0.09713883 -0.0008621412 0.0
000220 16 4b 5f b9 c1 27 ee ba 70 8c 4f 3e ae 8e 35 3e
       -0.00021294909 -0.0018169807 0.20268416 0.17730209
000230 c2 69 42 b9 63 9a bb 38 00 00 00 00 80 80 ef b8
       -0.0001854068 8.9456116e-05 0.0 -0.00011420343
000240 bd 20 2f b8 4b 1c 15 ba 09 f6 6a ba 9c 5e 8c bd
       -4.175374e-05 -0.0005688115 -0.00089630537 -0.06853983
000250 00 00 00 00 da 4d 8d b8 d8 74 54 be 00 00 00 00
       0.0 -6.737905e-05 -0.20747697 0.0
000260 81 38 88 b8 00 00 00 00 00 00 00 00 bb 4d 6d be
       -6.49551e-05 0.0 0.0 -0.23174183
000270 86 ee 0c ba 38 a3 19 b9 90 fe 24 3e c0 91 13 3e
       -0.0005376119 -0.00014652021 0.16112733 0.14411068
000280 7c da 7f b8 c6 29 26 bd 05 18 98 bd 11 bd c3 b8
       -6.1000217e-05 -0.040567182 -0.07426456 -9.333541e-05
000290 60 26 55 be c8 15 4d be 00 00 00 00 73 53 12 3e
       -0.2081542 -0.2002784 0.0 0.14289646
0002a0 2a 3f 93 b9 39 1c 4e bd 0a 4f 2d ba 00 00 00 00
       -0.00028085086 -0.050319884 -0.0006611204 0.0
0002b0 21 ce 4a b9 00 00 00 00 00 00 00 00 77 3e 1b be
       -0.0001934101 0.0 0.0 -0.15160547
0002c0 da 56 ab b9 5c 2a 81 be 00 00 00 00 27 5f b9 ba
       -0.0003268037 -0.2522763 0.0 -0.0014142737
0002d0 ce 53 2e ba 2f 89 b3 38 00 00 00 00 00 00 00 00
       -0.0006650061 8.5609376e-05 0.0 0.0
0002e0 bd 97 85 3e 2c bc 07 ba a3 f0 0d ba b2 fb b7 bb
       0.2609233 -0.0005177881 -0.0005414581 -0.005614721
0002f0 37 7d 49 3e 30 17 52 b9 e8 95 75 bd 3e 63 30 ba
       0.19676672 -0.00020035799 -0.059957415 -0.00067286554
000300 3d 32 18 bd 00 00 00 00 4a 67 c5 ba cd 4d 31 be
       -0.037157286 0.0 -0.001506069 -0.17314835
000310 00 00 00 00 00 00 00 00 75 b8 f9 b8 0e 6d 7e 3d
       0.0 0.0 -0.00011907603 0.06211572
000320 36 bd 47 bc 77 1f 7f 3d 00 00 00 00 6c 25 0f 3e
       -0.0121911075 0.062285867 0.0 0.13979119
000330 00 00 00 00 0e 50 07 b9 04 2c 42 b8 00 00 00 00
       0.0 -0.00012904426 -4.6294197e-05 0.0
000340 00 00 00 00 00 00 00 00 2d 0a 07 ba ab 52 16 ba
       0.0 0.0 -0.00051513576 -0.00057343644
000350 90 d1 1a b9 00 00 00 00 00 00 00 00 00 00 00 00
       -0.00014764653 0.0 0.0 0.0
000360 d2 ff 6d be 3d ae da bd f9 42 17 ba 86 c8 21 b9
       -0.23242119 -0.106777646 -0.00057701726 -0.00015428857
000370 22 7a ba b8 00 00 00 00 00 00 00 00 dc bc 37 b8
       -8.89192e-05 0.0 0.0 -4.380649e-05
000380 00 00 00 00 9f 9f 0e 3e 25 51 ba ba f3 3d 4c be
       0.0 0.13928078 -0.0014214857 -0.19945507
000390 9b 7d be b8 00 00 00 00 50 5e 39 3e a5 79 4f 3e
       -9.083302e-05 0.0 0.18102384 0.20261247
0003a0 1a 59 16 39 f0 6e a2 3e 0b 5b 01 bd 0f da 8f bb
       0.00014338308 0.31725264 -0.031580966 -0.0043900083
0003b0 00 00 00 00 46 38 f3 bc 80 e1 45 3d 98 35 24 be
       0.0 -0.02968992 0.048310757 -0.1603607
0003c0 3c 94 6c b9 6e a0 05 bd 6c 53 82 b9 00 00 00 00
       -0.00022561935 -0.0326237 -0.00024857686 0.0
0003d0 8e fe fa 3c 00 00 00 00 93 70 c4 38 5f fa 60 ba
       0.03063896 0.0 9.366977e-05 -0.000858223
0003e0 65 37 03 3c 2d b2 ec 36 c5 f8 7d bd 62 ee 31 be
       0.008008813 7.0540905e-06 -0.062004823 -0.17376092
0003f0 28 2e 12 3e 85 ff d4 b9 12 14 16 bc bc ba 52 ba
       0.1427542 -0.00040626168 -0.009160059 -0.000803869

model.2.weight f4 [256, 256]
000000 2e 6a 02 3a 60 40 90 b9 9d be 1c b9 b9 f5 1a ba
       0.00049749285 -0.00027513783 -0.00014948328 -0.00059112493
000010 8c 7e 2b ba 4a 41 3a ba 2a c6 2d bf 54 f2 27 b9
       -0.0006541989 -0.0007105066 -0.678805 -0.00016016635
000020 ba db bc 3e aa 8d a6 b9 09 ef 00 bd 0f 24 53 b9
       0.36886388 -0.00031767535 -0.03147796 -0.00020135961
000030 7b 59 5e 37 34 da a4 37 30 74 02 3a 50 22 76 b9
       1.3253065e-05 1.9651932e-05 0.000497642 -0.0002347317
000040 fd 68 b6 ba 0c bb 85 ba 14 df a0 b9 8c 61 bd 39
       -0.0013916787 -0.0010202839 -0.00030683784 0.00036121567
000050 66 59 87 39 c0 92 be 39 7b 89 e8 36 75 61 30 3d
       0.00025815814 0.0003634896 6.9301436e-06 0.043061692
000060 7c f8 2b 3a a6 0d ff bb 9a 40 a1 39 df 64 96 be
       0.00065601594 -0.0077836094 0.00030756445 -0.29373834
000070 42 9a 37 39 f8 50 be 38 55 df 4b b8 0c 93 04 3e
       0.00017509706 9.0749876e-05 -4.8606966e-05 0.12946719
000080 23 54 0a c0 57 67 40 bf 1d 20 a4 39 fb b3 ad 38
       -2.1613853 -0.75157684 0.00031304444 8.282807e-05
000090 f1 f6 0e 39 ca 69 cc 39 32 93 00 3f 21 7c d8 b9
       0.00013634168 0.0003898873 0.502246 -0.00041291214
0000a0 11 1e 79 3a ec 94 a1 3a 3c 09 2e 39 42 1b c3 3b
       0.00095030764 0.0012327707 0.00016597373 0.005954177
0000b0 9a 1b 8f b9 46 a1 cc 37 38 8d 1c 3a c3 77 d4 37
       -0.0002729565 2.4393794e-05 0.0005971971 2.5328138e-05
0000c0 03 6d 9e 39 09 49 dd 39 97 fa da 37 e8 b5 00 39
       0.00030217328 0.0004220682 2.6104315e-05 0.00012274797
0000d0 5c 4b 62 3e 28 94 5f 37 87 e1 0c 3e b5 20 51 3a
       0.2209906 1.3326331e-05 0.13757907 0.0007977591
0000e0 e6 b9 49 bf 60 72 de 37 0a 4f 2d b9 22 d6 60 ba
       -0.78799284 2.6517722e-05 -0.0001652801 -0.000857683
0000f0 1a e3 71 39 2b 7b 0b 3a bb 06 df b8 3e 77 bf b9
       0.00023068153 0.00053207827 -0.00010634722 -0.000365192
000100 df 66 84 3a ec 2f d0 38 0f 26 64 ba f4 2d 04 bf
       0.0010101459 9.927139e-05 -0.0008703181 -0.5163262
000110 98 62 a1 3d 8e 51 bb bf 71 27 0a b8 12 2d c2 b9
       0.078801334 -1.4634264 -3.2938497e-05 -0.00037036143
000120 ae 66 6a b9 0c 27 9f 3a 53 35 5e 39 ea f0 71 3e
       -0.0002235423 0.0012142374 0.00021191435 0.23627058
000130 9c 51 6b bf 13 80 97 3e 39 72 28 ba 0c 59 0b 3a
       -0.919214 0.295899 -0.0006425712 0.0005315698
000140 25 79 b6 39 c9 a8 13 3a 9c df 0b bf 61 48 15 bf
       0.00034804005 0.0005632756 -0.54638076 -0.58313566
000150 31 bf 05 c0 81 fe 1c 3a fd c7 92 3e 92 2e b3 b9
       -2.0897944 0.0005988852 0.28668204 -0.00034176238
000160 75 a1 ae 39 78 82 04 39 7b 00 89 3a eb ee c9 39
       0.0003330816 0.00012637104 0.0010452414 0.00038515715
000170 e7 67 9f 3a d6 b2 1a c0 60 f2 5e bc 08 28 11 ba
       0.0012161703 -2.4171653 -0.013607591 -0.0005537276
000180 58 ac 2d b9 9a c5 2e 3a 43 fe a0 3e c6 69 fc 39
       -0.00016562769 0.0006667018 0.31443986 0.00048143993
000190 ec 42 48 bf 81 db a9 ba 32 18 93 be f6 9f 01 b9
       -0.78227115 -0.0012959094 -0.28729397 -0.00012361989
0001a0 30 15 7f 39 bb 03 af 3d 80 a8 cf b8 a6 ce aa 37
       0.00024326588 0.085456334 -9.901915e-05 2.0361807e-05
0001b0 f3 b1 e1 3e dd 42 9d 3d 5f 5f 08 b9 6d 16 4d 3e
       0.44081077 0.07678769 -0.00013005499 0.20028086
0001c0 62 70 2d b9 ec cb 83 3a e3 3c 17 3f 60 a9 46 39
       -0.00016540432 0.001005528 0.5907728 0.00018945849
0001d0 74 b7 82 be ea 01 0f 3a bd 98 9e 39 eb c2 b4 3a
       -0.2553059 0.00054553023 0.00030249907 0.0013791
0001e0 6c 18 aa b9 b4 f6 d9 3a 77 26 98 3a 0c a4 4e b9
       -0.00032443122 0.0016629309 0.0011608143 -0.00019706803
0001f0 7c 0d 8d 3e 33 f1 40 3a 60 c6 eb 3d b6 1f dc be
       0.2754935 0.000736016 0.115124464 -0.42992944
000200 04 b9 c7 b9 b1 8e 10 3f 17 6b 3a 39 5d 98 ec b9
       -0.00038094085 0.5646773 0.00017778236 -0.00045126947
000210 52 1b 85 be 1b e4 24 c0 5c 59 01 3b d6 cb 03 39
       -0.25997406 -2.5764225 0.00197371 0.00012569068
000220 28 57 64 b8 3d 38 e2 3a 0b 03 80 3d 9f c4 b0 3e
       -5.4440607e-05 0.0017259192 0.062505804 0.3452501
000230 95 62 e4 3a a6 d8 1a 3a 4a 81 a8 b8 d5 fc 47 b8
       0.0017424399 0.0005906917 -8.034946e-05 -4.7680765e-05
000240 26 eb f9 b9 c0 d3 94 b9 eb d9 e9 b9 89 fc 92 3e
       -0.0004766818 -0.00028386526 -0.00044603585 0.28708294
000250 61 5e b8 b8 33 c8 70 39 5b 49 15 3f a2 09 99 39
       -8.791383e-05 0.00022962764 0.58315057 0.0002918961
000260 cc 21 6d b9 30 ac a3 39 e0 90 54 ba 82 8c 4e 3f
       -0.00022614672 0.00031218072 -0.0008108746 0.8068315
000270 ea 32 8f 3a 6b 55 d1 b9 6c dd 2d bf 0b ba 0b bf
       0.0010925208 -0.00039927228 -0.6791599 -0.54580754
000280 c3 98 7b b7 e3 fe d6 3d fc 17 0f 3f 38 80 12 ba
       -1.4996333e-05 0.104978345 0.5589597 -0.0005588564
000290 ef 9f 8a be 23 f7 0c 3f 80 d8 58 b9 76 57 09 bf
       -0.27075145 0.550646 -0.00020680018 -0.5364908
0002a0 ce e1 90 3a d3 9b 44 bf 2b 17 a0 b9 8a 1b cb b9
       0.0011053623 -0.7680027 -0.0003053484 -0.00038739695
0002b0 72 5c 08 b9 9a b7 2a 39 bf c9 c0 b9 8c 64 fc 38
       -0.00013004409 0.0001628086 -0.00036771406 0.00012035025
0002c0 f6 06 0a 39 64 e1 10 3f 85 86 71 39 67 a3 d2 ba
       0.00013163299 0.5659392 0.00023033663 -0.0016070426
0002d0 a4 d9 f4 38 e0 c0 81 3a 0e 5d b0 39 0d 92 c8 39
       0.000116753654 0.00098994 0.00033638667 0.0003825579
0002e0 29 32 77 3e b0 40 03 3b b5 d1 93 3a f5 ab 84 ba
       0.24140228 0.002002757 0.0011277708 -0.0010122048
0002f0 a1 f9 dd 3e 0d d7 90 b9 8d e5 2f bf 00 13 f8 39
       0.43354514 -0.00027626046 -0.6870964 0.00047316402
000300 01 77 84 3e e3 92 a4 ba 72 27 4e ba e8 f0 e6 bd
       0.25872043 -0.0012555983 -0.0007864154 -0.11276418
000310 4c a0 d9 b9 49 42 0e 3a b2 4d e2 b9 5d a7 71 bf
       -0.00041508896 0.00054267474 -0.00043163967 -0.94396
000320 f7 14 84 3e 85 92 66 bf 83 12 46 39 e8 3e 53 3e
       0.25797245 -0.9006732 0.00018889648 0.20629466
000330 4c ad cb b9 f3 48 03 3a 6f 0b c1 39 93 9a 1f ba
       -0.00038848293 0.00050081237 0.00036820347 -0.0006088402
000340 b2 86 74 b9 09 f2 6b b9 f2 80 f6 3a 94 81 f1 ba
       -0.00023319831 -0.00022501512 0.0018806739 -0.0018425458
000350 73 51 02 39 1f 6b cd 39 c9 d8 78 b9 da f4 b0 b9
       0.00012428108 0.00039180458 -0.00023731882 -0.00033751765
000360 a6 4c 3f 3f 8d 27 fa bc 93 3c 26 b9 cf 13 f1 b9
       0.7472633 -0.030536437 -0.0001585356 -0.0004598186
000370 6e 72 3b 3a 70 e1 b1 b8 af 17 4c ba a4 fb 19 ba
       0.0007150535 -8.482009e-05 -0.00077855116 -0.0005873984
000380 98 21 32 ba 5e 70 02 bf 83 19 86 bb 18 ed 18 bf
       -0.0006795167 -0.5095271 -0.0040923967 -0.59736776
000390 9e 19 32 b9 2c 16 12 39 7b b9 ac 3e 58 20 5f 3e
       -0.00016984946 0.00013931905 0.3373526 0.21789682
0003a0 bc 00 fd 3a e5 e5 1e 3e e2 61 bb 3e cc 4c a0 bb
       0.0019302587 0.15517385 0.36598116 -0.0048919674
0003b0 02 72 d0 b7 f5 a2 60 3e d3 bc 7d bc 33 9d 86 bf
       -2.4848621e-05 0.21937163 -0.015486914 -1.0516723
0003c0 6a 57 e5 b8 91 cf 3c 3c bc 50 fe b8 64 25 64 38
       -0.00010935853 0.011524097 -0.00012126702 5.439426e-05
0003d0 02 26 fd bc 76 38 e6 b8 19 20 35 b8 b5 3b 1c 39
       -0.030901913 -0.00010977771 -4.3183656e-05 0.00014899562
0003e0 a5 c3 8c 3e 4e 0b b2 3a 12 82 5a bf af 22 5a ba
       0.27493015 0.0013583691 -0.8535472 -0.00083212083
0003f0 ff ee 0f bf 00 2b 9b 39 7c 62 9e 3e 41 f2 a5 b8
       -0.56224054 0.0002959594 0.30934513 -7.9129364e-05

model.2.bias f4 [256]
000000 ca f7 c6 bd 1b 0f db b9 6e 7b 94 bb 51 a4 c5 bb
       -0.09715231 -0.0004178219 -0.0045313155 -0.006031551
000010 aa 68 4a bd 21 fe 96 3d f4 b2 75 bd ca f2 9c 3d
       -0.04941622 0.0737269 -0.059985116 0.07663496
000020 6a 80 35 bb 58 e2 7c bd 5f b7 9c b9 ff d3 a2 be
       -0.002769495 -0.061739296 -0.0002989126 -0.31802365
000030 b2 db 87 b9 4f af ed 3c 10 c5 4d b9 5f d1 26 bc
       -0.00025912892 0.029014258 -0.00019623735 -0.010181754
000040 a8 9d b8 b8 ae 9b 9c b9 7a 79 8c be 14 53 bc be
       -8.8031695e-05 -0.0002987063 -0.2743643 -0.36782134
000050 6a 26 dc 3c ff f2 85 be 24 21 af b9 c0 e8 19 bb
       0.026873786 -0.26161954 -0.00033403293 -0.0023484677
000060 b2 44 e6 bd 6f 56 8d bd 08 2a bc bb 45 83 22 ba
       -0.11243571 -0.069012515 -0.005742315 -0.000619937
000070 fd c8 eb bd 7a 01 73 be 0c 5b 97 bd 32 6f 15 bc
       -0.11512945 -0.23731032 -0.07390413 -0.009120749
000080 73 89 8c b9 c3 6d a0 b9 bd e6 f4 3b dd 8e 88 be
       -0.00026805289 -0.00030599357 0.007473795 -0.26671496
000090 98 4c a5 b9 28 c8 22 ba 74 df 16 ba e4 af 25 3e
       -0.0003152832 -0.0006209635 -0.0005755343 0.16180378
0000a0 9a a0 89 3d 01 96 b6 ba c2 cc 9b be ef bc ca 3d
       0.067200854 -0.0013930203 -0.30429655 0.098993175
0000b0 2b 8f 81 b9 65 73 09 bb 8a 9a b6 b9 f7 77 86 ba
       -0.00024711466 -0.0020973322 -0.00034828886 -0.0010259141
0000c0 09 2b b6 3d 55 bf ad 3a 10 42 c6 bd 09 cb e0 bc
       0.08894927 0.0013255874 -0.09680569 -0.027440565
0000d0 da b4 0f be 45 ef cb be 32 04 0d be 6a d1 fe b9
       -0.14033833 -0.39830986 -0.13771132 -0.0004860268
0000e0 ed 13 89 be 23 c2 bf b9 0d 55 c8 3d 70 b0 09 bd
       -0.26773015 -0.00036575002 0.09781847 -0.03361553
0000f0 ca 0a 8f b9 e8 b9 9a bd a7 ff 96 bd ea cb 68 bc
       -0.00027283124 -0.0755499 -0.073729806 -0.014208773
000100 26 71 e9 b9 8a 68 01 3e 60 4f 93 3d 49 e1 9c be
       -0.00044525525 0.12637535 0.07192874 -0.3064063
000110 01 a0 52 3c f0 48 ff bd 0e 9d 8b be e3 7e a2 b8
       0.012855531 -0.124650836 -0.2726826 -7.7483965e-05
000120 84 59 c6 3d df dd 1f be 72 a7 a3 3d de 8d 8e b9
       0.096850425 -0.15611981 0.07990922 -0.0002719005
000130 bf 28 04 be 38 04 0b 3c d5 f0 ae b9 66 07 c4 3d
       -0.12906168 0.008484893 -0.000333673 0.09571724
000140 c5 40 8a be 27 9a 5d bd 46 65 f2 bd 55 28 8c b9
       -0.2700254 -0.05410209 -0.118357226 -0.0002673293
000150 d5 62 3f b9 05 56 96 bc 28 ff 95 b9 7e 22 11 bd
       -0.00018251997 -0.018351564 -0.000286096 -0.035433285
000160 bb b5 86 bd f9 a5 23 b9 65 89 b4 3c 18 e7 e6 bb
       -0.06577631 -0.00015606721 0.022038171 -0.0070465915
000170 e4 40 fd 3c a4 7c 41 bd 71 ae 24 ba 0a d1 c9 bd
       0.030914731 -0.047238007 -0.00062820973 -0.09854324
000180 8e 2b 1e b9 08 96 77 be 30 a8 7f b9 65 62 92 bd
       -0.0001508428 -0.24178326 -0.0002438135 -0.071476735
000190 cf cc 97 be 57 06 84 b8 14 a0 dc 3d 95 10 eb b9
       -0.29648444 -6.2954314e-05 0.1077272 -0.00044835047
0001a0 f2 49 47 b9 01 60 cf bb 1c fc 87 3d 8b 0f cd 3d
       -0.00019005666 -0.006328583 0.06639883 0.1001273
0001b0 75 ca 6e be 17 e3 cd bd 54 da d4 3d f7 93 80 bd
       -0.23319419 -0.100530796 0.10393205 -0.06278222
0001c0 1f 85 57 3d 91 ac 22 3d 4b f3 b2 bc 69 d1 f7 ba
       0.05261719 0.039715353 -0.021844527 -0.0018907014
0001d0 42 2b ad be b6 a0 b1 ba e4 2e b2 bd 83 bf de b9
       -0.33822066 -0.0013551924 -0.0870035 -0.00042485827
0001e0 cc 63 31 be 11 a0 cb b9 75 5c 1f bb 2f 48 e8 b9
       -0.17323226 -0.00038838436 -0.0024316583 -0.0004430427
0001f0 20 e1 6a b9 df d3 aa be eb 29 e3 3d f3 fb 98 be
       -0.00022399845 -0.3336477 0.110919796 -0.29879722
000200 a0 51 34 bc 34 5e 30 ba 02 b4 e9 bd f4 0b 27 be
       -0.011005789 -0.00067279045 -0.11411287 -0.16313154
000210 c0 ca 16 be bf 37 cb bd ad 0d e8 bd 5b f9 85 b8
       -0.1472578 -0.09922742 -0.113307334 -6.38838e-05
000220 63 74 97 be 68 dc 37 bd fd 4f fe bd 60 be 04 ba
       -0.29580984 -0.04488793 -0.124176 -0.00050637685
000230 3e b0 0f 3e 54 2c 2a be 3a 90 2a ba dd 35 a7 b9
       0.14032075 -0.16618472 -0.0006506477 -0.00031892853
000240 b1 9f 4e bd 47 06 90 b9 6f a4 51 3d cb e1 40 3e
       -0.050445262 -0.00027470497 0.051182207 0.18836133
000250 fe b9 ae bd c7 24 9f b9 a7 15 a5 bd 3e 55 93 b9
       -0.08531569 -0.00030354245 -0.080607705 -0.00028101535
000260 5c 20 b9 bd 29 9f 33 bc 5d 07 46 3e ce 8d 84 b9
       -0.09039375 -0.01096324 0.19338746 -0.00025282655
000270 79 64 07 3e 78 6c 3c ba 10 26 65 be 9e 4e 09 ba
       0.13221921 -0.0007187794 -0.22377801 -0.000523785
000280 45 04 c0 b9 89 29 0f 3b df 40 3e 3d 11 d5 27 ba
       -0.00036624275 0.0021844825 0.046448585 -0.0006402294
000290 8e 7b e1 bd da 3a a7 b9 73 d8 ad bc 9a 88 9e 3d
       -0.11009894 -0.0003189657 -0.021221375 0.077408984
0002a0 8a 78 0f bd 6c dd 9e bb 17 d9 3c bb 23 e3 1b bd
       -0.035027064 -0.004848173 -0.002881592 -0.03805841
0002b0 05 fa 6a bd 88 f4 67 be 7c 03 9f ba 46 58 43 3e
       -0.057367343 -0.22651875 -0.0012131776 0.19076642
0002c0 1f 17 99 be 23 98 a8 bc eb 2c f8 bc b1 15 de bd
       -0.29900452 -0.020580357 -0.030294856 -0.10843981
0002d0 af 59 d0 3d 19 94 ee bd c2 30 af b9 f4 91 0d be
       0.10173356 -0.11649341 -0.00033414928 -0.13825208
0002e0 2d 77 1a ba d9 ef 68 3c 6b 62 36 b9 9b ca 83 3d
       -0.00058923924 0.01421734 -0.00017393536 0.06435128
0002f0 b5 6f 0a b9 fc 6e ac 3d a3 6c 81 3d fa 17 4f 3e
       -0.0001320232 0.08419606 0.06319549 0.2022399
000300 d8 9c 5b 3d 25 da 60 b9 74 46 08 be b6 f4 97 bd
       0.053616375 -0.0002144357 -0.13308126 -0.07419722
000310 c5 39 99 3d 84 88 84 3d 49 99 7a 3d 0a ff df b9
       0.07481722 0.06471351 0.06118134 -0.00042723893
000320 44 40 a8 3d d3 96 92 b9 3a bd 7a b9 88 d7 c9 3d
       0.08215383 -0.00027959663 -0.0002391235 0.098555624
000330 a1 95 31 3c 6e 50 e9 3d f2 d8 68 be 08 22 e1 3c
       0.010838897 0.11392294 -0.22739008 0.027482048
000340 db 22 62 be ec f8 77 be e1 a3 0c ba 56 44 06 ba
       -0.22083609 -0.2421605 -0.0005364996 -0.0005121877
000350 a2 61 9a 3d e4 f3 60 be 09 36 53 bb 81 59 79 be
       0.07538153 -0.21968037 -0.0032228252 -0.2435055
000360 90 e5 94 ba 32 54 42 b9 c5 82 d5 b9 81 d4 8b 3a
       -0.0011359919 -0.00018532647 -0.00040723957 0.001066819
000370 bc da 0d bb cd 40 61 b9 5a af 51 be b7 e4 38 b9
       -0.0021645268 -0.00021481812 -0.20477048 -0.0001763281
000380 84 4c b4 3d a0 78 b3 bd cc 58 92 bd 99 92 85 ba
       0.08803657 -0.08763242 -0.07145843 -0.0010190784
000390 a8 67 63 3d e5 70 37 ba 94 28 57 be ad 43 19 bb
       0.055518776 -0.00069977186 -0.21011573 -0.0023386285
0003a0 9e a7 a5 b9 d1 8b ae 3d bd 0b 7c b9 9e da af be
       -0.00031596137 0.085227616 -0.00024036966 -0.3434648
0003b0 2a b2 45 be 8f 7e 9a bd 38 c0 24 bb b9 06 cb ba
       -0.19306245 -0.075436704 -0.0025138985 -0.0015489674
0003c0 e3 25 29 be a9 5b 0a be 7c 7d 57 3d f6 0c 0f bd
       -0.16518359 -0.13511528 0.052609906 -0.03492447
0003d0 f9 8e 88 3d c4 62 0b bb 70 4c 29 be 39 c7 b2 be
       0.06667895 -0.0021268586 -0.16533065 -0.3491762
0003e0 dd af fc 3d 93 7b 18 ba 87 a9 70 3e 8e c9 4b b9
       0.12338231 -0.0005816754 0.2350217 -0.00019434674
0003f0 6d 6a 2e 3e 40 59 2e bb d6 8f 89 b9 cf ec d3 3b
       0.17032786 -0.002660349 -0.00026237842 0.006467439

model.4.weight f4 [256, 256]
000000 0d 05 07 bf b0 00 81 39 cf a0 c9 39 ac 69 f9 3d
       -0.5274208 0.0002460531 0.0003845752 0.121783584
000010 bf 86 48 be ba 4e 00 be a5 5c d4 bd c0 70 ea bd
       -0.19582652 -0.12530032 -0.10369233 -0.114472866
000020 4f 27 6f ba b8 49 6f be ae da 2d ba 3d 0d 1e bb
       -0.0009122984 -0.23367965 -0.0006632012 -0.0024116777
000030 9b 01 5b ba 8e c8 7c 3e b2 78 1b ba 6f b1 c8 bd
       -0.0008354426 0.2468588 -0.0005930766 -0.09799468
000040 74 c5 ea b6 5d c2 38 3a 33 62 86 ba be 5f 34 3e
       -6.99673e-06 0.00070480054 -0.0010252654 0.17614648
000050 cc c4 6b 3e c3 e8 7c c0 13 d4 5c b9 ed c6 28 3a
       0.23024291 -3.9517066 -0.00021059839 0.00064383337
000060 c4 7b c5 3e f2 4f 2e be d6 f0 06 bf 5c 5d fe 39
       0.38570988 -0.17022684 -0.52711236 0.00048516213
000070 a7 c7 12 3d 28 d3 0a 3e f7 71 1f 3e 62 31 8f bd
       0.035834935 0.13557112 0.15570818 -0.06991841
000080 f8 7c 62 b8 3d ad 92 39 0e 15 58 bd 82 ff 9b 3d
       -5.3998985e-05 0.00027976363 -0.052754454 0.076170936
000090 4c e8 90 38 42 88 a7 39 91 49 9e b9 f3 f8 23 3e
       6.909724e-05 0.00031954242 -0.0003019092 0.16012935
0000a0 6c fc c5 3d 13 c8 99 ba ce 36 5b 3e fc 12 00 be
       0.09667286 -0.00117326 0.21407625 -0.12507242
0000b0 b7 a7 00 39 1e ab c3 3a d7 87 11 3a 16 b3 c3 39
       0.0001226951 0.0014928316 0.0005551553 0.00037326728
0000c0 fb 87 26 bd 25 9a fe 3d fc 6f 30 be b7 26 ce 3e
       -0.040657025 0.124317445 -0.17230219 0.40263912
0000d0 2e 64 05 bd e9 72 b5 bc 52 71 8f bd fb 91 b0 39
       -0.032566242 -0.02214952 -0.07004036 0.000336781
0000e0 9b 34 bd 3d 19 51 59 ba f3 6c 45 3d b8 8d 01 3e
       0.09238549 -0.00082899776 0.048199605 0.12651718
0000f0 61 12 9a 39 38 0d 7e 3d f7 03 55 3e aa d7 bf 3e
       0.00029386862 0.062024325 0.20802294 0.37469226
000100 2f 7e 8c 3a c5 09 2e 3d eb d5 f4 3d 9a a7 15 3e
       0.0010718758 0.042489786 0.11954864 0.14614716
000110 d2 18 0a 3e 3b 07 e8 3e 8e c7 24 3e 5b 7a d6 39
       0.1348603 0.45318016 0.16091749 0.00040908423
000120 d3 10 ef bd 84 7a 2a 3e ba fa 50 3e 8f 43 84 39
       -0.11673131 0.16648299 0.20408145 0.00025227337
000130 d0 ed dc 3c 92 1e ce bf 6d 85 80 b9 f5 70 96 3d
       0.026968867 -1.6103079 -0.00024513472 0.073457636
000140 4c 9c ea 3e 2e 4c 94 bd 9c 39 00 3e bd 17 31 ba
       0.4582237 -0.072410926 0.12521976 -0.00067555514
000150 f8 1a 10 b9 8a 6b 4c be 47 c7 44 ba f3 b9 05 3d
       -0.00013742957 -0.19962898 -0.0007506501 0.032648038
000160 e1 8a 29 bd c8 70 59 3a 57 fb f7 be ce 67 06 be
       -0.04139221 0.0008294699 -0.48433945 -0.13125536
000170 07 df 27 3e 39 24 45 3e be bc 97 ba af 59 ca 3c
       0.16393672 0.19252099 -0.0011576635 0.024700968
000180 b3 32 d5 b9 b0 07 c1 be c2 64 4b b9 9e f6 be 3d
       -0.000406643 -0.37701178 -0.00019397124 0.09324382
000190 c6 9b 54 3c a0 48 97 b9 56 8e 85 3e bf 30 07 3a
       0.012976592 -0.00028855074 0.26085156 0.0005157105
0001a0 a4 bb 04 3a c8 33 e1 3c 46 6d 09 3e a0 ac 26 be
       0.0005063361 0.027490512 0.13420591 -0.16276789
0001b0 87 18 e3 3d 43 6f d5 3c 6d a2 29 be 9f b0 13 bd
       0.110886626 0.02605403 -0.16565867 -0.03605711
0001c0 f2 02 b2 3e 8a 41 3d bd ec cd 2b 3c 47 c6 df 39
       0.34767872 -0.04620508 0.010486107 0.00042681603
0001d0 9d f1 14 3f a6 5b e5 39 e4 99 10 3f b2 f6 e6 38
       0.5818117 0.00043746567 0.5648482 0.00011013205
0001e0 47 31 ce 3b 2e 93 4b 3a 01 21 ce 3d da 9b a2 38
       0.0062924954 0.0007765767 0.10064889 7.7537916e-05
0001f0 3f 22 15 3a 0e 45 2d ba d3 6d 15 be 05 e6 2d c0
       0.0005689002 -0.0006609716 -0.14592676 -2.7171643
000200 44 b6 57 be 68 48 31 3a 41 89 c0 3d a0 5e cd c0
       -0.21065623 0.00067628035 0.09401179 -6.417801
000210 42 ab 76 be 71 80 64 3e 77 af 3a be a8 fd 1e 38
       -0.24088767 0.22314622 -0.18230997 3.790637e-05
000220 a0 16 41 3f ce 7c fa 3d b9 ac eb 3c 2d ff ea b8
       0.7542515 0.12230836 0.028768884 -0.0001120552
000230 bb 08 be 3d c3 20 d4 bb 4b 7a d4 b9 5d 11 c8 b8
       0.09279009 -0.006473632 -0.00040526906 -9.539977e-05
000240 0f 08 b7 3e 5e 0c f0 b9 fb ba be be c1 a7 48 3e
       0.35748336 -0.00045785581 -0.3725203 0.19595243
000250 4e ba 10 3f 1b 5c 5e b8 02 17 32 bc ae 65 0d ba
       0.5653428 -5.3014704e-05 -0.010869743 -0.00053938746
000260 fd 2d cc 3d f9 2b 3e 3b 1f d4 a5 3d 33 a0 de b9
       0.09969709 0.002901791 0.080970995 -0.00042462497
000270 d5 86 12 bd ee 65 6a b9 0f 4b 84 be 6e 7d 18 ba
       -0.035773117 -0.00022353951 -0.25838515 -0.00058170303
000280 be 14 0c ba 24 dc b0 3d ff 07 66 3d ce ba ad b9
       -0.0005343667 0.086357385 0.05615997 -0.00033136312
000290 4e 5b 94 3e f6 21 fd 39 d4 a2 e0 39 2a 09 a8 3c
       0.2897591 0.00048281223 0.00042845926 0.020512182
0002a0 7f 70 87 3d 3d 93 f7 bd 90 19 5d 39 f8 2a 0c bd
       0.06613254 -0.1208863 0.00021085725 -0.034220666
0002b0 88 56 8e be fc 53 bf 3c b3 a7 39 3a 3b 89 ec bc
       -0.27800393 0.023355477 0.0007082179 -0.02887403
0002c0 86 4f ff 3c f5 f5 6d 3e 4a c5 1b 3e 5a d2 8c 3e
       0.03116585 0.23238356 0.15211979 0.27504236
0002d0 01 c1 53 3d ff 5a 58 bf 8d 73 ba 38 f1 b4 ff 3d
       0.051697735 -0.8451385 8.890694e-05 0.12485684
0002e0 f6 c4 40 b9 74 23 a2 3c 56 9e 70 b9 59 25 0a bd
       -0.0001838392 0.019792296 -0.00022947168 -0.033727024
0002f0 cb 22 b8 39 c0 5c 40 3e e5 cc 38 3e d0 ae 8d 3d
       0.00035121138 0.18785381 0.18046911 0.069181085
000300 58 76 29 bc 5c 28 76 38 55 58 14 3e 4f 92 4c 3e
       -0.010343157 5.8688558e-05 0.14486821 0.19977687
000310 e8 d3 42 3e 75 58 fe 3d 10 10 a4 3d 13 4d 8a 39
       0.19026148 0.124192156 0.08010876 0.00026378836
000320 3c 2f 7b be ad a7 e3 b9 f9 76 4c 39 18 f0 31 3e
       -0.24529737 -0.00043421742 0.00019499277 0.17376745
000330 67 aa c3 3e e5 68 c6 bd 47 5a 7f c0 d1 59 66 bd
       0.38215944 -0.09687976 -3.989885 -0.056238
000340 3e ca 28 3e 35 bb 04 bc 0b 8c 71 b9 f9 2d 68 b9
       0.164834 -0.008101274 -0.00023035721 -0.0002214237
000350 8b 65 ca bd e1 f2 0b be db 8e 9c ba a5 9e 00 bd
       -0.09882649 -0.1366687 -0.001194443 -0.031401295
000360 de b9 e3 ba 7b 36 85 b9 41 fc 09 b9 8d b2 90 3a
       -0.0017374118 -0.00025408328 -0.0001315931 0.001103954
000370 8d 48 27 bb d0 ca 27 3a d9 f9 a6 be 50 2d d1 b9
       -0.0025525421 0.0006400766 -0.32612494 -0.00039897347
000380 dd 2e 06 3f f8 93 d9 be b2 52 4b 3e 36 f2 1e 3a
       0.5241526 -0.42495704 0.19855765 0.0006063314
000390 61 30 32 bd d6 9e 81 3a f9 8c 99 be c8 3f 86 bb
       -0.04350317 0.0009889256 -0.29990366 -0.004096959
0003a0 ba 1a 02 3a 3a 15 57 3e 86 a9 32 ba 59 84 b4 3e
       0.0004963089 0.21004191 -0.0006815422 0.35257223
0003b0 7a 50 83 3d 1b c1 8d be c8 0c 0a ba 89 f3 31 3b
       0.06411834 -0.2768639 -0.0005266187 0.0027153215
0003c0 a6 35 81 3e 1e 8b c4 bb fb c2 17 3d 62 47 4b 3e
       0.25236243 -0.0059980294 0.037051182 0.19851449
0003d0 96 ce 35 3e b6 47 55 ba 25 71 21 3a 87 e7 53 3a
       0.17754588 -0.0008135991 0.00061585224 0.00080835115
0003e0 74 67 a4 be 2b 22 7b 3a f4 94 28 3d e5 a3 0d 3a
       -0.32110178 0.00095799816 0.041157678 0.00054031453
0003f0 b5 5d 59 bd 76 eb 04 ba 46 7b 9e ba 12 0e 73 3d
       -0.05306788 -0.0005070487 -0.0012091182 0.05933959

model.4.bias f4 [256]
000000 74 28 f4 3d 1f 26 89 3e da 60 8a b9 f0 79 aa 3c
       0.11921778 0.26786897 -0.0002639357 0.020810097
000010 e5 af f6 bc f4 8d ef 3d 99 42 fb 3d 82 0a 1d 3d
       -0.03011317 0.11696997 0.12268562 0.0383401
000020 2b 56 a3 bd 65 cd ad bc 3d ce 52 b9 30 02 12 bb
       -0.079754196 -0.021216104 -0.0002010399 -0.0022279136
000030 27 c3 f0 3d be a0 9b b9 15 62 f3 bc 4c ce ce bb
       0.11755972 -0.00029683666 -0.029709855 -0.0063112136
000040 c0 6e a5 3d f4 0f fc b9 4e a5 45 ba 1e d4 d1 bd
       0.080777645 -0.00048077072 -0.0007539586 -0.10245536
000050 ab c8 e4 3d 5e a2 43 bc 59 ba 27 3d 5b 4f 28 be
       0.11171087 -0.011940567 0.0409492 -0.16436522
000060 98 c2 81 b9 2e 4b 5f 3e 36 98 6d bb 56 40 95 3e
       -0.0002474978 0.21806023 -0.0036254055 0.29150647
000070 0b c4 a5 3d af 4a 7e bc 87 69 15 bf 80 b0 97 3d
       0.08094033 -0.015520736 -0.58364147 0.074067116
000080 74 5b a7 3d c2 8d f0 bd be 3c aa b9 d9 b8 e3 b9
       0.0817174 -0.11745788 -0.00032470183 -0.00043434536
000090 c4 7f 15 3d 06 41 16 3e 75 eb 50 3b f0 cc 27 3e
       0.0364988 0.14673242 0.0031878625 0.16386771
0000a0 60 8b 10 3e 30 f7 86 3d 86 60 e0 3c 1e a4 f7 3d
       0.14115667 0.06590116 0.027389776 0.1209185
0000b0 9f b5 4e bd 0a 45 67 3d 59 59 e0 b9 16 1c 2d b9
       -0.050466176 0.056462325 -0.0004279118 -0.00016509029
0000c0 88 6a ea ba 19 45 d2 3d bc bb da bd dd dc 04 3d
       -0.0017884532 0.102670856 -0.10680339 0.032437194
0000d0 9a f1 1b 3e c1 fd d3 b9 fc 99 09 b9 c4 4a 40 ba
       0.15228882 -0.00040434118 -0.00013122702 -0.00073353597
0000e0 96 b8 28 bc 14 b4 e3 bb d7 1b d5 3a 38 04 bd bc
       -0.010297915 -0.006948957 0.0016258907 -0.0230733
0000f0 c3 ea 05 ba b3 a5 ea bc a2 8e 1d bd 4b 1b 99 bc
       -0.00051085296 -0.028643465 -0.038466103 -0.018689772
000100 92 d8 b8 b9 95 12 81 b9 4a 9a 82 3d dc ba e1 3c
       -0.00035256572 -0.00024618642 0.063770846 0.027554922
000110 a6 c3 f0 bb 9f 6c 2f bd b8 31 ce bd dc 19 13 3c
       -0.007347542 -0.0428282 -0.10068077 0.008978333
000120 9c 9c 84 bd c2 ea 7f bb 84 52 e9 b9 0a cf ad bc
       -0.06475183 -0.0039049839 -0.00044502702 -0.021216888
000130 47 3e c4 bd 28 47 c6 b9 b7 8c 1e 3d 96 40 a3 b9
       -0.09582191 -0.00037818518 0.038708415 -0.00031137903
000140 ab 2f 7d 3d e9 0b f2 bd 2d 2c b8 3d 96 e5 28 ba
       0.061813038 -0.11818678 0.08992801 -0.00064429024
000150 47 09 6f 3d 13 3a d4 bd 16 c2 34 bd c6 24 34 be
       0.058358457 -0.10362639 -0.044130407 -0.17592153
000160 a2 a4 9f b9 f1 93 82 b9 77 9a 24 bc 53 ac 73 3e
       -0.00030449504 -0.00024905757 -0.010046593 0.23796205
000170 05 0b 01 3c be 57 25 bb fa 77 98 bc 0b 4d 7e b9
       0.007876162 -0.00252293 -0.018611897 -0.00024252028
000180 8a 0d e5 3d dc 25 dd bb dc 5f 1c 3d c5 f6 6e 3e
       0.11184223 -0.006748898 0.038177356 0.23336323
000190 06 32 23 3d ee 8e a0 bb 46 f0 10 bb a7 4e b5 b9
       0.039842628 -0.004899851 -0.002211587 -0.0003458161
0001a0 1f d2 08 ba b5 0b 97 3e d2 10 50 ba 0b 2e 0a b9
       -0.0005219299 0.2950112 -0.0007937077 -0.00013177858
0001b0 b4 62 a5 b9 5e 73 97 3d 59 27 0a bc 62 8b 59 3d
       -0.00031544792 0.073950514 -0.008432233 0.05311144
0001c0 32 97 2c b9 14 db e4 3d 80 06 54 bc f9 3f f8 b9
       -0.00016459523 0.11174598 -0.012941003 -0.0004734991
0001d0 a2 99 0a ba 35 d5 94 3d 27 c9 9d bb 08 f9 a6 bb
       -0.00052871753 0.072672285 -0.004815239 -0.005095605
0001e0 63 54 21 3e ad 1b aa bc 21 a7 f0 3d 86 51 c0 bd
       0.15754847 -0.02076515 0.11750627 -0.09390549
0001f0 fb 7e 5d 3c 38 35 b1 3d 81 91 02 bd d8 9f eb bc
       0.013519044 0.08652729 -0.031877045 -0.028762743
000200 59 c2 b0 bb bd 62 22 ba 71 04 ed 3d 30 4c 3a bc
       -0.005394262 -0.0006194523 0.11573113 -0.011370704
000210 8f 72 fe bd 13 87 c0 3c 4a ae f7 3d 11 ea 9d bd
       -0.12424194 0.023501908 0.1209379 -0.0771066
000220 a6 28 41 ba 56 5d b2 3d 55 e2 85 bc 87 d4 b4 b9
       -0.0007368423 0.08709209 -0.016343275 -0.0003449062
000230 a9 26 80 3e 95 f0 87 ba 85 48 c9 ba 2e b5 08 3e
       0.25029495 -0.0010371382 -0.0015356696 0.13350365
000240 9e 35 a1 b9 af 56 1d ba 26 55 67 3e b4 83 3f b9
       -0.0003074826 -0.00060019916 0.22591075 -0.00018264243
000250 89 83 a7 b9 b3 4e e3 b9 27 27 45 ba a5 f1 eb b9
       -0.00031950723 -0.0004335545 -0.0007520788 -0.00045002732
000260 4b fd 51 3d d8 61 24 3d d5 b2 7a 3d 71 c1 fa ba
       0.05126695 0.040132374 0.061205704 -0.0019131136
000270 3b e3 be ba 93 d7 85 3e 35 a4 a0 b9 7e 15 14 3e
       -0.001456357 0.26141033 -0.00030639922 0.14461324
000280 b6 5b 28 3e cc 5f a6 3c 18 a3 20 3e 39 c0 a5 b9
       0.16441235 0.020309351 0.15687215 -0.0003161447
000290 2c e7 27 be 66 33 64 bd 33 b3 1e 3e f6 55 ce b9
       -0.16396779 -0.05571308 0.15498047 -0.00039355428
0002a0 23 66 ef 3d 89 a6 c3 bb 33 b4 76 3e 26 15 10 3e
       0.11689403 -0.0059707803 0.24092178 0.14070567
0002b0 1d 67 89 3e 8e d3 f3 bd 54 3a 1b bc 57 63 86 b9
       0.26836482 -0.11905585 -0.009474356 -0.00025632486
0002c0 28 12 39 bc b4 42 99 bb fd 02 77 3e 85 b1 89 b9
       -0.011295833 -0.004677141 0.24122234 -0.0002626294
0002d0 89 49 15 bd 6d 31 33 be e2 a1 2c 3d ca 73 a3 3d
       -0.03644708 -0.17499323 0.04214657 0.079810694
0002e0 92 a5 b4 3c 7d d7 e5 bd 86 ba c4 3d 6a 77 64 bc
       0.022051606 -0.11222742 0.09605889 -0.013944486
0002f0 26 9d 81 ba 02 67 7f b9 bd f1 9a b9 dc 6b c0 b9
       -0.0009888753 -0.00024357068 -0.00029553278 -0.00036701455
000300 92 e2 9d 3d c1 2c 28 bd c3 90 41 3c 6f bf 94 bb
       0.077092305 -0.041058306 0.011814299 -0.004539422
000310 23 13 03 be b4 61 38 ba 1b 68 d7 bd 13 3b 15 3d
       -0.12800269 -0.0007033602 -0.105179034 0.03643329
000320 44 48 5f 3d dd d4 bc 3b fe ee e0 b9 9f 6f 1c 3d
       0.054512277 0.00576268 -0.00042902672 0.038192388
000330 cc 82 39 ba 7e 93 c9 bd 6a 86 1e ba 54 30 58 ba
       -0.000707668 -0.09842585 -0.0006047251 -0.00082469475
000340 d3 1a ef 3d 46 4c 7c b9 de 73 f2 b9 a9 dd a8 b9
       0.11675038 -0.00024061007 -0.00046244165 -0.00032208607
000350 b8 f4 11 bd 5b 8e 5d bc c2 11 09 3d 33 30 80 b9
       -0.035633773 -0.01352271 0.0334642 -0.00024449974
000360 cc 72 eb b9 5e 31 1f 3e 66 47 75 bd 80 96 fc bb
       -0.00044908223 0.15546176 -0.059882544 -0.0077083707
000370 f5 97 26 3e fe 01 a3 3d cb 25 9e bb 95 38 34 be
       0.16268905 0.07959364 -0.0048262826 -0.1759971
000380 70 50 77 bc 65 38 36 3a 1f 35 5f bb 8e f7 0d bc
       -0.015094861 0.00069511525 -0.0034058762 -0.008664979
000390 5b fd 97 3d f5 7e a4 b9 19 f6 c9 bc 38 05 9a bc
       0.074213706 -0.00031375108 -0.024653481 -0.018801317
0003a0 cd 58 86 3c c3 9a b4 3c cb 92 0c ba 10 02 d5 3b
       0.016399765 0.022046452 -0.000536245 0.00650049
0003b0 03 7a b4 bc aa b3 85 3e 9a f5 ec bb 57 f9 36 bc
       -0.022030836 0.26113635 -0.0072314264 -0.011167846
0003c0 e9 c0 1e 3e b0 1b 80 b9 7b df 5a ba bb 77 53 3d
       0.15503277 -0.0002443469 -0.0008349341 0.051627856
0003d0 ea 02 48 3b 7a 8b 2f bb d7 32 f0 3d 21 1d 4d 3c
       0.0030519315 -0.0026786015 0.11728447 0.012519152
0003e0 c5 c7 a2 bb 91 4b 66 bc bf b9 24 bc b7 e6 8b b9
       -0.004967662 -0.014056102 -0.010054051 -0.00026684042
0003f0 89 51 e9 3d a7 d9 b9 bd 98 40 6b 3e e8 7c 81 bc
       0.11392505 -0.09074717 0.2297386 -0.01580663
