Models/Bloom_filter/result/model-dict-6.pt (torch, 533313 bytes, 7 tensors)

model.0.weight f4 [256, 2]
-0.08186186 -0.004255305 -0.0328532 0.007895949 0.03541495 0.009457625 -0.10284246 -0.08811934
-0.054045323 -0.12112819 -0.21998715 0.10577658 -0.29897732 -0.004971949 0.008689639 -0.082464315
-0.22641945 0.30157852 -0.05062098 0.023348097 -0.020746553 0.34207612 -0.038841207 -0.020332541
-0.7178162 0.21135248 -0.026388573 0.021437887 -0.023798538 0.058819078 -0.055801276 0.030832991
-0.07193204 0.29200116 -0.05435674 -0.016982986 -0.05050336 0.021833906 -0.049355708 0.021937272
-0.080782115 0.12639809 -0.041949008 0.0013797202 -0.05348698 -0.08225747 -0.10408457 -0.30158082
-0.03263469 0.03899939 0.10861604 0.13378231 -0.078470945 -0.026537176 -0.47522926 0.07678773
-0.040586486 -0.025278643 -0.045337297 0.009812733 -0.11088466 -0.023710325 0.011619677 -0.653956
0.20004275 -0.8134477 0.19389912 -0.20479932 0.13074635 -0.18341698 0.023891263 -0.04200285
0.028269896 -0.063874274 -0.048109155 -0.13713528 0.15424007 0.07095353 -0.042327512 -0.100470304
0.26466477 -0.1368649 0.22890772 -0.13470186 -0.027624875 -0.006801731 0.21435519 -0.119602956
0.016472673 -0.07549106 -0.055444144 -0.004298023 -0.0006018086 -0.023861526 0.04064037 -0.0401257
0.067020565 0.022864524 0.023261374 -0.075152315 -0.015235395 -0.0056071393 -0.09565673 0.15745807
-0.17926303 0.3343073 -0.16129434 -0.0011548321 -0.13329278 -0.44052485 -0.007499751 -0.0060272384
0.18992694 0.06440766 0.014809223 -0.020344723 -0.05560036 -0.038054597 0.21644807 -0.08476693
-0.0034001197 0.004926447 -0.0141170025 -0.021383587 0.026034828 0.043062795 -0.04451886 -0.06623791
-0.042519007 0.01295243 -0.05186081 -0.014622537 -0.027891219 -0.09486432 -0.32985303 -0.03085316
0.25236434 -0.12218293 0.20225981 0.12492968 -0.045086797 -0.08603354 -0.0185339 -0.013369407
-0.038930766 -0.00686814 0.036211934 -0.13800065 -0.021224124 -0.017196532 -0.11280398 0.32283068
0.2336858 -0.21275666 0.22648369 -0.3524547 0.024191095 -0.005302463 -0.0076453383 -0.017331136
0.009846687 -0.040075142 -0.02931231 -0.030831624 0.17945851 -0.21128894 -0.30749226 -0.037693683
-0.58154994 -0.26064068 -0.021200417 -0.06831716 -0.0047360044 -0.30712256 -0.039011672 -0.059196528
-0.014302792 -0.12002449 -0.05748254 -0.0235874 0.01326647 -0.034823846 0.22686227 -0.13033983
-0.039831825 0.04194692 0.20720032 -0.15579388 0.1140936 0.14302622 -0.05330755 0.02950059
-0.04682022 -0.03177892 -0.041284744 -0.0746753 0.07532425 -0.34997973 -0.0061399094 0.03397897
0.1932401 -0.19511169 -0.122738615 0.0609212 0.18345548 -0.36285275 -0.016270828 0.060092915
-0.03502549 0.0020277058 -0.06310274 0.29517892 -0.04710836 0.004729084 -0.035605486 0.02168667
-0.27763677 0.25031665 -0.1373744 0.20623472 -0.008892254 -0.028330132 0.009758627 -0.34657136
-0.06547306 0.064457364 -0.049716994 0.035429455 0.18668641 0.08323424 -0.0006466646 -0.08248723
0.16722386 -0.58584166 0.0014354307 0.013311762 -0.010907578 -0.06923429 -0.033886652 0.050199956
-0.043381523 -0.0033236851 -0.021050235 -0.11598303 0.08564739 -0.1183654 -0.027897814 0.04737968
0.20126121 -0.26263094 0.016761437 -0.12771988 0.094598025 -0.3019104 -0.45659646 0.19406205
00000000: 31a7 a7bd 1670 8bbb 1491 06bd 035e 013c
00000010: 440f 113d 28f4 1a3c 119f d2bd ea77 b4bd
00000020: a15e 5dbd 0e12 f8bd 5044 61be 64a1 d83d
00000030: 8e13 99be bbeb a2bb fd5e 0e3c 0de3 a8bd
00000040: 80da 67be 8068 9a3e f257 4fbd 8244 bf3c
00000050: adf4 a9bc 9a24 af3e f517 1fbd 6e90 a6bc
00000060: cdc2 37bf c96c 583e d92c d8bc 829e af3c
00000070: 27f5 c2bc 46ec 703d e18f 64bd 7895 fc3c
00000080: 1b51 93bd 2d81 953e 2ca5 5ebd e71f 8bbc
00000090: 9cdc 4ebd 05dd b23c 3629 4abd cbb5 b33c
000000a0: 1871 a5bd 806e 013e b9d2 2bbd bad7 b43a
000000b0: 2a15 5bbd 9b76 a8bd 4b2a d5bd cd68 9abe
000000c0: f4ab 05bd d3bd 1f3d 1672 de3d 3bfe 083e
000000d0: 60b5 a0bd 7e64 d9bc 4051 f3be e342 9d3d
000000e0: 043e 26bd 2815 cfbc 9ab3 39bd 96c5 203c
000000f0: 7f17 e3bd 283c c2bc 7560 3e3c a969 27bf
00000100: 02d8 4c3e 1c3e 50bf 7e8d 463e eab6 51be
00000110: 5fe2 053e a9d1 3bbe 9cb7 c33c 2e0b 2cbd
00000120: 4596 e73c 84d0 82bd 1b0e 45bd 316d 0cbe
00000130: 1cf1 1d3e 1650 913d 9d5f 2dbd 60c3 cdbd
00000140: 2482 873e 5026 0cbe c966 6a3e 49ef 09be
00000150: 904d e2bc 0ee1 debb ed7f 5b3e 65f2 f4bd
00000160: b3f1 863c 0f9b 9abd 6619 63bd 6ed6 8cbb
00000170: b1c2 1dba 3f79 c3bc 8476 263d d95a 24bd
00000180: 1442 893d 624e bb3c a38e be3c 75e9 99bd
00000190: e19d 79bc 18bc b7bb ade7 c3bd b03c 213e
000001a0: ba90 37be 542a ab3e 582a 25be bc5d 97ba
000001b0: e77d 08be 798c e1be 79c0 f5bb 2480 c5bb
000001c0: 357c 423e 2ae8 833d 62a2 723c faa9 a6bc
000001d0: 34bd 63bd 23df 1bbd 90a4 5d3e 499a adbd
000001e0: 8bd4 5ebb 086e a13b 004b 67bc a22c afbc
000001f0: fe46 d53c 9d62 303d 6859 36bd bea7 87bd
00000200: 6928 2ebd 6e36 543c 006c 54bd 5e93 6fbc
00000210: 207c e4bc 3948 c2bd 7fe2 a8be c4bf fcbc
00000220: e635 813e 0b3b fabd 321d 4f3e 22db ff3d
00000230: efac 38bd 5a32 b0bd 68d4 97bc 5b0b 5bbc
00000240: de75 1fbd 220e e1bb f752 143d 0b50 0dbe
00000250: 37de adbc bedf 8cbc c605 e7bd 104a a53e
00000260: 554b 6f3e e2dc 59be 57eb 673e f174 b4be
00000270: 672c c63c 49c0 adbb bf85 fabb 07fa 8dbc
00000280: 0054 213c d525 24bd 5f20 f0bc 9a92 fcbc
00000290: f9c3 373e 215c 58be a06f 9dbe b164 1abd
000002a0: 75e0 14bf b272 85be 7fac adbc dee9 8bbd
000002b0: 7c30 9bbb 2b3f 9dbe b4ca 1fbd 0f78 72bd
000002c0: 4256 6abc 66cf f5bd d072 6bbd 5d3a c1bc
000002d0: 9c5b 593c 73a3 0ebd 954e 683e ce77 05be
000002e0: b226 23bd 89d0 2b3d 522c 543e 6e88 1fbe
000002f0: e8a9 e93d 7775 123e 0459 5abd 39ab f13c
00000300: 8fc6 3fbd 9d2a 02bd 311a 29bd 5def 98bd
00000310: 9a43 9a3d 8b30 b3be 4b31 c9bb 882d 0b3d
00000320: bce0 453e 5ccb 47be 625e fbbd 8288 793d
00000330: c1db 3b3e d6c7 b9be 664a 85bc fd23 763d
00000340: e376 0fbd 42e3 043b 023c 81bd b121 973e
00000350: b2f4 40bd 6ff6 9a3b 0fd7 11bd 3ea8 b13c
00000360: 6826 8ebe 8129 803e e0ab 0cbe 322f 533e
00000370: d1b0 11bc 9814 e8bc a6e2 1f3c cd71 b1be
00000380: bd16 86bd 3902 843d 0ca4 4bbd 7a1e 113d
00000390: b92a 3f3e b776 aa3d ed84 29ba 11ef a8bd
000003a0: bb3c 2b3e b8f9 15bf 1025 bc3a 9419 5a3c
000003b0: b3b5 32bc b5ca 8dbd bbcc 0abd 789e 4d3d
000003c0: d3b0 31bd 2fd2 59bb 8b71 acbc 8388 edbd
000003d0: e667 af3d 8f69 f2bd f589 e4bc 3211 423d
000003e0: 6b17 4e3e 9077 86be 484f 893c 00c9 02be
000003f0: 9cbc c13d 0094 9abe 03c7 e9be 34b8 463e

model.0.bias f4 [256]
0.0 -0.04000317 -0.09857048 0.0 0.0 -0.05352083 0.08942929 -0.009145997
-0.027440745 -0.05965913 -0.082917556 0.0 0.027683413 -0.025941929 -0.047017734 -0.06486941
-0.026403064 0.0 -0.05831126 -0.0065980484 -0.0063660685 -0.010377729 0.0 0.07745497
-0.029219918 -0.08231925 0.0 0.074316904 0.0 -0.049275294 0.0 0.11845279
-0.021898225 -0.03738431 0.056089442 -0.019215116 -0.024259942 0.0 -0.12425884 0.0
-0.1397234 -0.12323476 0.0 -0.031013621 -0.012945718 0.0 0.0 -0.054889742
-0.09076297 -0.029449636 0.0 -0.008371634 -0.047809053 0.0 0.11348357 0.0005690482
-0.08800311 -0.011958307 0.0 -0.1308924 -0.008968805 0.0 -0.06942311 0.008058916
-0.011144225 0.0 -0.0012984177 0.11405106 -0.05751869 -0.1412541 0.0 0.0
-0.036677986 0.025404628 0.0 -0.100080974 -0.06330268 0.020221058 -0.022047972 0.0
-0.0078850305 0.0 -0.03348923 0.10558411 0.1559596 0.0 0.06671508 0.0
0.0 0.0 -0.015892798 -0.121300094 -0.05367278 -0.07981948 -0.08884264 -0.009707217
0.0 0.0 0.06345827 -0.032212507 -0.03563832 -0.03438219 0.0067344364 -0.052876618
-0.0090434 -0.08453625 -0.0046104128 -0.0063732327 0.019938355 -0.008749434 0.001527436 0.14523485
-0.07981082 -0.05941544 -0.20539983 0.0 0.019242845 -0.01474332 0.0010688083 -0.055919092
-0.034573678 0.03775912 0.014583092 -0.035847668 0.006346371 -0.012556738 0.103329666 0.024165714
0.0 -0.19090094 0.0 0.0 0.018361907 -0.07628859 -0.08270894 0.0
-0.020429196 0.0037543627 0.10057888 0.11516563 -0.015589054 0.009545717 0.0 -0.010956007
-0.0040056175 -0.05456849 -0.0740857 -0.04644338 0.0 -0.0064639878 -0.21093197 0.0
-0.006231481 0.0 0.0 -0.24096891 -0.051575974 -0.014056342 0.107886694 0.11083046
-0.005852002 -0.055079214 -0.06213785 -0.008954092 -0.18014354 -0.17731379 0.0 0.11037653
-0.026177475 -0.034789942 -0.015572821 0.0 -0.018554607 0.0 0.0 -0.13323689
-0.031351835 -0.18890606 0.0 -0.104808025 -0.063797094 0.008212845 0.0 0.0
0.17028369 -0.0068891402 -0.051944308 -0.05021612 0.088681094 -0.019221112 -0.06297703 -0.06455088
-0.0412045 0.0 0.03246334 -0.125741 0.0 0.0 -0.01142346 0.0395323
-0.015531033 0.038226217 0.0 0.08727179 0.0 -0.012379795 -0.0044411677 0.0
0.0 0.0 -0.049419586 -0.032489523 -0.014164457 0.0 0.0 0.0
-0.20584385 -0.063935965 -0.05535592 -0.014801603 -0.008530412 0.0 0.0 -0.004202539
0.0 0.10799954 -0.077680536 -0.1153848 -0.008713961 0.0 0.10932966 0.13281606
0.09982876 0.196712 -0.023999128 0.02277863 0.0 -0.022077737 0.031876683 -0.12071895
-0.021635367 -0.08187695 -0.023847366 0.0 0.007439804 0.0 0.008986082 -0.011034144
0.005618773 0.0006767269 -0.044825435 -0.14538611 0.10794137 -0.03897436 -0.016785081 -0.07711831
00000000: 0000 0000 5dda 23bd 52df c9bd 0000 0000
00000010: 0000 0000 a838 5bbd b426 b73d 18d9 15bc
00000020: 6acb e0bc 225d 74bd aed0 a9bd 0000 0000
00000030: 53c8 e23c 2b84 d4bc ab95 40bd 41da 84bd
00000040: 3d4b d8bc 0000 0000 cad7 6ebd 7134 d8bb
00000050: 749a d0bb 5a07 2abc 0000 0000 b6a0 9e3d
00000060: 9c5e efbc ff96 a8bd 0000 0000 7633 983d
00000070: 0000 0000 e4d4 49bd 0000 0000 6097 f23d
00000080: e863 b3bc 4a20 19bd 0bbe 653d 0569 9dbc
00000090: c9bc c6bc 0000 0000 6b7b febd 0000 0000
000000a0: a713 0fbe 8162 fcbd 0000 0000 4710 febc
000000b0: 471a 54bc 0000 0000 0000 0000 11d4 60bd
000000c0: f0e1 b9bd 5d40 f1bc 0000 0000 2e29 09bc
000000d0: 6dd3 43bd 0000 0000 136a e83d 2e2c 153a
000000e0: f93a b4bd c6ec 43bc 0000 0000 a808 06be
000000f0: e5f1 12bc 0000 0000 b42d 8ebd 8b09 043c
00000100: 4496 36bc 0000 0000 ab2f aaba 9a93 e93d
00000110: b898 6bbd eaa4 10be 0000 0000 0000 0000
00000120: a83b 16bd 5e1d d03c 0000 0000 41f7 ccbd
00000130: d6a4 81bd a2a6 a53c f39d b4bc 0000 0000
00000140: 3730 01bc 0000 0000 012c 09bd 7b3c d83d
00000150: e0b3 1f3e 0000 0000 eaa1 883d 0000 0000
00000160: 0000 0000 0000 0000 9d31 82bc 2f6c f8bd
00000170: fdd7 5bbd 6578 a3bd 21f3 b5bd 050b 1fbc
00000180: 0000 0000 0000 0000 69f6 813d 43f1 03bd
00000190: 7df9 11bd 57d4 0cbd 8cac dc3b 2795 58bd
000001a0: c52a 14bc 5721 adbd f212 97bb 8dd6 d0bb
000001b0: c355 a33c c959 0fbc 3f34 c83a 72b8 143e
000001c0: db73 a3bd 9b5d 73bd 5554 52be 0000 0000
000001d0: 2ca3 9d3c f78d 71bc 4117 8c3a 6b0b 65bd
000001e0: 219d 0dbd 4fa9 1a3d eced 6e3c 01d5 12bd
000001f0: 38f5 cf3b c7ba 4dbc 819e d33d 2df7 c53c
00000200: 0000 0000 897b 43be 0000 0000 0000 0000
00000210: b66b 963c 313d 9cbd 4e63 a9bd 0000 0000
00000220: 215b a7bc c10b 763b 4dfc cd3d f5db eb3d
00000230: 3b69 7fbc a465 1c3c 0000 0000 d380 33bc
00000240: 8e41 83bb 3583 5fbd 3eba 97bd 6a3b 3ebd
00000250: 0000 0000 dccf d3bb 8dfe 57be 0000 0000
00000260: 7431 ccbb 0000 0000 0000 0000 8ec0 76be
00000270: 5441 53bd 924c 66bc b3f3 dc3d 15fb e23d
00000280: 27c2 bfbb be9a 61bd 4284 7ebd 2fb4 12bc
00000290: 8c77 38be bf91 35be 0000 0000 170d e23d
000002a0: 2572 d6bc e67f 0ebd 2525 7fbc 0000 0000
000002b0: d5ff 97bc 0000 0000 0000 0000 406f 08be
000002c0: c86a 00bd 9770 41be 0000 0000 97a5 d6bd
000002d0: 0da8 82bd 2b8f 063c 0000 0000 0000 0000
000002e0: d95e 2e3e 4cbe e1bb 8ec3 54bd 6baf 4dbd
000002f0: 6f9e b53d 9875 9dbc 1afa 80bd 4033 84bd
00000300: 0dc6 28bd 0000 0000 47f8 043d 40c2 00be
00000310: 0000 0000 0000 0000 7729 3bbc 9fec 213d
00000320: e075 7ebc 1893 1c3d 0000 0000 8dbb b23d
00000330: 0000 0000 a0d4 4abc 3787 91bb 0000 0000
00000340: 0000 0000 0000 0000 316c 4abd bc13 05bd
00000350: 0a12 68bc 0000 0000 0000 0000 0000 0000
00000360: bbc8 52be dcf0 82bd e4bc 62bd 6c82 72bc
00000370: 24c3 0bbc 0000 0000 0000 0000 74b5 89bb
00000380: 0000 0000 dd2e dd3d f916 9fbd de4e ecbd
00000390: 00c5 0ebc 0000 0000 3be8 df3d ef00 083e
000003a0: 0573 cc3d df6e 493e d299 c4bc 409a ba3c
000003b0: 0000 0000 5fdc b4bc 2091 023d 7f3b f7bd
000003c0: a73c b1bc 1aaf a7bd 8d5b c3bc 0000 0000
000003d0: 99c9 f33b 0000 0000 5c3a 133c 8ec8 34bc
000003e0: af1d b83b 6066 313a e09a 37bd 19e0 14be
000003f0: 5d10 dd3d 94a3 1fbd de80 89bc 34f0 9dbd

model.2.weight f4 [256, 256]
0.047727004 -0.026395313 -0.014340593 -0.05670923 -0.0627602 -0.0681615 -0.21418306 -0.015365488
0.41221246 -0.030476114 -0.093507715 -0.019317364 0.001289061 0.0018852996 0.047762163 -0.022518886
0.0026341667 -0.09787998 -0.029436523 0.034653056 -0.0073748915 0.03487102 0.00066483667 0.091255695
0.06293384 -0.20540486 0.029505987 0.45744926 0.016797872 0.008705958 -0.004663064 -0.20969395
-1.4413294 -0.07504226 0.040883705 0.007945965 0.0130798295 0.03740322 0.054947723 -0.039612032
0.09116672 0.118265145 0.01592245 0.10996752 -0.026185878 0.002340192 0.057291914 0.0024298206
0.028988803 0.040490806 0.0025042947 -0.042505413 0.21295394 0.001278454 0.17239812 0.076532505
-0.2522762 0.00254394 -0.015856039 -0.082280986 0.02213029 0.05104516 -0.010202334 0.010426579
0.09690751 0.009523499 -0.083493315 -0.19191712 -0.39016655 -0.45900416 -0.0031599512 -0.035530116
-0.021445299 0.11727253 0.020329788 0.35022196 -0.8011026 0.20189685 -0.061645143 0.0509964
0.033388957 0.054037433 0.050763607 -0.17718662 -1.0538023 0.057453502 0.16780718 -0.032786943
0.031954173 0.012123272 0.10027441 0.03694984 0.116673306 -1.2719204 -0.12655558 -0.05312163
-0.01588921 0.0639599 0.1657954 0.04618662 -0.029688472 -0.12432349 -0.23389377 -0.01185929
0.023337418 0.07737919 -0.009499344 0.0019534 0.26566842 0.12614962 -0.012476915 0.26232207
-0.015867895 0.09646577 -0.38609576 0.018175568 -0.43609872 0.052335013 0.029020077 0.13230377
-0.031124247 0.13699864 0.09653589 -0.018905552 0.052259922 0.0706095 0.22745287 0.05563915
-0.03654522 0.5098368 0.017055418 -0.043292023 -0.41784668 -1.1736001 0.1893461 0.012058187
-0.005222701 0.03009102 0.13833638 -0.29519215 0.16715902 0.05666794 -0.007708327 -0.0045741973
-0.045730084 -0.02723249 -0.011069838 0.28597802 -0.00843391 0.022029 0.21920052 0.028002996
-0.02169517 0.029949106 -0.077790454 0.64698 0.1048102 -0.03830405 -0.5065935 -0.27068636
-0.0014386585 -0.3974438 0.53354776 -0.053613573 -2.8866062 0.19305404 -0.019839164 -0.13533364
0.106041655 -0.16764426 -0.072567135 -0.037164714 -0.012475861 0.015618959 -0.035276607 0.011545729
0.012628236 0.5031788 0.022097245 -0.1795851 0.011200626 0.09496891 0.03227101 0.03670035
0.34981966 0.17589797 0.1081915 0.009135033 0.07099362 -0.02650272 -0.7552331 0.045392662
0.19385427 -0.12045509 -0.13016757 0.10964845 -0.03982129 0.05206152 -0.0414091 -0.13155252
-0.0057438356 -0.067336105 0.018121494 -0.077814244 -0.037268907 0.048045076 0.03532347 -0.058408927
-0.022371743 -0.021586671 0.18042082 -0.14894336 0.01192298 0.03758755 -0.022766916 -0.032379586
1.3953323 -0.070447214 -0.01520897 -0.044112094 0.06859807 -0.0081370585 -0.07468924 -0.05635141
-0.06518842 -0.31946957 -0.36664262 0.1113648 -0.016294254 0.0133654615 -0.248231 0.13772364
0.062371314 0.1372078 0.21868691 0.15240754 -0.002383813 0.13501348 -0.029114794 -0.41852507
-0.010491267 0.09418536 -0.011633656 0.0052182707 -0.3993395 -0.0105314255 -0.0041427994 0.034512904
0.048841517 0.13031292 0.07556589 -0.079828665 -0.05464922 0.028392652 0.13713357 -0.0075912275
00000000: 647d 433d fc3a d8bc cef4 6abc f047 68bd
00000010: 6b88 80bd 4298 8bbd ce52 5bbe 87bf 7bbc
00000020: 830d d33e 0ba9 f9bc f980 bfbd 733f 9ebc
00000030: b6f5 a83a 281c f73a 42a2 433d 8779 b8bc
00000040: fca1 2c3b 4d75 c8bd dd24 f1bc 5df0 0d3d
00000050: 13a9 f1bb ead4 0e3d 6f48 2e3a 44e4 ba3d
00000060: 75e3 803d a755 52be 8ab6 f13c ca36 ea3e
00000070: b19b 893c 6fa3 0e3c 9ecc 98bb 03ba 56be
00000080: 7b7d b8bf c2af 99bd ac75 273d cb2f 023c
00000090: c84c 563c 1e34 193d dd10 613d 3a40 22bd
000000a0: 9eb5 ba3d ff34 f23d cc6f 823c a736 e13d
000000b0: c483 d6bc e85d 193b edaa 6a3d a03d 1f3b
000000c0: ed79 ed3c b0d9 253d 181f 243b 281a 2ebd
000000d0: 9910 5a3e cc91 a73a 2289 303e 13bd 9c3d
000000e0: 592a 81be 3bb8 263b 86e4 81bc ef82 a8bd
000000f0: 954a b53c bb14 513d b127 27bc 3ed4 2a3c
00000100: 7277 c63d 7308 1c3c 8bfe aabd ec85 44be
00000110: e9c3 c7be 9802 ebbe 2f17 4fbb 0788 11bd
00000120: 0dae afbc 952c f03d a88a a63c 4b50 b33e
00000130: 0f15 4dbf 0cbe 4e3e 9e7f 7cbd 9ae1 503d
00000140: dcc2 083d 5b56 5d3d 80ed 4f3d 6970 35be
00000150: fee2 86bf 5d54 6b3d a5d5 2b3e 9a4b 06bd
00000160: 61e2 023d b0a0 463c ab5c cd3d b758 173d
00000170: 6af2 ee3d 4ace a2bf c997 01be 1196 59bd
00000180: 172a 82bc 68fd 823d 45c6 293e 2e2e 3d3d
00000190: 3d35 f3bc 509d febd d981 6fbe 784d 42bc
000001a0: 1d2e bf3c fb78 9e3d 23a3 1bbc 9d04 003b
000001b0: b105 883e 5e2d 013e f96b 4cbc 144f 863e
000001c0: 63fd 81bc d88f c53d 58ae c5be eee4 943c
000001d0: 5548 dfbe 3d5d 563d 83bb ed3c a47a 073e
000001e0: 47f8 febc 5f49 0c3e 9cb4 c53d d1df 9abc
000001f0: 800e 563d b79b 903d 68e9 683e e1e5 633d
00000200: 71b0 15bd aa84 023f ceb7 8b3c fa52 31bd
00000210: 00f0 d5be 8738 96bf f2e3 413e b48f 453c
00000220: 3123 abbb 7181 f63c 0da8 0d3e 6d23 97be
00000230: bc2b 2b3e a41c 683d 2296 fcbb 26e3 95bb
00000240: 784f 3bbd ac16 dfbc 445e 35bc b66b 923e
00000250: 622e 0abc 2976 b43c 1a76 603e 8a66 e53c
00000260: 12ba b1bc d457 f53c 9a50 9fbd 7ba0 253f
00000270: bba6 d63d b5e4 1cbd 1db0 01bf 6797 8abe
00000280: 5e91 bcba c17d cbbe 9696 083f e899 5bbd
00000290: 28be 38c0 f5af 453e be85 a2bc e794 0abe
000002a0: 5e2c d93d f0aa 2bbe 149e 94bd 073a 18bd
000002b0: 8e67 4cbc aae6 7f3c 347e 10bd 4c2a 3d3c
000002c0: a9e6 4e3c 53d0 003f 4805 b53c 28e5 37be
000002d0: d582 373c 0f7f c23d 9b2e 043d 1b53 163d
000002e0: 901b b33e 991e 343e 8193 dd3d 1bab 153c
000002f0: 1a65 913d 3b1c d9bc f556 41bf a8ed 393d
00000300: bc81 463e 29b1 f6bd a64a 05be 5e8f e03d
00000310: a61b 23bd 763e 553d 979c 29bd b4b5 06be
00000320: c936 bcbb 83e7 89bd 8773 943c 135d 9fbd
00000330: 48a7 18bd eaca 443d 58af 103d 333e 6fbd
00000340: f244 b7bc 88d6 b0bc 3cc0 383e 9c84 18be
00000350: 9a58 433c 67f5 193d af81 babc 75a0 04bd
00000360: 409a b23f a146 90bd 0b2f 79bc e2ae 34bd
00000370: 257d 8c3d 4c51 05bc acf6 98bd bcd0 66bd
00000380: 8281 85bd 8491 a3be 95b8 bbbe 3a13 e43d
00000390: 877b 85bc cffa 5a3c 4430 7ebe 6d07 0d3e
000003a0: 1079 7f3d 3480 0c3e 76ef 5f3e b910 1c3e
000003b0: bf39 1cbb f940 0a3e 2682 eebc eb48 d6be
000003c0: 90e3 2bbc 41e4 c03d 179b 3ebc 07fe aa3b
000003d0: 3a76 ccbe 008c 2cbc 52c0 87bb 675d 0d3d
000003e0: 0b0e 483d c070 053e 4ac2 9a3d 367d a3bd
000003f0: dcd7 5fbd b597 e83c be6c 0c3e d5bf f8bb

model.2.bias f4 [256]
-0.05627125 -0.026512422 0.10786001 0.019981582 0.05046605 0.08912477 0.06784374 -0.04613603
-0.09988941 -0.03336427 -0.028676009 -0.032991104 -0.023483386 0.032112416 -0.018825859 -0.015374596
-0.008445253 -0.013717321 -0.048902348 -0.029296862 -0.024146333 -0.03913301 -0.016458796 -0.024429606
-0.038315468 0.011388387 -0.008894462 -0.018661572 -0.06296249 -0.17197897 -0.056021135 0.027772753
-0.02571551 -0.029355397 0.007473362 -0.043700386 -0.030246723 -0.013028267 -0.02374118 0.10574097
0.06789839 -0.00400838 -0.12483897 0.07335726 -0.0054699345 -0.009389368 -0.03341284 -0.009040329
0.025750777 0.0017799984 -0.1007035 0.09238705 -0.09816763 -0.012818824 -0.07938385 -0.032589182
-0.027678762 -0.035087835 0.13865334 -0.044099655 -0.020991946 -0.112252966 0.004652498 -0.0071729533
-0.042715218 0.11365519 0.1292389 -0.051147766 0.028538639 -0.06462759 -0.1775442 -0.0074334233
0.073028214 -0.056123454 0.07212394 -0.02608485 -0.0758571 -0.032077555 -0.004008361 0.094635956
-0.09934126 -0.03876948 -0.0485763 -0.025646036 -0.017510017 -0.1976876 -0.027446585 -0.022093691
-0.0032654726 -0.014972315 0.027808456 -0.00973193 0.105308965 -0.0105062025 -0.021633863 -0.019230897
-0.014470998 -0.1449557 -0.023390034 -0.07422301 -0.12961382 -0.0060395207 0.090969615 -0.040715076
-0.018232983 -0.03531186 0.06468832 0.08876546 -0.16270152 -0.12831584 0.147754 -0.038449895
0.05461354 0.014257438 0.019120166 -0.01991363 -0.035067335 -0.011669713 -0.06304002 -0.040758155
-0.08359744 -0.005163905 0.026195256 -0.042500716 -0.021488948 0.00060308544 0.063540086 -0.19839966
-0.02113795 -0.06454367 0.014025454 -0.12818886 0.018747967 -0.031625394 -0.07219449 -0.006128646
-0.2599802 0.072758436 -0.0903721 -0.023151472 0.032709982 -0.072670415 -0.030478217 -0.01188126
-0.041336548 -0.026353909 0.06195167 0.06612716 -0.05976045 -0.028142193 -0.015740786 -0.026959168
-0.033610772 -0.026736176 0.11459694 -0.024254614 0.08409463 -0.021865355 -0.08359085 -0.0407503
-0.009930332 -0.0037278559 -0.015179225 -0.02145636 -0.03840793 -0.03059974 -0.01824437 0.042981144
-0.013730321 0.011160059 -0.03032354 -0.026698802 -0.031494014 -0.08484821 -0.010617225 0.10517745
-0.050311934 -0.036546215 -0.009093027 -0.04081647 0.019043999 -0.1388195 -0.032056365 -0.048206635
-0.020870663 0.03698107 -0.01668637 0.08228941 -0.012665562 0.09816873 -0.019795138 0.050923288
-0.025808875 -0.02057168 0.020596804 -0.0582704 0.08413161 0.043468904 0.09057371 -0.040986795
0.010371747 -0.026822945 -0.022940129 0.08170761 -0.034625985 0.039194837 -0.1400956 -0.0026015562
-0.058541987 -0.11336726 -0.02139859 -0.0046220054 0.1226593 -0.14800772 -0.021732682 -0.15467776
-0.01573929 -0.017779132 -0.039068237 0.100600176 -0.14875503 -0.020608393 -0.12243452 -0.016915984
-0.0036795975 -0.06848089 -0.014258035 0.0 0.07623891 0.072253056 -0.15073812 -0.023061723
-0.021246804 0.0616746 -0.023059735 -0.1609235 -0.070033625 -0.013872179 -0.09716925 0.13036948
-0.024654547 -0.05642441 0.09324026 -0.036808863 0.09660695 -0.020708276 -0.15321338 -0.21505588
0.07368596 0.06513 0.09796266 -0.018644508 0.04736644 -0.034358855 -0.02517114 0.08549425
00000000: af7c 66bd 9430 d9bc b5e5 dc3d 6ab0 a33c
00000010: 7db5 4e3d 0c87 b63d a9f1 8a3d 22f9 3cbd
00000020: d292 ccbd f9a8 08bd f3e9 eabc ae21 07bd
00000030: 3b60 c0bc 4f88 033d b038 9abc bbe5 7bbc
00000040: f55d 0abc 9dbe 60bc d44d 48bd f9ff efbc
00000050: 88ce c5bc ef49 20bd 99d4 86bc 9920 c8bc
00000060: aef0 1cbd 5b96 3a3c 14ba 11bc 27e0 98bc
00000070: 7af2 80bd 411b 30be 6b76 65bd af83 e33c
00000080: 55a9 d2bc bb7a f0bc 1be3 f43b 2dff 32bd
00000090: fac7 f7bc 8374 55bc dd7c c2bc b98e d83d
000000a0: 500e 8b3d bb58 83bb 93ab ffbd 553c 963d
000000b0: 233d b3bb ddd5 19bc e7db 08bd e31d 14bc
000000c0: 4bf3 d23c d64e e93a a33d cebd 6c35 bd3d
000000d0: 1c0c c9bd 0b06 52bc 0094 a2bd 3c7c 05bd
000000e0: 92be e2bc 43b8 0fbd 24fb 0d3e d7a1 34bd
000000f0: 4df7 abbc e2e4 e5bd fb73 983b 180b ebbb
00000100: 27f6 2ebd 0dc4 e83d 3457 043e 5280 51bd
00000110: ddc9 e93c 785b 84bd 26ce 35be 1394 f3bb
00000120: d18f 953d b5e1 65bd b7b5 933d e5af d5bc
00000130: f85a 9bbd c163 03bd 9258 83bb 7fd0 c13d
00000140: 6e73 cbbd bfcc 1ebd f1f7 46bd a317 d2bc
00000150: 2b71 8fbc 9e6e 4abe a9d7 e0bc d4fd b4bc
00000160: 8a01 56bb 714e 75bc 8fce e33c ac72 1fbc
00000170: 3aac d73d 3522 2cbc 8039 b1bc 1d8a 9dbc
00000180: c417 6dbc 446f 14be 759c bfbc 3c02 98bd
00000190: 7cb9 04be 2ce7 c5bb 474e ba3d dac4 26bd
000001a0: 565d 95bc 2ba3 10bd 4f7b 843d aaca b53d
000001b0: 3a9b 26be 3a65 03be d34c 173e a37d 1dbd
000001c0: 73b2 5f3d 0798 693c e5a1 9c3c e921 a3bc
000001d0: c4a2 0fbd 5332 3fbc 201b 81bd 06f2 26bd
000001e0: 2235 abbd fa35 a9bb 6f97 d63c 3b15 2ebd
000001f0: 9709 b0bc 6118 1e3a 4e21 823d 4829 4bbe
00000200: 7e29 adbc 792f 84bd 05cb 653c f143 03be
00000210: 5695 993c a189 01bd b4da 93bd cfd2 c8bb
00000220: 201c 85be 6002 953d 0215 b9bd 28a8 bdbc
00000230: e7fa 053d 3ad4 94bd 74ad f9bc 9ea9 42bc
00000240: 8350 29bd 27e4 d7bc 09c1 7d3d ad6d 873d
00000250: 60c7 74bd 758a e6bc d2f2 80bc 79d9 dcbc
00000260: 73ab 09bd d305 dbbc cdb1 ea3d 9db1 c6bc
00000270: ce39 ac3d f91e b3bc ae31 abbd c9e9 26bd
00000280: d5b2 22bc 0b4f 74bb 49b2 78bc 40c5 afbc
00000290: a251 1dbd 4eac fabc 3875 95bc ff0c 303d
000002a0: 24f5 60bc aed8 363c 1369 f8bc 72b7 dabc
000002b0: deff 00bd e6c4 adbd dff3 2dbc 4667 d73d
000002c0: e313 4ebd 7cb1 15bd ebfa 14bc 2c2f 27bd
000002d0: 2902 9c3c b326 0ebe 894d 03bd 5274 45bd
000002e0: f4f8 aabc 7679 173d dbb1 88bc 5a87 a83d
000002f0: 3883 4fbc b00c c93d 6a29 a2bc f094 503d
00000300: 226d d3bc f185 a8bc a1ba a83c f1ac 6ebd
00000310: 324d ac3d 730c 323d b67e b93d c5e1 27bd
00000320: 43ee 293c cbbb dbbc f0ec bbbc 5256 a73d
00000330: fad3 0dbd c48a 203d 3975 0fbe df7e 2abb
00000340: b9c9 6fbd 182d e8bd 194c afbc 3174 97bb
00000350: cd34 fb3d 568f 17be bd08 b2bc d963 1ebe
00000360: afef 80bc 8ba5 91bc 0406 20bd 7707 ce3d
00000370: 3d53 18be efd2 a8bc f3be fabd 6493 8abc
00000380: 6725 71bb b53f 8cbd 899a 69bc 0000 0000
00000390: 2523 9c3d 69f9 933d 185b 1abe f0eb bcbc
000003a0: c70d aebc 819e 7c3d c5e7 bcbc 21c9 24be
000003b0: ca6d 8fbd 2348 63bc ac00 c7bd 947f 053e
000003c0: 55f8 c9bc 481d 67bd c0f4 be3d e4c4 16bd
000003d0: ddd9 c53d 67a4 a9bc f8e3 1cbe 9c37 5cbe
000003e0: aae8 963d e162 853d a6a0 c83d 5ebc 98bc
000003f0: 5003 423d dfbb 0cbd b533 cebc 9c17 af3d

model.4.weight f4 [256, 256]
-0.030030927 0.023605095 0.0752488 0.14546385 0.110603586 0.13338539 0.11126196 -0.06589765
0.08821015 -0.4135543 -0.06362282 0.04464614 -0.08014743 0.38210788 -0.056896467 -0.14661941
-0.0006712204 0.108500116 -0.02516408 0.17014055 0.16704126 0.0916968 -0.020203473 0.06176597
0.16815545 0.23380138 -0.8739515 0.058796924 0.10411532 0.24630107 0.19156623 -0.19485818
-0.005180336 0.026838984 0.1577259 0.09879451 0.006628767 0.06998582 -0.028963456 0.20721067
0.35602924 -0.03296979 0.060565867 0.0012784278 -0.014543388 -0.05840287 0.053259138 0.06720512
-0.08600629 -0.07888682 0.12589031 -0.07572421 -0.08065896 -0.047237717 0.15827486 0.03241079
0.15188926 -0.07952959 0.3645596 -0.09902227 0.028192835 0.10476253 0.121809356 0.15656084
0.10282981 0.09332806 0.21002868 0.20939033 -0.09303595 -0.023531115 0.010342796 0.039244834
0.12612301 0.10650072 0.08003823 0.024201714 0.1902723 -0.024720198 -0.05510864 -0.1493269
0.07011439 0.13099386 0.18793698 -0.06480905 -0.013184325 0.38177657 -0.07201298 -0.74453974
-0.07344477 0.07957477 0.010637483 -0.1055117 0.13808651 -0.6885718 -0.054102886 -0.92427444
-0.039010987 -1.2805537 -0.018608615 0.06345867 -0.7005377 -0.027682021 0.07387291 0.049474545
0.04857474 0.14254092 -0.27782872 0.08348355 0.068022385 0.15557224 0.004074944 -0.098725125
0.07191602 0.14048564 -2.9311399e-05 0.040946312 0.173298 0.041968103 0.16681793 0.010565415
-0.0634148 0.02731816 -0.1332115 0.0074385838 0.05457703 0.016840812 0.018633245 -2.2949867
-0.19239044 0.06487869 0.07525507 -4.19587 -0.09466512 0.19295235 -0.13340877 0.0036365334
0.04782758 0.02681117 0.17789055 -0.01074987 -0.019176949 -0.06971562 -0.03884719 -0.009152061
0.32717398 -0.043924242 0.040795367 0.09922938 0.15473652 -0.005085898 -0.05582096 -0.051745903
-0.84455943 -0.013072207 -0.019640202 -0.040735696 -0.09651187 -0.07668517 -0.865337 -0.055805314
-0.078085005 0.05748802 0.031561527 -0.0317887 0.21782908 0.046317853 0.0411037 0.12095599
0.17759632 0.16389985 0.022171425 -0.3849493 0.2905378 -0.06275802 0.067943595 -0.155594
0.09893225 0.17034164 -0.029283142 0.14663595 0.09850797 0.32008624 0.008529224 0.15410106
-0.017636606 0.08065947 -0.0220141 0.29711643 0.033692893 0.6014837 0.18566395 0.2083895
-0.10598245 0.0056302645 0.058751922 0.7102517 0.050777953 0.0756641 -0.022630088 0.025306432
0.12180136 -0.04165646 0.018706338 -0.086700715 0.19990315 0.004685545 -0.67857903 0.07959541
0.2161188 0.39533585 -0.05964534 -0.021242147 0.12645748 -0.19220786 0.040401638 0.15655065
-0.046703305 -0.02437556 -0.012624417 0.10460128 -0.2758903 0.06140543 -0.65862083 -0.03827531
-0.05793991 0.4284288 -0.81894416 0.058168165 -0.12116961 0.05310351 -0.6105818 -0.32584876
0.047614302 0.43065333 -0.06538342 -0.02654771 0.0032119693 0.0921869 -0.050302774 0.060185574
0.0011321263 0.21785176 0.2159149 0.04184638 0.22671391 -0.07805203 -0.106123276 0.07754846
-0.1099402 0.07522788 0.10160342 0.051834576 -0.034975924 -0.048643403 -0.11599599 0.24733865
00000000: 6b03 f6bc 795f c13c 0b1c 9a3d 7af4 143e
00000010: 2284 e23d 2e96 083e 4fdd e33d 59f5 86bd
00000020: 86a7 b43d 64bd d3be ae4c 82bd dfde 363d
00000030: 5624 a4bd a5a3 c33e 450c 69bd 6623 16be
00000040: d7f4 2fba 4f35 de3d e724 cebc 5339 2e3e
00000050: dd0c 2b3e 88cb bb3d c181 a5bc 50fe 7c3d
00000060: f130 2c3e a169 6f3e 49bb 5fbf 0bd5 703d
00000070: 6a3a d53d 5936 7c3e f029 443e e788 47be
00000080: cfbf a9bb 6edd db3c e682 213e c754 ca3d
00000090: 2136 d93b ba54 8f3d c544 edbc 092f 543e
000000a0: 7749 b63e 550b 07bd ea13 783d eb90 a73a
000000b0: 6447 6ebc d937 6fbd 4126 5a3d d7a2 893d
000000c0: 1124 b0bd 6a8f a1bd 64e9 003e 4b15 9bbd
000000d0: 8630 a5bd 567c 41bd ce12 223e 2dc1 043d
000000e0: dc88 1b3e 69e0 a2bd 8ea7 ba3e 30cc cabd
000000f0: a9f4 e63c bd8d d63d 2f77 f93d 7c51 203e
00000100: 6f98 d23d c822 bf3d c211 573e 6b6a 563e
00000110: a289 bebd 53c4 c0bc d574 293c 31bf 203d
00000120: 6426 013e 0d1d da3d 15eb a33d ac42 c63c
00000130: bed6 423e 0382 cabc 99b9 61bd 27e9 18be
00000140: 2298 8f3d 4123 063e 8d72 403e 9bba 84bd
00000150: 1103 58bc 3878 c33e 8b7b 93bd 289a 3ebf
00000160: 366a 96bd 19f8 a23d d648 2e3c 8516 d8bd
00000170: 8d66 0d3e 3e46 30bf fd9a 5dbd 409d 6cbf
00000180: fcc9 1fbd 2fe9 a3bf 1871 98bc 9ff6 813d
00000190: 7056 33bf 68c5 e2bc ae4a 973d d2a5 4a3d
000001a0: 4ef6 463d 3ff6 113e 913f 8ebe 6cf9 aa3d
000001b0: 524f 8b3d 544e 1f3e 1c87 853b 6630 cabd
000001c0: b548 933d 78db 0f3e c0e1 f5b7 52b7 273d
000001d0: 0875 313e bfe6 2b3d 52d2 2a3e 901a 2d3c
000001e0: 9edf 81bd 55ca df3c 9868 08be 5dbf f33b
000001f0: 2a8c 5f3d bef5 893c bfa4 983c 10e1 12c0
00000200: 0002 45be 1edf 843d 551f 9a3d 9144 86c0
00000210: c9df c1bd 4d95 453e 4f9c 08be e852 6e3b
00000220: dae6 433d 19a3 db3c f128 363e 3920 30bc
00000230: fa18 9dbc 10c7 8ebd 3b1e 1fbd 87f2 15bc
00000240: 5983 a73e e8e9 33bd 0b19 273d c638 cb3d
00000250: 4073 1e3e 9ba7 a6bb 85a4 64bd 83f3 53bd
00000260: 0c35 58bf cf2c 56bc 7de4 a0bc 79da 26bd
00000270: 04a8 c5bd 1d0d 9dbd ba86 5dbf 1d94 64bd
00000280: 08eb 9fbd 8f78 6b3d a946 013d de34 02bd
00000290: 960e 5f3e cab7 3d3d 5a5c 283d c6b7 f73d
000002a0: cfdb 353e 5dd5 273e d9a0 b53c 1318 c5be
000002b0: 5fc1 943e 4787 80bd 0326 8b3d 0954 1fbe
000002c0: fe9c ca3d 0a6e 2e3e 33e3 efbc bc27 163e
000002d0: 8cbe c93d 58e2 a33e 29be 0b3c abcc 1d3e
000002e0: a57a 90bc cb30 a53d ea56 b4bc a51f 983e
000002f0: 8f01 0a3d d6fa 193f b11e 3e3e 0f64 553e
00000300: 540d d9bd 157e b83b dba5 703d 0ed3 353f
00000310: 8bfc 4f3d c8f5 9a3d bc62 b9bc 6f4f cf3c
00000320: fe72 f93d f79f 2abd 093e 993c 2590 b1bd
00000330: 69b3 4c3e 3389 993b 5bb7 2dbf eb02 a33d
00000340: 3f4e 5d3e 7669 ca3e ac4e 74bd 0304 aebc
00000350: 127e 013e 23d2 44be 307c 253d d04e 203e
00000360: f74b 3fbd 41af c7bc a5d6 4ebc 3239 d63d
00000370: 7e41 8dbe 4384 7b3d 609b 28bf 92c6 1cbd
00000380: 6652 6dbd 055b db3e 53a6 51bf be41 6e3d
00000390: c627 f8bd 1183 593d 174f 1cbf a6d5 a6be
000003a0: 3707 433d 987e dc3e bee7 85bd 957a d9bc
000003b0: e77f 523b 7ccc bc3d 480a 4ebd 2685 763d
000003c0: db63 943a 8814 5f3e cc18 5d3e 1c67 2b3d
000003d0: b127 683e bed9 9fbd 2957 d9bd bad1 9e3d
000003e0: 5428 e1bd 1311 9a3d 7415 d03d 7e50 543d
000003f0: ea42 0fbd 4e3e 47bd 4e8f edbd 5846 7d3e

model.4.bias f4 [256]
0.06687223 0.053870626 -0.02532053 -0.005875793 0.0193086 0.085492976 0.05896564 -0.0012656846
-0.031531733 0.031865686 -0.019286597 -0.02149669 0.07280187 -0.028768482 0.0198331 -0.013335393
0.04839367 -0.0461225 -0.02785895 -0.025786001 0.008850388 -0.027119 -0.019610908 0.061285775
-0.023743456 0.025504423 0.023759712 0.015560257 0.06921241 -0.017216707 0.022724066 -0.023648141
0.00026046584 -0.002241453 -0.031150114 -0.041668784 -0.05818341 0.08556838 0.03890413 0.098285474
0.06997826 -0.012767419 0.028577922 0.058029044 -0.03637515 0.071345724 -0.035681937 -0.015837923
-0.044153642 0.04077174 -0.03199753 0.00713065 0.017534228 -0.034557916 -0.012589197 -0.035613846
-0.011436402 0.023608621 0.04457358 0.0013400039 -0.04810066 -0.026184281 0.0067120413 0.032028135
-0.033823285 -0.023611419 0.027020823 0.07113362 -0.013181146 0.016695648 -0.026266731 -0.023340996
-0.04264081 -0.019780966 -0.04269325 0.052090786 0.052053656 -0.036280517 0.030953245 -0.029871892
0.076132305 -0.017720835 -0.0067012254 -0.02145227 0.12067646 -0.023401352 -0.033596523 -0.019501764
-0.029211625 -0.023893163 -0.038403977 0.046522293 -0.019686246 0.026644398 0.04390559 -0.023265988
0.05406788 0.052039444 0.022332883 0.03474031 -0.013910499 -0.013370843 0.024765365 -0.029062655
-0.029533988 0.011400222 -0.01996259 -0.012580509 -0.030262548 0.08230954 0.044498622 0.11365108
-0.015790379 0.05918038 0.059544496 -0.032442063 -0.027070384 0.07306697 0.027702486 -0.0051976824
0.078088574 -0.0017553885 0.08369301 -0.02728528 0.050222605 -0.007629198 0.02981248 -0.03198028
-0.017420635 -0.024778808 0.06896627 0.03222894 -0.13570608 -0.062106643 0.039195564 -0.01968818
-0.010236176 0.06307415 0.042056702 -0.033088494 0.047520787 -0.021792576 -0.02223569 0.052680757
-0.029498128 -0.011946354 0.009463719 -0.015648467 -0.030651739 -0.012899776 -0.008341869 -0.04317305
-0.005474385 -0.012032786 0.04599309 -0.039731625 -0.032301083 0.054172866 -0.029394472 0.072351515
0.11405078 0.027454076 0.07681773 -0.030329227 0.023379559 0.0340705 0.0489266 -0.037755094
0.08409082 0.021559801 0.037700783 0.081029 0.051949784 0.024027584 -0.013986675 -0.0037100678
0.014137336 0.039876144 0.046431176 -0.025194133 -0.016590597 -0.0026525683 0.07538511 -0.012537721
0.035415955 0.007114488 -0.009521522 0.04114891 -0.018727468 -0.017919062 -0.02835178 -0.035209134
0.022663865 0.026567198 0.0021913636 0.038038302 -0.24174845 -0.03443973 0.028147759 0.026328418
0.05075668 -0.010698129 -0.028836016 -0.034508 -0.012192814 -0.02371584 -0.020471204 -0.015562779
0.08265622 -0.023082806 -0.044363894 -0.024975115 0.024405727 0.053964797 0.047851644 -0.023455897
-0.008005962 0.045815565 -0.03976045 0.047831945 0.056114573 0.06928436 0.016387645 -0.034102794
0.048220925 0.027645295 -0.015289607 0.050103754 0.07799578 -0.030099515 0.006384259 -0.017814746
-0.016075522 -0.027418472 -0.010719808 0.06984547 -0.016759586 0.02110436 -0.029251488 0.024640644
0.050421588 -0.023010593 -0.03617441 0.033275273 0.030114148 0.027420562 0.08454556 -0.027244663
-0.03622038 0.057609424 0.046510823 -0.025599118 0.08561489 0.01336219 0.04515806 0.07577594
00000000: 4ff4 883d 72a7 5c3d 006d cfbc b989 c0bb
00000010: 122d 9e3c f116 af3d f485 713d 54e5 a5ba
00000020: 6b27 01bd 9885 023d edfe 9dbc d419 b0bc
00000030: 2619 953d e1ab ebbc 0679 a23c b17c 5abc
00000040: 7138 463d f2ea 3cbd 7438 e4bc 2a3d d3bc
00000050: 3801 113c aa28 debc 0ea7 a0bc cb06 7b3d
00000060: a381 c2bc a7ee d03c baa3 c23c 73f0 7e3c
00000070: 3cbf 8d3d 0d0a 8dbc d227 ba3c bfb9 c1bc
00000080: 228f 8839 57e5 12bb 862e ffbc e3ac 2abd
00000090: ba51 6ebd 7a3e af3d f059 1f3d e549 c93d
000000a0: c350 8f3d 702e 51bc 3f1c ea3c ddaf 6d3d
000000b0: 1cfe 14bd b51d 923d 3927 12bd 88be 81bc
000000c0: 73da 34bd 4500 273d d80f 03bd 3aa8 e93b
000000d0: f1a3 8f3c 9a8c 0dbd eb42 4ebc d3df 11bd
000000e0: bf5f 3bbc de66 c13c c992 363d 12a3 af3a
000000f0: 3305 45bd 6b80 d6bc aff0 db3b ef2f 033d
00000100: 498a 0abd bc6c c1bc c65a dd3c 81ae 913d
00000110: bcf5 57bc 50c5 883c 542d d7bc 9e35 bfbc
00000120: 21a8 2ebd b10b a2bc 1edf 2ebd 265d 553d
00000130: 3736 553d e19a 14bd a991 fd3c e6b5 f4bc
00000140: 41eb 9b3d 492b 91bc f495 dbbb acbc afbc
00000150: 3825 f73d 31b4 bfbc 829c 09bd 2ac2 9fbc
00000160: 384d efbc 98bb c3bc 7d4d 1dbd 298e 3e3d
00000170: 0d45 a1bc 5a45 da3c 59d6 333d 5098 bebc
00000180: 4876 5d3d 5027 553d 73f3 b63c db4b 0e3d
00000190: dde8 63bc 6111 5bbc bce0 ca3c ce14 eebc
000001a0: 43f1 f1bc ffc7 3a3c 9688 a3bc 7b1e 4ebc
000001b0: 2ae9 f7bc e791 a83d 3044 363d e6c1 e83d
000001c0: d35a 81bc 2067 723d eee4 733d f8e1 04bd
000001d0: b6c2 ddbc 23a4 953d 53f0 e23c 5251 aabb
000001e0: e7ec 9f3d 1015 e6ba 3e67 ab3d 6185 dfbc
000001f0: 38b6 4d3d 5afe f9bb 4d39 f43c c1fd 02bd
00000200: b8b5 8ebc edfc cabc 303e 8d3d 7e02 043d
00000210: 89f6 0abe 8963 7ebd 878b 203d 1b49 a1bc
00000220: a2b5 27bc 052d 813d a643 2c3d cd87 07bd
00000230: 28a5 423d 5886 b2bc 9f27 b6bc c7c7 573d
00000240: 0fa6 f1bc a4ba 43bc b70d 1b3c 3731 80bc
00000250: 5b19 fbbc 9559 53bc 56ac 08bc 39d6 30bd
00000260: 7862 b3bb 2a25 45bc 4063 3c3d a1bd 22bd
00000270: 244e 04bd 5ee4 5d3d adcc f0bc 082d 943d
00000280: 7593 e93d 5fe7 e03c 9d52 9d3d 0075 f8bc
00000290: 7d86 bf3c 828d 0b3d 4267 483d 16a5 1abd
000002a0: cf37 ac3d 2e9e b03c 236c 1a3d 88f2 a53d
000002b0: 4cc9 543d 7fd5 c43c 5e28 65bc 9c24 73bb
000002c0: 49a0 673c 2b55 233d 9e2e 3e3d ed63 cebc
000002d0: 01e9 87bc b6d6 2dbb 8263 9a3d 036b 4dbc
000002e0: 5210 113d a720 e93b 2800 1cbc c28b 283d
000002f0: 596a 99bc ffca 92bc fe41 e8bc 7437 10bd
00000300: 92a9 b93c 74a3 d93c fb9c 0f3b 0dce 1b3d
00000310: e88c 77be ad10 0dbd 2196 e63c b2ae d73c
00000320: 3de6 4f3d 3547 2fbc 8239 ecbc 4358 0dbd
00000330: 5ec4 47bc b947 c2bc 3ab3 a7bc 07fb 7ebc
00000340: aa47 a93d 2718 bdbc eab6 35bd 9d98 ccbc
00000350: 85ee c73c 310a 5d3d 1600 443d 9526 c0bc
00000360: 702b 03bc 1aa9 3b3d dbdb 22bd 6eeb 433d
00000370: 65d8 653d f5e4 8d3d 623f 863c 5faf 0bbd
00000380: 4e83 453d 6378 e23c 4381 7abc 9839 4d3d
00000390: 40bc 9f3d 4293 f6bc 0c33 d13b 3bf0 91bc
000003a0: d0b0 83bc b49c e0bc 22a2 2fbc 240b 8f3d
000003b0: 664b 89bc 0de3 ac3c d1a0 efbc 2ddb c93c
000003c0: de86 4e3d b680 bcbc 9e2b 14bd a74b 083d
000003d0: f2b1 f63c 16a1 e03c 3926 ad3d 3330 dfbc
000003e0: d25b 14bd dcf7 6b3d 2282 3e3d 3eb5 d1bc
000003f0: dc56 af3d 16ed 5a3c a8f7 383d 6b30 9b3d

model.6.weight f4 [1, 256]
0.29187784 0.14182071 0.018367926 -0.42526743 0.07588916 0.24477194 0.29522657 -0.12286078
-1.8118345 0.099862464 0.03885139 0.0001523764 0.2664955 -0.006060118 -0.39227238 0.0029012938
-0.4024315 0.030809576 -0.0035855153 -0.9262436 -1.120193 -2.0616372 -0.027342219 -0.806517
-0.063688196 0.077293836 0.08588518 0.12887028 0.2799256 -1.1898402 -0.20702446 -0.86825454
-0.76134807 -0.12658793 -0.0012137771 0.013009325 -2.2154973 -0.6767302 -1.1364738 0.37097368
0.29391903 -1.2270306 -0.17512701 0.322251 -1.1738563 0.30426615 0.024158444 0.05837348
-0.012706366 -0.23912363 -0.007268203 -0.3113726 0.06905337 0.047940932 0.045671757 -0.00023612341
-0.18185207 -0.19811183 -0.33591962 -0.18499453 0.033367887 -0.31747416 -1.1566004 -0.14207986
0.14927468 0.00989904 -0.08999976 -0.3377907 -0.4259908 -0.17957482 -1.0847702 -0.8678473
-0.6639717 -0.021770572 0.0062819687 0.2405862 -0.49347323 0.06284683 0.1056653 -0.05572513
0.31927952 -1.0053192 -0.95075417 0.046135645 -0.5987103 -1.287505 -0.5079302 -0.2963172
0.036758374 0.035165068 -0.5718016 0.12477096 -1.5017351 0.10779184 -0.39838904 0.0057899742
0.33180782 0.165171 -0.10222924 0.122472785 -0.39767224 -0.1521604 -0.44852573 0.020468215
0.008091168 0.08821735 0.02073187 0.019734355 0.0128956 -0.32363224 0.15234876 -0.3568191
-0.095930696 0.34650868 -0.69086945 0.14100224 0.007410854 -0.30434352 -0.13410541 -0.70426106
-0.4877989 -0.12404009 0.2650716 -1.1265354 -0.33100608 0.038828135 -0.1499299 -0.92304254
-0.09285725 0.013882502 0.32762733 -0.5272809 -2.3781497 -2.251446 0.24925324 -0.16442992
-0.0050217817 0.30052817 0.13306545 0.061719783 0.11724208 -0.043472983 0.053017218 0.32159933
0.065628804 0.054749995 0.060582504 0.0009160726 0.031611037 -0.004450796 -0.020700853 0.044840198
-0.24570127 -0.2802378 -0.22432874 -0.0020062565 0.018516712 0.1437239 0.0003291515 0.57843524
0.40437156 0.09527012 0.42347938 0.09347365 -0.87450194 -0.24832147 0.2731609 0.026182072
0.23617361 -2.187167 0.13211557 0.6140658 0.15210916 0.0875012 0.064949244 0.16259116
-0.007210597 0.1330773 0.13251692 0.0037123854 -1.5448767 -0.15620993 -0.41483042 -0.265437
-0.3597764 -0.16811302 -0.09713715 0.12094252 0.055590335 0.014956031 0.027344992 -0.065845504
-1.9113809 -1.7268131 -0.3028739 0.14116238 -2.3028061 0.02777573 -0.044720728 0.088134184
-1.3342294 -1.4073284 0.04879967 -1.0951033 0.020824565 -0.2653554 0.04882824 0.025271438
0.23265108 0.022538798 -0.0013230041 0.0064641377 -0.26531023 0.18295161 -0.26626927 0.021824254
0.028042845 0.3877358 -0.15409943 0.16533946 0.2885564 0.35190448 -0.33936414 -2.555381
0.17967065 -0.270797 -0.025057213 0.1789306 -0.3142565 0.025263665 -0.73597 -0.38127294
-0.30002233 -0.7559939 -0.013752027 -1.3116395 -0.15673964 0.1140392 -0.09077415 0.090113275
0.31937748 0.008174127 0.10813687 -0.47074252 0.09021349 0.10816186 0.31013018 -6.907236
0.006887999 0.20586053 0.16815548 0.067032546 -0.54024374 0.062162727 0.11538705 -1.362901
00000000: 0371 953e 7339 113e 5578 963c a7bc d9be
00000010: c76b 9b3d 7fa5 7a3e f027 973e 6f9e fbbd
00000020: 31ea e7bf b184 cc3d a322 1f3d 3ac7 1f39
00000030: 1972 883e f493 c6bb edd7 c8be a223 3e3b
00000040: 800b cebe 5d64 fc3c f7fa 6abb 4d1e 6dbf
00000050: 7c62 8fbf ddf1 03c0 cafc dfbc e677 4ebf
00000060: f56e 82bd 3b4c 9e3d 92e4 af3d 92f6 033e
00000070: 6952 8f3e af4c 98bf 38fe 53be ee45 5ebf
00000080: b5e7 42bf 44a0 01be 9a17 9fba 1025 553c
00000090: b5ca 0dc0 313e 2dbf f977 91bf 43f0 bd3e
000000a0: 8e7c 963e 570f 9dbf 7f54 33be 15fe a43e
000000b0: ec40 96bf c6c8 9b3e eee7 c53c 0819 6f3d
000000c0: 5d2e 50bc d3dc 74be 1b2a eebb 3b6c 9fbe
000000d0: da6b 8d3d b65d 443d 4f12 3b3d e597 77b9
000000e0: 6e37 3abe d4dd 4abe a8fd abbe 356f 3dbe
000000f0: c4ac 083d f98b a2be 7b0b 94bf 627d 11be
00000100: 76db 183e 952f 223c cb51 b8bd e7f2 acbe
00000110: 771b dabe 76e2 37be c0d9 8abf 3e2b 5ebf
00000120: 0dfa 29bf 3358 b2bc f9d8 cd3b 3b5c 763e
00000130: 86a8 fcbe d7b5 803d 0c67 d83d 0940 64bd
00000140: 9b78 a33e 4dae 80bf a064 73bf bbf8 3c3d
00000150: 1445 19bf f7cc a4bf b707 02bf e3b6 97be
00000160: f38f 163d 3f09 103d 9761 12bf eb87 ff3d
00000170: db38 c0bf f8c1 dc3d a6f9 cbbe d3b9 bd3b
00000180: b7e2 a93e 9622 293e 905d d1bd 03d3 fa3d
00000190: b29b cbbe f0cf 1bbe 2aa5 e5be f5ac a73c
000001a0: d190 043c 4cab b43d e2d5 a93c f1a9 a13c
000001b0: 1148 533c 20b3 a5be 5001 1c3e feb0 b6be
000001c0: 5077 c4bd 9669 b13e d2dc 30bf e462 103e
000001d0: c0d6 f23b ead2 9bbe ee52 09be 744a 34bf
000001e0: c7c0 f9be bb08 febd 77b7 873e 5032 90bf
000001f0: a179 a9be 400a 1f3d 3987 19be 844c 6cbf
00000200: f12b bebd 6f73 633c c5be a73e e2fb 06bf
00000210: 9b33 18c0 b117 10c0 3e3c 7f3e 5160 28be
00000220: c28d a4bb d4de 993e 4f42 083e e2cd 7c3d
00000230: 9e1c f03d ba10 32bd 9528 593d aba8 a43e
00000240: 6568 863d 8841 603d 5c25 783d 9724 703a
00000250: 937a 013d fcd7 91bb d694 a9bc 5baa 373d
00000260: 1d99 7bbe 547b 8fbe 6fb6 65be 667b 03bb
00000270: 5cb0 973c 5c2c 133e f791 ac39 5514 143f
00000280: ca09 cf3e fb1c c33d 4ad2 d83e 1d6f bf3d
00000290: 5cdf 5fbf fc47 7ebe bfdb 8b3e c97b d63c
000002a0: 7fd7 713e 8bfa 0bc0 4e49 073e 6b33 1d3f
000002b0: 81c2 1b3e d433 b33d 1c04 853d 4c7e 263e
000002c0: df46 ecbb 6a45 083e 84b2 073e 7e4b 733b
000002d0: 85be c5bf 7ff5 1fbe a764 d4be 5ce7 87be
000002e0: 9d34 b8be d225 2cbe d8ef c6bd b6b0 f73d
000002f0: b1b2 633d 240a 753c 9b02 e03c 02da 86bd
00000300: 21a8 f4bf 3608 ddbf 4a12 9bbe df8c 103e
00000310: 2d61 13c0 ed89 e33c 152d 37bd b27f b43d
00000320: 07c8 aabf 5623 b4bf 2ae2 473d 582c 8cbf
00000330: 4798 aa3c aadc 87be 1f00 483d 0c06 cf3c
00000340: 163c 6e3e 49a3 b83c a768 adba 1ed1 d33b
00000350: bed6 87be ab57 3b3e 7254 88be c7c8 b23c
00000360: 1cba e53c 4f85 c63e 3ecc 1dbe bf4e 293e
00000370: aabd 933e d32c b43e 23c1 adbe 5d8b 23c0
00000380: 95fb 373e e8a5 8abe c944 cdbc 9539 373e
00000390: 3ae6 a0be bff5 ce3c 8868 3cbf 3536 c3be
000003a0: 879c 99be d188 41bf 2f50 61bc cee3 a7bf
000003b0: 5b80 20be 628d e93d cce7 b9bd 4f8d b83d
000003c0: 7285 a33e c6ec 053c dd76 dd3d 2a05 f1be
000003d0: dac1 b83d f783 dd3d 62c9 9e3e 1408 ddc0
000003e0: b9b4 e13b 1acd 523e f330 2c3e 5c48 893d
000003f0: 6a4d 0abf 589e 7e3d 0c50 ec3d 8a73 aebf
