Models/Bloom_filter/result/model-dict-2.pt (torch, 533313 bytes, 7 tensors)

model.0.weight f4 [256, 2]
0	0xbdd33bd6	-0.10314147
1	0xbbafafba	-0.0053615244
2	0xbc7b4c85	-0.015338068
3	0x3d083597	0.033254232
4	0x3d8e9825	0.06962613
5	0x3d425d91	0.047452513
6	0xbe04afb4	-0.1295765
7	0xbde361ee	-0.11102663
8	0xbd8b74a5	-0.068093576
9	0xbe1c46d1	-0.1526139
10	0xbe8de98e	-0.2771725
11	0x3e08785b	0.13327162
12	0xbe59ea35	-0.21280749
13	0xbc240a57	-0.010012231
14	0x3cd6fd0c	0.026243709
15	0xbdcda601	-0.10041428
16	0xbe32ac44	-0.17448527
17	0x3e69b81b	0.22824137
18	0xbd0357e1	-0.03206623
19	0x3d78fe7b	0.060789566
20	0xbc937c1c	-0.018003516
21	0x3e8768c4	0.26447117
22	0xbd487341	-0.04893804
23	0xbcd1dce8	-0.025618032
24	0xbef96d8d	-0.48716393
25	0x3e24c58b	0.16090982
26	0xbd082f0f	-0.033248004
27	0x3cdd458e	0.027010705
28	0x3c94204f	0.018081812
29	0x3e0bbc1b	0.13645975
30	0xbd1d5857	-0.038414326
31	0x3d907b58	0.07054776
32	0xbd3d63f0	-0.046237886
33	0x3ea2d989	0.3180659
34	0xbd8c42c6	-0.068486735
35	0xbcaf4a75	-0.021397809
36	0xbd027737	-0.031851973
37	0x3d7267cd	0.059181023
38	0xbd7eb6b1	-0.062185947
39	0x3ce26ccc	0.027639769
40	0xbc187cac	-0.009307068
41	0x3e5d287e	0.21597478
42	0xbd587d33	-0.052853774
43	0x3ae3da3d	0.0017383766
44	0xbd8a03e6	-0.06739025
45	0xbdd441b0	-0.103640914
46	0x3c32855d	0.010896054
47	0xbdf3fccb	-0.11913451
48	0xbd286b33	-0.04111786
49	0x3d494438	0.049137324
50	0x3ddd5f16	0.10809152
51	0x3e026d6f	0.12737058
52	0xbdca7c8c	-0.09887037
53	0xbd08f3ba	-0.03343556
54	0xbece7009	-0.4031985
55	0x3d8c447e	0.06849001
56	0xbd5174b3	-0.051136684
57	0xbd0274a6	-0.031849526
58	0xbccf2f4b	-0.025291106
59	0x3d3456b8	0.044028014
60	0xbe0f0fdc	-0.13970894
61	0xbcf4ba34	-0.029873945
62	0x3a7b321e	0.0009582358
63	0xbee89aaf	-0.45430514
64	0x3e0c418a	0.13696876
65	0xbf221621	-0.63315016
66	0x3e1cf4c2	0.15327743
67	0xbe1a0f9c	-0.15045017
68	0x3df55b6a	0.119803265
69	0xbe2b7929	-0.16745438
70	0x3cf67f20	0.030089915
71	0xbd58c425	-0.052921433
72	0x3d11e4b4	0.0356185
73	0xbda4d1d0	-0.08047831
74	0xbd7847c9	-0.060615335
75	0xbe30ee30	-0.17278361
76	0x3dc0304a	0.093842104
77	0x3d606406	0.05478289
78	0xbd5a7115	-0.0533305
79	0xbe01a02d	-0.12658758
80	0x3e6eeba2	0.23332074
81	0xbe0aadd4	-0.13542873
82	0x3e533f58	0.20629632
83	0xbdf9f99d	-0.12205813
84	0xbd0e9077	-0.03480574
85	0xbc0c6882	-0.0085698385
86	0x3e1bd514	0.15218002
87	0xbde32c27	-0.11092406
88	0x3cabc088	0.02096583
89	0xbdc2cc16	-0.095115826
90	0xbd8f110c	-0.06985673
91	0xbbb172dd	-0.005415304
92	0xba46c56b	-0.0007582518
93	0xbcf6497c	-0.030064337
94	0x3d896d84	0.067103416
95	0xbd2bb33d	-0.04191898
96	0x3dacefc4	0.08444169
97	0x3cebff1c	0.028808169
98	0x3d445195	0.047929365
99	0xbdbe0d73	-0.09279909
100	0xbc9d407b	-0.019195786
101	0xbbe77f82	-0.0070647607
102	0xbd495ee3	-0.049162757
103	0x3e58fd37	0.21190344
104	0xbe255074	-0.16143972
105	0x3e8df466	0.27725524
106	0xbe5019b6	-0.20322308
107	0xbabeb6f0	-0.0014550369
108	0x3849ed78	4.8143294e-05
109	0xbdfa85ae	-0.122325286
110	0xbc1acd5a	-0.009448374
111	0xbbf5ceeb	-0.007501473
112	0x3e46d984	0.19418913
113	0x3d8e1e89	0.06939418
114	0x3c9bc6f6	0.01901577
115	0xbcd1f9c7	-0.025631798
116	0xbd8f7867	-0.07005387
117	0xbd44641e	-0.04794704
118	0x3e1bb339	0.15205087
119	0xbdca2357	-0.09870022
120	0xbb8c60a0	-0.0042839795
121	0x3bcb6464	0.006207036
122	0xbc91b52a	-0.017786581
123	0xbcdcb5fb	-0.026942244
124	0x3d9fb0b3	0.077973746
125	0x3dba4fbf	0.090972416
126	0xbcc25c7b	-0.023725739
127	0xbdbd3d7c	-0.09240243
128	0xbd5b6e54	-0.053572014
129	0x3c85b034	0.016319372
130	0xbd85d21c	-0.06534216
131	0xbc96ed35	-0.018423656
132	0xbb0515b7	-0.0020307133
133	0xbdb808c7	-0.08986049
134	0xbe82e44c	-0.25564802
135	0xbc108ae7	-0.008822179
136	0x3e3ead0f	0.18620704
137	0xbdc87bcf	-0.097892396
138	0x3e0eaa49	0.13932146
139	0x3dabcd92	0.08388819
140	0xbd68ae8f	-0.056807097
141	0xbdddffea	-0.10839827
142	0xbcbf4c37	-0.023351772
143	0xbc89fdb2	-0.016844604
144	0xbc8a3c1e	-0.01687437
145	0x3cbc844d	0.023012305
146	0x3d8e5c79	0.069512315
147	0xbe158e7d	-0.14605136
148	0xbcdb109a	-0.026741315
149	0xbcb17e99	-0.021666812
150	0xbda4c151	-0.08044685
151	0x3e69a6cb	0.22817533
152	0x3e5b42a8	0.21412146
153	0xbe48d342	-0.19611838
154	0x3e1dcd3e	0.15410325
155	0xbe714cd4	-0.23564464
156	0x3cfa258d	0.030535484
157	0xbbd9c898	-0.006646227
158	0xbc1dd25e	-0.009632675
159	0xbcb2e1f5	-0.02183626
160	0x3c4e1bd2	0.012579875
161	0xbd4ed168	-0.050492674
162	0xbd1745ff	-0.036931988
163	0xbd1f1cf3	-0.038845968
164	0x3e0b3a39	0.13596429
165	0xbe1a97d0	-0.15096974
166	0xbe6107ed	-0.2197568
167	0xbc3a159f	-0.011357694
168	0xbede4181	-0.4340935
169	0xbdecb0ab	-0.11557134
170	0xbcdad1cb	-0.026711365
171	0xbdb04896	-0.08607595
172	0x3d864c1d	0.06557486
173	0xbe5df654	-0.21675998
174	0xbd49546a	-0.04915277
175	0xbd98bfb1	-0.07458437
176	0xbc93a055	-0.018020788
177	0xbe1ada6d	-0.15122385
178	0xbd94538a	-0.07242496
179	0xbcf37530	-0.029718965
180	0x3c88ee23	0.016715115
181	0xbd33b7fe	-0.04387664
182	0x3e500fec	0.20318574
183	0xbdf6fad5	-0.12059561
184	0xbbe1339d	-0.006872608
185	0x3dbc9165	0.09207419
186	0x3e2d4d3e	0.16923997
187	0xbe006de0	-0.12541914
188	0x3de1817f	0.110110275
189	0x3e001e42	0.12511542
190	0xbd898da2	-0.067164674
191	0x3d183edc	0.037169322
192	0xbd71a08a	-0.058990993
193	0xbd240104	-0.04004003
194	0xbd550f6f	-0.05201667
195	0xbdc0b0be	-0.09408711
196	0x3d9da805	0.07698063
197	0xbe89edb5	-0.2693917
198	0x3d12eeea	0.035872377
199	0x3da9419a	0.08264466
200	0x3e1b38a3	0.15158324
201	0xbe16e2b4	-0.14734918
202	0xbe0dc057	-0.13842903
203	0x3dbb59bf	0.09147977
204	0x3df89a2d	0.12138782
205	0xbe7a3e0c	-0.24437732
206	0xbc3d7de1	-0.011565656
207	0x3d9e2e9e	0.07723735
208	0xbd34c1d3	-0.044130158
209	0x3b276e96	0.0025548092
210	0xbd57de40	-0.05270219
211	0x3e800d83	0.2501031
212	0xbd731d6a	-0.059354223
213	0x3bc33ef1	0.005958431
214	0xbd37c829	-0.044868622
215	0x3cdfb0c7	0.027305974
216	0xbe60c43b	-0.21949856
217	0x3e54473d	0.207303
218	0xbdd42a4e	-0.103596315
219	0x3e3f5109	0.18683256
220	0xbc378fcf	-0.01120372
221	0xbd12347a	-0.035694577
222	0xbc86e015	-0.016464273
223	0xbe8f831e	-0.28029722
224	0xbd6e0f54	-0.058120087
225	0x3dd4e20e	0.10394679
226	0xbd1bcae1	-0.038035277
227	0x3d8b8c17	0.068138294
228	0x3e20f87b	0.15719788
229	0x3da1b3af	0.078956
230	0xba55960f	-0.00081476656
231	0xbdd4d90b	-0.1039296
232	0x3ddd5d49	0.10808808
233	0xbec1d019	-0.37854078
234	0x3aed0dd0	0.0018085781
235	0x3c8965b4	0.016772129
236	0xbc15a9ff	-0.0091347685
237	0xbda9d778	-0.082930505
238	0xbd2ee159	-0.042695377
239	0x3d8188f3	0.06324949
240	0xbcc416f2	-0.023936722
241	0x3ccbc260	0.024872959
242	0x3c753ab9	0.014967614
243	0xbddc73a5	-0.10764245
244	0x3e0d2688	0.1378423
245	0xbe180b4f	-0.14848064
246	0xbd0ff8c6	-0.03514936
247	0x3d7483da	0.059696056
248	0x3e070105	0.13183983
249	0xbe1da850	-0.15396237
250	0x3db91314	0.09036842
251	0xbe04e881	-0.12979318
252	0x3d8fc3f2	0.070197955
253	0xbe732ed4	-0.23748332
254	0xbec1ccc5	-0.3785154
255	0x3e270f2b	0.1631438

model.0.bias f4 [256]
0	0x00000000	0.0
1	0xbccf8da6	-0.025336098
2	0xbda61fea	-0.08111556
3	0x00000000	0.0
4	0x00000000	0.0
5	0xbd8a1a55	-0.06743304
6	0x3d98225d	0.07428429
7	0x3be94e1e	0.007119908
8	0xbcb5637d	-0.022142166
9	0xbd3253db	-0.043537002
10	0xbd843e20	-0.06457162
11	0x00000000	0.0
12	0x3c1f2576	0.009713521
13	0xbd05e16b	-0.03268568
14	0xbcac014a	-0.020996708
15	0xbd4c4a8f	-0.049875792
16	0xbd268b8c	-0.040660426
17	0x00000000	0.0
18	0xbd2ad94a	-0.04171113
19	0xbc0833f7	-0.008313171
20	0xbccfe029	-0.025375443
21	0xbc563a71	-0.013075457
22	0x00000000	0.0
23	0x3d335c29	0.043789063
24	0xbd16cbf1	-0.036815587
25	0xbda6e3dc	-0.081489295
26	0x00000000	0.0
27	0x3d78724d	0.06065588
28	0x00000000	0.0
29	0xbcf82589	-0.030291336
30	0x00000000	0.0
31	0x3daf2712	0.08552374
32	0xbc1cdeac	-0.0095745735
33	0xbd119f45	-0.035552282
34	0x3d5196ec	0.05116932
35	0xbcc66cb7	-0.024221761
36	0xbcfa6675	-0.030566433
37	0x00000000	0.0
38	0xbd896e13	-0.06710448
39	0x00000000	0.0
40	0xbdec9f1e	-0.11553787
41	0xbde2d9c0	-0.11076689
42	0x00000000	0.0
43	0xbbacd531	-0.005274438
44	0xbc83ed40	-0.01610434
45	0x00000000	0.0
46	0x00000000	0.0
47	0xbd5968a2	-0.0530783
48	0xbdea33cf	-0.11435663
49	0xbc952133	-0.018204307
50	0x00000000	0.0
51	0xbc99ca8c	-0.01877334
52	0xbd07f770	-0.03319496
53	0x00000000	0.0
54	0x3d1f6840	0.03891778
55	0x3a84b87d	0.0010125783
56	0xbdc5b73c	-0.0965409
57	0xbc730716	-0.014833232
58	0x00000000	0.0
59	0xbd8d970e	-0.06913577
60	0xbc3924b5	-0.011300256
61	0x00000000	0.0
62	0xbd6a218e	-0.057160906
63	0x3c33e01b	0.010978724
64	0xbc660d03	-0.014041188
65	0x00000000	0.0
66	0x3cbc8ffc	0.023017876
67	0x3db59b9d	0.088675715
68	0xbd37d1be	-0.04487776
69	0xbdcb0437	-0.09912913
70	0x00000000	0.0
71	0x00000000	0.0
72	0xbc6521ee	-0.01398514
73	0x3d8103c9	0.0629955
74	0x00000000	0.0
75	0xbd9071c1	-0.07052947
76	0xbd68036e	-0.056643896
77	0x3bab52c0	0.0052283704
78	0xbce344a0	-0.027742684
79	0x00000000	0.0
80	0xbc1ff47f	-0.009762882
81	0x00000000	0.0
82	0xbcf86f79	-0.030326592
83	0x3d9d1c4a	0.07671411
84	0x3dcf58b0	0.10124338
85	0x00000000	0.0
86	0x3d09044a	0.033451356
87	0x00000000	0.0
88	0x00000000	0.0
89	0x00000000	0.0
90	0xbca409ea	-0.020024259
91	0xbddee30f	-0.10883152
92	0xbcc12ebb	-0.023581853
93	0xbd847619	-0.06467838
94	0xbda5ad8a	-0.080897406
95	0xbc4862d5	-0.012230595
96	0x00000000	0.0
97	0x00000000	0.0
98	0x3d2dfff0	0.04248041
99	0xbc1f3cbf	-0.009719073
100	0xbd10c1da	-0.03534112
101	0xbcd3271f	-0.02577549
102	0x3b31211b	0.002702779
103	0xbd6ea20e	-0.058260016
104	0xbc3aae98	-0.011394165
105	0xbd968508	-0.073495924
106	0xbbbe5880	-0.00580889
107	0xbc03dec2	-0.008048715
108	0x3c287dfe	0.010283945
109	0xbc68f945	-0.014219587
110	0x3afc58bf	0.0019252523
111	0x3dfc405b	0.12316962
112	0xbd9d179b	-0.07670518
113	0xbd4f69c5	-0.05063798
114	0xbe34c5dd	-0.17653604
115	0x00000000	0.0
116	0x3c66c32b	0.014084618
117	0xbc982c75	-0.018575886
118	0x3bf8554a	0.0075785266
119	0xbd904ab2	-0.07045497
120	0xbc4add41	-0.012381853
121	0x3d332f44	0.043746248
122	0x3cb4f25d	0.022088224
123	0xbd39004a	-0.04516629
124	0x399c9785	0.0002986753
125	0x3d2bc10c	0.04193215
126	0x3da9548e	0.08268081
127	0x3caad8ca	0.020855326
128	0x00000000	0.0
129	0xbe15d842	-0.14633277
130	0x00000000	0.0
131	0x00000000	0.0
132	0x3c57836e	0.013153894
133	0xbd6efe0c	-0.058347747
134	0xbd990269	-0.07471163
135	0x00000000	0.0
136	0xbcd2dc0f	-0.025739698
137	0x3a80d2d2	0.0009828454
138	0x3d0af518	0.033925146
139	0x3dbc6055	0.091980614
140	0x3cb79ad6	0.022412699
141	0x3d3143d8	0.04327759
142	0x00000000	0.0
143	0xbc622a23	-0.0138039915
144	0xbba55fdb	-0.0050468273
145	0xbd634fc4	-0.055495992
146	0xbd88adec	-0.06673798
147	0xbd2eb35c	-0.04265152
148	0x00000000	0.0
149	0xbc056f45	-0.0081442045
150	0xbe2a97ed	-0.16659518
151	0x00000000	0.0
152	0xbc00a297	-0.007851264
153	0x00000000	0.0
154	0x00000000	0.0
155	0xbe2778ac	-0.16354626
156	0xbd2d40b7	-0.042298045
157	0xbc911512	-0.017710242
158	0x3db724d6	0.08942573
159	0x3dbe2c3c	0.09285781
160	0xbbf19afa	-0.007373211
161	0xbce85f67	-0.028365804
162	0xbd73437f	-0.05939054
163	0xbc38d6ec	-0.01128171
164	0xbe0da6c5	-0.13833149
165	0xbe03f3bf	-0.1288595
166	0x00000000	0.0
167	0x3da2da43	0.07951786
168	0x3cc4c747	0.024020804
169	0xbd0ee299	-0.03488407
170	0xbcf84626	-0.030306887
171	0x00000000	0.0
172	0xbcbea657	-0.023272676
173	0x00000000	0.0
174	0x00000000	0.0
175	0xbdfedc72	-0.1244439
176	0xbd21ccab	-0.039501827
177	0xbe117c11	-0.14207484
178	0x00000000	0.0
179	0xbd7fafcc	-0.062423512
180	0xbd55f84b	-0.052238744
181	0x3c73eec7	0.014888472
182	0x00000000	0.0
183	0x00000000	0.0
184	0x3e1a9e38	0.15099418
185	0x3b69d029	0.0035677052
186	0xbc8c9f58	-0.017165825
187	0xbd2d6ced	-0.042340208
188	0x3d3ad668	0.04561463
189	0xbcc647d4	-0.024204172
190	0xbd788bfe	-0.060680382
191	0xbd892067	-0.066956334
192	0xbd068c78	-0.032848805
193	0x00000000	0.0
194	0x3d5bdbc0	0.053676367
195	0xbdad2de6	-0.0845602
196	0x00000000	0.0
197	0x00000000	0.0
198	0xbc6bd093	-0.01439299
199	0x3ce4bd93	0.027922427
200	0xbc097138	-0.00838881
201	0x3cbe9e36	0.0232688
202	0x00000000	0.0
203	0x3d29f39a	0.041492082
204	0x00000000	0.0
205	0xbc7f8e6a	-0.015597919
206	0xbbb75c21	-0.0055956994
207	0x00000000	0.0
208	0x00000000	0.0
209	0x00000000	0.0
210	0xbc932671	-0.017962666
211	0xbcf64454	-0.030061878
212	0xbc9232de	-0.017846521
213	0x00000000	0.0
214	0x00000000	0.0
215	0x00000000	0.0
216	0xbe1e889b	-0.15481798
217	0xbd54f9ac	-0.05199592
218	0xbd3f9afb	-0.04677866
219	0xbc98c635	-0.0186492
220	0xbc3017c3	-0.010747853
221	0x00000000	0.0
222	0x00000000	0.0
223	0xbbad81e2	-0.0052950243
224	0x00000000	0.0
225	0x3daf78b6	0.08567946
226	0xbdb3abf2	-0.0877303
227	0xbd934e5a	-0.07192679
228	0xbc33e21d	-0.010979203
229	0x00000000	0.0
230	0x3dacda5e	0.08440088
231	0x3d065ed7	0.03280529
232	0x3d98bdba	0.074580625
233	0x3e0e3ca5	0.13890322
234	0xbd013bbe	-0.031551115
235	0x3cb548d8	0.022129461
236	0x00000000	0.0
237	0xbc372658	-0.011178575
238	0x3d080c9e	0.033215158
239	0xbd9f0ac0	-0.07765722
240	0xbcd03896	-0.025417607
241	0xbd973bed	-0.07384477
242	0xbcf623e5	-0.030046413
243	0x00000000	0.0
244	0x3b6fade2	0.0036572148
245	0x00000000	0.0
246	0x3d1fe975	0.039041
247	0xbbdc1d93	-0.0067173927
248	0x3b0444ef	0.002018269
249	0x3a5f8802	0.00085270416
250	0xbd1a8b09	-0.03773025
251	0xbdbff85d	-0.093735434
252	0x3d9a455e	0.07532762
253	0xbc5d70ed	-0.013515693
254	0xbc2382e0	-0.0099799335
255	0xbd6c51b9	-0.057695124

model.2.weight f4 [256, 256]
0	0x3d764ebe	0.06013369
1	0xb9a06997	-0.0003059625
2	0x3c0d673c	0.00863057
3	0xbd9254ea	-0.07145102
4	0xbda1f20f	-0.07907497
5	0xbdafe1f2	-0.085880175
6	0xbe2d4670	-0.16921401
7	0x3be9e905	0.007138374
8	0x3e9cfa99	0.3065994
9	0xbd8a017a	-0.06738563
10	0xbdb95414	-0.0904924
11	0xbcc76266	-0.024338912
12	0x3de1abe5	0.110191144
13	0x3b1bac3c	0.0023753783
14	0x3bcc274a	0.0062302696
15	0xbd14100a	-0.03614811
16	0x3db4c946	0.08827452
17	0xbdfc9194	-0.12332454
18	0xbd66fa69	-0.056391153
19	0x3d32d5ca	0.043660916
20	0x3a5fafc7	0.0008532968
21	0x3d33f619	0.04393587
22	0x3a5b96c5	0.00083766534
23	0x3c4ae444	0.012383524
24	0x3da264b8	0.07929367
25	0xbd867f31	-0.065672286
26	0x3d1845fc	0.037176117
27	0x3dabb125	0.08383397
28	0x3cad613c	0.021164529
29	0xbc6068ca	-0.013696859
30	0xbbc084f6	-0.005875225
31	0xbe4c5ed6	-0.19958052
32	0xbf224bf6	-0.6339716
33	0x3bcb0e51	0.006196775
34	0x3c4b2fa2	0.012401493
35	0x3c240799	0.010011577
36	0x3c8700ac	0.016479813
37	0x3d4107b7	0.047126498
38	0xbcb207ec	-0.021732293
39	0xbd4c6e0e	-0.049909644
40	0x3de27852	0.110581055
41	0x3e13d150	0.14435315
42	0x3ca4585a	0.02006166
43	0x3d98ccad	0.07460914
44	0xbd072360	-0.03299272
45	0x3b413c43	0.0029485382
46	0x3d93d5a8	0.07218486
47	0x3b48a30e	0.0030614766
48	0x3d159a8f	0.03652435
49	0x3d50f6e2	0.051016696
50	0x3b4ec8fb	0.00315529
51	0xbc438a70	-0.011934862
52	0x3dfb4203	0.1226845
53	0x3ad320cb	0.0016107796
54	0x3dad5ad5	0.084645905
55	0x3dc57b5f	0.09642672
56	0x3b65a351	0.003503997
57	0x3b520f4d	0.0032052577
58	0xbca3a852	-0.019977722
59	0xbdd8b2bd	-0.105809666
60	0x3ce46b05	0.027883062
61	0x3d83b6dd	0.06431363
62	0xbcfc4bba	-0.030797828
63	0x3d45e5e9	0.048314963
64	0x3dfa0efe	0.12209891
65	0x3c44985c	0.011999216
66	0x3d15d073	0.036575746
67	0xbddb69ec	-0.10713562
68	0xbdd5877b	-0.104262315
69	0xbcadfa9a	-0.02123766
70	0xbb8275ee	-0.0039813435
71	0xbd375d25	-0.044766564
72	0xbd5f2bc9	-0.054485116
73	0x3d825555	0.06363932
74	0x3cd1d59b	0.02561455
75	0x3e1d8b2b	0.1538512
76	0xbd91eb08	-0.07124907
77	0x3db7d3ac	0.0897592
78	0xbd9f110e	-0.07766925
79	0x3d8396c4	0.06425241
80	0x3d2c500c	0.042068526
81	0x3d8b6f63	0.06808355
82	0x3dbdb54e	0.09263097
83	0xbde76147	-0.11297851
84	0xbe26a938	-0.1627549
85	0x3d944063	0.07238843
86	0x3e045d15	0.12926133
87	0xbd29348d	-0.041309882
88	0x3d24e83e	0.040260546
89	0x3c7a4302	0.015274765
90	0x3e015f84	0.12634093
91	0x3d2a630d	0.04159837
92	0x3ce09d9c	0.027418904
93	0xbdc27e28	-0.09496719
94	0x3d03859c	0.03210984
95	0xbd8912f0	-0.06693065
96	0xbca40058	-0.020019695
97	0x3da50a2d	0.080585815
98	0xbcaae22e	-0.020859804
99	0x3d271c14	0.04079826
100	0x3bee0822	0.007264153
101	0xbdec889b	-0.11549493
102	0xbd80e5bc	-0.06293818
103	0xbd313499	-0.04326305
104	0x3cf0e10f	0.029404191
105	0xbcb26219	-0.021775292
106	0xbc44183b	-0.011968668
107	0x3b214bbc	0.0024611792
108	0x3e202b19	0.1564144
109	0x3d9132bc	0.07089755
110	0xbc80c752	-0.015720043
111	0x3e2a30fb	0.16620247
112	0xbd5c46e9	-0.053778563
113	0x3db6b67d	0.089215256
114	0x3e99aca2	0.3001452
115	0x3cbb9994	0.02290038
116	0xbe62be80	-0.22142982
117	0x3d870b0f	0.06593906
118	0x3d9c9e7c	0.07647416
119	0x3e2ab25d	0.16669603
120	0xbd14c542	-0.036320932
121	0x3dbd79f8	0.09251779
122	0x3c60e980	0.013727546
123	0xbcc3228f	-0.02382019
124	0x3cb3d54f	0.0219523
125	0xbc267312	-0.010159271
126	0x3e0615e7	0.13094293
127	0x3d9e9916	0.077440426
128	0xbd3c99dd	-0.046045173
129	0x3c92692e	0.01787242
130	0x3cb0097a	0.021488894
131	0xbd5f6b82	-0.054545887
132	0xbe3be146	-0.18347654
133	0xbddd699e	-0.108111605
134	0x3da887a4	0.082289964
135	0x3c78eafd	0.015192744
136	0xbbd79fc8	-0.0065803267
137	0xbc64ed9d	-0.013972667
138	0x3dcbe0f3	0.09955015
139	0xbe5acc3b	-0.2136697
140	0x3e23a4d3	0.15980844
141	0x3da0f74f	0.0785967
142	0xbc1f1f2b	-0.009712021
143	0xbbbcda02	-0.0057632932
144	0xbd6c0076	-0.057617627
145	0xbc9a11c3	-0.018807298
146	0x3d49d0a6	0.04927125
147	0x3e21624d	0.15760155
148	0xbc2e1a10	-0.010626331
149	0x3ce35fb5	0.027755598
150	0xbc9ed817	-0.019390149
151	0x3d108459	0.035282467
152	0xbcdfed99	-0.027334975
153	0x3d1a8ef2	0.03773398
154	0xbdc8bae9	-0.09801275
155	0x3ac2d3f9	0.0014864198
156	0x3d011279	0.031511758
157	0xbd45ad64	-0.04826106
158	0xbe6f38b3	-0.23361473
159	0xbe20b3d4	-0.15693599
160	0xbaed962e	-0.0018126422
161	0xbe0be558	-0.13661706
162	0x3e7ec5b7	0.2488011
163	0xbd8a57c7	-0.067550234
164	0xbde65803	-0.11247256
165	0xbd2d70b0	-0.042343795
166	0xbcccc535	-0.02499638
167	0xbd877b61	-0.066153295
168	0x3d83cdbb	0.06435724
169	0xbd83f097	-0.06442373
170	0xbd2f236e	-0.042758398
171	0xbd3fcc40	-0.046825647
172	0xbc80c194	-0.015717305
173	0x3ca135ef	0.019679038
174	0xbd360d79	-0.044446442
175	0x3c359a74	0.011084188
176	0x3c82573c	0.015910737
177	0x3bab7790	0.005232759
178	0x3ce413a9	0.027841406
179	0xbd9a9a29	-0.07548935
180	0xbc8f43e6	-0.017488431
181	0x3de77649	0.11301858
182	0x3d268aeb	0.040659826
183	0x3d3d66ed	0.046240736
184	0x3ead26da	0.33818704
185	0x3dbb6881	0.09150792
186	0x3c7b6cf7	0.015345803
187	0x3ca4d0ba	0.02011906
188	0x3d0ccb61	0.034373645
189	0xbd08c63a	-0.03339217
190	0xbd4fe10a	-0.050751723
191	0x3d6a457c	0.05719517
192	0x3d9ae8bc	0.07563922
193	0xbe1b68de	-0.15176722
194	0xbe53754c	-0.20650214
195	0x3be4a450	0.0069775954
196	0xbd4d81ff	-0.050172802
197	0x3d865696	0.06559484
198	0xbd55b3e6	-0.052173518
199	0xbca6adb9	-0.02034651
200	0xbcd947bd	-0.026523465
201	0x3cce4683	0.025180107
202	0x3cbb0ada	0.022832323
203	0xbcb4548d	-0.022012973
204	0xbd4055ec	-0.04695694
205	0x3d77f2e8	0.060534388
206	0x3d364b7a	0.044505574
207	0xbd96b783	-0.07359221
208	0xbce6e8e5	-0.028187225
209	0xbcdece92	-0.02719811
210	0x3ca926c1	0.020648362
211	0xbdf62390	-0.12018502
212	0x3c762029	0.015022316
213	0x3d41fac2	0.047358282
214	0xbceafd73	-0.028685307
215	0xbd271a22	-0.040796407
216	0x3f4ad9d5	0.79238635
217	0xbd8e9941	-0.069628246
218	0xbd0bdb33	-0.03414459
219	0xbd63a708	-0.055579215
220	0x3db1024b	0.086430155
221	0xbc27f9b9	-0.01025241
222	0xbdc0b9f2	-0.09410466
223	0xbd916837	-0.070999555
224	0xbda83608	-0.08213431
225	0xbe79b69a	-0.24386063
226	0xbe2f8056	-0.171388
227	0xbc099e7e	-0.008399604
228	0xbca82e91	-0.020530017
229	0x3c89f33f	0.016839622
230	0xbe0a4caf	-0.13505815
231	0xbd55e0c3	-0.052216303
232	0x3cffb712	0.031215224
233	0x3d9701a3	0.07373359
234	0x3d7150cd	0.05891495
235	0xbd920add	-0.07130978
236	0xbb44d699	-0.0030035137
237	0x3d2cb6ba	0.04216645
238	0xbd9c50f9	-0.07632632
239	0xbc210103	-0.009826901
240	0xbc5aaeda	-0.013347352
241	0xbca21780	-0.019786596
242	0xbc70273b	-0.014657791
243	0x3bd770fc	0.006574748
244	0xbe7ec266	-0.24878845
245	0xbc59667b	-0.013269062
246	0x3c6f51e4	0.014606927
247	0xbd754fa8	-0.05989042
248	0x3c2bad95	0.010478397
249	0x3e282119	0.16418876
250	0xbc84fca0	-0.016233742
251	0x3da88d8d	0.08230124
252	0xbb3a78f8	-0.002845345
253	0x3d8b09d3	0.06788983
254	0x3dbcc0d0	0.092164636
255	0xbc9fd4af	-0.019510595

model.2.bias f4 [256]
0	0xbcc94841	-0.024570586
1	0xbd08d30d	-0.0334044
2	0x3d5939c1	0.053033594
3	0x3d33af35	0.043868262
4	0x3d7c2570	0.06155914
5	0x3d98ca83	0.07460501
6	0x3d7d3510	0.061818182
7	0xbd12f4bc	-0.03587793
8	0xbd3523fc	-0.04422377
9	0xba9c7709	-0.0011937331
10	0xbd13fd5c	-0.036130294
11	0xbd346c36	-0.04404851
12	0xbcf26272	-0.029587958
13	0xba09d078	-0.00052571995
14	0xbcc24f6c	-0.023719512
15	0xbbbe8a37	-0.0058148163
16	0xbc2e55a8	-0.010640539
17	0xbc8d9589	-0.017283218
18	0xbd37718e	-0.04478603
19	0xbd209094	-0.03920038
20	0xbd653015	-0.055954058
21	0xbd65a871	-0.05606884
22	0xbba510d7	-0.005037408
23	0xbbd9bd49	-0.006644879
24	0xbd65709c	-0.056015596
25	0xbc3e0bc1	-0.011599482
26	0x3c3d536c	0.011555534
27	0x3d3406c7	0.043951776
28	0xbd4e8309	-0.050417934
29	0xbdfbc26e	-0.12292944
30	0xbd7d9eba	-0.06191895
31	0x3d052661	0.032507304
32	0xbd04b62c	-0.032400295
33	0xbd177e9c	-0.03698598
34	0x3b807cfa	0.0039211484
35	0xbd41cfb4	-0.04731722
36	0xbd1c1841	-0.038109068
37	0xbc86788f	-0.016414909
38	0xbcf50bbe	-0.029912826
39	0x3d60683f	0.054786917
40	0x3d402e0b	0.04691891
41	0xbba57d3b	-0.005050329
42	0x3c5008ef	0.012697442
43	0x3dad7381	0.08469296
44	0x3c90e575	0.017687539
45	0xbc41d31a	-0.011830116
46	0xbc40d1fd	-0.011768815
47	0x3b5381a3	0.0032273314
48	0x3d2b4698	0.04181537
49	0x3d21098a	0.039315738
50	0xbd94abb2	-0.07259311
51	0x3da03749	0.07823045
52	0xbdc4a3b3	-0.09601536
53	0xbd02787d	-0.031853188
54	0xbd715c9c	-0.05892621
55	0xbd282f73	-0.041060876
56	0xbd126c6c	-0.03574793
57	0xbc181b99	-0.009283924
58	0x3e0f7075	0.14007743
59	0xbc333a4a	-0.01093919
60	0xbcd8ab29	-0.026448803
61	0x3c6522b7	0.013985327
62	0x3d97bce5	0.07409076
63	0x3b9d1dc0	0.0047948062
64	0x3c3bd36b	0.01146398
65	0x3dea187d	0.11430452
66	0x3dcc45af	0.099742286
67	0xbd82ff45	-0.06396345
68	0x3d1332a0	0.03593695
69	0xbd330992	-0.0437103
70	0xbd65f471	-0.05614132
71	0xbc19728f	-0.009365692
72	0x3dadeb01	0.08492089
73	0xbd8152d3	-0.063146256
74	0x3d0c92cd	0.034319688
75	0xbd069ddf	-0.0328654
76	0xbd701850	-0.058616936
77	0xbd0fde31	-0.035124008
78	0xbba57d09	-0.0050503057
79	0x3d9ebb8c	0.077506155
80	0x3c96d834	0.01841364
81	0xbd63edfb	-0.055646878
82	0xbd1da887	-0.0384908
83	0xbd045a54	-0.032312706
84	0xbcb4ba92	-0.02206162
85	0xbc15b180	-0.009136558
86	0xbd0da549	-0.034581456
87	0xbc231ef6	-0.009956112
88	0xbad41aa9	-0.0016182262
89	0xbc1022d6	-0.008797368
90	0x3c37f9fe	0.011229036
91	0xbc1bbde7	-0.0095057255
92	0x3d01a8dc	0.031655177
93	0xbafecf4e	-0.0019440444
94	0xbcdf4b37	-0.027257545
95	0x3b81db18	0.0039628856
96	0xbc955ce5	-0.018232772
97	0xbdc6266e	-0.09675299
98	0xbcf16b93	-0.02947024
99	0xbd62834c	-0.055300996
100	0xbdbb0794	-0.09132305
101	0xbbf958fd	-0.007609485
102	0x3d19427c	0.03741692
103	0xbd127453	-0.035755467
104	0xbcbc30b5	-0.022972444
105	0x3c0e9741	0.008703054
106	0x3cf17717	0.029475732
107	0x3d41bc27	0.047298577
108	0xbca4e397	-0.020128055
109	0xbdb02df0	-0.08602512
110	0x3dc329cb	0.09529456
111	0xbc9184dd	-0.01776355
112	0x3d9a9075	0.07547084
113	0x3d64ecdb	0.055889945
114	0x3c852a84	0.016255625
115	0x00000000	0.0
116	0xbd6c4f9a	-0.0576931
117	0xbc70e663	-0.014703366
118	0xbd8e2804	-0.06941226
119	0xbd525834	-0.05135365
120	0xbd7bc7d4	-0.061469868
121	0xbbd5327a	-0.0065062614
122	0x3cc36a73	0.02385447
123	0xbc0555a7	-0.008138097
124	0xbcddcc9c	-0.027075104
125	0xbd08044c	-0.033207223
126	0x3d595ea8	0.053068787
127	0xbe064ba4	-0.13114792
128	0xbc88ff05	-0.016723165
129	0xbd302f62	-0.043013938
130	0x3c15f370	0.009152278
131	0xbd8d20e3	-0.06891038
132	0x3c85075a	0.016238857
133	0xbd2370d8	-0.039902538
134	0xbc32bd40	-0.0109093785
135	0xbbfd0730	-0.007721804
136	0xbe26a52c	-0.16273946
137	0x3d349635	0.04408856
138	0xbd999f15	-0.075010456
139	0xbceef5b1	-0.02916989
140	0x3c211ff7	0.009834281
141	0xbd46c716	-0.048529707
142	0xbc3f05b0	-0.011659071
143	0xbb98350f	-0.004644997
144	0xbd5c6528	-0.053807408
145	0xbd080180	-0.033204556
146	0x3d8db6c6	0.06919627
147	0x3d35f9fe	0.044427864
148	0x3d06397a	0.032769658
149	0xbd113c00	-0.03545761
150	0x3b989015	0.004655848
151	0x00000000	0.0
152	0xbc777961	-0.015104623
153	0xbd09fa31	-0.033685867
154	0x3d8f7fe2	0.070068136
155	0xbcfa585d	-0.030559713
156	0x3d81a88f	0.06330978
157	0xbbaee4ab	-0.005337318
158	0xbcbcbf49	-0.02304043
159	0xbd05774b	-0.03258447
160	0xbc4cfdbf	-0.01251167
161	0x3cd88957	0.026432676
162	0xbcd65097	-0.026161475
163	0xbcdd7667	-0.027033998
164	0xbd336d07	-0.04380515
165	0xbca56dae	-0.0201939
166	0xbcbc4eed	-0.022986853
167	0x3c32e5ac	0.010919016
168	0x3c021f77	0.007942072
169	0x3d134f7d	0.035964478
170	0xbd1c7dd0	-0.03820592
171	0x3a01460d	0.0004931398
172	0x3a49fa44	0.0007704834
173	0xbcffefec	-0.031242333
174	0x9c27b8e6	-5.549464e-22
175	0x3d7d63b8	0.061862677
176	0xbd56c4f6	-0.05243393
177	0xbd695734	-0.05696793
178	0x3c09e52b	0.008416454
179	0xbd538a68	-0.051645666
180	0xbc1a1d3f	-0.009406387
181	0xbcd1d7aa	-0.025615532
182	0xbbed7812	-0.0072469795
183	0xbd3e77bd	-0.04650091
184	0xbcd76a9a	-0.026295949
185	0x3c51856a	0.012788156
186	0xbcac3aae	-0.021024074
187	0x3d507870	0.05089611
188	0xbc82ba3f	-0.01595795
189	0x3d813633	0.06309166
190	0xbd3ec2fc	-0.04657267
191	0x3df299eb	0.11845764
192	0xbc5276c6	-0.012845701
193	0xbcd454e4	-0.025919385
194	0x3ca9c11d	0.020721966
195	0xbd653904	-0.055962577
196	0x3d7591ab	0.059953373
197	0x3d4c455e	0.04987084
198	0x3d9c2d9c	0.07625887
199	0xbcaf0dcd	-0.021368885
200	0x3bb0d0f9	0.005396005
201	0xbd0a6d33	-0.033795547
202	0xbcecc6e9	-0.028903442
203	0x3d87679d	0.066115595
204	0x3c8f49af	0.01749119
205	0x3d0d37d7	0.03447708
206	0xbe00df06	-0.12585077
207	0x3c501b99	0.012701892
208	0xbd800a05	-0.06251911
209	0xbd77b0db	-0.060471397
210	0xbcb610a6	-0.022224735
211	0xbbbed34b	-0.005823528
212	0x3d98dc84	0.07463935
213	0xbddfa2ea	-0.10919745
214	0xbce0506d	-0.0273821
215	0xbc3e5c03	-0.011618617
216	0xbca2741a	-0.019830752
217	0xbcb78208	-0.02240087
218	0xbcc22d90	-0.023703367
219	0x3d1ca05e	0.038238876
220	0xbe154a3b	-0.14579098
221	0xbcd4b58e	-0.025965478
222	0xbda0dc00	-0.07854462
223	0xbcae98e0	-0.02131313
224	0xbcbd110c	-0.023079418
225	0x3bcbd68d	0.006220645
226	0xbc2c4d83	-0.010516527
227	0x00000000	0.0
228	0x3d97cde7	0.0741232
229	0x3d9ec2fa	0.077520326
230	0xbdc968e1	-0.09834457
231	0x3d28b051	0.041183773
232	0xbc7a2a27	-0.015268839
233	0x3d1da80c	0.03849034
234	0xbcee02e1	-0.029054107
235	0xbd8645d2	-0.06556286
236	0xbd3f5b10	-0.046717703
237	0x3d183fda	0.03717027
238	0x3d36c776	0.044623815
239	0x3da2321e	0.07919715
240	0x3c2a456b	0.010392527
241	0xbd5cbdbb	-0.05389188
242	0x3d3f7b21	0.046748284
243	0xbd68f6dc	-0.05687605
244	0x3d04b056	0.03239473
245	0xbcd5bdc0	-0.026091456
246	0xbdc4594d	-0.09587345
247	0xbe0d2ea1	-0.13787319
248	0x3bf2c984	0.0074092764
249	0x3d2ee011	0.042694155
250	0x3d72ad93	0.059247565
251	0xbcc0707e	-0.02349114
252	0x3d1ca2dc	0.038241252
253	0xbd315163	-0.043290507
254	0xbd01e6e9	-0.031714354
255	0x3dd8247b	0.10553833

model.4.weight f4 [256, 256]
0	0x3d9fa047	0.07794242
1	0x3cf3a3ed	0.029741252
2	0x3bec751f	0.0072161104
3	0x3e188431	0.14894177
4	0x3dde5297	0.108555965
5	0x3e364f6c	0.17803735
6	0x3d80ff87	0.06298738
7	0xbd496ea1	-0.04917777
8	0x3db95780	0.090498924
9	0x3e2f7a35	0.17136462
10	0xbda42c3c	-0.080162495
11	0xbcdba742	-0.026813153
12	0xbdcecf96	-0.100981876
13	0x3d0c7a01	0.03429604
14	0xbd92d035	-0.071686186
15	0xbe35b8fb	-0.17746346
16	0xba5db268	-0.00084570656
17	0x3e0bfc4b	0.13670461
18	0x3d6e31d6	0.058152996
19	0x3df85cf6	0.12127106
20	0x3de189c2	0.11012603
21	0x3c94ce68	0.018164828
22	0xbd1484f9	-0.036259625
23	0x3d4beb97	0.049785223
24	0x3dd9f8fa	0.10643192
25	0x3de03e46	0.10949378
26	0xbf765988	-0.96230364
27	0x3d378244	0.044801965
28	0x3d156a84	0.036478534
29	0x3e6590fc	0.22418588
30	0x3df57e98	0.119870365
31	0xbea711a7	-0.32630655
32	0xbbd5e051	-0.0065269847
33	0x3d0a8274	0.033815816
34	0x3df70468	0.12061387
35	0x3d4e73b3	0.050403308
36	0x3c08d68c	0.008351933
37	0x3db49694	0.08817783
38	0xbd15792c	-0.03649251
39	0x3d93b54a	0.072123125
40	0x3d82cac6	0.06386332
41	0xbd2a2648	-0.041540414
42	0x3d8be291	0.068303235
43	0xbdb8cffa	-0.090240434
44	0xbce0a0fb	-0.027420511
45	0xbd96b381	-0.073584564
46	0x3d07002a	0.03295914
47	0x3da3c00f	0.07995617
48	0xbdd44122	-0.103639856
49	0xbc0f304b	-0.008739541
50	0x3dd4fbcd	0.1039959
51	0xbdfb6cae	-0.122765884
52	0xbe927ed5	-0.2861239
53	0xbdb9e685	-0.09077171
54	0x3df19b7a	0.11797233
55	0x3d274382	0.040835865
56	0x3deb0c18	0.11476916
57	0xbdcd3740	-0.10020304
58	0x3ef16fcf	0.47155616
59	0x3d67d0f1	0.056595746
60	0x3d117eb3	0.03552122
61	0x3d5d48c7	0.054024484
62	0x3d84d410	0.0648576
63	0x3e17ad31	0.14812161
64	0x3df379d2	0.1188847
65	0x3dd00e91	0.10159028
66	0x3eb6d362	0.35708147
67	0x3e36333e	0.17792985
68	0xbe1c9d2c	-0.15294331
69	0x3c9c9eed	0.01911875
70	0x3e0e11ab	0.13873927
71	0x3d4a88fc	0.049447045
72	0x3e4be721	0.19912387
73	0x3d2f3ea7	0.04278436
74	0x3c1d33ff	0.009594916
75	0x3cf9cc68	0.030492976
76	0x3e06a479	0.13148679
77	0xbd4c18f0	-0.04982847
78	0xbd8e3342	-0.069433704
79	0xbe51ba74	-0.20481282
80	0x3df4423e	0.11926697
81	0x3da1fd9f	0.079097025
82	0x3e16794c	0.14694709
83	0xbda73b31	-0.08165587
84	0xbc8814e2	-0.01661152
85	0x3e18302c	0.14862126
86	0xbdb9d22e	-0.09073292
87	0xbf501470	-0.81281185
88	0xbdd95fc5	-0.1061397
89	0x3dcd5525	0.10026006
90	0x3e00eb17	0.1258968
91	0xbe0e1b50	-0.13877606
92	0xbc1a124a	-0.0094037745
93	0xbf5d1ef7	-0.86375374
94	0xbd8b9aed	-0.06816659
95	0xbf820b51	-1.0159703
96	0xbd495381	-0.0491519
97	0xbf3992de	-0.72489727
98	0xbcc011a3	-0.02344591
99	0x3da54bed	0.08071122
100	0xbf1252db	-0.5715768
101	0xbd0edc13	-0.034877848
102	0x3d92484d	0.071426965
103	0x3d7f534a	0.06233529
104	0x3d7aaec6	0.061201833
105	0x3c17c480	0.009263158
106	0xbe2fdfe2	-0.17175248
107	0x3d8499fe	0.06474684
108	0x3de25775	0.11051837
109	0x3e1f24ba	0.15541354
110	0x3cbd85e6	0.023135137
111	0xbdcb5c36	-0.09929697
112	0x3e042463	0.12904505
113	0x3dd54e06	0.104152724
114	0x3dea7962	0.11448933
115	0x3d53fe99	0.051756475
116	0x3da9582b	0.0826877
117	0x3d58965b	0.052877765
118	0x3dd843c5	0.10559801
119	0x3c5a1a79	0.013311976
120	0xbe19d85b	-0.1502394
121	0x3d0cfafe	0.034419052
122	0xbecae259	-0.39625815
123	0xbc9d0c5a	-0.019170929
124	0x3d8cd3fe	0.06876372
125	0x3d85f70a	0.065412596
126	0x3dc8963d	0.09794281
127	0xbfa07e31	-1.253851
128	0xbe15f794	-0.14645225
129	0x3da767ba	0.08174081
130	0x3cfad4cd	0.03061905
131	0xc02a3bc3	-2.6598976
132	0x3d882d68	0.066492856
133	0x3e26526b	0.16242377
134	0x3e0b114d	0.13580818
135	0x3b9622fc	0.004581807
136	0xbd7b2c77	-0.0613217
137	0x3da78b38	0.08180851
138	0x3dde7793	0.10862651
139	0xbc5de919	-0.013544344
140	0xbd31a6d9	-0.04337201
141	0xbe68f6f0	-0.22750449
142	0xbd4877be	-0.04894232
143	0xbc3ced7a	-0.011531228
144	0x3e96baeb	0.29439482
145	0xbd62ae9c	-0.0553423
146	0x3e996ee6	0.2996742
147	0xbce1adc1	-0.027548673
148	0x3d6f6a9e	0.058451287
149	0xbbd1fa41	-0.0064080064
150	0x3d9cfd46	0.076654956
151	0xbcd4cb3a	-0.025975812
152	0xbf714bc2	-0.9425622
153	0xbc86ec7d	-0.016470188
154	0xbda36680	-0.07978535
155	0xbd523aa6	-0.051325463
156	0xbe21efa8	-0.15814078
157	0xbd8652e9	-0.065587826
158	0xbf20c55f	-0.62801164
159	0xbd8ffce4	-0.07030657
160	0xbdc97d0d	-0.09838305
161	0xbc4e4ebf	-0.012592017
162	0xbdceb280	-0.1009264
163	0xbd240e0a	-0.04005245
164	0x3e203978	0.15646923
165	0x3d6f0bac	0.05836074
166	0x3d5420c1	0.05178905
167	0x3d1d722d	0.038438965
168	0x3e1e8dc8	0.15483773
169	0x3e0d54e2	0.13801911
170	0x3ce4d7c1	0.02793491
171	0xbe876754	-0.2644602
172	0x3ddd3cde	0.10802625
173	0xbd4e6bfc	-0.05039595
174	0x3daf5292	0.08560671
175	0xbe35c700	-0.17751694
176	0x3c814cb2	0.015783641
177	0x3dc04738	0.09388584
178	0x3df5ea26	0.12007551
179	0x3db81767	0.08988839
180	0x3d951acb	0.07280501
181	0x3db80752	0.08985771
182	0x3c307dc6	0.010772174
183	0x3e0cae36	0.13738331
184	0xbcb60909	-0.022221105
185	0x3d86094b	0.06544741
186	0xbce33841	-0.027736785
187	0x3e6ec1fc	0.23316187
188	0x3d2de1e7	0.042451765
189	0x3f1372fe	0.5759734
190	0x3e27c694	0.16384345
191	0x3e741ca7	0.23839055
192	0x3d1bf86b	0.038078707
193	0x3be8734f	0.007093824
194	0xbb37c96e	-0.0028043645
195	0x3f410f13	0.75413626
196	0x3cbb3f33	0.022857284
197	0x3de50700	0.11182976
198	0x3dee9b53	0.116507195
199	0xbb545dc1	-0.0032404514
200	0x3da49c59	0.080376334
201	0xbd56fa90	-0.05248505
202	0x3cc1142f	0.023569195
203	0xbcd95632	-0.026530359
204	0x3e0ed32f	0.13947748
205	0x3cecd2e4	0.028909154
206	0xbf18886e	-0.59583175
207	0x3dc0298c	0.093829244
208	0x3e2537ac	0.16134518
209	0x3e94238a	0.28933364
210	0xbd99e848	-0.07515007
211	0xbcdb4055	-0.026764074
212	0x3e4742a8	0.19459021
213	0xbef736c7	-0.4828398
214	0x3d508114	0.05090435
215	0x3d5f7b68	0.05456105
216	0xbd7106a6	-0.05884423
217	0xbcfb97bf	-0.030712007
218	0xbd4a42c9	-0.049380098
219	0x3d160783	0.036628257
220	0xbeb1f52e	-0.3475737
221	0x3d9e72ee	0.07736765
222	0xbf925d5e	-1.1434743
223	0xbd45875b	-0.04822479
224	0xbe03b88e	-0.12863371
225	0x3db3f9e6	0.08787899
226	0xbf8066da	-1.0031388
227	0x3d961816	0.07328813
228	0xbe71dd71	-0.2361963
229	0x3dd30cb1	0.10305155
230	0xbf71e57e	-0.944908
231	0xbe84acd7	-0.25913116
232	0x3d75babd	0.05999254
233	0x3ee05742	0.43816572
234	0xbda8b69d	-0.08237956
235	0x3db7c333	0.08972778
236	0xbdbfd3f1	-0.093665965
237	0x3dc010c7	0.093782
238	0xbd81ad6a	-0.06331904
239	0x3cfe2a9f	0.031026183
240	0x3caab647	0.02083887
241	0x3ed06337	0.40700695
242	0x3e259bc1	0.16172697
243	0xbbf69216	-0.007524739
244	0x3ab65c78	0.0013913056
245	0xbdc96750	-0.098341584
246	0xbe08eb56	-0.13371024
247	0x3dc81aa5	0.09770707
248	0x3dcd94bd	0.10038135
249	0xbc034b2b	-0.008013527
250	0x3deb11a2	0.114779726
251	0x3d85c0b5	0.065308966
252	0xbd9be855	-0.07612673
253	0xbd7b097a	-0.061288334
254	0xbe15a7ff	-0.14614867
255	0x3eae21bf	0.3401012

model.4.bias f4 [256]
0	0x3dbac389	0.091193266
1	0x3d4ec476	0.05048033
2	0xbd02ac30	-0.031902492
3	0xbd0eb26d	-0.03483813
4	0x3d2da1e5	0.042390723
5	0x3db0b162	0.08627583
6	0x3dac3338	0.08408207
7	0xbce27f97	-0.02764873
8	0xbd49db97	-0.049281683
9	0x3d415daa	0.047208466
10	0xbcc7111f	-0.024300156
11	0xbcdc600b	-0.026901266
12	0x3d8d230c	0.0689145
13	0xbd147744	-0.036246553
14	0xbcc83365	-0.02443857
15	0xbc88c9f7	-0.016697867
16	0x3c4f047a	0.012635345
17	0xbd6e06de	-0.058112018
18	0xbc19df4d	-0.009391618
19	0xbd1eaa98	-0.03873691
20	0xbd13a771	-0.036048356
21	0xbd52a66a	-0.051428236
22	0xbcfc8ae6	-0.03082795
23	0x3adbdac6	0.0016773574
24	0xbcf511b9	-0.029915677
25	0x3d4b7a46	0.049677156
26	0x3d2ff550	0.042958558
27	0x3d23a5f9	0.039953206
28	0x3dbe7101	0.092988975
29	0xbd6ac2d4	-0.05731471
30	0x3b8dce55	0.004327575
31	0xbd443829	-0.04790512
32	0xbd0facaf	-0.035076793
33	0xbd02f7f9	-0.031974766
34	0xbc0254fa	-0.00795483
35	0xbc675af1	-0.014120803
36	0xbd9b04d2	-0.07569279
37	0x3d293d87	0.041318443
38	0xbc299c12	-0.0103521515
39	0x3db3b9a6	0.08775644
40	0x3da369db	0.07979175
41	0xbd38a335	-0.04507752
42	0x3b8b4dae	0.0042512035
43	0x3da45ade	0.08025144
44	0xbd680c2c	-0.056652233
45	0x3dc11764	0.094282895
46	0xbbc17347	-0.0059036347
47	0xbca3787c	-0.019954912
48	0xbd3ce044	-0.046112314
49	0xb8029c30	-3.1139876e-05
50	0xbcfbb3fa	-0.030725468
51	0xbcff26e6	-0.031146478
52	0x3d38dc19	0.045131776
53	0xbbd91fb4	-0.0066260938
54	0xbc81f07b	-0.01586174
55	0xbc146497	-0.009057186
56	0xbcf1c5a7	-0.029513193
57	0xbcd75ac9	-0.026288407
58	0xba3bf85b	-0.0007170492
59	0x3bf70806	0.0075387983
60	0xbd0fa9c5	-0.035074014
61	0xbd110fef	-0.035415586
62	0xbd297d3c	-0.0413792
63	0xbb94eef6	-0.004545088
64	0xbc06bd52	-0.008223848
65	0xbcf3b4a5	-0.029749224
66	0x3c0bbcb0	0.008528873
67	0x3d34dd58	0.044156402
68	0xbd01b6ea	-0.03166858
69	0x3ca14fbc	0.01969134
70	0xbd41927d	-0.047258843
71	0xbd635c7f	-0.055508133
72	0xbd23fa3a	-0.040033557
73	0xbccc2ba3	-0.024923151
74	0xbd5c543e	-0.053791277
75	0x3d463959	0.048394535
76	0x3c2ece0a	0.010669241
77	0xbc18129d	-0.0092817815
78	0x3d386b2f	0.045024093
79	0xbd1a295f	-0.03763711
80	0x3db246e4	0.087049276
81	0xbd37b12e	-0.044846706
82	0xbcc6c0e5	-0.024261901
83	0xbcdd6b96	-0.02702884
84	0x3dc6214e	0.09674321
85	0xbd2d963b	-0.0423796
86	0xbd680e75	-0.056654412
87	0xbd162039	-0.036651824
88	0xbd16c0fa	-0.03680513
89	0xbcf69d73	-0.030104375
90	0xbd16673d	-0.03671955
91	0x3d33027e	0.04370355
92	0xbc94fac6	-0.018185984
93	0x3d25cb9c	0.04047738
94	0xbc42784d	-0.011869502
95	0xbcf023b3	-0.029313898
96	0x3d8f8850	0.070084214
97	0x3d61261d	0.05496799
98	0x3c972638	0.018450841
99	0x3d19fe6a	0.037596144
100	0xbd175675	-0.036947686
101	0xbd0045e0	-0.031316638
102	0xbc564bda	-0.013079608
103	0xbd15fbde	-0.036617152
104	0xbd131073	-0.03590436
105	0x3d2b53b2	0.041827865
106	0xbbc5c247	-0.0060351226
107	0xbc81d98a	-0.015850801
108	0xbd1c2d04	-0.038128868
109	0x3d5e669d	0.05429708
110	0x3d431a08	0.047632247
111	0x3dd2da68	0.10295564
112	0xbca2fafc	-0.01989507
113	0x3d975221	0.07388712
114	0x3c793111	0.015209452
115	0xbc65ba01	-0.014021398
116	0xbd00ee7b	-0.031477433
117	0x3d3c663b	0.045995932
118	0xbcacf472	-0.021112654
119	0xbd2f29c0	-0.042764425
120	0x3d11863f	0.035528418
121	0xbcced9f9	-0.025250422
122	0x3daba7cf	0.08381616
123	0xbd50332c	-0.05083005
124	0xbbb1fa28	-0.0054314323
125	0x3d214d2c	0.039380237
126	0x3c055cd5	0.008139809
127	0xbd4f71fd	-0.050645817
128	0xbd137cd8	-0.036007732
129	0xbc5aa97c	-0.013346072
130	0x3db7ccc0	0.089746
131	0xbd0c3a7a	-0.034235455
132	0xbe56bf18	-0.20971334
133	0xbe4c9007	-0.19976817
134	0x3d5e2519	0.054234598
135	0xbd0a8fdd	-0.033828605
136	0xbc534e14	-0.012897033
137	0x3dae9951	0.085253365
138	0x3d515087	0.051102187
139	0xbc00f70c	-0.007871401
140	0x3d3e0ace	0.046397023
141	0xbce0ee8b	-0.027457496
142	0xbce581c7	-0.028015984
143	0x3d801ca6	0.06255464
144	0xbd183b9e	-0.03716623
145	0xbc0b10bf	-0.008487879
146	0x3d1b3673	0.037893724
147	0xbca18405	-0.019716272
148	0xbbe48d93	-0.006974885
149	0xbc8524f0	-0.016252965
150	0xbc2c33c2	-0.010510387
151	0xbc97cdb1	-0.018530698
152	0xbd2a0c51	-0.041515652
153	0xbd1ba9fa	-0.0380039
154	0x3be796be	0.0070675304
155	0xbd4d0b5f	-0.050059672
156	0xbcebe908	-0.028797641
157	0x3d51c09b	0.051209074
158	0xbd17b229	-0.03703514
159	0x3d45fb38	0.048335284
160	0x3dc97e4e	0.09838544
161	0x3d2c52b7	0.04207107
162	0x3db26e17	0.08712404
163	0xbbd408d8	-0.006470781
164	0x3b13a447	0.0022528337
165	0x3d394607	0.0452328
166	0x3d7ca2c9	0.06167868
167	0xbc930efe	-0.017951485
168	0x3dac66db	0.084180556
169	0x3b12b811	0.0022387544
170	0x3d11a1bb	0.03555463
171	0x3d695a57	0.05697092
172	0x3d3c0030	0.045898616
173	0x3d35b33e	0.04436039
174	0xbc905d0a	-0.01762249
175	0xbb992c32	-0.004674458
176	0xbca903c9	-0.020631688
177	0x3d3b5bc5	0.045741815
178	0x3d3dbb80	0.046321392
179	0xbd020546	-0.03174331
180	0xbd1a197d	-0.037621964
181	0xbca7ce86	-0.02048422
182	0x3d203021	0.0391084
183	0xbcea11d5	-0.028572956
184	0xbcf3ffe2	-0.0297851
185	0xbce151d5	-0.02750484
186	0xbd339ee7	-0.043852713
187	0x3d53e1c0	0.051728964
188	0xbc057129	-0.008144655
189	0xbcb8f3ae	-0.022577133
190	0xbd125129	-0.03572193
191	0xbd35b4dc	-0.044361934
192	0xba940582	-0.0011293145
193	0x3c1f4b18	0.009722494
194	0xbca97b8b	-0.020688793
195	0x3d28cbec	0.0412101
196	0xbe459e32	-0.19298628
197	0xbd31bc63	-0.04339255
198	0xbccb8ca0	-0.024847329
199	0x3d382491	0.044956747
200	0x3c629944	0.013830487
201	0xbd104ba6	-0.035228394
202	0xbd14d088	-0.036331683
203	0xbd196337	-0.037448134
204	0xbc7bb254	-0.015362341
205	0xbd202beb	-0.039104383
206	0xbacc2b2e	-0.0015576833
207	0xbca0a152	-0.019608174
208	0x3dade47d	0.08490846
209	0xbcee3fc3	-0.029083138
210	0xbca3bb21	-0.019986691
211	0xbd00e3a5	-0.0314671
212	0xbb957bd4	-0.0045618806
213	0x3d6ac26b	0.057314318
214	0x3b16c26e	0.0023004073
215	0xbcf219b4	-0.029553272
216	0xbc2543fd	-0.01008701
217	0x3d59405b	0.05303989
218	0xbd195707	-0.03743651
219	0x3d5d6eb7	0.054060664
220	0x3d8d15f4	0.06888953
221	0x3da1e08a	0.079041556
222	0xbd14e939	-0.03635523
223	0xbd42b4f8	-0.047535866
224	0x3d4da30d	0.050204325
225	0x3c7eb6bc	0.015546497
226	0xbc9dd087	-0.019264473
227	0x3d501418	0.050800413
228	0x3d35dc1b	0.044399362
229	0xbd1b5607	-0.03792384
230	0xbcd7fe71	-0.026366444
231	0xbcfb4c47	-0.03067602
232	0xbd103306	-0.03520491
233	0xbd344742	-0.04401327
234	0xbc5d4a20	-0.013506442
235	0x3da06001	0.07830811
236	0xbd1d6a1b	-0.03843127
237	0x3d2cff01	0.04223538
238	0xbd16f5b0	-0.0368554
239	0x3d3bf30d	0.04588609
240	0x3d82d2f5	0.06387893
241	0xbced8137	-0.028992279
242	0xbc287491	-0.010281698
243	0xbcb874cb	-0.022516629
244	0x3d414899	0.047188375
245	0x3d198a51	0.037485424
246	0x3da7dbb8	0.08196205
247	0xbd0854a7	-0.033283856
248	0xbc308371	-0.010773526
249	0x3d6ac1af	0.057313617
250	0x3d48177f	0.048850533
251	0xbd041c49	-0.032253537
252	0x3d45d9af	0.048303302
253	0x3d35dfe3	0.04440297
254	0x3d402a2a	0.04691521
255	0x3ae946ba	0.0017797567

model.6.weight f4 [1, 256]
0	0x3e8cefec	0.27526796
1	0x3de5152f	0.11185681
2	0x3cbd958c	0.023142599
3	0xbecf3da5	-0.4047672
4	0x3d68b269	0.05681077
5	0x3e70d0d9	0.23517169
6	0x3e93de0d	0.2888035
7	0xbea51201	-0.32240298
8	0xbfba5835	-1.4558169
9	0x3dda7f58	0.1066882
10	0x3d4880cf	0.048950966
11	0x39920cb3	0.00027856752
12	0x3e848275	0.2588078
13	0xbbfa32f2	-0.0076354677
14	0xbea92e57	-0.33043167
15	0x3b72002e	0.0036926377
16	0xbeb42f86	-0.35192508
17	0x3d1efffb	0.03881834
18	0xbd1477ed	-0.036247183
19	0xbf1a83b9	-0.6035724
20	0xbf061402	-0.5237428
21	0xbf53d996	-0.82753885
22	0xbda38530	-0.07984388
23	0xbf415fc5	-0.7553676
24	0xbda45748	-0.0802446
25	0x3dba9a17	0.091114216
26	0x3dceaee1	0.10091949
27	0x3deb69d0	0.114947915
28	0x3e86fad5	0.26363245
29	0xbf94d207	-1.1626595
30	0xbe45eb2c	-0.19327992
31	0xbf5a321a	-0.852327
32	0xbf088222	-0.53323567
33	0xbe341a7d	-0.1758823
34	0x3c37c932	0.011217402
35	0x3c913105	0.01772357
36	0xbff9678f	-1.9484729
37	0xbed5fb6b	-0.4179338
38	0xbdd4e9ab	-0.10396131
39	0x3e970dbb	0.29502663
40	0x3e7ba504	0.24574667
41	0xbf352502	-0.70759594
42	0xbe56a97b	-0.20963089
43	0x3e942816	0.28936833
44	0xbf7ed468	-0.99542856
45	0x3e95a88c	0.29230154
46	0x3d19e8f1	0.037575666
47	0x3d96a012	0.0735475
48	0xbe08b791	-0.13351275
49	0xbe714459	-0.23561229
50	0xbe5a2923	-0.21304755
51	0xbea5e9d6	-0.32404965
52	0x3dabed2e	0.08394848
53	0x3d8882d4	0.066655785
54	0x3d6bb368	0.057544142
55	0xbc3c9499	-0.011510038
56	0xbe94c6b0	-0.29057837
57	0xbe7cdd9f	-0.24693917
58	0xbe3566bc	-0.17714971
59	0xbe3d9c94	-0.18516761
60	0x3d2eda69	0.04268876
61	0xbed7557e	-0.42057413
62	0xbf143e64	-0.579077
63	0xbe25c036	-0.16186604
64	0x3e422721	0.18960239
65	0x3c4c5901	0.012472392
66	0xbe27fb5b	-0.16404478
67	0xbec8a84a	-0.39190894
68	0xbf1b111a	-0.6057297
69	0xbe752e39	-0.23943414
70	0xbf84f563	-1.0387386
71	0xbf61fb29	-0.88273865
72	0xbf1df2b4	-0.6169846
73	0xbce0b446	-0.027429711
74	0x3c01adc6	0.007914966
75	0x3e8caffe	0.2747802
76	0xbec914fa	-0.39273816
77	0x3da5a911	0.080888875
78	0x3ddbd59d	0.10734103
79	0xbd8fca74	-0.07021037
80	0x3e989ca4	0.29807007
81	0xbf6e5aec	-0.93107486
82	0xbecfc60b	-0.40580782
83	0x3d6e1837	0.05812856
84	0xbf1b9b0a	-0.60783446
85	0xbf9b2ef2	-1.2123702
86	0xbf0f0405	-0.5586551
87	0xbed5bbe6	-0.41744918
88	0x3d3db323	0.046313416
89	0x3d357af7	0.04430672
90	0xbeaa48d3	-0.33258685
91	0x3dd5f7ce	0.104476556
92	0xbdc18515	-0.094492115
93	0x3dce386d	0.10069356
94	0xbe234ea1	-0.15947963
95	0x3bef0c0b	0.007295137
96	0x3e9b3e8f	0.30321166
97	0x3e3675f3	0.17818432
98	0xbe69f6f3	-0.2284811
99	0x3db38158	0.08764905
100	0xbe98bd1c	-0.2983178
101	0xbdf7395b	-0.120714866
102	0xbee92b9f	-0.45541093
103	0x3cd3431f	0.025788842
104	0x3c2960f1	0.010338054
105	0x3da8613a	0.082216695
106	0x3cda0aa7	0.026616408
107	0x3ccbb011	0.024864228
108	0x3c8519fa	0.016247738
109	0xbebd407b	-0.36963257
110	0x3e29058e	0.16506025
111	0xbf0772eb	-0.52909726
112	0xbdf78964	-0.12086752
113	0x3e9dc041	0.3081074
114	0xbebd5bde	-0.36984152
115	0x3e36012b	0.17773883
116	0x3c1ec842	0.0096913
117	0xbea9b437	-0.33145306
118	0xbe8d6259	-0.27614096
119	0xbf1a05e8	-0.6016526
120	0xbed16c5d	-0.40902987
121	0xbe43bac3	-0.19114213
122	0x3e87671c	0.26445854
123	0xbf831dab	-1.0243429
124	0xbe688807	-0.2270814
125	0x3d53cbc2	0.05170799
126	0xbe31f339	-0.17377938
127	0xbf03d868	-0.51502085
128	0xbe696172	-0.22791079
129	0x3c92f069	0.017936902
130	0x3ea27e60	0.3173704
131	0xbde7ab02	-0.11311914
132	0xc00c3368	-2.1906376
133	0xc00adb4c	-2.1696348
134	0x3e8480ff	0.25879666
135	0xbebc688f	-0.36798522
136	0xbbcf5455	-0.006327192
137	0x3e953381	0.29140857
138	0x3e02274a	0.127103
139	0x3daa49f4	0.08314887
140	0x3dce3d75	0.10070316
141	0xbd605a76	-0.05477377
142	0x3d88ce08	0.06679922
143	0x3ea01e6c	0.3127321
144	0x3da958e1	0.082689054
145	0x3d8d94d5	0.06913153
146	0x3da304f1	0.07959927
147	0x3a9748a4	0.0011542034
148	0x3d2dcf3e	0.04243397
149	0xbbb7c162	-0.00560777
150	0xbcd5aa20	-0.026082098
151	0x3d8e49fc	0.06947705
152	0xbe69734d	-0.2279789
153	0xbe552668	-0.20815432
154	0xbe85ae2e	-0.2610945
155	0xbb25a92c	-0.0025277836
156	0x3cc4b606	0.024012577
157	0x3ddc0bcd	0.10744438
158	0x39d96e09	0.00041471448
159	0x3ed9f75b	0.4257153
160	0x3ea4bb74	0.32174265
161	0x3ddd5189	0.10806567
162	0x3ed700b2	0.41992718
163	0x3e06502b	0.13116519
164	0xbf6a45de	-0.9151286
165	0xbeb093a1	-0.34487632
166	0x3e7a6fb4	0.24456674
167	0xba81a2d3	-0.0009890444
168	0x3e6649e9	0.22489132
169	0xc010b608	-2.2611103
170	0x3dc4f1b4	0.09616414
171	0x3ef5b334	0.47988284
172	0x3e06b408	0.13154614
173	0x3db51641	0.08842135
174	0x3da79824	0.081833154
175	0x3e51c5f4	0.2048567
176	0xbe63fd26	-0.22264537
177	0x3e06fd06	0.13182458
178	0x3dcd22a1	0.100163706
179	0x3b9944bc	0.004677383
180	0xbf940a88	-1.1565714
181	0xbe50e50f	-0.20399879
182	0xbea72929	-0.3264859
183	0xbe514a8f	-0.20438598
184	0xbe7c6799	-0.24648894
185	0xbebb8dc2	-0.3663159
186	0xbe4367b9	-0.19082536
187	0x3dfa22d3	0.122136734
188	0x3d90024e	0.070316896
189	0x3c9a5e35	0.01884375
190	0x3d0d1e98	0.034453005
191	0xbda9e832	-0.08296241
192	0xbfe422c3	-1.7823108
193	0xbfe22e3d	-1.7670361
194	0xbeb228f0	-0.34796858
195	0x3e23e67a	0.16005889
196	0xc009b34e	-2.151569
197	0x3d0f580f	0.03499609
198	0xbdffc638	-0.12488979
199	0x3dc3c475	0.095589556
200	0xbec63f81	-0.38720325
201	0xbf8d39a6	-1.1033218
202	0x3d7bd7db	0.061485153
203	0xbf1bad77	-0.6081156
204	0x3cd6f0e5	0.026237914
205	0xbecc305a	-0.3988064
206	0x3d7e65e7	0.0621089
207	0x3d026b16	0.031840406
208	0x3e5d5ea9	0.21618141
209	0x3ce8a259	0.028397726
210	0xbc611752	-0.01373847
211	0x3c05700e	0.008144392
212	0xbeaf7e19	-0.34275892
213	0x3e47a10c	0.19495028
214	0xbe559867	-0.20858918
215	0x3ce14292	0.027497564
216	0x3d10b8e9	0.035332594
217	0x3ebdcadb	0.3706883
218	0xbe1b9c3e	-0.1519632
219	0x3e3863ec	0.18006867
220	0x3ea99a1b	0.33125386
221	0x3eadcceb	0.33945403
222	0xbe792f9e	-0.24334571
223	0xbfb6d912	-1.4284995
224	0x3e48eec8	0.19622338
225	0xbe985035	-0.29748693
226	0xbd015078	-0.03157088
227	0x3e468b2d	0.19389029
228	0xbeafcafb	-0.3433455
229	0x3d0260c9	0.031830583
230	0xbf261d25	-0.6488822
231	0xbf04e576	-0.5191263
232	0xbe4c1579	-0.19930066
233	0xbf38b9ce	-0.72158515
234	0xbc8df107	-0.017326845
235	0xbf8cbb2c	-1.099462
236	0xbe8c64e1	-0.27420714
237	0x3de112f4	0.10989943
238	0xbdea3b32	-0.11437072
239	0x3da53107	0.08065992
240	0x3e9b2e57	0.30308792
241	0x3c28bcf2	0.010298954
242	0x3e0c2100	0.13684464
243	0xbeab09be	-0.3340587
244	0x3ddf560f	0.10905086
245	0x3de88af0	0.11354625
246	0x3ea6c0d0	0.3256898
247	0xc02d01c3	-2.7032325
248	0x3c30ffc8	0.0108031705
249	0x3e644360	0.22291327
250	0x3e35851b	0.17726557
251	0x3dacf7ad	0.08445678
252	0xbee0010f	-0.43750808
253	0x3d9c457f	0.07630443
254	0x3dc771b8	0.09738487
255	0xbf84359b	-1.0328859
