Models/Bloom_filter/result/model-dict-77.pt (torch, 533323 bytes, 7 tensors)

model.0.weight f4 [256, 2]
00000000: b58c b1ba 1aac 93b8 aa82 0eba 4601 0939
00000010: b79f 193a 271a 2439 500e dfba 9b1f bfba
00000020: 8c70 6aba a25b 03bb d190 6ebb 596b e53a
00000030: 8259 0ebf 30c7 1bbd 32c7 1639 75db b2ba
00000040: 5b85 9bbe 3eff cc3e c895 5bba c08f ca39
00000050: 27e1 30bd 4ed8 ed3e 857c 28ba fc65 b0b9
00000060: 2a6c cebf ddd8 313e 20f0 e4b9 ebfc b939
00000070: aeb9 d0b9 d095 7c3a 650e 72ba 70bf 053a
00000080: 1169 99bb 3dea 313b 33ca 6bba a856 93b9
00000090: 3213 5bba 806c bd39 8318 56ba f251 be39
000000a0: 17a1 08bb 6cf9 a73a 7cf7 35ba 0685 bf37
000000b0: 6904 68ba 2269 b2ba 48a4 73be 1acb 41bf
000000c0: 7290 0dba 3c2c 293a 8fa1 523a 7a57 4f3a
000000d0: 9a32 aaba 5b3a e6b9 4e17 27bf 27be 303e
000000e0: 440e 30ba 114f dbb9 60aa 44ba e143 2a39
000000f0: c17f f0ba 30b4 cdb9 95ed 383d bf0e 73bf
00000100: 31bd b83e 888c d2bf 8719 913e b6a7 97be
00000110: 9d4a 9538 d9d3 80bb e253 cf39 3233 36ba
00000120: 8642 f539 b089 8aba 97b0 50ba 53b7 14bb
00000130: 6ebf 973e 3c98 f43d ae9b 37ba 53e9 d9ba
00000140: fa75 873e 2699 eabd a56f 863e 25dc e6bd
00000150: 29aa efb9 c609 ecb8 bc12 47bc e396 07bd
00000160: ee45 8cb9 fbcc b2ba c981 70ba 7127 95b8
00000170: 5013 27b7 c603 cfb9 634a 303a dd0e 2eba
00000180: 4f5c 913a 515d c639 76ce c939 b1ff a2ba
00000190: 2b2d 84b9 4295 c2b8 1ffe 11bb 1fd5 f43a
000001a0: 396b 43be 6602 b83e e3ea 2ebb aa4d a0b7
000001b0: 3c9f 4cbe 1bb7 47bf 1421 02b9 5329 d1b8
000001c0: f61d aa3e 3c4e 473d 036e 8039 2c81 b0b9
000001d0: 7e2f 71ba fb12 25ba b9aa 8c3e 1d45 d3bd
000001e0: 7bfc 6bb8 d9f5 aa38 ccf2 74b9 2784 b9b9
000001f0: 73de e139 5dcc 3a3a 77ef a5ba a25e 03bb
00000200: d070 38ba a3bd 6039 a8f6 60ba 24b8 7db9
00000210: 6cf9 f1b9 03c1 cdba 5fd5 d1be a19f 3fbd
00000220: 1c8f 953e 64d1 0cbe 78ee 8d3e 8036 323e
00000230: 0c94 43ba 5199 baba 02cb a0b9 09fa 67b9
00000240: 29e0 28ba 9957 eeb8 836c 5b38 6bac 0dbb
00000250: 0b22 b8b9 5931 95b9 fa11 06be ee44 ca3e
00000260: 35db 893e 1bb9 79be f7d1 673e 5c18 a7be
00000270: 86df d139 5102 b8b8 31a8 04b9 b85b 96b9
00000280: fca4 2a39 ead6 2dba ee4d feb9 eebd 05ba
00000290: 27e4 903e fc46 afbe 1262 e6be 422a 8ebd
000002a0: 47a7 54bf 49d6 cabe 4ced b7b9 782c 94ba
000002b0: 9537 4abd d328 23bf d439 29ba 3e64 80ba
000002c0: 272c 78b9 f628 02bb 9b59 79ba caa2 ccb9
000002d0: f430 6639 930f 17ba fc8b 873e 901c f8bd
000002e0: 55c8 2cba 32f5 353a f7e9 943e 60ef 64be
000002f0: a5bb f93a 4295 f53a 353d 67ba 0cf0 ff39
00000300: ff18 4bba ecd9 09ba a415 33ba f5f6 a1ba
00000310: b904 8d3d 9885 2abf 1e12 d5b8 2865 133a
00000320: c456 913e 2591 97be 851a 05bb d921 843a
00000330: 802c 683e dad6 ddbe 5d85 8db9 f71e 823a
00000340: 19ef 17ba 8abb 0c38 0d23 96bd ecfa 763e
00000350: 4a59 4cba 931c a438 2173 1aba 3e26 bc39
00000360: b05a eabe 8808 c23e 9687 0dbe d482 4f3e
00000370: 164b 1ab9 51c8 f5b9 2cb1 4cbc 7781 09bf
00000380: 4a01 8eba 96cd 8b3a d1a9 57ba e4af 193a
00000390: 93c9 403e f14f 1e3e 1f87 33b7 1be8 b2ba
000003a0: e596 803e 0eee 5abf 0541 c737 c8f9 6639
000003b0: ce42 3db9 5829 96ba 23fe 12ba 39c2 593a
000003c0: 592e 3cba 33ae 66b8 736b 5aba 957d 3ebb
000003d0: 10ee 353a 843c 01bb 1b08 f2b9 8b86 4d3a
000003e0: a17e 813e 8963 abbe 3b02 8d39 bf81 0abb
000003f0: 969c 143e 85ec e1be 8c76 1abf 5ec4 6e3e
-0.0013545962 -7.041563e-05 -0.00054363406 0.00013065813 0.0005860286 0.00015650001 -0.0017017815 -0.0014581563
-0.00089431624 -0.002004363 -0.0036402235 0.0017503306 -0.5560533 -0.038031757 0.00014379321 -0.0013645726
-0.3037518 0.40038484 -0.0008376506 0.00038635544 -0.043183472 0.4645409 -0.0006427246 -0.0003364532
-1.6126759 0.17367883 -0.00043666456 0.00035474388 -0.00039811194 0.0009635361 -0.00092337123 0.0005102074
-0.0046817143 0.0027147674 -0.00089946686 -0.0002810259 -0.00083570473 0.00036129728 -0.00081671047 0.00036300678
-0.002084797 0.0012815422 -0.000694148 2.2830918e-05 -0.0008850755 -0.0013611654 -0.23793137 -0.75700533
-0.0005400247 0.000645343 0.00080349384 0.00079094584 -0.0012985051 -0.00043912497 -0.65269935 0.17260037
-0.0006715993 -0.00041829844 -0.00075021945 0.0001623775 -0.001834862 -0.00039234897 0.04514845 -0.94944376
0.36081842 -1.6449137 0.28339788 -0.2962014 7.1187715e-05 -0.003931504 0.00039544614 -0.0006950378
0.00046779605 -0.0010569599 -0.0007960884 -0.0022692278 0.29638237 0.11943099 -0.0007004094 -0.0016625322
0.26457196 -0.11454992 0.26257053 -0.11272458 -0.00045712412 -0.000112551774 -0.012150463 -0.03310288
-0.00026754983 -0.0013641411 -0.0009174613 -7.11222e-05 -9.958472e-06 -0.00039484928 0.00067249517 -0.0006639788
0.0011090132 0.0003783503 0.00038491533 -0.0012435821 -0.00025210655 -9.278442e-05 -0.0022276712 0.0018679238
-0.19083871 0.3593933 -0.0026690296 -1.9109651e-05 -0.19982618 -0.7801377 -0.00012410089 -9.973594e-05
0.33225983 0.048658594 0.00024496028 -0.00033665576 -0.00092004973 -0.0006297079 0.27474 -0.10315917
-5.6263507e-05 8.1520244e-05 -0.00023360102 -0.0003538441 0.00043081082 0.00071257894 -0.0012659867 -0.002004542
-0.00070358533 0.0002143295 -0.00085816765 -0.00024196558 -0.00046152936 -0.0015697781 -0.40983102 -0.046783093
0.29210746 -0.13751751 0.27721 0.17403603 -0.00074607204 -0.0014236366 -0.0003066883 -0.00022123022
-0.0006442094 -0.00011365041 5.231473e-05 -0.0021617662 -0.0003512058 -0.00028456261 -0.13092795 0.39505714
0.26925054 -0.24387018 0.22638689 -0.32635772 0.00040030124 -8.774235e-05 -0.00012651157 -0.00028678565
0.00016273925 -0.0006631451 -0.00048504717 -0.0005101849 0.28299066 -0.34233844 -0.44996697 -0.06941654
-0.83067745 -0.39616612 -0.0003508128 -0.0011304757 -0.049369413 -0.6373417 -0.00064554554 -0.00097955
-0.00023667571 -0.001986084 -0.00095119484 -0.000390312 0.00021952746 -0.00057625136 0.26473987 -0.12114823
-0.0006591131 0.0006941139 0.2908475 -0.2235694 0.0019053115 0.0018736499 -0.0008821071 0.0004881624
-0.000774756 -0.0005258608 -0.0006831533 -0.0012356924 0.068856664 -0.666101 -0.00010160006 0.00056226784
0.2838651 -0.29602924 -0.0020309996 0.0010080888 0.22673225 -0.4332798 -0.0002699298 0.0009927441
-0.0005795821 3.355326e-05 -0.07330904 0.24119157 -0.00077952875 7.825452e-05 -0.00058917893 0.00035886647
-0.45772314 0.37897134 -0.13821253 0.2026475 -0.00014714556 -0.0004687929 -0.012493413 -0.5371317
-0.0010834124 0.0010666128 -0.0008226904 0.00058626966 0.18826894 0.15460183 -1.0700692e-05 -0.0013649495
0.25115123 -0.8551949 2.3752926e-05 0.0002202756 -0.00018049331 -0.0011456413 -0.00056073273 0.00083068345
-0.0007178537 -5.499851e-05 -0.0008332051 -0.0029066552 0.0006940076 -0.0019719908 -0.00046163876 0.0007840178
0.25291923 -0.33474377 0.00026895278 -0.0021134464 0.14512858 -0.44125763 -0.6033714 0.23317096

model.0.bias f4 [256]
00000000: 0000 0000 3c87 2dba b3ca d5ba 0000 0000
00000010: 0000 0000 e529 68ba 82a5 2e3e 18b2 1eb9
00000020: 3ce8 14bd 5065 81ba 9fae d9bd 0000 0000
00000030: 6f45 153e 6210 e1b9 7077 4dba 07b2 8cba
00000040: 2301 36bb 0000 0000 caf1 7cba 25f8 e4b8
00000050: 1f0d c1b9 7411 34b9 0000 0000 4f44 4b3e
00000060: 5e80 fdb9 1531 46bb 0000 0000 957d c63d
00000070: 0000 0000 9fbf 55ba 0000 0000 e45d 193e
00000080: ee68 86bc 6e93 45bd 5d38 6eb8 709f a6b9
00000090: cf78 d2b9 0000 0000 d236 65be 0000 0000
000000a0: 5bbb 1abe 7ee0 19be 0000 0000 6c5d ebbc
000000b0: f60a 46ba 0000 0000 0000 0000 621a 6eba
000000c0: 57db c4ba b07e ffb9 0000 0000 2185 8bba
000000d0: 7c84 53bd 0000 0000 e8f7 4e3e 9bfa 1d37
000000e0: ade7 10be 389d 4fb9 0000 0000 3538 29be
000000f0: 349f 1bb9 0000 0000 ba92 96ba 5e69 68ba
00000100: f75d 41b9 0000 0000 ea3b b4b7 1d61 133e
00000110: 9603 74bd f0f3 43be 0000 0000 0000 0000
00000120: 551a 1fba 6a12 31b8 0000 0000 03d2 ffbd
00000130: d387 86bd 4a24 4d3c df47 bfb9 0000 0000
00000140: 7916 09b9 0000 0000 cd3a 1dbd dfb5 143e
00000150: a33b 683e 0000 0000 a775 253e 0000 0000
00000160: 0000 0000 0000 0000 52e1 89b9 3a47 1abe
00000170: d0d2 68ba 1cc0 c9bd f622 dcbb b16e 28b9
00000180: 0000 0000 0000 0000 e3fa 1a3e a6bb 0bba
00000190: 4e43 54bd 3525 15ba 2354 ee3b f8b8 65ba
000001a0: 47ea 1cb9 295a 92bd 5bfe 9fb8 4f26 ddb8
000001b0: b63a 1e3d 1f77 88bc 15f0 d337 8c76 763e
000001c0: 221a adba 8fdd 80ba db3f 72be 0000 0000
000001d0: e6cb 163d 2ad1 7fb9 575c 9437 5091 72ba
000001e0: 25f9 15ba 3e64 e7b9 50a5 11ba 7e80 1bba
000001f0: 9e0d 2e3c 4544 62b9 ee19 1b3e 5026 413d
00000200: 0000 0000 3113 82be 0000 0000 0000 0000
00000210: 1046 093d 6887 c9bd 6363 b3ba 0000 0000
00000220: 723c b1b9 5e08 3dbb f62b 4e3e d2ed 363e
00000230: 2550 9ab9 26e8 1439 0000 0000 dc19 3eb9
00000240: 4c01 8bb8 6db5 6cba 037f baba e555 8abd
00000250: 0000 0000 2f51 e0b8 b86a 54be 0000 0000
00000260: ab3f d8b8 0000 0000 0000 0000 0572 6dbe
00000270: 6bba 5fba 63e5 73b9 2be7 263e d6d6 123e
00000280: 5a14 cbb8 09ce 47bd fcd3 9ebd 9f5d 1bb9
00000290: b138 56be 7ce0 4ebe 0000 0000 77b2 133e
000002a0: 4bc0 e9b9 5f23 4ebd b38f 89ba 0000 0000
000002b0: 10f9 a0b9 0000 0000 0000 0000 8b7e 1abe
000002c0: b5ff 07ba 2f15 82be 0000 0000 2723 13bb
000002d0: de5e 8aba a680 0e39 0000 0000 0000 0000
000002e0: fde2 843e 8879 57ba 7753 61ba ca08 12bc
000002f0: 2c79 423e 56c1 a6b9 eeb5 85bd 6d01 8cba
00000300: 73a0 15bd 0000 0000 e0af 1cbb 27ed 2ebe
00000310: 0000 0000 0000 0000 4736 46b9 4976 6f3d
00000320: 4fe3 75bc d2fe 6f3d 0000 0000 5b8b 113e
00000330: 0000 0000 40ce 56b9 3f1f 9ab8 0000 0000
00000340: 0000 0000 0000 0000 8b5f 56ba 69a2 6eba
00000350: a4c5 75b9 0000 0000 0000 0000 0000 0000
00000360: 323e 6dbe 745a dabd b51f 70ba b869 80b9
00000370: a503 14b9 0000 0000 0000 0000 efd6 91b8
00000380: 0000 0000 a769 113e 35e2 13bb c852 49be
00000390: f332 17b9 0000 0000 662d 393e 7613 483e
000003a0: a0ac 6e39 202f a43e 3915 0ebd df5c e4bb
000003b0: 0000 0000 a1dc efbc b6d4 463d 5519 24be
000003c0: f8c7 bbb9 6c29 54bd 32e4 ceb9 0000 0000
000003d0: 92c0 eb3c 0000 0000 adeb 1b39 c892 b2ba
000003e0: fead 2e3c b9df 3b37 a948 80bd 42ef 34be
000003f0: 2476 093e 8110 29ba 8e6b 2dbc 7643 a7ba
0.0 -0.0006619578 -0.001631102 0.0 0.0 -0.00088563404 0.17055324 -0.000151344
-0.03635429 -0.0009872112 -0.106290095 0.0 0.14577268 -0.0004292755 -0.0007837927 -0.0010734209
-0.0027771674 0.0 -0.00096490665 -0.00010918108 -0.00036821605 -0.0001717264 0.0 0.19850276
-0.0004835156 -0.0030241658 0.0 0.096919216 0.0 -0.0008153859 0.0 0.14977223
-0.016407456 -0.048236303 -5.6796114e-05 -0.00031780777 -0.0004014433 0.0 -0.22384194 0.0
-0.15110533 -0.15027043 0.0 -0.02873107 -0.0007554734 0.0 0.0 -0.0009082911
-0.0015018982 -0.0004873178 0.0 -0.0010644534 -0.05164002 0.0 0.20211756 9.416278e-06
-0.14150877 -0.00019799627 0.0 -0.16525348 -0.0001484126 0.0 -0.001148782 -0.00088657986
-0.00018440919 0.0 -2.1485572e-05 0.14392515 -0.059573732 -0.19136024 0.0 0.0
-0.00060692924 -4.2217238e-05 0.0 -0.124912284 -0.06568875 0.012520859 -0.00036483907 0.0
-0.0001307371 0.0 -0.038386155 0.14522503 0.22679 0.0 0.16158162 0.0
0.0 0.0 -0.00026298553 -0.15066233 -0.0008881511 -0.09851095 -0.006718035 -0.00016062964
0.0 0.0 0.15134768 -0.0005330391 -0.051822 -0.0005689443 0.0072732135 -0.0008763219
-0.00014964594 -0.07146103 -7.629088e-05 -0.00010545237 0.03863021 -0.016658364 2.5264957e-05 0.2406866
-0.0013206641 -0.0009831655 -0.23657171 0.0 0.036815546 -0.00024396615 1.7685974e-05 -0.00092532206
-0.00057210244 -0.0004413444 -0.00055559445 -0.00059319276 0.010623364 -0.00021578472 0.1514661 0.04715568
0.0 -0.25405267 0.0 0.0 0.033514082 -0.0984028 -0.0013686236 0.0
-0.00033805106 -0.0028844099 0.20133957 0.17864159 -0.0002943288 0.00014200862 0.0 -0.00018129445
-6.628278e-05 -0.000902972 -0.0014228526 -0.06754664 0.0 -0.00010696274 -0.20743835 0.0
-0.00010311542 0.0 0.0 -0.23188026 -0.00085345533 -0.00023259739 0.16299121 0.14339766
-9.683585e-05 -0.048780475 -0.077552766 -0.00014816828 -0.20920064 -0.20202821 0.0 0.14423548
-0.00044584493 -0.0503267 -0.0010495096 0.0 -0.00030703144 0.0 0.0 -0.15087335
-0.00051879446 -0.25406787 0.0 -0.0022451372 -0.0010556837 0.000135901 0.0 0.0
0.25954428 -0.00082197087 -0.0008595506 -0.008913228 0.18991536 -0.00031806034 -0.06528841 -0.0010681577
-0.03652997 0.0 -0.002390854 -0.17082654 0.0 0.0 -0.00018902971 0.058462415
-0.015007808 0.058592625 0.0 0.14213316 0.0 -0.00020485464 -7.349112e-05 0.0
0.0 0.0 -0.0008177689 -0.00091031805 -0.00023438648 0.0 0.0 0.0
-0.23168257 -0.10661784 -0.0009159998 -0.0002449283 -0.00014115738 0.0 0.0 -6.954173e-05
0.0 0.1420046 -0.002256525 -0.19660485 -0.00014419462 0.0 0.18083724 0.19538674
0.00022761757 0.32067204 -0.03468821 -0.006969079 0.0 -0.029280009 0.0485427 -0.16025288
-0.00035816408 -0.051797315 -0.000394614 0.0 0.028778348 0.0 0.00014869748 -0.0013624066
0.0106616 1.1198158e-05 -0.06263859 -0.17669395 0.13423973 -0.00064492977 -0.010584725 -0.0012761194

model.2.weight f4 [256, 256]
00000000: 3208 4f3a 11ff e4b9 ebd3 78b9 b6fe 75ba
00000010: 1f1f 88ba 6ed6 93ba bf01 25bf be4d 85b9
00000020: 0c3c c13e 1633 04ba b3fd 1abd 4997 a7b9
00000030: 947c b037 7ad9 0238 0818 4f3a ad5d c3b9
00000040: 35c9 10bb 3f4b d4ba 7061 ffb9 6c51 163a
00000050: 0fdd d639 b243 173a d092 3837 ea2c 933d
00000060: 827f 883a fc71 4abc 06fc ff39 255e b8be
00000070: 73bb 9139 930f 1739 22d2 a1b8 15a3 273e
00000080: 4fac 03c0 66a8 42bf 5645 023a 62df 0939
00000090: f1f3 6239 a53f 223a 3a7d df3e d8d4 2bba
000000a0: ddbb c53a d440 003b 5b23 8a39 b2dc 1a3c
000000b0: 082e e3b9 dd6b 2238 c285 783a b4a4 2838
000000c0: 3b7f fb39 50a4 2f3a cacf 2d38 ce53 4c39
000000d0: af25 623e 1a76 b137 a50e 293e 11fe a53a
000000e0: f242 56bf 5790 3038 b38f 89b9 2576 b2ba
000000f0: a1fe bf39 bc6c 5d3a 3706 31b9 34f9 17ba
00000100: 2c2f d23a b53e 2539 0117 b5ba 3caa 0bbf
00000110: 5ece 8b3d 4572 cabf 3751 5bb8 1520 1aba
00000120: 760d bab9 16a7 fc3a d45f b039 846d 6c3e
00000130: 595f 71bf 85a3 9a3e d8b3 85ba a136 5d3a
00000140: 05d6 103a bc67 6a3a b4fe 08bf e1dd 0cbf
00000150: 9287 0ac0 2a39 793a 3e13 a03e 2539 0eba
00000160: 969c 0a3a f15a 5239 837c d93a 5548 203a
00000170: f20d fd3a 17be 36c0 0ef6 b0bc b56e 66ba
00000180: 5ad9 89b9 2fb9 8a3a 06a4 9f3e 2f59 483a
00000190: 2d62 4cbf 49d2 06bb 363d 8abe 94c6 4db9
000001a0: f977 ca39 b434 c73d 6fd3 24b9 7b93 0738
000001b0: 8fce e63e ab15 1c3e ac7d 58b9 06f9 4e3e
000001c0: 06aa 89b9 e539 d13a 1c54 d93e 12af 9d39
000001d0: b51f 6cbe 5105 633a 97c4 fb39 3e7a 0f3b
000001e0: a902 07ba 0e01 2d3b 9e88 f13a 9d04 a4b9
000001f0: 4446 863e df24 993a b51c ee3d 3398 c0be
00000200: f686 1eba 6ba4 fd3e b1f7 9339 3ccb 3bba
00000210: 0597 73be 9ce4 41c0 7456 4d3b c339 5139
00000220: f83d b5b8 2d8f 333b 6e73 c93d bfbc af3e
00000230: 0647 353b d5d0 753a cbbf 05b9 cbbc 9eb8
00000240: 765e 46ba b042 ecb9 e39d 39ba 3e8c 923e
00000250: 1357 12b9 bc1d bf39 14f9 f93e d2f1 f239
00000260: 2438 bcb9 d6e9 013a c6b8 a8ba 92a1 413f
00000270: fe52 e33a 0028 26ba 55c9 20bf 0f33 14bf
00000280: 87b3 c7b7 6c37 b23d 9ae8 123f d990 68ba
00000290: adae b2be 126b fb3e 5d1e acb9 6b86 0abf
000002a0: 15ff e53a 09ce 45bf b123 feb9 c236 21ba
000002b0: fe78 58b9 2981 8739 ce05 19ba 1055 4839
000002c0: cf1d 5b39 d248 fe3e 42b5 bf39 db30 27bb
000002d0: 6858 4239 dafa cd3a 87fc 0b3a f532 1f3a
000002e0: 846b 763e 185c 503b b4a8 ea3a c39c d2ba
000002f0: 211b f23e ffed e5b9 d300 27bf bbe7 443a
00000300: 033a 893e b0a0 02bb 99a1 a3ba dd63 09be
00000310: a8bc 2cba 6ad5 613a 44a0 33ba 89d6 62bf
00000320: b6a3 853e 47d1 63bf 8937 9d39 d9cf 603e
00000330: 8caa 21ba 3d69 503a c039 193a 145e 7dba
00000340: cd16 c2b9 4447 bbb9 6fa8 433b 52b1 3fbb
00000350: 14e1 4e39 570c 233a 9c84 c5b9 eb74 0cba
00000360: 3b99 303f 1dc3 12bd 60f2 83b9 cb59 3fba
00000370: 51c8 943a 9530 0db9 b4fe a1ba 7271 74ba
00000380: 9463 8dba ad93 08bf 00e1 d4bb 9e22 14bf
00000390: 3e5d 8db9 9ce8 6739 8174 a73e 6cbb 693e
000003a0: 2ad1 483b 0713 1a3e cc6a c13e fc78 febb
000003b0: 1373 25b8 1feb 653e e244 abbc 3512 82bf
000003c0: 3d09 36b9 7add 953c 9edb 49b9 7c16 b538
000003d0: bd4d 6ebd fbbb 36b9 d5c3 8fb8 c404 7839
000003e0: 5c0d 853e de51 0d3b bcd3 56bf 2124 adba
000003f0: 48dd 07bf 3453 f639 4cf3 9b3e 52b7 03b9
0.00078976445 -0.00043677588 -0.00023730069 -0.0009383963 -0.0010385251 -0.0011279115 -0.6445579 -0.0002542566
0.37741125 -0.0005043013 -0.037839603 -0.00031965438 2.1038846e-05 3.1196956e-05 0.0007900004 -0.00037263092
-0.0022092585 -0.0016196741 -0.00048709987 0.00057341787 0.00040981962 0.000577028 1.1001437e-05 0.07186301
0.0010413977 -0.012356278 0.00048825162 -0.36009327 0.00027796216 0.00014406284 -7.7162185e-05 0.16370805
-2.057392 -0.76038206 0.00049694383 0.00013148555 0.00021643915 0.00061892933 0.43650228 -0.00065548485
0.0015085895 0.001956989 0.00026347753 0.009452032 -0.0004333111 3.8724265e-05 0.00094803807 4.0207713e-05
0.00047969245 0.00067002047 4.1439933e-05 0.00019486176 0.22084688 2.115504e-05 0.16509493 0.0012664219
-0.836959 4.2096097e-05 -0.0002623774 -0.0013615532 0.00036620072 0.00084466836 -0.0001688235 -0.0005797327
0.0016035787 0.00015758986 -0.001381606 -0.5455663 0.06826471 -1.5816122 -5.2289306e-05 -0.00058794144
-0.00035486714 0.001927587 0.00033640733 0.23088652 -0.94286114 0.3020288 -0.0010200692 0.00084386213
0.00055250555 0.0008941849 -0.53513646 -0.5502606 -2.1645246 0.00095071143 0.3126468 -0.00054253853
0.00052876153 0.00020061039 0.0016592894 0.0006114294 0.0019306524 -2.8553522 -0.021601703 -0.00087903003
-0.00026292616 0.0010583753 0.31179827 0.0007642684 -0.79837304 -0.0020572117 -0.26999825 -0.000196243
0.0003861783 0.09726849 -0.00015719024 3.232386e-05 0.45079467 0.1524264 -0.00020646182 0.20212182
-0.00026257354 0.0015962688 0.42446983 0.0003007581 -0.2305897 0.0008660155 0.00048020922 0.002189293
-0.00051502377 0.0026398334 0.0018427556 -0.00031283955 0.26225483 0.0011683962 0.11626569 -0.3761612
-0.00060473324 0.49539503 0.0002822257 -0.0007163768 -0.23788078 -3.0295782 0.0031332048 0.00019953311
-8.642295e-05 0.0027398572 0.098364696 0.3432369 0.0027660741 0.00093771267 -0.00012755317 -7.5691925e-05
-0.00075671764 -0.00045063114 -0.0007080717 0.2862262 -0.00013956083 0.00036452513 0.48822844 0.00046338007
-0.00035899982 0.0004955804 -0.001287245 0.7563716 0.0017343459 -0.0006338358 -0.6280721 -0.5789041
-2.3806248e-05 0.08701977 0.5738617 -0.00088716816 -0.34898892 0.49105126 -0.0003282902 -0.54111356
0.0017547334 -0.7726751 -0.00048473247 -0.0006149822 -0.00020644438 0.00025845438 -0.0005837352 0.00019105175
0.00020896572 0.49664932 0.00036565406 -0.0025511298 0.00018534216 0.0015715018 0.00053400587 0.0006072962
0.24064451 0.0031793173 0.0017903061 -0.0016068447 0.47286323 -0.00043855605 -0.6523563 0.0007511337
0.26802072 -0.0019932203 -0.0012484073 -0.13417001 -0.0006589391 0.000861487 -0.00068521895 -0.88608605
0.26101464 -0.88991207 0.0002998675 0.21954288 -0.0006167076 0.0007950252 0.0005845092 -0.0009665203
-0.0003701955 -0.00035720516 0.0029855033 -0.0029249978 0.00019729539 0.00062197953 -0.0003767357 -0.00053579983
0.6898381 -0.035830606 -0.0002516685 -0.0007299452 0.0011351203 -0.00013464906 -0.0012359233 -0.0009324766
-0.0010787123 -0.53350335 -0.0064965487 -0.5786532 -0.00026963087 0.0002211653 0.32706073 0.22825402
0.003064225 0.15046321 0.37776792 -0.0077658873 -3.9446237e-05 0.22452973 -0.02090687 -1.0161806
-0.00017360314 0.018294085 -0.00019250668 8.6349406e-05 -0.058179606 -0.00017426901 -6.855248e-05 0.00023652898
0.25986755 0.002156369 -0.8391683 -0.001320962 -0.53072023 0.00046982768 0.30459058 -0.00012561426

model.2.bias f4 [256]
00000000: 3fd4 d2bd 0be0 2dba a0b6 ebbb fe6d 0fbc
00000010: 12a3 42bd 9481 993d 2541 79bd 227e ad3d
00000020: 1410 90bb fb39 83bd 75c8 f8b9 1056 a4be
00000030: 95ab d7b9 a8c7 a63c a253 a3b9 ad8e 60bc
00000040: 4789 12b9 a69c f8b9 a2ae 8abe eb78 c2be
00000050: 8f9c d33c b9f2 84be 9a01 0bba 8753 74bb
00000060: 1637 eabd eb3d 8abd 8776 89bc f9fd 80ba
00000070: 057e f4bd a86e 70be 6ba3 9abd 7a09 99bb
00000080: 2819 dfb9 6cad feb9 e9c5 fd3b b0a6 87be
00000090: 8f34 03ba b034 81ba ad81 6fba fd90 2f3e
000000a0: 69fc 9a3d d9ec 10bb 64c3 9bbe 0a65 c73d
000000b0: ebab cdb9 1c33 5abb 76f0 10ba 4277 d5ba
000000c0: 8c13 9c3d 900a f63a b4f8 c3bd b4e2 10bd
000000d0: 30a7 16be 33bc cbbe 17ef 17be 0042 4aba
000000e0: 3fd4 87be a234 18ba 728a bd3d 93f1 1abd
000000f0: 6813 e3b9 dfb4 ccbd 468c 93bd 5f1e 38bc
00000100: 544a 39ba b3d2 023e d18f 8e3d b55a a6be
00000110: c3ab 853c 200e 01be 40e6 8dbe 7cfa 00b9
00000120: d084 c63d 5315 20be 05cf aa3d 5e4d e2b9
00000130: 342b 0bbe 1d56 bc3b 66db 0aba e5ba d43d
00000140: dd55 8fbe c77a 2cbd c86c 05be 0b7f deb9
00000150: ffe8 97b9 bca7 eebc 291e eeb9 3040 1cbd
00000160: e235 87bd e5e4 81b9 b369 bc3c 57cd d8bb
00000170: 6d6d 0e3d 36c1 49bd 9fb6 82ba 594e d0bd
00000180: 6017 7bb9 c485 6fbe 8bec cab9 c73d a6bd
00000190: 5e5d 8dbe 0f96 d1b8 6a20 e43d 0c94 3aba
000001a0: c72e 9eb9 b3f1 c8bb 492b 933d 5def cb3d
000001b0: 2dd7 75be 216f c1bd a78c e03d 70e7 81bd
000001c0: 5249 5c3d 8d68 863c 2166 c2bc d2b3 44bb
000001d0: 9862 acbe 22fd 0cbb 8191 bbbd a2cd 30ba
000001e0: 6673 25be 14a0 21ba 92fe 86bb 065f 38ba
000001f0: 746e bab9 7bb3 a7be 0fdf de3d 883b 99be
00000200: 34dd 9fbc 6afd 8bba 6078 e9bd c9f4 28be
00000210: b70e 1abe 4864 d8bd 85f6 eebd e9ad d4b8
00000220: f372 98be 1a75 00bd d742 02be fcb9 52ba
00000230: 7d99 0f3e 1f85 22be df61 87ba afb8 04ba
00000240: 009a 3cbd 54a3 e4b9 bee7 2a3d beb9 443e
00000250: f634 aabd 7a86 fcb9 b0ef aebd 26e3 e9b9
00000260: 9a82 a4bd 2792 8ebc 6485 4c3e f36c d2b9
00000270: 1297 103e 278f 95ba 523a 64be a8f8 59ba
00000280: 1e69 18ba 9ab5 aa3b d2f0 333d 9b36 85ba
00000290: 0f3c e0bd a1bc 04ba 1b48 9eb9 6cea 9c3d
000002a0: 2695 1bbd 0730 0dba 00e5 95bb c7c8 3bbd
000002b0: 0e14 80bd 6400 69be 526e fcba 0645 4a3e
000002c0: f1a7 97be f555 36bc 638a fdbc 413b e9bd
000002d0: a38f cd3d aded f2bd fb0d 0bba 1ac8 09be
000002e0: 2c36 75ba 85d9 753c 02c4 90b9 bb52 843d
000002f0: 8fc3 5bb9 706c b13d 9a2a 853d 43e3 4a3e
00000300: a6a3 4f3d 5179 b2b9 4816 0ebe b2a3 8bbd
00000310: 8e1d 4c3d 5de6 9a3d 0fca 813d 0bcb 31ba
00000320: 8e6e ad3d dab4 e8b9 3705 c7b9 a28c d43d
00000330: 7a51 db3b e18a e43d 633f 6bbe 3fa3 dc3c
00000340: 52de 68be 91c5 78be 2743 5fba 2125 55ba
00000350: 5c99 ae3d 5831 52be 83a5 a7bb 9210 7dbe
00000360: df5e ecba 1f3f 9ab9 9178 29ba 05fa dd3a
00000370: 9d30 61bb 74ca b2b9 bf76 5cbe aac1 92b9
00000380: 766d ab3d 2d0d a8bd d997 90bd 540b d4ba
00000390: 795c 6b3d 589a 91ba c20b 5cbe 0d4e 73bb
000003a0: 707c 03ba 5f58 a43d cc0e c8b9 fe06 acbe
000003b0: d5c5 3dbe 9180 95bd 9764 2cbb 2a26 21bb
000003c0: 5f32 27be 047b 0fbe 942c 683d 9fd9 d8bc
000003d0: 92d5 873d 1c46 5dbb 17e7 29be 7041 afbe
000003e0: 5348 023e f10f 72ba 39ad 713e e6c0 a1b9
000003f0: e00c 2f3e 3b63 8abb 4e60 dab9 7600 083c
-0.10294389 -0.0006632811 -0.0071934015 -0.0087542515 -0.047518797 0.07495418 -0.060853142 0.084713235
-0.004396448 -0.06407543 -0.00047451598 -0.3209691 -0.00041135834 0.020358875 -0.00031152094 -0.013705892
-0.00013974785 -0.00047418958 -0.2708636 -0.37982878 0.025831489 -0.25966433 -0.0005302668 -0.0037281231
-0.11436288 -0.06750091 -0.016780151 -0.0009841315 -0.11938099 -0.23479712 -0.07550701 -0.004670319
-0.00042552617 -0.00048575865 0.00774454 -0.2649436 -0.0005005085 -0.0009857621 -0.00091364497 0.17145152
0.07567675 -0.0022113828 -0.3042251 0.097360685 -0.00039228736 -0.0033294624 -0.00055289955 -0.0016286152
0.07620916 0.0018771458 -0.09568921 -0.03537245 -0.14712214 -0.39792022 -0.148373 -0.0007715523
-0.26529118 -0.0005806183 0.09254922 -0.03782804 -0.00043311273 -0.09995436 -0.072044894 -0.01123771
-0.00070682657 0.12775688 0.069610246 -0.3249108 0.016317254 -0.12603045 -0.2771473 -0.00012300344
0.09693301 -0.15633135 0.08340267 -0.00043163722 -0.135907 0.00574757 -0.0005296975 0.1038721
-0.27995196 -0.042109277 -0.13029778 -0.00042437794 -0.0002897456 -0.029132716 -0.00045417369 -0.03814715
-0.06602074 -0.00024775337 0.02299962 -0.0066162753 0.034772325 -0.049256526 -0.0009972638 -0.10171194
-0.00023945933 -0.23390871 -0.0003870468 -0.08117252 -0.27610296 -9.993847e-05 0.11138995 -0.00071173976
-0.0003017096 -0.0061323284 0.0718599 0.09957764 -0.24007864 -0.09445024 0.10964327 -0.06342971
0.05378086 0.016407276 -0.02373034 -0.0030014408 -0.3366897 -0.0021513184 -0.09158612 -0.0006744509
-0.16157302 -0.0006165516 -0.0041197026 -0.00070332026 -0.0003555898 -0.3275412 0.10882389 -0.2992823
-0.019514658 -0.0010680382 -0.11399913 -0.16499628 -0.15044676 -0.10566002 -0.116681136 -0.00010141341
-0.297752 -0.031361677 -0.1272081 -0.0008038578 0.14023395 -0.15871094 -0.001032885 -0.00050629204
-0.046045303 -0.00043609238 0.041724913 0.1921148 -0.08310883 -0.00048165378 -0.085418105 -0.00044610462
-0.08032723 -0.017403675 0.1997276 -0.00040135495 0.14120129 -0.001141046 -0.22287872 -0.0008314946
-0.00058140035 0.005209637 0.043930836 -0.0010163368 -0.10948955 -0.0005063508 -0.0003018983 0.076619
-0.037984036 -0.000538588 -0.004574418 -0.045845773 -0.06253825 -0.22754055 -0.0019258952 0.19752893
-0.29620317 -0.011128892 -0.030949777 -0.11388255 0.10037162 -0.11861739 -0.00053045125 -0.13455239
-0.00093540805 0.015005474 -0.00027611858 0.06461092 -0.00020958319 0.08663261 0.06502266 0.19813256
0.050693177 -0.00034041193 -0.13875687 -0.06818332 0.049832873 0.075634696 0.06337368 -0.000678227
0.08468352 -0.00044385233 -0.00037960123 0.10378386 0.0066930624 0.111593015 -0.22973399 0.02693331
-0.22741058 -0.24294116 -0.00085167814 -0.0008130838 0.08525345 -0.20526636 -0.005116166 -0.24713352
-0.0018033645 -0.00029420198 -0.0006464804 0.0016935474 -0.0034361251 -0.00034101645 -0.21529673 -0.0002799158
0.083704874 -0.08205638 -0.07060213 -0.0016177692 0.057461236 -0.001110862 -0.2148886 -0.003712538
-0.0005015796 0.08024668 -0.00038157997 -0.33599085 -0.18532498 -0.07299913 -0.0026305073 -0.0024589398
-0.16327809 -0.1401177 0.056683138 -0.026470957 0.06632532 -0.0033763712 -0.1659206 -0.34229612
0.12722902 -0.0009233943 0.23601235 -0.00030852034 0.17094755 -0.004223255 -0.00041651953 0.008300891

model.4.weight f4 [256, 256]
00000000: be15 17bf efc9 cc39 3e0a 203a d236 bc3d
00000010: 3c36 02be 1f9e f0bd ccf3 f7bd dd45 b4bd
00000020: d4d2 bdba 0a1f babe 2efe 89ba 49e7 7abb
00000030: 5bd5 adba 9507 813e 9ace 76ba 24ea d1bd
00000040: 8858 3ab7 69a6 923a a554 d5ba 41f4 283e
00000050: 3aec 603e a90e 75c0 8847 afb9 02f7 853a
00000060: d144 bd3e 502e 33be a7be 19bf 96e5 493a
00000070: cf63 4f3d d1d3 f53d 0427 203e 9297 f3bc
00000080: b7c5 b3b8 98d8 e839 26f6 e3bc ac07 1b3d
00000090: 6609 e638 d9f9 043a fc46 fbb9 5f1a 203e
000000a0: f2a1 e33d c61f f4ba f955 6f3e 8947 96bd
000000b0: 283d 4c39 534f 1b3b 3d07 673a ab55 1b3a
000000c0: 0214 483c 24ef f03d 39c7 1bbe fbc7 d73c
000000d0: 8af0 fcbc 4d05 10bd 7602 dabc 7f26 0c3a
000000e0: 385d 4d3d 177e acba 58b1 6b3d 9ce8 613d
000000f0: 8195 f439 7d55 c03d 3b30 2f3e 7c03 bd3e
00000100: 4b07 df3a 746d 6c3a 8d70 f33d 733f ea3d
00000110: 17ef d73d 0d75 e83e ae9d 263e 133d 2a3a
00000120: 1b1c fcbd 2d77 1b3e 72ea 3f3e 27f7 d139
00000130: 2bec 843d e6fd babf 7806 ccb9 6be6 be3d
00000140: 01bb ef3e 10d5 80bd 895b 063e 9690 8cba
00000150: ffc3 64b9 0b41 a2be 3c30 9cba 3796 383a
00000160: 1876 69bc 1c97 ac3a 48e1 debe 02d8 13be
00000170: 46c6 2f3e 199d f93d 95e1 f0ba 2cd8 94bd
00000180: 1339 29ba 037b d1be 1c71 a1b9 ac7e a83d
00000190: ba63 b13d bb28 f0b9 8bd4 933e a59c 563a
000001a0: a5b5 523a 02db 8a3c b096 c83d 0885 0fbe
000001b0: f515 fc3d b4ba 363c 4538 c1bd b642 02bc
000001c0: e5d1 a23e d13f 80bc 543f 23bc e19d 313a
000001d0: fbd8 033f 950c 363a e0df 0b3f 0253 3739
000001e0: 2bb0 b83c e195 a13a 90f1 8d3d 7e11 0139
000001f0: d6be 6c3a ce87 89ba c0cb 1ebe 45f2 15c0
00000200: 71f0 62be 2db7 8c3a 35b2 003e 123c cbc0
00000210: 0c53 52be 9254 6a3e cb16 1ebe 0a65 7c38
00000220: 291e 383f 60ee 1f3b b2ca 4d3d 4186 3ab9
00000230: 1c8f b13d 1829 1c3d bca6 28ba 18cd 1eb9
00000240: 783a be3e 2689 3eba 54a1 f2be ba32 403e
00000250: 8eb3 0d3f a47e b0b8 b850 643c dd76 60ba
00000260: 1bf4 393d 47f2 963b 2b60 b73d c4b4 30ba
00000270: 7ff8 f6bb e00c bab9 8eca 95be e312 72ba
00000280: f45f 5eba b8e7 133e 8195 913d c7e4 09ba
00000290: 9fec 873e 96eb 483a 6b4d 323a 0fb1 913d
000002a0: 7e34 a13d 72eb ffbd a77e af39 149a 7abc
000002b0: 040d 36be fae0 8fba 575c 933a 85a3 6bbc
000002c0: 7bd9 b73c 1287 7f3e b7c9 ef3d 6205 8e3e
000002d0: 2ac7 333d bf49 4abf 6bfe 1339 2f8a 083e
000002e0: 0c02 99b9 6666 813c 9dfc beb9 bd55 c3bc
000002f0: cc27 123a 68df 663e 8d49 3f3e 0c23 ce3d
00000300: e1b7 903c 7162 c338 9399 253e af3c 413e
00000310: 1997 173e 90ac de3d 0506 b53d c68c db39
00000320: 4d07 85be 8bb2 34ba 174a a239 be3d 3e3e
00000330: de8c bf3e 0a47 ddbd 43af 83c0 305a 7dbd
00000340: c8e7 fb3d 8049 3f3c a2b9 bfb9 294a b8b9
00000350: 27f8 dabd ba8c 1ebe 5888 f8ba 8eb2 dcbc
00000360: 0ec1 34bb 4579 d3b9 dc0c 5bb9 fcb3 e53a
00000370: 79c7 84bb 7d2e 853a 88f7 afbe 1908 26ba
00000380: 45b3 003f cb7c c1be e437 0e3e c252 7c3a
00000390: cda3 8fbc cfc4 cd3a 0828 88be e51d d5bb
000003a0: b289 4e3a 01c8 5f3e a2cf 8dba 4c07 af3e
000003b0: 6a12 c63d e55c 76be 0727 5bba f93e 8d3b
000003c0: 6290 3b3e 43f5 763c afad 3e3d ad28 1f3e
000003d0: 8fd4 433e bf49 a9ba 7824 803a f931 a83a
000003e0: 3656 95be 5f55 c73a 9a8e 113d 5ad9 603a
000003f0: e725 2cbd 7b01 53ba de95 fbba 0da7 d43d
-0.5901755 0.00039060364 0.0006105042 0.09190144 -0.12716001 -0.11748909 -0.121070474 -0.08802388
-0.0014482387 -0.36351806 -0.0010528022 -0.003828483 -0.0013262437 0.25201097 -0.00094149413 -0.10249737
-1.1107077e-05 0.001118851 -0.0016275836 0.16499425 0.21965113 -3.8290198 -0.00033431896 0.0010220709
0.36966565 -0.17498136 -0.6005654 0.00077017525 0.050632294 0.120032914 0.15639883 -0.02973536
-8.5722124e-05 0.00044411863 -0.027827334 0.037849113 0.00010969005 0.00050726306 -0.00047927338 0.1563506
0.11114873 -0.0018625192 0.2337264 -0.07337863 0.00019477739 0.0023698404 0.0008813029 0.0005925546
0.0122118015 0.117643625 -0.15212716 0.026340475 -0.030876417 -0.035161305 -0.026612502 0.00053463125
0.05013773 -0.0013160136 0.057542175 0.055153474 0.00046650696 0.093913056 0.17108242 0.3691672
0.0017015723 0.00090189953 0.11886702 0.11437883 0.1054365 0.45401803 0.16271088 0.0006494086
-0.12310048 0.1518218 0.18741778 0.0004004773 0.06490358 -1.4608734 -0.00038914732 0.093212925
0.4682236 -0.062906384 0.13120855 -0.0010724242 -0.00021816789 -0.3169025 -0.001191623 0.0007041427
-0.014249347 0.0013167593 -0.4353125 -0.14437869 0.17165479 0.12188167 -0.0018377776 -0.07267794
-0.0006455343 -0.40914163 -0.00030792586 0.08227286 0.086615995 -0.00045806714 0.28873095 0.0008186794
0.00080379314 0.016950134 0.09794366 -0.14015591 0.123088755 0.011152912 -0.09434561 -0.007950475
0.31800762 -0.01565543 -0.009963829 0.000677554 0.5150296 0.0006944624 0.5463848 0.00017483163
0.022544941 0.0012327993 0.0693084 0.00012308915 0.00090311223 -0.0010492743 -0.15507412 -2.342912
-0.22162034 0.0010735743 0.1256798 -6.351083 -0.20539492 0.22883824 -0.15438382 6.0175582e-05
0.7192102 0.0024403557 0.050242133 -0.00017788356 0.08669874 0.038125128 -0.0006433537 -0.00015144458
0.37153983 -0.00072683615 -0.4738871 0.1876935 0.55352104 -8.415923e-05 0.0139352605 -0.0008562634
0.045398813 0.0046065184 0.089538895 -0.00067408034 -0.0075369473 -0.00035486277 -0.292561 -0.0009234382
-0.0008482926 0.14443862 0.07108594 -0.0005260226 0.26547715 0.00076644996 0.00068016973 0.07113849
0.0787134 -0.124960795 0.00033472964 -0.015295524 -0.17778403 -0.0010977082 0.0011242729 -0.014382248
0.02244257 0.24953869 0.11708396 0.27738482 0.04389111 -0.7901878 0.0001411379 0.13333963
-0.0002918396 0.015795898 -0.00036427836 -0.023844594 0.0005575388 0.2254616 0.18680401 0.100652784
0.017665805 9.316661e-05 0.16171865 0.18870805 0.14803733 0.108727574 0.08839039 0.0004187582
-0.25982133 -0.000689306 0.0003095425 0.1857824 0.3741216 -0.10804565 -4.1151443 -0.061853588
0.12300068 0.011675239 -0.00036568666 -0.00035150468 -0.106918626 -0.1548337 -0.0018961532 -0.02694061
-0.002758089 -0.0004033541 -0.00020890258 0.0017524953 -0.0040520993 0.0010160949 -0.3436854 -0.0006333604
0.50273544 -0.37790522 0.13888508 0.0009625369 -0.017534161 0.0015698912 -0.2659304 -0.006503808
0.00078787946 0.21853639 -0.0010819326 0.34185255 0.09671481 -0.24058874 -0.00083600025 0.0043104854
0.18316796 0.015073123 0.046552356 0.1554286 0.19124053 -0.0012915655 0.0009776494 0.0012832276
-0.29167336 0.0015207938 0.035536386 0.000857731 -0.042028334 -0.0008049232 -0.0019194444 0.10383425

model.4.bias f4 [256]
00000000: 47fd ea3d d590 863e 0cac dbb9 1f16 c23c
00000010: e214 d3bc 60fc e43d 4af4 ed3d ff4f 063d
00000020: ad6b 91bd 410d 84bb 0453 a7b9 f9c8 67bb
00000030: e7ae e73d 2b0e f7b9 47bf eebc 2b26 24bc
00000040: 7cee 9c3d 2812 48ba 01e1 9cba aa6b cebd
00000050: 45fe d73d 2ec6 9bbc 98ec 193d 36ec 29be
00000060: 98fd cdb9 6cb6 593e 2b96 bcbb f4f8 953e
00000070: 2dc1 a93d 4cb9 84bc 70fd 18bf 24c6 853d
00000080: 560c 943d 37ff ffbd 8c1f 07ba 3ec0 34ba
00000090: 563f dd3c 655c 183e fbe6 883b fc35 283e
000000a0: b496 0e3e 74d2 843d 673b 9b3c 6020 e93d
000000b0: 08cf 75bd 0f9b 773d cc12 32ba 7667 89b9
000000c0: 7f10 3abb e4cd b83d edcf dfbd f236 de3c
000000d0: c572 1e3e 8e43 28ba 6970 5ab9 13a1 98ba
000000e0: 9194 0cbc 2ed2 2ebc 7e2c 0f3b e437 b3bc
000000f0: a296 54ba 6ce0 d6bc ec36 08bd f48e 21bb
00000100: 08b8 12ba 25e6 ccb9 f93b 703d 11f6 d93c
00000110: 261a 3fbc 2ee3 3dbd 8d3b dfbd 4fb0 22bb
00000120: d18d 92bd 4121 cbbb e531 39ba e2f4 09bd
00000130: c56f c5bd 4161 1dba 60e0 373c 5d94 01ba
00000140: 8448 873d 4c0e ffbd e38b b43d 500f 86ba
00000150: 1acd 843d ebdf dfbd 3eba 4abd d41b 2bbe
00000160: f66d fdb9 3b4a cfb9 55f1 9ebc ee29 713e
00000170: f36a 123c 6d3d 83bb 3b0a f2bc b0d8 c9b9
00000180: a518 e63d 6888 2fbc fda6 2b3d 7762 6c3e
00000190: 1c27 003d 5baf 09bc 1416 66bb 9ae8 0fba
000001a0: da32 59ba 602e 953e 2e26 a5ba a85b 5bb9
000001b0: 1046 03ba 685a 933d 1651 5bbc 1114 4d3d
000001c0: e7fd 88b9 a680 e63d c74a 4dbc 4e0b 45ba
000001d0: b605 5cba 4d1a 8d3d a903 323c 85a3 73bb
000001e0: fd0b 223e 154b 76bc 5a7f e63d 6af6 b4bd
000001f0: b9d9 6a3c 66f9 bd3d 9a7e 9ebc cdc1 3bbd
00000200: 694a 0cbc 7747 44ba 589f e63d 1828 13bc
00000210: 5017 f7bd fe2f f03c ce60 e63d e805 a9bd
00000220: f950 99ba d2ec b43d 7b28 91bb 2688 0fba
00000230: ea84 793e e7cc d7ba 02c4 1fbb ac4f 003e
00000240: 98ea ffb9 b5a9 79ba d074 643e 1303 98b9
00000250: 1df6 04ba cc6b 34ba c77c 9cba f046 3bba
00000260: 7fe2 553d d970 c93c d29b 8b3d 9308 47bb
00000270: 6d83 17bb 8f97 823e 0304 ffb9 656d 0e3e
00000280: a936 293e 3bf4 333c 16d0 203e db8f 03ba
00000290: 1f7f 24be 26a2 7dbd e866 1d3e 79c6 23ba
000002a0: 660e e53d dc48 28bc d320 743e 139f 0d3e
000002b0: d5af 863e 5522 ecbd 856b 76bc 7256 d5b9
000002c0: 38d5 9cbc 7c4c f3bb 7fa0 733e d095 dab9
000002d0: 2b55 31bd 601b 2bbe 4c6e 233d d99f 9e3d
000002e0: b89e 3d3c 0c5d e1bd edc1 ce3d 8d57 b5bc
000002f0: 9ff1 cbba a1f7 bfb9 6cf8 f5b9 58bb 18ba
00000300: 6beb 9e3d 2399 35bd 5d69 603c d18c d5bb
00000310: dbe4 06be b659 92ba c4d6 d6bd f537 083d
00000320: 2c23 3b3d 7dee 6f3b cc89 32ba aa89 273d
00000330: fd3e 93ba f2d4 cfbd b98e 7bba 8b98 abba
00000340: c3ef e43d ea41 c8b9 5b71 40ba c2cf 02ba
00000350: 65b3 0dbd 46db afbc 0249 cf3c 7f7e cbb9
00000360: 4ae2 3aba 22b7 1d3e 3f49 89bd b17c 48bc
00000370: 6f73 293e dcd4 943d ba0a b4ba 5480 35be
00000380: ae66 f3bb 5f86 053c 162b b1bb 2fcb 56bc
00000390: befb a63d d090 02ba fc91 eabc 75f2 91bc
000003a0: 0c8e 1d3c e3b8 043c fc27 5fba c767 2cbb
000003b0: f8d4 48bb 80a0 823e 3815 3cbc 7e3b 91bc
000003c0: 7426 1d3e 989c c8b9 56ba adba 11b3 3b3d
000003d0: b0e8 213c 9d8f 82bb 9487 e63d 548f f2bb
000003e0: 6234 01bc 24cb b6bc 9f0d 7cbc e816 deb9
000003f0: f6e3 e73d 6d77 adbd 7e30 693e dea4 c1bc
0.1147409 0.26282373 -0.0004189912 0.023692189 -0.025766794 0.11180949 0.1161886 0.032791134
-0.07100616 -0.0040299003 -0.00031914574 -0.0035367592 0.11312657 -0.00047122067 -0.029143943 -0.010018866
0.07662675 -0.00076321 -0.0011968912 -0.10079129 0.10546545 -0.019015398 0.03757915 -0.16594014
-0.0003928959 0.21260995 -0.005755206 0.292915 0.082887985 -0.016201638 -0.59761715 0.06531933
0.072289154 -0.1249985 -0.0005154542 -0.00068951014 0.02700774 0.14878996 0.0041779256 0.16426843
0.13924676 0.06485453 0.018949224 0.11383128 -0.060011894 0.06045061 -0.0006792962 -0.0002620776
-0.002839118 0.090236455 -0.109283306 0.02712581 0.15473469 -0.0006418758 -0.00020831976 -0.0011644684
-0.008580343 -0.010670228 0.0021846588 -0.021877237 -0.0008109604 -0.02623006 -0.033255503 -0.0024651857
-0.0005596881 -0.00039081383 0.058650944 0.026606591 -0.011663949 -0.046359234 -0.1090003 -0.0024824326
-0.071559556 -0.0061990325 -0.0007064625 -0.033680804 -0.09640459 -0.00060035667 0.011222929 -0.00049430673
0.06605628 -0.12453899 0.08815744 -0.0010227952 0.064844325 -0.10931381 -0.04949402 -0.16709834
-0.00048337848 -0.00039537423 -0.019402185 0.23551151 0.0089366315 -0.0040051253 -0.029545894 -0.00038499152
0.11235169 -0.010713674 0.0419073 0.23084436 0.031287298 -0.008403624 -0.0035108374 -0.00054896774
-0.00082854705 0.29136944 -0.0012599879 -0.00020919612 -0.00050076935 0.07194978 -0.013386032 0.050067965
-0.00026129113 0.112550065 -0.012530035 -0.0007516638 -0.0008393185 0.06889782 0.01086513 -0.0037176323
0.15824886 -0.015032549 0.11254759 -0.08836062 0.014334136 0.092760846 -0.019347478 -0.04583912
-0.008562663 -0.0007487456 0.11260861 -0.008981727 -0.120649934 0.02931976 0.11248933 -0.0825308
-0.0011697105 0.088342324 -0.0044298745 -0.0005475305 0.24367109 -0.0016464264 -0.0024378304 0.12530392
-0.00048812176 -0.00095238845 0.22310185 -0.0002899399 -0.0005072074 -0.0006882518 -0.0011939042 -0.00071440544
0.052217957 0.024589943 0.0681683 -0.00303701 -0.0023119107 0.25506255 -0.0004864038 0.13908918
0.16524757 0.010983522 0.15704378 -0.00050186896 -0.16064118 -0.061922215 0.15371287 -0.0006247531
0.11184387 -0.010271277 0.23840646 0.13830213 0.26306024 -0.11529986 -0.015040283 -0.00040690933
-0.01914464 -0.007424889 0.23791693 -0.0004169182 -0.043294113 -0.16709661 0.03990011 0.07745332
0.011573486 -0.110040754 0.10095582 -0.022136474 -0.001555968 -0.00036614857 -0.0004691513 -0.0005826256
0.07759746 -0.044335496 0.013696996 -0.0065170308 -0.13173239 -0.0011165652 -0.10490182 0.03325649
0.04568784 0.0036610656 -0.00068106945 0.04090277 -0.0011233982 -0.10148038 -0.00095961575 -0.0013091726
0.111785434 -0.00038196082 -0.000734111 -0.0004990065 -0.034594912 -0.021466862 0.025303368 -0.00038813424
-0.00071290566 0.15401891 -0.06703424 -0.01223676 0.1654794 0.07267162 -0.0013736107 -0.17724735
-0.007428012 0.008149712 -0.0054067476 -0.013109966 0.08153485 -0.0004980685 -0.028634064 -0.017815808
0.009616386 0.008100721 -0.0008512733 -0.0026306973 -0.0030644517 0.25513077 -0.011479668 -0.017728563
0.153467 -0.00038263644 -0.0013254385 0.045825068 0.009882137 -0.003984405 0.11256328 -0.00740234
-0.007886024 -0.022313662 -0.015384107 -0.00042360206 0.11322777 -0.08470044 0.22772405 -0.023638185

model.6.weight f4 [1, 256]
00000000: c2bf d53e cfeb 5a3e 575a 9f39 7bb2 9cbf
00000010: 1b14 2cbc b4a4 973e b3f9 e13e da8b 2cbf
00000020: dff3 41c0 91eb 6839 ee87 283a d246 373b
00000030: ce45 983e dad2 d3b8 2348 24bf 7787 d53b
00000040: afdf 32bf 64a5 053a 47b8 ac38 2414 95bf
00000050: 19fc 2fbf 2aee 2ac0 dcaf 5ec0 6f98 1fbf
00000060: 7722 8aba b8fb 253f 4b62 063b adb4 d03e
00000070: 092c 533e 91ef 38bf 430f 62c0 fdc3 20c0
00000080: 6da6 d6bf 6224 3e40 1f7c a8b7 91ba 6139
00000090: 11fe 38c0 2f5c 2c40 329b 69bf 1c35 103f
000000a0: 86d5 203f 0390 fabf 9f5b aabf 0366 223f
000000b0: 2bd8 3fbf 0a83 333e 8bfd d039 c636 7d3a
000000c0: 3665 aaba d3f1 b7bf 326b 69c0 571c 10be
000000d0: 97ff 583f 1aa7 4f3a d71d 463a 58e4 84ba
000000e0: e180 c7bf 29c4 863b 2d55 80c0 1a12 e4bf
000000f0: ba9e 103a eda1 1dc0 cfb8 2cbf 84e0 6fc0
00000100: dee1 213b 4ac2 2b39 a1d2 48bf 9954 4fc1
00000110: c663 96bb b68d 19bf f18d 24c0 3290 38bf
00000120: 97c0 dcbf d671 cb3b 3300 da38 b80d 393b
00000130: b870 51c0 404f 883a 0eeb 8c40 c4b9 71ba
00000140: afdb 403d 0a2e 75c0 7d3e c1bf 7fc3 1f3a
00000150: 9888 4dc0 bc3a 05bf 9315 94bf 9a7e 74c0
00000160: 6a73 1f3a ae8a 183a 84cd 60c0 8337 2f3e
00000170: 1674 46c0 214c 8eb6 d69a a2bc c3ed c838
00000180: 3c24 fe3e 9f3c bc3b 2d75 a6be 8493 283e
00000190: 0985 9bbf 1e8f 69bf 6056 0f3b 86a0 af39
000001a0: 1f5d 0139 5d64 bf3e 1928 9d39 1734 ab39
000001b0: 8ec1 5f39 ad54 36c1 38c7 47ba c1ae 36bf
000001c0: 7110 d0ba d83b fe3e 8249 42c1 e6d6 183b
000001d0: aeb2 8338 ca76 4ac0 8849 fec0 e4d8 7bbf
000001e0: 8104 34c0 c93b 7dbf 00e3 973e 4d09 04c0
000001f0: 8031 9cbf d07e 1740 99be f0c0 a5ab 42c0
00000200: 0464 c43b 285f 5039 3810 9f3e 2903 78bf
00000210: 3516 80c0 81f0 e5bf 3bbf db3e e1cf 53c0
00000220: b658 983a 77dd 753e 0db1 3eb9 58dd 853a
00000230: 092c 3d3e 25df f139 ce3c 623a 15b4 b53e
00000240: 9257 8e3a c92f 263a 1ce0 823e 0e39 9eb9
00000250: 821f 093a 721e 8838 ee51 303a 7e82 423a
00000260: ec92 82be eab4 25bd f914 9abf be1e e339
00000270: c1f1 9439 68a9 4c3e 4bc2 b636 6bf4 9b3f
00000280: 0d67 113f c02c 7240 85cd 873e b6bc ca3a
00000290: 7070 84be 1412 4bbf 27b1 af3e 9a25 e339
000002a0: 759a 973e cdd9 3fc0 c82c 333e 1871 9c3f
000002b0: 92f2 5b3e 2bf0 8340 3f7f 6d3a c450 303b
000002c0: eb61 3dc1 c540 a0ba 3ee5 323e 95d0 8038
000002d0: 6a63 1fc0 df5c ddbe ccf1 36bf 810f 81bf
000002e0: d959 b0bf 25f4 23c0 3952 1fbf 454b 763c
000002f0: 7780 6a3a 20fc 7d39 3d3c ed39 95d0 8eba
00000300: 0dbf 5dc0 55e9 f9bf 0e7b 80bf 6544 ad3a
00000310: f738 6cc0 9232 e839 d8b0 d0bf 6592 f43f
00000320: 2e61 9abf 45e8 a9bf e726 533a 9a16 1ac0
00000330: 50e4 30ba 863f 35c0 a273 513a a8ac e039
00000340: c177 973e d089 c339 43a5 b7b7 5c2f d538
00000350: 2de6 9c40 858f 743c ccba 42c0 0557 bd39
00000360: d84b d439 4084 b13e 7ae8 aec0 aff9 9e3b
00000370: be1c 273f cbcf a33d a7fe 29c0 792e 2ac0
00000380: 4b64 44ba a83a 29bf 7a2d 7e3b 53f5 da3a
00000390: 2857 b2bf c72d db39 a5e8 dabf 300d b0bf
000003a0: 40f1 92bf c04c 24c0 743d f439 9f09 e2bf
000003b0: a630 0339 36c9 923e 4311 cb3b 8348 4fb7
000003c0: afe8 af3e 57aa 0d39 1d27 dd3a a292 36bf
000003d0: 9761 7f40 2aba 2a3a 5878 973e df2a d2c0
000003e0: 9bd9 5cbb 0e89 eb3b b3e3 b03b f162 913a
000003f0: 3b24 bfc0 570a 1740 b8c0 233e 6edf 18bf
0.41747862 0.21379016 0.00030394152 -1.2241968 -0.01050284 0.29617846 0.44135818 -0.67400897
-3.0305097 0.00022213 0.00064289465 0.0027965796 0.29740757 -0.00010100538 -0.6417257 0.006516393
-0.69872564 0.00050981925 8.2359235e-05 -1.1646771 -0.68744045 -2.6707864 -3.4794836 -0.6234197
-0.0010538836 0.6483722 0.0020505365 0.40762845 0.20622267 -0.7224055 -3.5321815 -2.5119622
-1.6769539 2.9709706 -2.0084959e-05 0.00021527174 -2.890507 2.6931264 -0.91252434 0.5633104
0.6282581 -1.9575199 -1.330921 0.6343691 -0.7493922 0.17530456 0.00039861756 0.0009659346
-0.0013000134 -1.4370674 -3.6471677 -0.14073311 0.84765 0.00079213234 0.0007557547 -0.0010138853
-1.5586206 0.0041127396 -4.0103974 -1.7818024 0.0005516816 -2.4630082 -0.67469496 -3.7480783
0.0024701278 0.00016380209 -0.78446394 -12.958154 -0.0045895306 -0.5998186 -2.5711634 -0.72095025
-1.7246274 0.0062086387 0.00010395087 0.0028236937 -3.2725048 0.0010399595 4.403693 -0.00092211016
0.047084507 -3.830935 -1.5097195 0.00060945 -3.211462 -0.52042747 -1.1569084 -3.8202271
0.00060825667 0.0005819005 -3.5125437 0.1711102 -3.1008353 -4.2407924e-06 -0.019849222 9.58103e-05
0.4963702 0.0057445313 -0.32511273 0.16462523 -1.2149974 -0.91234004 0.0021871552 0.000334982
0.00012337089 0.3738126 0.0002997525 0.00032654472 0.00021339042 -11.395673 -0.00076209335 -0.71360403
-0.001587404 0.49655032 -12.142946 0.0023321449 6.2798485e-05 -3.1635003 -7.946476 -0.98377824
-2.812775 -0.9891935 0.29665375 -2.0630677 -1.2202606 2.367115 -7.5232663 -3.0417264
0.005993368 0.00019871874 0.3106706 -0.9687982 -4.002711 -1.7964021 0.42919335 -3.309563
0.0011623118 0.24010263 -0.00018185769 0.001021306 0.1847383 0.00046133358 0.00086302764 0.35488954
0.0010859838 0.0006339518 0.25561607 -0.00030178617 0.000523083 6.490656e-05 0.00067260757 0.00074199575
-0.25502717 -0.040455736 -1.203765 0.0004331972 0.0002840888 0.19986498 5.4466414e-06 1.2183965
0.5679787 3.7839813 0.26523986 0.0015467617 -0.25867033 -0.7932446 0.34314844 0.0004332483
0.2961003 -2.9976685 0.17497551 1.2222013 0.21479252 4.1230674 0.00090597937 0.0026903609
-11.836406 -0.0012226334 0.17470261 6.142367e-05 -2.4904428 -0.43234918 -0.714627 -1.0082856
-1.3777419 -2.5617764 -0.62234837 0.015032594 0.00089455344 0.00024221884 0.00045249044 -0.0010895903
-3.4647858 -1.9524332 -1.0037553 0.0013219236 -3.6909769 0.00044288166 -1.6303968 1.9107176
-1.2060907 -1.3274008 0.0008054808 -2.4076295 -0.00067478884 -2.8320022 0.0007989948 0.00042853248
0.29583552 0.00037295977 -2.1892256e-05 0.00010165453 4.9030976 0.014926796 -3.0426512 0.00036113724
0.000404923 0.3467121 -5.4658785 0.004851542 0.6527823 0.07998618 -2.6561677 -2.6590865
-0.00074917515 -0.6610513 0.003878443 0.0016705192 -1.3932848 0.00041805042 -1.7102247 -1.3754025
-1.1479874 -2.5671844 0.00046585093 -1.7659186 0.00012511257 0.28669137 0.006197126 -1.2355044e-05
0.3435721 0.00013510264 0.0016872619 -0.71317494 3.9903314 0.0006512726 0.29584002 -6.5677333
-0.003369904 0.007187969 0.0053982376 0.0011092109 -5.9731727 2.360006 0.15991485 -0.59715927
