Models/Bloom_filter/result/model-dict-55.pt (torch, 533323 bytes, 7 tensors)

model.0.weight f4 [256, 2]
000000 14 33 9e bb 92 93 83 b9 8b f5 fd ba 32 25 f4 39
       -0.0048278663 -0.00025096216 -0.0019375546 0.0004656702
000010 5e e1 08 3b 97 37 12 3a 92 be c6 bb 13 4b aa bb
       0.0020886282 0.00055777415 -0.006065198 -0.005196938
000020 43 e3 50 bb 06 15 ea bb 4a 90 54 bc 58 6a cc 3b
       -0.003187374 -0.0071436195 -0.012973854 0.006238263
000030 38 bb 0f bf 72 8e 34 bd 32 58 06 3a ed 5c 9f bb
       -0.5614505 -0.04408116 0.00051248365 -0.0048633725
000040 e9 5e 9d be 31 7f d1 3e bc a6 43 bb 9c 7b b4 3a
       -0.30736473 0.40917352 -0.002985402 0.0013769749
000050 45 9e 28 bd a1 22 ef 3e 4e 1f 16 bb 38 2c 9d ba
       -0.041166563 0.46706107 -0.0022906843 -0.0011991328
000060 bb 6a c7 bf 89 89 09 3e 64 fc cb ba 73 b7 a5 3a
       -1.5579447 0.13431372 -0.0015562889 0.0012643173
000070 95 fa b9 ba 59 0d 61 3b 50 ac 57 bb 49 57 ee 3a
       -0.0014189059 0.0034340231 -0.0032909103 0.0018183972
000080 aa b0 88 bc 31 86 1e 3c 4d 17 52 bb d0 47 83 ba
       -0.016685802 0.009675548 -0.0032057345 -0.0010015909
000090 aa 32 43 bb 48 c7 a8 3a 20 c3 3e bb 8f 93 a9 3a
       -0.0029784837 0.0012876773 -0.0029108003 0.0012937653
0000a0 3a 7a f3 bb a9 aa 95 3b 46 22 22 bb 73 a5 aa 38
       -0.007430342 0.0045674634 -0.0024739667 8.137049e-05
0000b0 a2 ba 4e bb 01 f7 9e bb 42 9f 71 be 8c cf 3b bf
       -0.0031544347 -0.0048512225 -0.23595908 -0.73363566
0000c0 fa 44 fc ba 06 bc 16 3b a1 ac 3b 3b 36 be 38 3b
       -0.0019246631 0.0023000254 0.002863683 0.0028189546
0000d0 83 a5 97 bb 63 22 cd ba 67 11 2a bf 50 9f 2e 3e
       -0.004627885 -0.0015650507 -0.66432804 0.1705296
0000e0 59 de 1c bb e1 67 c3 ba 10 3b 2f bb ec b4 17 3a
       -0.002393624 -0.0014908278 -0.0026738085 0.00057871523
0000f0 3c 49 d6 bb 95 48 b7 ba a7 21 37 3d dd 5a 6c bf
       -0.006539492 -0.0013983423 0.044709828 -0.92326146
000100 91 48 b7 3e dc 41 d2 bf 75 dc 90 3e af f6 95 be
       0.3579755 -1.6426349 0.28293195 -0.29289767
000110 f8 04 85 39 59 93 65 bc ff ba b8 3a 62 57 22 bb
       0.0002537144 -0.014012181 0.0014093815 -0.0024771322
000120 19 87 da 3a 8f e0 76 bb ca f1 39 bb 36 82 04 bc
       0.0016672342 -0.0037670468 -0.0028372877 -0.008087685
000130 c3 0a 92 3e 22 8d ef 3d d4 98 23 bb f1 28 c2 bb
       0.28523836 0.11696841 -0.0024962919 -0.0059252908
000140 bc 7e 89 3e 31 99 fd bd 8d 77 87 3e 47 97 ec bd
       0.26854503 -0.123827346 0.26458398 -0.11552291
000150 28 8b d5 ba e7 4f d2 b9 d0 65 09 3d 71 79 2e bd
       -0.0016292082 -0.00040113853 0.03354436 -0.042596284
000160 2d f8 79 ba ed 4f 9f bb 0e 4b 56 bb bd e5 84 b9
       -0.0009535577 -0.004861823 -0.0032698545 -0.0002534817
000170 a7 dd 14 b8 b8 73 b8 ba ba 13 1d 3b 59 16 1b bb
       -3.549238e-05 -0.0014072573 0.0023968057 -0.0023664443
000180 d0 84 81 3b a8 be b0 3a f7 cf b3 3a 94 3b 91 bb
       0.0039526 0.0013484554 0.0013718595 -0.004432151
000190 7a 8a 6b ba 1b 60 ad b9 7b 14 02 bc ec 25 da 3b
       -0.0008985173 -0.00033068736 -0.007939453 0.0066573527
0001a0 83 20 40 be 51 d0 b7 3e 50 da 1b bc dc d4 8e b8
       -0.18762402 0.3590112 -0.009512499 -6.810736e-05
0001b0 c3 14 46 be 37 c2 41 bf 18 e5 e7 b9 4e 5d ba b9
       -0.19343857 -0.75686973 -0.00044230442 -0.00035546202
0001c0 e8 10 a1 3e ee 1b 47 3d 75 dd 64 3a 5c 44 9d ba
       0.3145821 0.04861062 0.00087305094 -0.0011998522
0001d0 10 e6 56 bb dc 14 13 bb d8 02 8d 3e 56 60 d2 bd
       -0.0032790937 -0.0022442853 0.27541232 -0.10272281
0001e0 11 44 52 b9 d4 53 98 39 4a 40 5a ba 9f 4b a5 ba
       -0.00020052517 0.00029054156 -0.000832562 -0.0012611038
0001f0 5c 40 c9 3a 85 70 26 3b 9f d9 93 bb 65 1a ea bb
       0.0015354264 0.0025396657 -0.0045120264 -0.0071442598
000200 8f 56 24 bb ff 3e 48 3a a1 71 48 bb 01 11 62 ba
       -0.0025076007 0.00076387817 -0.0030585306 -0.00086237496
000210 9e 99 d7 ba f7 53 b7 bb 51 1f d6 be 53 7f 1a bd
       -0.001644898 -0.005594726 -0.41820768 -0.037719082
000220 0e d2 99 3e 9d 4b 0c be 7a 70 8a 3e 49 01 2d 3e
       0.30043072 -0.13700719 0.27038938 0.16895021
000230 03 43 2e bb 2e 43 a6 bb 04 45 8f ba 5b b1 4e ba
       -0.0026590235 -0.0050739264 -0.0010930602 -0.00078847044
000240 2f 78 16 bb 69 5d d4 b9 13 82 43 39 e8 76 fc bb
       -0.0022959819 -0.00040505387 0.00018645106 -0.0077046044
000250 45 10 a4 ba 8a ee 84 ba 99 b1 04 be f6 1a cb 3e
       -0.0012517056 -0.0010141891 -0.12958373 0.39669007
000260 4a 50 89 3e 94 05 75 be f5 d7 74 3e 5e 0a b8 be
       0.26819068 -0.23927909 0.23910506 -0.3594541
000270 ab ff ba 3a f5 f3 a3 b9 a8 65 ec b9 ac f8 85 ba
       0.0014266869 -0.00031271545 -0.00045089168 -0.0010221205
000280 a1 0b 18 3a 4a e4 1a bb 45 96 e2 ba 9e 54 ee ba
       0.00058000727 -0.0023634606 -0.0017287215 -0.0018183177
000290 14 90 8d 3e 1a eb ac be 9e 5e d5 be 4a 86 87 bd
       0.27648985 -0.33773118 -0.4167375 -0.066174105
0002a0 ef 09 4e bf eb bb c8 be 2d e1 a3 ba 05 06 84 bb
       -0.8048391 -0.3920587 -0.0012503021 -0.004029038
0002b0 cc 4c 2b bd 7a 30 21 bf 28 c8 16 bb 06 cc 64 bb
       -0.041821286 -0.62964594 -0.0023007486 -0.0034911647
0002c0 ad 1f 5d ba 31 f3 e7 bb 5f 2c 5e bb 00 55 b6 ba
       -0.0008435201 -0.007078551 -0.003390096 -0.001391083
0002d0 fe 19 4d 3a 8e 98 06 bb 7c e5 86 3e e8 aa f4 bd
       0.00078240025 -0.0020537707 0.26346958 -0.1194666
0002e0 a3 f3 19 bb 3c 20 22 3b 9f 78 96 3e 29 a2 63 be
       -0.0023491166 0.0024738451 0.29388902 -0.22229828
0002f0 a4 83 de 3b de d0 da 3b 39 09 4e bb c7 0a e4 3a
       0.006790595 0.006677731 -0.0031438603 0.0017398231
000300 3d f6 34 bb 15 a8 f5 ba 13 91 1f bb d7 4f 90 bb
       -0.002761259 -0.0018742109 -0.0024347946 -0.004404049
000310 e3 0f 84 3d 7b 03 27 bf da d8 bd b9 ae 54 03 3b
       0.06448343 -0.65239686 -0.00036210456 0.0020039487
000320 b9 be 90 3e f5 d1 96 be c1 31 ed bb 4e 76 6b 3b
       0.2827051 -0.2945706 -0.007238597 0.003592867
000330 3d 29 65 3e 45 48 ea be 34 31 7c ba 50 e1 67 3b
       0.22379012 -0.45758262 -0.0009620369 0.00353821
000340 01 60 07 bb 10 ca fa 38 a5 ac 8f bd 90 df 8f 3e
       -0.0020656588 0.00011958566 -0.07015351 0.28100252
000350 3c 13 36 bb bd 39 92 39 c3 9d 09 bb dd a4 a7 3a
       -0.002778246 0.00027890308 -0.0020998574 0.0012790222
000360 06 54 eb be 8d 4a c2 3e 8f e3 29 be 87 57 77 3e
       -0.45962542 0.37947503 -0.16590713 0.24154483
000370 12 7a 09 ba 87 fe da ba 0c 97 21 bb 36 3e 07 bf
       -0.0005244325 -0.0016707935 -0.0024656681 -0.528293
000380 68 0e 7d bb af 21 79 3b b1 28 40 bb c8 ef 08 3b
       -0.0038613323 0.0038014462 -0.002932113 0.0020894874
000390 52 6e 55 3e cb bd f1 3d 0a f6 1f b8 49 68 9f bb
       0.20842865 0.11803778 -3.8137696e-05 -0.0048647267
0003a0 b1 d4 7a 3e af 4f 55 bf 27 89 b1 38 58 cd 4d 3a
       0.24495198 -0.8332471 8.465564e-05 0.0007850728
0003b0 f7 a1 28 ba e4 cb 85 bb 34 f9 02 bb 38 06 42 3b
       -0.0006432826 -0.0040831435 -0.0019984962 0.0029605757
0003c0 1d ac 27 bb f1 89 4d b9 2a 9d 42 bb 54 ba 29 bc
       -0.0025584765 -0.0001960171 -0.0029695728 -0.0103593655
0003d0 de 19 22 3b 4e 4d e6 bb b4 a6 d7 ba fd 1f 37 3b
       0.0024734656 -0.0070282584 -0.001645288 0.002794265
0003e0 5e 0d 83 3e d0 9d ab be 8e 48 7b 3a 70 d2 f6 bb
       0.25596136 -0.3351884 0.00095857016 -0.0075324103
0003f0 df 7c 0e 3e c2 b1 e1 be 13 17 17 bf c6 db 6f 3e
       0.13914822 -0.4408093 -0.59019583 0.2342368

model.0.bias f4 [256]
000000 00 00 00 00 1f 9d 1a bb a3 7d be bb 00 00 00 00
       0.0 -0.0023592187 -0.005813317 0.0
000010 00 00 00 00 28 dc 4e bb f4 cf 33 3e 31 66 0d ba
       0.0 -0.0031564329 0.17559797 -0.0005393951
000020 84 9f 24 bd c8 95 66 bb 75 a6 dd bd 00 00 00 00
       -0.04019119 -0.0035184491 -0.10822765 0.0
000030 cf 16 1a 3e 8f 88 c8 ba 5a 13 37 bb fd b8 7a bb
       0.15047763 -0.0015299487 -0.0027935118 -0.0038257234
000040 de 2a 22 bc 00 00 00 00 2a 60 61 bb 8c 03 cc b9
       -0.009897916 0.0 -0.0034389594 -0.00038912555
000050 c2 02 ac ba 25 71 20 ba 00 00 00 00 25 ad 49 3e
       -0.001312338 -0.00061203755 0.0 0.19694956
000060 49 df e1 ba 2a 97 30 bc 00 00 00 00 12 2a ce 3d
       -0.0017232682 -0.010778228 0.0 0.10066618
000070 00 00 00 00 c3 73 3e bb 00 00 00 00 8a 49 13 3e
       0.0 -0.0029060699 0.0 0.14383522
000080 a4 0b 9d bc 5a 4f 4e bd 99 41 54 b9 39 76 94 ba
       -0.01917059 -0.050368644 -0.00020242333 -0.0011326737
000090 47 88 bb ba 00 00 00 00 82 01 5f be 00 00 00 00
       -0.0014307582 0.0 -0.21777919 0.0
0000a0 f0 6d 18 be 51 17 18 be 00 00 00 00 a2 3b d5 bc
       -0.14885688 -0.14852645 0.0 -0.026029412
0000b0 27 75 30 bb 00 00 00 00 00 00 00 00 e2 26 54 bb
       -0.0026925297 0.0 0.0 -0.0032371809
0000c0 bb 66 af bb d2 a5 e3 ba 00 00 00 00 53 a1 78 bb
       -0.0053528226 -0.0017368144 0.0 -0.0037937954
0000d0 73 9e 52 bd 00 00 00 00 79 66 4a 3e a2 c2 0c 38
       -0.05142064 0.0 0.19765653 3.3559867e-05
0000e0 8e 75 0b be 41 fc 38 ba 00 00 00 00 60 23 2b be
       -0.13619062 -0.0007056632 0.0 -0.16712713
0000f0 24 a9 0a ba 00 00 00 00 92 29 86 bb e9 14 4f bb
       -0.0005289486 0.0 -0.004094311 -0.0031598157
000100 b1 4a 2c ba 00 00 00 00 f0 96 a0 b8 d5 5f 17 3e
       -0.0006572409 0.0 -7.657509e-05 0.14782651
000110 91 fc 87 bd 49 74 43 be 00 00 00 00 00 00 00 00
       -0.0663997 -0.19087328 0.0 0.0
000120 62 c3 0d bb 7d c5 1d b9 00 00 00 00 58 4f 01 be
       -0.002163135 -0.00015046257 0.0 -0.12627923
000130 ab 2c 8d bd 18 39 97 3c 16 6f aa ba 00 00 00 00
       -0.06893285 0.018459842 -0.0013003077 0.0
000140 e4 4a f4 b9 00 00 00 00 3d 22 17 bd 30 25 10 3e
       -0.00046595105 0.0 -0.036897887 0.14076686
000150 81 66 62 3e 00 00 00 00 70 40 1e 3e 00 00 00 00
       0.22109415 0.0 0.15454268 0.0
000160 00 00 00 00 00 00 00 00 4f b5 75 ba b5 c5 17 be
       0.0 0.0 -0.00093730254 -0.14821513
000170 a4 72 4f bb 16 6c d2 bd e5 24 c4 bc 09 13 16 ba
       -0.0031654024 -0.10274522 -0.023943374 -0.00057248824
000180 00 00 00 00 00 00 00 00 36 7e 13 3e eb 01 f9 ba
       0.0 0.0 0.14403614 -0.0018997764
000190 56 e3 51 bd c2 e3 04 bb 6b 95 db 3b 37 af 4c bb
       -0.051242195 -0.0020277356 0.0067011616 -0.0031232366
0001a0 fb cf 0b ba 20 8a 9e bd de 8d 8e b9 b6 0b c5 b9
       -0.00053334207 -0.07741189 -0.0002719005 -0.00037583493
0001b0 0f 6f 22 3d 2a 2b 3e bc a3 d6 bc 38 18 10 6b 3e
       0.039656695 -0.011606971 9.004518e-05 0.22955358
0001c0 76 3c 9a bb 9e a4 65 bb 84 77 75 be 00 00 00 00
       -0.0047069145 -0.0035040746 -0.23971373 0.0
0001d0 60 a1 da 3c 31 ef 63 ba f3 30 84 38 40 21 58 bb
       0.026688278 -0.0008695005 6.303368e-05 -0.0032978803
0001e0 c6 a0 05 bb e4 2b ce ba d9 c5 01 bb be 8d 0a bb
       -0.0020390018 -0.0015729633 -0.0019801764 -0.0021141614
0001f0 2f 5b 1d 3c 2b 9b 49 ba 07 52 1b 3e e7 2c 4a 3d
       0.009604259 -0.00076906633 0.1516801 0.04935923
000200 00 00 00 00 65 ce 83 be 00 00 00 00 00 00 00 00
       0.0 -0.25743404 0.0 0.0
000210 f9 01 dd 3c 75 81 d0 bd 41 d6 9f bb 00 00 00 00
       0.02697848 -0.10180942 -0.004877836 0.0
000220 2b eb 9d ba a6 6d 28 bc b1 04 4f 3e 07 03 2c 3e
       -0.0012048235 -0.0102800485 0.20216633 0.1679803
000230 93 7e 89 ba 90 ad 04 3a 00 00 00 00 c0 61 29 ba
       -0.0010489993 0.0005061263 0.0 -0.0006461404
000240 a5 b5 77 b9 b7 e8 52 bb ac 2b a6 bb 90 a1 8d bd
       -0.00023623423 -0.0032182166 -0.005071124 -0.06915581
000250 00 00 00 00 57 de c7 b9 be 2c 55 be 00 00 00 00
       0.0 -0.00038121894 -0.20817849 0.0
000260 a4 ad c0 b9 00 00 00 00 00 00 00 00 7f 82 73 be
       -0.00036750466 0.0 0.0 -0.23780249
000270 00 58 47 bb 08 50 59 ba 36 27 26 3e b2 10 14 3e
       -0.0030417442 -0.00082898187 0.16225895 0.14459494
000280 14 f2 b4 b9 5a 06 59 bd 27 29 a6 bd a4 6e 0a ba
       -0.00034512638 -0.052984573 -0.08113318 -0.0005280769
000290 5a 91 58 be c3 15 53 be 00 00 00 00 a5 b8 13 3e
       -0.21149197 -0.2061377 0.0 0.14425905
0002a0 3e 46 d0 ba 61 f8 55 bd 4e 23 75 bb 00 00 00 00
       -0.0015890074 -0.052238826 -0.0037405076 0.0
0002b0 da 6d 8f ba 00 00 00 00 00 00 00 00 82 2a 16 be
       -0.0010942772 0.0 0.0 -0.14664653
0002c0 7a 5a f2 ba dc 94 83 be 00 00 00 00 4e 1a 03 bc
       -0.0018490099 -0.25699508 0.0 -0.008001877
0002d0 56 94 76 bb f3 f1 fd 39 00 00 00 00 00 00 00 00
       -0.0037625036 0.00048436187 0.0 0.0
0002e0 5c 3f 80 3e 98 fd 3f bb 68 c4 48 bb ee 21 02 bd
       0.2504834 -0.002929544 -0.0030634645 -0.03177064
0002f0 d8 85 3e 3e 68 94 94 ba bd 40 89 bd 17 7e 79 bb
       0.18605745 -0.0011335732 -0.06701801 -0.003806954
000300 af c5 2f bd 00 00 00 00 d0 9b 0b bc e0 62 2b be
       -0.042913135 0.0 -0.008521035 -0.16736937
000310 00 00 00 00 00 00 00 00 d5 9b 30 ba 7c 60 61 3d
       0.0 0.0 -0.0006737088 0.055023655
000320 73 05 5d bc b0 cb 66 3d 00 00 00 00 46 92 12 3e
       -0.013490069 0.056346595 0.0 0.14313611
000330 00 00 00 00 8a 64 3f ba 00 53 89 b9 00 00 00 00
       0.0 -0.0007301053 -0.00026192516 0.0
000340 00 00 00 00 00 00 00 00 14 02 3f bb d0 a8 54 bb
       0.0 0.0 -0.0029145526 -0.0032449253
000350 22 fc 5a ba 00 00 00 00 00 00 00 00 00 00 00 00
       -0.0008353611 0.0 0.0 0.0
000360 47 d0 72 be b0 26 dc bd c9 f3 55 bb cb d5 64 ba
       -0.23712264 -0.107495666 -0.0032646528 -0.00087293674
000370 67 e1 03 ba 00 00 00 00 00 00 00 00 c7 f1 81 b9
       -0.0005030841 0.0 0.0 -0.00024784936
000380 00 00 00 00 8e a8 14 3e b8 c1 03 bc 57 6b 49 be
       0.0 0.14517424 -0.008041792 -0.19669853
000390 fb b7 06 ba 00 00 00 00 a9 c5 32 3e 06 80 47 3e
       -0.00051391096 0.0 0.17458214 0.19482431
0003a0 0c a9 54 3a 9b 0f a3 3e 74 1a 1d bd d7 78 cb bc
       0.0008112348 0.31847844 -0.038355306 -0.024837894
0003b0 00 00 00 00 8f df e6 bc 4f 34 51 3d d8 8a 2d be
       0.0 -0.028182773 0.051075276 -0.16947496
0003c0 8e 50 a7 ba 04 60 86 bd a5 57 b8 ba 00 00 00 00
       -0.0012765096 -0.06561282 -0.0014064206 0.0
0003d0 89 d7 d3 3c 00 00 00 00 5f ed 0a 3a 05 1c 9f bb
       0.025859611 0.0 0.0005299653 -0.004855635
0003e0 7e f5 1d 3c d0 65 27 38 1d 5d 82 bd df 70 3a be
       0.009641049 3.9910723e-05 -0.06365416 -0.1820712
0003f0 b3 58 ff 3d 49 a3 16 bb f4 da 63 bc 8c 08 95 bb
       0.1246809 -0.002298551 -0.013907183 -0.004548138

model.2.weight f4 [256, 256]
000000 a6 77 38 3b ba 09 cc ba f0 b4 5d ba 2c 2f 5b bb
       0.0028147488 -0.0015566864 -0.0008457443 -0.0033444865
000010 9c 92 72 bb 1c b9 83 bb 21 f5 0c bf 95 8d 6d ba
       -0.0037013656 -0.0040198695 -0.5506154 -0.000906193
000020 08 f8 c0 3e 0a 95 eb ba d1 4f 4f bd 39 53 95 ba
       0.37689233 -0.0017973494 -0.05061323 -0.00113926
000030 4b 40 9d 38 27 2d e9 38 bf 85 38 3b 96 12 ae ba
       7.498319e-05 0.00011118716 0.002815589 -0.0013280686
000040 34 01 01 bc f6 27 bd bb e3 8b e3 ba 86 ef 05 3b
       -0.007873822 -0.005772586 -0.0017360415 0.0020436957
000050 c6 71 bf 3a df c6 06 3b e9 74 24 38 fd 15 bb 3d
       0.0014606051 0.0020565314 3.9209528e-05 0.09135053
000060 83 3e 73 3b 33 61 34 bd 72 15 e4 3a 69 d1 e6 be
       0.0037116117 -0.04403801 0.0017401411 -0.45081642
000070 72 d9 81 3a 8e 98 06 3a d5 2e 90 b9 e7 06 63 3e
       0.0009906723 0.0005134427 -0.00027500713 0.22170602
000080 52 4e 03 c0 40 c4 38 bf ea 25 e8 3a de b1 f5 39
       -2.0516553 -0.72174454 0.0017711495 0.00046862563
000090 6e 37 4a 3a ff 90 10 3b f1 3e e8 3e 1f 1a 19 bb
       0.0007713948 0.002205908 0.4536052 -0.0023361517
0000a0 96 2e b0 3b c5 8c e4 3b 61 2a 76 3a 9a fb 09 3d
       0.005376647 0.006974789 0.000939047 0.03368721
0000b0 49 6b ca ba 54 b8 10 39 66 6f 5d 3b 28 43 16 39
       -0.001544335 0.00013801578 0.0033788322 0.00014330132
0000c0 02 16 e0 3a 8b 7f 1c 3b ea dd 1a 39 5a 0e 36 3a
       0.0017096403 0.0023879732 0.00014769254 0.00069448876
0000d0 13 e8 4c 3e dd 1e 9e 38 53 bd 4a 3e 9e e6 93 3b
       0.20010404 7.539776e-05 0.19798784 0.0045135757
0000e0 78 f6 42 bf d7 51 1d 39 4e 23 75 ba 8e 02 9f bb
       -0.7615733 0.00015003174 -0.0009351269 -0.0048525995
0000f0 88 11 ab 3a 60 4a 45 3b 8a ba 1d ba 00 69 07 bb
       0.0013051489 0.0030104145 -0.0006016871 -0.002066195
000100 a9 46 bb 3b 22 3c 13 3a 52 5a a1 bb 09 36 2d bf
       0.0057152105 0.00056165655 -0.004924097 -0.67660576
000110 7a 18 16 bc f2 51 eb bf c9 69 43 b9 c1 53 09 bb
       -0.009161109 -1.8384383 -0.00018636057 -0.0020954462
000120 35 c6 a5 ba 90 1d e1 3b c5 26 9d 3a ce ab 7e 3e
       -0.0012647571 0.006869979 0.0011989704 0.24870226
000130 f3 92 76 bf 66 76 97 3e c3 42 6e bb 3e 1a 45 3b
       -0.96317977 0.29582518 -0.003635571 0.0030075456
000140 a9 0c 01 3b 6f db 50 3b 8c 7f f8 be 2f fd d4 be
       0.0019691384 0.0031869074 -0.4853481 -0.41599414
000150 bf 9b 1a c0 7e 0f 5e 3b 5c 0c c5 3e 1c 72 fd ba
       -2.415756 0.0033883746 0.38485992 -0.0019336375
000160 30 02 f7 3a b0 6d 3b 3a 4d c8 c1 3b 18 d0 0e 3b
       0.0018845256 0.00071498286 0.0059137703 0.0021791514
000170 47 79 e1 3b 3a b2 55 c0 27 ac 9d bd 2e 51 4d bb
       0.0068809125 -3.339003 -0.07698851 -0.0031328904
000180 14 a7 75 ba 1e 35 77 3b 44 58 82 3e 64 83 32 3b
       -0.0009370905 0.003772087 0.25457966 0.002723896
000190 fa 04 36 bf d6 41 f0 bb 18 d1 84 be ed 58 37 ba
       -0.71101344 -0.007332067 -0.25940776 -0.0006994147
0001a0 87 66 b4 3a ba b6 8f 3d 4b dc 12 ba 1d 99 f1 38
       0.0013763466 0.07017274 -0.0005602284 0.00011520295
0001b0 5e b9 da 3e 20 84 00 3e f2 e4 40 ba f1 53 57 3e
       0.4271955 0.12550402 -0.0007358334 0.21028115
0001c0 64 52 75 ba 0b 6c ba 3b 60 33 c6 be bf 7f 8c 3a
       -0.00093582855 0.0056891493 -0.3871107 0.0010719224
0001d0 c5 c4 af be f1 46 4a 3b cd 53 e0 3a 10 ae ff 3b
       -0.3432981 0.0030865038 0.0017114818 0.0078027323
0001e0 e7 97 f0 ba 40 26 1a 3c 99 35 d7 3b 74 24 92 ba
       -0.0018355817 0.009408534 0.0065676686 -0.001114978
0001f0 d4 06 6c 3e e8 73 88 3b d9 7c 0f 3e 5a 6c 04 be
       0.2304948 0.0041642077 0.1401247 -0.12931958
000200 9d 3f 0d bb 65 f6 07 3f ad d6 83 3a 7d 53 27 bb
       -0.002155281 0.53110343 0.0010058485 -0.002553194
000210 68 db b3 be 58 dd 5e c0 40 f5 36 3c ec 6b 3a 3a
       -0.3512833 -3.4822598 0.011166871 0.00071114185
000220 03 7d a1 b9 3a fd 1f 3c 08 4f 28 3e 94 3d 99 3e
       -0.00030801454 0.009764964 0.16436398 0.29929793
000230 17 85 21 3c 23 06 5b 3b ea 57 ee b9 c0 6f 8d b9
       0.009858391 0.0033420406 -0.00045460399 -0.00026976876
000240 ad bf 30 bb 93 82 d2 ba 84 62 25 bb e4 ef 83 3e
       -0.0026969716 -0.0016060643 -0.0025235722 0.2576896
000250 8c 63 02 ba 68 49 aa 3a df b0 dc 3e 6b 77 d8 3a
       -0.000497394 0.0012991847 0.43103692 0.0016515082
000260 d0 b4 a7 ba 4e 82 e7 3a 0b 55 96 bb 3d 4f 53 3f
       -0.0012794975 0.0017662735 -0.0045877746 0.82542783
000270 44 8c ca 3b ef 0b 14 bb b2 c0 14 bf 33 b5 35 bf
       0.0061812717 -0.002259012 -0.5810653 -0.70979613
000280 6d ef b1 b8 65 58 04 3d 24 7a 19 3f 02 38 4f bb
       -8.484614e-05 0.032310862 0.59951997 -0.0031619077
000290 c4 16 91 bf 3d 07 c5 3e b9 5b 99 ba 2f 3f 32 bf
       -1.1335073 0.38482085 -0.0011700309 -0.6962766
0002a0 71 ed cc 3b a6 90 3c bf 95 70 e2 ba 90 a4 0f bb
       0.006253891 -0.73658216 -0.0017275984 -0.0021918155
0002b0 be e0 40 ba 7b 78 71 3a 0e 58 08 bb b7 7f 32 3a
       -0.0007357708 0.00092113734 -0.0020804438 0.0006809192
0002c0 1d 3c 43 3a e2 16 08 3f 53 d0 aa 3a fa f7 14 bc
       0.0007447617 0.53159916 0.0013032056 -0.009092325
0002d0 eb 29 2d 3a 67 87 b7 3b 58 75 f9 3a 6b d9 0d 3b
       0.00066056725 0.005600858 0.0019032164 0.0021644484
0002e0 47 a4 68 3e 8a a6 39 3c 3b 15 d1 3b 3a a8 bb bb
       0.22718917 0.01133121 0.0063807047 -0.0057268413
0002f0 aa 40 05 3f 46 de cc ba 48 e1 ac bf c6 71 2f 3b
       0.52051795 -0.0015630207 -1.350625 0.0026770695
000300 bc c7 85 3e 21 c8 e8 bb 0f cc 91 bb 98 0e 02 be
       0.26128948 -0.0071039353 -0.0044493745 -0.1270088
000310 37 e9 19 bb 4c 38 49 3b 6c 0c 20 bb 52 09 43 bf
       -0.0023484954 0.0030703722 -0.0024421467 -0.76186097
000320 5b 5f 63 3e 3f 68 41 bf fc 14 8c 3a d7 c5 5d 3e
       0.22204344 -0.7554969 0.0010687406 0.21657501
000330 5c 0b 10 bb 3f b2 39 3b 80 86 08 3b b6 c0 61 bb
       -0.0021979427 0.0028335003 0.0020832121 -0.003444714
000340 2d ef ac ba 77 dd a6 ba 2f 55 2e 3c d3 cc 2a bc
       -0.0013193839 -0.0012730797 0.010640427 -0.01042481
000350 de 54 38 3a d0 46 11 3b 4e fd af ba f4 4b fa ba
       0.0007031689 0.0022167452 -0.0013426931 -0.0019096122
000360 76 66 38 3f 3d a3 3a bd 38 22 6b ba 01 7f 2a bb
       0.72031343 -0.045565832 -0.00089696376 -0.0026015642
000370 4c 91 84 3b c6 9a fb b9 c9 56 90 bb 37 cd 59 bb
       0.004045641 -0.00047989766 -0.004404877 -0.003323389
000380 42 f5 7b bb 48 7f 28 bf 12 ad bd bc fe 15 07 bf
       -0.0038445746 -0.65819216 -0.023153815 -0.5276793
000390 05 ea 7b ba bf a1 4e 3a 39 68 af 3e 9d 29 7d 3e
       -0.0009609762 0.00078823784 0.34259203 0.24722905
0003a0 cc ed 32 3c bf be 14 3e 8e cd bc 3e af bc e2 bc
       0.010920953 0.14525889 0.36875576 -0.027677862
0003b0 ee 6a 13 b9 d1 20 4b 3e 7e f6 8b bc c7 6d 9d bf
       -0.00014058847 0.19836737 -0.01708531 -1.2299126
0003c0 18 32 22 ba 7d 54 8a 3d ba db 33 ba d7 59 a1 39
       -0.0006187274 0.06754396 -0.000686105 0.0003077525
0003d0 6e 28 e7 bd 5c d1 22 ba cc 18 80 b9 a4 fc 5c 3a
       -0.11287008 -0.00062110065 -0.00024432538 0.00084299804
0003e0 43 cb 67 3e d5 d5 fb 3b f2 58 46 bf 4e 45 9a bb
       0.22636132 0.007685403 -0.7747947 -0.004707969
0003f0 3a 21 c3 be 6a 7a db 3a b8 0f 80 3e 37 b9 ea b9
       -0.38111287 0.0016744856 0.25011992 -0.00044769954

model.2.bias f4 [256]
000000 63 e1 c1 bd 6f ec 1a bb dc 05 d2 bc ba 6a fd 3a
       -0.09466817 -0.002363946 -0.02563756 0.0019334175
000010 07 53 25 bd f9 64 7e 3d 6b 7f 4c bd 7f 38 b7 3d
       -0.040362384 0.062108014 -0.049926203 0.08946323
000020 c7 5c 80 bc b9 ab 7b bd be aa dd ba 0c 36 8d be
       -0.01566924 -0.061443064 -0.0016911847 -0.27580297
000030 3f 2a c0 ba 94 92 e0 3b 18 86 91 ba f0 98 e5 bb
       -0.0014661028 0.006853411 -0.0011102585 -0.007006757
000040 85 90 02 ba c4 83 dd ba b5 bd 82 be 3e 6a be be
       -0.00049806415 -0.0016900231 -0.2553536 -0.3719043
000050 8a e6 03 3c 79 9b 86 be 30 b6 f7 ba 79 b2 59 bc
       0.00805057 -0.2629049 -0.0018898901 -0.01328718
000060 db 46 02 be 77 a3 83 bd 87 32 e7 bc 2e de 65 bb
       -0.12722342 -0.06427663 -0.028222336 -0.0035075056
000070 9e 67 05 be 62 5c 6c be a8 bd c6 bd f7 04 9b 3c
       -0.13027808 -0.23082116 -0.09704143 0.018923266
000080 3a c8 c6 ba 78 eb e2 ba d1 9f 8f 3b be 96 87 be
       -0.0015165873 -0.0017312607 0.0043830653 -0.26482195
000090 34 cf e9 ba 67 3f 66 bb 0e 67 55 bb c1 f6 33 3e
       -0.0017838241 -0.0035133006 -0.0032562646 0.17574598
0000a0 75 3a 9d 3d 19 21 01 bc 0d f1 9f be 85 08 c3 3d
       0.076771654 -0.007881426 -0.31238595 0.09523109
0000b0 37 41 b7 ba bb 6a 42 bc 51 24 01 bb 25 33 be bb
       -0.0013981228 -0.011866267 -0.0019705484 -0.0058044367
0000c0 36 56 86 3d 7e ed f9 b8 8b db c2 bd 82 c5 ad 3d
       0.06559412 -0.000119174816 -0.09514531 0.08484937
0000d0 a5 6b 13 be fa ef c1 be 78 d1 2d be a5 36 34 bb
       -0.14396532 -0.378784 -0.16974437 -0.002749839
0000e0 95 c7 86 be e4 9d 07 bb ae 9e d1 3d 8d cc 09 bd
       -0.26324144 -0.0020693475 0.10235344 -0.03364234
0000f0 85 53 ca ba 75 23 1c be a5 3c 8c bd e3 a7 b1 bc
       -0.0015436268 -0.15247901 -0.068475045 -0.0216865
000100 70 18 25 bb 5f 53 a7 3d 89 d8 d4 3d c9 d9 a6 be
       -0.0025191568 0.08170199 0.10392863 -0.32588032
000110 70 f2 a3 3c 16 20 fa bd 35 d8 8a be 04 d8 e5 b9
       0.020013064 -0.12213151 -0.27118078 -0.00043839228
000120 62 2b a5 3d d8 2e 12 be 35 f2 96 3d 43 a3 c9 ba
       0.08064915 -0.14275682 0.07370416 -0.0015383739
000130 33 0c 13 be 9d 36 2a 3c 04 72 f7 ba 5a c6 eb 3d
       -0.14360122 0.010388997 -0.0018878584 0.11512442
000140 57 c2 93 be e5 40 bc bc 87 e6 08 be fc 3e c6 ba
       -0.28859207 -0.022980163 -0.13369189 -0.0015124972
000150 94 5a 87 ba 2d 5b a2 bd 40 2a d4 ba df f2 62 bd
       -0.0010326677 -0.07927547 -0.0016186908 -0.0554074
000160 d9 b7 88 bd 79 79 67 ba 63 74 14 3d 1b 32 0e bc
       -0.06675691 -0.00088300515 0.036243808 -0.008678938
000170 1c d0 32 3d 8b 8e 19 bd 28 ef 68 bb a2 9c cb bd
       0.0436555 -0.037489455 -0.003554294 -0.09941985
000180 7d b9 5f ba 14 c3 72 be 74 ce b4 ba e0 f5 e6 bd
       -0.0008534415 -0.23707229 -0.0013794438 -0.11277366
000190 ad 3c 80 be 2c be ba b9 18 56 bf 3d 76 3e 26 bb
       -0.25046292 -0.00035618374 0.09342593 -0.002536682
0001a0 c9 f0 8c ba 93 c7 b2 bc c7 c2 86 3d 4e 2c a2 3d
       -0.0010752912 -0.02182368 0.065801196 0.07918607
0001b0 94 a6 84 be bb 1d a0 bd 36 f2 e6 3d d3 7e 84 bd
       -0.2590834 -0.07818171 0.11276667 -0.06469502
0001c0 d1 84 5e 3d 71 34 0c bc 3a 64 67 bc 7c 43 2f bc
       0.054325882 -0.008557425 -0.014123017 -0.010697242
0001d0 2b 6b b1 be 80 3f fb bb ee 9d c7 bd 42 88 1d bb
       -0.34652075 -0.007667482 -0.097469196 -0.0024037515
0001e0 bf 94 20 be fa 01 10 bb c1 39 d8 3b b2 46 24 bb
       -0.15681742 -0.0021973834 0.0065986817 -0.0025066552
0001f0 e0 1c a6 ba b5 c0 a4 be 87 8c d8 3d b0 4a 97 be
       -0.00126734 -0.32178274 0.105736785 -0.2954917
000200 ed a3 0d bd f3 76 79 bb 2a 5f f5 bd 93 2d 35 be
       -0.03458016 -0.0038065284 -0.11981042 -0.17693166
000210 f5 cd 08 be dd 48 e0 bd de 64 fe bd cd 7f bd b9
       -0.13359816 -0.109513976 -0.12421583 -0.00036144108
000220 22 0e 9b be 23 f3 57 3d a9 96 07 be 61 c2 3b bb
       -0.3028422 0.052722108 -0.13241066 -0.0028649794
000230 fa 9f 0b 3e c1 d9 21 be ef 40 71 bb 10 83 ec ba
       0.13635245 -0.15805723 -0.0036812385 -0.0018044431
000240 fa 25 8b bd c8 b7 cb ba 4a ac 11 3d e6 e9 35 3e
       -0.06794353 -0.0015542442 0.0355647 0.17765006
000250 36 8e c7 bd 80 00 e1 ba 34 14 a5 bd 74 65 d0 ba
       -0.097439215 -0.0017166287 -0.08060494 -0.0015899376
000260 21 62 8e bd 0d 11 7e bd ed d5 5a 3e b5 7d bb ba
       -0.0695231 -0.06202798 0.21370669 -0.0014304431
000270 d9 45 14 3e d2 41 85 bb 5f 1c 5e be 8d 36 42 bb
       0.1447977 -0.0040666843 -0.2169051 -0.0029634566
000280 9a cc 07 bb 66 76 88 3c 75 a4 1c 3d 1b 64 6d bb
       -0.0020721317 0.01665802 0.038242776 -0.0036222998
000290 88 54 f6 bd 0f 8a ec ba 69 07 8d ba b3 c9 a3 3d
       -0.12027842 -0.0018046516 -0.0010759655 0.079974554
0002a0 39 56 c0 bc 5f f0 0c 3b af 8e 85 bc f4 75 4f bd
       -0.023478614 0.0021505577 -0.016303388 -0.0506496
0002b0 11 0b 6e bd 50 a3 64 be f6 ea e0 bb 19 ab 4c 3e
       -0.058116022 -0.22327924 -0.006863947 0.19987144
0002c0 26 ba 93 be 74 ee db bc 6f 06 04 bd b7 f3 d8 bd
       -0.28852957 -0.026847102 -0.032232698 -0.1059336
0002d0 96 f5 d6 3d 7f 5f ef bd 57 cc f7 ba 84 77 00 be
       0.104960606 -0.11688136 -0.0018905503 -0.12545592
0002e0 22 7c 5a bb 3f c9 b0 3c 94 fc 80 ba 93 d5 83 3d
       -0.003333815 0.021580337 -0.0009840899 0.064372204
0002f0 72 cf 43 ba ec fd dd 3d 83 f5 32 3d 9c 61 42 3e
       -0.00074695714 0.108394474 0.04369117 0.18982548
000300 96 f5 e3 bb 60 05 9f ba 2d 01 10 be 78 12 88 bd
       -0.0069567664 -0.0012132339 -0.14062949 -0.06644148
000310 1d 39 c9 3d 68 38 b6 3d 34 75 86 3d 79 6a 1e bb
       0.098253466 0.088974774 0.065653235 -0.002417235
000320 51 7f a8 3d 02 58 cf ba 30 54 b1 ba e5 c3 d9 3d
       0.08227409 -0.0015819075 -0.0013529118 0.10633067
000330 01 3f 7d bb 2a 74 d9 3d 73 a8 64 be 12 fc e9 3c
       -0.003864229 0.1061786 -0.22329883 0.02856258
000340 81 65 58 be d9 aa 70 be b4 ed 46 bb ce e9 3d bb
       -0.2113247 -0.23502673 -0.0030354084 -0.002897847
000350 ab fd d8 3d 2c 6f 4c be e6 5f 95 bc 8e f4 77 be
       0.10595258 -0.19964284 -0.018234205 -0.24214384
000360 a8 9b d2 bb 6b 6f 89 ba 19 00 17 bb 89 c8 c5 3b
       -0.006427247 -0.0010485476 -0.002304083 0.0060358685
000370 4f a5 48 bc ae 4d 9f ba 18 d2 64 be 06 c3 82 ba
       -0.012246444 -0.0012153888 -0.2234577 -0.0009976334
000380 d6 57 8f 3d bc 56 ab bd 34 25 8c bd f3 ee bc bb
       0.06999175 -0.08366153 -0.068430334 -0.0057657897
000390 cf 1a 8d 3d 23 bc 81 bb 87 5f 61 be 6c c9 58 bc
       0.06889879 -0.003959195 -0.22009097 -0.0132316165
0003a0 bf 4f ea ba ae 56 9e 3d f5 40 b2 ba 3e 5d 9d be
       -0.0017876549 0.077313766 -0.0013599681 -0.307352
0003b0 50 77 2f be 93 40 66 bd 7f 9a 19 bc da 95 0f bc
       -0.17135358 -0.056213927 -0.009375214 -0.008763755
0003c0 d7 0d 14 be a3 67 16 be b5 e7 80 3d 87 6c d0 bc
       -0.14458404 -0.14687972 0.062941946 -0.025442375
0003d0 75 7b 79 3d ce 13 a0 ba 1a 07 21 be 8e 1e a3 be
       0.060908753 -0.0012212934 -0.15725365 -0.3185925
0003e0 d4 61 04 3e b3 ad 57 bb 7f fc 55 3e 65 1f 90 ba
       0.12927943 -0.003290993 0.20897101 -0.0010995684
0003f0 55 18 0c 3e 16 9c 76 bc 32 93 c2 ba 69 43 a6 3c
       0.13681157 -0.015051862 -0.0014844893 0.020295816

model.4.weight f4 [256, 256]
000000 13 73 00 bf 13 78 b6 3a 83 98 0e 3b 9f c6 83 3d
       -0.5017559 0.0013921283 0.0021758385 0.06434368
000010 12 01 9d bc a6 c9 ba bd 18 30 df bd d9 a2 2c be
       -0.01916555 -0.09120493 -0.10897845 -0.16858996
000020 b0 22 a9 bb 56 7f 0e bf 84 e8 75 bb 67 98 b6 bd
       -0.005161606 -0.5566305 -0.0037522623 -0.08915787
000030 e0 e2 9a bb ac 2e ac 3e 1a e8 5b bb 89 5b b1 bd
       -0.0047267526 0.33629358 -0.0033555091 -0.08660037
000040 4a 09 26 b8 9f aa 82 3b 39 14 be bb 0e cb 9c 3e
       -3.9586135e-05 0.003987625 -0.0058007506 0.30623668
000050 27 df 5c 3e 3e b4 16 c0 81 2c 9c ba 39 ba 6e 3b
       0.21569501 -2.354751 -0.0011915119 0.0036426915
000060 f6 3f cd 3e 5c 09 0e be 11 55 2e bf a4 e4 33 3b
       0.4008786 -0.13870758 -0.6809855 0.0027449513
000070 da 71 67 3d da 9b 9e 3d 31 97 47 3e 8a ca 6d 3a
       0.05650506 0.0774457 0.19491269 0.0009071013
000080 c0 2d a0 b9 c6 77 cf 3a 52 20 04 3d 90 0c 1f 3e
       -0.00030551665 0.0015828542 0.032257386 0.15532136
000090 9e f6 cc 39 2b f7 ec 3a e8 e3 df ba eb f4 17 3e
       0.00039093656 0.0018079033 -0.0017081471 0.14839523
0000a0 c3 e4 a6 3d 3d 84 d9 bb e7 61 ca 3d 50 9a 11 bd
       0.081491016 -0.0066380785 0.09881955 -0.035547554
0000b0 42 fa 35 3a e1 61 0a 3c 50 d9 4d 3b 8c 67 0a 3b
       0.00069418934 0.008446188 0.0031410046 0.0021118848
0000c0 8c 1d d8 bc cf 96 d0 3d 4f 6e f8 ba 31 d2 aa 3d
       -0.026381277 0.101850145 -0.0018953773 0.08340872
0000d0 26 38 bf bd 4e cd f0 bc 70 56 60 3d 2d c0 f9 3a
       -0.09336881 -0.029394772 0.054769933 0.0019054465
0000e0 d9 48 f6 3d 4c b1 99 bb 13 09 c4 3d 11 49 6b 3d
       0.12025613 -0.004690325 0.09572043 0.05744273
0000f0 6d ed d9 3a 32 63 40 3e 25 f1 61 3e ac 02 6f 3e
       0.0016626545 0.1878784 0.22064646 0.23340863
000100 4e b8 c6 3b 69 ff e5 bc e8 cb e2 3d 5d a5 c3 3d
       0.0060644513 -0.02807589 0.11074048 0.09553025
000110 fe 38 79 3d 0f b6 d7 3e 3d fe f2 3d db ae 17 3b
       0.060845368 0.42131087 0.11864898 0.0023144993
000120 1f ab aa bc 4f 61 07 3e f7 39 27 3e bd 14 bb 3a
       -0.02083355 0.13220714 0.16330706 0.0014273148
000130 d6 b8 a7 3d 96 12 ac bf ab c9 b5 ba 2c e3 6d 3d
       0.081895515 -1.3443172 -0.0013869306 0.058077976
000140 a7 52 d8 3e e9 34 51 be 50 16 f7 3d 44 7d 7a bb
       0.4225056 -0.2043034 0.12064803 -0.0038221637
000150 f6 d4 4b ba 1a 88 8c bf 88 2a 8b bb 85 3f 3b bd
       -0.0007775569 -1.0979035 -0.0042470135 -0.045714874
000160 f4 17 17 3d a9 c7 99 3b ec 91 f7 be 07 91 18 be
       0.036888078 0.004692991 -0.48353517 -0.14899074
000170 1d dc 4f 3e 89 4b 00 3d 89 a0 d6 bb 19 54 76 bd
       0.2029881 0.031322036 -0.006549899 -0.060138796
000180 7b c7 16 bb 33 4d 1f bf 50 d8 8f ba a7 f4 c6 3d
       -0.0023007083 -0.6222717 -0.00109745 0.097146325
000190 b1 9e 59 3d c7 fb d5 ba 85 31 78 3e 41 38 3f 3b
       0.053129856 -0.0016325646 0.2423764 0.0029177817
0001a0 85 be 3b 3b aa ef 64 3d a0 91 f2 bc 0b 57 09 be
       0.0028647494 0.055892624 -0.029610455 -0.1341211
0001b0 ed 51 94 3c 74 cf 71 3b 50 89 eb bd 04 9e 11 3d
       0.018105472 0.0036897333 -0.115008 0.035551086
0001c0 4d 7d d3 3e e4 73 c1 3c 6c 71 96 3c 55 42 1e 3b
       0.41306534 0.023614831 0.01836463 0.0024148424
0001d0 a9 ae 23 3f 11 35 22 3b 81 59 f9 3e 06 58 23 3a
       0.63938385 0.0024750868 0.487011 0.0006231073
0001e0 c7 08 25 3c ec f8 8f 3b 8d df 91 bc df 00 e6 39
       0.010072893 0.0043936875 -0.017806793 0.00043869668
0001f0 1d f1 52 3b 34 15 75 bb 7b 4d 1b be 63 8f 16 c0
       0.0032187172 -0.0037396671 -0.15166275 -2.3525016
000200 21 4c 1b be 36 c2 7a 3b 9c 06 5b 3e bc 5b cf c0
       -0.1516576 0.0038262731 0.2138924 -6.479948
000210 dc db 5e be a7 d6 43 3e 53 1a 46 be ad e2 60 39
       -0.21763557 0.19124852 -0.1934598 0.00021446748
000220 3d 4b 15 3f 47 fe 9c bd 5d 30 91 3d 26 32 26 ba
       0.5831793 -0.07665687 0.07089303 -0.000633987
000230 60 ee e9 3d 57 01 72 3d f8 44 16 bb 54 7e 0d ba
       0.114224195 0.05908331 -0.0022929292 -0.00053975475
000240 fc 7d c4 3e 96 c4 29 bb 40 fc 0c bf 67 43 24 3e
       0.38377368 -0.0025904528 -0.550724 0.16041337
000250 21 22 61 3f 21 42 9d b9 45 32 40 bc ed ff 47 bb
       0.879427 -0.00029994643 -0.011730735 -0.0030517534
000260 ec fd ed 3d 81 7e 86 3c af d8 9a 3d 2f 72 1d bb
       0.116206974 0.016417744 0.0756086 -0.0024024358
000270 1b d6 1f 3c b1 c5 a5 ba 23 12 d7 be 53 b0 57 bb
       0.009755637 -0.0012647418 -0.42006025 -0.0032911494
000280 50 23 46 bb c2 c4 89 3d bb 95 f6 3d 80 bb f5 ba
       -0.003023345 0.06726982 0.120402776 -0.0018747896
000290 8d 31 7e 3e 36 05 33 3b 5d de 1e 3b ec ed 52 3d
       0.2482359 0.0027316338 0.0024241426 0.05149643
0002a0 4e e2 d5 3d a8 90 ba bd d1 5d 9c 3a 90 c3 ee 3c
       0.10443555 -0.09109622 0.0011929815 0.029145986
0002b0 0d 9c 22 be af e5 00 bd db 4c 83 3b 8a a9 41 bc
       -0.15879841 -0.031469043 0.0040069646 -0.011820206
0002c0 95 be b0 3c fa 56 a0 3e 46 f4 a3 3d 7c 8e 92 3e
       0.021575252 0.31316358 0.08005576 0.28624332
0002d0 cf dd 40 3d cd 2a f4 be b4 dc 03 3a fb 1e 1c 3e
       0.047086533 -0.47688904 0.0005030141 0.15246193
0002e0 b6 54 88 ba 97 44 37 bc bc 2b aa ba 1f ae 50 3c
       -0.0010401222 -0.011185787 -0.0012983005 0.012736826
0002f0 62 39 02 3b fa 01 a1 3e 98 0d 54 3e 0b 47 00 3e
       0.0019870629 0.3144682 0.2070831 0.125271
000300 ef 09 c5 3b d8 16 ae 39 d8 7f 2e 3e f0 a2 ee 3d
       0.006013147 0.00033204886 0.17040956 0.116521716
000310 d0 68 e8 3d 63 b2 86 3d e7 c7 64 3d bb 9e c3 3a
       0.113481164 0.06576993 0.055854704 0.0014924625
000320 a5 0c 58 be d1 00 21 bb 58 9a 90 3a c8 78 39 3e
       -0.21098574 -0.0024567137 0.0011032326 0.1811248
000330 da a3 1d 3f 9d be 0f be 82 52 69 c0 0f 80 91 bd
       0.6157814 -0.14037557 -3.6456609 -0.07104503
000340 c8 50 7d 3a cb 94 b9 bc 35 d4 aa ba 15 34 a4 ba
       0.00096632214 -0.022653958 -0.0013033213 -0.0012527729
000350 f5 9a cc bd 69 d6 5a be b5 71 dd bb 3b 05 ae 3b
       -0.09990493 -0.21370853 -0.0067579397 0.005310682
000360 c1 0d 21 bc a6 6c bc ba 0c 2d 43 ba cb aa cc 3b
       -0.009829939 -0.0014375641 -0.0007445372 0.006245946
000370 60 9d 6c bc 8e 55 6d 3b 5f 34 79 be 8d ef 13 bb
       -0.014441818 0.0036214325 -0.24336384 -0.0022573203
000380 51 ce df 3e c9 15 60 3d 53 6f 71 3e 63 d2 60 3b
       0.43712094 0.054708276 0.23577623 0.0034305088
000390 dc ac c2 bc 54 57 b7 3b 96 ab 92 be 5b e3 bd bc
       -0.023764066 0.005595127 -0.28646535 -0.0231797
0003a0 1a 07 38 3b 10 9a 40 3e c2 b5 7c bb 85 83 89 3e
       0.0028080405 0.1880877 -0.0038560485 0.26858154
0003b0 83 99 b9 3d 9d d8 5f be 49 44 43 bb 4d b4 7b 3c
       0.09062483 -0.21859975 -0.002979534 0.015362811
0003c0 d7 ff 9a 3d 81 ef 2b 3d fa 79 f5 3c a1 2d bf 3d
       0.07568329 0.041976456 0.02996539 0.09334875
0003d0 95 60 32 3e 57 d6 96 bb 24 5a 64 3b 0a dd 95 3b
       0.17419656 -0.004603188 0.0034843767 0.004573469
0003e0 eb 1d 8b be 55 9b b1 3b af 95 ec bb 8f 57 48 3b
       -0.27171263 0.0054201283 -0.007219992 0.0030569767
0003f0 ac 43 15 bd 1b 02 3c bb 29 2a e0 bb 9c 08 58 3e
       -0.03644149 -0.0028687778 -0.0068409634 0.21097034

model.4.bias f4 [256]
000000 07 b1 d2 3d ca 24 6a 3e 8c ba c3 ba aa a2 13 3d
       0.102876715 0.22865596 -0.0014932915 0.0360438
000010 6e 66 22 3e 3f 90 d3 3d 92 f3 cd 3d fb 04 6a 3c
       0.15859386 0.10330247 0.10056223 0.014283414
000020 d0 c5 61 bd d3 d2 54 bc 69 16 95 ba 75 85 4e bc
       -0.05512029 -0.012989718 -0.0011374477 -0.012605061
000030 28 e6 d7 3d 8e 23 de ba af 21 ae bc 57 43 1e bb
       0.10541946 -0.0016947852 -0.021256296 -0.0024149024
000040 04 ea 98 3d f2 43 32 bb b2 c7 8b bb 4b 5d cb bd
       0.0746651 -0.0027201143 -0.004265749 -0.099299036
000050 e5 dd c6 3d e0 6a 46 bd d0 b1 c1 3c bc 7b 26 be
       0.09710292 -0.048441768 0.023644358 -0.16258138
000060 d3 89 b7 ba 50 78 39 3e 85 01 a8 bc 24 f8 80 3e
       -0.0014002867 0.18112302 -0.020508537 0.25189316
000070 48 79 a5 3d a5 12 f1 bb eb 60 0d bf 73 0c 5d 3d
       0.08079773 -0.007356959 -0.5522601 0.05396695
000080 f0 89 21 3d c1 b1 e7 bd 34 cb f0 ba 0a 0d 21 bb
       0.039438188 -0.11313201 -0.0018371106 -0.0024574422
000090 da 07 02 3c a4 e7 de 3d e6 fa bb 3c 65 6e 2a 3e
       0.007936442 0.10884026 0.022946786 0.16643675
0000a0 b3 9f 09 3e ad 14 4a 3d fb 63 1d 3d 94 83 d7 3d
       0.13439827 0.049336124 0.038425427 0.105231434
0000b0 00 e5 99 bd a4 e3 9f 3d e5 a9 1e bb 58 db 74 ba
       -0.075143814 0.07807091 -0.0024210152 -0.0009340546
0000c0 ee c8 25 bc e7 ca 89 3d 87 86 c6 bd 76 5e de 3c
       -0.010118706 0.06728154 -0.09693628 0.027144652
0000d0 43 c4 0c 3e c7 8f 15 bb 9e a1 42 ba 65 fe 87 bb
       0.13746743 -0.0022821294 -0.00074245955 -0.0041501992
0000e0 e4 f0 c0 bc 0e 6d 02 bd c8 23 00 3d cb a0 3a bc
       -0.023552366 -0.031842284 0.031284124 -0.011390875
0000f0 34 6b 3d bb bb a7 34 bd 99 17 a2 bc 6f b7 8e 3c
       -0.002890301 -0.044105273 -0.019786643 0.017421452
000100 66 ba 02 bb 9b 84 b6 ba fa 3b b0 3d a2 7c 6e 3c
       -0.0019947528 -0.0013925018 0.086051896 0.014556082
000110 4d db 24 bd b3 53 43 bd 3a cb 06 be 40 84 7d bc
       -0.040248204 -0.047687244 -0.13163462 -0.015473425
000120 f4 8f a5 bd 9b fd b4 bc d0 02 25 bb bf 35 fb 3d
       -0.080840975 -0.022093585 -0.0025178678 0.12266111
000130 1c 85 dc bd 3d 3a 0c bb 2d 15 e2 3c 72 e9 e6 ba
       -0.10767576 -0.0021397017 0.027597988 -0.001761718
000140 e9 85 ed 3d b1 4e 09 be 10 38 a0 3d 99 e5 6e bb
       0.11597807 -0.13408925 0.07823193 -0.003645277
000150 60 60 3d 3d 05 91 dd bd 02 53 3f bd 9f fb 1e be
       0.04623449 -0.10818676 -0.04671002 -0.15525673
000160 e0 ce e1 ba 6e b2 b8 ba bd fd 92 bc 31 5f 5d 3e
       -0.0017227791 -0.0014091262 -0.017943257 0.21618344
000170 b2 10 78 3c fb de 69 bc 82 5e 4a 3d 1d d9 b3 ba
       0.015140699 -0.014274354 0.049406536 -0.0013721321
000180 49 44 f8 3d 27 d2 05 bd f0 7b 32 3d b5 23 59 3e
       0.12122399 -0.03267112 0.043575227 0.21205027
000190 d4 ad 80 38 21 b0 03 bd f1 01 4d bc a9 39 00 bb
       6.135894e-05 -0.03215039 -0.01251267 -0.0019565618
0001a0 df 86 41 bb 27 99 7d 3e 1c 26 93 bb 11 7f 42 ba
       -0.0029529852 0.24765454 -0.004490627 -0.0007419447
0001b0 65 ee e9 ba fb a3 95 3d af 69 43 bd e0 51 4e 3d
       -0.0017847536 0.073066674 -0.04770821 0.05037105
0001c0 36 1f 74 ba 5f 78 f9 3d c1 bc 4d bc 7e 91 2f bb
       -0.0009312512 0.12181162 -0.0125572095 -0.00267896
0001d0 78 68 3c bb 77 7c 6a 3d d3 5e a1 3c 18 c9 89 bc
       -0.0028748792 0.057247605 0.019698536 -0.016819522
0001e0 f4 92 1b 3e c3 22 29 bd 80 24 d7 3d f3 79 b2 bd
       0.15192777 -0.041292917 0.10505009 -0.08714666
0001f0 74 dd 45 3c 77 77 c9 3d 83 6a 2a 3c db b0 42 bd
       0.012076724 0.09837239 0.010401371 -0.047531944
000200 2d 00 fa bc 26 d4 25 bb 6f 56 d3 3d 74 66 07 3d
       -0.030517662 -0.0025303452 0.1031922 0.03305669
000210 2a ba f6 bd 59 f8 86 3d e7 ed ca 3d e9 e0 d4 bd
       -0.12047227 0.06590337 0.099086575 -0.10394461
000220 32 9b 88 bb 54 a3 b2 3d 48 59 81 bc ec c6 ff ba
       -0.0041688913 0.087225586 -0.015789643 -0.0019514239
000230 38 ba 5c 3e d0 47 c0 bb fb 59 0e bc fd 17 d8 3d
       0.21555412 -0.0058679357 -0.008688445 0.105514504
000240 e6 05 e4 ba fc 72 5e bb 3a a6 42 3e cb 71 87 ba
       -0.0017396777 -0.0033943048 0.19008723 -0.0010333596
000250 7e f0 ec ba 89 c1 20 bb 2c 6e 8b bb 2e dd 26 bb
       -0.0018077043 -0.0024529418 -0.004255077 -0.0025461423
000260 d9 a7 24 3d c8 68 5f 3d 88 4e 96 3d 25 57 31 bc
       0.040199134 0.054543287 0.073391974 -0.0108239995
000270 f1 ff 06 bc ed 8f 6b 3e bc 38 e3 ba 44 65 11 3e
       -0.008239732 0.23004122 -0.0017335634 0.14198786
000280 d4 22 2c 3e c0 88 8e bc 95 33 19 3e 85 72 ea ba
       0.16810161 -0.017399192 0.14961083 -0.0017886913
000290 ae d8 15 be 3d eb a2 bd 57 9f 09 3e 23 ed 11 bb
       -0.14633438 -0.079550244 0.1343969 -0.0022266589
0002a0 bd 59 d0 3d 5b 47 06 bc 14 f9 5f 3e 85 c7 10 3e
       0.10173366 -0.008195723 0.2187236 0.1413861
0002b0 26 cb 69 3e 38 6d 25 be aa 3c 58 ba d9 15 be ba
       0.22831401 -0.16154945 -0.0008248786 -0.0014502361
0002c0 03 24 ca bc 0d c8 d8 bc e7 7f 5f 3e e8 c0 c2 ba
       -0.024675375 -0.02646258 0.21826135 -0.0014858516
0002d0 89 33 9b bc 89 b3 08 be e1 25 6e 3d e7 10 3e 3d
       -0.018945472 -0.13349737 0.058141593 0.046402838
0002e0 c2 be 7f 3c 15 5a e3 bd ff ce 8c 3d 6c 0d be bc
       0.015609445 -0.11101166 0.06875419 -0.02319976
0002f0 26 e1 a8 bb 3f 74 aa ba 8b 29 db ba c8 15 08 bb
       -0.005153793 -0.0013004615 -0.0016720755 -0.0020764936
000300 e9 ac 4f 3d 81 c0 37 bd a5 8d 1d 3c 11 69 a7 bc
       0.05070201 -0.04486132 0.00961629 -0.020435842
000310 ca 05 1c be ea 65 82 bb 1a 97 b0 bd f0 7c 0e 3d
       -0.15236583 -0.0039794343 -0.0862257 0.03478712
000320 55 de 4d 3d 2e b8 0c 3c 06 14 1f bb 5b 28 29 3d
       0.05026086 0.008588834 -0.002427341 0.04129825
000330 d6 32 83 bb f6 3c f4 bd 77 72 3b bb bf e4 98 bb
       -0.004003863 -0.1192569 -0.0028602162 -0.0046659405
000340 c4 35 d2 3d 97 6e b2 ba 98 77 2b bb 2d b1 cb ba
       0.10264161 -0.0013613281 -0.0026163813 -0.0015540473
000350 13 86 1b bd 4d d5 24 bc 3a e6 cb 3c f2 50 b5 ba
       -0.03796966 -0.0100606205 0.024890054 -0.0013833328
000360 f3 83 26 bb 1a 8e 0a 3e 80 00 ab bd f7 e4 db bc
       -0.0025408238 0.1353077 -0.08349705 -0.026842577
000370 06 25 2a 3e 45 5a ef 3d 08 e1 5f 3c f7 e3 1a be
       0.16615686 0.116871394 0.0136644915 -0.15126024
000380 62 39 e3 bc 3f 79 c9 3c 97 db 9d bc 52 98 35 bd
       -0.027737323 0.024593947 -0.019269748 -0.044334717
000390 17 f4 a3 3d e3 ab e8 ba 5f 3c 7a bd 37 4d 44 bd
       0.08005541 -0.0017751422 -0.06109273 -0.0479252
0003a0 93 32 77 bc 44 bc 38 ba 6e d5 46 bb d6 18 b2 bb
       -0.015087741 -0.0007047097 -0.0030339616 -0.0054350896
0003b0 8d 56 f2 bb 57 9e 56 3e ac 1d e2 ba 2f 59 d7 bc
       -0.0073955716 0.2095884 -0.0017251275 -0.026287643
0003c0 29 ca 09 3e b1 df b1 ba b8 ca 9a bb b8 e8 03 3d
       0.13456024 -0.0013570694 -0.004723873 0.03220436
0003d0 42 77 fa 3c ca e6 36 bc 69 87 d6 3d c0 27 42 bc
       0.030574445 -0.011163423 0.10475046 -0.011850297
0003e0 db 3e e6 bc ce 79 f2 bc 1e 9b 82 bd 48 e2 c5 ba
       -0.028106144 -0.029599097 -0.063772425 -0.0015097344
0003f0 3a 61 01 3e 1a 62 aa bd d5 18 56 3e bb c3 69 3c
       0.12634745 -0.08319493 0.2090791 0.014267857

model.6.weight f4 [1, 256]
000000 16 40 d6 3e 46 e8 48 3e 62 fc 8d 3a 77 cb 8e bf
       0.4184577 0.19619855 0.0010832662 -1.1155843
000010 99 5e ca 3d 1d 3d 84 3e 38 27 d0 3e ce 19 16 bf
       0.09881324 0.25827876 0.40654922 -0.58633125
000020 e0 bd 32 c0 83 5a ee 3a 7a 29 16 3b 28 4d 23 3c
       -2.792839 0.0018184934 0.0022912906 0.009967126
000030 86 54 87 3e 97 8e bb b9 bd 09 f6 be 40 21 17 ba
       0.26431674 -0.00035773657 -0.48054305 -0.00057651475
000040 ad 01 27 bf 23 29 ee 3a 4c e5 99 39 85 11 8e bf
       -0.6523693 0.0018170219 0.00029353274 -1.1099097
000050 b4 63 3c bf b7 fc 0a c0 e9 26 65 c0 c1 be 1a bf
       -0.73589635 -2.1716745 -3.5805 -0.6044732
000060 ce 28 76 bb 54 af 0e 3f 0f 7a ef 3b 38 31 b6 3e
       -0.0037560943 0.5573628 0.0073082517 0.35584426
000070 3b 4e 8c 3e 37 ee 48 bf d5 87 fd bf ed 50 14 c0
       0.27403435 -0.78488487 -1.9807078 -2.3174393
000080 c0 0f c5 bf c8 87 18 40 f3 1e 96 b8 5d 20 49 3a
       -1.5395432 2.3832874 -7.158322e-05 0.0007672364
000090 1a d2 24 c0 de c7 12 40 16 34 5e bf 59 52 1e 3f
       -2.5753236 2.293449 -0.86798227 0.618444
0000a0 02 29 32 3f d5 69 d5 bf 7c 22 75 bf ff 59 3a 3f
       0.6959382 -1.6672922 -0.95755744 0.72793573
0000b0 a1 b0 47 bf e4 e2 89 3e 52 36 ba 3a ab 9d 61 3b
       -0.7800389 0.26930916 0.0014206863 0.0034426253
0000c0 b2 d2 97 bb 20 b4 95 bf 99 0e 79 c0 35 a6 33 be
       -0.004633271 -1.1695595 -3.891516 -0.17543872
0000d0 a8 50 3e 3f 0e 05 39 3b 02 86 30 3b d3 d0 6c bb
       0.7434182 0.0028231773 0.0026935344 -0.003613521
0000e0 31 ec ac bf 59 02 7a 3c 7d ec 64 c0 d7 81 e2 bf
       -1.350958 0.015259349 -3.576934 -1.7695874
0000f0 30 db 00 3b 72 dc d1 bf 6d b9 36 bf fa 31 6a c0
       0.0019661896 -1.63954 -0.7137669 -3.6593003
000100 ef 3c 10 3c 6a 0a 19 3a 65 30 3b bf b3 3a 26 c1
       0.00880359 0.00058380386 -0.7312072 -10.389331
000110 db fc b8 bc ff 14 2d bf eb 12 0f c0 62 3e 37 bf
       -0.022581508 -0.6761016 -2.2355297 -0.71579564
000120 55 38 df bf b2 45 b5 3c 44 3d c2 39 dc 2c 84 3d
       -1.7439066 0.02212796 0.0003704821 0.06453869
000130 50 35 22 c0 93 e8 72 3b 63 07 6c 40 2c 61 57 bb
       -2.534504 0.0037064895 3.6879508 -0.0032864315
000140 71 86 27 3e f8 c3 45 c0 64 c0 c6 bf 85 59 0e 3b
       0.16359879 -3.090086 -1.5527463 0.0021720838
000150 99 ae 09 c0 a6 1c 68 bf b0 4b 8c bf c2 50 77 c0
       -2.1512816 -0.90668714 -1.0960598 -3.864304
000160 94 12 0e 3b 7b ea 07 3b 21 15 66 c0 11 4a 33 3e
       0.0021678554 0.0020739126 -3.5950396 0.17508723
000170 b7 05 65 c0 fe 93 7d b7 00 f8 40 bd 20 07 b3 39
       -3.5784738 -1.5114432e-05 -0.04711151 0.0003414685
000180 49 be 0b 3f 56 f4 6f 3b a1 9e d7 be f9 d4 2c 3e
       0.5458723 0.0036614141 -0.42113212 0.16878118
000190 3f 18 81 bf 92 a3 27 bf f8 6d ff 3b 2c 7c 9c 3a
       -1.0085524 -0.65483963 0.0077950917 0.0011938862
0001a0 3a 87 e6 39 c5 e6 ab 3e 31 07 8c 3a 59 8c 98 3a
       0.0004396977 0.335745 0.0010683296 0.0011638507
0001b0 5a 5e 47 3a e4 ea 0f c1 09 01 32 bb c0 fb 60 bf
       0.0007605307 -8.994846 -0.0027161262 -0.8788414
0001c0 2c 63 b9 bb 5b 13 0c 3f de e7 0a c1 50 2e 08 3c
       -0.005657574 0.54717034 -8.681608 0.008311823
0001d0 28 53 75 39 06 f8 35 c0 84 a0 f4 c0 ea 80 7b bf
       0.00023395999 -2.8432631 -7.644594 -0.9824358
0001e0 24 40 23 c0 17 0c 6d bf d4 9a 85 3e c6 19 94 bf
       -2.5507898 -0.9259657 0.26094687 -1.1570365
0001f0 07 5e 7a bf 37 11 1f 40 16 24 f8 c0 a9 f5 2a c0
       -0.97799724 2.4854257 -7.754405 -2.671244
000200 5c fc ae 3c ac e5 3d 3a 23 6f a9 3e 1b 0f ea be
       0.021360569 0.00072440016 0.33092603 -0.4571465
000210 78 9d 77 c0 50 a7 e4 bf d4 55 a8 3e 7f ce 2d c0
       -3.8689861 -1.786356 0.32877982 -2.7157285
000220 00 be 87 3b ba 0d 95 3e 0d e4 28 ba 6c 8c 6e 3b
       0.004142523 0.29112035 -0.00064426736 0.0036399616
000230 08 25 32 3e 50 82 d7 3a 81 94 49 3b 8a d5 8d 3e
       0.17396939 0.0016442034 0.0030758681 0.2770198
000240 68 a8 7d 3b e1 12 14 3b 18 11 60 3e f3 f9 8c ba
       0.0038705114 0.002259426 0.21881521 -0.0010755643
000250 f4 5a f4 3a 66 91 72 39 6b 1a 1d 3b 61 4f 2d 3b
       0.0018642829 0.00023133084 0.0023972045 0.0026445019
000260 8e 90 24 be b2 ef 6f be c7 43 88 bf a1 5d ca 3a
       -0.16070768 -0.2343128 -1.0645684 0.001543928
000270 16 b6 84 3a 72 2e 48 3e fe d6 a2 37 43 f3 99 3f
       0.0010125067 0.19548967 1.9412018e-05 1.2027363
000280 02 55 21 3f 46 74 5a 40 07 51 96 3e a9 a3 b4 3b
       0.63020337 3.4133468 0.29358694 0.005512674
000290 0c 34 81 be 21 ad f7 be 33 fd b3 3e c2 63 ca 3a
       -0.2523502 -0.48374274 0.35154113 0.0015441107
0002a0 16 ec 83 3e 74 3a 2f c0 e8 01 37 3e 29 c2 99 3f
       0.25766057 -2.7379427 0.17871821 1.2012378
0002b0 2d e5 48 3e 69 58 60 40 63 08 7b 3b 64 19 1d 3c
       0.19618674 3.5053961 0.003830456 0.009588573
0002c0 5c b2 3c c1 54 c9 8e bb 3a 26 36 3e 89 93 65 39
       -11.793545 -0.0043574963 0.1778802 0.00021894103
0002d0 68 8b 0a c0 48 89 bf bd f2 31 42 bf 3d de 44 bf
       -2.1647587 -0.09352356 -0.7585746 -0.7690161
0002e0 e8 80 9e bf 2f ce 1e c0 a6 38 ce be 3c 6b fc 39
       -1.2383089 -2.4813344 -0.40277594 0.0004814508
0002f0 cd 7e 51 3b b4 5a 62 3a ee 60 d3 3a f5 7f 7e bb
       0.0031966448 0.00086347316 0.001612691 -0.0038833593
000300 0d d2 5f c0 b3 8d c6 bf 3b 52 04 bf af ce b1 3b
       -3.4971955 -1.5511993 -0.51687974 0.00542625
000310 6f ff 6d c0 f0 e3 ce 3a cd 17 be bf 0c 98 dd 3f
       -3.7187154 0.0015784483 -1.4851013 1.7312026
000320 4b b9 b1 bf f2 db ac bf 4c 23 3c 3b 6b 2e 24 c0
       -1.3884672 -1.3504622 0.0028707562 -2.5653331
000330 64 9c 1d bb 23 d1 5e bf 7d 0d 3b 3b e0 2f c8 3a
       -0.0024049515 -0.8703787 0.0028541975 0.0015273057
000340 0d 1a 84 3e ea 39 ae 3a 52 a1 a3 b8 4e 06 c4 39
       0.25801125 0.0013292406 -7.802494e-05 0.0003738873
000350 dd 49 9c 40 67 40 23 ba a8 86 28 c0 11 b4 a8 3a
       4.8840165 -0.0006227553 -2.6332188 0.0012871047
000360 7e 28 bd 3a 35 b2 b8 3e aa dc b6 c0 9e 5e 5c bb
       0.0014431623 0.3607346 -5.7144365 -0.0033625732
000370 da 0a 2d 3f 36 07 2b 3e a2 8d 20 c0 94 d5 23 c0
       0.67594683 0.1670197 -2.5086446 -2.5599108
000380 f9 fc 09 3a db a0 2d bf 50 79 62 3c 6c b9 e2 3b
       0.0005263831 -0.6782357 0.0138228685 0.0069190767
000390 db 3d 6f bf 4a 4a c3 3a 43 dc d0 bf 72 16 bb bf
       -0.9345376 0.0014899459 -1.6317219 -1.4616225
0003a0 9d 2e 81 bf 8f f4 c5 bf bd 9e d9 3a 1e 39 e8 bf
       -1.009235 -1.5465258 0.0016603094 -1.8142431
0003b0 18 4a 10 3b 19 84 7d 3e 43 6c af bb e4 50 c1 3b
       0.002201682 0.24757423 -0.005353482 0.0058995355
0003c0 c5 95 b4 3e 36 bf fc 39 72 0c c5 3b a0 7f 50 bf
       0.35270515 0.0004820765 0.0060134465 -0.8144474
0003d0 a2 7e 39 40 85 a5 40 3b 8c 44 85 3e 4b b8 e6 c0
       2.898354 0.0029395532 0.2602886 -7.2099967
0003e0 7d c7 44 bc ea 13 f3 39 a7 63 bf bb c1 8a 81 3b
       -0.012010452 0.0004636341 -0.005840737 0.0039533083
0003f0 de 4a af c0 f2 62 18 40 d1 fe 27 3e 81 4f 20 bf
       -5.477889 2.3810391 0.16405798 -0.62621313
