Models/Bloom_filter/result/model-dict-15.pt (torch, 533323 bytes, 7 tensors)

model.0.weight f4 [256, 2]
00000000: 2f5d 47bd 69d0 25bb 3705 a0bc 2ad6 993b
00000010: 477f ac3c 7543 b83b ad75 7abd d89a 56bd
00000020: 9e9e 03bd e87e 93bd 0df0 05be 04cd 803d
00000030: c98e d1be ae21 cfbc 3b4d a93b d7d4 48bd
00000040: 8628 93be ebcf c53e e28f f6bc 5f72 633c
00000050: 7a23 f3bc a127 d73e d82f bdbc f011 46bc
00000060: e086 91bf 93a6 d43d f687 80bc 65d6 503c
00000070: 5263 6abc 11cc 0d3d 8be5 07bd 992d 963c
00000080: 57a3 babd 347e 3a3e fd60 04bd 6970 25bc
00000090: 1ffd f5bc eeb1 543c 5766 f0bc 9bb3 553c
000000a0: 396a 99bd 5d9c 3c3d cd52 ccbc 9d0c 573a
000000b0: 4842 02bd fa53 48bd 340b 71be cc80 13bf
000000c0: 8bf4 9ebc a5f4 bd3c c5d7 b23d b986 cb3d
000000d0: 591b 3fbd 8941 81bc 88da 12bf 196b d13d
000000e0: a5af c5bc 5140 76bc a1d3 dcbc 9e2e bf3b
000000f0: 7a05 87bd 85f9 66bc 2993 353c 3e96 38bf
00000100: 4a28 8a3e c0ef 96bf ec8f 773e 5655 82be
00000110: c938 3d3b bda7 10be f3c1 683c c095 ccbc
00000120: c2b1 893c c68e 1bbd fa53 eabc 9bfc a6bd
00000130: 154f 703e 095b e03d a12a cebc 99ae 74bd
00000140: eca5 943e 456a 07be 38f8 7e3e 01f8 08be
00000150: bf8d 86bc ac84 84bb 073c 833e 15d0 13be
00000160: 5681 1dbc 7fc4 48bd 9f06 07bd 6c7a 27bb
00000170: 2c9a bbb9 5072 68bc 0af3 c53c 2071 c3bc
00000180: 4b38 233d 0fbc 5e3c a699 623c 1906 37bd
00000190: 096a 14bc 007d 5abb 73ed a3bd 9b74 893d
000001a0: cab2 49be 53d6 bb3e 3c68 c4bd 5dff 33ba
000001b0: 5b1b 28be 20de 1fbf 151e 92bb bbdb 6abb
000001c0: 9dc8 3e3e 7be0 5b3d 0935 103c 6830 46bc
000001d0: 7a68 07bd af5a b9bc d575 8d3e da9b d1bd
000001e0: 367d 04bb b8f6 3f3b 3285 09bc c44e 50bc
000001f0: 0e9e 7d3c 6fbf d13c 2552 3abd 4982 93bd
00000200: 9819 cfbc 1a5a fc3b 149a fcbc 8b71 0ebc
00000210: d2d9 87bc fa07 67bd 9ec8 c4be 50f2 10bd
00000220: d6d4 983e 2d1d 01be 9a41 7f3e 3a6c 1e3e
00000230: 4f9b dbbc 0286 51bd 268c 34bc 7d3c 02bc
00000240: 2a9f bdbc d9cf 85bb a57c f63a d313 9fbd
00000250: 10c1 4ebc 8c85 27bc 903c 05be 8171 c53e
00000260: 5b54 883e 278e 73be be3a 903e 6fbe debe
00000270: 29a8 6b3c 6a9d 4ebb 30f4 94bb bad4 28bc
00000280: 29b2 bf3b 4932 c3bc bfc5 8ebc e42b 96bc
00000290: df85 6e3e 1f88 90be f1ba b5be 1988 07bd
000002a0: b9a7 2fbf 7428 b6be c485 4ebc b260 26bd
000002b0: 264c 9abc 3376 edbe f703 bebc 102a 10bd
000002c0: 3f54 0bbc f826 92bd f0fd 0bbd d4c6 65bc
000002d0: 423c 013c 6a9e a9bc 7b36 7d3e 667d 0cbe
000002e0: 9a02 c2bc 3650 cc3c 57c0 7a3e aa7b 4abe
000002f0: a686 ed3d 3944 173e e2d2 01bd 87b0 8f3c
00000300: 910c e4bc 97c9 9abc 6716 c9bc d3dc 35bd
00000310: d4a0 a53d a28e eebe 693f 6fbb bb80 a53c
00000320: 8193 783e 9b7b 80be f974 95bd 645d 143d
00000330: ac67 5f3e 6d6a e0be 25e8 1ebc b01b 123d
00000340: ae99 aabc cd05 9e3a 82a2 98bd 672f a23e
00000350: fe73 e5bc 2e46 383b de6c adbc e443 533c
00000360: dcd0 babe d024 983e 7ac2 32be ac3e 843e
00000370: ad3f adbb cafc 89bc b176 6d3c a557 edbe
00000380: 4073 1fbd 9dfa 1c3d ef28 f2bc 5f91 ac3c
00000390: e9a8 553e dc84 c73d 5795 c9b9 1de3 48bd
000003a0: 68b8 503e d5be 32bf bfbb 5f3a 2ead 013c
000003b0: fd82 d4bb 429c 28bd 720d a5bc ad82 f43c
000003c0: 114d d3bc bf82 01bb 1441 f5bc 7ae4 d5bd
000003d0: 89c6 cc3c 0a1d 91bd 07e2 87bc 43c6 e63c
000003e0: 5fd4 793e 0fff a5be 8569 1e3c e085 9bbd
000003f0: 6014 f03d e95c bfbe e5a4 05bf 80dc 613e
-0.04867285 -0.0025301224 -0.019533737 0.00469472 0.021056784 0.005623276 -0.06114738 -0.052393764
-0.03213369 -0.0720194 -0.13079853 0.062891036 -0.4092925 -0.025284614 0.0051666773 -0.049031105
-0.28741854 0.3863519 -0.030097906 0.013882249 -0.029680002 0.42022422 -0.023094103 -0.012089238
-1.1369286 0.10383334 -0.015689831 0.012746428 -0.014305906 0.03461844 -0.033177894 0.01833229
-0.09113186 0.18212205 -0.032319058 -0.010097601 -0.030027924 0.012981875 -0.029345674 0.01304331
-0.074909635 0.046047557 -0.024941826 0.00082034786 -0.031801492 -0.04890821 -0.2353943 -0.57618403
-0.019403717 0.023187945 0.08732561 0.09937806 -0.04665694 -0.01577832 -0.573647 0.102255054
-0.024131605 -0.015029983 -0.026956381 0.0058344146 -0.065928414 -0.014097576 0.011082449 -0.7210425
0.26983863 -1.1791916 0.24175996 -0.2545573 0.0028872958 -0.14126487 0.014206397 -0.02497375
0.016808394 -0.037977956 -0.028604496 -0.081536494 0.23467667 0.109548636 -0.025166811 -0.05973682
0.29032838 -0.13224132 0.24899375 -0.13375856 -0.016425012 -0.004044136 0.25631735 -0.14434846
-0.009613356 -0.04901552 -0.0329653 -0.0025555147 -0.00035782286 -0.0141874105 0.024163742 -0.023857653
0.039848607 0.013594641 0.013830578 -0.04468355 -0.009058484 -0.0033338666 -0.08004274 0.06711694
-0.19697109 0.36686954 -0.09590194 -0.000686636 -0.16416685 -0.6244831 -0.0044591525 -0.0035836536
0.18631215 0.053680878 0.008801707 -0.012096502 -0.03305862 -0.02262625 0.2762896 -0.102348045
-0.0020216233 0.0029291343 -0.008393573 -0.012714092 0.015479578 0.025603978 -0.045488495 -0.07202584
-0.025280759 0.0077011706 -0.030835189 -0.008694063 -0.016583357 -0.05640409 -0.3843431 -0.035387337
0.2984988 -0.12608786 0.24927369 0.15470973 -0.026807455 -0.05115319 -0.011019742 -0.007948992
-0.023147184 -0.0040836153 0.0018805458 -0.07767453 -0.012619272 -0.010224711 -0.13011384 0.3856316
0.26626858 -0.23784696 0.28169817 -0.43504664 0.014383354 -0.0031526932 -0.004545711 -0.010304624
0.005850096 -0.023827689 -0.017428277 -0.018331476 0.23293255 -0.28228852 -0.35494187 -0.033088777
-0.686153 -0.35577738 -0.012605134 -0.04061956 -0.018835139 -0.4637924 -0.02319525 -0.035196364
-0.008503973 -0.07136339 -0.03417772 -0.014024455 0.007887902 -0.02070542 0.24727814 -0.1371971
-0.023682881 0.024940591 0.24487434 -0.19773737 0.11597948 0.14772119 -0.031695254 0.01754023
-0.027838023 -0.018894954 -0.024546815 -0.044400048 0.08087316 -0.46593195 -0.0036506301 0.020202985
0.24275018 -0.25094303 -0.072977014 0.036221877 0.21816891 -0.43831196 -0.009698902 0.035670936
-0.020825233 0.0012056172 -0.07452871 0.3167679 -0.028009411 0.0028118002 -0.021170076 0.012894604
-0.36487472 0.29715586 -0.17457 0.25829065 -0.0052871318 -0.016844172 0.01449363 -0.4635593
-0.03892827 0.03832494 -0.029560534 0.021065412 0.20865215 0.09742138 -0.00038448974 -0.049044717
0.20382845 -0.69822437 0.0008534751 0.007914824 -0.0064853416 -0.041164644 -0.020148013 0.029847467
-0.025793584 -0.0019761769 -0.029938258 -0.10443969 0.024997013 -0.07085617 -0.01658727 0.02817071
0.2439742 -0.32421157 0.0096687125 -0.07593894 0.11722636 -0.37375572 -0.52204734 0.2205677

model.0.bias f4 [256]
00000000: 0000 0000 d6d8 c2bc 810e 70bd 0000 0000
00000010: 0000 0000 6857 02bd 41bf f93d 3531 b2bb
00000020: 6313 17bd a34a 11bd e6e1 ccbd 0000 0000
00000030: 1db4 d63d eeb6 7cbc 2dbb e6bc 0afb 1dbd
00000040: 49cd a8bc 0000 0000 6e02 0ebd 758c 80bb
00000050: d4c4 58bc a630 cabb 0000 0000 f485 1c3e
00000060: 4c52 8ebc 9d32 87bd 0000 0000 c7b7 be3d
00000070: 0000 0000 fe01 f0bc 0000 0000 3cf4 043e
00000080: 9f89 80bc 2ebd 38bd f1f8 eaba 2728 3bbc
00000090: 5454 6cbc 0000 0000 26c8 45be 0000 0000
000000a0: e08b 29be c872 0dbe 0000 0000 1adf 0ebd
000000b0: 8c5f debc 0000 0000 0000 0000 4ead 05bd
000000c0: b20a 5dbd 1771 8fbc 0000 0000 7ea9 1cbd
000000d0: 737b 54bd 0000 0000 f511 293e 1263 b139
000000e0: cac7 b0bd 671f e9bb 0000 0000 ddf5 28be
000000f0: 76bd aebb 0000 0000 6912 29bd 497b 02bd
00000100: 331f d9bb 0000 0000 8460 4aba d2ad 083e
00000110: a874 8dbd 0eae 33be 0000 0000 0000 0000
00000120: 7ba6 b2bc 29b1 c6ba 0000 0000 bafb f5bd
00000130: 9daf 89bd 872a b33c 2bc8 56bc 0000 0000
00000140: 74cf 99bb 0000 0000 e57c 13bd 0345 fd3d
00000150: de6e 463e 0000 0000 09d2 de3d 0000 0000
00000160: 0000 0000 0000 0000 fad1 1abc 3e42 0abe
00000170: 8fb6 02bd 666a acbd 1d37 b1bd 6a20 bdbb
00000180: 0000 0000 0000 0000 8197 ba3d 88e6 9cbc
00000190: 14d3 36bd ef77 a7bc 08f7 4a3c b5f8 00bd
000001a0: 2231 b0bb 56b7 afbd 35a6 33bb aa51 78bb
000001b0: 8e7a 053d 88b6 43bc aff9 6d3a ad10 423e
000001c0: 565e 42bd e9b2 10bd 2fcb 69be 0000 0000
000001d0: 73d0 eb3c 3a9f 0fbc 7996 263a d72e 08bd
000001e0: da65 a8bc b6e8 81bc efe5 a2bc da9a aebc
000001f0: 88ad 003c b6da fdbb 503a 033e dfdc 083d
00000200: 0000 0000 d35f 73be 0000 0000 0000 0000
00000210: 8ad2 e93c 4ee8 b0bd 596d 49bd 0000 0000
00000220: 9a02 47bc e137 843a 876d 2b3e 021f 173e
00000230: 6345 2dbc b340 a73b 0000 0000 c374 d5bb
00000240: d614 1cbb 06e5 04bd 7968 51bd c7e0 6bbd
00000250: 0000 0000 19e0 7bbb 3161 67be 0000 0000
00000260: bad0 72bb 0000 0000 0000 0000 e432 87be
00000270: e336 fbbc fded 08bc e872 fb3d 4259 033e
00000280: 5307 64bb d15b 80bd cd7e 9fbd 9473 aebb
00000290: 43d1 5fbe f79e 5ebe 0000 0000 9f2c 023e
000002a0: 2606 83bc 942d 36bd fe75 1abd 0000 0000
000002b0: c5bf 34bc 0000 0000 0000 0000 8d09 11be
000002c0: 02b5 98bc be37 72be 0000 0000 fa32 a5bd
000002d0: c65e 1bbd f502 a03b 0000 0000 0000 0000
000002e0: 3174 433e 164d f0bc 3602 fdbc 08a8 50bd
000002f0: 5194 f23d 403e 3bbc 5ce9 97bd a834 1dbd
00000300: b06d 40bd 0000 0000 f1ff ca3c d602 1dbe
00000310: 0000 0000 0000 0000 3890 debb 0cb4 3c3d
00000320: 46bf a3bc f87d 433d 0000 0000 dcbc f53d
00000330: 0000 0000 f831 f1bb 330e 2dbb 0000 0000
00000340: 0000 0000 0000 0000 e8b5 f0bc 412a 06bd
00000350: 41fb 09bc 0000 0000 0000 0000 0000 0000
00000360: 80d5 7dbe 481e a9bd 82cf 06bd 4330 10bc
00000370: d132 a6bb 0000 0000 0000 0000 78c1 23bb
00000380: 0000 0000 fee1 023e 4f6f 66bd 1b47 32be
00000390: 0bc6 a9bb 0000 0000 c334 0b3e 44f4 2b3e
000003a0: 4635 d83d b2ba 803e 41bd 09bd 215c ce3c
000003b0: 0000 0000 631f b4bc 3ffe 0b3d 84a6 26be
000003c0: b6d9 52bc 6a4d aebd ed4e 68bc 0000 0000
000003d0: 5f58 4e3c 0000 0000 b313 af3b ea60 2fba
000003e0: 07e7 083c 63f4 d239 8f00 73bd 5036 2cbe
000003f0: 4dbb 003e 67d5 bdbc 3f77 84bc 00d0 3bbd
0.0 -0.023785036 -0.058607582 0.0 0.0 -0.03182164 0.12194682 -0.005437995
-0.036883723 -0.03547157 -0.10004024 0.0 0.10483573 -0.015424473 -0.028165424 -0.038569488
-0.0206057 0.0 -0.034670286 -0.003922994 -0.013230521 -0.00617035 0.0 0.15285474
-0.017373227 -0.066014506 0.0 0.093123965 0.0 -0.029297825 0.0 0.12983793
-0.015690623 -0.04510229 -0.0017926974 -0.011423147 -0.014424402 0.0 -0.19314632 0.0
-0.16557264 -0.13813317 0.0 -0.034880735 -0.02714517 0.0 0.0 -0.03263598
-0.053965278 -0.01750998 0.0 -0.038247578 -0.051875543 0.0 0.16510756 0.00033833884
-0.08631857 -0.007114339 0.0 -0.1650004 -0.005332644 0.0 -0.041277323 -0.031855855
-0.0066260337 0.0 -0.00077200704 0.13347557 -0.06907016 -0.17546865 0.0 0.0
-0.0218079 -0.0015158999 0.0 -0.12010904 -0.06722949 0.021870865 -0.013109247 0.0
-0.00469392 0.0 -0.03600778 0.123666786 0.1937823 0.0 0.10879905 0.0
0.0 0.0 -0.009449476 -0.13501832 -0.031912383 -0.084187314 -0.0865309 -0.0057716863
0.0 0.0 0.09110928 -0.019152895 -0.044634894 -0.020442931 0.012387998 -0.031487186
-0.005376951 -0.085798904 -0.00274123 -0.0037890472 0.03258758 -0.011945374 0.0009078038 0.18951674
-0.047453247 -0.035326872 -0.22831415 0.0 0.02878592 -0.00876599 0.00063548196 -0.033247795
-0.02055638 -0.015858036 -0.019885032 -0.021314073 0.007853873 -0.0077470196 0.12815213 0.033413764
0.0 -0.23767023 0.0 0.0 0.028542776 -0.086380586 -0.049176548 0.0
-0.012146616 0.0010087454 0.16741 0.14757922 -0.010575625 0.0051041483 0.0 -0.006514163
-0.002381613 -0.032444976 -0.051125024 -0.05758741 0.0 -0.0038433133 -0.2259567 0.0
-0.003705068 0.0 0.0 -0.26406014 -0.03066582 -0.008357522 0.12277776 0.12827018
-0.0034794405 -0.062675126 -0.07787857 -0.0053238366 -0.21857171 -0.21740328 0.0 0.12712334
-0.015994143 -0.04447706 -0.037710182 0.0 -0.01103205 0.0 0.0 -0.141638
-0.018640999 -0.23654076 0.0 -0.08066364 -0.03793218 0.004883165 0.0 0.0
0.19087292 -0.029333632 -0.030884843 -0.050941497 0.11844695 -0.011428416 -0.07417557 -0.038380295
-0.046979606 0.0 0.024780245 -0.15333113 0.0 0.0 -0.0067920946 0.046070144
-0.019988667 0.047727555 0.0 0.11998913 0.0 -0.007360693 -0.0026406168 0.0
0.0 0.0 -0.029383615 -0.03275514 -0.00842172 0.0 0.0 0.0
-0.24788475 -0.08257729 -0.03291274 -0.008800569 -0.0050719758 0.0 0.0 -0.0024987143
0.0 0.12781522 -0.056258496 -0.17409937 -0.0051810793 0.0 0.13594346 0.16792399
0.10557036 0.25142437 -0.033627752 0.025190415 0.0 -0.021987623 0.034178015 -0.16274458
-0.012869289 -0.08510859 -0.014178974 0.0 0.0125943115 0.0 0.0053429245 -0.00066901615
0.008355862 0.00040236404 -0.059326705 -0.16817594 0.1257145 -0.023173047 -0.016170142 -0.04585266

model.2.weight f4 [256, 256]
00000000: 4577 e83c 5590 80bc aab2 0bbc 891b 0abd
00000010: 4bd8 18bd 0100 26bd 9c36 e2be adae 15bc
00000020: d9c2 bc3e a070 94bc b663 bdbd b92d 3cbc
00000030: 462b 463a 70ec 923a 1f89 e83c 215e 5bbc
00000040: fa7e c3bc fb5f 6ebd b660 8fbc 32c9 a83c
00000050: 8f42 713c d5d8 a93c cc3f cf39 7349 ae3d
00000060: 8844 193d 5e02 d6be 37b7 8f3c 1f73 f4be
00000070: d4a2 233c 659e a93b 7eb3 35bb 1f7a 973d
00000080: f53e c8bf aafe b8be 0647 923c c9cf 9a3b
00000090: bed5 fe3b a12e b63c 5668 953e f1f0 c0bc
000000a0: b906 5e3d ff01 903d 111c 1b3c d670 ed3d
000000b0: dc16 7fbc 4760 b63a 8b86 0b3d bf5c bd3a
000000c0: 3732 8d3c 3538 c53c 4c2a c33a d86d e53b
000000d0: 0ae6 563e b443 473a 93ec 8a3e 7d62 3a3d
000000e0: d247 dfbe 6841 c63a fe75 1abc 8962 48bd
000000f0: b594 573c dca0 f83c 86c5 c6bb 06a5 aabc
00000100: a601 6c3d 118c b93b 3056 4bbd b763 fdbe
00000110: 1113 e6be 336f 7abf bc42 f6ba 250f adbc
00000120: eee8 50bc 92d8 8d3d 0d0b 463c a294 7e3e
00000130: ab27 a4bf 1e09 843e 9020 16bd 0964 f83c
00000140: 0fa1 a23c b299 033d 06b0 18be 044b ecbe
00000150: 680c 0ac0 c1eb 0b3d e316 ae3e 54b2 9fbc
00000160: f4a3 9b3c ce32 ec3b b134 743d 61f9 b33c
00000170: 3212 8e3d e7d2 35c0 0a73 c4be 015f 01bd
00000180: f4c8 1abc 00c4 1b3d f828 923e 7df6 e03c
00000190: 4f6e abbe cc62 97bd ea8d 36be 3a0e e7bb
000001a0: c057 633c 71dc 1ebb 0913 b9bb 603b 983a
000001b0: b233 ac3e 515d f23d 3616 f3bb 51cf 613e
000001c0: 8a93 1abc 55ee 6a3d 41f5 77be be0e 313c
000001d0: f6c2 b9be 38e9 fe3c 4d59 8d3c 9c1a a13d
000001e0: ba98 97bc 3a42 c23d aa9a 873d 572b 38bc
000001f0: 5a0b f13d d6f5 2b3d abdb 533e 169f 733e
00000200: b000 b2bc 6656 273f 6225 263c 61dd d2bc
00000210: dd23 b5be 36ac f8bf 7390 e63d 2dee ea3b
00000220: dc81 4bbb 7b3a ae3d fe2b 683e cd89 92bd
00000230: 138c cb3d 9b01 0a3d fe2d 96bb 383d 32bb
00000240: 52bd debc 9fa4 84bc a46b d0bc deac 743e
00000250: 8151 a4bb c098 563c de9d 743e e264 883c
00000260: 0d58 53bc afdf 913c 2973 3dbd 519e 403f
00000270: 5040 7f3d 7091 babc 19e5 7dbe 7942 0dbf
00000280: 423c 60ba 0537 d8be 06a3 203f 7b91 02bd
00000290: 0933 0fc1 34f7 cbbd 8f43 41bc 4ce0 e6be
000002a0: 2f20 813d c087 dbbe fbad 8ebc 0605 b5bc
000002b0: f210 f3bb cf26 183c bdd2 abbc d9f1 e03b
000002c0: 0009 f63b 3501 263f 9742 573c 36bb bbbd
000002d0: 0c39 da3b 1749 673d 2c2f 9d3c 2cc2 b23c
000002e0: 922b a73e 03f5 e93d f7bd 833d d73f a8bc
000002f0: 2d80 a83e 8f16 81bc c1ba 9bc0 a218 dd3c
00000300: a852 743e 0aad 92bd fe28 8ebd 73a3 f9bd
00000310: 7cf5 c1bc f293 fd3c 7ab1 c9bc ad5c 2ebe
00000320: 31c7 8d3a 0fef c4bd 2388 303c 58df b13d
00000330: 0887 b5bc c903 ea3c 310d ac3c 173f 0ebd
00000340: 4bef 59bc 5749 52bc 43b2 db3d 2f3e d7bd
00000350: 6b4b e83b 4514 b73c aac8 5dbc f6b5 9dbc
00000360: 5c76 883f e5f0 93bd 7a28 14bc 3bdc d6bc
00000370: a80f 273d 5889 9ebb 83e5 35bd c23c 09bd
00000380: 5cc2 1ebd 2420 06bf 8ce1 98be 0476 f8bd
00000390: 4cbb 1ebc bb32 023c 9c00 f8bc a1e6 9a3e
000003a0: 4cc5 8f3d 5e9d 2e3e 8ce8 853e 3093 283e
000003b0: eec6 b9ba 8cee ec3d f442 e2bc a28e 67bf
000003c0: c566 ccbb 40ae 093d 80a8 e2bb 9255 4b3b
000003d0: 91dc 91be f22e cdbb 956d 21bb 6624 1ebb
000003e0: 3a29 ed3d 93ae 9e3d afa4 2dbf 8a69 42bd
000003f0: 4489 cbbe 134b 8a3c b0f0 f03d 53e6 93bb
0.028377185 -0.015693823 -0.008526484 -0.033717666 -0.037315648 -0.040527347 -0.4418229 -0.009135884
0.36867407 -0.01812011 -0.09247534 -0.0114855105 0.0007559549 0.001120938 0.028385697 -0.013389141
-0.023864258 -0.058197003 -0.01750217 0.02060375 0.014725341 0.020733276 0.0003952965 0.08510103
0.037418872 -0.4179868 0.017543418 -0.4774408 0.009987552 0.005176353 -0.0027725394 0.073963396
-1.5644213 -0.36131793 0.017856132 0.004724477 0.007776945 0.022239031 0.29181165 -0.02355239
0.05420563 0.07031631 0.009467141 0.11593787 -0.015569415 0.0013914191 0.034063857 0.0014447196
0.017235858 0.024074653 0.0014889925 0.00700162 0.2098619 0.0007601336 0.27133617 0.045504082
-0.43609482 0.0015125694 -0.009427546 -0.048922095 0.013158013 0.030350141 -0.006066027 -0.020830642
0.05761876 0.005662449 -0.04964274 -0.4949014 -0.44936422 -0.97825927 -0.0018788199 -0.021125386
-0.012750847 0.06926073 0.012087596 0.24861386 -1.2824606 0.25788206 -0.036652148 0.030321138
0.01985219 0.032128997 -0.14910898 -0.46150982 -2.1570072 0.03416038 0.34001836 -0.019494213
0.018999077 0.007208205 0.059620563 0.021969499 0.06937064 -2.8409975 -0.38369018 -0.031584743
-0.009447325 0.038028717 0.28546882 0.027461285 -0.33482596 -0.07391891 -0.17827573 -0.0070512565
0.013875902 -0.002424028 -0.005648021 0.0011614375 0.3363319 0.11834205 -0.0074184192 0.22051741
-0.00943459 0.057356197 -0.2421465 0.0108067375 -0.36281556 0.031117067 0.017254496 0.078664035
-0.018505443 0.09485288 0.06621297 -0.011240802 0.11769743 0.041982494 0.20689265 0.23791155
-0.021728843 0.6536621 0.010140749 -0.025740327 -0.35378924 -1.9427555 0.1125802 0.007169506
-0.0031052744 0.08507248 0.22673032 -0.0715519 0.099388264 0.033692937 -0.0045831194 -0.0027197134
-0.027189884 -0.016191779 -0.025441952 0.23894069 -0.005014599 0.013097942 0.23888347 0.016649667
-0.012899411 0.017806856 -0.046252403 0.7524157 0.062317193 -0.022774428 -0.24794425 -0.55179554
-0.0008553901 -0.42229477 0.62748754 -0.031877022 -8.94996 -0.0995926 -0.011795892 -0.45093
0.06304967 -0.42877007 -0.017416945 -0.022097122 -0.0074177915 0.009286596 -0.020974511 0.006864768
0.007508397 0.6484559 0.013138435 -0.09166567 0.0066596325 0.05646619 0.019187532 0.021821104
0.3265043 0.114236854 0.06432717 -0.020538254 0.3291029 -0.015757827 -4.866547 0.026989285
0.23859656 -0.07161911 -0.069414124 -0.121893786 -0.023676626 0.030954335 -0.02462076 -0.1702754
0.001081681 -0.09615909 0.010774645 0.086851776 -0.022159114 0.028566258 0.021002384 -0.034728136
-0.013301681 -0.012834868 0.1072736 -0.105099075 0.0070890686 0.022348532 -0.013536612 -0.019251805
1.066112 -0.07223681 -0.0090428535 -0.026228061 0.040786415 -0.00483815 -0.044408333 -0.03350521
-0.038759574 -0.5239279 -0.2985958 -0.12131885 -0.00968821 0.007946665 -0.030273728 0.3025408
0.07020053 0.17052218 0.26153982 0.16462398 -0.0014173666 0.11568937 -0.027619816 -0.90452015
-0.006237837 0.033613443 -0.0069170594 0.0031026346 -0.2848859 -0.0062617 -0.0024631966 -0.0024130582
0.11580129 0.07748141 -0.6782941 -0.04746393 -0.39753163 0.016881501 0.117646575 -0.004513541

model.2.bias f4 [256]
00000000: 5e7b 83bd ac22 81bc 1bdd 073e 45a7 143c
00000010: 423e f1bb 8e3e 4dbc 39e7 653c eceb 353d
00000020: 9c44 73bd 76e5 06bd 2fac 8bbc 374c 24bd
00000030: 7fc3 64bc 075c d93c 3f64 37bc 75b7 d4bc
00000040: f989 a4bb 88a0 05bc 742a 75bd 2455 8bbe
00000050: d822 a7bc 119e 1fbd ba2b 93bc 45fb 6dbc
00000060: aa62 2abd a8ff 9ebc aee8 4ebc 1ed7 10bd
00000070: 4497 bebd 2632 5cbe 58c1 85bd ac7d 2f3d
00000080: db81 7abc 83fb 8ebc d322 863b a4b3 4fbe
00000090: d852 93bc e2cc fdbb 0d77 06bd 46d2 1c3e
000000a0: 6e68 a43d 5230 1cbb c9a1 6dbe 10d6 803d
000000b0: 36f0 66bc cdee b6bb d3be a2bc e1fb 19bc
000000c0: 0e1e 4d3d 84ca 4cbb fb19 debd b934 b73d
000000d0: 8353 cfbd d15f 543b 40b9 21be 481b e3bc
000000e0: 8480 4abe 92e7 aabc 008d 093e 9e7e 4abd
000000f0: 96a1 7ebc 44a7 4ebe b9f2 fabc 4092 bfbc
00000100: d80d d0bc 40cd d43d 0618 123e 7da5 c2bd
00000110: 265b 0d3d 93d0 d6bd 86a5 85be 3dd3 90bb
00000120: 6c21 c13d 54df 11be b6cb 9f3d 0a1b 7ebc
00000130: 7f68 02be ef3d 933c 59ea 9bbc 48d0 bc3d
00000140: 2dae 39be 8e94 00bd 2572 babd bcd4 79bc
00000150: de92 2abc 089d 79be 73af 85bc a6d6 eabc
00000160: ac12 cbbc 15da 11bc d799 7e3d 733b a4bc
00000170: e2e6 c03d 55ba b0bc 12bf 52bc 41f5 6ebd
00000180: b1f7 0cbc 0150 46be 71da 63bc 952b edbd
00000190: bbc3 4abe c955 6bbb b6c6 f93d 1380 d1bc
000001a0: 7a9d 31bc 1dd8 8bbd d843 9d3d bceb da3d
000001b0: e6c1 63be 245c 07be f28d ed3d 815e 6abd
000001c0: 55c4 603d ecce 793b 494d b33b e9fc 41bc
000001d0: d15d e6bd 89c2 55bc 7bf9 9ebd 1986 c6bc
000001e0: 7387 fcbd 4c7b b5bc 83f7 143d b602 cfbc
000001f0: e055 51bc 3407 8fbd dc93 703d c02b 7fbe
00000200: 6b55 39bd 3030 1dbd a310 98bd bcb8 30be
00000210: 23cc debc 7703 44bd ab78 dabd 09cf 6ebb
00000220: 64db b7be 7bcb b53d 8f88 f2bd 8b9d ecbc
00000230: 5e84 0f3d aef1 e2bd a603 18bd c806 95bc
00000240: 3209 adbd f55c 80bc de7c 4e3d 06fd 033e
00000250: 9bcb b4bd df12 89bc ac29 10bd a44f 83bc
00000260: 7524 82bd 3939 82bc 470f 253e 0247 6cbc
00000270: 8a86 b03d a900 55bc 79b9 1ebe a7d6 cbbc
00000280: 5b22 abbc cd3f cb3b 9c87 57ba 9d94 15bd
00000290: 3212 68bd 360b 95bc fcb9 31bc 66fc c73d
000002a0: e42c 4abc bca6 073d b5b2 93bc 4afb 0cbd
000002b0: 3823 3fbd d3bf 2abe 1ecc 55bc 074d 163e
000002c0: 3ac9 04be 0ddd 16bd fbaf e9bc 748b 58bd
000002d0: 6db4 323d e225 0abe 0e23 9cbc 1a1d c1bd
000002e0: dbaa 09bd 66bc 533d d28c 22bc 0938 9e3d
000002f0: 69c3 f6bb 3ac8 1a3e 46c5 b8bc d21e f83d
00000300: 90db c2bc 1b66 48bc 8202 e2bd 4150 69bd
00000310: f41a 083e fa69 c73d f95c bc3d f4a2 c7bc
00000320: d519 553d baa5 82bc ac78 5fbc d540 c63d
00000330: 6668 61bc 0a39 9c3d 929c 49be d12c 3e3c
00000340: 95ef 08be 3080 24be 00b1 fabc b554 efbc
00000350: f7ba 063e 33ee 3dbe 83b5 53bc 65a8 5cbe
00000360: 0d53 19bc 3132 2dbc 974a bebc 3459 0a3e
00000370: c7ef bcbd aac1 48bc 5dd1 2cbe 66c9 24bc
00000380: 3591 173c fe83 b9bd f843 48bd 0000 0000
00000390: c0ac a33d ee7d 23bd 0f68 3abe 2ca5 04bd
000003a0: eaa3 93bc 3642 8f3d b1a2 60bc 53a8 77be
000003b0: 3c0c d8bd a428 f1bc 46d8 9cbd c4a9 403e
000003c0: ebdd 8ebd d24c 8abd 27b0 cc3d 0b6f 17bd
000003d0: 00e5 aa3d c2ba 49bc e110 29be a511 8abe
000003e0: 426a 013e 5d0e 3b3a 881b e13d 21a0 35bc
000003f0: 03d4 be3d ae5a a7bc 9034 75bc b00e 943d
-0.06420015 -0.015763603 0.13267939 0.009073083 -0.007362158 -0.012527121 0.014032179 0.044414446
-0.059391603 -0.032933675 -0.017049877 -0.040111747 -0.0139626255 0.02653314 -0.011193334 -0.025966385
-0.0050213304 -0.008155949 -0.05985494 -0.27213395 -0.020402357 -0.038969103 -0.017965186 -0.014525239
-0.041598 -0.019409016 -0.012628717 -0.0353614 -0.093061954 -0.21503505 -0.06531018 0.04284446
-0.015289749 -0.017453915 0.004093507 -0.20283371 -0.017983839 -0.007745371 -0.03282838 0.15314588
0.08027731 -0.0023832512 -0.23206247 0.06290829 -0.014095357 -0.0055826665 -0.019866383 -0.0093984315
0.05007749 -0.0031248638 -0.10844799 0.08945603 -0.101233505 0.0032405744 -0.15793324 -0.02772297
-0.19775587 -0.020862374 0.13432693 -0.049437158 -0.015541455 -0.20180994 -0.030633317 -0.023385167
-0.025397226 0.10390711 0.14266977 -0.09504221 0.034510754 -0.10489001 -0.26102847 -0.004419713
0.09430203 -0.14245349 0.07802527 -0.015509376 -0.12735175 0.017973868 -0.019032644 0.09219414
-0.18132849 -0.031391673 -0.091038026 -0.015248474 -0.010410992 -0.24376309 -0.016319012 -0.028666805
-0.024789177 -0.008902092 0.06215843 -0.020047879 0.094190374 -0.021573225 -0.0128629375 -0.05833936
-0.008603976 -0.19366457 -0.013907061 -0.11580578 -0.19801228 -0.0035909286 0.12196104 -0.025573766
-0.010840768 -0.0682833 0.07678956 0.10689494 -0.22241935 -0.13218743 0.115993395 -0.057219032
0.054874737 0.003811772 0.0054718596 -0.011840084 -0.11248363 -0.013046869 -0.077624284 -0.024233865
-0.123305224 -0.02215352 0.036368858 -0.025269847 -0.012776822 -0.06983796 0.05873476 -0.24919033
-0.045247477 -0.038376033 -0.07425048 -0.1725797 -0.02719695 -0.047854867 -0.10667547 -0.003643932
-0.3590957 0.088767014 -0.11842453 -0.028883716 0.035038345 -0.11081253 -0.037112854 -0.01819171
-0.084490195 -0.015669325 0.05041205 0.1288949 -0.08827897 -0.016732631 -0.03519599 -0.016029187
-0.0635461 -0.015896427 0.16119109 -0.014421226 0.08619411 -0.013000646 -0.1550044 -0.024882628
-0.020890405 0.006202674 -0.00082218065 -0.03651868 -0.056657977 -0.018193822 -0.010847565 0.09764938
-0.012339804 0.033117995 -0.01802955 -0.034419335 -0.046664447 -0.16674738 -0.013049154 0.14677821
-0.12967387 -0.036831904 -0.028526297 -0.052867368 0.0436291 -0.13491014 -0.019059684 -0.09429379
-0.033610206 0.051693343 -0.0099212695 0.077255316 -0.007530619 0.15115443 -0.022555005 0.121152535
-0.023786336 -0.012231375 -0.110356346 -0.0569613 0.13291532 0.0973701 0.091974206 -0.024369694
0.05202659 -0.015948165 -0.01363961 0.096803345 -0.013757801 0.07628067 -0.19688633 0.011607365
-0.13372643 -0.16064525 -0.030601978 -0.029215196 0.13157259 -0.18547897 -0.012921694 -0.21548612
-0.00935818 -0.010571049 -0.023228927 0.13510591 -0.092254214 -0.012253204 -0.16876741 -0.010057783
0.009250929 -0.09058379 -0.048892945 0.0 0.07991934 -0.039915018 -0.18203758 -0.032384083
-0.018022496 0.069950506 -0.013710664 -0.24185304 -0.105492085 -0.029438324 -0.076584384 0.1881476
-0.06975921 -0.067529336 0.09994536 -0.036971133 0.083444595 -0.012312593 -0.16510345 -0.26966587
0.1263819 0.0007135624 0.10991579 -0.011085541 0.09317782 -0.020428982 -0.014966145 0.07229364

model.4.weight f4 [256, 256]
00000000: 07af 1bbe eef2 653c 14c1 a23c a4fb 0a3d
00000010: 88d8 eb3d 2c0b 9abc 8186 d83d e0de f6bd
00000020: 84d3 563d 49d1 44bf 67f2 1abd b4c0 cf3d
00000030: 8430 43bd b3a7 423f 6790 0abd f548 28bd
00000040: 423d d1b9 561e 843d 3c6b c8bd a20f f63e
00000050: 208f 313e 97ae 103e 28d0 44bc 206c 163d
00000060: a4b2 353e 8b90 ce3d 7667 1abf bcb3 e23c
00000070: e6d5 033e f786 bd3d 894e 5c3e de75 d3bd
00000080: 5adb 49bb d0b9 823c 76d3 3c3e b4dd 183e
00000090: fa25 813b fa70 2a3d 8512 8dbc 8fda 283e
000000a0: efc1 c33e 7296 a0bc 06e3 903b aeb7 b4bb
000000b0: 5054 e53b 533b 0ebd b6b4 013d 9d88 9a3c
000000c0: 69a7 c7bd 3f0d 2fbe 4afd 883e 09c5 a7bc
000000d0: a0c3 00be 7cd8 b33d 749a 0f3e 275e 9d3c
000000e0: 934d 103e 29af 41bd ed24 873e 7ff9 19bc
000000f0: 0a51 893c 7db5 2d3e facd 783e 2578 593e
00000100: cb6d 7a3d e7a9 ec3d afaf 783d 31e3 123e
00000110: adca 76bd 52e9 ecbd 3b69 a4bc 0727 bf3c
00000120: 2614 053d 4496 d33d 9259 f33d b8c2 6b3c
00000130: 29a1 643e 08c2 4ebf 1717 65bc 54ba 92bd
00000140: 9e39 9a3c 1a2e 003e 959a 363e 35d5 1dbd
00000150: 406f 00bc 3921 8b3e fa60 2fbd e98c ccbe
00000160: 6697 833c 47cb 413d cdcc b3be 211f acbc
00000170: 68ac 203e c89f 08bf 68c2 03bd 5760 00bf
00000180: 1e03 bebc abb6 56bf 8e46 35bc 972d 9bbd
00000190: 4af9 3cbe 87d4 86bc 555b 413d 60fa f03c
000001a0: a898 ec3c 9146 8e3e a74e 0bbe 40d5 2fbc
000001b0: def1 a93c dece 3c3e a08c f9bc 04f4 18bd
000001c0: 19f5 dd3d c90a 103e 352f 33bd 6570 c73c
000001d0: 9ede 083e 896a cc3c af44 0b3e ddd8 cd3b
000001e0: 6de4 b7bc db6f 353d 3f2a d5bd f4ec 903b
000001f0: 50ea 043d 617e 1e3d a3a2 c9bc 8ed1 1ec0
00000200: 619a 00be d900 1e3d ed90 553e 0f37 bbc0
00000210: 76ad c2bd 97a4 0d3e 6399 a8be 92b3 0d3b
00000220: c6bd e33d 43a9 c7bd 4316 623e 9a70 d1bb
00000230: 49e0 85bb ca8c 1cbd 0c5f bdbc 974f b2bb
00000240: c455 a53e 6ef1 d5bc de9d 39be 96c6 5d3e
00000250: d3ce 1c3f 932d 46bb 6d81 ebbd 6d0a fcbc
00000260: 8d26 01bf dcaf febb 9d08 ae3c 3e6a c6bc
00000270: 3916 49bd 79c1 3abd 3f81 0fbf 0fe8 07bd
00000280: cfb1 f9bc 9f44 3c3d 768d f43d e4d5 9abc
00000290: b554 773e b99a e13c f034 c83c 0d09 2a3e
000002a0: 23c2 dd3d 57ed b33e 95fb 573c 78de 8dbe
000002b0: 45de 103e c353 c5bd d676 253d d51d 56bd
000002c0: d014 4b3c da3f 193e 3e3f bfbd ec84 303e
000002d0: 474c e93d 3928 d5bd ee2c a63b 73fc 353e
000002e0: 81ce 2bbc efb8 113e 6473 56bc d171 3b3e
000002f0: 511c a43c 54b3 1f3f 28da 1f3e 32e8 023e
00000300: 88b7 85be 8963 5b3b f8be 9b3d 2ac9 ed3e
00000310: 21cc 7a3d e491 363d 89a9 92bd be85 763c
00000320: 4414 be3d dfe5 cabc 6b3a 363c 68d4 b83b
00000330: e559 273f 1bc3 29be 02a1 4bbf bcac b83c
00000340: 41f5 043e eb6e 533e 7b47 57bc 28ee 4ebc
00000350: 4439 263d 4000 a63e 8fc9 c43c 8d5b 173d
00000360: 307b e3bc 5274 6dbc 0df6 f5bb cc53 333d
00000370: 6d17 15be 798b 153d 2355 e83d bc6d babc
00000380: 2d11 ab3d d3af 243e 8fcb b7be 56a9 0d3d
00000390: 8346 7fbd 360c 673d 4a51 cf3c d9ed 9bbe
000003a0: c3e9 e73c 08d2 af3e 343b 1fbd 169b b3bd
000003b0: 84cd 863c f442 603d a111 f6bc 49f6 753d
000003c0: 53c4 a13d 9ac6 4bbd 576b b93d 91ae 563d
000003d0: b66e 853e e315 3ebd 9c39 81bd 19dc 3c3d
000003e0: 07bf 5abe 9ad2 5f3d f673 a238 3a79 fc3c
000003f0: 5ddc cc3b d8ed ecbc f73e 8dbd 0a56 8a3e
-0.15203486 0.01403497 0.019867457 0.03393139 0.115159094 -0.018804155 0.105725296 -0.12054229
0.05244781 -0.76881844 -0.03782883 0.10144177 -0.04765369 0.7603714 -0.03382912 -0.041085202
-0.00039909227 0.064510986 -0.09786078 0.48058802 0.17339754 0.141291 -0.012012519 0.03672421
0.17743927 0.10086163 -0.6031412 0.027673595 0.12874565 0.09254258 0.21514334 -0.10325216
-0.003080091 0.015957743 0.18440041 0.14928323 0.0039412947 0.04161165 -0.017220745 0.16489623
0.38233897 -0.019602988 0.0044215946 -0.0055150604 0.006998576 -0.034724545 0.03166648 0.01886397
-0.09748728 -0.17094897 0.26755744 -0.020479696 -0.12574625 0.087815255 0.14023763 0.019209934
0.14092092 -0.047286186 0.2639536 -0.009397863 0.016762275 0.16963764 0.24297324 0.21237238
0.061139863 0.11555844 0.06071442 0.14344479 -0.06025188 -0.1156794 -0.020069709 0.02333404
0.03248992 0.10331395 0.118823186 0.014389686 0.22327103 -0.8076482 -0.013982556 -0.071644455
0.018826302 0.12517586 0.17832406 -0.03853341 -0.007839024 0.27173784 -0.042817093 -0.39951256
0.016063403 0.047313 -0.35117188 -0.021010937 0.15690768 -0.53368807 -0.032167822 -0.50147
-0.023194846 -0.8387248 -0.011064185 -0.07577055 -0.18454471 -0.016458763 0.04720624 0.029416263
0.028881386 0.27788213 -0.13604222 -0.010731995 0.020745214 0.18438289 -0.030462563 -0.037342086
0.10837764 0.14066614 -0.043746192 0.024345586 0.13366172 0.024953144 0.1360042 0.0062819556
-0.02244779 0.044296127 -0.104084484 0.0044227783 0.03245002 0.038694743 -0.024613684 -2.4815402
-0.12558891 0.038575027 0.20856066 -5.850471 -0.09505741 0.13832317 -0.32929525 0.0021621925
0.11120181 -0.09749081 0.22078805 -0.006391597 -0.0040855748 -0.038220204 -0.023116611 -0.0054416168
0.32291996 -0.0261161 -0.18126628 0.21657786 0.6125309 -0.0030239567 -0.114992954 -0.03076669
-0.5044945 -0.007772429 0.021244342 -0.024220582 -0.04909346 -0.045594666 -0.5605659 -0.033180293
-0.030480294 0.04596388 0.11941044 -0.01890082 0.24153407 0.027539598 0.024439305 0.16605015
0.10828044 0.35142013 0.01318254 -0.27708793 0.14147289 -0.09635117 0.040396534 -0.052274544
0.012395099 0.14965764 -0.09338234 0.17238206 0.11391502 -0.104080625 0.005071274 0.17772083
-0.010486246 0.14230703 -0.013089035 0.18305136 0.020033034 0.6238301 0.15610564 0.12783888
-0.26116586 0.0033476076 0.07604784 0.46442538 0.06122983 0.044572726 -0.071612425 0.015046535
0.09281209 -0.024767814 0.011122326 0.005640555 0.65371543 -0.16578333 -0.79542553 0.022543304
0.12984182 0.2064778 -0.013139601 -0.012630023 0.040581957 0.32422066 0.024021892 0.036952544
-0.027768701 -0.014493065 -0.007506138 0.043781087 -0.14559717 0.036509965 0.113443635 -0.022757404
0.083528854 0.16082697 -0.3589749 0.03458532 -0.062323105 0.05640813 0.025307316 -0.304549
0.028309708 0.3433993 -0.03887482 -0.08769815 0.01645542 0.05475135 -0.030037703 0.06004933
0.07898774 -0.049749948 0.090536766 0.052412573 0.26061028 -0.04640759 -0.06309816 0.04610834
-0.21361934 0.054644205 7.7463614e-05 0.030819524 0.0062518553 -0.028922006 -0.06896775 0.27018768

model.4.bias f4 [256]
00000000: 0b62 6d3d 9f23 ed3d f1a8 76bc 5ad1 80bc
00000010: 6f45 953d e69e b93d 0405 553d 5913 b1bc
00000020: 7975 10bd 9789 1b3d 6be1 3bbc 0969 51bc
00000030: 5685 ac3d d01f 8cbc 827b 813c ab71 c7bc
00000040: 9c15 473d 72a6 e0bc aab1 87bc a6c0 0abd
00000050: a4eb 393c 5e1c 65bd dcda 8dbc be8c e9bb
00000060: 264c 67bc 2d12 e43c 57c8 d33c 0f76 933d
00000070: 7202 733d 7e5a 333a d72a b63c 9bdf 18bc
00000080: cdde e8bb c386 b3bc 28b9 97bc 36f5 cabc
00000090: 5859 89bd 81ce bb3d c332 ce3c c9d7 093e
000000a0: d93a b83d 132f 42bc 298f e93c ecbd 853d
000000b0: 4173 6bbd 1555 803d 2fcc adbc d648 1abc
000000c0: d708 59bd c4e8 a83c 7e94 afbd 7a45 d5bc
000000d0: 410b 4c3c 4652 a8bc af46 f5bb 6777 adbc
000000e0: ef80 82bc dda0 7bbc 598e 493d 0d14 1fbd
000000f0: f6ae eebc f7b3 3fbd 061a c13c f46c d4bb
00000100: 94be a4bc b702 66bc 1bd8 3d3d 36bd 3b3d
00000110: d38b 9abd a203 ecbb c20e 2ebd 68c6 05bd
00000120: 7246 a7bd 22b2 40bc 7ef2 cfbc f93f cd3d
00000130: 2c60 703d 1ab7 b0bc c5b2 343d 367f 91bc
00000140: fc39 a33d c0e8 51bd 574f 793a 7787 16bd
00000150: 7215 e43d 3565 24bd 9f47 46bd ca10 83bd
00000160: fa47 8ebc 9ac1 68bc 765b 08bd 31d9 d93d
00000170: a9d1 31bd 95a2 323d 16a3 913d 2ba5 62bc
00000180: 2c0a ba3d 1fa2 b03d d9ed 323b eebe c93d
00000190: 0ee6 97bc 1fb3 81bd 9a66 c83c 8d8e 8dbc
000001a0: 3be2 f3bc 302c 9c3d 0928 7cbc 3a1b f5bb
000001b0: 9766 93bc 3152 293d 0bc4 9c3d 1355 ab3d
000001c0: 5fd2 19bc 39f7 bd3d a093 9f3d 9840 ddbc
000001d0: 3cec 86bc 7231 4a3d 03bb 053c cc4d 07bc
000001e0: 71d1 a83d 4605 4abd 1a55 b93d 6ce3 08bd
000001f0: 9e8b 4f3d 96d2 6abb 91f1 ce3c a331 febc
00000200: 3c08 7ebd 75fa d0bc 2421 743d 394d fc3c
00000210: ae13 23be 46dd 213c 35e7 683d 2dc1 14bd
00000220: 4752 42bc 5ac5 5c3d 722a 8d3d 462a a1bc
00000230: bbf2 d73d bc4a 54bc 429c 58bc 4fc1 8e3d
00000240: 74ad 8fbc 6f2a 0cbd 4457 1b3d 7970 18bc
00000250: fb4b 95bc b053 fbbb 4586 a2bb f848 d2bc
00000260: e8d0 ffbc 5bc4 6a3b df28 423d e385 c1bc
00000270: 3284 cbbc b8b7 ef3d 422c 8fbc bdfb e23d
00000280: 6843 183e 9f96 d13c 96db a83d d1b9 93bc
00000290: 6730 5fbd e199 ebbb c27f 973d 99e5 b7bc
000002a0: 0323 b73d a2b0 583c 2a59 d53d b57f f13d
000002b0: 7529 ec3d 872c 1e3d 0640 08bc 088c 6fbc
000002c0: 13bc 00bd 20eb 893d eb5b e13d 106e 75bc
000002d0: 0bdd e0bc 3756 79bd c2ab 933d 95c8 69bc
000002e0: b37e 303d 3088 41bd cb0d c8ba 703a 803d
000002f0: 10b0 a8bc d98e 2ebc f917 8abc 977e abbc
00000300: 03a6 173d 2e62 b73b 80e4 233a 675b 8c3d
00000310: b0d1 89be b3bf a7bc ae6d 49bb a251 d43c
00000320: 4b76 433d c94a 35bb dd26 9cbc 8606 20bc
00000330: 758d edbb 8980 91bd 856b 47bc 5a9a 17bc
00000340: c4f4 b53d 35dc 60bc eb15 d8bc 894b 73bc
00000350: 6557 92bd b0be bb3d 1f83 153d e17e 64bc
00000360: 08d8 d1bc 97bc 973d d54b d0bd d851 a73d
00000370: 4bf7 663d 92b6 9b3d f9a2 033d d60a bbbd
00000380: b7d2 b23d 0a39 da3c 82f1 14bc 86a5 b43d
00000390: 56d1 103d 519b 92bc a14c d7bb d676 81bd
000003a0: 0736 29bd a94e 73bd d8a3 cdbb 4f85 c83c
000003b0: efe7 4bbd 1298 7e3d 8179 8ebc 04c5 f33c
000003c0: d488 973d 7b28 60bc 3512 43bd 56e2 663d
000003d0: 53e0 d73c bd3a 253d 59bd bf3d 4eea cbbc
000003e0: acab 05bd 6fe9 c73d 9dca ad3d c95f 79bc
000003f0: e44f a73d 022e 053c 10c2 cf3d 950c b63d
0.05795483 0.1157906 -0.015054927 -0.015724827 0.07288634 0.090635106 0.052006736 -0.021615671
-0.03526828 0.037973013 -0.011467318 -0.01278139 0.08423869 -0.017105013 0.015805963 -0.024346193
0.048604593 -0.027423117 -0.016564209 -0.03387513 0.011347685 -0.055935256 -0.017316274 -0.0071273735
-0.014117276 0.027840698 0.025852365 0.07200252 0.059328504 0.00068417925 0.022237225 -0.009330655
-0.007106638 -0.021914845 -0.018520907 -0.024775129 -0.06706494 0.09170247 0.02517069 0.13461222
0.08995599 -0.011852044 0.028510647 0.06530365 -0.05748296 0.06266228 -0.021215526 -0.0094167795
-0.052986946 0.020618804 -0.085732445 -0.026034106 0.012453855 -0.020547044 -0.007485233 -0.0211751
-0.015930621 -0.015358177 0.04920802 -0.03883748 -0.029136162 -0.046802487 0.02357198 -0.006482715
-0.020110406 -0.014038733 0.046348672 0.045834742 -0.075462006 -0.0072025815 -0.042494543 -0.032659918
-0.08167733 -0.01176122 -0.025384184 0.100219674 0.058685467 -0.021571685 0.0441158 -0.017760854
0.07970044 -0.05124736 0.0009510419 -0.036750283 0.11136903 -0.04013558 -0.048408147 -0.06399687
-0.017368305 -0.014206314 -0.03329035 0.10637129 -0.043412838 0.04361208 0.07111184 -0.013833324
0.090839714 0.08624672 0.0027302413 0.0985087 -0.018542316 -0.06332993 0.024462987 -0.017279888
-0.029770961 0.076256156 -0.0153904045 -0.0074800523 -0.017993255 0.04133815 0.0765458 0.08365836
-0.009388535 0.092756696 0.07791829 -0.02700834 -0.016470067 0.04936356 0.008162263 -0.008258294
0.08243073 -0.049321435 0.09049435 -0.03342001 0.05067026 -0.0035831085 0.025261672 -0.031029528
-0.06201957 -0.025510052 0.059601918 0.030798541 -0.15925476 0.009879416 0.05686112 -0.03631704
-0.011860437 0.053899147 0.068928614 -0.019673478 0.10544344 -0.012957271 -0.0132208485 0.069704644
-0.017538764 -0.034220155 0.03792502 -0.009304159 -0.018224707 -0.0076698884 -0.004959854 -0.02566956
-0.031227544 0.0035822603 0.04740226 -0.023623412 -0.02484331 0.117049634 -0.017477158 0.110831715
0.14869463 0.025584517 0.08245008 -0.01803294 -0.05448952 -0.0071899747 0.07397415 -0.022448348
0.08942225 0.013225706 0.10417397 0.11791936 0.11531345 0.038616683 -0.008316046 -0.014620788
-0.03142936 0.067343 0.1100386 -0.014979854 -0.027449152 -0.060873237 0.072104946 -0.014269014
0.04308958 -0.04724902 -0.00152629 0.06261146 -0.020591766 -0.010654175 -0.016857134 -0.020934386
0.037023555 0.0055964207 0.00062520057 0.06853371 -0.2691779 -0.020477151 -0.003073554 0.025917832
0.047720235 -0.0027662984 -0.0190615 -0.00976718 -0.007249529 -0.07104594 -0.012171631 -0.009253109
0.08884576 -0.013724376 -0.026377639 -0.014849552 -0.071455754 0.0916723 0.036502 -0.013946266
-0.025615707 0.074090175 -0.10170714 0.08169907 0.05638818 0.07603182 0.032137845 -0.09132926
0.08731597 0.026638526 -0.009090783 0.088206336 0.03535589 -0.017896326 -0.006570414 -0.06321494
-0.04131129 -0.059401188 -0.006275635 0.024477629 -0.049781736 0.062156744 -0.017391922 0.02975703
0.07399145 -0.013681526 -0.047624785 0.056368195 0.026352083 0.04033922 0.09362287 -0.024891999
-0.032634422 0.09761321 0.08485911 -0.015220591 0.08169535 0.008128645 0.10144436 0.088891186

model.6.weight f4 [1, 256]
00000000: ba77 993e bc53 463e 2cee 323c 3162 18bf
00000010: 53e3 083e ba87 863e c2b6 953e 24d3 4fbe
00000020: 122d eebf 68cc 913d 963c bd3c d5ff bd38
00000030: e166 973e a523 6cbb a45c cbbe 7474 bebb
00000040: c73a 4ebe 6310 963c 5cb6 0bbb f2a0 83bf
00000050: 4d6b 85bf 84fb 1bc0 4c59 26c0 374f 43bf
00000060: 0d1b 1bbd 96f2 583d 7e51 5e3d 856c 303e
00000070: 45ab 923e ce4b 68bf 6da7 9dbe b3b5 3dbf
00000080: bec5 41bf 3828 a2bc 692f 3dba d075 fd3b
00000090: 5795 15c0 0174 0dbf a647 c3bf 9f65 143f
000000a0: f336 e23e 8073 98bf 885c 77bd db8e 033f
000000b0: 0377 91bf f952 9a3e ac56 6b3c 1229 0e3d
000000c0: b1b0 a9bc 2dfb 3bbd 7171 29c0 8664 ecbe
000000d0: 4c88 173d 0e82 e93c c274 de3c 3236 13b9
000000e0: 232d 3ebf 0536 18be 099f 8bbe e28d 65bf
000000f0: c862 a23c c05b ffbd cd43 c8bf eba0 80be
00000100: 28c5 b53d 02dd c03b e6c6 a7be 8abb b8bd
00000110: 2fad 1a3b f496 28bf 0806 a5bf fe80 2ebf
00000120: 951a 6bbf eb13 54bc 58c8 743b 0c92 403e
00000130: 5987 96be 5d0e 193d badf 9d3d 2ab6 07bd
00000140: f285 a03e 3399 c7bf 4c42 90bf 1664 b33c
00000150: ab1a d5be ce76 92bf e84a 8ebe bf0e 14bd
00000160: 190a b33c f447 ab3c fba2 0cc0 78db 353e
00000170: 3273 5dc0 0946 a33d 8198 c6be 259d 613b
00000180: 8fef f03e 15b0 113e 84f2 05bf bb38 333e
00000190: f58f 29bf 3338 edbe 3841 c2bd 1064 473c
000001a0: 7a41 913b b4f8 303e 6bb5 413c f03d 403c
000001b0: e73e fb3b 9b22 2fbd 61a9 fe3d 181a 8bbe
000001c0: 70a0 69bd 6d8c f73e 1a13 17bf bf9d ab3d
000001d0: e64f 8f3b 2eb8 bdbd ca01 c9bf 1ab1 7ebf
000001e0: e881 8cbe 2c25 10bf 96cd 923e 3295 64bf
000001f0: f005 37be 146a 3b3f 7c6d d8bf 830b 8dbf
00000200: 92f3 0c3c 834f ef3b c8de a33e 5a1d 0fbf
00000210: e247 24c0 ebb4 f6bf bd72 8e3e 1c86 c4bc
00000220: 49fc 83bb d3b2 9a3e 3da4 e43d 3e4f 163d
00000230: c8b9 2b3e ffbe d3bc ed1d 013d 2c8b b53e
00000240: add4 1f3d 2b9a ba3c cae4 c13d 44c8 0e3a
00000250: 19f8 993c 166e 2dbb 42a8 49bc 0968 da3c
00000260: 7976 e4be 0dae c2be 85fc 5abe d659 9cba
00000270: a435 303c 81ed 4f3e 0e36 4d39 2664 3e3f
00000280: 72ca 1a3f 5671 483d 203a c63e bfa4 633d
00000290: a20b 3bbf 1130 8abe be05 c33e 6c0d 7f3c
000002a0: 6461 853e 7cd9 ffbf 5f43 3f3e 19f3 403f
000002b0: 8ed3 453e bfe4 9a3d 142d 1e3d 2dfa c53d
000002c0: 3b12 0ac1 c13c e43d 2326 3c3e 27a8 103b
000002d0: d45c b6bf 179d a7be 11ee 8fbe 0a15 3abf
000002e0: 7217 4fbf 68a4 6fbe 6d38 83be f09b d03d
000002f0: bea8 063d 5eb1 113c 6c30 853c 3e5c 20bd
00000300: 3623 15c0 9bd5 a7bf cfa9 e4be b3bd ec3d
00000310: 20e4 42c0 d949 873c b2aa 0bbf 1ce9 4f3d
00000320: f75a d0bf fbef c9bf a29b ed3c 91b3 d4bf
00000330: bddc 4a3c 2bf7 b0be 9ed4 ed3c 502e 763c
00000340: 84d2 873e ce8f 5b3c 5235 4eba 94e1 7b3b
00000350: f8a5 853f 03be 1f3e 0033 d0bd b299 543c
00000360: a160 6e3c 56f7 e43e 77c8 8cc0 7c33 0b3e
00000370: 4685 c13e 0855 ac3e 5041 3cbf 7ba9 58c0
00000380: 80af 173e ef1d 90be 6218 74bc bb1d 193e
00000390: cc44 52bd e61a 763c 3f25 6bbf 85cb 80bf
000003a0: b754 d3be 16b1 5dbf 6f07 06bc 598e bebf
000003b0: 0c68 d43b eb94 143e a911 5dbd a0ea 813d
000003c0: 5331 cf3e 2b41 9f3b 9652 783d af0e 7ebf
000003d0: c210 5d3d a023 963d a44d 993e c7b7 0dc1
000003e0: dc97 7c3b 72ae 2c3e 63a7 153e c23f 233d
000003f0: 40a6 c7be 0e61 693c 68b1 283e cca2 b4bf
0.29974157 0.1936788 0.010921042 -0.5952483 0.13367967 0.26275426 0.29240996 -0.20295388
-1.8607504 0.071190655 0.023100179 9.059875e-05 0.29570678 -0.0036031988 -0.39719117 -0.005812222
-0.2013961 0.01831836 -0.0021318411 -1.0283492 -1.0423371 -2.4372263 -2.5992002 -0.7629275
-0.037867595 0.052965723 0.054276936 0.17228897 0.28646293 -0.9074067 -0.30791798 -0.74105376
-0.75692356 -0.019794568 -0.00072168425 0.0077349916 -2.33724 -0.5525513 -1.525624 0.5796756
0.44182548 -1.1910248 -0.06039098 0.51389855 -1.1364444 0.30141428 0.014363926 0.034707136
-0.020714136 -0.045893837 -2.647549 -0.46170443 0.036995217 0.028504398 0.027155284 -0.00014039202
-0.74287623 -0.14864357 -0.27269772 -0.8966962 0.019822493 -0.12468672 -1.5645691 -0.2512277
0.08875495 0.005885721 -0.32768935 -0.09020145 0.002360176 -0.65855336 -1.2892466 -0.68165576
-0.91837436 -0.012944202 0.003735086 0.18805712 -0.29400137 0.037367214 0.07708688 -0.03313271
0.31352192 -1.5593628 -1.1270232 0.02189831 -0.4162191 -1.1442506 -0.27791524 -0.036146875
0.0218554 0.020908333 -2.1974475 0.17759502 -3.460156 0.079723425 -0.38788226 0.003442594
0.4705777 0.14227326 -0.52323174 0.1750211 -0.66235286 -0.4633194 -0.09485096 0.012169853
0.0044328542 0.17282373 0.011823039 0.011733517 0.0076674107 -0.04275761 0.1243465 -0.27168345
-0.05703777 0.48349324 -0.5901352 0.08379697 0.0043735383 -0.09263645 -1.5703671 -0.99488986
-0.2744286 -0.5630672 0.28672475 -0.89290154 -0.17873359 0.7320874 -1.6908412 -1.1019138
0.008602994 0.0073031797 0.32005906 -0.5590416 -2.5668874 -1.9273962 0.27821913 -0.02398973
-0.0040278775 0.30214557 0.111641385 0.036696665 0.16770089 -0.02584791 0.03152268 0.35457742
0.039021183 0.022778591 0.09467466 0.0005446712 0.01879506 -0.0026463321 -0.012308182 0.026660936
-0.44621637 -0.38023415 -0.21385391 -0.0011928629 0.010754976 0.20305444 0.0001957046 0.74371564
0.6046516 0.04893621 0.3871622 0.055577036 -0.73064625 -0.26989797 0.38090318 0.015567165
0.26050866 -1.9988246 0.18678044 0.7537094 0.19318983 0.07563161 0.03861721 0.09666858
-8.629451 0.111444004 0.18373923 0.0022072883 -1.4247079 -0.32737038 -0.28111318 -0.72688353
-0.8089515 -0.2340256 -0.25628987 0.10185993 0.03287577 0.008892385 0.01625844 -0.03915047
-2.330274 -1.3112062 -0.44660804 0.1155962 -3.0451736 0.016514705 -0.54557335 0.05075942
-1.627776 -1.5776361 0.029004876 -1.6617299 0.01238173 -0.34563574 0.029032048 0.01502569
0.26527798 0.013400985 -0.0007866222 0.0038434016 1.0441275 0.15599827 -0.101659775 0.012976097
0.014549405 0.44719952 -4.399471 0.13593858 0.37796992 0.33658624 -0.7353716 -3.3853443
0.14813042 -0.28147838 -0.014898391 0.14952748 -0.05133514 0.0150210615 -0.9185371 -1.0062109
-0.4127557 -0.86598337 -0.008180483 -1.4887191 0.00648213 0.14509933 -0.05397192 0.06343579
0.4046732 0.0048600635 0.060625635 -0.99241155 0.05397106 0.07331014 0.29942048 -8.8573675
0.0038542664 0.1686342 0.14614634 0.039855726 -0.38994026 0.014244331 0.16473925 -1.4112182
