Models/Bloom_filter/result/model-dict-39.pt (torch, 533323 bytes, 7 tensors)

model.0.weight f4 [256, 2]
000000 45 56 47 bc ad ca 25 ba b0 ff 9f bb d5 d0 99 3a
       -0.012166564 -0.00063244515 -0.0048827752 0.001173521
000010 52 79 ac 3b 13 3d b8 3a 09 6d 7a bc 67 93 56 bc
       0.005263486 0.0014056287 -0.015284785 -0.013096667
000020 14 9a 03 bc cd 79 93 bc 69 eb 05 bd 89 c8 80 3c
       -0.008032341 -0.018002415 -0.032695208 0.015720623
000030 ff 18 0a bf 1e b4 3a bd 60 47 a9 3a e4 cd 48 bc
       -0.5394439 -0.04558193 0.0012914948 -0.012256119
000040 cc 06 a0 be 31 be d5 3e 55 87 f6 bb 83 6a 63 3b
       -0.31255186 0.41746667 -0.007523457 0.0034700937
000050 6a 55 14 bd bf 23 f3 3e 52 29 bd bb 15 0b 46 bb
       -0.03621427 0.4748821 -0.005772748 -0.0030219008
000060 75 25 bc bf e7 20 f0 3d 8b 83 80 bb 2b cf 50 3b
       -1.4698931 0.117250256 -0.003921931 0.0031861763
000070 5a 5b 6a bb 13 c7 0d 3c d8 e0 07 bc 61 28 96 3b
       -0.0035760016 0.00865342 -0.008293353 0.0045824503
000080 2b 3c 2c bd f6 be c7 3c 68 5c 04 bc aa 6a 25 bb
       -0.04204957 0.02438305 -0.008078672 -0.0025240579
000090 a2 f4 f5 bb 91 aa 54 3b ff 5d f0 bb 35 ac 55 3b
       -0.007505969 0.0032450298 -0.007335424 0.0032603864
0000a0 e6 64 99 bc cf 95 3c 3c b8 4b cc bb 31 05 57 39
       -0.01872487 0.0115103265 -0.0062346123 0.00020505932
0000b0 cc 3d 02 bc 12 4d 48 bc a0 cc 77 be 85 f6 37 bf
       -0.007949304 -0.012225406 -0.24199152 -0.71860534
0000c0 0e ef 9e bb 0d ee bd 3b f6 79 ec 3b 6e c8 e8 3b
       -0.004850275 0.0057962 0.0072166873 0.007103971
0000d0 c5 14 3f bc 0f 3d 81 bb bd 09 24 bf 3d ad 25 3e
       -0.011662667 -0.0039440463 -0.6407736 0.16179366
0000e0 cc a8 c5 bb c6 37 76 bb fe cb dc bb 08 28 bf 3a
       -0.006032085 -0.0037569865 -0.006738185 0.0014584074
0000f0 ca 00 87 bc 81 f1 66 bb 42 60 34 3d ed 45 60 bf
       -0.016479868 -0.0035239162 0.04403711 -0.876067
000100 a7 5b ae 3e 86 eb c5 bf dc 3c 90 3e 6d 9a 95 be
       0.340543 -1.5462501 0.28171432 -0.2921938
000110 1c 9c 27 3a 0a a3 10 bd 5c c4 68 3b ae 8e cc bb
       0.00063938065 -0.035311736 0.003551743 -0.0062425947
000120 00 ad 89 3b 66 89 1b bc df 4b ea bb cd f6 a6 bc
       0.0042015314 -0.009493208 -0.007150158 -0.020381356
000130 a1 b2 8d 3e 62 fa ee 3d 7e 23 ce bb 1a a6 74 bc
       0.27675346 0.116688505 -0.006290852 -0.01493218
000140 94 60 8e 3e 9e c9 01 be a8 fa 87 3e ea 23 fa bd
       0.27808058 -0.12674567 0.26558423 -0.12213881
000150 1b 89 86 bb 17 80 84 ba 9b 71 b1 3d d4 c2 db bd
       -0.0041056997 -0.0010108975 0.08664247 -0.1073052
000160 e6 7b 1d bb 8a bd 48 bc ef 01 07 bc a0 74 27 ba
       -0.0024030148 -0.012252221 -0.008240207 -0.0006387923
000170 b3 93 bb b8 3f 6a 68 bb 2c ec c5 3b 5d 6a c3 bb
       -8.944366e-05 -0.0035463718 0.006040117 -0.005963607
000180 a8 32 23 3c 5a b4 5e 3b cb 91 62 3b c3 ff 36 bc
       0.009960808 0.003398201 0.0034571763 -0.011169377
000190 e8 64 14 bb 76 75 5a ba c0 e7 a3 bc da 6f 89 3c
       -0.0022643153 -0.0008333543 -0.020007968 0.016776968
0001a0 26 0a 47 be d4 fc bb 3e 6d 61 c4 bc 21 f9 33 b9
       -0.19437465 0.3671633 -0.023972237 -0.00017163578
0001b0 e3 af 45 be 6b c9 3f bf 06 19 92 ba 99 d3 6a ba
       -0.19305377 -0.74916714 -0.0011146374 -0.0008957922
0001c0 b5 33 9c 3e 6b 9e 67 3d 1a 30 10 3b 8d 29 46 bb
       0.305082 0.056547564 0.0022001327 -0.0030237169
0001d0 c8 63 07 bc 3d 54 b9 bb ad 72 91 3e bd 75 d8 bd
       -0.008263536 -0.005655794 0.28407803 -0.10569332
0001e0 a1 78 04 ba 17 f0 3f 3a 73 80 09 bb 86 47 50 bb
       -0.00050533755 0.0007321848 -0.0020981103 -0.0031780913
0001f0 50 95 7d 3b 25 b8 d1 3b b8 4b 3a bc 2f 7d 93 bc
       0.0038693734 0.0064001256 -0.011370592 -0.018004028
000200 6a 12 cf bb 58 51 fc 3a 54 91 fc bb a3 6c 0e bb
       -0.006319334 0.0019250317 -0.007707754 -0.0021732233
000210 1f d5 87 bb f2 ff 66 bc 62 98 d4 be 95 4a 23 bd
       -0.004145279 -0.014099108 -0.4152251 -0.03986605
000220 81 66 a1 3e 8e f3 14 be 5c b7 88 3e be da 28 3e
       0.31523517 -0.14546034 0.26702392 0.16489694
000230 b7 93 db bb cc 7e 51 bc ee 85 34 bb 01 38 02 bb
       -0.0067009586 -0.012786578 -0.0027545649 -0.0019869807
000240 a4 98 bd bb 33 cb 85 ba f0 58 f6 39 56 0e 9f bc
       -0.0057860184 -0.0010207653 0.0004698704 -0.019416016
000250 e8 b9 4e bb c1 7f 27 bb bc c8 09 be 7d 17 d0 3e
       -0.0031543914 -0.0025558325 -0.1345548 0.4064292
000260 7d 01 8c 3e 7d 8b 7a be b3 2b 83 3e a8 27 cc be
       0.27344885 -0.24467273 0.25619277 -0.39874005
000270 01 a0 6b 3b 3c 96 4e ba 03 ef 94 ba e3 ce 28 bb
       0.0035953524 -0.0007880663 -0.0011362735 -0.002575808
000280 1e 95 bf 3a 8c 2b c3 bb cf c0 8e bb ae 26 96 bb
       0.0014616584 -0.005956119 -0.0043564807 -0.0045822477
000290 74 c5 87 3e 1d ca a7 be 4c f9 ca be 9c 91 8c bd
       0.26517832 -0.32771388 -0.39643323 -0.0686371
0002a0 8e 39 4e bf 4f 0f c8 be 9a 7e 4e bb f3 5a 26 bc
       -0.8055657 -0.3907418 -0.0031508566 -0.01015352
0002b0 1c c3 19 bd f3 4c 15 bf 5f fd bd bb 0e 25 10 bc
       -0.037539586 -0.5832054 -0.0057980265 -0.008797897
0002c0 71 4f 0b bb eb 21 92 bc 15 f9 0b bc de be 65 bb
       -0.0021257068 -0.017838439 -0.0085432725 -0.0035056393
0002d0 c5 37 01 3b 90 98 a9 bb f5 0d 87 3e ed 47 fa bd
       0.001971708 -0.0051756576 0.26377836 -0.1222075
0002e0 e5 fb c1 bb 23 49 cc 3b e3 d1 93 3e 83 e7 62 be
       -0.0059199207 0.0062343045 0.28871068 -0.22158627
0002f0 12 30 8c 3c 47 db 89 3c 67 ce 01 bc 90 ab 8f 3b
       0.017112765 0.016828192 -0.007922745 0.0043844655
000300 a7 04 e4 bb 34 c4 9a bb 6f 0f c9 bb 8a d6 35 bc
       -0.0069585624 -0.0047230963 -0.006135873 -0.011098513
000310 96 c1 74 3d c0 a8 1a bf 26 37 6f ba fa 7a a5 3b
       0.05975493 -0.6041374 -0.0009125344 0.0050500603
000320 c0 9d 90 3e e4 56 95 be d0 6f 95 bc 49 58 14 3c
       0.28245354 -0.29167855 -0.018241793 0.009054252
000330 21 85 5f 3e 8f c9 df be ac e2 1e bb a0 16 12 3c
       0.21828128 -0.43708465 -0.0024243994 0.008916527
000340 c8 93 aa bb 4f 00 9e 39 b1 4f 96 bd e6 d7 9b 3e
       -0.005205605 0.00030136338 -0.07339419 0.30438155
000350 0c 6c e5 bb c9 3f 38 3a df 66 ad bb 8d 3c 53 3b
       -0.0070014056 0.00070285477 -0.005291804 0.0032232136
000360 c7 d4 eb be 74 e7 c0 3e 5e 58 37 be 33 55 8c 3e
       -0.46060774 0.37676585 -0.17904803 0.27408752
000370 a8 39 ad ba fd f7 89 bb 11 5d 1a 3b 68 09 04 bf
       -0.0013216035 -0.0042104707 0.0023554007 -0.5157685
000380 b8 6d 1f bc 30 f5 1c 3c 8d 20 f2 bb 6b 8b ac 3b
       -0.009730749 0.009579942 -0.0073891343 0.0052656434
000390 03 d9 5a 3e f5 15 d9 3d 5f 8e c9 b8 27 dc 48 bc
       0.21371846 0.10599891 -9.6109456e-05 -0.01225952
0003a0 07 fc 6e 3e f4 20 4e bf 01 b4 5f 39 b2 a8 01 3b
       0.23338328 -0.8051903 0.00021333994 0.0019784388
0003b0 ab 7b d4 ba 67 96 28 bc bf 07 a5 bb 3c 7a f4 3b
       -0.0016211172 -0.010289765 -0.005036324 0.0074608605
0003c0 b9 45 d3 bb 43 7e 01 ba 97 38 f5 bb 16 dd d5 bc
       -0.0064475206 -0.0004939774 -0.0074835527 -0.026106399
0003d0 18 41 cc 3b 07 18 91 bc 55 dd 87 bb 4b be e6 3b
       0.0062333457 -0.017711652 -0.004146258 0.0070417277
0003e0 8d 60 84 3e 09 91 ae be 09 50 1e 3b 7f 80 9b bc
       0.25854912 -0.34095028 0.0024156591 -0.01898217
0003f0 6a 8b 0b 3e 28 f2 dd be 2e 4d 14 bf 93 e6 69 3e
       0.13627401 -0.43348813 -0.57930267 0.22841863

model.0.bias f4 [256]
000000 00 00 00 00 16 d2 c2 bb 2b 06 70 bc 00 00 00 00
       0.0 -0.0059454544 -0.014649908 0.0
000010 00 00 00 00 df 52 02 bc ee f5 27 3e 0b 2b b2 ba
       0.0 -0.007954328 0.16402408 -0.001359315
000020 9d 97 1e bd a0 45 11 bc a2 88 e5 bd 00 00 00 00
       -0.03871881 -0.008866698 -0.11207701 0.0
000030 eb b8 15 3e 2e ae 7c bb 5e b3 e6 bb 8d f5 1d bc
       0.14621322 -0.0038555968 -0.007040425 -0.009641063
000040 93 56 cc bc 00 00 00 00 83 fd 0d bc 06 88 80 ba
       -0.024943626 0.0 -0.008666399 -0.0009806163
000050 4f bd 58 bb a0 29 ca ba 00 00 00 00 ba a8 42 3e
       -0.003307182 -0.0015423782 0.0 0.19009677
000060 63 4d 8e bb a9 82 de bc 00 00 00 00 ca 87 c3 3d
       -0.0043427213 -0.027161913 0.0 0.09547384
000070 00 00 00 00 b4 f9 ef bb 00 00 00 00 9a 8a 0d 3e
       0.0 -0.007323468 0.0 0.13822404
000080 cf 16 9d bc 31 44 4b bd 96 b9 05 ba 85 11 3b bb
       -0.019175915 -0.04962558 -0.0005101202 -0.0028544378
000090 27 4c 6c bb 00 00 00 00 c3 b8 57 be 00 00 00 00
       -0.0036056133 0.0 -0.21066575 0.0
0000a0 9a 6f 1f be 10 8a 18 be 00 00 00 00 3b fd 81 bd
       -0.15569916 -0.14896417 0.0 -0.06347128
0000b0 d7 57 de bb 00 00 00 00 00 00 00 00 ae a8 05 bc
       -0.0067853737 0.0 0.0 -0.008157892
0000c0 0d 03 5d bc 20 6c 8f bb 00 00 00 00 11 a4 1c bc
       -0.013489497 -0.004376903 0.0 -0.009560601
0000d0 72 30 5b bd 00 00 00 00 f6 1a 4a 3e f7 5c b1 38
       -0.053512998 0.0 0.19736847 8.457334e-05
0000e0 0d 26 07 be e2 16 e9 ba 00 00 00 00 c3 1d 2d be
       -0.13198109 -0.0017783309 0.0 -0.16905884
0000f0 63 b7 ae ba 00 00 00 00 8f 0c 29 bc c1 76 02 bc
       -0.00133298 0.0 -0.010317936 -0.007962883
000100 b2 17 d9 ba 00 00 00 00 7f 59 4a b9 10 55 13 3e
       -0.0016562848 0.0 -0.00019297561 0.14387918
000110 86 d8 8a bd 14 c2 3d be 00 00 00 00 00 00 00 00
       -0.0677958 -0.18531066 0.0 0.0
000120 4c a0 b2 bb 58 cc c6 b9 00 00 00 00 bc ce 05 be
       -0.005451238 -0.0003791775 0.0 -0.13067144
000130 f9 36 92 bd 4f 7b 94 3c be c0 56 bb 00 00 00 00
       -0.071393915 0.018125204 -0.0032768692 0.0
000140 9f e8 99 ba 00 00 00 00 eb 10 19 bd 4a 97 04 3e
       -0.00117423 0.0 -0.03736965 0.12948337
000150 78 2b 62 3e 00 00 00 00 e6 01 12 3e 00 00 00 00
       0.22086895 0.0 0.14258537 0.0
000160 00 00 00 00 00 00 00 00 97 cc 1a bb 3d 3f 17 be
       0.0 0.0 -0.002362048 -0.14770217
000170 07 b2 02 bc 5c d8 ca bd 29 26 77 bd e0 19 bd ba
       -0.007977015 -0.099045485 -0.060339127 -0.0014427267
000180 00 00 00 00 00 00 00 00 47 a5 0b 3e 1b e1 9c bb
       0.0 0.0 0.13637267 -0.004787577
000190 8b 07 4b bd 21 72 a7 bb 96 aa 68 3c 38 f4 00 bc
       -0.04956774 -0.005110041 0.014200827 -0.007870726
0001a0 04 2b b0 ba 59 52 a4 bd 01 a0 33 ba 0f 49 78 ba
       -0.0013440554 -0.08023519 -0.00068521505 -0.0009471336
0001b0 3f ec 19 3d 90 4b 28 bc 72 f1 6d 39 eb 90 62 3e
       0.037578817 -0.010271922 0.00022692027 0.22125594
0001c0 96 57 42 bc e6 ad 10 bc 7c a0 76 be 00 00 00 00
       -0.011861702 -0.008830523 -0.24084657 0.0
0001d0 0a ab 02 3d 48 9a 0f bb b8 90 26 39 24 2a 08 bc
       0.031901397 -0.0021912027 0.00015884906 -0.008310828
0001e0 04 60 a8 bb 39 e4 81 bb 84 84 a3 bb c6 94 ae bb
       -0.005138399 -0.003963974 -0.0049901623 -0.005327794
0001f0 14 86 1a 3c 05 08 fe ba e0 26 18 3e e7 8e 3c 3d
       0.009431381 -0.0019381052 0.1485858 0.04603472
000200 00 00 00 00 2b 52 84 be 00 00 00 00 00 00 00 00
       0.0 -0.2584394 0.0 0.0
000210 79 ce fd 3c 1f cd cb bd 65 66 49 bc 00 00 00 00
       0.030982243 -0.09951233 -0.012292479 0.0
000220 ae fb 46 bb 21 3a d4 bc 14 ae 4d 3e 1c d7 26 3e
       -0.0030362415 -0.025906624 0.20085937 0.16292995
000230 5e 3f 2d bb 06 30 a7 3a 00 00 00 00 60 6d d5 ba
       -0.0026435475 0.0012755401 0.0 -0.0016283207
000240 77 0f 1c ba 6e e0 04 bc 40 61 51 bc 30 22 8a bd
       -0.0005953232 -0.008110149 -0.012779534 -0.06744802
000250 00 00 00 00 64 d7 7b ba 36 5e 59 be 00 00 00 00
       0.0 -0.0009606986 -0.21227345 0.0
000260 56 c8 72 ba 00 00 00 00 00 00 00 00 3d 15 82 be
       -0.000926142 0.0 0.0 -0.2540683
000270 31 2e fb bb 3c e9 08 bb 44 93 22 3e 1e 0b 13 3e
       -0.0076654186 -0.0020890972 0.1587649 0.1435971
000280 6b ff 63 ba bd b3 77 bd 7e a3 a9 bd 92 6d ae ba
       -0.0008697423 -0.060474146 -0.08283137 -0.0013307801
000290 fd ae 61 be 81 b8 58 be 00 00 00 00 1a 30 0b 3e
       -0.22039409 -0.21164133 0.0 0.13592568
0002a0 82 37 83 bb a3 89 4a bd ab 70 1a bc 00 00 00 00
       -0.00400442 -0.049447667 -0.009426276 0.0
0002b0 82 b9 34 bb 00 00 00 00 00 00 00 00 b3 e0 16 be
       -0.0027576392 0.0 0.0 -0.14734153
0002c0 b8 af 98 bb 13 00 84 be 00 00 00 00 51 31 a5 bc
       -0.004659619 -0.25781307 0.0 -0.020165117
0002d0 66 59 1b bc 6c fd 9f 3a 00 00 00 00 00 00 00 00
       -0.0094817635 0.0012206263 0.0 0.0
0002e0 b8 68 73 3e 2e ea f1 bb 72 f9 fc bb 76 11 73 bd
       0.23770416 -0.0073826527 -0.007720166 -0.059342824
0002f0 3f ec 2d 3e c2 37 3b bb ea 25 91 bd 39 2f 1d bc
       0.16984652 -0.002856717 -0.0708731 -0.009593778
000300 c9 ec 33 bd 00 00 00 00 6e e9 af bc 38 34 2a be
       -0.043926988 0.0 -0.021473613 -0.16621482
000310 00 00 00 00 00 00 00 00 87 88 de ba 7f 21 59 3d
       0.0 0.0 -0.0016977944 0.05301046
000320 71 de 80 bc 58 84 59 3d 00 00 00 00 ec 3f 10 3e
       -0.015731068 0.05310473 0.0 0.14086884
000330 00 00 00 00 a2 29 f1 ba 2d 08 2d ba 00 00 00 00
       0.0 -0.0018399248 -0.00066006446 0.0
000340 00 00 00 00 00 00 00 00 94 ad f0 bb 6a 19 06 bc
       0.0 0.0 -0.007344911 -0.00818477
000350 79 f6 09 bb 00 00 00 00 00 00 00 00 00 00 00 00
       -0.002105145 0.0 0.0 0.0
000360 76 24 7a be 01 b0 da bd dd ca 06 bc 40 2b 10 bb
       -0.24427971 -0.10678101 -0.008227077 -0.0021998435
000370 0f 2d a6 ba 00 00 00 00 00 00 00 00 d5 bb 23 ba
       -0.0012678223 0.0 0.0 -0.00062459457
000380 00 00 00 00 6f ea 11 3e e5 04 a6 bc 0e 9e 4b be
       0.0 0.14249586 -0.020266006 -0.19884512
000390 2f c0 a9 ba 00 00 00 00 e2 92 28 3e 08 32 40 3e
       -0.0012950952 0.0 0.16462281 0.18769085
0003a0 fb fa 05 3b 38 e9 a0 3e c7 44 18 bd 68 7c 89 3c
       0.0020443785 0.31427932 -0.037174966 0.016782954
0003b0 00 00 00 00 48 47 da bc a5 38 4c 3d 22 67 34 be
       0.0 -0.026645318 0.049858708 -0.17617467
0003c0 72 d2 52 bb 83 29 a8 bd e9 46 68 bb 00 00 00 00
       -0.0032168892 -0.08211043 -0.0035442656 0.0
0003d0 c7 44 ba 3c 00 00 00 00 9e 0d af 3a e5 7b 48 bc
       0.022737874 0.0 0.0013355499 -0.01223657
0003e0 56 a1 0f 3c 19 ed d2 38 9f 25 8b bd 0b 48 3d be
       0.008766493 0.00010057743 -0.06794285 -0.18484513
0003f0 4a 64 f4 3d d1 ce bd bb e2 f0 7a bc 88 c9 3b bc
       0.11933191 -0.0057924767 -0.01531622 -0.011461623

model.2.weight f4 [256, 256]
000000 37 6f e8 3b e6 8b 80 bb d3 ad 0b bb bc 16 0a bc
       0.007093336 -0.003922927 -0.0021313324 -0.008428272
000010 06 d3 18 bc 45 fa 25 bc 2c e3 01 bf 81 a9 15 bb
       -0.009327656 -0.01013047 -0.5073726 -0.0022836628
000020 86 6c c1 3e 86 6b 94 bb e4 4a a5 bd 40 27 3c bb
       0.3777811 -0.0045294194 -0.08070925 -0.0028709918
000030 69 24 46 39 5f e7 92 39 0a 81 e8 3b 8b 56 5b bb
       0.00018896315 0.00028019675 0.007095461 -0.0033468332
000040 fd 8c a2 bc c1 57 6e bc c4 5b 8f bb 57 c3 a8 3b
       -0.01984262 -0.014547289 -0.004374953 0.0051502394
000050 37 3a 71 3b f9 d2 a9 3b 9f 38 cf 38 c6 c1 be 3d
       0.003680838 0.0051826206 9.881076e-05 0.09314303
000060 34 3f 19 3c 2f 49 e3 bd 40 b2 8f 3b 02 3a d6 be
       0.009353448 -0.11097943 0.0043852627 -0.4184113
000070 31 9d 23 3b 8f 98 a9 3a 33 ad 35 ba 08 85 8d 3e
       0.002496552 0.0012939143 -0.0006930411 0.27640557
000080 9e 00 f6 bf 3a ee 1a bf f3 41 92 3b 68 ca 9a 3a
       -1.9218938 -0.60519755 0.004463428 0.0011809589
000090 ef cc fe 3a 4f 28 b6 3b 53 37 05 3f 41 ea c0 bb
       0.0019439737 0.0055590044 0.52037543 -0.0058873002
0000a0 06 ff 5d 3c 07 fd 8f 3c ae 16 1b 3b 74 dd ad 3d
       0.013549572 0.017576708 0.0023664641 0.084895045
0000b0 0d 0e 7f bb f7 59 b6 39 b4 81 0b 3c 35 56 bd 39
       -0.0038918287 0.00034780774 0.00851481 0.00036113118
0000c0 4e 2d 8d 3b 6c 31 c5 3b 8c 23 c3 39 de 65 e5 3a
       0.0043083793 0.0060178544 0.00037219783 0.0017501672
0000d0 28 7b 3e 3e cf 3c 47 39 55 4a 5a 3e 10 5c 3a 3c
       0.18601668 0.00019000772 0.21317418 0.0113744885
0000e0 60 40 30 bf 8e 3a c6 39 ab 70 1a bb 9d 5b 48 bc
       -0.6884823 0.0003780913 -0.002356569 -0.012228874
0000f0 48 8d 57 3b 43 98 f8 3b ac be c6 ba 1c 9f aa bb
       0.0032890607 0.0075865104 -0.0015163026 -0.0052069556
000100 76 f9 6b 3c a4 85 b9 3a 2b 4f 4b bc 11 0f 23 bf
       0.014402738 0.0014154208 -0.012409012 -0.63694865
000110 eb 3a 5b be fd 58 f8 bf 2f 3a f6 b9 20 09 ad bb
       -0.21409194 -1.9402157 -0.00046964127 -0.005280629
000120 b7 e1 50 bb ab d3 8d 3c 34 04 46 3b 18 48 78 3e
       -0.0031872818 0.017312845 0.0030214908 0.24246252
000130 02 52 7a bf c5 a6 83 3e 5a 1b 16 bc 6d 5b f8 3b
       -0.97781384 0.25713173 -0.009161795 0.007579258
000140 69 9b a2 3b 2a 95 03 3c 32 2d c2 be 33 19 e5 be
       0.004962374 0.008031169 -0.37925106 -0.44745788
000150 6a ac 1b c0 e7 e6 0b 3c ef 3c c9 3e c9 ac 9f bb
       -2.4323983 0.008538938 0.393043 -0.0048728925
000160 91 9e 9b 3b a5 2a ec 3a 3c 2c 74 3c 25 f3 b3 3b
       0.004749127 0.001801808 0.014903124 0.0054916316
000170 4d 0d 8e 3c cb 77 2f c0 8b ac 46 be 86 5a 01 bc
       0.017340327 -2.7416866 -0.19401757 -0.007895118
000180 92 c3 1a bb a2 be 1b 3c a4 4d 68 3e b1 ee e0 3b
       -0.0023615104 0.0095059 0.22685868 0.0068643917
000190 79 aa 18 bf 94 5d 97 bc 83 20 38 be 36 06 e7 ba
       -0.5963512 -0.018477239 -0.17981152 -0.0017625752
0001a0 e5 4f 63 3b 61 12 a0 3d ac 0c b9 ba 1c 36 98 39
       0.0034685072 0.078160055 -0.0014118156 0.00029032014
0001b0 66 dc a5 3e 2e 36 27 3d c8 0d f3 ba bd 55 81 3e
       0.32394713 0.040823154 -0.0018543536 0.25260726
0001c0 35 8e 1a bb 36 e6 6a 3c a0 8e 87 bd a2 08 31 3b
       -0.0023583297 0.014337113 -0.066190004 0.0027013202
0001d0 e8 cd d1 be 6b e0 fe 3b 68 54 8d 3b 06 15 a1 3c
       -0.40977407 0.0077782176 0.0043130405 0.019663345
0001e0 82 93 97 bb 83 3b c2 3c fa 95 87 3c f3 24 38 bb
       -0.0046257386 0.023710018 0.016551007 -0.0028098195
0001f0 bc b2 49 3e e3 ef 2b 3c 93 3f 47 3e 2a 12 37 3e
       0.19697088 0.010494205 0.19457845 0.17878023
000200 81 fa b1 bb 0c d6 2e 3f a1 1f 26 3b 1d d6 d2 bb
       -0.0054314737 0.6829536 0.0025348442 -0.0064342157
000210 94 64 d7 be 72 28 32 c0 7e 88 e6 3c 0c e6 ea 3a
       -0.42068923 -2.7837186 0.028141256 0.0017921343
000220 cb 7a 4b ba 67 97 c9 3c 04 76 4d 3e 72 13 45 3d
       -0.0007762133 0.024608327 0.2006455 0.048114248
000230 02 85 cb 3c cd fc 09 3c c6 28 96 ba 11 37 32 ba
       0.024843697 0.008422089 -0.0011456243 -0.00067983667
000240 a1 b5 de bb 09 a0 84 bb 6a 64 d0 bb b9 a6 83 3e
       -0.006796554 -0.004047398 -0.0063596265 0.25713137
000250 cf 4b a4 ba 4e 91 56 3b 7e e1 a4 3e 25 60 88 3b
       -0.00125348 0.0032740417 0.32203287 0.004161852
000260 b6 50 53 bb 9f da 91 3b a2 6c 3d bc db c5 67 3f
       -0.0032244152 0.0044511105 -0.011561545 0.9053628
000270 78 37 7f 3c ff 8a ba bb 81 34 d1 be 0a 0b 1d bf
       0.01557719 -0.005692839 -0.4086037 -0.6134497
000280 82 34 60 b9 58 70 48 be 4e fb 17 3f f2 8c 02 bc
       -0.00021381865 -0.19574106 0.59367836 -0.007968174
000290 48 82 33 c0 db cf 58 3e dd 3c 41 bb b7 17 19 bf
       -2.8048267 0.2117304 -0.002948574 -0.5980181
0002a0 b1 1b 81 3c b1 3f 22 bf 0a a9 8e bb c5 fe b4 bb
       0.015760275 -0.63378435 -0.004353647 -0.005523535
0002b0 89 08 f3 ba 86 21 18 3b c8 cc ab bb 0b ea e0 3a
       -0.0018541972 0.002321334 -0.0052429177 0.0017159594
0002c0 84 00 f6 3a 5d b1 2e 3f 2b 3b 57 3b bc b4 bb bc
       0.0018768464 0.68239385 0.0032841663 -0.02291333
0002d0 81 31 da 3a 15 41 67 3c bc 29 9d 3b 04 bc b2 3b
       0.0016646833 0.014114638 0.004796235 0.005454542
0002e0 82 96 5e 3e e4 ec e9 3c 71 b9 83 3c 97 22 2f bd
       0.21737102 0.028555341 0.016079636 -0.042757597
0002f0 db 82 eb 3e 11 12 81 bb b6 b7 11 c0 f8 10 dd 3b
       0.45998272 -0.0039389213 -2.2768378 0.0067464076
000300 b4 01 85 3e f8 a7 92 bc 8c b5 37 bc 86 02 c4 bd
       0.25977862 -0.01790236 -0.011212718 -0.09570794
000310 cc ee c1 bb 30 8b fd 3b 86 aa c9 bb 36 dd 00 bf
       -0.0059183594 0.0077375397 -0.006154361 -0.5033754
000320 5e 57 bc 3d 32 ce f7 be 07 82 30 3b 69 29 57 3e
       0.091963515 -0.48399502 0.002693297 0.2101189
000330 c5 80 b5 bb ad fb e9 3b 3b 07 ac 3b 2d 3a 0e bc
       -0.005539032 0.007140598 0.0052498854 -0.008680862
000340 c3 e7 59 bb 0b 42 52 bb ae aa db 3c c3 36 d7 bc
       -0.0033249713 -0.0032082822 0.026814785 -0.02627123
000350 69 43 e8 3a f3 0d b7 3b fb c0 5d bb 85 b0 9d bb
       0.0017720285 0.0055863797 -0.003383695 -0.0048123025
000360 26 f1 5d 3f f6 71 94 bd 59 23 14 bb cd d4 d6 bb
       0.8669609 -0.07248299 -0.0022604077 -0.0065561295
000370 de 09 27 3c db 83 9e ba 3f df 35 bc 04 38 09 bc
       0.010195224 -0.0012093739 -0.011100589 -0.008375172
000380 e3 bc 1e bc 74 e0 1b bf 0d 00 6f bd 8f b6 e3 be
       -0.009688589 -0.60889363 -0.058349658 -0.4447522
000390 cf b5 1e bb 3f 2e 02 3b fc 20 3f 3e d6 35 68 3e
       -0.0024217253 0.001986399 0.18664926 0.22676787
0003a0 4d 75 e1 3c 7b 9b 12 3e 29 01 b8 3e dc 0b e7 bc
       0.027521754 0.14317124 0.35938385 -0.028203897
0003b0 7b c0 b9 b9 0f db 10 3e 22 44 13 bd 1c 4e e1 bf
       -0.0003542936 0.14146064 -0.03595365 -1.7601962
0003c0 b4 5f cc ba 91 4a b2 3d a2 a0 e2 ba 91 4e 4b 3a
       -0.0015592487 0.08705629 -0.0017290304 0.0007755543
0003d0 97 b9 1d be d1 27 cd ba 00 68 21 ba 77 39 0b 3b
       -0.15402828 -0.0015652125 -0.000615716 0.0021243969
0003e0 e4 a2 48 3e 16 a9 9e 3c f4 59 3e bf c9 62 42 bc
       0.19593388 0.019367736 -0.7435601 -0.0118643725
0003f0 d0 b6 e7 be 45 46 8a 3b 9b 38 ce 3d 39 e1 93 ba
       -0.45256662 0.0042198026 0.100693904 -0.0011282332

model.2.bias f4 [256]
000000 96 4d 9c bd c5 35 c3 bb 86 bf 45 3c 8b f5 f8 ba
       -0.07631986 -0.0059573376 0.0120695885 -0.0018994076
000010 03 3f 27 bd 44 a2 44 3d 6d 61 f5 bc 62 50 bc 3d
       -0.040831577 0.04800631 -0.029953683 0.09195019
000020 52 30 73 bc 92 40 6b bd 5a a7 8b bb 7d e6 42 be
       -0.014843063 -0.057434626 -0.004261893 -0.19033237
000030 cc 1d 72 bb 1c af ba 3b e5 5d 37 bb cc ab 8f bc
       -0.003694403 0.005697144 -0.002797955 -0.017537974
000040 49 84 a4 ba a0 8e 8b bb 34 13 7d be 0c f5 be be
       -0.0012551631 -0.0042589456 -0.24714357 -0.3729633
000050 48 9f df bb 83 b6 5c be cd 0f 9c bb 86 c3 6a bb
       -0.0068244077 -0.21553998 -0.004762626 -0.0035822107
000060 cf d2 fa bd d6 5a 81 bd 12 8a bb bc 1a d2 10 bc
       -0.1224724 -0.06316154 -0.022892985 -0.008839155
000070 f4 53 fb bd c4 ee 6f be 5c 53 f9 bd b9 2f 0b 3d
       -0.12271872 -0.23430926 -0.12174103 0.03398106
000080 37 79 7a bb 8d f6 8e bb d4 4e 27 ba a3 bc 81 be
       -0.0038219222 -0.0043628872 -0.0006382291 -0.2533923
000090 b9 4d 93 bb 49 0f 11 bc 6a 72 06 bc 0e 9b 3e 3e
       -0.0044953492 -0.008853742 -0.008205989 0.18613836
0000a0 70 4e 94 3d f0 2a 1c ba 44 cd 99 be e7 6e c0 3d
       0.07241523 -0.0005957326 -0.30039418 0.09396153
0000b0 32 e8 66 bb 2c f9 f4 bc 30 b9 a2 bb 91 a8 6f bc
       -0.0035233614 -0.02990397 -0.0049659237 -0.014627592
0000c0 dd 0f 68 3d 5c 83 00 bc 1d 8f da bd ce b4 ed 3d
       0.056655753 -0.0078438185 -0.10671828 0.116067514
0000d0 33 c7 08 be 59 d1 9e be 2b db 4e be 6f 13 e3 bb
       -0.13357238 -0.31019095 -0.20200793 -0.006929807
0000e0 68 c8 83 be ac e1 aa bb de 9a fa 3d 2b 72 09 bd
       -0.25738835 -0.0052148905 0.1223657 -0.033556145
0000f0 33 f0 7e bb 86 15 62 be cc 99 7b bd 12 3f 92 bc
       -0.0038900494 -0.22078523 -0.06142597 -0.01785234
000100 a0 06 d0 bb 0c ef 38 3d 6b 91 f8 3d 50 7c a1 be
       -0.006348446 0.045149848 0.12137111 -0.31540155
000110 31 96 d4 3c 03 a0 08 be 1d d4 8a be 3c ce 90 ba
       0.025950523 -0.1334229 -0.27114955 -0.0011047791
000120 25 7f cb 3d 12 d9 18 be 89 f5 7b 3d 3f 12 7e bb
       0.0993636 -0.14926556 0.061513457 -0.00387682
000130 ba eb 19 be b2 75 69 3c fa e4 9b bb ca 60 e4 3d
       -0.15031329 0.014249252 -0.0047575207 0.111512735
000140 39 81 7e be 7d 6c f4 bc c6 38 03 be 13 cc 79 bb
       -0.24853982 -0.029836887 -0.12814626 -0.0038116022
000150 f5 8c 2a bb 20 18 8d bd cf aa 85 bb a3 a7 56 bd
       -0.0026023958 -0.06889367 -0.0040792 -0.052405965
000160 7f fb 8b bd 0a d5 11 bb 8a 4c 3f 3d 5e 69 80 bc
       -0.068350784 -0.0022252225 0.046703853 -0.015675243
000170 93 6e 40 3d 12 94 d4 bc 7a c0 12 bc 03 0b b5 bd
       0.04698045 -0.025949512 -0.008957023 -0.08839991
000180 cc f2 0c bb d4 a3 79 be 87 d2 63 bb bc 2d f6 bd
       -0.0021507023 -0.24378902 -0.0034762935 -0.12020442
000190 ee 02 6d be ac 4d 6b ba b5 93 69 3d dd 78 d1 bb
       -0.23145649 -0.00089761126 0.05702563 -0.006392582
0001a0 4d 97 31 bb 1e 77 d2 bc f9 89 96 3d ef 18 cb 3d
       -0.002709824 -0.025691565 0.07350535 0.09916865
0001b0 08 58 8c be ba 5e 96 bd f4 38 d9 3d b0 c0 8f bd
       -0.27410913 -0.073422864 0.10606566 -0.07019174
0001c0 c7 75 27 3d 9e d7 1c bc 58 17 3d bc 38 f6 41 bb
       0.040883806 -0.0095728915 -0.01154121 -0.002959622
0001d0 2e 54 a8 be 54 4a 9e bc d2 40 ce bd 40 7f c6 bb
       -0.32876724 -0.019322552 -0.10070957 -0.00605765
0001e0 22 72 1d be 01 75 b5 bb 56 f7 d2 3c 36 fc ce bb
       -0.1537557 -0.0055376296 0.025752705 -0.006316687
0001f0 a8 4e 51 bb f0 44 99 be 38 97 cd 3d 78 7d 90 be
       -0.0031937752 -0.29935408 0.10038608 -0.28220725
000200 36 98 51 bd c0 2a 1d bc fb 4d 03 be a1 dd 36 be
       -0.05117055 -0.009592712 -0.12822716 -0.17857982
000210 65 54 f1 bd 22 51 da bd 86 61 f3 bd c2 c6 6e ba
       -0.11783675 -0.10660006 -0.118838355 -0.0009108597
000220 de 1a bd be 0b af a5 3d 25 68 0e be 5f 95 ec bb
       -0.3693456 0.080900274 -0.13906915 -0.007219955
000230 32 4f e1 3d fb cb 13 be 5e fe 17 bc 9c 01 95 bb
       0.110014334 -0.14433281 -0.009276954 -0.004547311
000240 90 7c a7 bd 89 58 80 bb eb 5a 15 3d 9f 68 2c 3e
       -0.08178055 -0.003916804 0.03646366 0.16836785
000250 2c 7a cd bd 68 c1 8d bb 17 fe 8f bd 1a 4b 83 bb
       -0.10033068 -0.0043260343 -0.07030886 -0.0040067555
000260 19 44 97 bd c1 34 82 bb 6f 14 59 3e d5 3e 6c bb
       -0.073860355 -0.003973574 0.21199201 -0.0036048193
000270 95 4f fc 3d 0c e9 27 bc b5 0b 5a be 5d b7 f4 bb
       0.123198666 -0.010248434 -0.21293528 -0.0074681477
000280 73 1c ab bb 84 31 db 3c ca 96 ec 3c 72 8f 15 bc
       -0.0052218973 0.02675701 0.028880496 -0.009128438
000290 4a 97 01 be 0b 06 95 bb d1 b3 31 bb f1 15 b8 3d
       -0.12655368 -0.0045478395 -0.0027115236 0.0898856
0002a0 74 81 98 bc dc 33 aa 3b f6 a0 93 bb 05 2f 5d bd
       -0.018616416 0.0051941704 -0.004505272 -0.05399992
0002b0 e8 c7 4c bd 83 e7 58 be df b3 8d bc d9 92 4d 3e
       -0.049995333 -0.21182065 -0.017297683 0.20075549
0002c0 c1 fd 8d be 32 80 2c bd 50 07 12 bd 60 d4 dd bd
       -0.2773266 -0.042114444 -0.035651505 -0.10831523
0002d0 ba 14 c1 3d 3f a3 f7 bd ab 1d 9c bb 0f 0b f0 bd
       0.094277814 -0.120916836 -0.004764279 -0.11720859
0002e0 1d a6 09 bc 4b dd cf 3c 2c 87 22 bb d1 db 94 3d
       -0.008401421 0.025374075 -0.0024799807 0.07268489
0002f0 dc ba f6 ba d9 bf f7 3d e0 8a 29 3c cb 00 2e 3e
       -0.0018823999 0.12097139 0.010348052 0.1699249
000300 ea 6a 71 bc 2a 5f 48 bb 43 f6 13 be 3a 44 85 bd
       -0.014734963 -0.00305743 -0.1444941 -0.06507154
000310 18 71 08 3e 45 8e d1 3d a4 e6 93 3d 0e 9c c7 bb
       0.13324392 0.10232214 0.072217256 -0.006091601
000320 6f 8a a0 3d 30 a1 82 bb e9 70 5f bb e1 0c d3 3d
       0.07838904 -0.0039865 -0.00340944 0.10305191
000330 56 60 1c bc da 12 c8 3d d0 17 6f be 11 e5 ab 3c
       -0.009544453 0.09769221 -0.23348927 0.02098325
000340 b0 f5 5c be b7 dc 64 be 4f a8 fa bb 72 4c ef bb
       -0.21578097 -0.22349821 -0.0076494585 -0.007302814
000350 99 dd e6 3d 32 f3 5d be 38 37 3c bd bf 29 77 be
       0.11272735 -0.21674803 -0.0459511 -0.24137019
000360 d9 af 84 bc 2a 2c 2d bb 01 44 be bb a7 36 79 3c
       -0.016197132 -0.002642403 -0.0058064465 0.015210784
000370 56 d2 fc bc b7 ba 48 bb 2e a1 65 be b5 c3 24 bb
       -0.030862015 -0.003062887 -0.22424766 -0.0025141065
000380 e2 21 61 3d d9 84 b1 bd 4d 81 a0 bd 04 10 6e bc
       0.054963954 -0.08667917 -0.07837162 -0.014530186
000390 9d 9b ae 3d 4c 78 23 bc 69 67 57 be 1b 94 08 bd
       0.08525775 -0.0099774115 -0.21035542 -0.03334437
0003a0 cb 9e 93 bb 15 28 9c 3d ee 9a 60 bb d8 33 97 be
       -0.0045050136 0.076248325 -0.0034272033 -0.2953174
0003b0 c4 c3 15 be ba 6d bd bc f5 30 c1 bc 67 fe 54 3c
       -0.1462546 -0.02312361 -0.023582915 0.013000107
0003c0 6a 23 06 be b8 40 16 be 67 c7 8b 3d b9 a1 0d bd
       -0.13099447 -0.14673126 0.06825142 -0.03457806
0003d0 2f 7f 5d 3d ce b3 49 bb 12 46 1a be 3f 7c 99 be
       0.05407637 -0.0030777338 -0.15065792 -0.29977605
0003e0 f3 86 fd 3d b8 e1 07 bc 44 84 2a 3e dd 99 35 bb
       0.12379255 -0.008293562 0.16652018 -0.0027710118
0003f0 bf 14 9a 3d e2 54 a7 bb 11 2c 75 bb 56 09 04 3d
       0.07523488 -0.0051065544 -0.0037410299 0.032235466

model.4.weight f4 [256, 256]
000000 9a ef b0 be fb ea 65 3b b7 ec 73 3b aa 56 8d 3d
       -0.345578 0.0035082686 0.003721995 0.069012955
000010 73 4c 14 bd 97 13 15 be 7e ae f3 3d af 9b 34 be
       -0.03620572 -0.14558254 0.11898516 -0.17637514
000020 11 cc 56 3c d9 d4 3a bf 08 ed 1a bc b3 14 23 be
       0.013110177 -0.7298103 -0.009455927 -0.15925865
000030 c6 29 43 bc d9 2d 05 3f 97 8b 0a bc d0 9b 44 bd
       -0.011911815 0.5202308 -0.008456132 -0.048000157
000040 0a 36 d1 b8 10 a5 24 3c b8 81 6f bc 20 4b b5 3e
       -9.975962e-05 0.01004912 -0.01461833 0.35408878
000050 80 9c 27 3e ea 1b bd bb 59 c9 44 bb e8 66 16 3c
       0.16368294 -0.00577115 -0.003002724 0.009179808
000060 7c 3e c9 3e 22 5c f3 bd 0f 60 f9 be e4 ab e2 3b
       0.39305484 -0.11882807 -0.487061 0.0069174636
000070 cb 4e 8e 3c d2 53 0c 3d 66 12 56 3e 55 d6 15 bd
       0.017371556 0.034259625 0.20905456 -0.036581356
000080 65 d4 49 ba 46 b5 82 3b 49 61 76 3d 44 53 04 3e
       -0.0007699191 0.0039888946 0.060151372 0.12922388
000090 80 21 81 3a 02 4b 95 3b 9e 0d 8d bb 0d 0b 2c 3e
       0.0009851903 0.004556061 -0.004304602 0.1680109
0000a0 a2 dc f1 3d e7 90 a0 bb db 1f 12 3d ab 65 0f bc
       0.118096605 -0.004900086 0.03567491 -0.008752267
0000b0 69 4c e5 3a 96 5d ae 3c 3b b0 01 3c b0 64 ae 3b
       0.0017494085 0.02128486 0.007915552 0.0053220615
0000c0 a4 24 ae bd 08 10 a0 bc 12 9d d1 3d 4c 47 9a 3d
       -0.085030824 -0.019538894 0.10235037 0.0753313
0000d0 c5 f3 2e be 51 04 6b 3d 62 c0 6e 3d ba 58 9d 3b
       -0.17085178 0.057377163 0.05828894 0.004801837
0000e0 6f a9 87 3d 76 a8 41 bc a6 61 06 3e ac 21 0e 3d
       0.06624114 -0.011819949 0.13123187 0.03470008
0000f0 4a 4c 89 3b 21 87 18 3e ef a3 98 3e 07 e3 f7 3d
       0.0041900026 0.14895298 0.2981257 0.12103849
000100 21 65 7a 3c 21 b1 0d 3e da 54 d4 3d 80 78 f7 3d
       0.0152829 0.138371 0.10367747 0.120835304
000110 ac bd 89 3c 8d 1a 1b 3e ac d4 b8 3d 71 20 bf 3b
       0.016814075 0.15146847 0.09024939 0.0058327247
000120 2c 03 1f bc 25 a1 d7 3d 71 8d 17 3e 8c ba 6b 3b
       -0.009705346 0.10528783 0.1480005 0.0035969345
000130 83 f9 1d 3e bf 7a 8d bf 2e 0f 65 bb df 62 20 3d
       0.15427212 -1.1053084 -0.0034951675 0.03915679
000140 cc 02 a2 3e 31 28 20 be b3 0b 38 3e bb cf 1d bc
       0.3164276 -0.15640332 0.17973213 -0.009632046
000150 d2 6a 00 bb 23 98 8b bf e7 5a 2f bc 63 53 35 bd
       -0.001959492 -1.0905803 -0.010702825 -0.044268977
000160 0a f4 90 bc 97 c4 41 3c 43 5a 07 bf 49 de f3 bd
       -0.017694492 0.011826656 -0.52872103 -0.11907632
000170 5f 3e 27 3e 60 d8 c7 bd e2 37 87 bc 93 8c cd bd
       0.16332386 -0.09758067 -0.01650614 -0.10036578
000180 89 fc bd bb 33 27 0c bf 4b 40 35 bb dd a5 94 3d
       -0.005797927 -0.54747313 -0.002765673 0.072581984
000190 31 a1 9c be e5 cf 86 bb 01 3c 0b 3e 0c f2 f0 3b
       -0.3059173 -0.0041141384 0.13597108 0.007353073
0001a0 7e 90 ec 3b e8 53 ce 3d 00 1b c9 bd a5 02 d2 bd
       0.0072193732 0.100745976 -0.09819603 -0.10254411
0001b0 6b df 03 bd 91 ef 02 3d 22 be b8 bd 59 af b7 bc
       -0.03219549 0.03196675 -0.0902064 -0.02242248
0001c0 98 4a e7 3e 70 36 c8 3d 9c 2e c0 3c 7b 69 c7 3b
       0.45174098 0.09776008 0.023459725 0.0060855723
0001d0 0b 9b 0e 3f 78 63 cc 3b 79 01 96 3e bc d1 cd 3a
       0.55705327 0.0062374435 0.29298 0.0015702765
0001e0 68 6b b5 bd 97 69 35 3c b7 10 a6 bd f2 e7 90 3a
       -0.08858377 0.011072538 -0.08108657 0.0011055453
0001f0 b9 e5 04 3c 66 73 a3 bc 76 b4 07 be ce 59 84 bf
       0.008111411 -0.019952487 -0.13252434 -1.0339906
000200 38 0d a0 bd 5d fb 1d 3c 68 57 6a 3e c7 7d da c0
       -0.07815021 0.009642449 0.22884905 -6.8278537
000210 bf f6 5a be 27 f7 1c 3e 32 93 e3 be a8 ae 0d 3a
       -0.21383189 0.15328656 -0.4444824 0.0005404749
000220 7a 9c 26 3e 1a 58 40 bd ee 1a 62 3d 64 69 d1 ba
       0.16270629 -0.04695902 0.055201463 -0.0015976843
000230 5b 4f 22 3e 08 19 4c 3d 7d 58 bd bb 69 49 b2 ba
       0.15850584 0.04982856 -0.005778371 -0.00136022
000240 0e 8f ba 3e 08 ea d5 bb 96 b5 ce be 5f ec 2d 3e
       0.36437267 -0.006528143 -0.40372914 0.169847
000250 94 ab 78 3f b8 26 46 ba ed 74 d1 bd b6 01 fc bb
       0.9713681 -0.000755887 -0.1022738 -0.0076906336
000260 74 24 a5 3d 11 a7 fe ba 00 20 6a 3d 61 63 c6 bb
       0.080635935 -0.0019428452 0.057159424 -0.0060543274
000270 6a d4 85 bc 11 e1 50 bb 5e 27 d8 be 5c e3 07 bc
       -0.016336638 -0.0031872431 -0.42217535 -0.008293953
000280 2c a9 f9 bb 3b 1a 6e bd c2 02 25 3e 82 d0 9a bb
       -0.007619044 -0.058130484 0.16114333 -0.004724563
000290 7d 34 2f 3e ec 92 e1 3b 05 2e c8 3b 88 6f de 3d
       0.17109866 0.0068839695 0.0061090016 0.10861117
0002a0 e2 b6 db 3d 1a 0f 75 bd 15 f4 57 3b 2c e7 ec 3c
       0.107282415 -0.059828855 0.003295188 0.028918825
0002b0 7e 95 b0 bd b6 e7 b8 bd 0f 71 25 3c ce 74 cb bc
       -0.08622263 -0.0902857 0.010097756 -0.02483597
0002c0 d6 00 3a 3d bc 8a 87 3e e8 95 1d 3d 4b 43 89 3e
       0.045410953 0.26473033 0.03847304 0.26809153
0002d0 4d 43 ea 3c ce b4 26 bf 2d 27 a6 3a b8 0f 3a 3e
       0.028596545 -0.65119636 0.001267647 0.18170059
0002e0 8a c8 2b bb e6 12 03 bb f6 6b 56 bb be c3 f4 3c
       -0.002621206 -0.0020000278 -0.0032718158 0.029878493
0002f0 a0 16 a4 3b 96 02 d7 3e db 9d 30 3e 0d 63 e1 3d
       0.00500758 0.4199416 0.17247717 0.110052206
000300 06 b6 ad bd f3 5b 5b 3a 14 23 03 3e 25 b6 19 3e
       -0.08481984 0.00083678885 0.1280635 0.15010889
000310 cb d6 af 3d 7a 74 33 3d bd 53 4d bc 33 7d 76 3b
       0.085858904 0.043812253 -0.012532172 0.0037611246
000320 04 66 b7 bd de de ca bb 1b 34 36 3b 73 ec 11 3e
       -0.08955005 -0.0061911186 0.0027802053 0.14250354
000330 2f 79 46 3f c0 1d 44 be db 03 ca bf 8f 0e a0 bd
       0.7752866 -0.19151974 -1.5782427 -0.07815277
000340 46 83 e0 3d b2 26 bf 3d 10 40 57 bb fc e6 4e bb
       0.109625384 0.093335524 -0.003284458 -0.0031570783
000350 73 0f 87 bd 51 ee a7 3d 2a 83 8b bc 47 b9 44 3c
       -0.065947436 0.08199752 -0.017030317 0.012007064
000360 19 ef ca bc 16 6c 6d bb 96 ed f5 ba 6a f1 80 3c
       -0.024772214 -0.0036227754 -0.0018762823 0.015740115
000370 40 12 15 bd 4d 86 15 3c 46 b2 98 bd 4b 67 ba bb
       -0.036394358 0.009126258 -0.07455878 -0.005688583
000380 ea d6 e2 3e 93 2e 9b 3d 10 99 49 3e 6f a4 0d 3c
       0.4430459 0.07577243 0.19687295 0.008645161
000390 f7 3a d9 bc 31 04 67 3c 4f 08 4b 39 57 44 6f bd
       -0.026517374 0.01410012 0.00019362684 -0.058414783
0003a0 bd e1 e7 3b ea 51 4c 3e b8 35 1f bc 65 67 16 3e
       0.0070764706 0.19953123 -0.009717397 0.1468788
0003b0 0f 8c 7b bd 3f 1a 54 be ce 0a f6 bb 55 a0 15 3d
       -0.061412867 -0.20713137 -0.0075086122 0.036529858
0003c0 59 b9 53 bd 86 92 55 3c e6 07 26 3d 33 b8 d2 3d
       -0.051690433 0.013035422 0.040534876 0.102890395
0003d0 ff eb 2d 3e 49 0f 3e bc 4c dd 0f 3c 90 d5 3c 3c
       0.16984557 -0.011600324 0.008780789 0.011525527
0003e0 90 fd 8e be da ca 5f 3c 82 10 f9 bc 78 70 fc 3b
       -0.27927828 0.013659203 -0.03040338 0.007703837
0003f0 11 02 07 bd ae e5 ec bb 0e 3a 8d bc 21 ee 9f 3e
       -0.032960955 -0.0072295284 -0.017239597 0.31236365

model.4.bias f4 [256]
000000 ad 4e a7 3d 17 82 4f 3e 68 a0 76 bb 1b 39 81 3c
       0.08169303 0.20264469 -0.003763223 0.0157743
000010 34 65 1a 3e ac db c3 3d d2 ce a5 3d 8b 24 95 3c
       0.15077668 0.095633835 0.080960885 0.018205902
000020 76 7e 7d bd b9 14 06 bd ec da 3b bb 1d 62 51 bb
       -0.06188818 -0.032734606 -0.0028664423 -0.003194935
000030 e6 09 cb 3d f5 1a 8c bb 97 47 ea bc c2 6a c7 bb
       0.09913997 -0.0042756745 -0.02859859 -0.0060857246
000040 a9 e3 83 3d b4 9e e0 bb 92 20 30 bc 0f 50 9e bd
       0.06439907 -0.0068548564 -0.010749953 -0.07730114
000050 80 9e 66 3d b7 23 67 bd d1 d0 10 3d a3 ed 1d be
       0.0563035 -0.056430545 0.035355393 -0.15422682
000060 24 44 67 bb 34 2c 18 3e a4 b1 53 bd 09 b3 49 3e
       -0.0035288418 0.14860612 -0.051683083 0.19697203
000070 26 7e 8e 3d 6c fa 82 3b a9 97 83 be 90 5b 0a 3d
       0.06957655 0.003997138 -0.25701645 0.033778727
000080 c5 8f 82 3c af c6 09 be df b3 97 bb 35 ee ca bb
       0.015937695 -0.13454698 -0.0046295966 -0.0061929473
000090 92 86 c6 bc 94 1c 77 3d 4a 19 dc 3c 32 46 2b 3e
       -0.02423409 0.06032999 0.026867528 0.16725996
0000a0 39 82 fb 3d f6 3a 2e 3c e1 a9 02 3d 8d ab c7 3d
       0.122806974 0.010634175 0.03190029 0.097495176
0000b0 89 18 a9 bd 5e 12 90 3d f1 eb c7 bb 85 43 1a bb
       -0.08256633 0.07034753 -0.0061011245 -0.002353878
0000c0 27 e5 d0 bc b2 97 56 3d a5 77 cf bd 99 d6 5b 3c
       -0.025499893 0.05239076 -0.10130242 0.013417863
0000d0 ba d2 e2 3d 6b 85 b4 bb 35 3e f5 ba 1d 5b 2b bc
       0.11075349 -0.0055090687 -0.0018710556 -0.010458735
0000e0 ff 42 08 bc a3 60 0e bd 23 77 16 3d a5 3d 6d bc
       -0.008316754 -0.03476013 0.03673471 -0.014480029
0000f0 a7 ac ee bb b7 a5 55 bd 6c eb 0f ba 07 b4 da 3c
       -0.0072837654 -0.05215999 -0.00054900977 0.026697172
000100 e2 b8 a4 bb c2 fa 65 bb 95 85 a8 3d ff c6 8a 3b
       -0.0050269226 -0.003509209 0.08228604 0.004235148
000110 55 7d f1 bc 07 91 3f bd d7 35 d4 bd 2f 9e d6 bc
       -0.029478708 -0.04676917 -0.10361832 -0.026198475
000120 00 fd b6 bd 7d ab 40 bb 53 eb cf bb 65 b2 20 3e
       -0.08934975 -0.002939909 -0.0063451915 0.15693052
000130 73 30 ae bd fc b0 b0 bb 52 ee 7a 3c 33 7a 91 bb
       -0.08505335 -0.005392192 0.015315609 -0.004439616
000140 dd 9b f2 3d b1 01 c1 bd 3a dc 79 3d 3f 82 16 bc
       0.11846135 -0.09424151 0.06100104 -0.0091863265
000150 5e c0 89 3b 1b c6 da bd 49 61 4d bd 4b c5 12 be
       0.00420384 -0.10682317 -0.050141606 -0.14333074
000160 15 43 8e bb 88 b9 68 bb 84 f3 d4 bc f7 ff 43 3e
       -0.004341493 -0.0035510976 -0.025995024 0.19140612
000170 31 bc 29 3c bb 57 13 bd 11 c9 8e 3d 51 9d 62 bb
       0.01035981 -0.03597234 0.06971944 -0.0034578631
000180 d7 cd 04 3e 07 57 b0 3d c2 5d 55 3d dd 37 40 3e
       0.12969147 0.08610349 0.052091368 0.1877131
000190 ff 1c b8 bb 74 9a 65 bd a0 28 01 bd ff 40 9c bb
       -0.005618691 -0.0560555 -0.031532884 -0.0047684903
0001a0 cc d9 f3 bb 15 2b 4c 3e f1 69 39 bc c1 12 f5 ba
       -0.007441735 0.1993831 -0.011316762 -0.0018697606
0001b0 78 61 93 bb de 53 1e 3d d9 50 e4 3c 63 de 61 3d
       -0.004497703 0.0386542 0.027870582 0.055143725
0001c0 0c cd 19 bb b9 59 05 3e 6a 63 bb bc f5 38 dd bb
       -0.0023468165 0.13022508 -0.022874553 -0.0067511746
0001d0 72 46 dc bb a0 c4 f8 3c 69 8a ec 3c 46 cd 47 bc
       -0.006722265 0.030367196 0.028874593 -0.012194937
0001e0 a1 1d fc 3d a3 0f 96 bd 20 76 ca 3d 9d 4f 69 bd
       0.12310339 -0.07327201 0.09885812 -0.05696069
0001f0 4c e1 13 3d 1f 48 92 3d a6 6b 12 3d 0a e6 40 bd
       0.03610353 0.07142662 0.035747193 -0.047094382
000200 32 0a ad bc 3e f3 d0 bb 1b a8 b0 3d 25 2d 3f 3d
       -0.021123026 -0.006376653 0.086258136 0.046673913
000210 a9 41 24 be 4c 96 91 3d 51 12 bb 3d a6 f5 b8 bd
       -0.16040672 0.07108745 0.09134353 -0.09031229
000220 37 21 2c bc b7 e2 95 3d db fb 22 bd b0 24 a1 bb
       -0.010505966 0.07318633 -0.03979097 -0.0049177036
000230 64 20 40 3e d7 47 72 bc c2 94 58 bb c0 d8 c3 3d
       0.18762356 -0.014787636 -0.003304765 0.09562826
000240 82 a8 8f bb 96 25 0c bc 4b 0d 1c 3e 2c aa 2a bb
       -0.0043841014 -0.008553883 0.15239446 -0.0026041372
000250 d0 46 95 bb 74 8f ca bb 61 b0 2f bc af 41 d2 bb
       -0.0045555606 -0.0061816517 -0.010723204 -0.0064165215
000260 dd 37 33 3c 0f 91 35 3d 25 93 8f 3d 34 7f c1 bb
       0.010938612 0.04432779 0.070104875 -0.0059050564
000270 e8 1a aa bc cd 83 4d 3e 4e 27 8f bb 41 de 0f 3e
       -0.020764783 0.2006981 -0.004368699 0.14049627
000280 61 4d 30 3e 02 e1 dc bc a6 b1 0b 3e b0 b4 93 bb
       0.17217018 -0.02696276 0.13641986 -0.0045076236
000290 5d 3a 04 be 23 27 ab bd 3c 68 f9 3d 3c df b7 bb
       -0.12912889 -0.08357074 0.12178084 -0.0056113284
0002a0 92 9f c2 3d 2c f7 86 3c ae 44 46 3e 11 96 0f 3e
       0.09503092 0.016475283 0.19362137 0.1402209
0002b0 b2 e7 4e 3e 55 14 ee bd 54 3b 08 bb c3 83 6f bb
       0.20205572 -0.11624972 -0.0020787315 -0.0036547042
0002c0 bf 34 9f bc be fe 31 bd 2c 41 46 3e 94 65 75 bb
       -0.019434331 -0.04345583 0.19360799 -0.0037444578
0002d0 89 1e 79 3c 88 59 dd bd a0 2a 67 3d a2 0e b3 3c
       0.015205034 -0.10808092 0.056437135 0.021857563
0002e0 aa a8 ae 3c c6 bf d5 bd 04 f9 66 3d 44 b7 07 bd
       0.02132066 -0.104369685 0.056389824 -0.03313376
0002f0 cb d7 4d bc ca bd 56 bb 2b 13 8a bb a3 78 ab bb
       -0.012563656 -0.0032766932 -0.004213711 -0.005232887
000300 f3 f6 33 3d bc 49 00 bd fe 71 b7 3c bf 55 52 bd
       0.04393668 -0.03132032 0.022393223 -0.051351305
000310 46 57 4d be c7 4e 24 bc d4 c4 6d bd fa 1f 41 3c
       -0.20052823 -0.010028548 -0.058049038 0.011787409
000320 89 77 4a 3d 88 8e d4 3c be 71 c8 bb c5 55 2b 3d
       0.049430404 0.02594687 -0.0061170748 0.041829843
000330 1f 50 25 bc cb 8b ed bd 6d 17 c0 bb af a6 40 bc
       -0.010089903 -0.11598929 -0.0058621676 -0.01175849
000340 4a 52 c4 3d 66 d4 60 bb 6f 0e d8 bb 17 43 73 bb
       0.09586008 -0.0034306287 -0.0065935175 -0.0037118846
000350 3e 4f 84 bd 6f cc f3 3d 72 80 ac 3a fc 76 64 bb
       -0.06460427 0.11904227 0.0013160838 -0.003486096
000360 c2 d0 d1 bb 40 54 fb 3d 9f ba b8 bd 2c 95 82 3c
       -0.0064030597 0.12271929 -0.0901997 0.015940271
000370 50 92 15 3e 65 e5 f3 3d 96 3b b2 3c f9 80 19 be
       0.14606595 0.11908988 0.021756928 -0.14990605
000380 be c1 cd 3d ac 44 c1 3c fc 77 e9 bb 83 27 db 3d
       0.10046719 0.023592316 -0.007124899 0.10700896
000390 b3 ef 80 3d 43 96 92 bb 97 d2 8a bd 61 1b 71 bd
       0.06295719 -0.004473479 -0.06778448 -0.058864
0003a0 d9 8c 0e bd e1 75 31 bd df 89 fa bb ec 88 2a bc
       -0.03480229 -0.04332531 -0.00764583 -0.010408621
0003b0 f4 11 97 bc fa 28 2b 3e 9a 74 8e bb 9a 62 9c 3d
       -0.018441178 0.1671485 -0.004347396 0.07635994
0003c0 13 36 fb 3d bb 20 60 bb 73 0b 43 bc 00 eb ee 3c
       0.12266173 -0.0034199196 -0.011904585 0.029164791
0003d0 fa 53 40 3d 6f b3 d6 bc b7 bc cb 3d 7d 61 64 bc
       0.046955086 -0.026208607 0.09948104 -0.013939259
0003e0 08 15 0c bc 76 2c 12 3e 86 c4 cb 3d 21 57 79 bb
       -0.008549936 0.14274773 0.09949593 -0.0038046318
0003f0 23 de 46 3d f2 f7 a0 bd 67 3e 3d 3e 18 33 f6 3c
       0.04855169 -0.07859792 0.18480836 0.03005366

model.6.weight f4 [1, 256]
000000 20 85 c4 3e 1c 9e 48 3e ff e7 32 3b 0c 00 78 bf
       0.38382816 0.19591564 0.0027298925 -0.9687507
000010 37 21 fd 3d 9a bc 74 3e e2 f6 be 3e df 8d fa be
       0.12359851 0.23900071 0.37297732 -0.48936364
000020 9d d5 2f c0 b8 2c 96 3b 0e 36 bd 3b d7 98 bc 37
       -2.747413 0.0045829676 0.005774266 2.2482518e-05
000030 c0 40 82 3e 7e 1b 6c ba c3 f5 c2 be df 6d be ba
       0.25440025 -0.0009006782 -0.38078126 -0.0014528594
000040 64 19 fc be 38 0b 96 3b dd e9 41 3a 26 00 82 bf
       -0.49238122 0.004578974 0.0007397214 -1.0156295
000050 d1 aa 55 bf c7 b9 04 c0 2a c9 6b c0 1e c5 07 bf
       -0.8346377 -2.073839 -3.684153 -0.5303515
000060 b1 15 1b bc 5e c6 d3 3e de df 96 3c a5 9c 91 3e
       -0.009465621 0.4136228 0.018417295 0.28439823
000070 2d 4d 9d 3e 6e eb 56 bf bf 52 cf be 5a 87 ee bf
       0.30722943 -0.8395299 -0.40492818 -1.8635056
000080 b8 cc 99 bf 53 af 17 40 e0 28 3d b9 10 6d fd 3a
       -1.20156 2.370076 -0.00018039672 0.0019334871
000090 c0 2e 17 c0 5c db 77 3f f9 20 8b bf 6b 27 27 3f
       -2.3622284 0.9681909 -1.0869437 0.6529452
0000a0 0b 08 2d 3f c4 86 b6 bf c3 90 67 bf 2f a2 38 3f
       0.675904 -1.4259877 -0.90455264 0.7212247
0000b0 c4 f2 52 bf 52 81 9d 3e 62 a2 6a 3b 2b 24 0e 3c
       -0.8240168 0.30762726 0.0035802354 0.008675615
0000c0 61 4d 3f bc e8 ee cc be 83 3a 72 c0 38 00 ff bd
       -0.011676163 -0.4002602 -3.7848213 -0.124512136
0000d0 21 23 15 3f f6 39 e9 3b 0e 6d de 3b c7 32 15 bc
       0.5825673 0.007117505 0.0067879027 -0.009106345
0000e0 51 d7 7d bf 55 d9 a3 3b 25 4f 2b c0 45 25 f1 bf
       -0.9915667 0.005000273 -2.6767056 -1.8839499
0000f0 22 5d a2 3b 24 78 85 bf c0 b3 69 bf 07 d4 57 c0
       0.00495495 -1.0427289 -0.912899 -3.3723161
000100 dd be b5 3c 4d d6 c0 3a 0f 58 08 bf 4a f2 d4 c0
       0.022185737 0.0014712304 -0.53259367 -6.6545763
000110 f2 a4 3e bc 76 06 4d bf 73 0c e5 bf ba 78 1a bf
       -0.011636006 -0.80087984 -1.7894424 -0.60340464
000120 e1 3f cf bf 94 0c 54 bb db bf 74 3a f1 04 fe 3d
       -1.6191369 -0.003235613 0.000933645 0.12403286
000130 87 36 83 bf 1a 09 19 3c 5c f8 49 40 7c b1 07 bc
       -1.0251015 0.009340549 3.1557837 -0.008282062
000140 52 09 6f 3e 0c bb 1b c0 65 d8 c0 bf db 5d b3 3b
       0.23343399 -2.4332914 -1.5066038 0.005473835
000150 ee e6 58 bf ec 44 83 bf 92 d5 3c bf e9 1d 59 c0
       -0.8472737 -1.0255408 -0.7376338 -3.3924506
000160 ed 03 b3 3b 0c 42 ab 3b a8 53 57 c0 9b 6e 3c 3e
       0.0054631145 0.0052263793 -3.364481 0.18401568
000170 2e 19 71 c0 37 c2 1f b8 39 0c 59 be 57 95 61 3a
       -3.7671618 -3.808943e-05 -0.21196069 0.0008605322
000180 3b df 0c 3f b0 66 36 3d 8e 3a 2d bf a3 28 36 3e
       0.5502812 0.044531524 -0.6766747 0.17788939
000190 e0 c9 53 bf 23 ad 05 bf 91 ec a0 3c 85 c8 45 3b
       -0.8272991 -0.5221731 0.019644054 0.0030179333
0001a0 7a 3c 91 3a 4b 57 90 3e a0 70 30 3b 4b 37 40 3b
       0.0011080645 0.281916 0.0026922598 0.0029329832
0001b0 32 36 fb 3a 28 cb c2 c0 11 1a 97 3b 87 66 2b bf
       0.0019165932 -6.0872993 0.0046112617 -0.6695332
0001c0 61 98 69 bc 5d 05 0e 3f 9f 01 7e bf c8 97 ab 3c
       -0.014257521 0.55476934 -0.99221224 0.020946398
0001d0 75 18 2b 3a 1b a6 05 c0 77 9c d8 c0 c4 3d 84 bf
       0.00065267767 -2.0882633 -6.7690997 -1.0331349
0001e0 d7 70 d5 bf d2 d4 6c bf 3e 95 7c 3e 93 ec 45 bf
       -1.6675061 -0.9251224 0.24666306 -0.7731411
0001f0 c5 63 05 bf 35 47 23 40 3a 72 ed c0 1d 4d 09 c0
       -0.5210536 2.5512211 -7.4201937 -2.1453316
000200 99 50 41 3b 3d 47 ef 3a 63 86 ae 3e f6 31 d5 be
       0.0029497503 0.0018255484 0.34086904 -0.4163968
000210 e3 9b 6d c0 e7 ef ed bf fa 67 85 3e 2a f8 1c c0
       -3.7126396 -1.8588837 0.2605589 -2.4526467
000220 11 0a 2b 3c 06 03 a2 3e d5 ce d4 ba 06 4a 16 3c
       0.010439412 0.31642932 -0.0016235957 0.009172922
000230 82 07 31 3e 65 c6 87 3b 72 19 01 3c 78 3e 6f 3e
       0.1728802 0.0041435235 0.007879602 0.23363674
000240 24 cf 1f 3c be 93 ba 3b dc f8 35 3e dd a2 31 bb
       0.009753976 0.005693882 0.17770714 -0.002710513
000250 c7 f2 99 3b 43 d2 18 3a 9e f4 c5 3b 7f 60 da 3b
       0.004698131 0.0005829671 0.0060411235 0.0066643353
000260 90 51 aa bd 46 d2 ae be a1 68 39 bf 69 54 9c b9
       -0.08316338 -0.341448 -0.72425276 -0.0002981753
000270 61 38 27 3b b7 a6 4c 3e f0 2e 4d 38 be df 8e 3f
       0.0025515782 0.19985472 4.8919523e-05 1.1162031
000280 11 12 2c 3f ce 20 48 40 f9 92 9f 3e e5 9c 63 3c
       0.6721507 3.1270022 0.3116682 0.013892387
000290 64 94 aa be be 72 ab bd 52 a0 ba 3e 9a 04 7f 3b
       -0.33316338 -0.08371495 0.3645044 0.0038912655
0002a0 8c 94 73 3e 99 fa 16 c0 6c 8c 40 3e 64 33 8f 3f
       0.23787135 -2.3590453 0.18803567 1.1187558
0002b0 de c4 47 3e 47 83 a8 3f 96 27 1e 3c 50 f3 c5 3c
       0.19508693 1.3165063 0.009652993 0.024163872
0002c0 c4 00 3e c1 a6 56 9a 3b 4d 8e 3e 3e 27 a3 10 3a
       -11.875187 0.0047100363 0.18608971 0.00055174757
0002d0 49 75 ea bf 62 7c 17 be 26 4c 09 bf ea 40 2c bf
       -1.8317043 -0.14793542 -0.5363182 -0.6728655
0002e0 42 99 83 bf 2d da 13 c0 45 2b b8 be cc 44 49 bb
       -1.0281146 -2.3101914 -0.35970512 -0.0030711172
0002f0 4d 1c 04 3c 56 9b 0e 3b d5 2b 85 3b b5 56 20 bc
       0.008063388 0.0021760068 0.004064063 -0.009786298
000300 84 62 4d c0 a6 b5 a9 bf 93 b5 03 bf 50 81 60 3c
       -3.209138 -1.325856 -0.51448935 0.0137027055
000310 04 93 67 c0 ca 57 82 3b 03 90 b0 bf 17 2b bb 3f
       -3.6183481 0.0039777504 -1.3793949 1.4622525
000320 5a 34 d2 bf 26 26 b0 bf ad 0f ed 3b 49 cb 21 c0
       -1.6422226 -1.3761642 0.0072345347 -2.5280325
000330 a7 98 c6 bb d5 ab 40 bf 8c fc eb 3b 2c 3e 7c 3b
       -0.006060678 -0.75262195 0.007201737 0.0038489206
000340 b8 e6 74 3e 39 88 5b 3b 37 2e 4e b9 e6 d8 7b 3a
       0.23916137 0.0033497943 -0.00019662907 0.00096072105
000350 7a 63 97 40 a5 27 a2 3d 46 e2 fc bf 52 92 54 3b
       4.730893 0.07917718 -1.9756553 0.0032435847
000360 6a 58 6e 3b 08 7a c4 3e b1 48 c3 c0 b3 90 96 3b
       0.0036368617 0.38374352 -6.1026235 0.004594886
000370 e3 32 25 3f d3 8f 75 3e 2d 47 05 c0 1a 73 36 c0
       0.6453077 0.23980646 -2.0824692 -2.8507752
000380 7c 9f 7a 3d dd 75 0e bf 34 f3 0c bb ba 7d 8c 3d
       0.061187252 -0.55648595 -0.0021507265 0.06859918
000390 8e 09 18 bf 5f 12 76 3b 58 e2 af bf ed 1d cc bf
       -0.5938958 0.003754757 -1.374095 -1.5946633
0003a0 d5 d0 32 bf 07 6a 11 bf c4 1a 89 3b 31 e8 db bf
       -0.698499 -0.5680241 0.004184099 -1.7180234
0003b0 83 68 b8 3b 57 44 50 3e 07 0a 5d bc 1e 7f 26 3d
       0.005627693 0.2033857 -0.01349116 0.040648572
0003c0 81 97 bc 3e a5 3b 9f 3a 00 4a 78 3c 32 36 7e bf
       0.36834338 0.0012148513 0.015154362 -0.99301445
0003d0 8f 05 e2 3f d1 07 f6 3b 54 9f 7b 3e 42 37 fb c0
       1.7657946 0.007508256 0.24572498 -7.8504953
0003e0 b5 2e 65 3a 1b bc da 3d 28 cf 7d 3d 21 3a 23 3c
       0.00087426166 0.106804095 0.061965138 0.0099625895
0003f0 59 17 37 c0 ed 7f 1c 40 41 9f 2f 3e 9f bd 55 bf
       -2.8608 2.445308 0.17150594 -0.83492464
