Models/Bloom_filter/result/model-dict-60.pt (torch, 533323 bytes, 7 tensors)

model.0.weight f4 [256, 2]
-0.0036167041 -0.00018800439 -0.0014514846 0.00034884867 0.0015646536 0.00041784623 -0.0045436407 -0.0038931966
-0.0023877546 -0.005351526 -0.00971908 0.0046732305 -0.5641226 -0.0409488 0.00038391844 -0.0036433362
-0.30792823 0.40649498 -0.0022364687 0.0010315399 -0.042465635 0.46571636 -0.0017160411 -0.00089830696
-1.5752121 0.13562568 -0.0011658624 0.0009471446 -0.0010629375 0.0025725288 -0.0024653398 0.0013622222
-0.012499885 0.0072482717 -0.0024015112 -0.0007503246 -0.0022312799 0.0009646446 -0.0021805721 0.000969205
-0.00556629 0.0034216435 -0.0018533375 6.095731e-05 -0.0023630806 -0.0036342216 -0.23648562 -0.7462607
-0.0014418312 0.0017230235 0.002145272 0.0021117716 -0.0034669398 -0.0011724335 -0.66956276 0.17340492
-0.0017931407 -0.0011168293 -0.0020030364 0.00043353866 -0.0048989337 -0.0010475464 0.051101763 -0.92842805
0.35724077 -1.6398004 0.28440815 -0.2914488 0.00019006629 -0.010496991 0.001055814 -0.0018557145
0.0012489737 -0.002822001 -0.0021254842 -0.0060587293 0.287651 0.11415674 -0.0018700651 -0.004438803
0.26550567 -0.12040065 0.2639317 -0.11548354 -0.0012204926 -0.00030050366 0.025131822 -0.03191049
-0.00071434 -0.0036421774 -0.0024495476 -0.00018989114 -2.6588546e-05 -0.0010542165 0.0017955196 -0.0017727767
0.002961006 0.0010101718 0.0010276951 -0.0033202828 -0.0006731094 -0.00024772846 -0.0059477473 0.004987227
-0.18961293 0.3579361 -0.007126146 -5.1021405e-05 -0.19063367 -0.7603312 -0.0003313446 -0.00026628678
0.32010338 0.050287355 0.00065402465 -0.0008988483 -0.002456461 -0.0016812825 0.27531493 -0.10628113
-0.0001502189 0.00021765399 -0.00062369736 -0.0009447401 0.0011502377 0.0019025481 -0.0033800947 -0.005352005
-0.001878523 0.000572243 -0.0022912335 -0.0006460339 -0.0012322534 -0.0041912044 -0.41456527 -0.049154293
0.29777643 -0.13386492 0.2721915 0.16904671 -0.0019919588 -0.0038010334 -0.0008188464 -0.0005906664
-0.0017200008 -0.00030343773 0.00013967683 -0.005771771 -0.00093769695 -0.0007597619 -0.13003069 0.3969751
0.2674815 -0.24214675 0.23486213 -0.35712346 0.0010687805 -0.00023426699 -0.00033777682 -0.0007657016
0.00043450118 -0.0017705534 -0.0012950349 -0.0013621629 0.27698347 -0.3425508 -0.4233875 -0.06639951
-0.8045546 -0.39195403 -0.0009366511 -0.0030183028 -0.04269212 -0.636543 -0.0017235636 -0.00261532
-0.00063190586 -0.005302772 -0.0025396263 -0.0010421022 0.0005861231 -0.0015385504 0.26275897 -0.12063266
-0.0017597958 0.0018532462 0.29348272 -0.22497891 0.0050870194 0.005002482 -0.0023551602 0.0013033599
-0.0020685543 -0.0014040294 -0.0018239915 -0.0032992314 0.06665235 -0.66135365 -0.00027126417 0.001501224
0.28343272 -0.29634178 -0.0054226443 0.0026915376 0.22785023 -0.45247638 -0.0007206952 0.002650587
-0.0015474528 8.958541e-05 -0.0698379 0.2836164 -0.002081262 0.0002089352 -0.0015730755 0.000958158
-0.46022195 0.37754753 -0.16238149 0.2313721 -0.00039287016 -0.0012516413 -0.0031747061 -0.5345276
-0.0028926302 0.0028477744 -0.0021965154 0.001565298 0.20689051 0.118961416 -2.8570172e-05 -0.0036443477
0.24534611 -0.838436 6.34186e-05 0.00058812264 -0.00048190646 -0.0030588037 -0.001497135 0.0022178532
-0.00191664 -0.00014684281 -0.0022245967 -0.007760591 0.0018529618 -0.0052650836 -0.0012325449 0.002093279
0.25348422 -0.3368476 0.00071809 -0.005642743 0.14066063 -0.4420269 -0.59415764 0.23195662
00000000: 3a06 6dbb 0b23 45b9 be3f beba ade5 b639
00000010: 1015 cd3a 5f12 db39 d2e2 94bb 0025 7fbb
00000020: e07b 1cbb db5b afbb c73c 1fbc e621 993b
00000030: 576a 10bf eeb9 27bd a948 c939 0ac5 6ebb
00000040: c5a8 9dbe 1c20 d03e b891 12bb bc34 873a
00000050: 72f0 2dbd 6072 ee3e c9ec e0ba 5c7c 6bba
00000060: 8da0 c9bf 75e1 0a3e dacf 98ba cc49 783a
00000070: 4452 8bba df97 283b 8a91 21bb 988c b23a
00000080: 51cc 4cbc e982 ed3b ac62 1dbb 6eb1 44ba
00000090: aa3a 12bb 34e0 7c3a eee7 0ebb 3f12 7e3a
000000a0: 6d65 b6bb a73d 603b b0eb f2ba 6aac 7f38
000000b0: eadd 1abb 1f2c 6ebb 4929 72be f10a 3fbf
000000c0: d4fb bcba 13d7 e13a b197 0c3b a665 0a3b
000000d0: 9935 63bb 57ac 99ba 7768 2bbf 0f91 313e
000000e0: d107 ebba 9362 92ba 6045 03bb 934c e339
000000f0: 3c87 a0bb d34d 89ba 1550 513d 76ad 6dbf
00000100: 43e8 b63e fbe4 d1bf f29d 913e c738 95be
00000110: 884c 4739 92fb 2bbc 3d63 8a3a 723b f3ba
00000120: 9ab4 a33a 52f1 38bb b54b 0bbb 4e88 c6bb
00000130: fe46 933e 02cb e93d f91c f5ba 6173 91bb
00000140: 5cf0 873e 9e94 f6bd 0e22 873e a282 ecbd
00000150: f0f8 9fba eb8c 9db9 40e1 cd3c 93b4 02bd
00000160: 8c42 3bba 99b1 6ebb 9788 20bb 841d 47b9
00000170: 780a dfb7 a32d 8aba a457 eb3a 845c e8ba
00000180: 700d 423b be67 843a bab3 863a 1a99 59bb
00000190: 9b73 30ba 8de1 81b9 52e5 c2bb e46b a33b
000001a0: e429 42be 6743 b73e 7282 e9bb d1ff 55b8
000001b0: 7935 43be 11a5 42bf 52b8 adb9 689c 8bb9
000001c0: 97e4 a33e 1dfa 4d3d da72 2b3a b0a0 6bba
000001d0: 94fc 20bb 7b5e dcba 14f6 8c3e eca9 d9bd
000001e0: 1484 1db9 0c3a 6439 9f7f 23ba 6fa8 77ba
000001f0: 93c3 963a ec5e f93a 9484 5dbb df5f afbb
00000200: c638 f6ba 9402 163a 8528 16bb 9a5a 29ba
00000210: 9083 a1ba 5f56 89bb e641 d4be 0356 49bd
00000220: 2776 983e e313 09be af5c 8b3e 951a 2d3e
00000230: 868b 02bb c21a 79bb daa7 56ba f3d6 1aba
00000240: a671 e1ba b916 9fb9 3776 1239 2021 bdbb
00000250: c7cf 75ba c22a 47ba c426 05be 5240 cb3e
00000260: 56f3 883e 51f5 77be b37f 703e e3d8 b6be
00000270: 5316 8c3a 91a5 75b9 a317 b1b9 5db9 48ba
00000280: c3cd e339 ea11 e8ba 29be a9ba 9a8a b2ba
00000290: c7d0 8d3e d262 afbe 3fc6 d8be 77fc 87bd
000002a0: 4af7 4dbf 33ae c8be 9789 75ba b8ce 45bb
000002b0: efdd 2ebd 7bf4 22bf 33e9 e1ba ca65 2bbb
000002c0: 7ca6 25ba e0c2 adbb dc6f 26bb 2697 88ba
000002d0: 0ea6 193a 2fa9 c9ba 5888 863e 420e f7bd
000002e0: f3a8 e6ba a0e8 f23a 5e43 963e df60 66be
000002f0: 03b1 a63b dceb a33b 0859 1abb 80d5 aa3a
00000300: 9590 07bb 6907 b8ba 0013 efba eb37 58bb
00000310: 0781 883d 794e 29bf 7638 8eb9 b8c4 c43a
00000320: 181e 913e 1cba 97be 70b0 b1bb 8264 303b
00000330: 9251 693e fcaa e7be 09ed 3cba 78b5 2d3b
00000340: e6d3 caba cddf bb38 2c07 8fbd 2b36 913e
00000350: c865 08bb 9e15 5b39 a82f ceba e52c 7b3a
00000360: 36a2 ebbe e94d c13e 5547 26be cfec 6c3e
00000370: 24fa cdb9 1d0e a4ba bb0e 50bb cdd6 08bf
00000380: 4892 3dbb baa1 3a3b 6af3 0fbb af2a cd3a
00000390: 1bdb 533e 0ba2 f33d faa9 efb7 02d6 6ebb
000003a0: 033c 7b3e bea3 56bf 9aff 8438 3e2c 1a3a
000003b0: 64a8 fcb9 3676 48bb 843b c4ba 6759 113b
000003c0: c437 fbba d1f9 19b9 8aca 11bb 8e4c febb
000003d0: 15df f23a b986 acbb 588d a1ba 652f 093b
000003e0: afc8 813e 4a77 acbe 343e 3c3a c2e6 b8bb
000003f0: 5709 103e 5a51 e2be b71a 18bf 0986 6d3e

model.0.bias f4 [256]
0.0 -0.001767387 -0.0043549165 0.0 0.0 -0.0023645796 0.17530479 -0.0004040792
-0.035158902 -0.0026357747 -0.11006342 0.0 0.15375796 -0.0011461293 -0.002092714 -0.002865975
-0.0074148863 0.0 -0.0025762306 -0.0002915054 -0.0009831039 -0.0004584988 0.0 0.19637139
-0.0012909565 -0.008074315 0.0 0.09832632 0.0 -0.002177015 0.0 0.14841397
-0.018401735 -0.051106196 -0.0001516413 -0.000848531 -0.0010718259 0.0 -0.22187123 0.0
-0.1512078 -0.1480232 0.0 -0.01949582 -0.0020170584 0.0 0.0 -0.0024250697
-0.004009965 -0.001301107 0.0 -0.0028420475 -0.05053566 0.0 0.20069498 2.5140876e-05
-0.13722283 -0.00052863825 0.0 -0.16445854 -0.00039625127 0.0 -0.0030671782 -0.0023671165
-0.0004923583 0.0 -5.736531e-05 0.14724208 -0.06271411 -0.1917132 0.0 0.0
-0.0016204687 -0.00011271756 0.0 -0.1245537 -0.06844037 0.014803931 -0.0009741017 0.0
-0.0003490592 0.0 -0.038522206 0.14384507 0.2233797 0.0 0.15791935 0.0
0.0 0.0 -0.00070216286 -0.14916305 -0.0023713065 -0.101163104 -0.01793663 -0.00042887297
0.0 0.0 0.14572373 -0.0014231785 -0.047657866 -0.0015190406 0.0050433897 -0.0023397084
-0.00039954283 -0.07514154 -0.00020369164 -0.00028155078 0.040235825 -0.010050561 6.745572e-05 0.2287442
-0.0035261034 -0.0026250177 -0.24037613 0.0 0.03471789 -0.0006513731 4.7220725e-05 -0.0024705422
-0.0015274836 -0.0011783534 -0.0014834076 -0.0015837848 0.010934589 -0.00057613367 0.14859407 0.0431713
0.0 -0.25738028 0.0 0.0 0.03402658 -0.09999304 -0.0036541487 0.0
-0.0009025773 -0.007701176 0.2044705 0.17042015 -0.00078584085 0.00037915312 0.0 -0.0004840442
-0.00017697083 -0.0024108696 -0.0037989377 -0.070146754 0.0 -0.00028558273 -0.20784499 0.0
-0.00027531033 0.0 0.0 -0.23634708 -0.0022786716 -0.00062101847 0.16530934 0.14280932
-0.00025854612 -0.04993275 -0.07540201 -0.00039559978 -0.21115175 -0.20512071 0.0 0.14523448
-0.0011903715 -0.050039865 -0.002802111 0.0 -0.00081975915 0.0 0.0 -0.14928195
-0.0013851508 -0.2576574 0.0 -0.005994457 -0.0028186068 0.00036285128 0.0 0.0
0.25712913 -0.002194599 -0.0022949341 -0.023799097 0.18942475 -0.0008492074 -0.057001755 -0.0028519013
-0.04190323 0.0 -0.006383423 -0.16619004 0.0 0.0 -0.0005046967 0.05498088
-0.012733176 0.056359373 0.0 0.13777214 0.0 -0.0005469483 -0.00019621676 0.0
0.0 0.0 -0.002183394 -0.002430827 -0.00062579376 0.0 0.0 0.0
-0.23791915 -0.10955613 -0.0024456626 -0.00065393874 -0.00037688014 0.0 0.0 -0.00018567244
0.0 0.14393121 -0.0060244217 -0.19732557 -0.00038498887 0.0 0.1748031 0.19356295
0.0006077195 0.3201475 -0.037883103 -0.018606985 0.0 -0.027653525 0.048544068 -0.16852507
-0.0009562736 -0.06502823 -0.001053587 0.0 0.025811017 0.0 0.00039701312 -0.0036375315
0.009687477 2.9898389e-05 -0.0640031 -0.18402539 0.13137719 -0.0017219215 -0.013976907 -0.0034071486
00000000: 0000 0000 aba7 e7ba b0b3 8ebb 0000 0000
00000010: 0000 0000 10f7 1abb 1983 333e 98da d3b9
00000020: c802 10bd f6bc 2cbb ee68 e1bd 0000 0000
00000030: ba72 1d3e b839 96ba ea25 09bb 15d3 3bbb
00000040: 93f8 f2bb 0000 0000 fad5 28bb 31d5 98b9
00000050: 7edb 80ba ab62 f0b9 0000 0000 9515 493e
00000060: 5035 a9ba 224a 04bc 0000 0000 4f5f c93d
00000070: 0000 0000 40ac 0ebb 0000 0000 d5f9 173e
00000080: 3cbf 96bc bb54 51bd e701 1fb9 f46f 5eba
00000090: 827c 8cba 0000 0000 3632 63be 0000 0000
000000a0: 38d6 1abe 6593 17be 0000 0000 b3b5 9fbc
000000b0: a030 04bb 0000 0000 0000 0000 ebed 1ebb
000000c0: 0666 83bb e889 aaba 0000 0000 a541 3abb
000000d0: 7bfe 4ebd 0000 0000 fc82 4d3e 9fe5 d237
000000e0: 2484 0cbe 5094 0aba 0000 0000 d267 28be
000000f0: f2bf cfb9 0000 0000 b602 49bb a021 1bbb
00000100: 9b11 01ba 0000 0000 889b 70b8 a1c6 163e
00000110: 4170 80bd 7750 44be 0000 0000 0000 0000
00000120: e865 d4ba c762 ecb8 0000 0000 0316 ffbd
00000130: 772a 8cbd 308c 723c dc5a 7fba 0000 0000
00000140: ef01 b7b9 0000 0000 76c9 1dbd 1f4c 133e
00000150: a6bd 643e 0000 0000 9cb5 213e 0000 0000
00000160: 0000 0000 0000 0000 5a11 38ba 33be 18be
00000170: ec67 1bbb 9a2e cfbd d7ef 92bc 5bda e0b9
00000180: 0000 0000 0000 0000 9a38 153e f289 baba
00000190: e534 43bd 8b1a c7ba 0543 a53b cb55 19bb
000001a0: bb79 d1b9 cfe3 99bd 0f96 55b9 1b9d 93b9
000001b0: 52ce 243d 1cab 24bc 0477 8d38 eb3b 6a3e
000001c0: 3316 67bb 7d08 2cbb 2925 76be 0000 0000
000001d0: 5934 0e3d e9c0 2aba de0e 4638 d2e8 21bb
000001e0: d835 c8ba fb72 9aba e66e c2ba 0097 cfba
000001f0: fe26 333c ad07 17ba 0b29 183e 64d4 303d
00000200: 0000 0000 59c7 83be 0000 0000 0000 0000
00000210: 755f 0b3d 27c9 ccbd 717a 6fbb 0000 0000
00000220: f09a 6cba 265a fcbb b760 513e 9f82 2e3e
00000230: e300 4eba 12c9 c639 0000 0000 50c7 fdb9
00000240: 3f91 39b9 aeff 1dbb 99f7 78bb 1aa9 8fbd
00000250: 0000 0000 44ba 95b9 51d5 54be 0000 0000
00000260: 8757 90b9 0000 0000 0000 0000 f804 72be
00000270: c455 15bb d8cb 22ba da46 293e 9b3c 123e
00000280: 798d 87b9 4986 4cbd 5e6c 9abd 8168 cfb9
00000290: 2a38 58be 2a0b 52be 0000 0000 59b8 143e
000002a0: 3d06 9cba 9af6 4cbd 9fa3 37bb 0000 0000
000002b0: 1be5 56ba 0000 0000 0000 0000 5edd 18be
000002c0: f38d b5ba aceb 83be 0000 0000 266d c4bb
000002d0: 60b8 38bb 133d be39 0000 0000 0000 0000
000002e0: 6ea6 833e 43d3 0fbb 9b66 16bb 53f6 c2bc
000002f0: 90f8 413e 589d 5eba ac7a 69bd f7e6 3abb
00000300: b9a2 2bbd 0000 0000 092c d1bb b92d 2abe
00000310: 0000 0000 0000 0000 9f4d 04ba a233 613d
00000320: d09e 50bc 16d9 663d 0000 0000 2414 0d3e
00000330: 0000 0000 1461 0fba 89bf 4db9 0000 0000
00000340: 0000 0000 0000 0000 4617 0fbb 824e 1fbb
00000350: 4f0c 24ba 0000 0000 0000 0000 0000 0000
00000360: 14a1 73be f75e e0bd 6947 20bb 166d 2bba
00000370: ff97 c5b9 0000 0000 0000 0000 11b1 42b9
00000380: 0000 0000 b462 133e 8368 c5bb b70f 4abe
00000390: 55d8 c9b9 0000 0000 95ff 323e 5e35 463e
000003a0: 5e4f 1f3a 60ea a33e 502b 1bbd ad6d 98bc
000003b0: 0000 0000 a589 e2bc 25d6 463d d691 2cbe
000003c0: 6fae 7aba 852d 85bd 8318 8aba 0000 0000
000003d0: a071 d33c 0000 0000 3326 d039 a763 6ebb
000003e0: 39b8 1e3c 4dce fa37 0f14 83bd 2771 3cbe
000003f0: be87 063e 19b2 e1ba 66ff 64bc 784a 5fbb

model.2.weight f4 [256, 256]
0.0021086088 -0.0011661592 -0.0006335777 -0.0025054573 -0.002772805 -0.00301143 -0.6030211 -0.0006788569
0.37545347 -0.001346454 -0.042998835 -0.0008534563 5.6172314e-05 8.329341e-05 0.002109241 -0.0009948905
-0.005898571 -0.0043244367 -0.0013005261 0.0015309941 0.001094191 0.001540623 2.9373121e-05 0.08279631
0.0027804764 -0.032990284 0.0013035972 -0.45346645 0.0007421435 0.0003846376 -0.0002060182 0.20033918
-2.0700705 -0.7557122 0.0013268271 0.00035106202 0.0005778734 0.0016525178 0.45854968 -0.001750099
0.0040278067 0.00522501 0.00070347264 0.02523641 -0.0011568984 0.000103391874 0.0025311955 0.000107352374
0.0012807447 0.0017889168 0.00011064189 0.00052026066 0.20527734 5.6482833e-05 0.18122748 0.0033812532
-0.8260353 0.000112393784 -0.00070052774 -0.0036352552 0.0009777329 0.0022552144 -0.0004507487 -0.0015478537
0.004281452 0.0004207579 -0.0036887974 -0.6573696 0.014689645 -1.7825184 -0.00013960902 -0.0015697676
-0.00094747357 0.0051465062 0.0008981845 0.2382968 -0.96580637 0.29707184 -0.0027235264 0.0022530572
0.0014751533 0.0023874033 -0.51650447 -0.4623492 -2.3673992 0.0025383416 0.37094772 -0.0014485437
0.0014117492 0.0005356165 0.004430186 0.0016324731 0.005154706 -3.4786727 -0.057675246 -0.0023469531
-0.0007020032 0.0028257703 0.26247117 0.002040555 -0.75350684 -0.0054926933 -0.28130332 -0.00052395585
0.0010310658 0.06528777 -0.0004196869 8.6302374e-05 0.43557957 0.13285641 -0.00055123895 0.1996563
-0.0007010551 0.0042619137 -0.47277322 0.00080301304 -0.3084416 0.0023121813 0.0012821227 0.0058452603
-0.0013750888 0.007048222 0.0049200486 -0.0008352647 0.22780158 0.0031195781 0.12868646 -0.15871203
-0.0016145987 0.531028 0.0007535216 -0.0019126779 -0.3198923 -3.6544442 0.008365472 0.00053273805
-0.00023074371 0.0073152436 0.14160153 0.31743735 0.007385243 0.002503623 -0.00034055908 -0.00020209284
-0.0020203895 -0.0012031418 -0.0018905044 0.25662753 -0.00037261774 0.0009732621 0.4721977 0.0012371883
-0.0009585144 0.0013231698 -0.0034368706 0.81754947 0.0046305507 -0.0016922945 -0.59857106 -0.6896716
-6.356026e-05 0.047747705 0.5837351 -0.0023686853 -0.8495212 0.4069889 -0.0008765134 -0.6595188
0.004685009 -0.75898254 -0.0012941986 -0.0016419641 -0.0005511921 0.0006900541 -0.001558549 0.00051009754
0.0005579255 0.5316018 0.0009762753 -0.006811342 0.00049485493 0.004195802 0.0014257557 0.0016214495
0.23379189 0.0084885545 0.0047799866 -0.0042901584 0.51088995 -0.0011709115 -0.98641753 0.002005475
0.26329267 -0.005321751 -0.0033331795 -0.1437696 -0.0017593311 0.0023001153 -0.0018294882 -0.78342843
0.22867553 -0.7729096 0.0008006267 0.2135948 -0.0016465648 0.002122659 0.0015606144 -0.0025805465
-0.0009884037 -0.00095371617 0.007971102 -0.0078095766 0.0005267624 0.0016606449 -0.0010058498 -0.0014305526
0.7151227 -0.039888356 -0.00067194126 -0.0019489157 0.0030307074 -0.00035950544 -0.0032998496 -0.0024896571
-0.0028800957 -0.64183265 -0.017345347 -0.5595794 -0.0007198982 0.0005904921 0.33201453 0.23357244
0.008181299 0.14869328 0.37222207 -0.020734204 -0.00010531976 0.2018817 -0.005973246 -1.166552
-0.00046351113 0.06895311 -0.0005139781 0.00023054719 -0.120884866 -0.00046528754 -0.00018303184 0.00063151337
0.2244501 0.0057573784 -0.81188715 -0.0035268976 -0.40928027 0.0012544104 0.26158845 -0.00033538393
00000000: 9630 0a3b cfd9 98ba ae16 26ba 9932 24bb
00000010: f3b7 35bb 695b 45bb 975f 1abf 51f5 31ba
00000020: 703b c03e 807b b0ba 8c1f 30bd 7cba 5fba
00000030: 909a 6b38 cfad ae38 313b 0a3b fc66 82ba
00000040: cd48 c1bb 01b4 8dbb 6a76 aaba a3ab c83a
00000050: f56a 8f3a bbee c93a 4c66 f637 1d91 a93d
00000060: a738 363b d220 07bd 77dd aa3a c12c e8be
00000070: 688c 423a 2fa9 c939 9706 58b9 b725 4d3e
00000080: 097c 04c0 5b76 41bf eee8 ad3a bf0e b839
00000090: 6d7c 173a 4c99 d83a 06c7 ea3e 9463 e5ba
000000a0: b1fb 833b 9036 ab3b 4069 383a 96bc ce3c
000000b0: 12a3 97ba 17d4 d838 6ae2 253b 5e22 e138
000000c0: a9de a73a 167a ea3a 6a08 e838 1a62 083a
000000d0: 3934 523e fbe7 6c38 b293 393e 0498 5d3b
000000e0: 0d77 53bf f4b4 eb38 9fa3 37ba 763d 6ebb
000000f0: 4627 803a 38cc 133b 7752 ecb9 5ae1 caba
00000100: 6c4b 8c3b 2b99 dc39 c0bf 71bb 6049 28bf
00000110: d6ac 703c 9029 e4bf 0364 12b9 a9c0 cdba
00000120: e05f 78ba 06a4 a83b 2474 6b3a 1404 743e
00000130: 163f 77bf cd19 983e 317d 32bb 07a8 133b
00000140: ee59 c13a fb75 1c3b a339 04bf 09b9 ecbe
00000150: 7883 17c0 4e5a 263b dcec bd3e 10dd bdba
00000160: 710a b93a 9d68 0c3a 182b 913b b5f8 d53a
00000170: cfe8 a83b 93a2 5ec0 e13c 6cbd 57cf 19bb
00000180: a306 38ba 8f30 393b 9f62 863e d5ba 053b
00000190: d3e5 40bf 0dfc b3bb fd06 90be 155a 09ba
000001a0: d424 873a 98b5 853d 6c09 dcb9 3cfd b438
000001b0: 4904 df3e 830b 083e 0581 10ba b372 4c3e
000001c0: 03c7 37ba 86a7 8b3b 550f f2be 4b81 523a
000001d0: 0fec 9dbe f787 173b e60c a83a 9989 bf3b
000001e0: 533c b4ba c5f4 e63b 5c38 a13b aaf5 5aba
000001f0: d144 693e d671 4c3b 62c6 033e 6885 22be
00000200: f1a0 d3ba 73f1 073f fb87 453a d2b2 faba
00000210: ecc8 a3be 6ae2 69c0 550f 093c 72a7 0b3a
00000220: cbf3 71b9 b6b4 ef3b feff 103e 2687 a23e
00000230: e9ff f13b d313 243b 118d b2b9 e2e8 53b9
00000240: 8368 04bb bdb2 9dba cdca f7ba af64 833e
00000250: e85b c3b9 8422 7f3a e6c3 f13e 2729 a23a
00000260: d044 7bba 366e ad3a 1f3d 61bb ec4a 513f
00000270: e0bb 973b fbcf ddba f43b 19bf 518e 30bf
00000280: a84b 85b8 1993 433d aa6f 153f f23b 1bbb
00000290: 397a 59bf d960 d03e d2c5 65ba 39d6 28bf
000002a0: b484 993b ae4c 42bf 19a2 a9ba 2c37 d7ba
000002b0: e07d 10ba bfe4 343a 3a48 ccba 11b8 053a
000002c0: bf41 123a 0e17 083f baec 7f3a ae31 dfbb
000002d0: 27b9 013a f07c 893b 6ce0 ba3a d186 d43a
000002e0: 2467 6f3e 9413 0b3c 6fa1 9c3b 7594 8cbb
000002f0: afc9 023f 4579 99ba dc85 7cbf 4a6e 033b
00000300: 4cce 863e 1562 aebb 7971 5abb 5738 13be
00000310: 5b99 e6ba 88bd 163b 70cb efba c48e 48bf
00000320: eb29 6a3e 67dd 45bf 26e1 513a 98b8 5a3e
00000330: 8cd1 d7ba 4f1c 0b3b 888d cc3a 631e 29bb
00000340: 538d 81ba cf02 7aba 3a99 023c 7ae7 ffbb
00000350: 6d16 0a3a ffa9 d93a b8d6 83ba 6181 bbba
00000360: 4812 373f f961 23bd 3725 30ba c272 ffba
00000370: d59e 463b 017c bcb9 4a42 58bb 8429 23bb
00000380: fdbf 3cbb 254f 24bf d417 8ebc 9840 0fbf
00000390: 8db7 3cba 41cb 1a3a cffd a93e 9d2d 6f3e
000003a0: db0a 063c 0d43 183e e493 be3e c7da a9bc
000003b0: 1edf dcb8 14ba 4e3e 38bb c3bb 9351 95bf
000003c0: 6903 f3b9 4a37 8d3d 7dbc 06ba 0abf 7139
000003d0: 7c92 f7bd d6f1 f3b9 3cec 3fb9 258c 253a
000003e0: 3fd6 653e 64a8 bc3b d6d7 4fbf 8623 67bb
000003f0: 2f8d d1be 076b a43a ecee 853e 78d6 afb9

model.2.bias f4 [256]
-0.0941971 -0.0017709155 -0.019205881 0.0010658388 -0.04263392 0.0652511 -0.051009808 0.087821074
-0.011738349 -0.06314215 -0.001266927 -0.30154055 -0.0010982925 0.013052607 -0.00083174225 -0.0057170903
-0.00037311652 -0.0012660539 -0.25699943 -0.37278602 0.015155911 -0.2641902 -0.0014157789 -0.009953857
-0.11710968 -0.0685163 -0.021463344 -0.0026275855 -0.12657003 -0.22987236 -0.08296223 0.013640378
-0.001136127 -0.0012969325 0.0034855967 -0.2651041 -0.0013363244 -0.002631922 -0.0024393713 0.17766109
0.07456328 -0.0059042517 -0.30621082 0.0951498 -0.001047382 -0.008889369 -0.0014762067 -0.0043482375
0.07463277 -0.0052252547 -0.09217592 0.053286534 -0.14280309 -0.3835654 -0.16085999 -0.002059979
-0.263089 -0.001550209 0.09591059 -0.038124908 -0.0011563697 -0.13596109 -0.068943 -0.023667507
-0.0018871902 0.10017257 0.09275605 -0.3284217 0.024819674 -0.12430514 -0.27043137 -0.00032841373
0.067708686 -0.14396635 0.07695288 -0.0011524484 -0.14584923 0.011320998 -0.0014142527 0.11040134
-0.27671742 -0.026056657 -0.13400191 -0.0011330486 -0.0007736056 -0.07778186 -0.0012126098 -0.048249338
-0.06602829 -0.0006614862 0.032538317 -0.005094166 0.03851529 -0.035076715 -0.0026626117 -0.09680474
-0.00063934084 -0.23342428 -0.0010333908 -0.10973173 -0.25622287 -0.00026683015 0.105751045 -0.0019003063
-0.0008055431 -0.016912457 0.065357804 0.085014455 -0.2564216 -0.07989857 0.11155665 -0.0635201
0.052408088 -0.012226359 -0.009316405 -0.008013649 -0.33903146 -0.005743908 -0.09589657 -0.0018007418
-0.16106105 -0.0016461476 0.009649634 -0.0018778136 -0.0009494049 -0.32161552 0.11058918 -0.30401754
-0.025768785 -0.0028515821 -0.11821281 -0.16944812 -0.13999222 -0.10644334 -0.12284408 -0.0002707681
-0.2983984 0.0016622031 -0.13121697 -0.002146242 0.13817972 -0.1573995 -0.0027577227 -0.0013517629
-0.06384083 -0.0011643365 0.036743842 0.18212797 -0.0954512 -0.0012859767 -0.0829039 -0.001191064
-0.07092793 -0.04646715 0.20930538 -0.0010715902 0.14114152 -0.0030465224 -0.22620326 -0.0022200083
-0.0015522912 0.020417353 0.03682019 -0.0027135732 -0.12274999 -0.0013519191 -0.0008060476 0.076242805
-0.025541686 0.0009119935 -0.012213453 -0.047579683 -0.06424896 -0.22686264 -0.0051419823 0.19598222
-0.2913406 -0.02203227 -0.03257523 -0.106050625 0.09996312 -0.11579436 -0.0014162734 -0.1262742
-0.0024974584 0.019933872 -0.0007372184 0.06619407 -0.0005595721 0.105258904 0.053276457 0.19860622
0.015017861 -0.00090887677 -0.14254214 -0.065597735 0.088453725 0.08499423 0.061014116 -0.0018108288
0.079478525 -0.001185058 -0.0010135141 0.103326924 -0.004854854 0.104420386 -0.22852674 0.026959702
-0.20820035 -0.24357507 -0.002273932 -0.0021708652 0.10312048 -0.19376719 -0.013659834 -0.24232543
-0.0048148166 -0.00078550196 -0.0017260566 0.0045216586 -0.009174177 -0.0009104941 -0.22436388 -0.00074735645
0.07149798 -0.08140649 -0.067749724 -0.0043193386 0.059412476 -0.0029659441 -0.2204327 -0.009912168
-0.0013391888 0.078125566 -0.0010187881 -0.3137847 -0.17710716 -0.06365909 -0.0070232963 -0.006565226
-0.15025207 -0.1448944 0.052571014 -0.025572838 0.061952367 -0.0009149086 -0.15766221 -0.32380858
0.1293483 -0.002465401 0.220965 -0.0008237286 0.15036824 -0.011275809 -0.0011120754 0.023804035
00000000: 69ea c0bd 101e e8ba a755 9dbc 9eb3 8b3a
00000010: e8a0 2ebd 5ea2 853d a9ef 50bd 89db b33d
00000020: 3452 40bc ac50 81bd 040f a6ba 8663 9abe
00000030: 95f4 8fba 9ada 553c 4709 5aba 6e56 bbbb
00000040: da9e c3b9 b8f1 a5ba 6e95 83be cfdd bebe
00000050: 8050 783c f043 87be a891 b9ba 8115 23bc
00000060: 33d7 efbd 4652 8cbd e5d3 afbc 9233 2cbb
00000070: 939b 01be a963 6bbe 1ae8 a9bd e47b 5f3c
00000080: 19ea 94ba d5fd a9ba 9c6e 643b b9bb 87be
00000090: 9b27 afba 537c 2cbb dcdd 1fbb caec 353e
000000a0: a2b4 983d 7478 c1bb aac7 9cbe e6dd c23d
000000b0: 4f48 89ba b7a4 11bc 477d c1ba a97b 8ebb
000000c0: 11d9 983d 9d38 abbb bbc6 bcbd fb42 5a3d
000000d0: f93a 12be af62 c4be 7bb8 24be b600 07bb
000000e0: 9ab3 86be 6230 cbba c56c c43d dd28 1cbd
000000f0: 5491 97ba 6239 0bbe fd31 8dbd 5ce2 c1bc
00000100: 985b f7ba 4727 cd3d e2f6 bd3d e426 a8be
00000110: a152 cb3c b193 febd fb75 8abe f22e acb9
00000120: daaa 8a3d ea6b 13be 7999 9d3d c00d 97ba
00000130: 8059 15be b57b 393c 725e b9ba 191a e23d
00000140: e8ad 8dbe c574 d5bc cc37 09be cd82 94ba
00000150: cbcb 4aba 194c 9fbd 6ff0 9eba 19a1 45bd
00000160: d739 87bd 9667 2dba e646 053d f6ec a6bb
00000170: 35c2 1d3d 9aac 0fbd 367f 2ebb 9041 c6bd
00000180: 7099 27ba c606 6fbe d772 87ba 07bb e0bd
00000190: a52f 83be 56e5 8bb9 0194 d83d b313 f9ba
000001a0: 152b 53ba fe8b 8abc 50da 853d 0f1c ae3d
000001b0: b149 83be dda1 a3bd d077 e43d d416 82bd
000001c0: dda9 563d 1151 48bc d6a3 18bc ae4b 03bc
000001d0: 8895 adbe 6537 bcbb 6c65 c4bd de06 ecba
000001e0: 30ed 24be 8cc3 d7ba 8019 1e3c f820 f6ba
000001f0: 7ce1 78ba caaa a4be 947c e23d 30a8 9bbe
00000200: 0f19 d3bc 9ce1 3abb 8f19 f2bd cf83 2dbe
00000210: 1f5a 0fbe f7fe d9bd ad95 fbbd e1f5 8db9
00000220: adc7 98be 48de d93a be5d 06be f7a7 0cbb
00000230: fc7e 0d3e 562d 21be e9ba 34bb a32d b1ba
00000240: fbbe 82bd a69c 98ba b680 163d c17f 3a3e
00000250: eb7b c3bd 388e a8ba 85c9 a9bd 7a1d 9cba
00000260: aa42 91bd 5754 3ebd 2654 563e 9a74 8cba
00000270: 6787 103e 2aa8 47bb d4a1 67be 8f7d 11bb
00000280: 4076 cbba 4b42 a73c c4d0 163d 34d6 31bb
00000290: 5964 fbbd e132 b1ba f04c 53ba 3025 9c3d
000002a0: cc3c d1bc d912 6f3a ef1a 48bc eae2 42bd
000002b0: f594 83bd ae4e 68be 137e a8bb 90af 483e
000002c0: 982a 95be 057d b4bc 9b6d 05bd 1231 d9bd
000002d0: 77b9 cc3d 9825 edbd 40a2 b9ba 064e 01be
000002e0: 66ac 23bb 5c4c a33c e441 41ba c290 873d
000002f0: 3fb0 12ba fb91 d73d 6a38 5a3d 6e5f 4b3e
00000300: 790d 763c b041 6eba 91f6 11be 1b58 86bd
00000310: 3a27 b53d 7411 ae3d f0e9 793d 5559 edba
00000320: a3c5 a23d f353 9bba e4d7 84ba 119d d33d
00000330: 7815 9fbb 5bda d53d ea02 6abe 98da dc3c
00000340: 7932 55be be6b 79be 4006 15bb 1345 0ebb
00000350: d530 d33d e86a 46be 7fcd 5fbc 2824 78be
00000360: 9cc5 9dbb 25ea 4dba d93c e2ba 6c2a 943b
00000370: 4a4f 16bc 3aae 6eba a5bf 65be 3eea 43ba
00000380: 886d 923d 72b8 a6bd 5ec0 8abd 3d89 8dbb
00000390: 7f5a 733d 4960 42bb 1cb9 61be a566 22bc
000003a0: b887 afba 4c00 a03d db88 85ba 63a8 a0be
000003b0: 945b 35be b25f 82bd ae23 e6bb 1b21 d7bb
000003c0: aedb 19be 335f 14be b454 573d 217e d1bc
000003d0: c4c1 7d3d 7ad6 6fba 3472 21be 3dca a5be
000003e0: e173 043e 9192 21bb a644 623e 7eef 57ba
000003f0: 22fa 193e 2cbe 38bc 0fc3 91ba ae00 c33c

model.4.weight f4 [256, 256]
-0.5511215 0.001042886 0.0016300055 0.07528325 -0.038465634 -0.095763646 -0.13771145 -0.16458084
-0.0038667251 -0.4874341 -0.002810944 -0.047032673 -0.003540982 0.313855 -0.0025137241 -0.08143529
-2.9655264e-05 0.0029872477 -0.004345493 0.25725192 0.20681174 -2.7178998 -0.00089260726 0.002728849
0.38871625 -0.13447443 -0.68930906 0.002056309 0.05362994 0.08983778 0.17201777 0.0018781404
-0.00022887165 0.001185768 0.00935153 0.14073955 0.0002928644 0.0013543521 -0.0012796274 0.14994107
0.088191874 -0.004972804 0.22089167 -0.053841583 0.0005200365 0.006327323 0.0023530237 0.0015820831
-0.010335701 0.10934166 -0.03602031 0.08177197 -0.07280273 -0.09387782 0.035955366 0.0014274277
0.110700205 -0.0035136787 0.08479237 0.07010829 0.0012455466 0.16863556 0.21133211 0.29221395
0.0045430786 -0.008020558 0.1112282 0.13467078 0.08121435 0.43570036 0.13835776 0.0017338847
-0.032585524 0.14022051 0.16683888 0.0010692502 0.090980515 -1.3635858 -0.00103899 0.06153949
0.4520484 -0.16015269 0.13327315 -0.0028633093 -0.00058249274 -0.84611756 -0.003181593 -0.02352496
0.02209837 0.0035156717 -0.47509733 -0.1447279 0.19261004 0.049947284 -0.0049066907 -0.031999312
-0.0017235338 -0.5208294 -0.00082213874 0.09782991 0.04540267 -0.0012230099 0.26639476 0.0021858222
0.0021460697 0.036545265 0.0056376094 -0.16579422 0.07633333 0.0072029093 -0.08312847 0.01679799
0.4138443 0.027591594 -0.0076133315 0.0018090343 0.56563973 0.0018541776 0.50027066 0.00046678976
-0.0024328644 0.0032914802 0.018890778 0.00032864162 0.002411246 -0.0028014807 -0.14958054 -2.3014622
-0.17678891 0.0028663848 0.19700785 -6.342409 -0.23569262 0.18668139 -0.1275907 0.0001606638
0.7470188 -0.09131546 0.06965869 -0.0004749394 0.10207559 0.028140206 -0.0017177194 -0.00040434813
0.38214874 -0.001940608 -0.56254107 0.17065342 0.842385 -0.0002246995 -0.010244864 -0.0022861594
0.1382992 0.012299086 0.07928908 -0.0017997515 0.010967498 -0.0009474621 -0.37246174 -0.0024655184
-0.0022648664 0.09297418 0.10877174 -0.0014044644 0.24305157 0.002046375 0.0018160095 0.04875636
0.09357681 -0.09418117 0.000893707 0.00714704 -0.21757858 -0.02099132 0.0030017488 -0.008106808
0.01865397 0.28410897 0.09033676 0.2812608 0.04979817 -0.49095196 0.00037682796 0.15657932
-0.0007791994 -0.03166157 -0.00097260263 0.00714343 0.0014885927 0.2838883 0.19444264 0.11730377
0.014454688 0.00024874657 0.1719977 0.13356055 0.11398 0.062309485 0.062307533 0.0011180554
-0.22534256 -0.0018404122 0.0008264672 0.17797598 0.56390035 -0.12853318 -3.9299212 -0.066825196
0.12292308 -0.00948476 -0.00097636203 -0.0009384924 -0.10074845 -0.16496871 -0.005062597 -0.010381496
-0.0073639466 -0.0010769223 -0.00055775716 0.0046790196 -0.010818801 0.0027129226 -0.2112388 -0.0016910243
0.46846592 -0.039161008 0.24392307 0.002569893 -0.009046769 0.0041915057 -0.30089855 -0.017364636
0.0021035715 0.1856725 -0.0028886842 0.30601862 0.09797307 -0.23571582 -0.002232068 0.011508748
0.09623311 0.045930147 0.0385913 0.073455095 0.17894132 -0.0034483925 0.0026102518 0.0034261467
-0.2808227 0.0040604025 0.0048536495 0.0022900673 -0.04877233 -0.002149083 -0.005124777 0.17622548
00000000: 4c16 0dbf 73b1 883a e9a5 d53a 1b2e 9a3d
00000010: 248e 1dbd bb1f c4bd 3b04 0dbe e187 28be
00000020: e268 7dbb f690 f9be d137 38bb 55a5 40bd
00000030: d20f 68bb 9ab1 a03e 4bbd 24bb 8cc7 a6bd
00000040: 32c4 f8b7 b3c5 433b a364 8ebb 86b6 833e
00000050: 75c6 533e 12f2 2dc0 dcfd 69ba 7dd6 323b
00000060: d105 c73e aab3 09be 8f76 30bf 24c3 063b
00000070: 11ab 5b3d dffc b73d 6d25 303e ef2b f63a
00000080: 44fd 6fb9 c66b 9b3a 2937 193c 071e 103e
00000090: 988b 9939 8484 b13a 2cb9 a7ba 278a 193e
000000a0: f19d b43d e7f2 a2bb 6d31 623e fe88 5cbd
000000b0: 0f53 083a 6f55 cf3b 3035 1a3b e65d cf3a
000000c0: 1257 29bc 85ee df3d 088a 13bd 1078 a73d
000000d0: 9919 95bd 0443 c0bd ef45 133d 8718 bb3a
000000e0: cab6 e23d bf45 66bb 9fa7 ad3d ef94 8f3d
000000f0: 9c41 a33a cdae 2c3e 7267 583e 119d 953e
00000100: 1bde 943b a968 03bc 9ccb e33d 23e7 093e
00000110: b653 a63d 1e14 df3e a8ad 0d3e 8443 e33a
00000120: 6678 05bd f795 0f3e d0d7 2a3e 1526 8c3a
00000130: fe53 ba3d fb89 aebf b82e 88ba d510 7c3d
00000140: e372 e73e 11ff 23be c278 083e 5ca6 3bbb
00000150: 6db2 18ba 299b 58bf 4682 50bb 6bb7 c0bc
00000160: a407 b53c 2f67 663b f53f f3be 8d33 14be
00000170: 913b 453e 8695 4c3d 4ec8 a0bb b611 03bd
00000180: 33e8 e1ba 1355 05bf cc84 57ba 0c5b c83d
00000190: 26f8 393d 674d a0ba e564 883e 0340 0f3b
000001a0: 13a5 0c3b 7db0 153d b2bb b83b f6c5 29be
000001b0: a654 9c3d 6206 ec3b 423f aabd f09b 893c
000001c0: 66e3 d33e c407 e23c 4179 f9bb 1e1d ed3a
000001d0: c4cd 103f e007 f33a bd11 003f 76bb f439
000001e0: b170 1fbb e0b5 573b d5c0 9a3c 884d ac39
000001f0: ff05 1e3b 0c99 37bb a42b 19be 284b 13c0
00000200: 2708 35be f5d9 3b3b 6dbc 493e 04f5 cac0
00000210: 6859 71be 6829 3f3e 23a7 02be dc77 2839
00000220: a03c 3f3f 9a03 bbbd 37a9 8e3d 4a01 f9b9
00000230: 020d d13d 4a86 e63c 1925 e1ba b0fe d3b9
00000240: 00a9 c33e 005c feba b102 10bf c5bf 2e3e
00000250: 8ba6 573f 509d 6bb9 13da 27bc 64d3 15bb
00000260: 4e9e 0d3e 1b82 493c 5062 a23d a4e5 ebba
00000270: 05b1 333c 1b5f 78ba 4eb3 bebe 8994 21bb
00000280: 276e 14bb 3f69 be3d b8c3 de3d 0116 b8ba
00000290: 83e2 783e 7a1c 063b 2b07 ee3a c0b4 473d
000002a0: 33a5 bf3d 0fe2 c0bd a947 6a3a b831 ea3b
000002b0: ebcc 5ebe fdf5 abbc fdb8 443b 6bd2 04bc
000002c0: 36d0 983c bb76 913e 7b02 b93d 6a01 903e
000002d0: 2af9 4b3d 0e5e fbbe fe90 c539 5456 203e
000002e0: 3043 4cba 90af 01bd 42f6 7eba 6f13 ea3b
000002f0: e21c c33a cf59 913e f91b 473e f53c f03d
00000300: 5bd3 6c3c 336a 8239 2a20 303e 19c4 083e
00000310: 596e e93d 3b38 7f3d 2f36 7f3d b78b 923a
00000320: 33c0 66be fc39 f1ba 46a7 583a 563f 363e
00000330: c65b 103f 349e 03be d483 7bc0 a6db 88bd
00000340: 19bf fb3d f865 1bbc 8cf2 7fba 2905 76ba
00000350: 3455 cebd 8fed 28be 24e4 a5bb 2617 2abc
00000360: 434d f1bb 8427 8dba 7336 12ba 7652 993b
00000370: 5741 31bc 4acb 313b fc4e 58be 5ca5 ddba
00000380: c4da ef3e 4b67 20bd f8c6 793e a66b 283b
00000390: e638 14bc e658 893b 600f 9abe 4840 8ebc
000003a0: 13dc 093b ef20 3e3e 1450 3dbb 79ae 9c3e
000003b0: 1ba6 c83d 7d5f 71be e347 12bb 308f 3c3c
000003c0: dd15 c53d 4021 3c3d e911 1e3d a06f 963d
000003d0: 653c 373e 6dfe 61bb c210 2b3b 3489 603b
000003e0: fec7 8fbe 200d 853b 5d0b 9f3b f414 163b
000003f0: 7fc5 47bd a1d7 0cbb bfed a7bb 7474 343e

model.4.bias f4 [256]
0.10649839 0.23696113 -0.0011186771 0.034977973 0.14954309 0.1068125 0.10235146 0.023538288
-0.055660497 -0.009732094 -0.0008520971 -0.009442814 0.109179765 -0.0012593215 -0.021465195 -0.026749805
0.075132355 -0.0020377112 -0.003195607 -0.09571174 0.10164532 -0.04222956 0.021281054 -0.16490647
-0.0010490048 0.18461145 -0.015363665 0.26651496 0.079454154 -0.0033484527 -0.59123284 0.06089228
0.05037833 -0.11325134 -0.0013762305 -0.0018409549 0.016360467 0.10891642 0.0074459407 0.16229013
0.13539079 0.06777901 0.042034626 0.10576072 -0.06757161 0.07508573 -0.0018136642 -0.00069972756
-0.0075802733 0.06998558 -0.10022217 0.028044982 0.13740055 -0.0017116674 -0.0005561989 -0.0031090523
-0.0217296 -0.02453375 0.011816163 -0.009202082 -0.002165224 -0.035988867 -0.02688228 0.011153138
-0.0014943273 -0.001043166 0.080650456 0.01655565 -0.031142103 -0.05126076 -0.13104834 -0.005261308
-0.076694004 -0.016551064 -0.001886223 0.024704138 -0.10759399 -0.0016029191 0.026319046 -0.0013197535
0.10863922 -0.13798216 0.07903375 -0.002730775 0.050438292 -0.102350585 -0.04906397 -0.15496907
-0.0012905897 -0.0010556218 -0.016583115 0.22144735 0.013747313 -0.010693423 -0.03103781 -0.0010278983
0.11918799 -0.026050914 0.051887102 0.21724786 0.009075923 -0.02779848 -0.009373682 -0.0014657236
-0.0022121756 0.26265162 -0.0033641006 -0.00055581273 -0.0013370222 0.067288995 -0.035739828 0.058897525
-0.0006976302 0.1189905 -0.009467104 -0.0020068886 -0.0022286538 0.06002949 0.016831417 -0.0153666735
0.154666 -0.022534668 0.10818691 -0.0920884 0.016023647 0.0903944 0.0100007765 -0.0525212
-0.022861734 -0.0018955689 0.10504669 0.011106046 -0.1215496 0.061296556 0.10121255 -0.09914109
-0.0031230662 0.08814203 -0.011828515 -0.0014618704 0.2201119 -0.004395813 -0.00650886 0.10585373
-0.0013032511 -0.0025427688 0.1980762 -0.00077412254 -0.0013542038 -0.0018376004 -0.0031876606 -0.0019074193
0.049153205 0.061033446 0.081186526 -0.008108646 -0.0061727003 0.23444337 -0.0012986634 0.14310181
0.16378185 -0.014989208 0.14932379 -0.0013399628 -0.157543 -0.071783945 0.13593115 -0.0016680583
0.10642782 -0.008885524 0.22397129 0.14411329 0.23716256 -0.14691158 -0.0006179407 -0.0010864092
-0.024381338 -0.019823838 0.22356881 -0.0011130972 -0.016294565 -0.15084146 0.05762517 0.057257388
0.014639511 -0.110330276 0.07202725 -0.01737966 -0.003895341 -0.0009742173 -0.0012526028 -0.0015555753
0.059629433 -0.047191948 0.0060075372 -0.0154480655 -0.1469238 -0.0029811522 -0.10062969 0.025912993
0.05177066 0.007785533 -0.0018184085 0.041470904 -0.0029994217 -0.10463817 -0.0023209455 -0.0034954208
0.10674448 -0.0010198113 -0.0019600245 -0.0011641897 -0.048047125 -0.026725424 0.03533656 -0.0010362989
-0.0019034197 0.13691667 -0.08334591 -0.032671493 0.16776015 0.10935932 0.0006125808 -0.15911065
-0.020778852 0.02697176 -0.014435704 -0.03321406 0.0856533 -0.0013298109 -0.05709933 -0.043644883
-0.015021027 0.0033180336 -0.0022728473 -0.0060506635 -0.005615511 0.2251503 -0.001292351 -0.020834628
0.13622501 -0.0010166151 -0.003538835 0.0399969 0.014949611 -0.0095087355 0.10835249 -0.0215752
-0.02105518 -0.059576083 -0.047524266 -0.0011309871 0.12342309 -0.08230226 0.21416324 0.0061906786
00000000: d41b da3d f0a5 723e 93a0 92ba 1045 0f3d
00000010: d321 193e 83c0 da3d a49d d13d 5ed3 c03c
00000020: 43fc 63bd 5c73 1fbc 455f 5fba 08b6 1abc
00000030: a499 df3d d10f a5ba c7d7 afbc 6822 dbbc
00000040: fede 993d 1f8b 05bb 646d 51bb 8404 c4bd
00000050: 6c2b d03d e7f8 2cbd 9b55 ae3c 3edd 28be
00000060: c37e 89ba c90a 3d3e e2b7 7bbc a674 883e
00000070: dcb8 a23d b771 5bbb 095b 17bf 2f6a 793d
00000080: 8259 4e3d 52f0 e7bd a262 b4ba 324c f1ba
00000090: 6306 863c 920f df3d 14fd f33b 622f 263e
000000a0: e2a3 0a3e b9cf 8a3d 802c 2c3d 1499 d83d
000000b0: fc62 8abd 8cc6 993d 79b8 edba ec6d 37ba
000000c0: f163 f8bb 9a54 8f3d 4841 cdbd 97be e53c
000000d0: bbb2 0c3e 075a e0ba e0cd 11ba 3ec1 4bbb
000000e0: 4602 b2bc 01fb c8bc 9498 413c 54c4 16bc
000000f0: 6ee6 0dbb 1069 13bd 3a38 dcbc a7bb 363c
00000100: 4edd c3ba d8ba 88ba 112c a53d b79f 873c
00000110: b91d ffbc cdf6 51bd 8931 06be 0d67 acbb
00000120: bf11 9dbd 1996 87bc 243b f7ba 5560 ca3c
00000130: 3d5a dcbd 0a19 d2ba 0a9b d73c 94fb acba
00000140: 3d7e de3d 324b 0dbe 72dc a13d cdf6 32bb
00000150: 6298 4e3d 2f9d d1bd 4df7 48bd 36b0 1ebe
00000160: 0129 a9ba ca5c 8aba 50d9 87bc 18c3 623e
00000170: 693c 613c 7833 2fbc 0143 febc 8bba 86ba
00000180: d518 f43d ba68 d5bc 9287 543d 3976 5e3e
00000190: 2eb3 143c a3b9 e3bc 1294 19bc 861d c0ba
000001a0: 26fa 10bb 467a 863e 3e78 5cbb f6b3 11ba
000001b0: 053f afba d0ce 893d ed63 12bd 883e 713d
000001c0: 2ce1 36ba 4bb1 f33d ea1b 1bbc 0186 03bb
000001d0: 9b0e 12bb 7ce1 753d 0ae2 893c 80c4 7bbc
000001e0: c460 1e3e a09a b8bc 1991 dd3d d898 bcbd
000001f0: 0644 833c b320 b93d 4cda 233c 7820 57bd
00000200: 8848 bbbc bd74 f8ba b822 d73d 22f6 353c
00000210: ffee f8bd 1912 7b3d 8748 cf3d 7c0a cbbd
00000220: 5bac 4cbb cf83 b43d 63cc 41bc 3b9c bfba
00000230: 0465 613e c10a 90bb 4648 d5bb d7c9 d83d
00000240: dad1 aaba 95a4 26bb 7dd4 4a3e 7cee 4aba
00000250: 8a7f b1ba a3db f0ba 12e8 50bb 5f02 faba
00000260: df54 493d 35fe 793d 1f45 a63d 20da 04bc
00000270: 5d44 cabb ec11 703e ea37 aaba 4889 123e
00000280: 6eb6 273e 4c95 75bc 56e8 183e b1a1 afba
00000290: f452 21be 7603 93bd 8931 0b3e c0a2 daba
000002a0: d4f6 d93d 9794 11bc bb58 653e 6f92 133e
000002b0: beda 723e fd6f 16be 4cfd 21ba d865 8eba
000002c0: 5fbb c7bc 9a65 a2bc 39ef 643e 58e5 91ba
000002d0: 2e7c 85bc 2f76 1abe 5f08 6c3d b986 6a3d
000002e0: 8fda 6f3c d7f4 e1bd 0683 933d ca5f 8ebc
000002f0: fa48 7fbb 9e62 7fba 602e a4ba 72e4 cbba
00000300: fe3d 743d 584c 41bd e0da c43b e219 7dbc
00000310: 3173 16be 6f5f 43bb f016 cebd 7c47 d43c
00000320: 790d 543d c91d ff3b aa57 eeba 65dd 293d
00000330: f291 44bb 894c d6bd 011b 18bb 6e13 65bb
00000340: da9c da3d 30ab 85ba c173 00bb b997 98ba
00000350: 10cd 44bd 47ef dabc 12bd 103d 6cd4 87ba
00000360: 2b7c f9ba e233 0c3e 43b1 aabd 8bd2 05bd
00000370: 51c9 2b3e c7f7 df3d 9a95 203a e7ed 22be
00000380: 6938 aabc e1f3 dc3c bb83 6cbc 770b 08bd
00000390: ff6a af3d 0d4d aeba fde0 69bd fac4 32bd
000003a0: c11a 76bc 5e73 593b 0df4 14bb a544 c6bb
000003b0: 5202 b8bb cd8d 663e 1b64 a9ba 62ad aabc
000003c0: 927e 0b3e f13f 85ba cdeb 67bb cad3 233d
000003d0: 37ef 743c 87ca 1bbc e9e7 dd3d 79be b0bc
000003e0: ea7b acbc 0d06 74bd cea8 42bd a13d 94ba
000003f0: 3fc5 fc3d 168e a8bd 9c4d 5b3e 2ddb ca3b

model.6.weight f4 [1, 256]
0.41972104 0.19825152 0.0008115081 -1.1503638 0.08184416 0.26558813 0.40718773 -0.60335463
-2.8043 0.0013617135 0.0017164947 0.007466687 0.27002344 -0.00026947403 -0.51968753 0.01739814
-0.66641724 0.0013611905 0.00021989456 -1.0750021 -0.7156363 -2.325887 -3.5292675 -0.579077
-0.002813819 0.5842072 0.0054748314 0.36998925 0.25082234 -0.7604867 -2.4707732 -2.3743181
-1.5712093 2.6942635 -5.3625787e-05 0.0005747612 -2.629576 2.3677 -0.86654776 0.60401464
0.68234473 -1.7406524 -1.003803 0.7073687 -0.766629 0.23969087 0.001064271 0.0025789798
-0.0034709533 -1.3141574 -3.7816944 -0.17993487 0.77929544 0.0021149472 0.0020178116 -0.002706995
-1.4492856 0.011384955 -3.784532 -1.746418 0.0014729503 -1.8171083 -0.6897018 -3.7297668
0.006595095 0.0004373486 -0.7562459 -11.182028 -0.012253786 -0.65653485 -2.2314837 -0.7363696
-1.7664245 0.016576774 0.00027753843 0.0036018416 -2.8423612 0.002776641 3.7901325 -0.0024619773
0.13326432 -3.3105085 -1.532878 0.0016271943 -2.4927008 -0.81465167 -1.1156216 -3.8522754
0.0016240122 0.001553632 -3.6115477 0.17342031 -3.4711113 -1.132269e-05 0.006409073 0.00025580765
0.5417271 0.0013084272 -0.36982825 0.16713625 -1.0556649 -0.7316343 0.005839529 0.000894383
0.0003293907 0.34735858 0.00080031855 0.00087187917 0.0005697388 -9.679655 -0.0020347105 -0.85291874
-0.0042382865 0.5426579 -9.829013 0.006226703 0.00016932412 -2.9645526 -7.800607 -0.9929806
-2.6614585 -0.9310918 0.26747227 -1.4473968 -1.0514039 2.4666328 -7.7278185 -2.7544236
0.016001929 0.00054267043 0.32444757 -0.5619766 -3.8932245 -1.7740076 0.34446037 -2.814886
0.0031032779 0.2765386 -0.00048264273 0.0027268145 0.17354202 0.001231731 0.0023042369 0.28805974
0.0028995248 0.0016926056 0.22647393 -0.00080574775 0.0013965963 0.00017329695 0.001795818 0.001981085
-0.20080058 -0.20542644 -1.138247 0.0011565939 0.000758496 0.19404292 1.4542196e-05 1.2191154
0.61377263 3.5172238 0.27868348 0.0041297474 -0.2522735 -0.593918 0.35072008 0.0011567303
0.26535106 -2.8455186 0.1770727 1.2166781 0.1989412 3.7226796 0.0028695033 0.0071830875
-11.852778 -0.0032643448 0.17637742 0.00016401599 -2.2429552 -0.09858919 -0.7264388 -0.8474391
-1.3071034 -2.498002 -0.426327 0.00036020024 0.0023942087 0.00064685626 0.0012081211 -0.002909145
-3.5095465 -1.6688616 -0.5946674 0.004036861 -3.729522 0.0011824636 -1.5184159 1.7750593
-1.3375027 -1.316142 0.0021505626 -2.5278068 -0.0018016447 -0.9949334 0.0021353185 0.0011441488
0.2653014 0.0009957744 -5.845143e-05 0.0002800902 4.892147 0.0027585593 -2.7419424 0.0009642161
0.0010811213 0.35810244 -5.6071944 0.012953346 0.6734111 0.13653295 -2.553453 -2.532511
0.00039432492 -0.6981908 0.010355139 0.005182786 -1.1133325 0.0011161681 -1.6726465 -1.4262204
-1.0577826 -1.837955 0.0012437922 -1.7802179 0.00163284 0.25804114 -0.0040104585 0.0033503582
0.35166925 0.00036113794 0.0045048776 -0.76081836 3.2572026 0.0020091664 0.26685145 -7.0447383
-0.008997393 0.019191442 -0.004501843 0.0029615345 -5.631579 2.3821857 0.1625048 -0.5965538
00000000: ade5 d63e 7202 4b3e 63bb 543a 1f3f 93bf
00000010: e99d a73d 2bfb 873e e97a d03e 7375 1abf
00000020: a779 33c0 867b b23a 01fc e03a 1cab f43b
00000030: 8340 8a3e 3148 8db9 3e0a 05bf 8b86 8e3c
00000040: 529a 2abf f969 b23a 7f93 6639 ab99 89bf
00000050: f133 37bf 55db 14c0 85df 61c0 643e 14bf
00000060: 0d68 38bb 9a8e 153f 3766 b33b 3b6f bd3e
00000070: c96b 803e 42af 42bf 2621 1ec0 d4f4 17c0
00000080: 631d c9bf d06e 2c40 40ec 60b8 92ab 163a
00000090: f94a 28c0 6688 1740 13d6 5dbf b4a0 1a3f
000000a0: 25ae 2e3f b3cd debf 9e7c 80bf 1d16 353f
000000b0: cc41 44bf 8671 753e 027f 8b3a 1a04 293b
000000c0: ef78 63bb 4f36 a8bf 4807 72c0 d940 38be
000000d0: e87f 473f ed9a 0a3b 433d 043b d767 31bb
000000e0: 3182 b9bf f687 3a3c c635 72c0 a08a dfbf
000000f0: 0310 c13a 0197 e8bf 4c90 30bf 80b4 6ec0
00000100: ab1b d83b ef4b e539 5599 41bf 96e9 32c1
00000110: 1bc4 48bc ab12 28bf a1d0 0ec0 b882 3cbf
00000120: 331a e2bf 04cc 873c 9482 9139 e00c 6c3b
00000130: 3fe9 35c0 4ef8 353b 8891 7240 2059 21bb
00000140: 7176 083e 5fdf 53c0 5935 c4bf 9547 d53a
00000150: 6988 1fc0 038d 50bf b0cc 8ebf ae8b 76c0
00000160: cfdc d43a 3da3 cb3a 9923 67c0 1895 313e
00000170: b026 5ec0 95f6 3db7 3303 d23b ec1d 8639
00000180: a1ae 0a3f 887f ab3a 215a bdbe c425 2b3e
00000190: 0720 87bf 634c 3bbf 8559 bf3b 0775 6a3a
000001a0: 12b2 ac39 fcd8 b13e 78cc 513a d28e 643a
000001b0: 865a 153a dedf 1ac1 c758 05bb e258 5abf
000001c0: 53e1 8abb a1eb 0a3f a343 1dc1 5f09 cc3b
000001d0: 998c 3139 3bbb 3dc0 939e f9c0 fa33 7ebf
000001e0: 5655 2ac0 085c 6ebf 20f2 883e 4c44 b9bf
000001f0: 6794 86bf 50dd 1d40 4a4a f7c0 7a48 30c0
00000200: 7a16 833c ff41 0e3a fe1d a63e b3dd 0fbf
00000210: 972a 79c0 ae12 e3bf 1c5d b03e 1827 34c0
00000220: 5d60 4b3b 7896 8d3e 360b fdb9 5bb4 323b
00000230: 00b5 313e 0972 a13a ae02 173b 917c 933e
00000240: f405 3e3b 6bda dd3a c8e8 673e d138 53ba
00000250: ff0d b73a 0cb7 3539 a761 eb3a 17d5 013b
00000260: ab9e 4dbe 4f5b 52be 14b2 91bf da98 973a
00000270: ced5 463a 30b3 463e 42fa 7337 f90b 9c3f
00000280: 3420 1d3f 321a 6140 9aaf 8e3e d552 873b
00000290: fe29 81be 030b 18bf 9591 b33e 6e9d 973a
000002a0: 18dc 873e fa1c 36c0 8c52 353e 1cbc 9b3f
000002b0: 3eb7 4b3e 6240 6e40 470e 3c3b 1b60 eb3b
000002c0: fba4 3dc1 9eee 55bb 489c 343e b5fb 2b39
000002d0: 948c 0fc0 21e9 c9bd e5f7 39bf c5f1 58bf
000002e0: 2a4f a7bf 44df 1fc0 8847 dabe 42d9 bc39
000002f0: 28e8 1c3b ca91 293a d159 9e3a 5ba7 3ebb
00000300: 699c 60c0 429d d5bf 1f3c 18bf a547 843b
00000310: 7db0 6ec0 e5fc 9a3a 745b c2bf 2535 e33f
00000320: 4a33 abbf 5777 a8bf 74f0 0c3b 96c7 21c0
00000330: 2a25 ecba f5b3 7ebf b3f0 0b3b 43f7 953a
00000340: 96d5 873e a584 823a bf29 75b8 12d9 9239
00000350: 788c 9c40 f2c8 343b fc7b 2fc0 72c3 7c3a
00000360: 69b4 8d3a 3459 b73e 236e b3c0 453a 543c
00000370: ab64 2c3f 4bcf 0b3e c66b 23c0 a914 22c0
00000380: 65bd ce39 a2bc 32bf 9aa8 293c 5cd4 a93b
00000390: ae81 8ebf 634c 923a 4819 d6bf 648e b6bf
000003a0: 6c65 87bf 1c42 ebbf be06 a33a 2ede e3bf
000003b0: 0505 d63a f81d 843e 2a6a 83bb af91 5b3b
000003c0: fe0d b43e 1d57 bd39 a79d 933b fec4 42bf
000003d0: 0276 5040 38ac 033b c1a0 883e 7f6e e1c0
000003e0: cd69 13bc 5f37 9d3c 3284 93bb 4e16 423b
000003f0: e535 b4c0 bb75 1840 a967 263e c0b7 18bf
