Models/Bloom_filter/result/model-dict-26.pt (torch, 533323 bytes, 7 tensors)

model.0.weight f4 [256, 2]
-0.025781866 -0.0013402009 -0.010346972 0.0024867863 0.01115377 0.002978642 -0.032389756 -0.027752914
-0.017021079 -0.038148295 -0.069283776 0.033313382 -0.5083826 -0.03637051 0.0027367747 -0.02597166
-0.30697316 0.4081067 -0.015942741 0.007353421 -0.030607035 0.45517072 -0.01223285 -0.006403641
-1.3022792 0.110356115 -0.008310885 0.006751763 -0.0075778277 0.018337175 -0.017574094 0.009710615
-0.08910626 0.051669683 -0.017119376 -0.005348728 -0.015905552 0.0068765134 -0.015544384 0.0069090067
-0.039679535 0.024391359 -0.0132116545 0.00043453526 -0.016845273 -0.025906736 -0.25629422 -0.66812766
-0.010278068 0.012282673 0.015292711 0.015053907 -0.024714248 -0.008357761 -0.62763685 0.11846535
-0.012782446 -0.007961299 -0.014278701 0.0030905036 -0.0349225 -0.007467474 0.03557947 -0.8071573
0.3141835 -1.4027169 0.27018023 -0.28490072 0.0013555515 -0.07482777 0.0075260755 -0.013228573
0.008903417 -0.020116858 -0.0151517885 -0.043190066 0.26137072 0.12864672 -0.013330823 -0.03164263
0.288779 -0.13033459 0.25454545 -0.12042526 -0.0087002525 -0.0021421711 0.23378617 -0.1406369
-0.00509216 -0.025963392 -0.017461825 -0.0013536442 -0.00018953744 -0.007515067 0.012799456 -0.012637387
0.021107588 0.0072010662 0.0073260255 -0.023668785 -0.004798299 -0.001765951 -0.04239886 0.035551462
-0.2004315 0.37448534 -0.05079888 -0.00036371016 -0.18011725 -0.72168833 -0.0023619886 -0.0018982551
0.2611258 0.043258023 0.0046622814 -0.0064074965 -0.0175111 -0.011985141 0.28697655 -0.11106501
-0.0010708504 0.0015515502 -0.004446041 -0.0067346506 0.008199526 0.013562432 -0.024095109 -0.03815171
-0.013391191 0.0040792893 -0.016333334 -0.0046052923 -0.00878409 -0.029877193 -0.41094595 -0.039243232
0.314064 -0.14125843 0.2628014 0.16231318 -0.014199851 -0.0270959 -0.0058371504 -0.0042105783
-0.012261103 -0.0021630896 0.0009957495 -0.04114411 -0.006684422 -0.005415976 -0.13530816 0.4101111
0.27578667 -0.25838718 0.27902308 -0.43138832 0.0076188645 -0.0016699801 -0.0024078425 -0.005458328
0.0030975519 -0.0126214735 -0.009231754 -0.009710188 0.25507206 -0.31208432 -0.37467527 -0.05537559
-0.7658395 -0.38076767 -0.006676938 -0.021516072 -0.029817048 -0.54037714 -0.012286529 -0.018643577
-0.004504589 -0.037800837 -0.018103806 -0.007428737 0.004178214 -0.010967675 0.25677934 -0.14014666
-0.0125448285 0.013211001 0.2756142 -0.21603742 0.106794335 0.121119596 -0.016788905 0.009291075
-0.014745747 -0.010008652 -0.013002409 -0.023518613 0.05744396 -0.51475894 -0.0019337311 0.010701561
0.27248928 -0.2814459 -0.03865582 0.019186797 0.21393564 -0.43695018 -0.005137468 0.018894697
-0.011031039 0.00063861586 -0.07683188 0.31019622 -0.014836548 0.0014894067 -0.011213709 0.0068302783
-0.42437288 0.35332325 -0.19187112 0.2843749 -0.0028005776 -0.008922438 0.005632574 -0.50651544
-0.020620363 0.020300657 -0.015658153 0.011158352 0.21582066 0.10432223 -0.00020366414 -0.025978874
0.21713102 -0.76287615 0.00045208324 0.0041924673 -0.003435292 -0.021804927 -0.010672394 0.015810234
-0.013662867 -0.0010467777 -0.015858194 -0.055321656 0.013210814 -0.037532493 -0.0087861605 0.0149220005
0.2589601 -0.3425631 0.005119244 -0.040224742 0.13387747 -0.41507995 -0.5554951 0.21819493
00000000: 7e34 d3bc aea9 afba 5986 29bc 5af9 223b
00000010: 4dbe 363c 5235 433b 1fab 04bd 145a e3bc
00000020: ca6f 8bbc 6341 1cbd a7e4 8dbd 9d73 083d
00000030: 5d25 02bf 3ef9 14bd 765b 333b 85c2 d4bc
00000040: 962b 9dbe 5df3 d03e 5a9a 82bc f7f4 f03b
00000050: 9bbb fabc 230c e93e 4b6c 48bc a2d5 d1bb
00000060: 16b1 a6bf 6302 e23d 612a 08bc e53d dd3b
00000070: 6d4f f8bb d837 963c 8cf7 8fbc 4519 1f3c
00000080: 587d b6bd 97a3 533d ef3d 8cbc 6244 afbb
00000090: 5c4c 82bc 6054 e13b dfad 7ebc f364 e23b
000000a0: 0287 22bd 63d0 c73c b275 58bc 56d2 e339
000000b0: 19ff 89bc 5d3a d4bc ff38 83be 6a0a 2bbf
000000c0: 5765 28bc 443d 493c 478e 7a3c aaa4 763c
000000d0: 8975 cabc feee 08bc cfac 20bf f69d f23d
000000e0: 776d 51bc 1c70 02bc 36f1 69bc 0c8a 4a3b
000000f0: e50a 0fbd b6b1 f4bb c7bb 113d dca1 4ebf
00000100: a9dc a03e 3a8c b3bf 1055 8a3e 82de 91be
00000110: c3ac b13a 4d3f 99bd 4c9d f63b a8bc 58bc
00000120: a3df 113c 1ccc a4bc 353f 78bc 11e8 30bd
00000130: 62d2 853e f7bb 033e 8669 5abc b49b 01bd
00000140: d7da 933e 6e76 05be c853 823e 85a1 f6bd
00000150: 818b 0ebc ab63 0cbb a465 6f3e 1f03 10be
00000160: 22dc a6bb 2eb1 d4bc 1a0c 8fbc c36c b1ba
00000170: 92be 46b9 f340 f6bb cfb4 513c 0b0d 4fbc
00000180: d2e9 ac3c ecf6 eb3b 280f f03b 0ae5 c1bc
00000190: 0d3b 9dbb 7c77 e7ba 6daa 2dbd 699e 113d
000001a0: ea3d 4dbe 8bbc bf3e 7d12 50bd 5ab0 beb9
000001b0: a870 38be 91c0 38bf 98cb 1abb dfce f8ba
000001c0: 48b2 853e 532f 313d 0dc6 983b faf5 d1bb
000001d0: 7073 8fbc 535d 44bc 97ee 923e 0d76 e3bd
000001e0: c75b 8cba 635d cb3a 18b0 91bb 58ae dcbb
000001f0: 4e57 063c f634 5e3c 1b63 c5bc f844 1cbd
00000200: ba66 5bbc 8fab 853b 7ccd 85bc fee7 96bb
00000210: 25eb 0fbc 04c1 f4bc 8267 d2be 83bd 20bd
00000220: ffcc a03e 0da6 10be e88d 863e 6d35 263e
00000230: 7ea6 68bc 39f8 ddbc 9145 bfbb e4f8 89bb
00000240: cbe2 48bc 9fc2 0dbb cf83 823a ba86 28bd
00000250: ff08 dbbb 8078 b1bb 398e 0abe 15fa d13e
00000260: e933 8d3e 534b 84be 1ddc 8e3e eede dcbe
00000270: aba7 f93b 3ce3 daba e5cc 1dbb c6db b2bb
00000280: 4c00 4b3b 4cca 4ebc c840 17bc 7b17 1fbc
00000290: ce98 823e 84c9 9fbe 70d5 bfbe 84d1 62bd
000002a0: 0f0e 44bf fbf3 c2be 37ca dabb 7942 b0bc
000002b0: e242 f4bc 2856 0abf 704d 49bc 6aba 98bc
000002c0: 3b9b 93bb 0dd5 1abd 6f4e 94bc c36c f3bb
000002d0: 66e9 883b c3b1 33bc 9578 833e 9b82 0fbe
000002e0: d388 4dbc f472 583c 4e1d 8d3e ea38 5dbe
000002f0: fdb6 da3d 8d0d f83d e388 89bc 9839 183c
00000300: 2598 71bc 54fb 23bc 0e08 55bc 1baa c0bc
00000310: 5c4a 6b3d 3ec7 03bf 4075 fdba 9a55 2f3c
00000320: b783 8b3e ad19 90be 9155 1ebd a12d 9d3c
00000330: f211 5b3e efb7 dfbe 3558 a8bb 0dc9 9a3c
00000340: 88bb 34bc c968 273a 085a 9dbd 0ad2 9e3e
00000350: fe14 73bc 3238 c33a b4b9 37bc 87d0 df3b
00000360: 6747 d9be c9e6 b43e dd79 44be 9699 913e
00000370: e589 37bb 6b2f 12bc 7591 b83b ffaa 01bf
00000380: 09ec a8bc 904d a63c 8745 80bc 85d1 363c
00000390: 1700 5d3e e5a6 d53d ad8e 55b9 a6d1 d4bc
000003a0: 9857 5e3e da4b 43bf 9605 ed39 f760 893b
000003b0: a322 61bb 3fa0 b2bc 44db 2ebc 7784 813c
000003c0: 38da 5fbc 0834 89ba 0be9 81bc f698 62bd
000003d0: 2c72 583c acbb 19bd d4f3 0fbc 687b 743c
000003e0: 6b96 843e 6e64 afbe 55bf a73b b3c2 24bd
000003f0: 2d17 093e 5c85 d4be ed34 0ebf 7e6e 5f3e

model.0.bias f4 [256]
0.0 -0.012598838 -0.031044496 0.0 0.0 -0.016855968 0.14967625 -0.0028804985
-0.03857557 -0.018789358 -0.10846451 0.0 0.12823026 -0.008170311 -0.0149192 -0.020430278
-0.0528576 0.0 -0.018364774 -0.0020780042 -0.0070081907 -0.00326842 0.0 0.18464467
-0.0092026545 -0.05755823 0.0 0.09903515 0.0 -0.0155191 0.0 0.1324921
-0.01533604 -0.04649054 -0.0010801587 -0.006049306 -0.007640579 0.0 -0.21312125 0.0
-0.16136432 -0.149369 0.0 -0.030104706 -0.014378719 0.0 0.0 -0.017287316
-0.028585285 -0.009274986 0.0 -0.020259725 -0.05181866 0.0 0.18655375 0.00017921822
-0.10919897 -0.003768425 0.0 -0.17237803 -0.0028246837 0.0 -0.021864386 -0.016874075
-0.0035098225 0.0 -0.00040893067 0.14051422 -0.06930146 -0.18461013 0.0 0.0
-0.011551626 -0.00080343353 0.0 -0.12867866 -0.070925 0.023361072 -0.006943938 0.0
-0.0024880434 0.0 -0.035418995 0.123022586 0.21223342 0.0 0.12906075 0.0
0.0 0.0 -0.0050053853 -0.14269449 -0.01690398 -0.09550017 -0.08084863 -0.003057236
0.0 0.0 0.111278 -0.010145261 -0.04868523 -0.010828524 0.01215032 -0.016678747
-0.0028481558 -0.08446094 -0.0014520264 -0.0020070397 0.03442851 -0.013905642 0.0004808611 0.21128769
-0.025136068 -0.018712446 -0.23844868 0.0 0.033667434 -0.0046433443 0.00033661505 -0.017611353
-0.010888793 -0.00839996 -0.010572058 -0.01129005 0.010260875 -0.0041065817 0.14195772 0.042687766
0.0 -0.2544055 0.0 0.0 0.027062923 -0.095549844 -0.026048787 0.0
-0.0064340555 -0.024749454 0.1872313 0.16255513 -0.005601873 0.0027029929 0.0 -0.0034505336
-0.0012615356 -0.017185945 -0.027080886 -0.067451276 0.0 -0.0020357738 -0.21839571 0.0
-0.0019625525 0.0 0.0 -0.2623553 -0.016243538 -0.0044269627 0.14545229 0.14027682
-0.001843053 -0.0637963 -0.07999196 -0.0028200469 -0.22129592 -0.21485119 0.0 0.1380191
-0.008484777 -0.04799806 -0.01997503 0.0 -0.0058436734 0.0 0.0 -0.14566788
-0.009874122 -0.25343353 0.0 -0.042731747 -0.020092625 0.0025866 0.0 0.0
0.22042793 -0.015639678 -0.016359653 -0.054416213 0.1410071 -0.0060536154 -0.079957284 -0.020329945
-0.047876302 0.0 -0.04550451 -0.1655992 0.0 0.0 -0.00359776 0.050337255
-0.01415002 0.050610557 0.0 0.14049046 0.0 -0.0038989508 -0.0013987367 0.0
0.0 0.0 -0.015564436 -0.017346663 -0.0044610277 0.0 0.0 0.0
-0.24969348 -0.097550504 -0.017434 -0.0046616714 -0.002686599 0.0 0.0 -0.0013235769
0.0 0.13367823 -0.042943813 -0.19522803 -0.0027444302 0.0 0.15905038 0.18394233
0.008281554 0.2908472 -0.033875007 0.023844656 0.0 -0.025703287 0.04578947 -0.17333458
-0.0068168463 -0.08487922 -0.007510585 0.0 0.015075431 0.0 0.0028301335 -0.025894677
0.007635342 0.00021313223 -0.06289525 -0.17919444 0.122807585 -0.012274808 -0.016940076 -0.024288025
00000000: 0000 0000 5b6b 4ebc 0751 febc 0000 0000
00000010: 0000 0000 8715 8abc bb44 193e bfc6 3cbb
00000020: 6b01 1ebd 24ec 99bc a422 debd 0000 0000
00000030: cb4e 033e c5dc 05bc a96f 74bc 665d a7bc
00000040: 3681 58bd 0000 0000 b971 96bc 202f 08bb
00000050: f7a4 e5bb fd32 56bb 0000 0000 7e13 3d3e
00000060: bbc6 16bc 2ec2 6bbd 0000 0000 f1d2 ca3d
00000070: 0000 0000 d343 7ebc 0000 0000 02ac 073e
00000080: 0444 7bbc dd6c 3ebd 1d94 8dba 4239 c6bb
00000090: d25d fabb 0000 0000 753c 5abe 0000 0000
000000a0: b03c 25be 30f4 18be 0000 0000 259e f6bc
000000b0: b894 6bbc 0000 0000 0000 0000 219e 8dbc
000000c0: b02b eabc 1cf6 17bc 0000 0000 b9f7 a5bc
000000d0: ce3f 54bd 0000 0000 f207 3f3e 86ec 3b39
000000e0: b6a3 dfbd aef7 76bb 0000 0000 de83 30be
000000f0: 541e 39bb 0000 0000 f11c b3bc 803b 8abc
00000100: 0d05 66bb 0000 0000 bf65 d6b9 f6e2 0f3e
00000110: eded 8dbd 700a 3dbe 0000 0000 0000 0000
00000120: 0843 3dbc 839d 52ba 0000 0000 57c4 03be
00000130: 2041 91bd b85f bf3c f989 e3bb 0000 0000
00000140: 710e 23bb 0000 0000 8213 11bd 44f3 fb3d
00000150: b853 593e 0000 0000 8028 043e 0000 0000
00000160: 0000 0000 0000 0000 3704 a4bb 811e 12be
00000170: 377a 8abc 9895 c3bd f793 a5bd e95b 48bb
00000180: 0000 0000 0000 0000 b8e5 e33d 4f38 26bc
00000190: 2a6a 47bd 1f6a 31bc 2312 473c dea1 88bc
000001a0: 20a8 3abb dbf9 acbd ec51 beba 8a88 03bb
000001b0: e904 0d3d 7dd4 63bc 161c fc39 cd5b 583e
000001c0: 28ea cdbc d84a 99bc e42b 74be 0000 0000
000001d0: dde6 093d 3227 98bb b57b b039 af45 90bc
000001e0: e866 32bc fc9f 09bc 6d36 2dbc e7f9 38bc
000001f0: 3b1d 283c 8190 86bb 5d5d 113e 5ed9 2e3d
00000200: 0000 0000 7041 82be 0000 0000 0000 0000
00000210: 10b3 dd3c a3af c3bd 4464 d5bc 0000 0000
00000220: c5d4 d2bb 5ebf cabc 90b9 3f3e da74 263e
00000230: eb8f b7bb b224 313b 0000 0000 5922 62bb
00000240: 1c5a a5ba 8ac9 8cbc bcd8 ddbc e523 8abd
00000250: 0000 0000 9e6a 05bb 20a3 5fbe 0000 0000
00000260: 2b9e 00bb 0000 0000 0000 0000 6f53 86be
00000270: 2b11 85bc 0e10 91bb 72f1 143e baa4 0f3e
00000280: 9992 f1ba a2a7 82bd d3d2 a3bd 89d0 38bb
00000290: 669b 62be f301 5cbe 0000 0000 e154 0d3e
000002a0: bc03 0bbc 9d99 44bd ada2 a3bc 0000 0000
000002b0: 497c bfbb 0000 0000 0000 0000 f629 15be
000002c0: 12c7 21bc 0ac2 81be 0000 0000 7c07 2fbd
000002d0: 4a99 a4bc f283 293b 0000 0000 0000 0000
000002e0: dcb7 613e c81e 80bc ae04 86bc 89e3 5ebd
000002f0: 2a64 103e 685d c6bb a5c0 a3bd fc8a a6bc
00000300: f119 44bd 0000 0000 f062 3abd d692 29be
00000310: 0000 0000 0000 0000 66c8 6bbb 702e 4e3d
00000320: 7cd5 67bc 044d 4f3d 0000 0000 bbdc 0f3e
00000330: 0000 0000 8a85 7fbb d155 b7ba 0000 0000
00000340: 0000 0000 0000 0000 fa01 7fbc 971a 8ebc
00000350: d02d 92bb 0000 0000 0000 0000 0000 0000
00000360: a6af 7fbe 8fc8 c7bd bfd1 8ebc efc0 98bb
00000370: a711 30bb 0000 0000 0000 0000 df7b adba
00000380: 0000 0000 f2e2 083e dae5 2fbd dbe9 47be
00000390: e6db 33bb 0000 0000 1ade 223e 615b 3c3e
000003a0: 5baf 073c ede9 943e 85c0 0abd de55 c33c
000003b0: 0000 0000 b38f d2bc bd8d 3b3d 9f7e 31be
000003c0: da5f dfbb 28d5 adbd 5a1b f6bb 0000 0000
000003d0: f1fe 763c 0000 0000 c379 393b 1321 d4bc
000003e0: e431 fa3b 3f7c 5f39 3acf 80bd bf7e 37be
000003f0: 8b82 fb3d 471c 49bc eac5 8abc aef7 c6bc

model.2.weight f4 [256, 256]
0.015031387 -0.008312996 -0.004516492 -0.017860338 -0.019766077 -0.021467153 -0.649115 -0.0048392774
0.37235966 -0.009598267 -0.06404788 -0.006083905 0.00040042796 0.00059376436 0.015035891 -0.007092178
-0.042048313 -0.030826967 -0.009270834 0.0109137595 0.0078000035 0.01098248 0.00020938808 0.05178021
0.019820724 -0.23517464 0.009292773 -0.53114945 0.0052904175 0.0027419177 -0.0014686087 0.23921134
-1.8351775 -0.4952599 0.009458324 0.0025025543 0.004119395 0.0117800245 0.41719255 -0.012475724
0.028712638 0.03724694 0.005014736 0.15671943 -0.008247063 0.00073703466 0.018043784 0.0007652653
0.009129858 0.012752384 0.00078871555 0.0037087472 0.20391856 0.00040264032 0.27203593 0.02410341
-0.45127854 0.00080120587 -0.0049937577 -0.025914095 0.006969822 0.01607624 -0.003213183 -0.011033912
0.030520597 0.0029993984 -0.026295751 -0.5943818 -0.38314846 -1.5441703 -0.0009952006 -0.01119013
-0.0067541027 0.036687043 0.0064027687 0.22849567 -1.1549319 0.23408464 -0.019414699 0.01606094
0.010515711 0.017018586 -0.2688281 -0.50677997 -2.4969695 0.01809466 0.40159994 -0.010326078
0.010063778 0.0038181755 0.031580947 0.011637214 0.03674555 -2.768354 -0.39572006 -0.0167304
-0.005004246 0.020143742 0.2643131 0.014546213 -0.4775889 -0.03915488 -0.16265681 -0.0037350438
0.0073500546 0.031871974 -0.002991761 0.0006152115 0.30067697 0.07669971 -0.0039294777 0.2124034
-0.004997489 0.03038147 -0.13611224 0.005724323 -0.38890073 0.016482528 0.00913968 0.041668374
-0.009802357 0.050243802 0.035072766 -0.0059542423 0.15056562 0.022237938 0.19379266 0.33053082
-0.0115097305 0.6906145 0.0053714933 -0.013634626 -0.39884886 -2.557494 0.059633646 0.0037976734
-0.00164486 0.052147154 0.2269485 0.0143503435 0.052645802 0.017847298 -0.002427678 -0.0014406287
-0.014402458 -0.008576739 -0.013476591 0.2435914 -0.0026562246 0.006937963 0.16164277 0.008819421
-0.006832819 0.009432225 -0.024499873 0.80339646 0.033009294 -0.012063631 -0.2529127 -0.591774
-0.00045309932 -0.3504145 0.57615125 -0.016885275 -5.8947854 -0.10068858 -0.006248254 -0.56745803
0.03339735 -0.54069793 -0.009225786 -0.0117048295 -0.0039291475 0.004919092 -0.0111101195 0.0036362612
0.003977144 0.6879235 0.0069594095 -0.048554927 0.0035275978 0.029910088 0.0101635875 0.011558626
0.25168496 0.060511287 0.034074146 -0.030080631 0.45454508 -0.008346908 -3.991182 0.01429617
0.26627424 -0.037936673 -0.023760768 -0.11491282 -0.012541505 0.01639649 -0.013041621 -0.19183345
-0.00029592248 -0.1395756 0.0057073073 0.18607841 -0.011737648 0.015131548 0.011124882 -0.018395562
-0.0070458506 -0.006798609 0.056822676 -0.055670805 0.003755071 0.011837971 -0.007170359 -0.010197719
0.9587713 -0.052579727 -0.0047899997 -0.013892932 0.021604616 -0.0025627564 -0.023523001 -0.017747497
-0.020530816 -0.59880996 -0.123647705 -0.29859683 -0.005131812 0.0042093326 0.12624583 0.3002745
0.05832131 0.14595772 0.32077917 0.06523403 -0.00075077685 0.13605472 -0.017440813 -1.4207802
-0.0033041758 0.045433894 -0.0036639506 0.0016434657 -0.20806143 -0.0033168169 -0.0013047497 0.0045017954
0.14887848 0.04104166 -0.8077386 -0.025141705 -0.500345 0.00894213 0.062448565 -0.0023908135
00000000: 3546 763c 3b33 08bc 15ff 93bb d84f 92bc
00000010: 78ec a1bc e2db afbc 672c 26bf cd92 9ebb
00000020: eda5 be3e 0d42 1dbc 892b 83bd 7f5b c7bb
00000030: 88f0 d139 daa6 1b3a 1959 763c 8065 e8bb
00000040: da3a 2cbd d688 fcbc b2e4 17bc a0cf 323c
00000050: 2c97 ff3b dcef 333c 2f8f 5b39 7c17 543d
00000060: 125f a23c 9fd1 70be b740 183c 69f9 07bf
00000070: 3d5b ad3b bfb1 333b 557e c0ba d1f3 743e
00000080: 19e7 eabf b592 fdbe 16f7 1a3c e501 243b
00000090: fdfb 863b 0101 413c 439a d53e fb66 4cbc
000000a0: c436 eb3c 3f90 183d a852 a43b 0f7b 203e
000000b0: b01e 07bc 8f35 413a 8fd0 933c 169c 483a
000000c0: 6695 153c 60ef 503c cec1 4e3a 740e 733b
000000d0: 07d0 503e 7819 d339 4b48 8b3e 8474 c53c
000000e0: fb0d e7be 0408 523a ada2 a3bb cc49 d4bc
000000f0: 1b63 e43b 52b2 833c 4494 52bb 95c7 34bc
00000100: 5506 fa3c 8e91 443b 306a d7bc 6829 18bf
00000110: 092c c4be 5fa7 c5bf 6471 82ba cf56 37bc
00000120: 8551 ddbb 2745 163d 51ce d13b c5fa 693e
00000130: cfd4 93bf e2b3 6f3e 930b 9fbc 3c92 833c
00000140: 174a 2c3c 906a 8b3c d6a3 89be 55bc 01bf
00000150: 59ce 1fc0 413b 943c 829e cd3e b62e 29bc
00000160: 8be2 243c 5b3a 7a3b 065b 013d 03aa 3e3c
00000170: 8082 163d b62c 31c0 d29b cabe 310e 89bc
00000180: a8fa a3bb 7d04 a53c 0c54 873e 3d53 6e3c
00000190: 8886 f4be de60 20bd 828f 26be a3c7 74bb
000001a0: bad8 f03b 308c 023d 6c11 44bb 2546 213a
000001b0: 55f2 993e bd14 9d3d d9c2 80bb 4780 593e
000001c0: fac1 a3bb 90e2 f83c 0261 0bbe 1a93 bb3b
000001d0: ff1d c7be 5e06 873c 99be 153c 75ac 2a3d
000001e0: 119a 20bc 72cc 4d3d 76a8 0f3d ce1b c3bb
000001f0: e02d 1a3e 562c b63c 9571 463e 563b a93e
00000200: 4f93 3cbc 1dcc 303f 5a03 b03b c463 5fbc
00000210: eb35 ccbe fbad 23c0 6942 743d 63e2 783b
00000220: 5898 d7ba 4198 553d 3065 683e b41d 6b3c
00000230: 20a3 573d 7f34 923c ae19 1fbb 7ad3 bcba
00000240: 4af8 6bbc 7385 0cbc ebcc 5cbc 0670 793e
00000250: 0e14 2ebb da57 e33b af85 253e 557f 103c
00000260: d7e5 dfbb 9e89 1a3c f5b3 c8bc 64ab 4d3f
00000270: c134 073d 89a6 45bc c67d 81be 807e 17bf
00000280: f68d edb9 8869 b3be a67e 133f fd52 8abc
00000290: 15a2 bcc0 d035 cebd 27be ccbb ee44 11bf
000002a0: a9cb 083d 2e6b 0abf c027 17bc 9dc5 3fbc
000002b0: 14c0 80bb 5630 a13b 3807 36bc 574e 6e3b
000002c0: b452 823b c11b 303f c20b e43b 88e1 46bd
000002d0: 452f 673b 0006 f53c 2d85 263c 6460 3d3c
000002e0: dadc 803e afda 773d 5591 0b3d a86b f6bc
000002f0: 22ba e83e 78c1 08bc 876f 7fc0 7c3a 6a3c
00000300: 1955 883e 7c63 1bbd f1a5 c2bc 6a57 ebbd
00000310: e27a 4dbc ef51 863c 86ac 55bc fd6f 44be
00000320: 0b26 9bb9 e8ec 0ebe 5d04 bb3b 578b 3e3e
00000330: 444f 40bc 50ea 773c 2345 363c 4ab2 96bc
00000340: e1e0 e6bb dec6 debb e5be 683d 1207 64bd
00000350: a317 763b 0df4 413c 55f5 eabb 5514 27bc
00000360: 0972 753f d75d 57bd 6ef5 9cbb 2e9f 63bc
00000370: 2afc b03c ebf3 27bb 4fb3 c0bc 3363 91bc
00000380: 3e30 a8bc 9c4b 19bf 023b fdbd afe1 98be
00000390: c228 a8bb 71ee 893b 9646 013e 94bd 993e
000003a0: 53e2 6e3d f175 153e 2b3d a43e 6b99 853d
000003b0: c8cf 44ba ee51 0b3e 09e0 8ebc 20dc b5bf
000003c0: df8a 58bb e418 3a3d e41e 70bb 8f69 d73a
000003d0: 0e0e 55be f45e 59bb 2304 abba cc83 933b
000003e0: 9a73 183e 4d1b 283d f5c7 4ebf faf5 cdbc
000003f0: 9c16 00bf 0382 123c 11ca 7f3d 32af 1cbb

model.2.bias f4 [256]
-0.0658567 -0.008641367 0.026756154 0.0050159986 -0.030121772 0.040703725 -0.008516784 0.080781884
-0.03145932 -0.031749584 -0.009031354 -0.04631863 -0.007828728 0.010623855 -0.005929074 -0.024381008
-0.002659777 -0.0090251425 -0.12376752 -0.34575388 -0.014421488 -0.03222255 -0.009911936 -0.0076939813
-0.11087237 -0.046607155 -0.020297457 -0.0187308 -0.10326196 -0.22867112 -0.10737338 0.039411545
-0.0080989795 -0.009245251 0.009194098 -0.23722066 -0.009525984 -0.018761814 -0.017388977 0.17569661
0.081929676 -0.0012624107 -0.30212292 0.09856497 -0.007466299 -0.0029571287 -0.0105232075 -0.030997042
0.062034763 0.0072650835 -0.09724317 0.109053835 -0.11753457 -0.0893081 -0.20117986 -0.014684825
-0.24010901 -0.011050771 0.13407306 -0.031913225 -0.00824035 -0.183385 -0.05093124 -0.029598072
-0.013452919 0.08348943 0.13861436 -0.2409285 0.031210138 -0.11750547 -0.27351084 -0.002341105
0.09763886 -0.15532422 0.05734944 -0.008215246 -0.15467492 0.023032876 -0.010081549 0.10011034
-0.20779867 -0.02872288 -0.12033355 -0.008077081 -0.005514658 -0.12991883 -0.008644195 -0.031859845
-0.059938446 -0.0047154115 0.06616551 -0.022239009 0.0638437 -0.024298783 -0.018980747 -0.07100276
-0.0045575774 -0.2229192 -0.007366566 -0.136831 -0.22322418 -0.0019021133 0.05779346 -0.013546442
-0.005742337 -0.03211699 0.076444186 0.10437143 -0.26013002 -0.105615005 0.09627041 -0.06844234
0.04358494 0.0069562285 -0.0026926063 -0.0062716934 -0.26925346 -0.009609054 -0.085849985 -0.012836681
-0.1452933 -0.011734682 0.023215473 -0.013385416 -0.0067678597 -0.22841673 0.08691379 -0.27750477
-0.048784032 -0.020327684 -0.123433575 -0.18440987 -0.07829126 -0.09050616 -0.12435177 -0.00193019
-0.40401033 0.08622096 -0.13447535 -0.015299629 0.07348769 -0.12437875 -0.019658597 -0.009636076
-0.09873916 -0.008300021 0.049888868 0.15094513 -0.09398041 -0.008863209 -0.0503716 -0.00849061
-0.065602496 -0.008420326 0.21009664 -0.0076388987 0.09354801 -0.021717256 -0.18826379 -0.015825657
-0.011065665 0.017647745 0.018578494 -0.019343924 -0.08035781 -0.009637197 -0.0057459334 0.09732386
-0.014829166 0.022680668 -0.009550183 -0.058237735 -0.04682134 -0.20007476 -0.0085226875 0.19404031
-0.2325145 -0.0361625 -0.030404683 -0.11405923 0.07599375 -0.12605223 -0.010095907 -0.122354016
-0.017803324 0.043219734 -0.0052553075 0.083691254 -0.0039889463 0.15088013 -0.013896897 0.14906825
-0.01560316 -0.0064789727 -0.14764708 -0.06435202 0.13235511 0.119687565 0.09024204 -0.012908587
0.060808357 -0.008447741 -0.007224885 0.09862095 -0.021628583 0.0903134 -0.21921302 0.0042716474
-0.19368914 -0.19515106 -0.016209872 -0.015475219 0.115162395 -0.20572631 -0.0068446 -0.23126402
-0.034322903 -0.0055994643 -0.012304313 0.10263913 -0.06539905 -0.006490491 -0.19919282 -0.005327561
0.038595825 -0.090641715 -0.07062939 0.0 0.08079706 -0.02114292 -0.19896168 -0.07055424
-0.009546439 0.087380745 -0.007262546 -0.27594748 -0.13420835 -0.032872353 -0.046608247 0.16055398
-0.102677606 -0.1165993 0.0930831 -0.050143752 0.05413675 -0.006521984 -0.15330124 -0.2998928
0.13281403 -0.017574525 0.12317985 -0.0058719916 0.10783686 -0.010821172 -0.00792752 0.05583987
00000000: e1df 86bd 8594 0dbc b92f db3c 3f5d a43b
00000010: efc1 f6bc f3b8 263d fb89 0bbc f970 a53d
00000020: 7ddb 00bd da0b 02bd 3ff8 13bc 9bb8 3dbd
00000030: 1144 00bc ad0f 2e3c ad48 c2bb aeba c7bc
00000040: a74f 2ebb 31de 13bc d379 fdbd a706 b1be
00000050: 1b48 6cbc cbfb 03bd ac65 22bc cb1d fcbb
00000060: 0e11 e3bd 25e7 3ebd da46 a6bc 5671 99bc
00000070: 027b d3bd c328 6abe 93e6 dbbd 006e 213d
00000080: 95b1 04bc 6579 17bc d8a2 163c f9e9 72be
00000090: df12 1cbc 60b2 99bc 5473 8ebc d0e9 333e
000000a0: bfca a73d 7977 a5ba dbaf 9abe 6edc c93d
000000b0: dba7 f4bb 63cc 41bb 8869 2cbc 82ed fdbc
000000c0: 2a18 7e3d f00f ee3b 6d27 c7bd 9e57 df3d
000000d0: f7b5 f0bd 2ae7 b6bd 1802 4ebe 9f98 70bc
000000e0: 23df 75be 4b0e 35bc 734a 093e 71b7 02bd
000000f0: 8802 07bc 47c9 3bbe 479d 50bd a877 f2bc
00000100: a269 5cbc 82fc aa3d ecf0 0d3e f6b5 76be
00000110: 67ac ff3c b5a6 f0bd 9d09 8cbe 396d 19bb
00000120: e2f6 c73d 500d 1fbe 3fe7 6a3d 3d99 06bc
00000130: 1a63 1ebe 71af bc3c 152d 25bc a606 cd3d
00000140: 2dc9 54be 3f4c ebbc 7071 f6bd bc55 04bc
00000150: 4eb4 b4bb 7109 05be 62a0 0dbc 787f 02bd
00000160: 0482 75bd bd83 9abb c881 873d 952e b6bc
00000170: 7cc0 823d 3e0e c7bc 837d 9bbc e569 91bd
00000180: bb57 95bb ee44 64be 3c63 f1bb 6d1d 0cbe
00000190: e194 64be 5550 f9ba d6b8 6c3d e5f1 5dbc
000001a0: 372a bcbb 1b8d 03bd c58e 9c3d b0c0 d53d
000001b0: c32f 85be ae4c d8bd 6c29 c53d 7f2b 8cbd
000001c0: 1f86 323d 13f1 e33b 7076 30bb c782 cdbb
000001d0: 97db 89be 4b6f 1dbc 1ed2 afbd f150 52bc
000001e0: c4c7 14be d342 40bc 602e be3c 814e 5bbc
000001f0: ecc4 ddbb 13e6 69be dbff b13d 1b15 8ebe
00000200: c4d1 47bd 3e86 a6bc beca fcbd f1d5 3cbe
00000210: 2b57 a0bd 4b5b b9bd 24ac febd 6efe fcba
00000220: 71da cebe 9d94 b03d e8b3 09be 4cab 7abc
00000230: b780 963d 49ba febd 110b a1bc a2e0 1dbc
00000240: c237 cabd d0fc 07bc 4558 4c3d 5c91 1a3e
00000250: cd78 c0bd fe36 11bc 7352 4ebd 331c 0bbc
00000260: 9a5a 86bd 68f5 09bc 9323 573e ba4f fabb
00000270: 1996 bf3d 63e8 b1bc 39c8 40be cfa4 81bc
00000280: c34c 35bc 0192 903c ed31 983c 2677 9ebc
00000290: a392 a4bd 55e5 1dbc 6248 bcbb bb51 c73d
000002a0: 08f6 72bc cfcc b93c 5f78 1cbc b18a 6ebd
000002b0: bcc7 3fbd 66e0 4cbe bea2 0bbc 81b2 463e
000002c0: 4818 6ebe 211f 14bd 3e13 f9bc e397 e9bd
000002d0: 9ca2 9b3d d613 01be 4e69 25bc be94 fabd
000002e0: 47d8 91bc 2d07 313d b734 acbb 5266 ab3d
000002f0: b5b5 82bb 5280 1a3e d0af 63bc 59a5 183e
00000300: 65a4 7fbc 904d d4bb cc30 17be feca 83bd
00000310: 1988 073e c11e f53d d2d0 b83d 8a7e 53bc
00000320: 2f12 793d 6568 0abc babe ecbb c8f9 c93d
00000330: 6d2e b1bc 3bf6 b83d 6179 60be 2df9 8b3b
00000340: 7256 46be aed5 47be 91ca 84bc c68b 7dbc
00000350: 43da eb3d eba9 52be ab48 e0bb 7ad0 6cbe
00000360: 2c96 0cbd b67b b7bb 0798 49bc 7734 d23d
00000370: f0ef 85bd 2fae d4bb 34f9 4bbe d292 aebb
00000380: a816 1e3d 5da2 b9bd 24a6 90bd 0000 0000
00000390: ee78 a53d eb33 adbc 9cbc 4bbe be7e 90bd
000003a0: ab68 1cbc adf4 b23d a7fa edbb fd48 8dbe
000003b0: ea6d 09be 29a5 06bd 4ae8 3ebd 4368 243e
000003c0: a348 d2bd 9dcb eebd 5aa2 be3d 8963 4dbd
000003d0: 7fbe 5d3d 5eb6 d5bb 00fb 1cbe 8d8b 99be
000003e0: 6700 083e 73f8 8fbc b845 fc3d d669 c0bb
000003f0: 92d9 dc3d 494b 31bc 6ee2 01bc 59b8 643d

model.4.weight f4 [256, 256]
-0.23430216 0.007434309 0.00788719 0.042986866 0.034659203 -0.17166406 0.12571941 -0.1519363
0.027781468 -0.85873264 -0.020037912 0.07991638 -0.025242053 0.68715894 -0.017919134 0.0056403186
-0.00021139819 0.021294715 -0.03097734 0.47277993 0.15390468 0.11073564 -0.0063630166 0.019452684
0.3513158 -0.006414777 -0.48173538 0.014658648 0.12287104 0.05584249 0.20414382 -0.051086888
-0.0016315264 0.008452811 0.09403216 0.17888246 0.002087701 0.009654644 -0.009121896 0.15645765
0.24650127 -0.010383695 -0.09169519 -0.028117707 0.0037071453 -0.01839365 0.016773673 0.011277939
-0.07760644 -0.105904564 0.17689863 0.020647276 -0.14990492 0.124607235 0.093197584 0.010175443
0.12081971 -0.02504737 0.16050792 0.036256332 0.008878853 0.21121664 0.25974834 0.13033925
0.03238576 0.16984703 0.032601543 0.1893498 -0.00032043812 -0.08900374 0.028257398 0.012360087
-0.008481877 0.08599405 0.1356569 0.0076222117 0.17766929 -0.847249 -0.007406553 -0.036446746
0.015541399 0.05682304 0.17858434 -0.020411205 -0.00415232 -0.25440705 -0.022680162 -0.09935702
0.007051117 0.025061615 -0.46343443 -0.02520341 0.16569573 -0.30614507 -0.034978002 -0.22334218
-0.012286315 -0.56415135 -0.005860686 0.016503533 -0.19224475 -0.008718278 0.056716476 0.015581708
0.015298397 0.14759988 -0.11282742 -0.07460478 -0.03160116 0.12337515 -0.062290497 0.0049031056
0.36323372 0.16784683 -0.031869795 0.012895796 0.14331965 0.013217656 0.120699406 0.0033275436
-0.04439927 0.023463592 -0.11442851 0.0023427338 0.017188616 -0.088176206 -0.082466885 -1.6020763
-0.055649567 0.020433212 0.19771312 -6.6356473 -0.16973387 0.1551051 -0.32872 0.0011452961
0.1335187 -0.089767985 0.1887284 -0.0033856279 0.07243739 0.028571036 -0.012244827 -0.0028824178
0.33291975 -0.0138337035 -0.2881182 0.21220914 0.8049415 -0.0016017844 -0.10889181 -0.016296957
-0.15756786 -0.0041169883 0.04992301 -0.012829632 -0.032218494 -0.006754022 -0.47184357 -0.017575353
-0.016145334 -0.003933727 0.14286797 -0.010011757 0.1752497 0.01458769 0.012945514 0.13251388
0.12979525 0.1600231 0.006982783 -0.088375874 -0.06948978 -0.13464302 0.021398135 -0.032475673
0.05990658 0.12502299 -0.014203574 0.2588383 0.033715446 -0.46776962 0.0026862253 0.19615561
-0.0055545266 0.111788966 -0.0069332584 0.08392672 0.010611511 0.52511615 0.10810428 0.07789499
-0.18857844 0.0017732155 0.11433118 0.23879991 0.07405397 0.02015101 -0.024417518 0.007970086
0.019596577 -0.013119493 0.005891501 0.07752214 0.8273403 -0.19257793 -0.9851009 -0.07023687
0.2013255 0.123017736 -0.0069600292 -0.0066901124 -0.02361933 0.21800834 0.01272436 0.03942205
-0.052494373 -0.0076769637 -0.003975938 0.01411072 -0.0771223 0.019339293 0.07768928 -0.012054562
0.32076862 0.10537469 -0.01022173 0.018319571 -0.051164325 0.029879332 0.016894428 -0.123732
0.014995618 0.27885586 -0.020592095 0.019524937 -0.030432863 -0.039679658 -0.015911194 0.047106974
0.03573591 -0.0096750045 0.060274396 0.05232998 0.18233684 -0.024582082 -0.011460354 0.024423474
-0.25789803 0.028944891 -0.03512371 0.016325025 0.0174817 -0.01532001 -0.03653225 0.33982977
00000000: e8ec 6fbe 819b f33b 4639 013c ff12 303d
00000010: cff6 0d3d b4c8 2fbe 97bc 003e 3095 1bbe
00000020: f695 e33c e7d5 5bbf 8c26 a4bc 33ab a33d
00000030: 6cc8 cebc a6e9 2f3f 26cb 92bc 6cd2 b83b
00000040: c5aa 5db9 4172 ae3c 31c4 fdbc 3610 f23e
00000050: 3099 1d3e 5ec9 e23d da80 d0bb 3c5b 9f3c
00000060: aadf b33e 0d33 d2bb 05a6 f6be d32a 703c
00000070: d0a3 fb3d 18bb 643d 140b 513e 7c40 51bd
00000080: f1d8 d5ba a97d 0a3c ef93 c03d f72c 373e
00000090: d0d1 083b 832e 1e3c 0174 15bc 6f36 203e
000000a0: d46a 7c3e 6020 2abc b0ca bbbd 1b57 e6bc
000000b0: 94f3 723b 48ae 96bc f168 893c 1bc7 383c
000000c0: 20f0 9ebd 7ee4 d8bd ea24 353e 7a24 a93c
000000d0: ad80 19be 1432 ff3d 60de be3d e7b6 263c
000000e0: 5370 f73d 2430 cdbc 305c 243e 8581 143d
000000f0: 9c78 113c 2d49 583e bcfd 843e a777 053e
00000100: eea6 043d 61ec 2d3e 3289 053d eae4 413e
00000110: 7a00 a8b9 9847 b6bd 0f7c e73c f681 4a3c
00000120: 92f7 0abc a61d b03d a4e9 0a3e bfc3 f93b
00000130: f0ee 353e 4fe5 58bf abb2 f2bb 2f49 15bd
00000140: 5aa1 7e3c 47bf 683d d0de 363e 6635 a7bc
00000150: 2f10 88bb a441 82be bfcb b9bc b17b cbbd
00000160: 0e0d e73b 044e cd3c 4747 edbe 6277 cebc
00000170: 24ac 293e 0cbf 9cbe 1845 0fbd d0b3 64be
00000180: 8a4c 49bc 396c 10bf ff0a c0bb 6b32 873c
00000190: cfdb 44be 1cd7 0ebc 894f 683d 6c4a 7f3c
000001a0: 21a6 7a3c 6c24 173e 1012 e7bd 64ca 98bd
000001b0: 3870 01bd 1cac fc3d 5224 7fbd 3baa a03b
000001c0: c5f9 b93e 0ae0 2b3e e789 02bd e448 533c
000001d0: 63c2 123e de8e 583c 4031 f73d eb12 5a3b
000001e0: 02dc 35bd b836 c03c 7f59 eabd 8d88 193b
000001f0: 24cf 8c3c ba95 b4bd 66e4 a8bd d610 cdbf
00000200: cdf0 63bd 8d63 a73c 4f75 4a3e 3957 d4c0
00000210: b7ce 2dbe dfd3 1e3e fd4d a8be c31d 963a
00000220: 20b9 083e 47d8 b7bd 0542 413e 69e1 5dbb
00000230: 0e5a 943d ce0d ea3c 879e 48bc f2e6 3cbb
00000240: 7574 aa3e c2a6 62bc 3b84 93be 5a4d 593e
00000250: a510 4e3f f7f2 d1ba ab02 dfbd 3281 85bc
00000260: 7859 21be cde7 86bb 127c 4c3d 6033 52bc
00000270: 8af7 03bd d850 ddbb 7b95 f1be 30fa 8fbc
00000280: 3843 84bc 7ee6 80bb fb4b 123e 5a08 24bc
00000290: a874 333e 3501 6f3c 6c19 543c b8b1 073e
000002a0: 0ce9 043e 18dd 233e d4cf e43b 69fe b4bd
000002b0: a850 8ebd dcdf 09be 244b af3c 3605 05bd
000002c0: 9a60 753d 0706 003e 1bb6 68bc 7486 843e
000002d0: 3519 0a3d 807f efbe 620b 303b 04dd 483e
000002e0: bf02 b6bb 9df1 e43d 6330 e3bb c6e1 ab3d
000002f0: e7db 2d3c 036e 063f c765 dd3d 6987 9f3d
00000300: b51a 41be 3d6b e83a 7726 ea3d f787 743e
00000310: 9ca9 973d bb13 a53c 3f07 c8bc f794 023c
00000320: 0089 a03c 24f3 56bc 7e0d c13b eec3 9e3d
00000330: 93cc 533f 2633 45be 932f 7cbf 59d8 8fbd
00000340: 4628 4e3e b9f0 fb3d f510 e4bb bb38 dbbb
00000350: 537d c1bc 943d 5f3e d679 503c 0479 213d
00000360: 5704 57bd 0a8f fbbb 9648 82bb a630 673c
00000370: 4cf2 9dbd 706d 9e3c 8f1b 9f3d 7f80 45bc
00000380: c93b a43e afce d73d 0b79 27bc ed12 963c
00000390: af91 51bd 80c5 f43c 2f66 8a3c 3467 fdbd
000003a0: 2eb0 753c 32c6 8e3e c1b0 a8bc c3f2 9f3c
000003b0: 574e f9bc 2387 22bd 3158 82bc 3ef3 403d
000003c0: d15f 123d e983 1ebc 49e2 763d f657 563d
000003d0: 82b6 3a3e 5d60 c9bc 35c4 3bbc bd13 c83c
000003e0: 360b 84be d61d ed3c e1dd 0fbd 0fbc 853c
000003f0: c835 8f3c c700 7bbc d7a2 15bd 2bfe ad3e

model.4.bias f4 [256]
0.07196713 0.17341611 -0.007974543 -0.020094737 0.13142557 0.09564862 0.067254044 -0.010040161
-0.039476056 0.05207848 -0.006074216 -0.006770322 0.09545746 -0.009060416 -0.01051322 -0.012896116
0.051195007 -0.014526047 -0.022780001 -0.0508424 0.010010918 -0.0701479 0.012595054 -0.062364157
-0.00747791 0.09677045 -0.03847326 0.14657356 0.06857634 0.0033464844 -0.02019052 0.0066320035
-0.004291866 -0.12232515 -0.009810484 -0.013123369 -0.04427716 0.062952 0.02159503 0.16402456
0.11260263 0.000779572 0.025718173 0.08867353 -0.07326444 0.071116626 -0.011403528 -0.004988056
-0.032606415 0.03965651 -0.11008689 -0.046624202 0.059866454 -0.010908196 -0.003964901 -0.022163076
-0.00076967996 -0.0679376 -0.035048816 -0.029818993 -0.015434941 -0.045576613 0.0016528958 -0.0049189096
-0.0106523745 -0.0074363006 0.073026 -0.017564284 -0.049624726 -0.015564087 -0.06944317 -0.03725094
-0.08664165 -0.0062299445 -0.013445993 0.14959201 0.031026665 -0.011426486 -0.035493042 -0.009408008
0.103599705 -0.08032809 0.043653533 -0.019466516 0.022503022 -0.084601104 -0.07044656 -0.12662797
-0.009200038 -0.007525076 -0.019960929 0.16591011 -0.011609477 -0.05086969 0.061260484 -0.0073274826
0.12441891 0.12278823 0.025850879 0.16156463 0.0010877006 -0.06589218 -0.035248976 -0.009153058
-0.01576959 0.15117326 -0.023981221 -0.003962166 -0.009530933 -0.0068407487 0.097743355 0.04809858
-0.0049730944 0.12639119 0.058415703 -0.014306295 -0.011765 -0.017946942 0.018550744 -0.007481438
0.043387834 -0.069723725 0.098137476 -0.043590076 0.02657683 0.05251909 0.049862023 -0.017243829
-0.03438982 -0.013512626 0.07300795 0.024820756 -0.12650523 0.074459 0.081535876 -0.06737904
-0.02226292 0.06725298 0.08916771 -0.010421042 0.16181885 -0.031336095 -0.007003047 0.09007756
-0.009290298 -0.018126177 0.11372279 -0.0055183563 -0.009653582 -0.013099418 -0.022723395 -0.013597121
-0.045525916 0.040957097 0.06285358 -0.012513224 -0.013838405 0.17605655 -0.009257527 0.1357494
0.17097354 -0.044066183 0.10799182 -0.009551982 -0.09268262 -0.05968374 0.10574368 -0.011890899
0.09486515 -0.0019338072 0.16735163 0.13538483 0.1730437 0.08931812 -0.0044050245 -0.0077445926
-0.026992032 0.08820983 0.16833614 -0.0079347575 0.01001047 -0.08814413 0.039244905 0.029178081
0.014720323 -0.11008192 0.036631875 0.08216607 -0.023669124 -0.006232601 -0.008929273 -0.011088989
0.03199727 -0.012519687 0.024083482 0.09393156 -0.19362535 -0.021251291 -0.026234644 0.015184447
0.0287355 0.021699632 -0.012962614 0.037244074 -0.021381542 -0.08583599 -0.007573632 -0.024917342
0.09533896 -0.0072698025 -0.013972204 -0.007865706 -0.09534028 0.13307789 -0.018741243 -0.00738732
-0.013568639 0.10657563 -0.09565744 0.11557147 0.11140398 0.10257348 0.021933429 -0.13653262
0.12649348 0.019110795 -0.015098229 0.12897775 0.034850683 -0.00947968 -0.025027728 -0.08570245
-0.06624779 -0.06976165 -0.016202172 0.0008709764 -0.038866878 0.11983137 -0.009212606 0.06630222
0.10729776 -0.007247087 -0.025226692 0.039543387 0.011807578 -0.044197164 0.100595795 -0.020539524
-0.018117856 0.14217822 0.124625035 -0.008062292 0.029811628 -0.06979123 0.16012523 0.049003515
00000000: 8163 933d fe93 313e a8a7 02bc b89d a4bc
00000010: 6d94 063e 6ce3 c33d 7dbc 893d 7d7f 24bc
00000020: a5b1 21bd 3f50 553d 380a c7bb 94d9 ddbb
00000030: 337f c33d 2472 14bc a43f 2cbc 3b4a 53bc
00000040: dbb1 513d a8fe 6dbc 209d babc 1f40 50bd
00000050: d504 243c b4a9 8fbd 7c5b 4e3c 8f71 7fbd
00000060: 4109 f5bb 962f c63d 2396 1dbd 6117 163e
00000070: c171 8c3d b150 5b3b 9766 a5bc 4751 d93b
00000080: c8a2 8cbb 9c85 fabd 27bc 20bc 6603 57bc
00000090: f85b 35bd faec 803d 0fe8 b03c 0ef6 273e
000000a0: 359c e63d 315c 4c3a ebae d23c 789a b53d
000000b0: ab0b 96bd 98a5 913d ddd5 3abc d972 a3bb
000000c0: 4e8e 05bd dd6e 223d 3c75 e1bd 05f9 3ebd
000000d0: 8736 753d 4ab8 32bc 00ec 81bb 578f b5bc
000000e0: 59c4 49ba de22 8bbd 598f 0fbd f646 f4bc
000000f0: d6e2 7cbc 8bae 3abd fba5 d83a ce2e a1bb
00000100: 4c87 2ebc 36ac f3bb a88e 953d f9e2 8fbc
00000110: 4c43 4bbd 8300 7fbc 3938 8ebd 7194 18bd
00000120: 2d71 b1bd 9024 ccbb 954c 5cbc a62e 193e
00000130: a22b fe3c 2836 3bbc 2761 11bd 0c24 1abc
00000140: 152c d43d 0e83 a4bd 0cce 323d 3e78 9fbc
00000150: 4258 b83c 5843 adbd 4946 90bd c3aa 01be
00000160: c2bb 16bc ea94 f6bb 1a85 a3bc 57e4 293e
00000170: ad35 3ebc bc5c 50bd 46ec 7a3d 611b f0bb
00000180: 57cf fe3d 6578 fb3d 39c5 d33c 3371 253e
00000190: 2d91 8e3a 7bf2 86bd 3b61 10bd b5f6 15bc
000001a0: 3a2f 81bc 2acd 1a3e 4474 c4bc 0fd5 81bb
000001b0: a127 1cbc 5c28 e0bb ab2d c83d 0403 453d
000001c0: 57f5 a2bb b16c 013e 4e45 6f3d f364 6abc
000001d0: fdc1 40bc 7705 93bc bbf7 973c da26 f5bb
000001e0: 71b7 313d 50cb 8ebd 4dfc c83d 828b 32bd
000001f0: a7b7 d93c 421e 573d 1f3c 4c3d ee42 8dbc
00000200: 57dc 0cbd 1064 5dbc 3185 953d e654 cb3c
00000210: 968a 01be f67d 983d 48fc a63d 06fe 89bd
00000220: ba60 b6bc eebb 893d 8f9d b63d 05bd 2abc
00000230: d7b3 253e 475a 00bd d179 e5bb 957a b83d
00000240: 5636 18bc 597d 94bc 7ee7 e83d 54d3 b4bb
00000250: 0f2a 1ebc f19e 56bc 6a26 babc 76c6 5ebc
00000260: 6279 3abd a1c2 273d 61b9 803d 4404 4dbc
00000270: 7aba 62bc 2b48 343e e2ac 17bc e401 0b3e
00000280: b013 2f3e be7e 34bd d12a dd3d eb7f 1cbc
00000290: 63d0 bdbd f076 74bd 2490 d83d 0cd2 42bc
000002a0: a948 c23d cd77 fdba 3a5e 2b3e 52a2 0a3e
000002b0: 5e32 313e 6bec b63d 0658 90bb 5ac6 fdbb
000002c0: 651e ddbc 5ba7 b43d 4f60 2c3e c900 02bc
000002d0: f402 243c e984 b4bd 44bf 203d df06 ef3c
000002e0: 822d 713c a172 e1bd 4e0b 163d af46 a83d
000002f0: c0e5 c1bc d93a ccbb 164c 12bc 97ae 35bc
00000300: 920f 033d 601f 4dbc b94a c53c 315f c03d
00000310: b945 46be 3017 aebc 09ea d6bc 30c8 783c
00000320: b666 eb3c 6dc3 b13c 2561 54bc 3e8d 183d
00000330: 5828 afbc c8ca afbd 3b2c f8bb 741f ccbc
00000340: 1341 c33d 8637 eebb aceb 64bc 2adf 00bc
00000350: c441 c3bd 9245 083e 3c87 99bc 5511 f2bb
00000360: ff4e 5ebc 5344 da3d 0ce8 c3bd bcb0 ec3d
00000370: c527 e43d 0b12 d23d bcad b33c 35cf 0bbe
00000380: 8287 013e 3e8e 9c3c 905e 77bc be12 043e
00000390: 97bf 0e3d a950 1bbc f306 cdbc c484 afbd
000003a0: ecac 87bd 32df 8ebd 6bba 84bc 3d52 643a
000003b0: e032 1fbd 266a f53d 78f0 16bc 75c9 873d
000003c0: eebe db3d f978 edbb 35a8 cebc 3ff8 213d
000003d0: 9274 413c 1608 35bd 2b05 ce3d 8142 a8bc
000003e0: e66b 94bc 2b97 113e 693b ff3d b417 04bc
000003f0: 8437 f43c b4ee 8ebd def7 233e e9b7 483d

model.6.weight f4 [1, 256]
0.33199656 0.20307657 0.0057848715 -0.778595 0.14062174 0.24275981 0.32258576 -0.3347349
-2.3159287 0.012129746 0.012236087 4.778535e-05 0.27134374 -0.0019086098 -0.33341405 -0.0030787124
-0.30773145 0.009703278 0.0015675318 -0.98292994 -0.9191566 -2.1328604 -3.5941415 -0.65610784
-0.020058438 0.16707958 0.0073976987 0.22132812 0.30347034 -0.85752404 -0.23014227 -1.0785937
-0.88433564 1.7606821 -0.00038227314 0.0040972196 -2.3353565 -0.2832218 -1.4339073 0.6343367
0.5732773 -1.3270422 -0.50575405 0.62943107 -0.90407693 0.3090743 0.0076007713 0.018384384
0.00013977289 -0.1909055 -3.5438287 -0.26197994 0.25051987 0.015098655 0.014384086 -0.019297037
-0.90416604 0.011384053 -0.09411345 -1.5577362 0.010500031 -0.5576522 -1.2759575 -2.5016327
0.047013316 0.0031176766 -0.57332563 -2.4848058 -0.019076329 -0.9507413 -1.5177441 -0.58211803
-1.4427707 -0.0068565034 0.001978475 0.15590078 -0.050553318 0.01979341 0.4903816 -0.017550236
0.2911555 -2.125047 -1.3527023 0.011599508 -0.071028836 -1.086193 -0.24229419 -1.9809724
0.011576799 0.011075187 -2.904199 0.19217992 -3.6469228 0.019507658 -0.24363504 0.0018235374
0.5347797 0.11404492 -0.72107196 0.18725447 -0.7783852 -0.5354284 -0.0135598015 0.006446338
0.0023480908 0.22555359 0.005705108 0.0062152143 0.0040613874 -2.93722 0.08435981 -0.491963
-0.030212808 0.5441414 -0.35138434 0.044387255 0.0017050604 -1.0051928 -5.2073545 -1.0748894
-0.04037715 -0.8494863 0.2598823 -0.8061591 -0.118558876 2.182985 -6.189954 -1.4985594
-0.0015038289 0.0038684774 0.3365279 -0.44840956 -3.1630085 -1.7902036 0.24440998 -1.2137514
0.022122012 0.31823117 0.069063306 0.019438082 0.17996709 0.008780385 0.016697543 0.25954798
0.02066947 0.01206585 0.13752006 -0.0057437913 0.009955717 0.0012353559 0.012801594 0.014122299
-0.25675055 -0.45931703 -0.41541916 -0.0006318602 0.0056556594 0.21203393 0.00010366453 0.9642213
0.65744954 1.5944091 0.3369716 0.02943916 -0.53839886 -0.20802964 0.36547932 0.008245861
0.24309546 -2.056443 0.1986321 0.96588826 0.20148656 0.066288374 0.020455517 0.05120505
-11.291389 0.07203179 0.19552189 0.0011691871 -1.4709675 -0.2643534 -0.081657745 -0.7374764
-0.9545426 -1.8606924 -0.37581488 0.061758824 0.01715647 0.0046646968 0.008612081 -0.020737808
-2.860224 -1.2027276 -0.56246006 0.07452404 -3.5003037 0.0084292255 -1.0953388 0.5914839
-1.7412177 -1.3816137 0.015330622 -2.2240963 -0.012843109 -0.7423645 0.015357707 0.008156155
0.2456992 0.00709847 -0.00041667276 0.002035822 4.0769186 0.12885346 -0.67405415 0.006873459
0.0077068238 0.40122914 -5.8433547 0.10576746 0.5674113 0.3044146 -1.4360948 -3.2286942
0.120197475 -0.43158242 -0.0045576296 0.1239565 -0.28495657 0.007956562 -1.0851929 -1.5096631
-0.35979 -0.61833715 0.008866393 -1.6485039 0.012019012 0.16300976 -0.02858882 0.04743336
0.37528053 0.0025743898 0.0321131 -0.9934567 0.18239541 0.01678925 0.26146674 -8.692021
0.0018526345 0.14217035 0.11928388 0.021111345 -0.09228063 1.8484049 0.17957915 -1.1155945
00000000: 74fb a93e 4ef3 4f3e 058f bd3b 0052 47bf
00000010: 25ff 0f3e 0796 783e f629 a53e 5f62 abbe
00000020: 2d38 14c0 d8bb 463c de79 483c 216d 4838
00000030: 91ed 8a3e 512a faba 3fb5 aabe 39c4 49bb
00000040: fa8e 9dbe 7ffa 1e3c a475 cd3a 4ca1 7bbf
00000050: d94d 6bbf c980 08c0 6a06 66c0 aff6 27bf
00000060: 9851 a4bc e916 2b3e 6568 f23b d7a3 623e
00000070: 7760 9b3e b286 5bbf 6aaa 6bbe 5c0f 8abf
00000080: d263 62bf 085e e13f d56b c8b9 f841 863b
00000090: 7b76 15c0 7302 91be 468a b7bf e463 223f
000000a0: 4dc2 123f 85dc a9bf 1979 01bf 6522 213f
000000b0: 9671 67bf fd3e 9e3e e40f f93b d99a 963c
000000c0: 0090 1239 bb7c 43be 17ce 62c0 3c22 86be
000000d0: 2444 803e 5960 773c 3bab 6b3c d214 9ebc
000000e0: 6d77 67bf 2e84 3a3c 8dbe c0bd e663 c7bf
000000f0: 5208 2c3c 4bc2 0ebf 9352 a3bf c01a 20c0
00000100: 0991 403d ef51 4c3b 78c5 12bf 0f07 1fc0
00000110: f645 9cbc c863 73bf 7045 c2bf b005 15bf
00000120: b6ac b8bf 85ac e0bb 4da9 013b 74a4 1f3e
00000130: ff10 4fbd ca25 a23c 4c13 fb3e 83c5 8fbc
00000140: 5512 953e c500 08c0 5925 adbf dd0b 3e3c
00000150: 9177 91bd 5f08 8bbf f81b 78be 8190 fdbf
00000160: 9dac 3d3c b374 353c 65de 39c0 d0ca 443e
00000170: 2f67 69c0 86ce 9f3c 777b 79be c303 ef3a
00000180: 53e7 083f 6290 e93d 2c98 38bf a3bf 3f3e
00000190: 4144 47bf d611 09bf ee29 5ebc cd3b d33b
000001a0: 6de2 193b 85f7 663e eaf1 ba3b ffa8 cb3b
000001b0: 6315 853b 6afb 3bc0 d6c4 ac3d 93e2 fbbe
000001c0: da80 f7bc da4c 0b3f a6e8 b3be 69cf 353d
000001d0: 557c df3a 28aa 80bf a6a2 a6c0 fa95 89bf
000001e0: 8362 25bd ef77 59bf 4b0f 853e 7160 4ebf
000001f0: ffce f2bd 07b6 0b40 1a14 c6c0 cbd0 bfbf
00000200: 201c c5ba 4886 7d3b 634d ac3e f095 e5be
00000210: bb6e 4ac0 6425 e5bf 9c46 7a3e 355c 9bbf
00000220: 3939 b53c 32ef a23e 1071 8d3d 9d3c 9f3c
00000230: 4b49 383e 9bdb 0f3c 49c9 883c 79e3 843e
00000240: 0553 a93c d8af 453c 0fd2 0c3e 6a36 bcbb
00000250: 4e1d 233c aaeb a13a c7bd 513c 3761 673c
00000260: cf74 83be 9a2b ebbe d2b1 d4be 6ca3 25ba
00000270: 1c53 b93b 6c1f 593e 7966 d938 35d7 763f
00000280: 9d4e 283f 9915 cc3f 8b87 ac3e 652a f13c
00000290: 82d4 09bf b905 55be 1b20 bb3e a619 073c
000002a0: 04ee 783e c39c 03c0 3766 4b3e 7444 773f
000002b0: 7e52 4e3e 33c2 873d 5492 a73c 63bc 513d
000002c0: 88a9 34c1 6785 933d e436 483e 693f 993a
000002d0: aa48 bcbf 5459 87be 2d3c a7bd 41cb 3cbf
000002e0: e75c 74bf 2b2b eebf cf6a c0be d2f6 7c3d
000002f0: ba8b 8c3c 50da 983b b019 0d3c 56e2 a9bc
00000300: e90d 37c0 faf2 99bf 62fd 0fbf 0fa0 983d
00000310: fa04 60c0 bc1a 0a3c 1034 8cbf 7d6b 173f
00000320: 39e0 debf b8d8 b0bf 4a2d 7b3c 9857 0ec0
00000330: e76b 52bc 9a0b 3ebf e49e 7b3c 65a1 053c
00000340: 9298 7b3e 489a e83b df74 dab9 6d6b 053b
00000350: 1e76 8240 29f2 033e d08e 2cbf c13a e13b
00000360: 8689 fc3b e86d cd3e c3fc bac0 9c9c d83d
00000370: de41 113f 3bdc 9b3e f4d1 b7bf eda2 4ec0
00000380: 182a f63d 5ff8 dcbe 2b58 95bb e8dc fd3d
00000390: d4e5 91be 3d5c 023c 9ae7 8abf a43c c1bf
000003a0: 6536 b8be 584b 1ebf 5944 113c 2d02 d3bf
000003b0: 64eb 443c 08ec 263e 1a33 eabc 7c49 423d
000003c0: c524 c03e 18b7 283b 0789 033d 2e53 7ebf
000003d0: ddc5 3a3e 9c89 893c f8de 853e 8512 0bc1
000003e0: 19d4 f23a 1b95 113e 1b4b f43d b3f1 ac3c
000003f0: a0fd bcbd 8898 ec3f 99e3 373e cdcb 8ebf
