Models/Bloom_filter/result/model-dict-5.pt (torch, 533313 bytes, 7 tensors)

model.0.weight f4 [256, 2]
-0.08672951 -0.0045084273 -0.034806766 0.008365513 0.057759233 0.02804468 -0.10895807 -0.09335968
-0.05725946 -0.12833117 -0.23306912 0.112066746 -0.29190728 -0.026216382 0.009206499 -0.08736793
-0.21417277 0.2816973 -0.05363135 0.024736771 -0.019822037 0.32314718 -0.041151106 -0.021541752
-0.6396792 0.20789751 -0.02795784 0.022712825 -0.025066867 0.06263561 -0.059119735 0.03266655
-0.06822739 0.29517683 -0.057589266 -0.01799297 -0.053506806 0.023132375 -0.052290767 0.023241865
-0.055219423 0.15776926 -0.044443443 0.0014617731 -0.056667764 -0.0871499 -0.0753787 -0.20871076
-0.0345756 0.041318696 0.111426264 0.13159955 -0.08313811 -0.028115388 -0.4623469 0.07948522
-0.042999867 -0.026781954 -0.04803348 0.010396381 -0.117478885 -0.025120527 0.009908127 -0.6244828
0.18190716 -0.7626098 0.18979104 -0.1921181 0.12994242 -0.18354642 0.025307467 -0.044500504
0.02995109 -0.067672886 -0.050970323 -0.14528973 0.13583806 0.054189444 -0.044844452 -0.106445186
0.25892708 -0.13753745 0.22533366 -0.13115421 -0.0292678 -0.007206237 0.20633285 -0.11160248
0.017526357 -0.07998041 -0.05874136 -0.0045536677 -0.0006376014 -0.025280604 0.04305721 -0.042511858
0.07100549 0.024224227 0.024644544 -0.079621546 -0.016141383 -0.005940616 -0.07860275 0.17419697
-0.1755679 0.32398233 -0.17088728 -0.0012235123 -0.10080319 -0.38600218 -0.007945665 -0.0063856863
0.19206187 0.06578091 0.015722806 -0.021554628 -0.058907017 -0.040317588 0.20112337 -0.0770733
-0.0036023266 0.0052194064 -0.014956538 -0.02265522 0.027583053 0.045623604 -0.04716884 -0.07017673
-0.045047708 0.013722663 -0.054945048 -0.015492096 -0.029549884 -0.10050657 -0.3155113 -0.028231392
0.2425677 -0.11660659 0.18943785 0.11662675 -0.047767904 -0.091149606 -0.019636052 -0.014164472
-0.041246146 -0.0072765662 0.059693526 -0.13765174 -0.022486305 -0.018219398 -0.10587287 0.3089784
0.23103689 -0.20545955 0.20947973 -0.3274789 0.025630038 -0.005617629 -0.008100018 -0.018361751
0.010462296 -0.042458486 -0.031055605 -0.032665092 0.174081 -0.19915551 -0.2919642 -0.027404234
-0.5626076 -0.23069513 -0.022461139 -0.07237974 0.007038513 -0.2846784 -0.04133168 -0.06271656
-0.015153384 -0.1271607 -0.06090119 -0.02499007 0.014055457 -0.036895044 0.22280413 -0.1274677
-0.042200282 0.04444125 0.19821946 -0.14986163 0.11582075 0.13725442 -0.05647779 0.031255078
-0.04960446 -0.033668667 -0.04373962 -0.07911629 0.08256573 -0.3372544 -0.0065050437 0.03599979
0.18470293 -0.18673176 -0.13003649 0.06454391 0.177509 -0.340469 -0.017220877 0.063710324
-0.037108336 0.0021482771 -0.06114402 0.2864561 -0.04991004 0.0050103264 -0.037722975 0.02297559
-0.2621152 0.24234194 -0.12648764 0.19820264 -0.009421065 -0.030014891 0.009269207 -0.3257942
-0.06936644 0.068290986 -0.052673593 0.03753649 0.1815735 0.08248784 -0.0006851223 -0.08739209
0.1607179 -0.5554978 0.0015208041 0.01410337 -0.011556252 -0.07335092 -0.03590139 0.053185318
-0.045961328 -0.0035213276 -0.013974189 -0.123448744 0.10616385 -0.12779836 -0.029556872 0.050197504
0.19012193 -0.24709812 0.04058723 -0.12782103 0.09101325 -0.288283 -0.4446348 0.1840332
00000000: 3e9f b1bd 6ebb 93bb 8a91 0ebd 810f 093c
00000010: f294 6c3d f5bd e53c 6925 dfbd 5c33 bfbd
00000020: e588 6abd 3f69 03be aca9 6ebe 4083 e53d
00000030: df74 95be bdc3 d6bc dbd6 163c f5ed b2bd
00000040: 1b50 5bbe a13a 903e 8cac 5bbd c5a4 ca3c
00000050: d361 a2bc 8c73 a53e 108e 28bd 5478 b0bc
00000060: 04c2 23bf 16e3 543e d707 e5bc 3f10 ba3c
00000070: 0859 cdbc 1947 803d 8927 72bd 5ccd 053d
00000080: cdba 8bbd 6b21 973e b9e2 6bbd fe65 93bc
00000090: f429 5bbd 1b80 bd3c d82e 56bd b965 be3c
000000a0: c32d 62bd 448e 213e 540a 36bd f798 bf3a
000000b0: 751c 68bd a67b b2bd 2660 9abd 46b8 55be
000000c0: 259f 0dbd cb3d 293d 7433 e43d 08c2 063e
000000d0: 5044 aabd 3e52 e6bc bcb8 ecbe 26c9 a23d
000000e0: a120 30bd d465 dbbc c1be 44bd 9555 2a3c
000000f0: c598 f0bd 90c9 cdbc b255 223c 1bde 1fbf
00000100: df45 3a3e 653a 43bf 9558 423e 9bba 44be
00000110: a00f 053e 98f3 3bbe 9b51 cf3c 2946 36bd
00000120: fd5b f53c 1598 8abd 42c6 50bd d5c6 14be
00000130: 2219 0b3e c0f5 5d3d d1ae 37bd efff d9bd
00000140: 1792 843e 9ed6 0cbe debd 663e 4a4d 06be
00000150: 06c3 efbc 4c22 ecbb eb48 533e d78f e4bd
00000160: 6f93 8f3c c5cc a3bd c89a 70bd ef36 95bb
00000170: b524 27ba 4519 cfbc c25c 303d ea20 2ebd
00000180: 546b 913d e371 c63c 5be3 c93c 9f10 a3bd
00000190: ef3a 84bc 80a9 c2bb 7bfa a0bd b160 323e
000001a0: 12c8 33be 03e1 a53e 13fd 2ebe 435e a0ba
000001b0: e771 cebd 14a2 c5be 892e 02bc 053f d1bb
000001c0: deab 443e 24b8 863d 1dcd 803c 5593 b0bc
000001d0: 7c48 71bd 0e24 25bd 49f3 4d3e 9bd8 9dbd
000001e0: 0315 6cbb 8e07 ab3b 440c 75bc 7197 b9bc
000001f0: dbf5 e13c d1df 3a3d 1d34 41bd d1b8 8fbd
00000200: f283 38bd 05d5 603c 0f0e 61bd 8fd2 7dbc
00000210: 9912 f2bc 63d6 cdbd b28a a1be 8545 e7bc
00000220: ab63 783e 70cf eebd fffb 413e 01da ee3d
00000230: 47a8 43bd a5ac babd c9db a0bc 1a12 68bc
00000240: b8f1 28bd 4370 eebb 3381 743d 94f4 0cbe
00000250: 3335 b8bc d940 95bc e0d3 d8bd 6b32 9e3e
00000260: ef94 6c3e fd63 52be db81 563e 50ab a7be
00000270: 16f6 d13c 1614 b8bb f0b5 04bc 626b 96bc
00000280: 0d6a 2b3c f3e8 2dbd 5368 febc d5cb 05bd
00000290: 4a42 323e 6cef 4bbe 557c 95be d87e e0bc
000002a0: 0d07 10bf 583b 6cbe 6c00 b8bc d43b 94bd
000002b0: 54a3 e63b 5ec1 91be 684b 29bd 8a71 80bd
000002c0: e645 78bc 6a36 02be 8773 79bd fab7 ccbc
000002d0: dc48 663c 421f 17bd c426 643e e586 02be
000002e0: 34da 2cbd 0708 363d 0bfa 4a3e 5475 19be
000002f0: 6e33 ed3d 6c8c 0c3e 4155 67bd 5305 003d
00000300: 0c2e 4bbd 28e8 09bd 5128 33bd b907 a2bd
00000310: 3918 a93d 9cac acbe 4328 d5bb 8474 133d
00000320: c422 3d3e 9c36 3fbe 4928 05be 992f 843d
00000330: ebc4 353e f451 aebe cc12 8dbc 8f7a 823d
00000340: e9fe 17bd 1cca 0c3b 2772 7abd 60aa 923e
00000350: 786e 4cbd aa2d a43b 6883 1abd 4e37 bc3c
00000360: f733 86be 7c28 783e fa85 01be a2f5 4a3e
00000370: d05a 1abc cae1 f5bc dfdd 173c 7fce a6be
00000380: fe0f 8ebd 25dc 8b3d 44c0 57bd ddbf 193d
00000390: 67ee 393e 62ef a83d c799 33ba a0fa b2bd
000003a0: 3c93 243e 1b35 0ebf b855 c73a d211 673c
000003b0: 6f56 3dbc 0239 96bd 560d 13bd d9d8 593d
000003c0: f241 3cbd 13c6 66bb fff3 64bc b2d2 fcbd
000003d0: 6f6c d93d 93dd 02be 4121 f2bc e69b 4d3d
000003e0: 53af 423e 4a07 7dbe cc3e 263d 84e3 02be
000003f0: 2865 ba3d d499 93be 2ca7 e3be 3373 3c3e

model.0.bias f4 [256]
0.0 -0.042382512 -0.084203705 0.0 0.0 -0.05670349 0.08707025 -0.00968994
-0.02777589 -0.063207164 -0.08020598 0.0 0.015496603 -0.027484793 -0.049640935 -0.0687267
-0.02535095 0.0 -0.06177908 -0.006990417 -0.010659944 -0.010994942 0.0 0.057767738
-0.030957513 -0.081395544 0.0 0.07379765 0.0 -0.052205816 0.0 0.11541176
-0.017816015 -0.037062205 0.051038288 -0.020362724 -0.025702773 0.0 -0.10922234 0.0
-0.13397807 -0.12105754 0.0 -0.031995077 -0.013641156 0.0 0.0 -0.05815416
-0.096160404 -0.031201016 0.0 -0.011684667 -0.046252538 0.0 0.108365454 0.0006028869
-0.094141655 -0.012638001 0.0 -0.12229731 -0.009502252 0.0 -0.073551916 0.00853255
-0.011806975 0.0 -0.0013756338 0.1074468 -0.0523063 -0.13546206 0.0 0.0
-0.038859155 0.050187457 0.0 -0.09791815 -0.06124644 0.01747336 -0.023358895 0.0
-0.008319771 0.0 -0.037191626 0.10026792 0.14419289 0.0 0.059017256 0.0
0.0 0.0 -0.016837908 -0.1192263 -0.05686475 -0.077409 -0.08607338 -0.010284485
0.0 0.0 0.053608038 -0.034128387 -0.03651715 -0.03642722 0.00440659 -0.055991627
-0.009581228 -0.08260844 -0.004884593 -0.006753241 0.016942075 -0.009263554 0.0016186885 0.13952507
-0.08455693 -0.06294824 -0.19884731 0.0 0.020437155 -0.015620168 0.0011323596 -0.059244618
-0.036629338 0.04627806 0.021926578 -0.037979733 0.0037298738 0.008325075 0.098978065 0.024992025
0.0 -0.1793169 0.0 0.0 0.01833131 -0.07271217 -0.08762749 0.0
-0.021644026 0.0020670744 0.0781565 0.109271556 -0.016304173 0.010649924 0.0 -0.011607555
-0.004243814 -0.057813585 -0.06215373 -0.045255702 0.0 -0.0068483856 -0.20420457 0.0
-0.006602063 0.0 0.0 -0.22987443 -0.054643337 -0.014892267 0.10568214 0.107491605
-0.006200003 -0.04779414 -0.063531555 -0.009486619 -0.172623 -0.17282102 0.0 0.10576107
-0.027443662 -0.035525225 -0.015355691 0.0 -0.019658001 0.0 0.0 -0.13165684
-0.03321629 -0.1773457 0.0 -0.10153283 -0.06759121 0.008701205 0.0 0.0
0.16680919 -0.010959783 -0.05503359 -0.049457893 0.076235875 -0.020364083 -0.063221976 -0.06838986
-0.037982225 0.0 0.03500521 -0.11974761 0.0 0.0 -0.01210281 0.03747721
-0.01298889 0.038112726 0.0 0.078684635 0.0 -0.013116019 -0.0047053345 0.0
0.0 0.0 -0.05235849 -0.02695808 -0.015006802 0.0 0.0 0.0
-0.19414182 -0.062683076 -0.058647808 -0.01568175 -0.009037733 0.0 0.0 -0.0044524805
0.0 0.10369596 -0.0828599 -0.10519072 -0.009232187 0.0 0.102694936 0.11943831
0.09426944 0.18417409 -0.025196651 0.01663833 0.0 -0.017762234 0.030769315 -0.11603724
-0.022897074 -0.083838254 -0.025265561 0.0 0.0055677798 0.0 0.009520488 -0.01593656
0.0036352463 0.0007169759 -0.04114981 -0.137794 0.10361253 -0.011373826 -0.013893737 -0.081704795
00000000: 0000 0000 4999 2dbd fe72 acbd 0000 0000
00000010: 0000 0000 eb41 68bd e351 b23d 8ec2 1ebc
00000020: 438a e3bc c272 81bd 0843 a4bd 0000 0000
00000030: 77e5 7d3c ca27 e1bc 4b54 4bbd 96c0 8cbd
00000040: ccac cfbc 0000 0000 100c 7dbd de0f e5bb
00000050: 0ca7 2ebc 2124 34bc 0000 0000 dd9d 6c3d
00000060: 9c9a fdbc b5b2 a6bd 0000 0000 3923 973d
00000070: 0000 0000 c4d5 55bd 0000 0000 005d ec3d
00000080: e4f2 91bc 8ace 17bd 860d 513d bacf a6bc
00000090: 9f8e d2bc 0000 0000 f6af dfbd 0000 0000
000000a0: 8c31 09be 04ed f7bd 0000 0000 450d 03bd
000000b0: 287f 5fbc 0000 0000 0000 0000 0e33 6ebd
000000c0: bfef c4bd 4699 ffbc 0000 0000 0c71 3fbc
000000d0: 4d73 3dbd 0000 0000 b5ee dd3d 0e0b 1e3a
000000e0: 57cd c0bd 9e0f 4fbc 0000 0000 0377 fabd
000000f0: 55af 1bbc 0000 0000 63a2 96bd 1ccc 0b3c
00000100: 0b72 41bc 0000 0000 9c4e b4ba 110d dc3d
00000110: 213f 56bd 91b6 0abe 0000 0000 0000 0000
00000120: c72a 1fbd 5d91 4d3d 0000 0000 5089 c8bd
00000130: 8cdd 7abd 4b24 8f3c 275b bfbc 0000 0000
00000140: a64f 08bc 0000 0000 3f56 18bd 4459 cd3d
00000150: 4da7 133e 0000 0000 14bc 713d 0000 0000
00000160: 0000 0000 0000 0000 a7ef 89bc eb2c f4bd
00000170: 03eb 68bd 9c88 9ebd 3e47 b0bd 4280 28bc
00000180: 0000 0000 0000 0000 1a94 5b3d 35ca 0bbd
00000190: 0293 15bd b534 15bd 2865 903b 7a57 65bd
000001a0: 95fa 1cbc 9d2e a9bd f00e a0bb 4b4a ddbb
000001b0: 1bca 8a3c 29c6 17bc 2c2a d43a a9df 0e3e
000001c0: 2f2c adbd 02eb 80bd a19e 4bbe 0000 0000
000001d0: d26b a73c bceb 7fbc af6b 943a 7caa 72bd
000001e0: a508 16bd 108e 3d3d 5e9f b33c a390 1bbd
000001f0: e670 743b e565 083c 03b5 ca3d 13bc cc3c
00000200: 0000 0000 d99e 37be 0000 0000 0000 0000
00000210: 8b2b 963c 1eea 94bd 0b76 b3bd 0000 0000
00000220: d04e b1bc c177 073b 8410 a03d c4c9 df3d
00000230: 5490 85bc 057d 2e3c 0000 0000 9d2d 3ebc
00000240: b10f 8bbb f0cd 6cbd e994 7ebd 0b5e 39bd
00000250: 0000 0000 6c68 e0bb 011b 51be 0000 0000
00000260: 1e56 d8bb 0000 0000 0000 0000 3464 6bbe
00000270: b1d1 5fbd b2fe 73bc e16f d83d 8f24 dc3d
00000280: 6529 cbbb cac3 43bd d51c 82bd c46d 1bbc
00000290: 15c4 30be fef7 30be 0000 0000 4399 d83d
000002a0: 88d1 e0bc e682 11bd 7096 7bbc 0000 0000
000002b0: d109 a1bc 0000 0000 0000 0000 0dd1 06be
000002c0: ce0d 08bd 1c9a 35be 0000 0000 72f0 cfbd
000002d0: 436d 8abd 808f 0e3c 0000 0000 0000 0000
000002e0: 07d0 2a3e a990 33bc e76a 61bd 5c94 4abd
000002f0: 8e21 9c3d 94d2 a6bc 867a 81bd fc0f 8cbd
00000300: 4093 1bbd 0000 0000 a061 0f3d 3c3e f5bd
00000310: 0000 0000 0000 0000 dd4a 46bc b481 193d
00000320: 5acf 54bc 171c 1c3d 0000 0000 6925 a13d
00000330: 0000 0000 92e4 56bc 352f 9abb 0000 0000
00000340: 0000 0000 0000 0000 db75 56bd 31d7 dcbc
00000350: 17df 75bc 0000 0000 0000 0000 0000 0000
00000360: 1dcd 46be fc5f 80bd af38 70bd 0377 80bc
00000370: 0013 14bc 0000 0000 0000 0000 1de6 91bb
00000380: 0000 0000 8c5e d43d 74b2 a9bd 3b6e d7bd
00000390: 9942 17bc 0000 0000 b951 d23d 139c f43d
000003a0: 5610 c13d 2298 3c3e 3569 cebc 1b4d 883c
000003b0: 0000 0000 1b82 91bc ee0f fc3c efa4 edbd
000003c0: a592 bbbc 64b3 abbd b9f9 cebc 0000 0000
000003d0: ec71 b63b 0000 0000 d2fb 1b3c 648d 82bc
000003e0: 503d 6e3b 70f3 3b3a b48c 28bd df19 0dbe
000003f0: ce32 d43d 4959 3abc 8fa2 63bc d854 a7bd

model.2.weight f4 [256, 256]
0.050565418 -0.02796496 0.007324841 -0.060081653 -0.06649247 -0.072215624 -0.21894862 -0.016279021
0.37827757 -0.032288417 -0.09939928 -0.020466167 0.0075636455 0.0019974166 0.0506405 -0.02385802
0.020985184 -0.103701055 -0.031187072 0.036713693 -0.030640714 0.036944732 0.0007043769 0.06959689
0.0666766 -0.16435917 0.031260777 0.4137795 0.017796818 0.009223757 -0.004940378 -0.21538684
-1.260885 -0.021305596 0.06372372 0.008418488 0.013857725 0.039627556 0.014985032 -0.041968085
0.09658895 0.12529796 0.01686942 0.08907661 -0.027743155 0.002479361 0.060699 0.0025743404
0.030712757 0.042898644 0.0026532314 -0.06772046 0.18017577 0.0013544704 0.1622305 0.08108388
-0.195474 0.002695244 -0.01679894 -0.08717468 0.02344636 0.054080673 -0.01080908 0.011046624
0.10267072 0.010089825 -0.08845871 -0.16827929 -0.3388445 -0.354708 -0.003347872 -0.03764349
-0.022720687 0.117488794 0.021538826 0.3330631 -0.60041815 0.16197713 -0.065311 0.05402906
0.03537468 0.05725108 0.059594933 -0.1484968 -0.78505874 0.06087031 0.14309098 -0.0347365
0.03385447 0.012844278 0.10623769 0.039147317 0.12361185 -1.2523053 -0.08279569 -0.056280702
-0.016834065 0.067763485 0.10498339 0.048933025 0.033035483 -0.13171484 -0.22857122 -0.012564631
0.02472544 0.053571627 -0.010064249 0.0020695655 0.21433507 0.100244835 -0.01321891 0.26360705
-0.016811492 0.10220255 -0.3571244 0.019256327 -0.41737205 0.05544748 0.030745836 0.14017147
-0.03297495 0.15061396 0.09458724 -0.020029886 0.021852544 0.07631202 0.23183133 0.021183435
-0.038718622 0.46943486 0.018069766 -0.04586667 -0.39428666 -1.119511 0.20060652 0.012775281
-0.0055333106 0.01658325 0.11955188 -0.3281305 0.1771006 0.060038183 -0.008166721 -0.0048462423
-0.048449546 -0.02885209 -0.02399016 0.24892308 -0.008935517 0.023339031 0.20371112 0.02966831
-0.022985337 0.03172997 -0.082417145 0.6034596 0.11104311 -0.04058194 -0.54693866 -0.25856507
-0.0015242171 -0.36343858 0.49079987 -0.056801837 -1.9559356 0.18305844 -0.021019088 -0.11425168
0.112348534 -0.104769826 -0.08007069 -0.03937483 -0.013217797 0.016547795 -0.037374135 0.012232271
0.0133792395 0.4617038 0.023411369 -0.23668109 0.011866733 0.100616895 0.034190245 0.038882706
0.34911606 0.16855201 0.114626035 0.0041127442 0.055774346 -0.028078979 0.043377437 0.048092026
0.15319026 -0.12761797 -0.1493858 0.13254425 -0.042189155 0.05515751 -0.04387182 -0.14898312
-0.02135244 -0.090167254 0.019199295 -0.08713962 -0.039485276 0.050902277 0.03742382 -0.06188234
-0.023702102 -0.022870414 0.1911495 -0.15531486 0.012632034 0.039822835 -0.024120895 -0.034305062
1.4056029 -0.077434674 -0.016113346 -0.046735503 0.07267728 -0.008621046 -0.07913106 -0.05970262
-0.06906564 -0.31205183 -0.3289932 0.12968075 -0.017263396 0.014160307 -0.26639506 0.10633269
0.07784366 0.13474488 0.16719498 0.10503188 -0.0025255878 0.098961085 -0.034091644 -0.32803124
-0.0111150965 0.06622006 -0.012325424 0.005528603 -0.3974361 -0.011157743 -0.004389132 0.016748086
0.019119203 0.1380637 0.073960185 -0.084574565 -0.03338413 0.05708733 0.11348375 -0.008042558
00000000: af1d 4f3d c616 e5bc 3805 f03b 2e18 76bd
00000010: 342d 88bd c9e5 93bd 1134 60be 955b 85bc
00000020: 99ad c13e dc40 04bd da91 cbbd aaa8 a7bc
00000030: 75d8 f73b 17e7 023b 6a6c 4f3d e571 c3bc
00000040: 1fe9 ab3c 3861 d4bd 087c ffbc 1961 163d
00000050: 3c02 fbbc 5c53 173d efa5 383a d088 8e3d
00000060: be8d 883d c54d 28be 4d0b 003d e8da d33e
00000070: a2ca 913c 3e1f 173c e5e2 a1bb 5e8e 5cbe
00000080: ae64 a1bf 1389 aebc 9581 823d b3ed 093c
00000090: 830b 633c 8150 223d c883 753c bae6 2bbd
000000a0: 6dd0 c53d 1c4e 003e bd31 8a3c cc6d b63d
000000b0: 9d45 e3bc c67c 223b 849f 783d 44b6 283b
000000c0: 5299 fb3c 7db6 2f3d d6e1 2d3b 06b1 8abd
000000d0: ff7f 383e 7c88 b13a c11f 263e 4e0f a63d
000000e0: 562a 48be b1a2 303b ee9d 89bc a388 b2bd
000000f0: 9512 c03c b283 5d3d 9118 31bc e6fc 343c
00000100: 0745 d23d cb4f 253c d729 b5bd 6851 2cbe
00000110: 077d adbe 499c b5be f967 5bbb 0f30 1abd
00000120: bc20 babc f79d f03d 3172 b03c 3f87 aa3e
00000130: 01b5 19bf 55dd 253e c6c1 85bd 934d 5d3d
00000140: 0ae5 103d 1c80 6a3d d119 743d 8c0f 18be
00000150: 9cf9 48bf 2553 793d 7186 123e dc47 0ebd
00000160: fcaa 0a3d ce70 523c 2593 d93d f058 203d
00000170: 3628 fd3d 8a4b a0bf c990 a9bd 9886 66bd
00000180: 98e7 89bc 95c7 8a3d 8801 d73d ff6d 483d
00000190: 3750 073d 41e0 06be 930e 6abe e2db 4dbc
000001a0: 028d ca3c ec6d 5b3d 85e4 24bc 8ca1 073b
000001b0: a77a 5b3e 2a4d cd3d 2194 58bc 81f7 863e
000001c0: 41b8 89bc 924f d13d 02d9 b6be 72bf 9d3c
000001d0: cab1 d5be e61c 633d b1de fb3c 1c89 0f3e
000001e0: be10 07bd 8c3a 1a3e f4b6 c13d b715 a4bc
000001f0: 1b04 b33c 7a49 9c3d 3165 6d3e e288 ad3c
00000200: 6b97 1ebd c459 f03e 0c07 943c b0de 3bbd
00000210: f1df c9be 234c 8fbf cc6b 4d3e 6a4f 513c
00000220: c650 b5bb 99d9 873c 9ed7 f43d b900 a8be
00000230: dc59 353e 99ea 753d b6cd 05bc 3acd 9ebb
00000240: 0873 46bd 385b ecbc 0387 c4bc b1e5 7e3e
00000250: 4666 12bc 7f31 bf3c a699 503e f50a f33c
00000260: bf4b bcbc 49f7 013d 52ca a8bd 547c 1a3f
00000270: 926a e33d 4039 26bd 2c04 0cbf a462 84be
00000280: 3dc8 c7ba 9f14 babe 1f4a fb3e 0ba9 68bd
00000290: 195c fabf ac73 3b3e 3930 acbc c9fc e9bd
000002a0: fd16 e63d 9091 d6bd 1afc a3bd 8047 21bd
000002b0: 758f 58bc 3e8f 873c 9f15 19bd dd69 483c
000002c0: 9934 5b3c 7164 ec3e 33c9 bf3c 875c 72be
000002d0: b06c 423c 3b10 ce3d 120b 0c3d 7943 1f3d
000002e0: 57bf b23e e698 2c3e 0ec1 ea3d 33c4 863b
000002f0: a473 643d e305 e6bc 8aac 313d 25fc 443d
00000300: e8dd 1c3e 49ae 02be 97f8 18be aeb9 073e
00000310: 89ce 2cbd d7ec 613d f0b2 33bd 088f 18be
00000320: 50eb aebc 9ca9 b8bd d747 9d3c 4276 b2bd
00000330: 50bb 21bd e87e 503d b849 193d 5678 7dbd
00000340: e92a c2bc bc5a bbbc b2bc 433e dc0a 1fbe
00000350: 97f6 4e3c 451d 233d 2f99 c5bc 7783 0cbd
00000360: ccea b33f 1296 9ebd 2300 84bc ba6d 3fbd
00000370: d3d7 943d 4a3f 0dbc 770f a2bd bc8a 74bd
00000380: 4972 8dbd 42c5 9fbe cc71 a8be 08cb 043e
00000390: f76b 8dbc a200 683c ef64 88be f4c4 d93d
000003a0: 7f6c 9f3d 90fa 093e 2935 2b3e f41a d73d
000003b0: 5584 25bb 1cac ca3d aea3 0bbd b6f3 a7be
000003c0: 181c 36bc 629e 873d 93f0 49bc 4929 b53b
000003d0: bf7c cbbe f7ce 36bc b5d2 8fbb 4833 893c
000003e0: e09f 9c3c 9260 0d3e 7078 973d 6e35 adbd
000003f0: ccbd 08bd 67d4 693d 2b6a e83d efc4 03bc

model.2.bias f4 [256]
-0.043210763 -0.028089248 0.100060776 0.033876598 0.045032356 0.08818491 0.06819353 -0.03413647
-0.105829805 -0.020721473 -0.030381309 -0.036565583 -0.02487993 0.034017853 -0.019945413 -0.014066813
-0.008947482 -0.014533143 -0.046790697 -0.026062796 -0.03037595 -0.043745365 -0.016420007 -0.025882486
-0.04477232 0.013508249 -0.00068275444 -0.015240416 -0.058056276 -0.16390425 -0.05848797 0.03220721
-0.027244696 -0.031101147 0.014878556 -0.046421837 -0.03204552 -0.013802999 -0.025153121 0.09391229
0.061619144 -0.0042467373 -0.098145835 0.0754571 -0.005845123 -0.009947743 -0.035399888 -0.009577966
0.019945016 0.013724968 -0.09573025 0.08976652 -0.10848125 -0.018707702 -0.08002894 -0.034527503
-0.030267997 -0.03717466 0.13721283 -0.039080463 -0.022240186 -0.0926181 0.02158481 0.0043685734
-0.012396801 0.11171707 0.12051595 -0.055586226 0.032693513 -0.056716308 -0.15690221 -0.0078754295
0.07455298 -0.05636004 0.06258206 -0.02763602 -0.07534566 -0.0078718895 -0.0042467173 0.089978576
-0.07545574 -0.04498711 -0.046776686 -0.027171198 -0.01855127 -0.18460546 -0.029078884 -0.019957917
-0.0017851172 -0.015862623 0.025199644 -0.0101303 0.094697684 -0.006702394 -0.02292045 -0.008497501
-0.015331626 -0.13296087 -0.024781037 -0.068524405 -0.12158388 -0.0063986634 0.08009675 -0.0415222
-0.019317258 -0.025271231 0.05887092 0.08346006 -0.14850171 -0.11927485 0.14108321 -0.034373987
0.06636934 0.027910851 0.020703293 -0.02109773 -0.044862684 -0.012363789 -0.06685786 -0.043182347
-0.08364602 -0.0054709734 0.029226866 -0.01462551 -0.022766951 -0.009279618 0.05709848 -0.18509716
-0.020514356 -0.036191694 0.016970119 -0.114134565 0.019594932 -0.036381736 -0.05109478 -0.0064930986
-0.2523773 0.065753125 -0.08223332 -0.024528429 0.025741134 -0.07084065 -0.028822118 -0.012587814
-0.04774694 -0.027921224 0.06653829 0.06173597 -0.045510363 -0.0298158 -0.010310842 -0.028562296
-0.028511351 -0.028326157 0.10365695 -0.025697118 0.08102137 -0.023165682 -0.06738105 -0.04311502
-0.010520897 -0.002968575 -0.018672224 -0.022732424 -0.040738292 -0.032419577 -0.019329343 0.034128614
-0.0065697026 -0.0026004303 -0.03212658 -0.019713221 -0.023595367 -0.07119177 -0.008925201 0.09696894
-0.04898864 -0.043253426 -0.009081963 -0.048096318 0.008538503 -0.13252072 -0.033962604 -0.047678534
-0.022111848 0.032971997 -0.01767878 0.080209136 -0.013418762 0.09225058 -0.025284907 0.06804751
-0.022683498 -0.021795182 0.020666812 -0.05699586 0.073715046 0.045452327 0.09047628 -0.017968576
0.015623666 -0.028418086 -0.024304362 0.075545914 -0.036489613 0.038265143 -0.13501406 0.00012238225
-0.0626239 -0.103662014 -0.022540718 -0.004896889 0.11390024 -0.13433287 -0.023025094 -0.13474531
-0.016675325 -0.018836554 -0.041391477 0.092039876 -0.15760128 -0.021833882 -0.10992304 -0.017921843
-0.009154229 -0.061707407 -0.01069249 0.0 0.07937228 0.080271296 -0.13741863 -0.0045499722
-0.01541997 0.055779237 -0.024430998 -0.14505456 -0.06707118 0.0025833165 -0.08460748 0.119832456
-0.021309549 -0.05490577 0.08715722 -0.04332835 0.08623982 -0.02193987 -0.14285447 -0.19376627
0.064172015 0.06792621 0.09369752 -0.019753296 0.03284671 -0.03640236 -0.026668036 0.09065634
00000000: c5fd 30bd 6c1b e6bc aaec cc3d 30c2 0a3d
00000010: d973 383d 4a9a b43d 0da9 8b3d afd2 0bbd
00000020: 4cbd d8bd 14c0 a9bc 39e2 f8bc cbc5 15bd
00000030: ffd0 cbbc 4e56 0b3d 9064 a3bc 7d78 66bc
00000040: 7698 12bc 6b1c 6ebc 9aa7 3fbd a581 d5bc
00000050: fcd6 f8bc 572e 33bd 4083 86bc 8207 d4bc
00000060: 2e63 37bd b451 5d3c e0fa 32ba f0b2 79bc
00000070: 6bcc 6dbd 84d6 27be 1591 6fbd b5eb 033d
00000080: 4530 dfbc d5c7 febc 30c5 733c d324 3ebd
00000090: 2a42 03bd f925 62bc eb0d cebc 1655 c03d
000000a0: 5b64 7c3d 3728 8bbb af00 c9bd 4189 9a3d
000000b0: 7288 bfbb dcfb 22bc 79ff 10bd e7ec 1cbc
000000c0: bb63 a33c b0de 603c 390e c4bd 82d7 b73d
000000d0: 6b2b debd e540 99bc 37e6 a3bd b66c 0dbd
000000e0: 97f4 f7bc 7544 18bd 8581 0c3e d612 20bd
000000f0: 0d31 b6bc 8fae bdbd a1d2 b03c 4026 8f3b
00000100: f41b 4bbc ebcb e43d 11d1 f63d 62ae 63bd
00000110: a2e9 053d 5c4f 68bd f9aa 20be f207 01bc
00000120: 3caf 983d c9d9 66bd 062b 803d ef64 e2bc
00000130: d34e 9abd 19f9 00bc 0c28 8bbb b046 b83d
00000140: 8a88 9abd 6744 38bd e998 3fbd 2296 debc
00000150: d5f8 97bc 3709 3dbe d736 eebc c97e a3bc
00000160: 98fa e9ba 55f2 81bc 7c6f ce3c 8ff9 25bc
00000170: dcf0 c13d c29f dbbb abc3 bbbc 1a39 0bbc
00000180: 8031 7bbc e526 08be 9a01 cbbc 8656 8cbd
00000190: f800 f9bd e1ab d1bb c409 a43d 2f13 2abd
000001a0: 3a3f 9ebc 9d05 cfbc a222 713d 1ced aa3d
000001b0: d510 18be 5f46 f4bd 1e78 103e bdcb 0cbd
000001c0: a6ec 873d 4ca5 e43c f499 a93c 26d5 acbc
000001d0: efc1 37bd 7d91 4abc c6ec 88bd f9df 30bd
000001e0: 9b4e abbd da45 b3bb 2e6d ef3c d69f 6fbc
000001f0: c281 babc 8a09 18bc 19e0 693d 1c8a 3dbe
00000200: b90d a8bc be3d 14bd eb04 8b3c 62bf e9bd
00000210: 8d85 a03c 0405 15bd c348 51bd 0fc4 d4bb
00000220: 9937 81be 93a9 863d f169 a8bd d8ef c8bc
00000230: 12df d23c e714 91bd 5d1c ecbc 1e3d 4ebc
00000240: 4c92 43bd 0dbb e4bc 3a45 883d dbde 7c3d
00000250: 1369 3abd 4440 f4bc ceee 28bc 7afb e9bc
00000260: a390 e9bc 420c e8bc 184a d43d c382 d2bc
00000270: 88ee a53d f5c5 bdbc 13ff 89bd 6099 30bd
00000280: d75f 2cbc 6d8c 42bb 7ef6 98bc 5939 babc
00000290: 32dd 26bd 64ca 04bd 9258 9ebc 72ca 0b3d
000002a0: a946 d7bb fb6b 2abb 2997 03bd 9f7d a1bc
000002b0: 124b c1bc fecc 91bd 023b 12bc a797 c63d
000002c0: 50a8 48bd 812a 31bd 84cc 14bc a500 45bd
000002d0: 14e5 0b3c 83b3 07be 5f1c 0bbd 914a 43bd
000002e0: e823 b5bc a50d 073d 17d3 90bc b044 a43d
000002f0: 5eda 5bbc dfed bc3d 4b22 cfbc 7e5c 8b3d
00000300: bed2 b9bc cf8b b2bc 724d a93c 7e74 69bd
00000310: eaf7 963d 382c 3a3d a14b b93d d632 93bc
00000320: 68fa 7f3c 0ccd e8bc f119 c7bc d1b7 9a3d
00000330: 2276 15bd e9bb 1c3d 2041 0abe bc53 0039
00000340: f640 80bd c04c d4bd 50a7 b8bc 1576 a0bb
00000350: 8744 e93d 8e8e 09be 1f9f bcbc adfa 09be
00000360: b19a 88bc 1e4f 9abc 1c8a 29bd 677f bc3d
00000370: 3b62 21be f8dc b2bc 551f e1bd d4d0 92bc
00000380: 9ffb 15bc e8c0 7cbd 8e2f 2fbc 0000 0000
00000390: ef8d a23d 4765 a43d 78b7 0cbe ef17 95bb
000003a0: 0ba4 7cbc c578 643d 8423 c8bc 2f89 14be
000003b0: 9d5c 89bd dc4c 293b b046 adbd b86a f53d
000003c0: 5d91 aebc dfe4 60bd 7c7f b23d 1179 31bd
000003d0: 819e b03d 3ebb b3bc 7148 12be aa6a 46be
000003e0: 9e6c 833d e61c 8b3d 7ce4 bf3d aad1 a1bc
000003f0: 468a 063d a41a 15bd ed76 dabc 08aa b93d

model.4.weight f4 [256, 256]
0.0051043336 0.02500874 0.06632523 0.17404433 0.11246036 0.15353467 0.10843586 -0.08076657
0.093456134 -0.33886173 -0.0674068 0.03289074 -0.08491396 0.331172 -0.06028007 -0.15916166
-0.0007111406 0.11495204 0.0038505748 0.17291522 0.15726656 0.076663725 -0.021405086 0.06543909
0.15639307 0.21938476 -0.8359534 0.06276743 0.0912058 0.27563065 0.17182876 -0.207574
-0.0054884404 0.028435128 0.1295902 0.10674746 0.007023011 0.07414736 -0.03068595 0.19851269
0.3150423 -0.034930754 0.05096593 -0.013979387 -0.015408289 -0.06187594 0.056426328 0.071201816
-0.08344994 -0.046979014 0.10154953 -0.082387015 -0.12878667 -0.055984784 0.16759114 0.03433807
0.15834568 -0.08425898 0.39084435 -0.0787336 0.029869465 0.08854712 0.094421946 0.15476988
0.111505374 0.103997536 0.2596971 0.20281847 -0.087196626 -0.036273368 0.053746626 0.04157904
0.1466162 0.10938895 0.0681654 0.025640966 0.19082597 -0.049469188 -0.058385935 -0.1570857
0.08123351 0.1230175 0.1869146 -0.06866287 -0.013968399 0.3572677 -0.076294936 -0.75741416
-0.08599853 0.0843067 0.09234988 -0.11884755 0.10800493 -0.7172749 -0.05732059 -0.94729525
-0.04133095 -1.1488055 -0.019715248 0.09309443 -0.735684 -0.029328214 0.072017245 0.052416746
0.05146357 0.07675973 -0.29474163 0.08821684 0.087074794 0.1511555 0.0062313257 -0.097292915
0.07582911 0.13135022 0.03224385 0.04338111 0.15557101 0.044463616 0.15496573 0.011193751
-0.08630233 0.028942669 -0.18996581 0.017203014 0.05782259 0.024958923 0.026477486 -2.1518266
-0.20207536 0.06873652 0.0702079 -3.942765 -0.055489637 0.19763641 -0.061889827 0.0038528023
0.015192936 0.046333734 0.15294085 -0.01138915 -0.025290752 -0.10614721 -0.04115655 -0.0096963765
0.32471955 -0.046536375 0.15262188 0.07347926 0.10099062 -0.005388379 0.005913021 -0.054823045
-0.8608437 -0.013849669 -0.028745383 -0.04315865 -0.10913535 -0.08124544 -0.8710018 -0.05912402
-0.08272854 0.018267002 0.014468758 -0.03367913 0.20782718 0.04907272 0.04354851 0.10755556
0.17222413 0.059943065 0.023489911 -0.38049036 0.25119445 -0.0715029 0.071984544 -0.16350774
0.09252649 0.16177826 0.007481377 0.13597919 0.08659691 0.30310887 0.00903648 0.1708874
-0.018685281 0.08078687 -0.023323251 0.30080485 0.03569697 0.6129649 0.18430853 0.21317984
-0.048955705 0.0059650796 0.044196706 0.7440584 0.041479297 0.08874459 0.0036076207 -0.0027248429
0.11020712 -0.044133514 0.019818787 -0.076554045 0.14421506 0.03890978 -0.6835164 0.076446176
0.20777717 0.41838264 -0.06319252 -0.02250543 0.13990267 -0.24442276 0.042804573 0.17818597
-0.04948105 -0.025825141 -0.013375197 0.09685632 -0.29229802 0.06505634 -0.76367724 -0.04055153
-0.07312598 0.33321035 -0.8510159 0.061627418 -0.14333555 0.05820388 -0.67901516 -0.30512053
0.050446466 0.4492625 -0.06927172 0.007803481 -0.020335885 0.10132888 -0.051457666 0.056989808
0.0006809579 0.27214256 0.22683562 0.036082417 0.19940162 -0.08269368 -0.1124347 0.082159765
-0.06963995 0.062972896 0.11797791 0.054917116 -0.035069108 -0.051535986 -0.12289416 0.28512594
00000000: 4142 a73b 21df cc3c 86d5 873d ad38 323e
00000010: 9e51 e63d 3138 1d3e 9f13 de3d f268 a5bd
00000020: ee65 bf3d 497f adbe 940c 8abd 71b8 063d
00000030: 5fe7 adbd 608f a93e 3ce8 76bd 46fb 22be
00000040: d66b 3aba fa6b eb3d ed59 7c3b b010 313e
00000050: 7c0a 213e df01 9d3d b859 afbc ee04 863d
00000060: 8125 203e 66a6 603e 0b01 56bf 368c 803d
00000070: 1bca ba3d 761f 8d3e e1f3 2f3e 478e 54be
00000080: 60d8 b3bb c9f0 e83c 4bb3 043e 6a9e da3d
00000090: 4921 e63b 92da 973d 1a61 fbbc e946 4b3e
000000a0: 394d a13e 8d13 0fbd a7c1 503d cc09 65bc
000000b0: 0c73 7cbc a071 7dbd 4b1f 673d 42d2 913d
000000c0: cde7 aabd 116d 40bd 33f9 cf3d 86ba a8bd
000000d0: a7e0 03be 4d50 65bd 039d 2b3e 13a6 0c3d
000000e0: 5f25 223e f98f acbd c01c c83e 153f a1bd
000000f0: cfb0 f43c 3158 b53d 4b60 c13d ff7b 1e3e
00000100: ee5c e43d a9fc d43d 05f7 843e a5af 4f3e
00000110: 2594 b2bd 6293 14bd 6c25 5c3d c94e 2a3d
00000120: 8f22 163e 5007 e03d 4d9a 8b3d 010d d23c
00000130: e267 433e 34a0 4abd 1726 6fbd 13db 20be
00000140: c15d a63d 99f0 fb3d 8a66 3f3e 1e9f 8cbd
00000150: b6db 64bc cbeb b63e 8540 9cbd e5e5 41bf
00000160: ff1f b0bd fea8 ac3d ef21 bd3d 5866 f3bd
00000170: b031 dd3d 549f 37bf ffc8 6abd f181 72bf
00000180: a44a 29bd 0f0c 93bf df81 a1bc 4ba8 be3d
00000190: c955 3cbf b941 f0bc c77d 933d f1b2 563d
000001a0: 77cb 523d 3534 9d3d 60e8 96be 08ab b43d
000001b0: 4554 b23d 82c8 1a3e 2630 cc3b 8241 c7bd
000001c0: 4b4c 9b3d ac80 063e 2112 043d 64b0 313d
000001d0: 024e 1f3e 7b1f 363d 56af 1e3e ff65 373c
000001e0: 47bf b0bd 2d19 ed3c 6686 42be 56ed 8c3c
000001f0: 61d7 6c3d a876 cc3c 50e7 d83c 87b7 09c0
00000200: d8ec 4ebe bcc5 8c3d 29c9 8f3d 4356 7cc0
00000210: 1a49 63bd 3361 4a3e 3080 7dbd 4c7f 7c3b
00000220: cbeb 783c 71c8 3d3d 879c 1c3e 8f99 3abc
00000230: 8d2e cfbc b563 d9bd c593 28bd 8ddd 1ebc
00000240: a441 a63e ed9c 3ebd e948 1c3e 4b7c 963d
00000250: 2cd4 ce3d 0091 b0bb 04c2 c13b 218e 60bd
00000260: 4160 5cbf b9e9 62bc 707b ebbc 20c7 30bd
00000270: 5b82 dfbd 0264 a6bd f9f9 5ebf 072c 72bd
00000280: 956d a9bd aea4 953c 5f0e 6d3c 21f3 09bd
00000290: a6d0 543e 7a00 493d ec5f 323d 1746 dc3d
000002a0: 865b 303e dc86 753d ea6d c03c a2cf c2be
000002b0: 8f9c 803e 1d70 92bd a26c 933d 936e 27be
000002c0: 877e bd3d 33a9 253e 5726 f53b 213e 0b3e
000002d0: b959 b13d 1631 9b3e bf0d 143c 1bfd 2e3e
000002e0: e011 99bc 9673 a53d 6710 bfbc 1803 9a3e
000002f0: fc36 123d 45eb 1c3f 60bb 3c3e d14b 5a3e
00000300: c785 48bd b776 c33b 9b07 353d 9c7a 3e3f
00000310: 32e6 293d b9bf b53d d56d 6c3b 4793 32bb
00000320: 45b4 e13d 58c5 34bd 025b a23c 5ec8 9cbd
00000330: 1dad 133e dd5f 1f3d eefa 2ebf d08f 9c3d
00000340: 8ac3 543e 4036 d63e 146b 81bd 4f5d b8bc
00000350: a542 0f3e f649 7abe d953 2f3d 6276 363e
00000360: a4ac 4abd 3f8f d3bc a423 5bbc 9b5c c63d
00000370: 16a8 95be 423c 853d 5a80 43bf 5c19 26bd
00000380: 13c3 95bd 8c9a aa3e 2edc 59bf 086d 7c3d
00000390: 8ec6 12be 3167 6e3d f0d3 2dbf c238 9cbe
000003a0: f4a0 4e3d bc05 e63e 55de 8dbd 58b4 ff3b
000003b0: 7197 a6bc 8485 cf3d 46c5 52bd 256e 693d
000003c0: 5082 323a 4556 8b3e 9947 683e 28cb 133d
000003d0: f02f 4c3e 4e5b a9bd 2a44 e6bd 6143 a83d
000003e0: 649f 8ebd eff7 803d 679e f13d c5f0 603d
000003f0: a0a4 0fbd 6617 53bd efaf fbbd 07fc 913e

model.4.bias f4 [256]
0.07525022 0.048195746 -0.026826305 -0.0015249208 0.018894562 0.08619507 0.06804609 -0.008283936
-0.033387214 0.03324792 -0.020433625 -0.022775095 0.07314964 -0.030479392 0.014200918 -0.014041873
0.039504874 -0.0488652 -0.029515678 -0.027746215 -0.0025149626 -0.027502047 -0.014499022 0.057814594
-0.02515552 0.029767143 0.026471002 0.014990435 0.07868587 -0.02539045 0.019750547 -0.03091457
-0.0059704673 -0.0106710205 -0.033002518 -0.013470045 -0.05721825 0.07724573 0.025819639 0.09658394
0.073286384 -0.016413575 0.020757293 0.06549095 -0.039398745 0.07997666 -0.0049642473 -0.01677976
-0.033099286 0.033358432 -0.021791201 0.0048312163 0.022615697 -0.03661273 -0.01333786 -0.037731584
-0.011292844 0.020340936 0.033143643 0.00059110386 -0.0509613 -0.028012313 -0.0056690844 0.023197481
-0.035834525 -0.025015414 0.022199681 0.06544402 -0.011767331 0.020791225 -0.026619447 -0.029652862
-0.03824756 -0.020957336 -0.045232017 0.04835502 0.043970093 -0.038438354 0.031608164 -0.031648442
0.08068935 -0.022362573 -0.01301903 -0.022728086 0.11668164 -0.02761993 -0.03642633 -0.02362059
-0.030948743 -0.025314221 -0.035822157 0.041232526 -0.016706161 0.027188856 0.030600207 -0.024649438
0.05778556 0.050420776 0.02418603 0.029588444 -0.019865062 -0.014060078 0.019807665 -0.03079091
-0.03019169 0.012505285 -0.021149766 -0.013328658 -0.032062218 0.07840223 0.043037955 0.112344086
-0.016729422 0.06329969 0.050774068 -0.032142304 -0.028674781 0.06939098 0.028351571 -0.0094276145
0.069373526 -0.0039581163 0.08389367 -0.030873744 0.040882595 6.1212406e-05 0.02445511 -0.033616226
-0.020600216 -0.021443812 0.077359736 0.015286608 -0.15171853 -0.08560239 0.043329902 -0.019421307
-0.010844849 0.07147137 0.04131626 -0.035056125 0.043083113 -0.02308857 -0.023558112 0.056783844
-0.031252474 -0.012656868 0.015279176 -0.016579058 -0.03247441 -0.013666948 -0.008838002 -0.04574051
-0.005903639 -0.012048618 0.04017492 -0.042094465 -0.03422205 0.048125375 -0.031142447 0.06232022
0.11550302 0.028891604 0.08039582 -0.03213258 0.029531853 0.040231053 0.050438628 -0.04000041
0.084255815 0.016188346 0.031182459 0.07236143 0.045922205 0.02653612 -0.014818472 -0.003930656
0.019024793 0.038907938 0.041123897 -0.026692396 -0.017867863 0.0010681608 0.06797007 -0.016229037
0.023234839 -0.0025301727 -0.019123087 0.04134092 -0.013408628 -0.018984796 -0.030037824 -0.03730311
0.017475093 0.022345604 -0.003998411 0.036567073 -0.23431306 -0.036488194 0.017992454 0.028675176
0.041735012 -0.014563154 -0.030550847 -0.037162077 -0.012917912 -0.028464785 -0.021688482 -0.016488172
0.08321261 -0.024455372 -0.047002114 -0.02646038 0.020271812 0.052236468 0.039603177 -0.024850696
-0.008482048 0.047035553 -0.029521778 0.04667945 0.061692774 0.07196186 0.008859591 -0.029029699
0.045999877 0.026673796 -0.016198901 0.047909345 0.07404683 -0.031889353 0.0024547821 -0.019386698
-0.015013331 -0.026867686 -0.01135733 0.07686439 -0.022628827 0.02070387 -0.030991012 0.027018392
0.05196434 -0.02437908 -0.011367887 0.021585668 0.03279911 0.027697388 0.08450498 -0.02921191
-0.03115808 0.055009212 0.04448266 -0.027121559 0.077578366 0.019837597 0.039807655 0.058799822
00000000: ca1c 9a3d e768 453d d7c2 dbbc dadf c7ba
00000010: c5c8 9a3c 0a87 b03d c05b 8b3d 59b9 07bc
00000020: 08c1 08bd f92e 083d 6b64 a7bc d692 babc
00000030: 7acf 953d ebaf f9bc f8aa 683c e20f 66bc
00000040: ddcf 213d e026 48bd ddca f1bc 084c e3bc
00000050: 12d2 24bb f94b e1bc 4e8d 6dbc ffce 6c3d
00000060: f312 cebc 39da f33c b7d9 d83c 719a 753c
00000070: 0f26 a13d a2ff cfbc e6cb a13c 8d40 fdbc
00000080: e9a3 c3bb 81d5 2ebc a62d 07bd 77b1 5cbc
00000090: af5d 6abd 0233 9e3d b583 d33c cdcd c53d
000000a0: 2c17 963d c375 86bc 330b aa3c 1f20 863d
000000b0: 9460 21bd ceca a33d 20ab a2bb b575 89bc
000000c0: 1e93 07bd daa2 083d 7683 b2bc 2e4f 9e3b
000000d0: 8e44 b93c 3bf7 15bd 0a87 5abc 6f8c 1abd
000000e0: 9f05 39bc 09a2 a63c a1c1 073d 4ff4 1a3a
000000f0: ccbc 50bd 147a e5bc bac3 b9bb a508 be3c
00000100: 39c7 12bd 20ed ccbc 1bdc b53c 8407 863d
00000110: c3cb 40bc 5c52 aa3c 0711 dabc 8fea f2bc
00000120: 79a9 1cbd b8ae abbc 3545 39bd ea0f 463d
00000130: fc19 343d 8971 1dbd 9077 013d cca1 01bd
00000140: 7540 a53d b731 b7bc c54d 55bc 4030 babc
00000150: c9f6 ee3d 3143 e2bc c733 15bd f87f c1bc
00000160: 3888 fdbc c55f cfbc 41ba 12bd 70e3 283d
00000170: 5cdb 88bc 2abb de3c 49ad fa3c 9eed c9bc
00000180: 8db0 6c3d 0486 4e3d c821 c63c 7763 f23c
00000190: 0ebc a2bc 3e5c 66bc af43 a23c 383d fcbc
000001a0: 9054 f7bc f8e2 4c3c 4642 adbc 7260 5abc
000001b0: ac53 03bd 5991 a03d 9148 303d a814 e63d
000001c0: 240c 89bc 45a3 813d 78f8 4f3d a6a7 03bd
000001d0: 60e7 eabc dc1c 8e3d 8e41 e83c 4876 1abc
000001e0: b513 8e3d 16b3 81bb 72d0 ab3d efea fcbc
000001f0: 8274 273d 295f 8038 1556 c83c 2bb1 09bd
00000200: c9c1 a8bc efaa afbc c86e 9e3d ae74 7a3c
00000210: 1a5c 1bbe 4e50 afbd b27a 313d 6f19 9fbc
00000220: 98ae 31bc 955f 923d 3d3b 293d 0397 0fbd
00000230: eb77 303d 3e24 bdbc f1fc c0bc 2d96 683d
00000240: 9802 00bd c15e 4fbc 8255 7a3c ced0 87bc
00000250: e303 05bd 56eb 5fbc 44cd 10bc 675a 3bbd
00000260: 5073 c1bb 9167 45bc 758e 243d 3f6b 2cbd
00000270: 6c2c 0cbd 1d1f 453d 721e ffbc 7d43 7f3d
00000280: d98c ec3d 16ae ec3c 90a6 a43d 749d 03bd
00000290: c9ec f13c 51c9 243d bc98 4e3d 78d7 23bd
000002a0: 508e ac3d 6c9d 843c 5b72 ff3c 3b32 943d
000002b0: ec18 3c3d 4762 d93c 2dc9 72bc bbcc 80bb
000002c0: e2d9 9b3c ee5d 1f3d 8871 283d 03aa dabc
000002d0: a05f 92bc 8701 8c3a e433 8b3d c2f2 84bc
000002e0: fd56 be3c 41d1 25bb 05a8 9cbc 1955 293d
000002f0: ddaf 5bbc 0186 9bbc e211 f6bc 25cb 18bd
00000300: ed27 8f3c 210e b73c 1a05 83bb 5bc7 153d
00000310: c3ef 6fbe a574 15bd e964 933c 34e8 ea3c
00000320: 55f2 2a3d 4c9a 6ebc c545 fabc 4337 18bd
00000330: a6a5 53bc fb2e e9bc 0bac b1bc 3412 87bc
00000340: 5f6b aa3d a256 c8bc 4a85 40bd 70c3 d8bc
00000350: 1211 a63c e8f5 553d f136 223d b093 cbbc
00000360: 4af8 0abc 5aa8 403d a8d7 f1bc f332 3f3d
00000370: 90b1 7c3d bd60 933d d127 113c b1cf edbc
00000380: 5e6a 3c3d 0183 da3c 8fb3 84bc 973c 443d
00000390: dda5 973d 699e 02bd 69e0 203b dad0 9ebc
000003a0: 79fa 75bc 9f19 dcbc 1814 3abc 146b 9d3d
000003b0: 1760 b9bc 2a9b a93c dde0 fdbc ad55 dd3c
000003c0: 8fd8 543d a3b6 c7bc 6040 3abc 6dd4 b03c
000003d0: 5c58 063d a2e5 e23c f210 ad3d d14d efbc
000003e0: 3b3f ffbc 5751 613d 7333 363d 082e debc
000003f0: 68e1 9e3d 7582 a23c 5a0d 233d 15d8 703d

model.6.weight f4 [1, 256]
0.29507658 0.12924336 0.01946018 -0.44526297 0.06329199 0.24285804 0.30086 -0.16573067
-1.7893562 0.09907329 0.041161988 0.00016143815 0.2656291 -0.006420527 -0.37196296 0.003104838
-0.40444514 0.03264172 -0.003798737 -0.87415314 -1.0483664 -1.7105767 -0.0132579105 -0.8071362
-0.06747599 0.076868944 0.08626869 0.122703776 0.28391397 -1.2138184 -0.19896057 -0.88915104
-0.74554294 -0.13642438 -0.0012859608 0.014822099 -2.1401706 -0.6558466 -0.9524128 0.354615
0.28462952 -1.1613389 -0.16995835 0.31357872 -1.1439003 0.30816987 0.031596735 0.061844867
-0.019719072 -0.25106877 -0.034911137 -0.29875064 0.07067493 0.05079167 0.0483879 -0.00025016646
-0.17254627 -0.20824248 -0.30831036 -0.11724628 0.03535244 -0.34769785 -1.055617 -0.14201863
0.15815212 0.01048779 -0.11242002 -0.35671416 -0.48263764 -0.16738565 -1.1180686 -0.88947225
-0.63653916 -0.02306525 0.0066555515 0.24674228 -0.5016392 0.066584244 0.103627846 -0.05903902
0.32117164 -1.0037451 -0.90079975 0.048879083 -0.6069847 -1.288372 -0.5222088 -0.33835226
0.03894425 0.03725672 -0.49378145 0.11340007 -0.8005798 0.10563782 -0.3598326 0.006134346
0.329913 0.16565685 -0.124482855 0.10937146 -0.35126483 -0.10195556 -0.47927922 0.0216853
0.008692988 0.083828084 0.021964952 0.020907812 0.013662532 -0.34176236 0.15318836 -0.4002412
-0.1016352 0.3401997 -0.66254234 0.14939171 0.007851765 -0.31986663 -0.16403815 -0.69155777
-0.49876013 -0.11494234 0.2645391 -1.1263299 -0.33562678 0.035911094 -0.16442834 -0.8379558
-0.13230321 0.014770768 0.33253768 -0.4597303 -2.3747466 -2.2861848 0.2527538 -0.20488861
-0.0053203874 0.30450955 0.13172816 0.06539014 0.10561244 -0.046058264 0.05617045 0.31620628
0.06953104 0.058005974 0.064427495 0.00097055413 0.033490892 -0.0047154645 -0.02193198 0.04750704
-0.22317098 -0.25925186 -0.24501616 -0.0021255552 0.019617893 0.12836155 0.0003487267 0.5474747
0.38663045 0.09608156 0.43038642 0.099032864 -0.89297915 -0.26088372 0.2647109 0.027739137
0.23355691 -2.2601476 0.11830123 0.5870141 0.14083341 0.08642227 0.06881114 0.17226042
-0.05702401 0.13136156 0.11903464 0.003933118 -1.5026969 -0.14586072 -0.4199357 -0.20569049
-0.32584184 -0.1939753 -0.094569646 0.12026011 0.05902672 0.01584543 0.028971145 -0.06976211
-1.8963144 -1.7716032 -0.30468625 0.14226526 -2.2617958 0.02942758 -0.04048394 0.08768232
-1.205273 -1.3502418 0.051701795 -0.95880204 0.022062868 -0.30655444 0.051732115 0.026774324
0.22850432 0.023879083 -0.0014016753 0.006848544 -0.30239952 0.18365191 -0.26884523 0.023122145
0.02971053 0.38463148 -0.018012285 0.16730163 0.29886967 0.3554591 -0.31400424 -2.3221674
0.18200707 -0.28530043 -0.026547357 0.18080813 -0.3297222 0.026766093 -0.73395675 -0.4296352
-0.2998025 -0.7419199 -0.014569825 -1.2998798 -0.18377829 0.1095195 -0.09617223 0.086765334
0.31334192 0.008660232 0.11503528 -0.39439026 0.0909499 0.10864591 0.31381404 -6.199627
0.007870614 0.20927872 0.16743371 0.07101813 -0.5339422 0.06312892 0.103828184 -1.3387067
00000000: 4714 973e 5f58 043e f56a 9f3c 82f9 e3be
00000010: 3b9f 813d c7af 783e 520a 9a3e 4db5 29be
00000020: a009 e5bf f0e6 ca3d 7999 283d b947 2939
00000030: 8a00 883e 4963 d2bb ee71 bebe 8a7a 4b3b
00000040: 6f13 cfbe 53b3 053d 3bf4 78bb 80c8 5fbf
00000050: df30 86bf 2df4 dabf b537 59bc 7aa0 4ebf
00000060: da30 8abd 776d 9d3d a4ad b03d 1e4c fb3d
00000070: 2c5d 913e 675e 9bbf 52bc 4bbe 679f 63bf
00000080: e7db 3ebf d5b2 0bbe af8d a8ba 64d8 723c
00000090: 8ef8 08c0 90e5 27bf 53d1 73bf 1990 b53e
000000a0: f6ba 913e c1a6 94bf 9009 2ebe 648d a03e
000000b0: 536b 92bf 71c8 9d3e 946b 013d 0b51 7d3d
000000c0: e489 a1bc 168c 80be fbfe 0ebd d8f5 98be
000000d0: 05be 903d ed0a 503d 6432 463d c628 83b9
000000e0: f8af 30be 843d 55be dbda 9dbe d11e f0bd
000000f0: b8cd 103d 7405 b2be 751e 87bf 556d 11be
00000100: a1f2 213e fbd4 2b3c 783c e6bd 3da3 b6be
00000110: 481c f7be 2567 2bbe df1c 8fbf 74b4 63bf
00000120: 3bf4 22bf 56f3 bcbc d016 da3b 02aa 7c3e
00000130: 6d6b 00bf 525d 883d d63a d43d e6d2 71bd
00000140: 9c70 a43e b87a 80bf d09a 66bf 6f35 483d
00000150: 5963 1bbf 60e9 a4bf 7aaf 05bf 823c adbe
00000160: 0284 1f3d 819a 183d ecd0 fcbe 4c3e e83d
00000170: ccf2 4cbf a458 d83d fb3b b8be a002 c93b
00000180: 5bea a83e f3a1 293e def0 febd 25fe df3d
00000190: fcd8 b3be 14ce d0bd 1664 f5be 5fa5 b13c
000001a0: 096d 0e3c 0fae ab3d d8ef b33c dc46 ab3c
000001b0: d0d8 5f3c 7afb aebe 69dd 1c3e 6aec ccbe
000001c0: 1e26 d0bd a82e ae3e 609c 29bf 24fa 183e
000001d0: b0a4 003c 8fc5 a3be 9ef9 27be ee09 31bf
000001e0: 7d5d ffbe e466 ebbd ab71 873e 942b 90bf
000001f0: 46d7 abbe 8317 133d e75f 28be 4584 56bf
00000200: 7e7a 07be 1701 723c 6142 aa3e c561 ebbe
00000210: d9fb 17c0 da50 12c0 f268 813e 52ce 51be
00000220: a556 aebb ade8 9b3e bfe3 063e 44eb 853d
00000230: 564b d83d 97a7 3cbd fc12 663d cae5 a13e
00000240: 4a66 8e3d ac97 6d3d 90f2 833d c96c 7e3a
00000250: bf2d 093d 2f84 9abb b2aa b3bc be96 423d
00000260: ef86 64be a9bc 84be 84e5 7abe e64c 0bbb
00000270: b4b5 a03c 3671 033e 4ed5 b639 4d27 0c3f
00000280: 6df4 c53e 69c6 c43d 9c5b dc3e bed1 ca3d
00000290: 489a 64bf 8d92 85be 3088 873e 303d e33c
000002a0: 8b29 6f3e 42a6 10c0 ea47 f23d 8e46 163f
000002b0: a236 103e 29fe b03d dbec 8c3d 0965 303e
000002c0: 0292 69bd a583 063e 6fc8 f33d 63e1 803b
000002d0: 5f58 c0bf 835c 15be d001 d7be 87a0 52be
000002e0: bed4 a6be 76a1 46be bbad c1bd ef4a f63d
000002f0: 00c6 713d 46ce 813c e554 ed3c 70df 8ebd
00000300: 6eba f2bf e5c3 e2bf d6ff 9bbe fcad 113e
00000310: 43c1 10c0 1c12 f13c 7dd2 25bd ca92 b33d
00000320: 6346 9abf b9d4 acbf 43c5 533d 0d74 75bf
00000330: 30bd b43c b4f4 9cbe 0ee5 533d d455 db3c
00000340: 09fd 693e 119e c33c 6bb8 b7ba c069 e03b
00000350: 1cd4 9abe 3f0f 3c3e 15a6 89be a76a bd3c
00000360: 7f63 f33c 6bee c43e 808e 93bc 1e51 2b3e
00000370: 7205 993e bcfe b53e 2ac5 a0be 649e 14c0
00000380: 1060 3a3e e612 92be d879 d9bc c425 393e
00000390: 59d1 a8be 9144 db3c 97e4 3bbf 25f9 dbbe
000003a0: b77f 99be 76ee 3dbf 46b6 6ebc 7662 a6bf
000003b0: 6030 3cbe c24b e03d f2f5 c4bd 06b2 b13d
000003c0: 5a6e a03e a5e3 0d3c 9e97 eb3d 85ed c9be
000003d0: f143 ba3d bf81 de3d 3cac a03e 5863 c6c0
000003e0: bff3 003c 294d 563e be73 2b3e f471 913d
000003f0: 70b0 08bf bc49 813d dfa3 d43d be5a abbf
