Models/Bloom_filter/result/model-dict-90.pt (torch, 533323 bytes, 7 tensors)

model.0.weight f4 [256, 2]
0	0xba2792de	-0.00063924293
1	0xb80b5f47	-3.3228916e-05
2	0xb98680d6	-0.00025654462
3	0x38814e53	6.165788e-05
4	0x3990fdba	0.0002765486
5	0x389ae14f	7.385259e-05
6	0xba528599	-0.0008030772
7	0xba346224	-0.0006881079
8	0xb9dd43e1	-0.00042202979
9	0xba77f3f5	-0.00094586547
10	0xbae128fb	-0.0017178351
11	0x3a58872a	0.0008259887
12	0xbf0e42a0	-0.5557041
13	0xbd25cc4d	-0.04047804
14	0x388e4dcf	6.7855806e-05
15	0xba28ce94	-0.0006439474
16	0xbe9a0b8f	-0.30086944
17	0x3ecb6d0e	0.3973164
18	0xb9cf3edb	-0.00039528948
19	0x393f2d63	0.00018232087
20	0xbd3ff26f	-0.046862062
21	0x3eec63f1	0.4617
22	0xb99f04c6	-0.000303304
23	0xb9267c4e	-0.00015877301
24	0xbfd5dfbb	-1.6708902
25	0x3e47870b	0.19485109
26	0xb95812a7	-0.00020606314
27	0x392f8943	0.00016740435
28	0xb944fedd	-0.0001878696
29	0x39ee63f5	0.0004546937
30	0xb9e47433	-0.00043574124
31	0x397c76d6	0.00024076863
32	0xbb10ca52	-0.0022093249
33	0x3aa7eacb	0.0012811063
34	0xb9de8a39	-0.00042446124
35	0xb90b0f1c	-0.00013261702
36	0xb9cec388	-0.00039437064
37	0x3932c771	0.000170497
38	0xb9ca10a5	-0.00038540844
39	0x3933a003	0.0001713038
40	0xba80f37c	-0.0009838189
41	0x3a1e8910	0.00060476456
42	0xb9abbdda	-0.00032757112
43	0x3734c1c6	1.0773952e-05
44	0xb9dafa97	-0.00041766904
45	0xba28621e	-0.0006423312
46	0xbe72c306	-0.23707208
47	0xbf411784	-0.75426507
48	0xb9859bb8	-0.00025483756
49	0x399faa72	0.00030453835
50	0x39c6cb30	0.0003791689
51	0x39c3b068	0.0003732473
52	0xba20a202	-0.00061276567
53	0xb9594a19	-0.00020722336
54	0xbf244620	-0.641695
55	0x3e2bc435	0.16774066
56	0xb9a629e6	-0.00031693204
57	0xb94efc12	-0.00019739594
58	0xb9b99d19	-0.00035402997
59	0x38a0b234	7.6625874e-05
60	0xba62fbfa	-0.0008658763
61	0xb94224b1	-0.0001851495
62	0x3d3f0797	0.046638098
63	0xbf7667d9	-0.9625221
64	0x3ebadf3b	0.36498436
65	0xbfd2be81	-1.6464387
66	0x3e9073fb	0.28213486
67	0xbe94ce90	-0.29063845
68	0x380ce67a	3.359325e-05
69	0xbaf32dc7	-0.0018553071
70	0x3943ad08	0.00018661108
71	0xb9abf654	-0.0003279919
72	0x39677a36	0.00022075404
73	0xba02c0a6	-0.00049878133
74	0xb9c4f64c	-0.0003756754
75	0xba8c5c36	-0.0010708633
76	0x3e98806a	0.29785472
77	0x3def97e1	0.116988905
78	0xb9ad4a8e	-0.0003305268
79	0xba4daa77	-0.00078455306
80	0x3e87ebd8	0.26547122
81	0xbde5965a	-0.11210318
82	0x3e87d631	0.26530603
83	0xbdbf2c8d	-0.09334669
84	0xb9623231	-0.00021571737
85	0xb85ec61b	-5.3113425e-05
86	0xbbbbe2ee	-0.0057338392
87	0xbc7ff0aa	-0.015621344
88	0xb90463f6	-0.0001262574
89	0xba28c0d5	-0.00064374256
90	0xb9e2fde6	-0.00043295248
91	0xb80cc576	-3.35625e-05
92	0xb69daf91	-4.6994032e-06
93	0xb94361a4	-0.00018633023
94	0x39a66263	0.0003173529
95	0xb9a446e9	-0.0003133335
96	0x3a09317b	0.00052335084
97	0x393b37ad	0.0001785445
98	0x393e7790	0.00018164353
99	0xba19d6d1	-0.0005868497
100	0xb8f97f98	-0.000118970114
101	0xb837a5c4	-4.378498e-05
102	0xba89c997	-0.0010512349
103	0x3a6712ed	0.0008814771
104	0xbe47ad0b	-0.19499604
105	0x3eb8a02c	0.360597
106	0xbaa51669	-0.001259518
107	0xb7174b7b	-9.0178755e-06
108	0xbe494306	-0.19654474
109	0xbf487ee4	-0.7831862
110	0xb875a2bf	-5.856412e-05
111	0xb8456822	-4.706544e-05
112	0x3eaeccdc	0.3414067
113	0x3d44fafd	0.048090924
114	0x38f26d30	0.00011559797
115	0xb92695da	-0.00015886818
116	0xb9e3a1b7	-0.000434173
117	0xb99bcc54	-0.0002971614
118	0x3e8db7e4	0.2767936
119	0xbdce7574	-0.10080996
120	0xb7deb996	-2.6550882e-05
121	0x38215a78	3.8469647e-05
122	0xb8e72ef5	-0.00011023685
123	0xb92f1769	-0.00016698021
124	0x39552d29	0.00020330086
125	0x39b04d32	0.0003362685
126	0xba1c9c45	-0.0005974214
127	0xba77f9a6	-0.0009459503
128	0xb9ae135e	-0.00033202296
129	0x38d41cc2	0.00010114304
130	0xb9d4525c	-0.00040497154
131	0xb8ef7665	-0.00011418461
132	0xb964606d	-0.00021779696
133	0xba4230c4	-0.00074077793
134	0xbecc151b	-0.39859852
135	0xbd4a1f75	-0.049346406
136	0x3e9e62cb	0.30934748
137	0xbe173b44	-0.14768702
138	0x3e89536c	0.26821458
139	0x3e380568	0.17970812
140	0xb9b896a0	-0.0003520744
141	0xba301cf4	-0.00067181815
142	0xb917c1f1	-0.00014472731
143	0xb8daf0c3	-0.000104398954
144	0xb99f627f	-0.0003040023
145	0xb860f2d5	-5.3631917e-05
146	0x37cf17e3	2.4687446e-05
147	0xba85b630	-0.0010201391
148	0xb92dc92d	-0.0001657351
149	0xb90ccec3	-0.00013428465
150	0xbe0306c1	-0.12795545
151	0x3eca3dcb	0.3950027
152	0x3e893cb8	0.26804137
153	0xbe7896f5	-0.24276336
154	0x3e5feecf	0.21868442
155	0xbea03bb9	-0.31295565
156	0x39461467	0.00018890352
157	0xb82dab46	-4.1405925e-05
158	0xb87a6780	-5.9701037e-05
159	0xb90de8dc	-0.00013533555
160	0x38a10df0	7.679674e-05
161	0xb9a411e9	-0.00031293862
162	0xb970033c	-0.00022889388
163	0xb97c73fe	-0.00024075803
164	0x3e9256a3	0.28581724
165	0xbeb00c63	-0.3438445
166	0xbeeb3daf	-0.45945498
167	0xbd8c10a5	-0.06839112
168	0xbf57224b	-0.840367
169	0xbece1c85	-0.40256134
170	0xb92d9777	-0.0001655499
171	0xba0bd8e0	-0.0005334746
172	0xbd42bd7c	-0.047543988
173	0xbf20f0a4	-0.6286719
174	0xb99fb74e	-0.00030463416
175	0xb9f25ab6	-0.00046225422
176	0xb8ea39dd	-0.000111687674
177	0xba75b1ad	-0.0009372484
178	0xb9eb565d	-0.00044887039
179	0xb94122ef	-0.00018418928
180	0x38d94132	0.0001035951
181	0xb98e9216	-0.00027193193
182	0x3e883fa2	0.26611048
183	0xbdf9202f	-0.12164342
184	0xb9a312f3	-0.000311039
185	0x39abbbad	0.0003275549
186	0x3e93eb6e	0.28890556
187	0xbe5cba08	-0.2155534
188	0x3a6bb2e0	0.0008991193
189	0x3a67c853	0.00088418013
190	0xb9da3e9d	-0.0004162685
191	0x39718ddd	0.00023036399
192	0xb9bfaf4c	-0.00036560965
193	0xb9821aef	-0.000248156
194	0xb9a905b0	-0.0003223843
195	0xba18dce9	-0.0005831258
196	0x3d820f8b	0.06350621
197	0xbf2a5e06	-0.6654972
198	0xb84918ef	-4.7945356e-05
199	0x398b1cba	0.0002653355
200	0x3e8fe04a	0.28100806
201	0xbe97a4e5	-0.29617992
202	0xba7b3ff1	-0.0009584418
203	0x39f96a43	0.00047572152
204	0x3e65f625	0.22457178
205	0xbed93a43	-0.42427263
206	0xb905913e	-0.00012737975
207	0x39f59ebb	0.00046848305
208	0xb98f658a	-0.00027350738
209	0x3784d330	1.5833968e-05
210	0xbd8bd654	-0.06827989
211	0x3dda43d7	0.10657471
212	0xb9c0dd45	-0.00036785952
213	0x381ae39d	3.6928443e-05
214	0xb991c53f	-0.00027803515
215	0x39319382	0.00016934986
216	0xbee5e4e9	-0.44901207
217	0x3ec0a77e	0.37627786
218	0xbde24f18	-0.11050242
219	0x3db6be48	0.08923012
220	0xb8919f2f	-6.943789e-05
221	0xb967f889	-0.00022122463
222	0xbc873260	-0.016503513
223	0xbf09835f	-0.5371608
224	0xba060681	-0.00051126635
225	0x3a03f229	0.0005033338
226	0xb9cb8b54	-0.00038822985
227	0x39910cf1	0.00027666197
228	0x3e3b751a	0.1830639
229	0x3e244302	0.16041186
230	0xb6a97070	-5.049682e-06
231	0xba28da96	-0.0006441263
232	0x3e8a037a	0.26955777
233	0xbf559a47	-0.83438534
234	0x373c0e61	1.1209021e-05
235	0x38d9ff2f	0.00010394898
236	0xb8b2a01a	-8.517523e-05
237	0xba0db98b	-0.0005406371
238	0xb98abbee	-0.0002646143
239	0x39cd858d	0.0003920015
240	0xb9b19b3a	-0.00033875724
241	0xb7d9b7cd	-2.5954005e-05
242	0xb9ce2550	-0.00039319182
243	0xbab3c935	-0.001371658
244	0x39abb4e5	0.0003275044
245	0xba73f2ce	-0.0009305895
246	0xb9646e46	-0.00021784854
247	0x39c1f9c4	0.00036997919
248	0x3e8130e0	0.252326
249	0xbeaa2a7e	-0.33235544
250	0x390515e4	0.00012692023
251	0xba82b924	-0.0009973389
252	0x3e10ed4a	0.14153019
253	0xbee4336c	-0.44570482
254	0xbf195d3b	-0.59907883
255	0x3e7158eb	0.23569076

model.0.bias f4 [256]
0	0x00000000	0.0
1	0xb9a3c67d	-0.00031237668
2	0xba49c6f9	-0.0007697191
3	0x00000000	0.0
4	0x00000000	0.0
5	0xb9db1e1a	-0.00041793362
6	0x3e2bbd1b	0.16771357
7	0xb895c6ff	-7.1419396e-05
8	0xbd021c40	-0.031765223
9	0xb9f43f9b	-0.00046586696
10	0xbdd7e4c1	-0.10541678
11	0x00000000	0.0
12	0x3e1e7b7f	0.15476798
13	0xb9546a83	-0.00020257574
14	0xb9c1eb8c	-0.00036987325
15	0xba04ca31	-0.0005065529
16	0xbaabc702	-0.0013105574
17	0x00000000	0.0
18	0xb9eebacc	-0.00045534072
19	0xb8581a3e	-5.1522853e-05
20	0xb93633bc	-0.00017376145
21	0xb8a9f2ac	-8.103749e-05
22	0x00000000	0.0
23	0x3e4a613c	0.19763654
24	0xb96f41a7	-0.00022817274
25	0xbabb0dd0	-0.0014271084
26	0x00000000	0.0
27	0x3dc70290	0.09717286
28	0x00000000	0.0
29	0xb9c9bc87	-0.0003847817
30	0x00000000	0.0
31	0x3e1b276d	0.15151758
32	0xbc9e5ffc	-0.019332878
33	0xbd50705c	-0.050888404
34	0xb7e0d538	-2.6802169e-05
35	0xb91d428f	-0.00014997482
36	0xb946a4cd	-0.00018944145
37	0x00000000	0.0
38	0xbe675b20	-0.22593355
39	0x00000000	0.0
40	0xbe1bc8b5	-0.15213282
41	0xbe18d436	-0.14924702
42	0x00000000	0.0
43	0xbc5e23a9	-0.013558307
44	0xb9bae9bf	-0.0003565084
45	0x00000000	0.0
46	0x00000000	0.0
47	0xb9e0b8d4	-0.00042862317
48	0xba39cb6b	-0.00070875016
49	0xb9712330	-0.0002299666
50	0x00000000	0.0
51	0xba03ae06	-0.0005023185
52	0xbd568602	-0.052373894
53	0x00000000	0.0
54	0x3e4df888	0.20114338
55	0x36951a17	4.4435833e-06
56	0xbe14f6e4	-0.14547306
57	0xb8c3f254	-9.343462e-05
58	0x00000000	0.0
59	0xbe269124	-0.16266304
60	0xb892e02f	-7.00358e-05
61	0x00000000	0.0
62	0xba0e1c8a	-0.0005421123
63	0xb9db5a2d	-0.0004183812
64	0xb8b6801f	-8.702301e-05
65	0x00000000	0.0
66	0xb72a1afa	-1.0139071e-05
67	0x3e1449da	0.14481297
68	0xbd80f225	-0.062961854
69	0xbe4354c5	-0.19075306
70	0x00000000	0.0
71	0x00000000	0.0
72	0xb9962964	-0.00028641068
73	0xb7a71ef9	-1.9922374e-05
74	0x00000000	0.0
75	0xbdf7f395	-0.121070065
76	0xbd863f51	-0.065550454
77	0x3c52739c	0.012844946
78	0xb9348815	-0.00017216832
79	0x00000000	0.0
80	0xb8816258	-6.169517e-05
81	0x00000000	0.0
82	0xbd128805	-0.03577425
83	0x3e1e807f	0.15478705
84	0x3e6934bf	0.22774027
85	0x00000000	0.0
86	0x3e220f87	0.15826236
87	0x00000000	0.0
88	0x00000000	0.0
89	0x00000000	0.0
90	0xb90221ec	-0.00012410403
91	0xbe1b578c	-0.15170115
92	0xb9dbbd6a	-0.0004191206
93	0xbdbe42e2	-0.09290101
94	0xbb4fc432	-0.0031702635
95	0xb89ef7d1	-7.5801865e-05
96	0x00000000	0.0
97	0x00000000	0.0
98	0x3e191f63	0.1495338
99	0xb983e135	-0.0002515406
100	0xbd4cedb7	-0.05003139
101	0xb98cc35e	-0.0002684844
102	0x3bce5a3b	0.0062973774
103	0xb9d8d026	-0.00041353813
104	0xb89418dc	-7.06182e-05
105	0xbd94f687	-0.07273584
106	0xb81700b2	-3.6001853e-05
107	0xb850b8e3	-4.9763254e-05
108	0x3d18ad8c	0.037274882
109	0xbd69fee9	-0.057127867
110	0x37480711	1.1922574e-05
111	0x3e7a1fc5	0.24426182
112	0xba236016	-0.00062322745
113	0xb9f34010	-0.00046396302
114	0xbe7051a8	-0.2346865
115	0x00000000	0.0
116	0x3cec4f1a	0.028846312
117	0xb8f170c5	-0.000115127805
118	0x370c0646	8.346111e-06
119	0xb9e4efb7	-0.0004366615
120	0xb98d8bf9	-0.00026997903
121	0xb95a6359	-0.0002082711
122	0xb9897657	-0.00026218846
123	0xb992c348	-0.00027992786
124	0x3c2d4e1e	0.010577707
125	0xb8d58d7b	-0.00010182984
126	0x3e19ff61	0.15038826
127	0x3d3ffe61	0.046873454
128	0x00000000	0.0
129	0xbe807f2c	-0.25097024
130	0x00000000	0.0
131	0x00000000	0.0
132	0x3d140c1c	0.03614436
133	0xbdc3cbce	-0.09560357
134	0xba294ed9	-0.00064585876
135	0x00000000	0.0
136	0xb92746d0	-0.00015952741
137	0xbab268f2	-0.0013611598
138	0x3e4bbf45	0.19897182
139	0x3e3a4cd0	0.18193364
140	0xb911a3fd	-0.00013889368
141	0x388c8a0c	6.7014334e-05
142	0x00000000	0.0
143	0xb8b36b0e	-8.5553256e-05
144	0xb80331af	-3.1279105e-05
145	0xb9df6816	-0.00042611425
146	0xba3003ed	-0.0006714452
147	0xbd8c708d	-0.06857405
148	0x00000000	0.0
149	0xb853b637	-5.047602e-05
150	0xbe55cbd7	-0.2087854
151	0x00000000	0.0
152	0xb84c18bb	-4.8660422e-05
153	0x00000000	0.0
154	0x00000000	0.0
155	0xbe6fc440	-0.23414707
156	0xb9d327ac	-0.00040274614
157	0xb8e630b5	-0.00010976327
158	0x3e25e626	0.16201076
159	0x3e13cd21	0.14433719
160	0xb83faae6	-4.569711e-05
161	0xbd06ff2c	-0.032958195
162	0xbd9db298	-0.0770008
163	0xb892a276	-6.992083e-05
164	0xbe5591e9	-0.20856442
165	0xbe4ba548	-0.19887269
166	0x00000000	0.0
167	0x3e113f55	0.14184316
168	0xb95c9db3	-0.00021039582
169	0xbd437324	-0.04771723
170	0xba01d4d7	-0.0004952675
171	0x00000000	0.0
172	0xb917ed63	-0.00014488916
173	0x00000000	0.0
174	0x00000000	0.0
175	0xbe1a54d7	-0.15071426
176	0xb9805b43	-0.00024482058
177	0xbe80905d	-0.2511014
178	0x00000000	0.0
179	0xba8ade2e	-0.0010594779
180	0xba02982f	-0.00049817836
181	0x38867ef0	6.413262e-05
182	0x00000000	0.0
183	0x00000000	0.0
184	0x3e8544ef	0.26029155
185	0xb9cb5da0	-0.00038788933
186	0xb9d4a9b1	-0.0004056222
187	0xbb89d398	-0.004206132
188	0x3e4ad6d7	0.19808517
189	0xb91d6294	-0.0001500941
190	0xbd820d04	-0.06350139
191	0xba042330	-0.0005040644
192	0xbd06a1d1	-0.032869164
193	0x00000000	0.0
194	0xba93e1db	-0.001128252
195	0xbe31d7fe	-0.1736755
196	0x00000000	0.0
197	0x00000000	0.0
198	0xb8bb12bc	-8.9203444e-05
199	0x3d80c0e5	0.06286792
200	0xbc40f6e3	-0.011777612
201	0x3d807660	0.06272578
202	0x00000000	0.0
203	0x3e1050f3	0.1409338
204	0x00000000	0.0
205	0xb8cabc10	-9.66714e-05
206	0xb81175af	-3.4680295e-05
207	0x00000000	0.0
208	0x00000000	0.0
209	0x00000000	0.0
210	0xb9ca53a3	-0.00038590757
211	0xb9e13990	-0.00042958232
212	0xb8e7f602	-0.00011060761
213	0x00000000	0.0
214	0x00000000	0.0
215	0x00000000	0.0
216	0xbe6c63b8	-0.23084915
217	0xbdd7ff6c	-0.10546765
218	0xb9e2a168	-0.00043226336
219	0xb8f2650f	-0.00011558283
220	0xb88bb227	-6.66122e-05
221	0x00000000	0.0
222	0x00000000	0.0
223	0xb809a4da	-3.2816875e-05
224	0x00000000	0.0
225	0x3e0dc865	0.13845976
226	0xba8b937d	-0.0010648813
227	0xbe4b3614	-0.19844848
228	0xb88eb3aa	-6.804553e-05
229	0x00000000	0.0
230	0x3e398dae	0.18120453
231	0x3e522c38	0.2052468
232	0x38e14331	0.000107413514
233	0x3ea148e7	0.31500933
234	0xbd18b8d9	-0.03728566
235	0xbb578769	-0.0032887107
236	0x00000000	0.0
237	0xbce452e6	-0.02787156
238	0x3d53033a	0.05151675
239	0xbe24b169	-0.16083302
240	0xb9313a80	-0.00016901828
241	0xbcc836a6	-0.02444012
242	0xb94343e8	-0.00018621946
243	0x00000000	0.0
244	0x3d041da2	0.032254823
245	0x00000000	0.0
246	0x38932874	7.017041e-05
247	0xba2889a1	-0.00064292
248	0x3c24dcd6	0.010062417
249	0x36b150e4	5.284428e-06
250	0xbd75fe54	-0.060057
251	0xbe31b9b4	-0.17355996
252	0x3e137fd4	0.14404231
253	0xb99f9039	-0.00030434298
254	0xbc3d5c5c	-0.011557665
255	0xba1ddd06	-0.000602201

model.2.weight f4 [256, 256]
0	0x39c365ca	0.00037269137
1	0xb95820cc	-0.00020611583
2	0xb8ead860	-0.000111982925
3	0xb9e82be5	-0.00044283192
4	0xba0078ea	-0.000490083
5	0xba0b8748	-0.00053225877
6	0xbf21952f	-0.6311826
7	0xb8fba112	-0.00011998614
8	0x3ebb27ca	0.36553794
9	0xb9798ac5	-0.00023798186
10	0xbcdbe3c8	-0.026842013
11	0xb91e2c45	-0.00015084546
12	0x3726918a	9.928257e-06
13	0x3776fe3e	1.4721938e-05
14	0x39c374b2	0.00037280243
15	0xb9386336	-0.00017584566
16	0xba88a621	-0.0010425487
17	0xba485cfa	-0.0007643249
18	0xb97107b0	-0.00022986415
19	0x398ddf2f	0.000270599
20	0x394aca07	0.00019339482
21	0x398ec38e	0.0002723005
22	0x36ae3366	5.1915877e-06
23	0x3d3985dc	0.045293674
24	0x3a00d3c4	0.0004914368
25	0xbbbf116c	-0.0058309343
26	0x3971992f	0.00023040616
27	0xbe49c526	-0.19704112
28	0x39098b16	0.00013117152
29	0x388e9216	6.798298e-05
30	0xb818ba2c	-3.641301e-05
31	0x3df75268	0.120762646
32	0xc00c4124	-2.1914759
33	0xbf3a7ac4	-0.72843575
34	0x3975e767	0.00023451225
35	0x38822019	6.204862e-05
36	0x38d632c1	0.00010213769
37	0x3999217e	0.00029207388
38	0x3f092e71	0.5358649
39	0xb9a22caa	-0.00030932325
40	0x3a3a9f03	0.00071190315
41	0x3a7217ac	0.0009235095
42	0x39025fee	0.00012433503
43	0x3b92291d	0.0044604675
44	0xb95669bb	-0.00020448018
45	0x37994b49	1.8274079e-05
46	0x39ea8e8a	0.00044738158
47	0x379f2a6d	1.8974033e-05
48	0x396d5d25	0.0002263678
49	0x39a5c593	0.00031618457
50	0x37a40b29	1.955552e-05
51	0x38c0d814	9.195521e-05
52	0x3e6f3b64	0.233625
53	0x37277d81	9.983197e-06
54	0x3e0f525f	0.13996266
55	0x3a1caa12	0.000597627
56	0xbf4fdb1f	-0.8119373
57	0x37a6a41f	1.9865167e-05
58	0xb901d4d7	-0.00012381688
59	0xba286e73	-0.00064251496
60	0x3935349c	0.00017281104
61	0x39d0fb6f	0.00039860184
62	0xb8a71363	-7.9667916e-05
63	0xb98f6f08	-0.0002735781
64	0x3a465f70	0.0007567322
65	0x389bf59e	7.436726e-05
66	0xba2ae9de	-0.0006519834
67	0xbef5cd7a	-0.4800833
68	0x3dac9c5a	0.08428259
69	0xbfaad69b	-1.3346742
70	0xb7cefe1a	-2.4675439e-05
71	0xb9917679	-0.00027744824
72	0xb92f98d7	-0.00016746238
73	0x3a6e7430	0.0009096293
74	0x3926768a	0.00015875153
75	0x3e6da6dd	0.23208185
76	0xbf6ca4c2	-0.924389
77	0x3e9985bb	0.2998484
78	0xb9fc60fc	-0.00048137445
79	0x39d0c84f	0.00039822093
80	0x3988b242	0.00026072754
81	0x39dd3b94	0.00042196794
82	0xbf0b3efd	-0.5439299
83	0xbf0e4ae6	-0.55583036
84	0xc005ee1c	-2.092658
85	0x39eb37e6	0.0004486434
86	0x3e875eb1	0.2643943
87	0xb9863b5c	-0.00025602698
88	0x3982d280	0.00024952367
89	0x38c688aa	9.4668314e-05
90	0x3a4d43be	0.0007830224
91	0x39974674	0.00028853456
92	0x3a6ed570	0.0009110784
93	0xc00e0805	-2.2192395
94	0xbc27040e	-0.010193838
95	0xb9d97baa	-0.00041481602
96	0xb9021a66	-0.000124076
97	0x3a02ed88	0.00049945014
98	0x3ea56273	0.32301673
99	0x39bd1750	0.00036066258
100	0xbf41e207	-0.75735515
101	0xba7e7e7f	-0.00097081804
102	0xbe949429	-0.29019287
103	0xb8c23600	-9.260699e-05
104	0x393f170d	0.00018223767
105	0x3d831bff	0.06401824
106	0xb89b9051	-7.417857e-05
107	0x377fea3c	1.5253721e-05
108	0x3ee26411	0.4421697
109	0x3d6b9e6d	0.057524133
110	0xb8cc533e	-9.742983e-05
111	0x3e404a36	0.18778309
112	0xb901edb3	-0.00012390949
113	0x3a4577d9	0.00075328123
114	0x3f29f0c1	0.66382986
115	0x3914d2d8	0.00014192925
116	0xbe76b7f3	-0.24093609
117	0x39d64334	0.0004086733
118	0x396d9eb8	0.00022661209
119	0x3a876a37	0.0010331337
120	0xb97ed976	-0.00024304338
121	0x3aa3488d	0.0012457535
122	0x3a63f601	0.000869602
123	0xb91accf8	-0.00014762941
124	0x3e8f691e	0.28009886
125	0x3a108a2e	0.00055137544
126	0x3dd132a6	0.102147385
127	0xbec88ec8	-0.39171433
128	0xb9959e57	-0.00028537467
129	0x3f175f0d	0.5912941
130	0x390ba6ce	0.00013318213
131	0xb9b13d98	-0.00033805962
132	0xbe7c4dca	-0.24639049
133	0xc01a870c	-2.4144926
134	0x3ac1cc87	0.0014785685
135	0x38c577bb	9.4159936e-05
136	0xb82b0e86	-4.0783103e-05
137	0x3aa9780a	0.0012929451
138	0x3d78a524	0.060704365
139	0x3eb441f5	0.3520657
140	0x3aab1710	0.0013053138
141	0x39e80091	0.0004425091
142	0xb87c7782	-6.0192782e-05
143	0xb815d113	-3.5719084e-05
144	0xb9bb38c4	-0.00035709713
145	0xb95efbb7	-0.00021265341
146	0xb9af2fab	-0.00033414116
147	0x3e999d04	0.30002606
148	0xb88a1d94	-6.585862e-05
149	0x39346063	0.00017202045
150	0x3f1af27e	0.60526264
151	0x39654ac3	0.00021866993
152	0xb931a479	-0.00016941306
153	0x39753a19	0.00023386664
154	0xba1f3d39	-0.00060744915
155	0x3f549906	0.83045995
156	0x3a568cb5	0.0008184419
157	0xb99cd1b1	-0.0002991087
158	0xbf209ff9	-0.627441
159	0xbef8e445	-0.48611656
160	0xb73c7a80	-1.1234195e-05
161	0x3e08bdb9	0.13353623
162	0x3f0d0f4f	0.55101484
163	0xb9db7f57	-0.0004186581
164	0xbe7b9f22	-0.24572423
165	0x3f16afe6	0.5886215
166	0xb9227200	-0.00015491992
167	0xbefe3123	-0.49646863
168	0x3a591216	0.0008280588
169	0xbf3d6d5c	-0.73994994
170	0xb96fdb82	-0.00022874589
171	0xb9982797	-0.00029021196
172	0xb8cc4ed3	-9.74216e-05
173	0x38ffc7a6	0.00012196535
174	0xb9906cad	-0.0002754679
175	0x38bd1366	9.0158355e-05
176	0x38cecd90	9.8611345e-05
177	0x3f17a719	0.59239346
178	0x3934ef54	0.00017255294
179	0xba9dcb6f	-0.0012038777
180	0x38b76cad	8.7463624e-05
181	0x3a426768	0.00074159214
182	0x39841e8e	0.00025199767
183	0x399640d6	0.00028658536
184	0x3e7c86b6	0.24660763
185	0x3ac4a6bd	0.0015003305
186	0x3a5d78c0	0.0008448474
187	0xba46c6aa	-0.0007582704
188	0x3ed381ce	0.4130997
189	0xb9590204	-0.00020695484
190	0xbf245808	-0.64196825
191	0x39b9d722	0.00035446236
192	0x3e863895	0.26215044
193	0xba769344	-0.00094060996
194	0xba1a6fa5	-0.000589127
195	0xbe020143	-0.12695794
196	0xb9a307e5	-0.00031095665
197	0x39d5249a	0.00040653796
198	0xb9a98819	-0.00032335593
199	0xbf60487e	-0.87610614
200	0x3e87b552	0.26505524
201	0xbf56794a	-0.8377882
202	0x3914619d	0.00014150744
203	0x3e5105eb	0.20412414
204	0xb99894d2	-0.0002910258
205	0x39c4b31f	0.0003751749
206	0x39909dce	0.00027583394
207	0xb9ef2137	-0.0004561038
208	0xb9372ecd	-0.00017469675
209	0xb930c11b	-0.00016856605
210	0x3ab8a9e7	0.0014088721
211	0xbab4eb9c	-0.0013803127
212	0x38c340fc	9.310429e-05
213	0x3999e2c1	0.0002935138
214	0xb93a6b2a	-0.00017778264
215	0xb9849067	-0.0002528459
216	0x3f446e97	0.76731247
217	0xbccee9c1	-0.025257947
218	0xb8f910e2	-0.0001187639
219	0xb9b498ed	-0.00034446214
220	0x3a0c6c29	0.00053566933
221	0xb885413e	-6.3540865e-05
222	0xba18e437	-0.00058323465
223	0xb9e6b4e6	-0.00044003798
224	0xba057146	-0.00050904264
225	0xbeece77e	-0.46270365
226	0xbb48eaa1	-0.0030657428
227	0xbf1c797b	-0.61122864
228	0xb9056b45	-0.0001272383
229	0x38dae041	0.000104368206
230	0x3eb4ed3c	0.35337245
231	0x3e6c3df6	0.23070511
232	0x3abd8810	0.0014460105
233	0x3e1ee19e	0.15515754
234	0x3ebe5b17	0.3717887
235	0xbb702bf8	-0.0036647301
236	0xb79c26d0	-1.8614723e-05
237	0x3e69b16a	0.22821584
238	0xbc6b9a95	-0.014380117
239	0xbf8bac00	-1.0911865
240	0xb8abceb6	-8.192418e-05
241	0x3c0d71b4	0.008633066
242	0xb8be8402	-9.0844944e-05
243	0x382ae95e	4.07485e-05
244	0xbc949708	-0.018138424
245	0xb8ac7721	-8.2237886e-05
246	0xb807afe4	-3.235032e-05
247	0x38ea14a7	0.00011161836
248	0x3e8ea21f	0.27858064
249	0x3a856084	0.0010175859
250	0xbf5a92ad	-0.8538006
251	0xba236978	-0.00062336726
252	0xbf0f8b39	-0.5607181
253	0x39687b7a	0.00022171243
254	0x3ea09c3b	0.31369194
255	0xb878a1be	-5.927844e-05

model.2.bias f4 [256]
0	0xbdca4b67	-0.09877663
1	0xb9a41a8c	-0.00031300297
2	0xbb5e77c7	-0.0033945905
3	0xbc4c66c7	-0.012475676
4	0xbd515691	-0.051107947
5	0x3d9b3a99	0.07579536
6	0xbd6fd315	-0.058550913
7	0x3d934968	0.071917355
8	0xbb07f7ee	-0.0020747143
9	0xbd81c6d1	-0.06336749
10	0xb96acd8c	-0.00022392551
11	0xbe9ecad6	-0.31014127
12	0xb94b8cff	-0.00019412114
13	0x3ce8fec2	0.02844179
14	0xb91a260d	-0.0001470076
15	0xbc70bcf3	-0.0146934865
16	0xb88a4d2b	-6.5947264e-05
17	0xb96aa429	-0.00022377133
18	0xbe8b43e0	-0.27200222
19	0xbebab3ac	-0.36465204
20	0x3cc7f646	0.024409425
21	0xbe86cebb	-0.26329598
22	0xb98331fa	-0.00025023503
23	0xbae698a6	-0.00175931
24	0xbde25c45	-0.11052755
25	0xbd891138	-0.06692737
26	0xbbee02b9	-0.007263508
27	0xb9f37d12	-0.00046441756
28	0xbdeb783d	-0.11497543
29	0xbe753e86	-0.23949632
30	0xbd890458	-0.06690282
31	0xbc3fe411	-0.01171209
32	0xb9528fd9	-0.00020080748
33	0xb9705d95	-0.00022923046
34	0xb9514ef2	-0.00019961203
35	0xbe89fcdb	-0.26950726
36	0xb977a9e3	-0.00023619043
37	0xb9f3e414	-0.00046518503
38	0xb9e20c09	-0.00043115046
39	0x3e20ebda	0.1571497
40	0x3d94eed9	0.07272119
41	0xba88c7e4	-0.0010435549
42	0xbe97b0ce	-0.2962708
43	0x3dcea7e9	0.1009062
44	0xb9421cec	-0.00018512056
45	0xbacdf01f	-0.001571182
46	0xb988cb4c	-0.0002609141
47	0xba49784c	-0.0007685467
48	0x3db98aa0	0.09059644
49	0xbadc6021	-0.0016813317
50	0xbdc8b519	-0.09800167
51	0xbcc14a18	-0.023594901
52	0xbe15d190	-0.14630723
53	0xbec957a3	-0.39324674
54	0xbe080e8a	-0.13286796
55	0xb9bee452	-0.00036409736
56	0xbe88a5c9	-0.26688984
57	0xb98fa6e7	-0.00027399437
58	0x3dc504c6	0.09620051
59	0xbd103b38	-0.035212725
60	0xb9565089	-0.00020438632
61	0xbd73a662	-0.059484847
62	0xbd8f52db	-0.06998225
63	0xbc3e35b1	-0.011609481
64	0xb9aee0eb	-0.00033355443
65	0x3dfdb068	0.123871624
66	0x3d9c9c44	0.07646993
67	0xbe9b95e4	-0.30387795
68	0x3c548b9b	0.012972738
69	0xbdf8284c	-0.12117061
70	0xbe8aa464	-0.27078545
71	0xb8737684	-5.804609e-05
72	0x3dcd66df	0.10029387
73	0xbe1f733d	-0.15571304
74	0x3da16bf0	0.078819156
75	0xb955960f	-0.00020369164
76	0xbe0e1314	-0.13874465
77	0x3bab0417	0.0052189934
78	0xb9830dde	-0.000249966
79	0x3dbe965e	0.09306024
80	0xbe89da4c	-0.2692436
81	0xbd78d10f	-0.06074625
82	0xbdff6f7d	-0.124724366
83	0xb951fe29	-0.00020026475
84	0xb90f5fce	-0.00013673233
85	0xbc613e97	-0.013747833
86	0xb960bc63	-0.00021432484
87	0xbcd5af3b	-0.026084533
88	0xbd8b5f89	-0.06805331
89	0xb8f530c0	-0.00011691591
90	0x3cbe6fa0	0.023246586
91	0xbb9e6970	-0.0048343465
92	0x3d0b2928	0.033974797
93	0xbd646fd2	-0.055770703
94	0xb9f6bc96	-0.00047061284
95	0xbdc2a699	-0.09504432
96	0xb8ecfaf5	-0.00011300101
97	0xbe7a9d9e	-0.24474189
98	0xb93f8530	-0.00018264796
99	0xbd982463	-0.07428815
100	0xbe9fa172	-0.3117786
101	0xb845cf31	-4.7161422e-05
102	0x3de54a67	0.11195832
103	0xb9b017ee	-0.00033587165
104	0xb9154b40	-0.0001423778
105	0xbb84764f	-0.004042424
106	0x3d889a21	0.06670023
107	0x3dcda1ba	0.100406125
108	0xbe6a7e25	-0.22899683
109	0xbde50aa3	-0.111836694
110	0x3dce7ac3	0.10082009
111	0xbd8f04aa	-0.069833115
112	0x3d67fb0a	0.056635894
113	0x3d273eab	0.04083125
114	0xbccca17c	-0.024979346
115	0xbab9a60c	-0.0014163866
116	0xbea39572	-0.31949955
117	0xba85111e	-0.0010152196
118	0xbdb26225	-0.08710126
119	0xb9a6ddbc	-0.00031827192
120	0xbe38f952	-0.18063858
121	0xb9988af5	-0.0002909523
122	0xbb522e5f	-0.0032071096
123	0xb9ae02a1	-0.00033189825
124	0xb92ff449	-0.00016780304
125	0xbeabbdcc	-0.3354324
126	0x3dd6a811	0.10481275
127	0xbe9678de	-0.2938909
128	0xbbf70d1e	-0.0075394055
129	0xba041f66	-0.0005040079
130	0xbddefecb	-0.10888442
131	0xbe24f473	-0.16108875
132	0xbe1c76cf	-0.15279697
133	0xbdcad690	-0.09904206
134	0xbde8de39	-0.113705106
135	0xb848b845	-4.785533e-05
136	0xbe98b876	-0.29828233
137	0xbd2488b4	-0.040169433
138	0xbe00b35e	-0.12568423
139	0xb9c6e241	-0.00037934075
140	0x3e0b9268	0.13630068
141	0xbe294c88	-0.165331
142	0xb9ff8c96	-0.00048742135
143	0xb97a869b	-0.00023892002
144	0xbd3ea374	-0.0465426
145	0xb957c9f4	-0.00020579231
146	0x3d6efad3	0.058344673
147	0x3e3e163a	0.18563166
148	0xbd97fb0e	-0.07420932
149	0xb96ec749	-0.00022771688
150	0xbda4165f	-0.080120794
151	0xb95cbeb9	-0.00021051885
152	0xbdb8d9ef	-0.090259425
153	0xbc068f56	-0.008212885
154	0x3e46b68d	0.19405575
155	0xb94699a1	-0.00018939983
156	0x3e04f6d1	0.12984778
157	0xba0d2761	-0.0005384591
158	0xbe5a67d8	-0.21328676
159	0xb9cdb8ef	-0.00039238433
160	0xb98fd83e	-0.00027436198
161	0xb950ec45	-0.00019924443
162	0x3d570690	0.052496493
163	0xb9fb7531	-0.00047961765
164	0xbde3821a	-0.11108799
165	0xb97a8e07	-0.00023894767
166	0xbc823b49	-0.01589741
167	0x3d9a8401	0.07544709
168	0xbcfa9dc5	-0.030592808
169	0x3b02d4fc	0.0019963374
170	0xbb0d78da	-0.0021586926
171	0xbd0ea25a	-0.0348228
172	0xbd72f588	-0.059316188
173	0xbe690a2a	-0.22757784
174	0xba6e3ed6	-0.0009088343
175	0x3e47720c	0.19477099
176	0xbe971350	-0.29506922
177	0xbc965df6	-0.018355351
178	0xbcfe6f54	-0.031058945
179	0xbde66d8b	-0.112513624
180	0x3dd58abd	0.10426853
181	0xbdf5ceb4	-0.12002316
182	0xb9833daa	-0.0002503221
183	0xbe126045	-0.14294536
184	0xb9e76e8d	-0.0004414212
185	0x3c69babf	0.014265715
186	0xb908a133	-0.00013030022
187	0x3d85c96d	0.065325595
188	0xb8cf6a19	-9.8902914e-05
189	0x3da30b82	0.07961179
190	0x3d83a55f	0.064280264
191	0x3e4d2d4a	0.20036808
192	0x3d5fed7d	0.054669846
193	0xb9287174	-0.00016063993
194	0xbe10e1db	-0.14148657
195	0xbda69999	-0.08134765
196	0x3db2400a	0.08703621
197	0x3d8128c3	0.06306603
198	0x3d830f0b	0.063993536
199	0xb9a7cd79	-0.0003200581
200	0x3da79e72	0.08184518
201	0xb95ba13a	-0.00020945529
202	0xb93bd63b	-0.00017913517
203	0x3dcf86b6	0.10133116
204	0xb8d269dc	-0.00010033298
205	0x3def6d5a	0.11690779
206	0xbe6e6eb2	-0.23284414
207	0x3cd1ba7c	0.025601618
208	0xbe5ee6c7	-0.21767722
209	0xbe77d43d	-0.24202056
210	0xb9d2b780	-0.0004019104
211	0xb9c92adb	-0.00038369637
212	0x3da0205a	0.078186706
213	0xbe5c54c7	-0.21516715
214	0xbb1e39b9	-0.0024143292
215	0xbe791b43	-0.24326806
216	0xba5f1640	-0.00085100904
217	0xb91193cf	-0.0001388334
218	0xb99ff2a9	-0.0003050764
219	0x3a51807a	0.0007991862
220	0xbad488ca	-0.0016215083
221	0xb928be76	-0.00016092681
222	0xbe46a2f3	-0.19398098
223	0xb90a829f	-0.00013209366
224	0x3db3512a	0.08755715
225	0xbdac866b	-0.08424076
226	0xbd8c75fc	-0.06858441
227	0xba4820bd	-0.0007634273
228	0x3d54f8bc	0.051995024
229	0xba096c0f	-0.0005242237
230	0xbe540f65	-0.20708998
231	0xbae5a1e1	-0.0017519557
232	0xb978321f	-0.00023669795
233	0x3daa8418	0.08325976
234	0xb93cd0e3	-0.00018006894
235	0xbeae1f0b	-0.3400806
236	0xbe482594	-0.19545585
237	0xbd9719ff	-0.07378005
238	0xbaf6d742	-0.0018832462
239	0xba9817f1	-0.0011603815
240	0xbe29af2b	-0.16570728
241	0xbe051327	-0.12995587
242	0x3d183960	0.037164092
243	0xbd2192e7	-0.039446738
244	0x3d7891ab	0.060685795
245	0xbad0d6ea	-0.001593319
246	0xbe2b94e7	-0.1675602
247	0xbeb31361	-0.34975722
248	0x3e031d04	0.12804037
249	0xb9e475aa	-0.00043575215
250	0x3e732bf3	0.23747234
251	0xb918a9e9	-0.00014559146
252	0x3e289030	0.16461253
253	0xbb029c4d	-0.0019929588
254	0xb94e1aca	-0.0001965567
255	0x3bd958f2	0.0066329176

model.4.weight f4 [256, 256]
0	0xbf05f0b5	-0.52320415
1	0x39414808	0.00018432748
2	0x39970be8	0.00028809835
3	0x3dffe64e	0.12495099
4	0xbe4ca14e	-0.19983408
5	0xbe02e8ee	-0.12784168
6	0xbdea1aca	-0.11430891
7	0xbdca159a	-0.098674014
8	0xba332805	-0.00068342715
9	0xbe624590	-0.22096848
10	0xba023cf3	-0.00049681886
11	0xbaeccdb9	-0.0018066681
12	0xba24106c	-0.00062585506
13	0x3e82e224	0.25563157
14	0xb9e8f005	-0.00044429317
15	0xbddc721f	-0.10763954
16	0xb6afdf9f	-5.2414393e-06
17	0x3a0a68c6	0.00052798947
18	0xba4957a7	-0.0007680603
19	0x3e0cc3a8	0.13746512
20	0x3e680c9c	0.2266106
21	0xc087f9d6	-4.2492476
22	0xb9256da5	-0.00015776472
23	0x39fcdfaa	0.00048231828
24	0x3ed04ddf	0.4068441
25	0xbe367889	-0.17819418
26	0xbf026cef	-0.5094747
27	0x39be8d76	0.0003634502
28	0x3d03e91e	0.03220474
29	0x3e034734	0.1282013
30	0x3e089427	0.13337766
31	0xbdb82c8d	-0.089928724
32	0xb829ab52	-4.0452294e-05
33	0x395bc2de	0.00020958061
34	0xbd577e39	-0.05261061
35	0x3d9a5fef	0.07537829
36	0x38591bcb	5.1762716e-05
37	0x397b01f7	0.00023937957
38	0xb96d27f9	-0.00022616972
39	0x3e1f7eb1	0.15575673
40	0x3dc77922	0.09739901
41	0xba6667cf	-0.00087892724
42	0x3e24cd2b	0.1609389
43	0xbe09df33	-0.1346405
44	0x38c0c29f	9.1915244e-05
45	0x3a929500	0.0011183321
46	0x39da0bdb	0.00041589033
47	0x39929afa	0.00027962757
48	0xbd4b9ae6	-0.04970827
49	0x3dfbb4d7	0.12290352
50	0xbe4a4eb7	-0.1975659
51	0x3f13e55c	0.5777185
52	0xbd1ec22b	-0.03875939
53	0xbc87edd4	-0.016592897
54	0xbdaec55b	-0.08533736
55	0x3984463f	0.0002522934
56	0x3db1d346	0.08682875
57	0xba22cca5	-0.0006210304
58	0x3d0a1ff9	0.033721898
59	0x3df84dff	0.121242516
60	0x3966d6e6	0.00022014565
61	0x3d7c2058	0.061554283
62	0x3e4e6631	0.2015617
63	0x3eb90046	0.3613302
64	0x3a527ef3	0.0008029781
65	0x3d5f788f	0.054558333
66	0x3de08250	0.10962355
67	0x3e6399ce	0.2222664
68	0x3e0250e2	0.12726167
69	0x3edee8f9	0.4353712
70	0x3e25a0c6	0.16174611
71	0x39a0abd2	0.00030645594
72	0xbdf40a3a	-0.11916013
73	0x3e30ab85	0.1725293
74	0x3e5f1e4e	0.21788904
75	0x39462aac	0.00018898648
76	0xbc6268a8	-0.013818897
77	0xbfcdbb4d	-1.6072785
78	0xb9408f2e	-0.00018363885
79	0x3da7a132	0.081850424
80	0x3edabc75	0.42721906
81	0xbd7b1ca9	-0.06130663
82	0x3de988b4	0.11403027
83	0xba04aa92	-0.00050608173
84	0xb8d7e8e0	-0.00010295375
85	0xbe1922ce	-0.14954683
86	0xba1369a6	-0.0005623348
87	0x3d086fe2	0.033309825
88	0xbd44aa82	-0.04801417
89	0x3a22e45a	0.00062138366
90	0xbefab365	-0.48964992
91	0xbe0300ee	-0.12793323
92	0x3e18ca7c	0.14920992
93	0x3e4e99ac	0.20175809
94	0xba63583b	-0.000867251
95	0x3d3f5fdc	0.046722278
96	0xb99fb698	-0.00030462886
97	0xbeba7bae	-0.36422485
98	0xb9185ea5	-0.00014531107
99	0x3dc3520f	0.09537136
100	0xbc3d551a	-0.011555934
101	0xb962a9e9	-0.00021616336
102	0x3e82e3e7	0.255645
103	0x39ca8d46	0.000386337
104	0x39c6de24	0.0003793101
105	0x3c939920	0.018017352
106	0x3e1f2b72	0.15543917
107	0xbe138ade	-0.14408442
108	0x3e054292	0.13013676
109	0xbb54b5af	-0.0032456925
110	0xbe3de1a9	-0.18543114
111	0xbd1d9001	-0.03846741
112	0x3eb5237d	0.35378638
113	0xbd94448f	-0.07239639
114	0x3c8c5afe	0.017133232
115	0x39a7a301	0.0003197417
116	0x3f1bfcc0	0.6093254
117	0x39abd1e3	0.0003277204
118	0x3f1b6241	0.606968
119	0x38ad0582	8.250309e-05
120	0x3d0f3b62	0.03496874
121	0x3a188156	0.00058176124
122	0x3dacc49e	0.08435939
123	0x3873a1d4	5.808643e-05
124	0x39df7103	0.00042618075
125	0xba01cd63	-0.00049515645
126	0xbe14f45b	-0.14546339
127	0xc0343062	-2.815453
128	0xbe55be24	-0.20873314
129	0x3a04cf0e	0.0005066254
130	0x3d93abca	0.072105005
131	0xc0cc11ba	-6.377164
132	0xbe6e9f9a	-0.2330307
133	0x3e61af93	0.22039632
134	0xbe653653	-0.22384004
135	0x37ee361c	2.8397008e-05
136	0x3f35e2d6	0.7104925
137	0x3e0eb22e	0.13935158
138	0x3bfb43b9	0.0076679853
139	0xb8b00ad4	-8.394351e-05
140	0x3db4184b	0.08793696
141	0x3bd7ac59	0.0065818247
142	0xb99f2c55	-0.00030359873
143	0xb895e070	-7.1466784e-05
144	0x3eb56780	0.35430527
145	0xb9b3d41d	-0.00034299577
146	0xbea5ea65	-0.3240539
147	0x3e4ba154	0.1988576
148	0x3f0b66fe	0.5445403
149	0xb826937e	-3.9714847e-05
150	0xbc682d41	-0.014170946
151	0xb9d3d9da	-0.00040407368
152	0x3db5ddd4	0.08880201
153	0x3b0e764e	0.0021737996
154	0x3dac8619	0.084240146
155	0xb9a6c656	-0.0003180976
156	0xbd45bad4	-0.048273876
157	0xb92f9849	-0.00016746031
158	0xbe6ac485	-0.22926529
159	0xb9e47873	-0.0004357729
160	0xb9d1e0cd	-0.00040031076
161	0x3da4ec60	0.080528975
162	0x3d771dae	0.06033104
163	0xb9822531	-0.00024823242
164	0x3ea1d6e4	0.3160926
165	0x39bda0e5	0.00036168765
166	0x39a8480a	0.0003209713
167	0x3c600d5a	0.013675058
168	0x3d5a090b	0.05323128
169	0xbdf1d6e8	-0.11808568
170	0x3925a1e1	0.00015795931
171	0xbd17bd85	-0.037045974
172	0xbe84bbfc	-0.2592467
173	0x3caf2af0	0.021382779
174	0x3a0b1471	0.0005305475
175	0xbce40ceb	-0.027838191
176	0x3d09820a	0.03357128
177	0x3e7276a4	0.2367807
178	0x3e1a3a9b	0.15061419
179	0x3e8cf714	0.27532256
180	0x3d6a28f7	0.057167973
181	0xbf5f04f1	-0.87116915
182	0x388bad32	6.660297e-05
183	0x3df04cc2	0.117333904
184	0xb9106918	-0.0001377206
185	0x3d030ea8	0.0319964
186	0xb9344120	-0.00017190399
187	0xbcf871fa	-0.030327786
188	0x3989f0c5	0.00026310064
189	0x3e3ea8a3	0.18619017
190	0x3e34e367	0.17664872
191	0x3d712419	0.058872316
192	0xbc0b3885	-0.008497362
193	0x383867bd	4.3965632e-05
194	0x3dff27c9	0.1245876
195	0x3e3243dc	0.17408699
196	0x3e4b9472	0.19880846
197	0x3e001f2e	0.12511894
198	0x3da604fa	0.08106418
199	0x394f365a	0.00019761306
200	0xbe80508a	-0.25061446
201	0xb9aa8b4e	-0.00032528717
202	0x39192b67	0.00014607386
203	0x3e370615	0.17873414
204	0x3ebcc532	0.36869198
205	0xbdb76c88	-0.089562476
206	0xc07599fa	-3.837523
207	0xbd4447a1	-0.047919873
208	0x3e113968	0.14182055
209	0xbc9da202	-0.01924229
210	0xb934f373	-0.0001725683
211	0xb92deef6	-0.00016587586
212	0xbddab6fa	-0.10679431
213	0xbdfb827a	-0.12280746
214	0xba6a90f9	-0.0008947994
215	0xbd0d7375	-0.034533937
216	0xbaaa98fa	-0.0013015561
217	0xb9479716	-0.00019034403
218	0xb8cebd8c	-9.858151e-05
219	0x3a58cb77	0.0008270065
220	0xbafaa278	-0.0019121906
221	0x39fb65cc	0.00047950295
222	0xbe998a84	-0.29988492
223	0xb99cb38a	-0.00029888406
224	0x3f0a5935	0.5404237
225	0xbeee2104	-0.46509564
226	0x3e3720fa	0.17883673
227	0x39ee24f1	0.0004542242
228	0xbd9a26b3	-0.075269125
229	0x3a423456	0.00074083114
230	0xbe89aa77	-0.26887867
231	0xbb492409	-0.0030691645
232	0x39c2eebb	0.00037180432
233	0x3e5d1e9b	0.21593706
234	0xba05d783	-0.0005105661
235	0x3eb7df45	0.3591253
236	0x3d8718b3	0.06596508
237	0xbe90952e	-0.28238815
238	0xb9ced642	-0.00039451016
239	0x3b054eb7	0.0020341107
240	0x3e8a9217	0.27064583
241	0xbccaa4e5	-0.024736831
242	0x3cc3c90e	0.023899581
243	0x3e6c0891	0.23050143
244	0x3e34c841	0.17654516
245	0xba1fc65e	-0.00060949277
246	0x39f1e1fc	0.00046135474
247	0x3a1ebe85	0.00060556113
248	0xbea0e0c8	-0.31421494
249	0x3a3c217f	0.0007176622
250	0x3d406a2a	0.046976246
251	0x39d436d2	0.00040476635
252	0xbd42c4e7	-0.047551062
253	0xb9c72620	-0.00037984643
254	0xba6d728a	-0.00090579
255	0x3d666ada	0.056254245

model.4.bias f4 [256]
0	0x3df61fa0	0.12017751
1	0x3e8b001f	0.2714853
2	0xb94f53e4	-0.0001977231
3	0x3c79cdb1	0.015246795
4	0xbcb8ccf9	-0.022558676
5	0x3df0e450	0.11762297
6	0x3df6eba7	0.12056666
7	0x3d05bcd6	0.03265079
8	0xbd9f0d7c	-0.07766244
9	0xbc82330c	-0.015893482
10	0xb91debba	-0.00015060502
11	0xbadac248	-0.001668998
12	0x3df2372c	0.118269295
13	0xb9692c13	-0.0002223703
14	0xbd07b040	-0.03312707
15	0xbb9aecaa	-0.0047279196
16	0x3da52d95	0.08065335
17	0xb9bcd414	-0.00036016165
18	0xba141022	-0.0005648156
19	0xbdcad8ef	-0.09904658
20	0x3de3bdb4	0.111201674
21	0xbc36e991	-0.011164085
22	0x3d3b675a	0.04575286
23	0xbe216a78	-0.15763271
24	0xb9426a02	-0.00018540773
25	0x3e6039e7	0.21897088
26	0xbb31fd48	-0.0027159024
27	0x3e97894d	0.2959694
28	0x3da1487d	0.07875154
29	0xbcad218d	-0.021134162
30	0xbf14b013	-0.5808117
31	0x3d96c5ef	0.073619716
32	0x3dab8ddf	0.08376669
33	0xbdd8647d	-0.105660416
34	0xb97f0f9f	-0.00024324514
35	0xb9aa9839	-0.00032538341
36	0x3d3b0349	0.04565743
37	0x3df79fc9	0.120910235
38	0xbb0995c3	-0.0020993806
39	0x3e28df93	0.16491537
40	0x3e1312dd	0.14362665
41	0x3d60d660	0.054891944
42	0x3cee1dc5	0.02906693
43	0x3e009ab2	0.12559012
44	0xbd4a6331	-0.049411003
45	0x3d489c70	0.048977315
46	0xb9a81111	-0.00032056172
47	0xb901aed7	-0.00012367532
48	0xbaaf9bb9	-0.0013397849
49	0x3dd7f67c	0.1054506
50	0xbdd94ed9	-0.10610742
51	0x3ceb4af3	0.028722262
52	0x3e18b4c6	0.1491271
53	0xb99ecf34	-0.00030290487
54	0xb8ce2a01	-9.830669e-05
55	0xba100cfb	-0.00054950983
56	0xbbc9d47d	-0.006159364
57	0xbbaed850	-0.005335845
58	0x3c139656	0.009008011
59	0xbd00735d	-0.03136002
60	0xb9c8a481	-0.00038269538
61	0xbcf993fa	-0.030466069
62	0xbd1acbb2	-0.037791915
63	0xbca50060	-0.02014178
64	0xb98a7979	-0.00026411915
65	0xb94162c3	-0.00018442706
66	0x3d811b92	0.06304087
67	0x3cdd3ab7	0.027005536
68	0xbbb45cff	-0.00550425
69	0xbd1b78e6	-0.037957095
70	0xbdd5cd56	-0.10439555
71	0x3a486806	0.0007644895
72	0xbd6f3cab	-0.058407467
73	0xbb3fb71c	-0.0029253429
74	0xb9aec9e3	-0.00033338284
75	0xbc823443	-0.015894061
76	0xbdb1eac9	-0.0868736
77	0xb99488e5	-0.00028330754
78	0x3c9d06d3	0.019168293
79	0xb9749832	-0.0002332635
80	0x3d90a78f	0.07063209
81	0xbde62a12	-0.11238493
82	0x3db4c953	0.08827462
83	0xb9fd0d82	-0.00048265985
84	0x3d6ea3eb	0.058261793
85	0xbdcbdf02	-0.09954645
86	0xbd3e9e80	-0.046537876
87	0xbe3a9e52	-0.18224457
88	0xb96f303e	-0.00022810788
89	0xb943a3f1	-0.00018657722
90	0xbb2d11bd	-0.0026408278
91	0x3e73eb35	0.23820193
92	0x3b1c6572	0.0023864177
93	0xbaf7bab1	-0.0018900243
94	0xbc647044	-0.013942782
95	0xb93e813f	-0.0001816796
96	0x3de55a08	0.11198813
97	0xbba5ab20	-0.0050558
98	0x3d18a68c	0.037268206
99	0x3e6e779d	0.23287816
100	0x3d2205b8	0.039556235
101	0x3bb2edbb	0.0054604686
102	0xbad927be	-0.001656763
103	0xb987d2b6	-0.00025906198
104	0xb9ccfe30	-0.00039099297
105	0x3e97bc21	0.29635718
106	0xba1bde75	-0.00059459294
107	0xb8cf07f7	-9.872013e-05
108	0xb977cb11	-0.00023631404
109	0x3d8c375e	0.06846498
110	0xbbcefdfa	-0.0063168975
111	0x3d51c08a	0.05120901
112	0xb9014b24	-0.00012330391
113	0x3de6397b	0.11241432
114	0xbc64776f	-0.013944491
115	0xb9b9f8ca	-0.00035471312
116	0xb9cfa8c1	-0.00039607848
117	0x3d912e6e	0.07088934
118	0xbbacb03d	-0.0052700327
119	0xbbfb490e	-0.007668621
120	0x3e294514	0.16530257
121	0xbca80eb0	-0.020514816
122	0x3df1745c	0.11789772
123	0xbdc1c69a	-0.09461708
124	0x3c5caa3a	0.01346832
125	0x3daeb63c	0.08530852
126	0xbd22f86e	-0.039787702
127	0xbd09e59b	-0.033666234
128	0xbb847771	-0.004042559
129	0xb9f34c6b	-0.00046405508
130	0x3de7a542	0.11310817
131	0xbc8e4632	-0.017367456
132	0xbde9bb7a	-0.114127114
133	0x3ccc44b0	0.024935097
134	0x3df4b011	0.119476445
135	0xbd978963	-0.07399251
136	0xba10b3aa	-0.0005519936
137	0x3dadb7c5	0.08482317
138	0xbc4897da	-0.0122432355
139	0xb9877762	-0.00025838154
140	0x3e8251cd	0.25453034
141	0xba4bac70	-0.00077695306
142	0xba96c9b1	-0.00115042
143	0x3e08c663	0.13356929
144	0xb97188b3	-0.00023034475
145	0xb9ec1fae	-0.0004503703
146	0x3e6c6618	0.2308582
147	0xb90f7853	-0.00013682367
148	0xb97afae2	-0.00023935319
149	0xb9aa486c	-0.00032478885
150	0xba13b1bc	-0.00056340895
151	0xb9b0c0ce	-0.00033712987
152	0x3d457631	0.04820842
153	0x3d3550a1	0.044266347
154	0x3d7960e9	0.060883436
155	0xbabbd965	-0.0014331756
156	0xba8f0015	-0.0010910059
157	0x3e87451c	0.26419914
158	0xb970af83	-0.00022953567
159	0x3e155ac5	0.14585407
160	0x3e290acd	0.16508026
161	0x3cc47600	0.023982048
162	0x3e1f3ac3	0.1554976
163	0xb97856ec	-0.00023683504
164	0xbe259479	-0.16169919
165	0xbd4af1e9	-0.04954711
166	0x3e210372	0.1572397
167	0xb99a9273	-0.00029482282
168	0x3df0c99a	0.117572024
169	0xbb0eb04e	-0.0021772566
170	0x3e764817	0.24050938
171	0x3e13d075	0.14434989
172	0x3e8b383e	0.27191347
173	0xbdd6b77e	-0.10484217
174	0xbbe89272	-0.0070975358
175	0xb949595c	-0.00019202143
176	0xbc0292be	-0.007969556
177	0xbc77b3d8	-0.015118562
178	0x3e79f386	0.24409303
179	0xb94e4d4c	-0.00019674486
180	0xbd12ea67	-0.035868075
181	0xbe3768d3	-0.17911081
182	0x3d4a5235	0.049394805
183	0x3db528b3	0.088456534
184	0x3cb7340e	0.022363689
185	0xbdcbb9f6	-0.099475786
186	0x3dca5b02	0.098806396
187	0xbc2b269d	-0.010446218
188	0xba42a3b3	-0.0007424906
189	0xb9472151	-0.0001899053
190	0xb96825f5	-0.00022139384
191	0xb99025ed	-0.00027494077
192	0x3da6477c	0.08119103
193	0xbd03049d	-0.03198682
194	0x3c854955	0.016270319
195	0xbb629116	-0.0034571341
196	0xbde9b847	-0.11412101
197	0xba0a2015	-0.0005269063
198	0xbdda324b	-0.10654124
199	0x3d1f787c	0.038933262
200	0x3d5a3080	0.05326891
201	0x3bf7e674	0.007565314
202	0xb9a88118	-0.0003213964
203	0x3d119bc7	0.03554895
204	0xba0af8eb	-0.0005301374
205	0xbdc7da84	-0.097584754
206	0xb9ed83c6	-0.00045302341
207	0xba21f416	-0.0006178034
208	0x3df0c306	0.11755948
209	0xb93d0143	-0.00018024915
210	0xb9b5a0f5	-0.00034642933
211	0xb97d01a8	-0.00024128577
212	0xbceca31e	-0.028886374
213	0xbc25f9af	-0.01013033
214	0x3d012cd5	0.031536896
215	0xb9400f54	-0.00018316257
216	0xb9b061e2	-0.00033642264
217	0x3e2199a2	0.15781263
218	0xbd6b4a8e	-0.057444148
219	0xbbbd38b8	-0.0057745837
220	0x3e251c03	0.16123967
221	0x3db1017d	0.08642862
222	0xbaf4c129	-0.0018673289
223	0xbe324fa4	-0.17413193
224	0xbc394526	-0.01130799
225	0xbbbe9767	-0.0058163884
226	0xbb273658	-0.002551457
227	0xbbd7ee8f	-0.0065897177
228	0x3d81bf56	0.063353226
229	0xb9767560	-0.00023504114
230	0xbcdf0ef7	-0.027228815
231	0xbc8741f0	-0.016510934
232	0x3cf6f315	0.030145207
233	0x3cbc794e	0.023007061
234	0xb9d29ddd	-0.0004017194
235	0x3c03a82f	0.008035704
236	0xbc873388	-0.016504064
237	0x3e872f04	0.26403058
238	0xbbb1835c	-0.0054172706
239	0xbc091266	-0.008366203
240	0x3e212aa7	0.15738927
241	0xb94146fc	-0.00018432358
242	0xba23f6d2	-0.00062547356
243	0x3d402779	0.046912644
244	0x3b141c33	0.0022599816
245	0xbb05f0a6	-0.0020437627
246	0x3df139af	0.117785804
247	0x3c46b7ca	0.01212878
248	0xbb73e381	-0.003721446
249	0xbc2c856d	-0.010529858
250	0xbbf9e064	-0.0076256264
251	0xb9519bc0	-0.00019989815
252	0x3dee5a72	0.11638345
253	0xbda226f0	-0.07917583
254	0x3e6df7fe	0.23239133
255	0xbc3b5cc8	-0.011435695

model.6.weight f4 [1, 256]
0	0x3edc6bcb	0.4305099
1	0x3e5df5e8	0.21675837
2	0x3916660e	0.00014343133
3	0xbf969933	-1.1765503
4	0x3bb56b76	0.005536492
5	0x3ea05b45	0.31319633
6	0x3ee85360	0.4537611
7	0xbf3db895	-0.74109775
8	0xc04bd37e	-3.1847835
9	0x3c84625b	0.01616018
10	0x399f0f76	0.00030338363
11	0x3aacf9ee	0.0013197043
12	0x3ea08b16	0.31356114
13	0xb847eb84	-4.766464e-05
14	0xbf29ba8a	-0.6630026
15	0x3b498792	0.0030750972
16	0xbf39b5e0	-0.72543144
17	0x397c45b6	0.00024058562
18	0x382303bf	3.8865717e-05
19	0xbfa65336	-1.2994144
20	0xbf2bcf20	-0.6711292
21	0xc034feb9	-2.828047
22	0xc05cf6d8	-3.4525661
23	0xbf790eab	-0.97288007
24	0xba025f18	-0.00049732765
25	0x3f2835ba	0.6570698
26	0x3a7daa0a	0.0009676522
27	0x3ed1283b	0.40851006
28	0x3e31459c	0.1731171
29	0xbf30a641	-0.69003683
30	0xc084c4af	-4.149009
31	0xc0349e07	-2.8221452
32	0xbfdc27d8	-1.7199659
33	0x4045382d	3.0815537
34	0xb71f048d	-9.478198e-06
35	0x38d50b3b	0.00010158723
36	0xc03b5339	-2.9269545
37	0x402be522	2.6858602
38	0xbf678378	-0.9043498
39	0x3f0a7727	0.5408806
40	0x3f1822cb	0.5942809
41	0xc0050e62	-2.0790029
42	0xbfdfd2d1	-1.7486211
43	0x3f17b4b5	0.5926011
44	0xbf46b907	-0.7762608
45	0x3df7b077	0.12094205
46	0x39453ec2	0.00018810763
47	0x39eefc0a	0.0004558268
48	0xba20d197	-0.0006134747
49	0xbfcaf150	-1.5854893
50	0xc05e0f54	-3.4696856
51	0xbd9d86ef	-0.07691752
52	0x3f615683	0.8802263
53	0x39c3fbb5	0.00037380835
54	0x39bafb9e	0.00035664154
55	0xb9fad92d	-0.00047845524
56	0xbfbd8c5c	-1.4808459
57	0x3af9719d	0.0019031052
58	0xc0840841	-4.1260076
59	0xbfe5b3e0	-1.7945518
60	0x39887de0	0.00026033726
61	0xc0356fa3	-2.8349388
62	0xbf3f4a4a	-0.7472273
63	0xc07d030d	-3.9533112
64	0x3a98c904	0.0011656587
65	0x38a21b42	7.729839e-05
66	0xbf4e07c0	-0.80480576
67	0xc153e730	-13.243942
68	0xbb0df06c	-0.0021658195
69	0xbf19a5a2	-0.6001836
70	0xc02b717c	-2.6788015
71	0xbf2d65e8	-0.6773362
72	0xbfe4852e	-1.7853143
73	0x3b40036e	0.002929892
74	0x384dc010	4.905468e-05
75	0x3aaea79b	0.0013325097
76	0xc0599d4e	-3.400226
77	0x3a00a657	0.0004907599
78	0x409a7355	4.8265786
79	0xb9e4245e	-0.00043514644
80	0x3e2635b8	0.1623143
81	0xc080d0ad	-4.025473
82	0xbfc31f18	-1.5243864
83	0x3996c931	0.0002876013
84	0xc062e76c	-3.5453749
85	0xbed51c8e	-0.41623348
86	0xbf94a9d6	-1.161433
87	0xc07d8251	-3.961079
88	0x39967db2	0.0002870388
89	0x398ff7cd	0.0002745971
90	0xc06a88a7	-3.6645906
91	0x3e2aea55	0.16690953
92	0xc03906cf	-2.8910406
93	0xb6064d52	-2.0012562e-06
94	0xbc19779e	-0.009366898
95	0x383da2f0	4.521286e-05
96	0x3ef23e1e	0.47313017
97	0x3b31a8b6	0.0027108616
98	0xbeb61151	-0.35560086
99	0x3e224e82	0.15850261
100	0xbfa9bce5	-1.3260771
101	0xbf7bf08c	-0.9841392
102	0x3a874841	0.0010321216
103	0x3925c200	0.00015807897
104	0x3874302d	5.8219e-05
105	0x3ebe2d8d	0.37144127
106	0x39145312	0.00014145326
107	0x39219564	0.00015409809
108	0x38d32e65	0.00010069906
109	0xc13ea997	-11.916404
110	0xb9bc8d21	-0.00035963304
111	0xbf2238ac	-0.63367724
112	0xba445f81	-0.0007491038
113	0x3ef22eee	0.4730143
114	0xc15157fb	-13.08398
115	0x3a90401d	0.0011005435
116	0x37f89895	2.9634955e-05
117	0xc049a50c	-3.1506987
118	0xc101a029	-8.101602
119	0xbf7c42e5	-0.9853957
120	0xc0378751	-2.867634
121	0xbf8dd3cc	-1.108026
122	0x3ea057fa	0.3131712
123	0xc0032fa9	-2.049784
124	0xbfa6d840	-1.3034744
125	0x4010bb35	2.2614262
126	0xc0f1876b	-7.5477805
127	0xc045ac6f	-3.0886495
128	0x3b395a8d	0.0028282732
129	0x38b77243	8.747403e-05
130	0x3e921675	0.28532758
131	0xbf91b0e9	-1.1382114
132	0xc07ffc6c	-3.9997816
133	0xbfe9604b	-1.8232511
134	0x3ef380ef	0.47559306
135	0xc06cf0ec	-3.7022047
136	0x3a0fc8d2	0.00054849416
137	0x3e4ec317	0.20191608
138	0x3c481e76	0.012214294
139	0x39fcaf40	0.00048195757
140	0x3e435429	0.19075073
141	0x396447a1	0.00021770458
142	0x39d5866a	0.00040726672
143	0x3ec7f129	0.39051178
144	0x3a065824	0.00051248283
145	0x399cd669	0.00029914387
146	0x3e859ab5	0.26094595
147	0xb91554f3	-0.00014241393
148	0x39816ae1	0.00024684428
149	0x38007848	3.06296e-05
150	0x39a66979	0.0003174057
151	0x39b7941d	0.00035014833
152	0xbe6d89f2	-0.23197153
153	0xbf196acf	-0.599286
154	0xbf9ebad0	-1.2400761
155	0x39565b43	0.00020442628
156	0x390c9311	0.00013406227
157	0x3e503524	0.20332772
158	0x362c7d16	2.5702807e-06
159	0x3f98bc75	1.1932513
160	0x3f0b1f9a	0.54345095
161	0x40789b66	3.8844848
162	0x3e7a775e	0.24459597
163	0x3a3f57e1	0.0007299167
164	0xbe8f61df	-0.28004357
165	0xbf499ce3	-0.78755015
166	0x3eaeb44e	0.34121937
167	0x395661bf	0.00020445044
168	0x3ea044a3	0.31302366
169	0xc040501f	-3.0048902
170	0x3e2e127c	0.16999239
171	0x3f99ed0f	1.202547
172	0x3e5eb90e	0.2175028
173	0x4088ce92	4.275216
174	0x39e026a5	0.00042753402
175	0x3aa66861	0.0012695902
176	0xc13c7cf7	-11.780509
177	0x3b258234	0.002525461
178	0x3e321bb7	0.17393385
179	0x37f327a2	2.8986313e-05
180	0xc0253c35	-2.5817997
181	0xbf1c3ad1	-0.61027247
182	0xbf4744d9	-0.7783943
183	0xbf7dfb30	-0.99211407
184	0xbfb85f64	-1.4404111
185	0xc02485ad	-2.570659
186	0xbf2e2f8f	-0.6804132
187	0x3be873ff	0.007093906
188	0x39dd429f	0.0004220204
189	0x38ee097d	0.00011350492
190	0x395fe77f	0.00021353176
191	0xba06c9c7	-0.00051417615
192	0xc05d0cd3	-3.4539077
193	0xc006032c	-2.0939436
194	0xbf9472f2	-1.1597579
195	0x3a0aeb4f	0.0005299346
196	0xc068342c	-3.6281843
197	0x395b2652	0.00020899743
198	0xbfdaecff	-1.7103575
199	0x3ffa6cbb	1.9564432
200	0xbf9aa49a	-1.2081482
201	0xbfa1d96d	-1.2644478
202	0x39c74976	0.0003801097
203	0xc01aac61	-2.4167712
204	0xb9a6f33d	-0.00031843214
205	0xc0756d6c	-3.8348036
206	0x39c5ae68	0.0003770471
207	0x39540cb8	0.00020222634
208	0x3ea038c5	0.31293312
209	0x39388cf2	0.00017600114
210	0xb72d539d	-1.0331071e-05
211	0x38445f92	4.681905e-05
212	0x409d48c1	4.915131
213	0x3be6d144	0.0070439894
214	0xc04a7615	-3.1634572
215	0x3932b32c	0.0001704215
216	0x39485d8c	0.00019108335
217	0x3eafdf69	0.34350136
218	0xc0af1b1c	-5.4720592
219	0x3b160a74	0.0022894414
220	0x3f200780	0.62511444
221	0x3e833f45	0.25634208
222	0xc02a6d00	-2.6629028
223	0xc03b5719	-2.927191
224	0x3c06c2f0	0.008225188
225	0xbf21c50a	-0.6319128
226	0x3aefe4b5	0.0018302413
227	0x3a1bce95	0.0005943564
228	0xbfbd20ba	-1.4775612
229	0x394edca2	0.00019727883
230	0xbfe20d4b	-1.7660307
231	0xbfb024ad	-1.3761193
232	0xbf99f385	-1.2027441
233	0xc03051aa	-2.7549844
234	0x396683d1	0.00021983615
235	0xbfe5e876	-1.7961566
236	0xbba2b3c9	-0.0049652797
237	0x3e93be59	0.2885616
238	0x3b3fa7f8	0.0029244404
239	0xb6c3a254	-5.8303503e-06
240	0x3eaedfc5	0.34155098
241	0x388505d0	6.343017e-05
242	0x3a50b9a7	0.00079622347
243	0xbf30ad10	-0.6901407
244	0x408988c5	4.2979455
245	0x39890be2	0.0002613953
246	0x3e9fef01	0.31237033
247	0xc0cbf61c	-6.3737926
248	0xbad0706b	-0.0015902644
249	0x3b5e4cdb	0.003392032
250	0x3b22950a	0.0024808072
251	0x3a0937c4	0.0005234445
252	0xc0c5b812	-6.1787195
253	0x4014a2c1	2.3224337
254	0x3e21c13c	0.1579637
255	0xbf2fb919	-0.6864181
