Customize/example.pt (torch, 4744 bytes, 5 tensors)

fc1.weight f4 [16, 2]
00000000: d0c1 8d3f a7cc 70bd 8930 7abf 17eb 9f3f
00000010: 0082 9abf 6269 8abf 47e1 7b3e 0561 9dbf
00000020: 93f2 b7bf fdff a3be 15da 09be 72b8 b4be
00000030: 4e57 a43f ac29 423f 7a4c b1bb 1dd3 07be
00000040: 7ca5 bbbe 0c5f 073d ea7b 843e 9137 ba3f
00000050: eb4a b4be dd38 423e 9883 9abf 7a34 4f3f
00000060: 9d9e 983e 7ad7 223d 8c7a 813f dfd3 51bf
00000070: a42e b5be feb4 9abf 593e 0b3f e5db fbbe
1.1074772 -0.05878892 -0.9773031 1.2493619 -1.2070923 -1.081341 0.24597655 -1.2295233
-1.4370903 -0.3203124 -0.13462098 -0.3529697 1.2839143 0.75844836 -0.005410728 -0.13264127
-0.36649692 0.03304963 0.2587579 1.4548208 -0.35213408 0.18967004 -1.2071409 0.8093945
0.29808512 0.039756276 1.0115523 -0.81963915 -0.35387146 -1.2086484 0.5439201 -0.49191204

fc1.bias f4 [16]
00000000: bcfa c2be 35ee 20bf 8998 23bf ab84 0cbf
00000010: d9e3 2cbf 70b7 963f f5fa 00bf 1167 debe
00000020: 01a2 753f 3616 dabe 3938 4f3f e313 c2be
00000030: 57b6 573f bd6f eabe 98a5 d9be bb1d c63d
-0.3808192 -0.62863475 -0.63904625 -0.54889935 -0.6753517 1.1774731 -0.5038293 -0.43438008
0.95950323 -0.4259507 0.80945164 -0.37905797 0.84262604 -0.45788375 -0.4250915 0.096736394

fc2.weight f4 [32, 16]
00000000: ee4f 583f df70 3b3f bd60 093f d38f d03e
00000010: b7f8 dd3e 8900 7abd 9a25 103f 483d 143e
00000020: 6f28 9abe 961b 123f a969 5b3d 2615 2e3f
00000030: f01d 4dbe 7654 243f d1e3 303f 8259 723e
00000040: bbdb 3f3f d6f0 b63e f9f4 043f 5fb6 4a3f
00000050: d9ac d93e a2de 91be 2a9b df3e b436 c13d
00000060: 8f6e 8bbe 7e9b 2c3f 689e d63d dd08 db3e
00000070: c43e e5bd c407 d43e 4a08 103f a200 2bbd
00000080: f1e2 ca3e b682 393f 111d ee3e 29eb 493f
00000090: be32 193f ee8a f0be e5e7 1e3f a447 093e
000000a0: a97e 2fbe def1 0e3f 9b67 6dbc 8ce6 d03e
000000b0: 3f69 acbe ffae 383f e8ba 2d3f b52e ba3e
000000c0: 110c 4a3f aad6 473f 5e69 493f 40cb 593f
000000d0: f571 263f 20da dcbe fa85 283f 38ce cbbd
000000e0: 95f5 1abe e893 4e3f 71ab 2ebe cfee 143f
000000f0: 4186 9cbe 7eff 443f 338e ec3e 92b0 813e
00000100: 6630 e9bd b0ce 053e 4b26 063d 5a23 6f3e
00000110: 8d80 d33d 4fee cb3d 7990 923e 103d 203d
00000120: 281b 9c3e 82b9 f03d dfd6 3c3e 6e6c 173e
00000130: 626f 913c 786f 783e 3d63 a8bd 8c9c 50be
00000140: 3745 4abe 3312 083e 77bd 57be 8a35 05be
00000150: 6bf7 9fbe 75e1 793e 06d9 93bd 1e6c 11be
00000160: a394 bbbd cc3a 7ebe bd13 d63c c542 80be
00000170: c905 76be 2c0f 2cbe a12e 79be e10b 1b3e
00000180: 686a 313f 737d cd3e d2cc 653f 0550 503f
00000190: 1451 373f 5420 2abf 9a0b 1d3f 58ab b93d
000001a0: cc30 40be 02d7 253f 7fda 2f3e 3638 133f
000001b0: b1a6 67be 6327 153f 957c f53e 46b9 303f
000001c0: 21bd 3e3f 0e19 f83e 0b17 1e3f c449 ff3e
000001d0: 8b6b 223f bcb9 86be 3f5e 413f 009e abba
000001e0: 285a c3be ef29 ee3e b92b 8dbc 59bb 293f
000001f0: 31f6 4dbe afd2 4a3f b7ed 2e3f 3268 7d3d
00000200: af68 92be 71b8 c73d bc10 8dbe e54d 54be
00000210: 8904 79be 5ce2 323c d089 6a3d 5e1b 233e
00000220: 64f9 223d 2a7a 8ebe 1108 7fbe 61ac fb3d
00000230: fc86 4e3d c268 943d 056b a7bd dfa3 0dbe
00000240: c812 d33e 40e1 313f f46d 533f 9dba 1d3f
00000250: a6e9 dd3e d523 59be ffa4 9d3e e0a2 5f3c
00000260: 3101 5cbe f7ea 2f3f 7b93 22be 1f6a c83e
00000270: 5d09 11be 36ea 013f 6773 373f 115a 983e
00000280: 0456 f43e 04dd de3e 3218 f03e 40d7 aa3e
00000290: 38c4 7e3e 9558 f4bd 9d48 093e 002a 74be
000002a0: 6ef5 37be 1e5c 473e d383 b93c cc47 e83d
000002b0: 813d e9bd 4b5c f03e fa10 8f3e 625a 34be
000002c0: 9a6f 273e f276 fb3e 490c 8f3e 9f98 1a3f
000002d0: adfb dd3e 1101 5bbe cb7e 953e f09e d4bc
000002e0: bd5c 8fbe 4f94 ae3e 3fc2 01bd cd34 bb3e
000002f0: 6e6f e1bc aeed 9d3e a4bd 143f 7be8 2b3e
00000300: c765 febe 48bb 10bf 5dd3 ccbe 6105 29bf
00000310: bb98 2bbf 209f f83e 9faa 18bf f857 933d
00000320: 0f97 033f 0988 17bf b105 103f c60f 86bc
00000330: 02f3 3b3f af65 1bbf 8279 ecbd ce22 c33e
00000340: 67a0 3d3f 000d 053f dd01 e73e 500e f43e
00000350: cf88 263f efa5 a43b 6e56 253f 38bf 22bd
00000360: 5b9e c7be 41ed 163f ad0b c9bc d44c 433f
00000370: 41be 55be 5c0a e43e fc03 053f a377 853d
00000380: da7f d23e 012a 063f 9117 eb3e fdfa 0b3f
00000390: fbb9 433e b9be efbd 8021 9a3e e882 1b3e
000003a0: 25e0 a6be b319 1e3e ebba 753d 8faa ab3e
000003b0: eec6 1f3d d2fd 143e 30c3 563e 3d8b b33d
000003c0: 17a3 eb3e b4f4 253f 1017 313f d28d 593f
000003d0: a043 693f 1b49 a2be 8a48 603f 966b 6bbe
000003e0: be6e bebd 34a5 273f a2b3 3cbe ef8f 0c3f
000003f0: 3429 9cbe 65c9 383f 7fb5 303f 318f c33e
0.84496963 0.732191 0.53663236 0.4073473 0.43353817 -0.061035667 0.56307375 0.14476502
-0.30108973 0.5707334 0.053567562 0.6800102 -0.20030951 0.6419138 0.6909762 0.23666957
0.7494466 0.35730618 0.519363 0.79184526 0.42514685 -0.28490168 0.43673068 0.09434262
-0.27232787 0.6742476 0.10479432 0.427802 -0.11193612 0.41412175 0.5626265 -0.04174865
0.39626268 0.72465074 0.4650655 0.7887445 0.5984305 -0.46980995 0.6207259 0.13406235
-0.17138161 0.5583781 -0.0144900335 0.40800893 -0.33674046 0.7214202 0.6786332 0.3636376
0.7892466 0.78061926 0.786764 0.8507576 0.65017635 -0.43135166 0.6582943 -0.099514425
-0.15132745 0.8069444 -0.17057587 0.58176893 -0.30571178 0.7695235 0.4620224 0.25330025
-0.113861844 0.13067126 0.032751363 0.2335333 0.103272535 0.09957563 0.2862585 0.039120734
0.3048947 0.11754133 0.18441342 0.14787456 0.017753307 0.24261272 -0.08222053 -0.20372218
-0.19752966 0.13288192 -0.21068369 -0.13008705 -0.31243452 0.24402411 -0.07219128 -0.142014
-0.091592096 -0.24827117 0.026132459 -0.2505094 -0.24025644 -0.16802663 -0.24334194 0.1514125
0.6930299 0.40134773 0.89765656 0.813721 0.7160809 -0.6645558 0.6134583 0.09065884
-0.18768615 0.647812 0.17173193 0.57507646 -0.22622181 0.58263224 0.4794661 0.69032705
0.7450734 0.48456615 0.6175391 0.49860966 0.6344535 -0.2631358 0.75534433 -0.0013093352
-0.3815472 0.46516368 -0.017232763 0.66301495 -0.20113446 0.7922773 0.68331474 0.061866947
-0.28595492 0.09751976 -0.2755183 -0.2073284 -0.24318136 0.010918226 0.057260334 0.15928409
0.03978862 -0.2782758 -0.24905421 0.12288738 0.0504217 0.072465435 -0.08174709 -0.13832043
0.41225266 0.6948433 0.8258965 0.61612874 0.43342322 -0.21205075 0.30789945 0.013649672
-0.2148483 0.687179 -0.15876572 0.39143464 -0.14163728 0.50748 0.71660465 0.29756215
0.47721875 0.43527997 0.4689346 0.33367348 0.24879539 -0.11930958 0.13406606 -0.23844147
-0.17964718 0.19468734 0.022645866 0.11341819 -0.11388684 0.46945414 0.2794264 -0.17612603
0.16351166 0.49114186 0.2793906 0.6038913 0.43356076 -0.21387126 0.29198298 -0.025954694
-0.2800044 0.34097525 -0.031679388 0.3656372 -0.027518954 0.30845398 0.5810187 0.16787903
-0.49687025 -0.5653577 -0.40005007 -0.6602383 -0.67029923 0.48558903 -0.5963535 0.07194513
0.5140237 -0.5919195 0.56258684 -0.016364943 0.73417675 -0.6070203 -0.11546613 0.3811249
0.7407288 0.5197296 0.4511861 0.4766717 0.65052503 0.0050246636 0.64585006 -0.03973314
-0.38988003 0.5895577 -0.0245417 0.76289105 -0.20873357 0.44539154 0.51959205 0.065169595
0.41113168 0.5240784 0.45916417 0.5467985 0.19113915 -0.11706299 0.30103683 0.15186656
-0.32592884 0.15439491 0.059992712 0.33528563 0.039008074 0.1454995 0.20972896 0.08766792
0.46022865 0.6482651 0.69175816 0.84982026 0.9111881 -0.316964 0.87610686 -0.2299026
-0.09298466 0.65486455 -0.184279 0.54907125 -0.30500185 0.72182304 0.6902694 0.38195184

fc2.bias f4 [32]
00000000: 765c ffbe d4eb 41be bc5c efbc 8097 21be
00000010: 06db 913e 42aa 9bbe 07e8 29be 7382 b1bd
00000020: 9f79 a7be 535b 5ebe d26a d23b 0548 27bd
00000030: eb2a 283f b977 a3be a1fd d7bd 30a6 bbbe
00000040: 889c b5be 273b 9bbd 8001 4c3f e244 2a3f
00000050: cdbb eabe ddbd 98bd 8b0a 223f 2c22 efbc
00000060: 2a96 5fbe de15 61be a330 f8bd 116a 9bbe
00000070: dfa9 71be 3a44 b7bc 097d 45be 9adc 9abe
-0.4987523 -0.18937618 -0.029219024 -0.15780449 0.28487414 -0.30403334 -0.16592418 -0.08667459
-0.32709977 -0.21714525 0.0064214254 -0.040840168 0.6569049 -0.3192728 -0.10546423 -0.36650229
-0.35470986 -0.07579642 0.7968979 0.66511357 -0.45846406 -0.074580885 0.6329734 -0.0291911
-0.21834627 -0.21980998 -0.12118652 -0.3035436 -0.23599957 -0.0223714 -0.19285978 -0.3024643

fc3.weight f4 [1, 32]
00000000: 7aef 2fbf 92f8 33bf ad56 46bf 8cc0 20bf
00000010: b935 d83d 8882 a03c 0fed 64bf b9a4 dcbe
00000020: f5ea f8ba 1361 55bf a8a3 80be d3db c1be
00000030: 0cc6 493f 8619 45bf f92c c6be cab7 51bf
00000040: 8e50 34bf 7bc4 24bf ae5d 483f f06d ff3e
00000050: 27dd d4be dbc3 0fbf 91af 143f 89db 2abf
00000060: 661d 753c 8a54 95bd 834f c4be 9766 64bf
00000070: afa3 5dbc 7533 63be a5b1 01bf 1ad4 08bf
-0.6872479 -0.70301163 -0.77476007 -0.62793803 0.10557122 0.019593492 -0.8942422 -0.43094423
-0.0018990921 -0.8335125 -0.2512486 -0.37863025 0.7881782 -0.7699207 -0.38706186 -0.81921065
-0.70435417 -0.64362305 0.78267944 0.49888563 -0.41574976 -0.56158227 0.58080393 -0.66741234
0.014960622 -0.07291515 -0.38341913 -0.8921904 -0.013527795 -0.22187598 -0.5066169 -0.5344864
