Benchmarks/onnx/decima_mid_marabou_2.onnx (onnx, 38933 bytes, 28 tensors)

summ_mats f4 [20, 20]
00000000: 0000 0000 0000 803f 0000 803f 0000 803f
00000010: 0000 803f 0000 803f 0000 803f 0000 0000
00000020: 0000 0000 0000 0000 0000 0000 0000 0000
00000030: 0000 0000 0000 0000 0000 0000 0000 0000
00000040: 0000 0000 0000 0000 0000 0000 0000 0000
00000050: 0000 0000 0000 0000 0000 0000 0000 0000
00000060: 0000 0000 0000 0000 0000 0000 0000 803f
00000070: 0000 803f 0000 803f 0000 803f 0000 803f
00000080: 0000 803f 0000 0000 0000 0000 0000 0000
00000090: 0000 0000 0000 0000 0000 0000 0000 0000
000000a0: 0000 0000 0000 0000 0000 0000 0000 0000
000000b0: 0000 0000 0000 0000 0000 0000 0000 0000
000000c0: 0000 0000 0000 0000 0000 0000 0000 0000
000000d0: 0000 0000 0000 0000 0000 0000 0000 0000
000000e0: 0000 0000 0000 0000 0000 0000 0000 0000
000000f0: 0000 0000 0000 0000 0000 0000 0000 0000
00000100: 0000 0000 0000 0000 0000 0000 0000 0000
00000110: 0000 0000 0000 0000 0000 0000 0000 0000
00000120: 0000 0000 0000 0000 0000 0000 0000 0000
00000130: 0000 0000 0000 0000 0000 0000 0000 0000
00000140: 0000 0000 0000 0000 0000 0000 0000 0000
00000150: 0000 0000 0000 0000 0000 0000 0000 0000
00000160: 0000 0000 0000 0000 0000 0000 0000 0000
00000170: 0000 0000 0000 0000 0000 0000 0000 0000
00000180: 0000 0000 0000 0000 0000 0000 0000 0000
00000190: 0000 0000 0000 0000 0000 0000 0000 0000
000001a0: 0000 0000 0000 0000 0000 0000 0000 0000
000001b0: 0000 0000 0000 0000 0000 0000 0000 0000
000001c0: 0000 0000 0000 0000 0000 0000 0000 0000
000001d0: 0000 0000 0000 0000 0000 0000 0000 0000
000001e0: 0000 0000 0000 0000 0000 0000 0000 0000
000001f0: 0000 0000 0000 0000 0000 0000 0000 0000
00000200: 0000 0000 0000 0000 0000 0000 0000 0000
00000210: 0000 0000 0000 0000 0000 0000 0000 0000
00000220: 0000 0000 0000 0000 0000 0000 0000 0000
00000230: 0000 0000 0000 0000 0000 0000 0000 0000
00000240: 0000 0000 0000 0000 0000 0000 0000 0000
00000250: 0000 0000 0000 0000 0000 0000 0000 0000
00000260: 0000 0000 0000 0000 0000 0000 0000 0000
00000270: 0000 0000 0000 0000 0000 0000 0000 0000
00000280: 0000 0000 0000 0000 0000 0000 0000 0000
00000290: 0000 0000 0000 0000 0000 0000 0000 0000
000002a0: 0000 0000 0000 0000 0000 0000 0000 0000
000002b0: 0000 0000 0000 0000 0000 0000 0000 0000
000002c0: 0000 0000 0000 0000 0000 0000 0000 0000
000002d0: 0000 0000 0000 0000 0000 0000 0000 0000
000002e0: 0000 0000 0000 0000 0000 0000 0000 0000
000002f0: 0000 0000 0000 0000 0000 0000 0000 0000
00000300: 0000 0000 0000 0000 0000 0000 0000 0000
00000310: 0000 0000 0000 0000 0000 0000 0000 0000
00000320: 0000 0000 0000 0000 0000 0000 0000 0000
00000330: 0000 0000 0000 0000 0000 0000 0000 0000
00000340: 0000 0000 0000 0000 0000 0000 0000 0000
00000350: 0000 0000 0000 0000 0000 0000 0000 0000
00000360: 0000 0000 0000 0000 0000 0000 0000 0000
00000370: 0000 0000 0000 0000 0000 0000 0000 0000
00000380: 0000 0000 0000 0000 0000 0000 0000 0000
00000390: 0000 0000 0000 0000 0000 0000 0000 0000
000003a0: 0000 0000 0000 0000 0000 0000 0000 0000
000003b0: 0000 0000 0000 0000 0000 0000 0000 0000
000003c0: 0000 0000 0000 0000 0000 0000 0000 0000
000003d0: 0000 0000 0000 0000 0000 0000 0000 0000
000003e0: 0000 0000 0000 0000 0000 0000 0000 0000
000003f0: 0000 0000 0000 0000 0000 0000 0000 0000
0.0 1.0 1.0 1.0 1.0 1.0 1.0 0.0
0.0 0.0 0.0 0.0 0.0 0.0 0.0 0.0
0.0 0.0 0.0 0.0 0.0 0.0 0.0 0.0
0.0 0.0 0.0 1.0 1.0 1.0 1.0 1.0
1.0 0.0 0.0 0.0 0.0 0.0 0.0 0.0
0.0 0.0 0.0 0.0 0.0 0.0 0.0 0.0
0.0 0.0 0.0 0.0 0.0 0.0 0.0 0.0
0.0 0.0 0.0 0.0 0.0 0.0 0.0 0.0
0.0 0.0 0.0 0.0 0.0 0.0 0.0 0.0
0.0 0.0 0.0 0.0 0.0 0.0 0.0 0.0
0.0 0.0 0.0 0.0 0.0 0.0 0.0 0.0
0.0 0.0 0.0 0.0 0.0 0.0 0.0 0.0
0.0 0.0 0.0 0.0 0.0 0.0 0.0 0.0
0.0 0.0 0.0 0.0 0.0 0.0 0.0 0.0
0.0 0.0 0.0 0.0 0.0 0.0 0.0 0.0
0.0 0.0 0.0 0.0 0.0 0.0 0.0 0.0
0.0 0.0 0.0 0.0 0.0 0.0 0.0 0.0
0.0 0.0 0.0 0.0 0.0 0.0 0.0 0.0
0.0 0.0 0.0 0.0 0.0 0.0 0.0 0.0
0.0 0.0 0.0 0.0 0.0 0.0 0.0 0.0
0.0 0.0 0.0 0.0 0.0 0.0 0.0 0.0
0.0 0.0 0.0 0.0 0.0 0.0 0.0 0.0
0.0 0.0 0.0 0.0 0.0 0.0 0.0 0.0
0.0 0.0 0.0 0.0 0.0 0.0 0.0 0.0
0.0 0.0 0.0 0.0 0.0 0.0 0.0 0.0
0.0 0.0 0.0 0.0 0.0 0.0 0.0 0.0
0.0 0.0 0.0 0.0 0.0 0.0 0.0 0.0
0.0 0.0 0.0 0.0 0.0 0.0 0.0 0.0
0.0 0.0 0.0 0.0 0.0 0.0 0.0 0.0
0.0 0.0 0.0 0.0 0.0 0.0 0.0 0.0
0.0 0.0 0.0 0.0 0.0 0.0 0.0 0.0
0.0 0.0 0.0 0.0 0.0 0.0 0.0 0.0

running_dags_mat f4 [1, 20]
00000000: 0000 803f 0000 803f 0000 0000 0000 0000
00000010: 0000 0000 0000 0000 0000 0000 0000 0000
00000020: 0000 0000 0000 0000 0000 0000 0000 0000
00000030: 0000 0000 0000 0000 0000 0000 0000 0000
00000040: 0000 0000 0000 0000 0000 0000 0000 0000
1.0 1.0 0.0 0.0 0.0 0.0 0.0 0.0
0.0 0.0 0.0 0.0 0.0 0.0 0.0 0.0
0.0 0.0 0.0 0.0

dag_summ_backward_map f4 [20, 20]
00000000: 0000 803f 0000 0000 0000 0000 0000 0000
00000010: 0000 0000 0000 0000 0000 0000 0000 0000
00000020: 0000 0000 0000 0000 0000 0000 0000 0000
00000030: 0000 0000 0000 0000 0000 0000 0000 0000
00000040: 0000 0000 0000 0000 0000 0000 0000 0000
00000050: 0000 803f 0000 0000 0000 0000 0000 0000
00000060: 0000 0000 0000 0000 0000 0000 0000 0000
00000070: 0000 0000 0000 0000 0000 0000 0000 0000
00000080: 0000 0000 0000 0000 0000 0000 0000 0000
00000090: 0000 0000 0000 0000 0000 0000 0000 0000
000000a0: 0000 803f 0000 0000 0000 0000 0000 0000
000000b0: 0000 0000 0000 0000 0000 0000 0000 0000
000000c0: 0000 0000 0000 0000 0000 0000 0000 0000
000000d0: 0000 0000 0000 0000 0000 0000 0000 0000
000000e0: 0000 0000 0000 0000 0000 0000 0000 0000
000000f0: 0000 803f 0000 0000 0000 0000 0000 0000
00000100: 0000 0000 0000 0000 0000 0000 0000 0000
00000110: 0000 0000 0000 0000 0000 0000 0000 0000
00000120: 0000 0000 0000 0000 0000 0000 0000 0000
00000130: 0000 0000 0000 0000 0000 0000 0000 0000
00000140: 0000 803f 0000 0000 0000 0000 0000 0000
00000150: 0000 0000 0000 0000 0000 0000 0000 0000
00000160: 0000 0000 0000 0000 0000 0000 0000 0000
00000170: 0000 0000 0000 0000 0000 0000 0000 0000
00000180: 0000 0000 0000 0000 0000 0000 0000 0000
00000190: 0000 803f 0000 0000 0000 0000 0000 0000
000001a0: 0000 0000 0000 0000 0000 0000 0000 0000
000001b0: 0000 0000 0000 0000 0000 0000 0000 0000
000001c0: 0000 0000 0000 0000 0000 0000 0000 0000
000001d0: 0000 0000 0000 0000 0000 0000 0000 0000
000001e0: 0000 803f 0000 0000 0000 0000 0000 0000
000001f0: 0000 0000 0000 0000 0000 0000 0000 0000
00000200: 0000 0000 0000 0000 0000 0000 0000 0000
00000210: 0000 0000 0000 0000 0000 0000 0000 0000
00000220: 0000 0000 0000 0000 0000 0000 0000 0000
00000230: 0000 0000 0000 803f 0000 0000 0000 0000
00000240: 0000 0000 0000 0000 0000 0000 0000 0000
00000250: 0000 0000 0000 0000 0000 0000 0000 0000
00000260: 0000 0000 0000 0000 0000 0000 0000 0000
00000270: 0000 0000 0000 0000 0000 0000 0000 0000
00000280: 0000 0000 0000 803f 0000 0000 0000 0000
00000290: 0000 0000 0000 0000 0000 0000 0000 0000
000002a0: 0000 0000 0000 0000 0000 0000 0000 0000
000002b0: 0000 0000 0000 0000 0000 0000 0000 0000
000002c0: 0000 0000 0000 0000 0000 0000 0000 0000
000002d0: 0000 0000 0000 803f 0000 0000 0000 0000
000002e0: 0000 0000 0000 0000 0000 0000 0000 0000
000002f0: 0000 0000 0000 0000 0000 0000 0000 0000
00000300: 0000 0000 0000 0000 0000 0000 0000 0000
00000310: 0000 0000 0000 0000 0000 0000 0000 0000
00000320: 0000 0000 0000 803f 0000 0000 0000 0000
00000330: 0000 0000 0000 0000 0000 0000 0000 0000
00000340: 0000 0000 0000 0000 0000 0000 0000 0000
00000350: 0000 0000 0000 0000 0000 0000 0000 0000
00000360: 0000 0000 0000 0000 0000 0000 0000 0000
00000370: 0000 0000 0000 803f 0000 0000 0000 0000
00000380: 0000 0000 0000 0000 0000 0000 0000 0000
00000390: 0000 0000 0000 0000 0000 0000 0000 0000
000003a0: 0000 0000 0000 0000 0000 0000 0000 0000
000003b0: 0000 0000 0000 0000 0000 0000 0000 0000
000003c0: 0000 0000 0000 803f 0000 0000 0000 0000
000003d0: 0000 0000 0000 0000 0000 0000 0000 0000
000003e0: 0000 0000 0000 0000 0000 0000 0000 0000
000003f0: 0000 0000 0000 0000 0000 0000 0000 0000
1.0 0.0 0.0 0.0 0.0 0.0 0.0 0.0
0.0 0.0 0.0 0.0 0.0 0.0 0.0 0.0
0.0 0.0 0.0 0.0 1.0 0.0 0.0 0.0
0.0 0.0 0.0 0.0 0.0 0.0 0.0 0.0
0.0 0.0 0.0 0.0 0.0 0.0 0.0 0.0
1.0 0.0 0.0 0.0 0.0 0.0 0.0 0.0
0.0 0.0 0.0 0.0 0.0 0.0 0.0 0.0
0.0 0.0 0.0 0.0 1.0 0.0 0.0 0.0
0.0 0.0 0.0 0.0 0.0 0.0 0.0 0.0
0.0 0.0 0.0 0.0 0.0 0.0 0.0 0.0
1.0 0.0 0.0 0.0 0.0 0.0 0.0 0.0
0.0 0.0 0.0 0.0 0.0 0.0 0.0 0.0
0.0 0.0 0.0 0.0 1.0 0.0 0.0 0.0
0.0 0.0 0.0 0.0 0.0 0.0 0.0 0.0
0.0 0.0 0.0 0.0 0.0 0.0 0.0 0.0
1.0 0.0 0.0 0.0 0.0 0.0 0.0 0.0
0.0 0.0 0.0 0.0 0.0 0.0 0.0 0.0
0.0 0.0 0.0 0.0 0.0 1.0 0.0 0.0
0.0 0.0 0.0 0.0 0.0 0.0 0.0 0.0
0.0 0.0 0.0 0.0 0.0 0.0 0.0 0.0
0.0 1.0 0.0 0.0 0.0 0.0 0.0 0.0
0.0 0.0 0.0 0.0 0.0 0.0 0.0 0.0
0.0 0.0 0.0 0.0 0.0 1.0 0.0 0.0
0.0 0.0 0.0 0.0 0.0 0.0 0.0 0.0
0.0 0.0 0.0 0.0 0.0 0.0 0.0 0.0
0.0 1.0 0.0 0.0 0.0 0.0 0.0 0.0
0.0 0.0 0.0 0.0 0.0 0.0 0.0 0.0
0.0 0.0 0.0 0.0 0.0 1.0 0.0 0.0
0.0 0.0 0.0 0.0 0.0 0.0 0.0 0.0
0.0 0.0 0.0 0.0 0.0 0.0 0.0 0.0
0.0 1.0 0.0 0.0 0.0 0.0 0.0 0.0
0.0 0.0 0.0 0.0 0.0 0.0 0.0 0.0

h_gc1.weight f4 [5, 16]
00000000: 4737 813d 1838 73bd 1521 9c3e ba35 73be
00000010: 1bf0 fe3c be76 6e3d 98d7 573e c91a abbe
00000020: 620b 18be 798d 683e b83a a3be bfab 1bbd
00000030: a62a fc3d 1ace 23be 332e 7d3e 7180 1cbe
00000040: 40f3 f13d 36b8 463c 2148 863d 749e 6cbe
00000050: ad31 263e 85f2 67be 1a29 8a3e 2bfc 53be
00000060: ec8d 7abd 357a 163d 3e93 b2bb e6b8 1a3e
00000070: 2fb8 543d 45b1 cd3e 9110 273d 9a02 3cbe
00000080: 6afd 4a3d 5c21 94be 8b95 8ebe 042a 07be
00000090: f59c a7bd 3589 b13d 0c4d 123d 5756 a03d
000000a0: 974c 603d 14e9 963c 6817 75bc 149e 2e3e
000000b0: 9140 a03d 1c7f de3d e23c 863c d40a 90bd
000000c0: 9912 28be 237e 04bd 973e fcbb 19b1 aa3d
000000d0: 009d 543e 09c5 db3c 1914 a83e 091f 4b3e
000000e0: 04f6 a6be 4d14 943e b9d0 0c3e 8168 523e
000000f0: 7321 9c3e d886 ddbd 2b2e b83c 1fd0 4e3e
00000100: 7802 2e3e 9717 603e 1850 9c3d 4071 713e
00000110: 8737 8e3e 9fe9 b1be c4f6 f53b 6101 383e
00000120: 549c 58be f673 da3e fbf9 a53e 70bf 0fbe
00000130: b9c3 c83c fcf1 463d 2bc1 1c3d f535 dc3d
0.063093714 -0.059379667 0.3049399 -0.23750964 0.03112035 0.05821871 0.21078336 -0.33418873
-0.14848092 0.22710218 -0.31880736 -0.038005587 0.12312822 -0.1599659 0.24724655 -0.15283372
0.118139744 0.01212888 0.06556726 -0.2310732 0.16229887 -0.22651108 0.26984483 -0.20701663
-0.061170503 0.03673764 -0.0054496815 0.15109596 0.051933464 0.40174308 0.040787283 -0.18360367
0.04955808 -0.289317 -0.27848467 -0.13199621 -0.08184234 0.08668748 0.03571801 0.07828968
0.05476054 0.018421687 -0.014959194 0.1705249 0.07824815 0.10864088 0.016386453 -0.07033315
-0.16413344 -0.032346856 -0.007697891 0.0833456 0.20763016 0.026827352 0.32827833 0.19836058
-0.3260957 0.28921738 0.13751496 0.20547678 0.3049427 -0.10816735 0.022482952 0.2019658
0.16993129 0.21883999 0.07632464 0.23578358 0.2777674 -0.3474855 0.0075062234 0.17969276
-0.21153384 0.42666596 0.32417282 -0.14037871 0.02450739 0.048570618 0.038270157 0.10752479

h_gc2.weight f4 [16, 8]
00000000: 44ef 81bd 8a05 6f3e 2547 61be 1390 e13e
00000010: 3cf8 7f3e 5a6c 81be b284 433e ff53 7cbe
00000020: f0ae 38be face 27be efc5 f33d 0819 04bd
00000030: 1dd0 f4bd 27dd 8bbe 24cb e23d 9577 273e
00000040: d428 cfbe 3e64 603d e8b2 b13d 6479 e43e
00000050: 4200 5e3e 3c28 cabe 1f0c 6abd 1ced dcbe
00000060: 72bc a2be 0bad 303e 2f1d 5cbb bb91 3a3e
00000070: 8e58 77bd 06cc 523d 07cd a43e 55db ed3e
00000080: ccd0 b5be 3968 713e d5aa 943e 2492 efbd
00000090: 2095 76be c05c 42be 64dc b33e 6264 bf3e
000000a0: 56ee 9bbc 042c d6be ef57 b8bd b12f 8cbd
000000b0: f6a2 713e bb27 3ebe cb36 0d3e 0f44 b2be
000000c0: f074 96be 8104 41be ce7c ec3e eed5 1cbe
000000d0: 7881 82be ecd8 403e 41a7 fd3e bb3b 7c3d
000000e0: 75f6 663e de36 73be 8af4 6c3e f130 16be
000000f0: 6aa9 753e 948b b03d f1ca 1c3e e5c0 093e
00000100: 896f a3bc 581f 52be 38b1 e0be f7a8 9abe
00000110: 62db 203e 29ba a1be 89a2 15be 213b e6be
00000120: 0e5c cebe 1eb5 8c3e 718c 39bd 43cd 9b3e
00000130: c497 87be a6e0 813d f842 583e 0183 b33c
00000140: 59cf 9fbc 4c0f 59be ae97 c83e abec a73d
00000150: 2530 8f3d 3ac9 21be bbd4 843e ce7b db3e
00000160: 9be2 56be 00bc 5e3d b6d6 febd 10d3 0c3d
00000170: e5a8 78be e762 ea3d 03cc cf3e 6007 f73e
00000180: 4aee 5abc 00f5 133e 3a87 7a3e e071 91be
00000190: 0ca7 bf3e 2458 c6be 5daf 2abe 74ec bc3e
000001a0: 5e24 69be ae34 313e 8a7d 003f 660a 863e
000001b0: f26b 22bd f476 023f 49b8 d13e 0ddf b93e
000001c0: 61db 89be 1aa2 b93d d061 3ebe 1968 e33e
000001d0: 82c3 b73d 38a9 a2bd 77a7 61be 2d2e 88bd
000001e0: 13b2 39be 0d1c a6be fd33 c83d e42c 573d
000001f0: 6f94 413e 96d3 323e a012 623d a791 503e
-0.063444644 0.23341957 -0.21999796 0.44055232 0.24997038 -0.25277978 0.19093588 -0.24641417
-0.18035483 -0.16387549 0.11902987 -0.032250434 -0.11953757 -0.27317163 0.11073902 0.1635421
-0.40460837 0.0547831 0.08676702 0.44623864 0.21679786 -0.3948382 -0.057140466 -0.4314965
-0.31784397 0.1725351 -0.003358673 0.18219654 -0.060387187 0.051464103 0.32187673 0.464564
-0.35510862 0.23574914 0.29036584 -0.11697796 -0.24080324 -0.18980694 0.35129082 0.37381274
-0.019034546 -0.41830456 -0.09001147 -0.06845034 0.23597321 -0.18569843 0.13790433 -0.3481755
-0.2938609 -0.18849374 0.46188968 -0.15315983 -0.25489402 0.18832749 0.49541667 0.0615804
0.22554953 -0.23751399 0.23140159 -0.14667107 0.23990408 0.086203724 0.15311791 0.1345249
-0.019950645 -0.20519769 -0.43885207 -0.30207035 0.15708688 -0.3158734 -0.14612783 -0.44966987
-0.40304607 0.2748193 -0.04529995 0.3043004 -0.26482975 0.063416764 0.21119297 0.021913053
-0.01950805 -0.21197242 0.39178222 0.08199438 0.06991605 -0.15799418 0.2594355 0.42867893
-0.2098488 0.05437851 -0.124432966 0.034380972 -0.24283178 0.114446454 0.40585336 0.48247814
-0.013362477 0.14448929 0.24465647 -0.28407192 0.37432134 -0.3873912 -0.16668458 0.3689915
-0.22767779 0.17305252 0.5019156 0.26179808 -0.039653726 0.5096276 0.4096091 0.36302987
-0.26925185 0.090641215 -0.18592 0.44415358 0.08972837 -0.07942432 -0.22036539 -0.06649432
-0.18134336 -0.32443276 0.09775541 0.052533045 0.18904279 0.17463526 0.055193543 0.20368062

h_gc3.weight f4 [8, 8]
00000000: e627 acbc 5191 853d cf50 603e f3d2 82be
00000010: 2aba 983e ca81 893e 6d80 e7bd 7f7b 86be
00000020: bb2c 0dbe 25dd a03e 5501 46bd a350 12bd
00000030: 60ad 0b3e 1d4d 6ebe a70d aabe 6d48 123e
00000040: 4700 df3e 6d8f b9be 8ad4 a23e 29b0 22be
00000050: 8c4b ddbd d81a 04be 7427 b2bd 7a26 ef3e
00000060: a698 393e 9748 a23e d8d0 c33e cfee ac3e
00000070: c6bb 5fbc 9048 21be a5f4 f4be e70c 62be
00000080: 9f63 77be 066f c9be 4b62 c9bd 9b75 5c3e
00000090: 5ed7 e4be f69f e6bd c19f 84be 96e5 23bd
000000a0: 23f2 98be d07b 983e d9fd af3e 0b40 bbbe
000000b0: b491 5cbe 1c39 e93d 1a12 833e f2d9 b23e
000000c0: ad86 893e 37cb 3d3d de19 19be be44 7ebe
000000d0: a671 c1bd 82e2 ccbb 184e 933d f3ec ec3e
000000e0: c50d 9c3e eb05 5b3d ec41 c6be e766 fbbe
000000f0: 22a8 e0be f526 f33b ece1 5ebe bbcd 9b3e
-0.021015119 0.065218575 0.21905826 -0.25551566 0.29829532 0.26856834 -0.11303792 -0.26266095
-0.13786595 0.3141872 -0.048341114 -0.035721432 0.13640356 -0.23271604 -0.3321354 0.1428544
0.435549 -0.36242238 0.3180278 -0.15887512 -0.10805425 -0.12900865 -0.08698931 0.46709043
0.18124637 0.31696007 0.38245273 0.33775946 -0.0136556085 -0.15750337 -0.478429 -0.22075234
-0.24159096 -0.39342517 -0.09833201 0.21529238 -0.44695562 -0.11260979 -0.25903133 -0.040013872
-0.29872236 0.2978196 0.34373358 -0.36572298 -0.21539956 0.11387846 0.25599748 0.34931904
0.26860562 0.04633638 -0.14951274 -0.2483091 -0.09445505 -0.006252588 0.071926296 0.46274528
0.30479255 0.05347244 -0.3872217 -0.49101946 -0.43878275 0.0074204155 -0.2176587 0.30430397

f_gc1.weight f4 [8, 16]
00000000: 7fef 783d bc78 b53d 69e8 78be 7768 7f3e
00000010: e22d 3d3e 936a 213d 6ee1 403e fb3d 6f3e
00000020: c921 d8bd 5c31 e23c 07f4 67bd ecd1 dfbc
00000030: a666 373e aa5e 0ebd 0895 a73e cbe3 f03d
00000040: 855f 903e 51c5 8e3d 0393 033d 3f37 273e
00000050: 3e99 3fbe 2e6d 0cbe 1984 2abe 3708 a4be
00000060: eb4e ed3d 5c46 723d 9c1c 893d 5610 cebb
00000070: 0ae3 96be ae03 65be 98c7 7fbe 4252 933d
00000080: 80ba 74bd d497 cebd 90f9 aabc ac79 283e
00000090: c37f a83d 0432 2ebe a5de f03b 9e6b 6dbe
000000a0: 251b 80be 8a1a 443e 6022 d9bd e285 35be
000000b0: 483e 023e d002 d93d d59e 9c3d e8ea 94be
000000c0: 2015 053e b898 92ba 26ec 3a3e f4f0 db3d
000000d0: b0c2 1ebe 0c3a 25bd 3e96 5cbd d98c 77be
000000e0: 1fd1 2bbe 889b 23bd 6ed2 32bd 5622 db3a
000000f0: 1ae2 b9be 1de4 b7bd 3c2b 22be 51c7 aebe
00000100: 277a 8f3e 9187 0cbe 72cd 973e b9b3 39bb
00000110: 4220 02bd ab45 833e 5fef 6bbe 97a3 eebd
00000120: b986 99be 63ca 3a3e 295b e03d 674c 22be
00000130: 2090 a1be 3616 b0bb a54c 80be e47d b4be
00000140: eca8 99be 1421 a6bd c205 93be cde6 cabd
00000150: c159 613d 144b dc3d e01d 75bd c78f 2c3d
00000160: 7f02 f63d 4042 073e 19b9 ac3d 2373 92bc
00000170: 04d7 683d f47f 42be cd6d 6f3e ddeb bc3d
00000180: f01f 353e 05b1 2cbc a079 733e 9a76 62bd
00000190: 6941 b33e 5b05 933e 13a9 f43d 7d13 283e
000001a0: 1968 38bc ae6c 94bd 7796 103e b9a5 e53d
000001b0: e328 853e 223e 233e fb4e 263e b50d 9cbe
000001c0: da04 3cbd d03f 23be d1e1 9bbe 7e8d 63be
000001d0: 38a0 853e ebf6 1c3e 5662 543e 2bbb 24be
000001e0: a1f3 7fbe d511 c3bd 84ef b63d 21df 9f3e
000001f0: e6f0 18bd 5b3e 0bbe 184c 873e 5208 41be
0.060775276 0.08860919 -0.24307407 0.24942194 0.18474534 0.039408278 0.18835995 0.23363487
-0.10553319 0.027611427 -0.056629207 -0.027321778 0.17910251 -0.034758247 0.3273089 0.11762198
0.28197876 0.06971229 0.032122623 0.16329668 -0.18710801 -0.13713524 -0.16651954 -0.32037517
0.11587318 0.05914913 0.0669491 -0.0062885685 -0.29470092 -0.22364685 -0.24978483 0.07193424
-0.059748173 -0.10087553 -0.020870954 0.16452664 0.082274936 -0.17011267 0.00735076 -0.23185584
-0.2502071 0.19150749 -0.1060226 -0.17726853 0.12719071 0.105962396 0.07647482 -0.2908547
0.1299634 -0.001118443 0.18254146 0.107393175 -0.15503955 -0.04033856 -0.05385422 -0.24174823
-0.16778992 -0.039943248 -0.043657713 0.0016718607 -0.36305314 -0.08979056 -0.15836805 -0.3413644
0.28022882 -0.1372359 0.2964893 -0.0028335883 -0.031769045 0.2563909 -0.23040532 -0.11652296
-0.29985598 0.18241267 0.109548874 -0.15849458 -0.3155527 -0.0053737415 -0.25058475 -0.35252297
-0.3001169 -0.08111778 -0.2871533 -0.09907303 0.055017237 0.107565075 -0.059842944 0.042129304
0.12012195 0.13208866 0.08433742 -0.017877167 0.05684568 -0.18994123 0.2338173 0.09224675
0.17687964 -0.010540252 0.23776865 -0.05528889 0.3501084 0.28715023 0.11946311 0.16413684
-0.011255288 -0.072472915 0.14119898 0.1121325 0.26007757 0.1594167 0.16241066 -0.30479208
-0.045903064 -0.15942311 -0.30445722 -0.22221944 0.260988 0.15328567 0.20740637 -0.16087024
-0.24995281 -0.095248856 0.08932403 0.3122492 -0.037339114 -0.13598005 0.26425242 -0.1885083

f_gc2.weight f4 [16, 8]
00000000: 7c40 6fbe 357f 853e 1d57 66be 84b2 873e
00000010: 0b3d 93be 559b e3be 3a87 c5be b9b4 1fbe
00000020: 4709 753c f4ec 0c3e 3b46 fd3d acb8 1cbe
00000030: 5fa1 39be be3b 623e 98d0 1c3e 560a 7abe
00000040: eb52 763e 2da8 aabe c119 40be fee6 153d
00000050: a4c6 f43d 67c0 c1be 4a37 363e 319f 873e
00000060: 4c28 ea3d 6cdb 123e ef2e 293e 327f 8ebe
00000070: 11f9 f0bc b444 e33d 435a 1ebe 98bc 703e
00000080: aca3 a5be 2bab 85bd 17d0 8ebe 515b b93e
00000090: 1375 3fbd 73e6 bdbe f918 113e a582 ed3e
000000a0: 2d36 533e 38a2 39be d902 a23e 85c3 753e
000000b0: 4b91 6ebe f699 c8be 8e67 6d3e 5184 27be
000000c0: 0f45 5bbe d294 883e 17fb 97be 8126 a9be
000000d0: f0c4 593e 85f3 203e a45e f93d 9baa 8b3d
000000e0: 0b10 8f3e 5a0f c9be b7b3 90be f5af b0bd
000000f0: 7f0d 8dbe 7478 433e 74cd 8bbc 5407 e2bb
00000100: b20c 9e3d 31df a3be ae17 783e 083c 333e
00000110: 37d1 1c3d 4ba7 cf3d 33a6 b7bb c7c3 29be
00000120: 0280 a03d 9c7f 783e 26d7 babe c8c9 ac3e
00000130: 051f 923e 0435 c5bd 06f4 febd 5335 96be
00000140: ede4 3abe 2e53 15be 0872 ad3e 61dd 873e
00000150: 45d8 74be bb1c 2a3d 5597 2f3e 715d aabe
00000160: 168d cabc 6c97 a03e 6717 033e 5edf 38be
00000170: 8047 8e3e eb4a f2bd adcd b2be 3689 bd3e
00000180: 8cdf 0cbe 3226 9f3d e06c 2abe 67b2 693e
00000190: caa8 99bd e3b8 5ebe 1da6 61be c47e 6d3d
000001a0: e38b b3bd aa83 81be 5e7f 87bd b837 97be
000001b0: 89a0 073c cd55 073d bcc6 70bd 0f5e c2bd
000001c0: 8552 423e 2215 8abe e6f8 81bc 431e d3bd
000001d0: 75f3 85bd 0d8a b4be 51da 99be 07df c83e
000001e0: b412 db3e ea2e 5a3d 4f17 363d ac7b 33be
000001f0: f0d1 a9be 5e4e 413d 4b0b 443e 6383 a2be
-0.23364443 0.26073614 -0.22494169 0.26503384 -0.2875751 -0.44454446 -0.38579732 -0.15596284
0.014955825 0.13762265 0.12366911 -0.15304822 -0.18127964 0.22093102 0.15313947 -0.24418005
0.24055068 -0.33331433 -0.18759824 0.036597244 0.1195195 -0.37842104 0.17794529 0.2648864
0.11433467 0.14341515 0.1652181 -0.27831417 -0.02941564 0.110970885 -0.1546412 0.23509443
-0.32351434 -0.06526788 -0.27893135 0.3620248 -0.04674251 -0.3708988 0.14169683 0.46388736
0.20626135 -0.18128288 0.31642798 0.24000366 -0.23297612 -0.39179963 0.23184034 -0.16359068
-0.21413063 0.2667604 -0.29683754 -0.3303719 0.21266532 0.15717895 0.121762544 0.0681965
0.27941927 -0.39269525 -0.28262112 -0.08627311 -0.2754936 0.19088918 -0.017065741 -0.0068978462
0.07717265 -0.3200622 0.24227783 0.17503369 0.03828546 0.101393305 -0.0056045293 -0.1657859
0.078369156 0.24267429 -0.3649227 0.33747697 0.2853929 -0.096292526 -0.124488875 -0.29337558
-0.18251391 -0.14582512 0.3387606 0.26536086 -0.23910625 0.041531306 0.17147572 -0.33274415
-0.024725478 0.31365526 0.12801896 -0.18053958 0.27788925 -0.11830696 -0.34922543 0.37018746
-0.13757151 0.07770957 -0.16643095 0.22821961 -0.07502897 -0.21750216 -0.22036023 0.05798222
-0.08766916 -0.25295764 -0.0661609 -0.29534698 0.008278021 0.03304081 -0.058783278 -0.094905965
0.18976791 -0.26969248 -0.015865754 -0.10308506 -0.06540576 -0.35261574 -0.30049375 0.39232656
0.42787707 0.053267397 0.044455823 -0.17527646 -0.33167982 0.047193877 0.19144933 -0.31740865

f_gc3.weight f4 [8, 8]
00000000: be81 163e ca3d 243e 6209 a43c bfd5 67be
00000010: 648a cc3c 6dd5 13be b13b e4bd ceca 00bd
00000020: c724 903e 264a 1bbe 7ba2 76be b563 2e3d
00000030: 4799 b23e fc5e ffbd d3c9 9f3e 7f1a 713e
00000040: 0ef9 0d3e c897 913e 4744 d9bd cc96 0a3e
00000050: d47d 31be 4594 b4bc dba6 59bd 6375 f13c
00000060: 1f2c a53e 6205 85be 4063 90bc 9304 193e
00000070: ab14 a5be a287 a13d 9737 af3d 5450 7cbc
00000080: d697 213e 6f2d 65be 9640 e3bd 8e50 7c3e
00000090: 982a a3bc 57e2 873e 5115 50be 4ab3 523e
000000a0: f4f3 a9be bd26 e73e 7b87 8dbd 7eb3 673e
000000b0: 17e9 c63e 90e8 0cbe 34ce 57be f9d5 9cbe
000000c0: f6bd 163e f465 d6bb 1a46 173e 2ce7 363e
000000d0: 0642 ae3d aaba 7e3e a6bd 223e e1d2 93be
000000e0: 109f 5dbe 5670 c8be 9366 cabd 7b0c 823d
000000f0: ae57 44bc 1f79 94be 5f87 8fbe 47af b73d
0.1469793 0.16039196 0.020024005 -0.22640131 0.024968334 -0.14436884 -0.11144198 -0.03144341
0.2815306 -0.15165004 -0.24085419 0.042575557 0.34882566 -0.12469289 0.31208667 0.23545264
0.13864538 0.28436112 -0.10608726 0.13534087 -0.17333156 -0.022043357 -0.05313764 0.02947492
0.32260224 -0.2598067 -0.017625451 0.14943151 -0.3224233 0.07887198 0.08555525 -0.015400011
0.15780577 -0.22380613 -0.11096303 0.24640104 -0.019917771 0.2653987 -0.20320632 0.20576206
-0.33193934 0.45146742 -0.069106065 0.22627065 0.38849708 -0.1376059 -0.21074754 -0.30631998
0.14720902 -0.0065429155 0.14772835 0.17861623 0.08508687 0.24875894 0.15892658 -0.28871825
-0.21642709 -0.39148206 -0.09882846 0.06350037 -0.011983795 -0.28998658 -0.28032967 0.089689784

dag_gc1.weight f4 [13, 16]
00000000: 0e43 1a3d 3670 1ebe 98b3 0f3e f662 bd3d
00000010: 1364 bb3e 965d 803e 02c0 1c3e b144 633e
00000020: 8c86 673e 2105 d63b 95b3 233e 1e4a 13be
00000030: 9fc7 55bd 50d1 38be 60ac a5bd fa2a 60bd
00000040: cae3 9e3e dcb4 5cbe a21e ce3c 58b6 433e
00000050: d1ba e33c 5922 e43d a2b4 e4bd ac66 273e
00000060: 066a 14be caae 4a3e cf96 2c3d 92b3 3d3e
00000070: 9d01 223d db4c 53bd 47af 963e fe39 943e
00000080: fdaf 1b3e 1711 59be 2d26 743e 4771 343e
00000090: dbd2 ddbe a35e bdbd 5154 8d3e b7e3 b3be
000000a0: 1fe6 933d c107 473e 8a31 813e 096e ef3c
000000b0: 3052 e0bc 1ae1 d6be 1d0f 2f3e 54e3 893e
000000c0: cdae 5cbe bac3 a8bd e4d0 7c3e 2ef2 3cbe
000000d0: 12d5 ee3c 19c4 acbe 2c86 ec3d 8497 44bd
000000e0: 155b bebc 094f 6b3c 62a7 003e aaf6 a03c
000000f0: d086 81bd 29bd 94bc ecc8 913c 1ba7 233e
00000100: ecb2 9d3c a4ff 06be 6196 5fbd 6c04 0cbd
00000110: a522 473d b51b 36bd 7106 be3e 1c79 fd3d
00000120: 920a 6b3e aff9 4d3e bba0 c03e 4fad d43e
00000130: 133b 87bc 3a71 393e 068a d43c ac33 283d
00000140: d4dc 08be 9b41 1b3e e5f1 963e 9101 4dbe
00000150: e2a6 a53c f6ed e6bd 1d5f 3a3e 40fe 78bd
00000160: 6ff6 3d3e e852 043e 4d96 693e bd0f 8cbd
00000170: 3841 003e 71d5 49be b993 3f3e 04ac 783e
00000180: efc7 643e b204 353e 3482 2c3e 1fa4 f83c
00000190: 85bd 1e3d ce86 0b3e 6101 463e 1856 01be
000001a0: 53ae e2bd 726b 66be 7145 91bd 0609 9abe
000001b0: 0153 43be 02e2 fa3d a28f 853d e613 493e
000001c0: 08ee d83d ac3c 463e 37cb 453e a45f 023e
000001d0: 8720 8cbd 7cfa 823e e67b 873c 18d9 1f3e
000001e0: e174 403e 0425 513d 2b47 173e 9654 30be
000001f0: 4514 88be a336 a2bd af06 923d 9f4d 24be
00000200: 9d22 303e bc05 153d 999e 383e 6239 b6bc
00000210: d337 8e3e baa3 eb3d 9b53 713e 6d0f 403e
00000220: 2de5 193e d94e d03d f9ba a23c fef7 b1bd
00000230: 96e2 3bbd e62d 4c3e 9901 673e f876 d53d
00000240: e8e2 413d 3604 873e 3c17 c6bd f366 11be
00000250: e03c 46be de3b a53e 3815 0d39 32c5 783e
00000260: bb40 ab3e ab1d aabd 3c41 a33c cce7 dd3d
00000270: e5f4 e13d 2edc f33d 3ab8 273e 76d0 cebc
00000280: aab0 a93c 3472 0dbc df6e 58be 1583 273e
00000290: b798 7dbd 3bef 8fbd 864c 52be df23 21bd
000002a0: 2835 733c adcb 00be 18ea 9a3d 919a 91be
000002b0: bc4c 323e cce1 b23d 2722 553d b9f2 233e
000002c0: 9331 b6bd b2d7 61be cf82 28be f8df 3fbe
000002d0: 86b7 64be 6397 493d e438 01be de1c 663d
000002e0: 4cc1 c23d c366 69be 99d2 88bd 1c2d 9fbe
000002f0: 3e47 99be 14bc 95be a6c7 283e 5d4a 1cbe
00000300: c69d 833d 905b a33c 5734 653e c139 b9bd
00000310: 6082 db3d c500 8c3e fceb 913e de57 8ebd
00000320: 4f26 c93e 2c3a 92be cb8d a33d 6187 893e
00000330: 98fe b2bc 85db 37bd ad15 3ebe 0aa8 c3bd
0.037661605 -0.15472493 0.14033353 0.09247391 0.36599788 0.250714 0.1530762 0.22194172
0.2260992 0.006531373 0.15986474 -0.14383742 -0.052192327 -0.18048596 -0.080895185 -0.054728486
0.31033164 -0.21553367 0.025161091 0.19112527 0.027799042 0.11139364 -0.111672655 0.1634776
-0.1449357 0.19793239 0.04213601 0.18525532 0.03955232 -0.051586967 0.294306 0.28950495
0.15203853 -0.21197926 0.23842688 0.17621337 -0.43324932 -0.09246566 0.2760339 -0.3513467
0.072216265 0.19436552 0.25233108 0.029227274 -0.02738294 -0.41968614 0.17095609 0.2693125
-0.21551056 -0.08240457 0.2468906 -0.18451759 0.029154334 -0.3374336 0.11549029 -0.04799606
-0.02323679 0.014362105 0.12563851 0.019648869 -0.063245416 -0.018156605 0.017796002 0.15981714
0.019250356 -0.13183457 -0.054586772 -0.034183905 0.048617024 -0.044460017 0.3711429 0.123766154
0.22953251 0.20114778 0.37622628 0.41538474 -0.016507661 0.18109599 0.025944721 0.041064903
-0.13365489 0.15161745 0.29481426 -0.20020129 0.020221177 -0.11275856 0.18200345 -0.060789347
0.18551038 0.12922251 0.22811241 -0.06838939 0.12524879 -0.19710328 0.18708695 0.24284369
0.22341894 0.17677572 0.16846544 0.030351697 0.03875496 0.13625643 0.19336464 -0.12630498
-0.11068406 -0.22501925 -0.07093323 -0.3008501 -0.19074632 0.12250139 0.065215364 0.19636497
0.10592276 0.19359082 0.19315802 0.12731797 -0.068421416 0.2558173 0.016538572 0.15610158
0.18794586 0.05106069 0.14773242 -0.17219767 -0.26577964 -0.079205774 0.07130181 -0.16045235
0.17200704 0.03638242 0.1802925 -0.02224416 0.27776965 0.11505838 0.23567049 0.18755884
0.1502883 0.10171289 0.019864546 -0.08689879 -0.045870386 0.19939384 0.22559203 0.10423082
0.047335535 0.263704 -0.096724 -0.14199428 -0.1935916 0.32272238 0.00013454712 0.24293974
0.33447823 -0.0830644 0.019928567 0.10835227 0.11033038 0.1190723 0.1637887 -0.025245886
0.020714123 -0.008633185 -0.21136044 0.16358598 -0.06191322 -0.070280515 -0.20537004 -0.03934085
0.014844216 -0.12577696 0.07564181 -0.28438237 0.17412084 0.087344736 0.052034523 0.1601056
-0.08896174 -0.22054937 -0.1645615 -0.18737781 -0.22335634 0.04921664 -0.12619358 0.056179874
0.09509525 -0.22793107 -0.06680793 -0.31089103 -0.29937166 -0.29245055 0.1648241 -0.15262742
0.06426577 0.019941121 0.22383247 -0.09044219 0.107182264 0.27344337 0.28500354 -0.06950353
0.3928704 -0.28560007 0.07986029 0.26861098 -0.021849915 -0.044887085 -0.18562956 -0.09553535

dag_gc2.weight f4 [16, 8]
00000000: 6526 b83d 8afb b63e d89a 12be 5586 063e
00000010: 527a 273e 2659 0bbe b504 473d 841f 81bc
00000020: cffe 143e b0d4 83be 49b7 963d 9135 79be
00000030: f584 aa3d 845f dabd 3d5b 10be b253 1bbe
00000040: 9d45 46be 59f7 d23e 382f 753c 372a 4d3d
00000050: d9aa db3d dc08 813e 6b30 bcbe 5835 1f3e
00000060: 57c5 853e cc15 ffbd 605a 49be de02 b73d
00000070: 3e8d b63e 2da7 c8bd 0b62 86bd 6b0e 8d3e
00000080: 243f ccbe 02dd 003f 320d c0be 2e9d 2cbe
00000090: a001 e7be 6ecb fb3e 0b8c f8be a4c3 543d
000000a0: 7dbc 0f3e 52a8 e83e 9dd6 023e f535 62bc
000000b0: 49e7 6dbe e8ac 953e 1a6f c0be c9d5 c83e
000000c0: 8c5a abbe ae0c 983e 8065 3bbe 46e6 91be
000000d0: c148 d5bd 39dc 7c3e 44ce 523e 72e9 2c3e
000000e0: 7c29 08bf 209a 073e 8308 9fbc fead 783d
000000f0: 1ba0 02bd d6e6 d63e ca2d 353e 5445 aa3d
00000100: ef16 9a3d c789 ae3e 14be a7bd 7e07 84be
00000110: 6eff 1e3e 7e5e 1f3e 14ac ffbe d0c7 693e
00000120: 644a c93c bc28 28be f786 0ebe 2a6f 1e3c
00000130: aafe 42be 2de6 88be 5d74 bf3d 7a43 e63e
00000140: 57e6 4fbe 3f53 da3d ae7b 87be 9db4 efbe
00000150: 1af8 9cbe a421 b6bd fadf 06be cee5 3a3d
00000160: abff 8e3d 3f5e cf3e 6582 b8be aa06 cdbd
00000170: 8c9f 73bd edf9 70be a8ca 41be 1121 903e
00000180: 7e4b 8a3e 64ec 4a3e 2a4f 363e 9f34 a13e
00000190: 19de 6e3d d595 afbd 1c96 8ebe df9a 5c3d
000001a0: c98f 2b3e a622 77be e83a 4a3e 2a6d c73e
000001b0: 88de 5ebe 70a9 15bf 7b05 ee3e f72c 74bd
000001c0: 0115 91be 10df eabd 4e96 68be 7187 c4be
000001d0: 8d21 963e d237 473e ee99 f8bc 3478 933e
000001e0: e9b1 7fbe a93d 913e 89f1 05be 2b67 72be
000001f0: 7973 ee3d 7f42 293e 5e59 6d3e 0862 c33d
0.08991698 0.35738784 -0.1431688 0.13137181 0.16355255 -0.13608226 0.048588473 -0.015762098
0.14550327 -0.25748205 0.073591776 -0.2433684 0.08326141 -0.106627494 -0.14097305 -0.15168646
-0.19362493 0.41204336 0.014964871 0.050089087 0.10725946 0.25202072 -0.3675569 0.15547693
0.2612712 -0.12455329 -0.19663382 0.08936094 0.35654634 -0.09797511 -0.06561669 0.27550063
-0.39891922 0.5033723 -0.37510067 -0.16856834 -0.45118427 0.49178642 -0.48544344 0.05194439
0.14036746 0.45440918 0.12777181 -0.01380681 -0.2323276 0.2923348 -0.37584764 0.39225605
-0.3346752 0.29697174 -0.18300438 -0.28495997 -0.10414267 0.24693383 0.20586497 0.16885927
-0.531883 0.13242388 -0.019413238 0.060712807 -0.03189097 0.4197299 0.17693248 0.083140045
0.075239055 0.3408949 -0.081905514 -0.25786966 0.15527126 0.1556339 -0.49935973 0.22830129
0.024571605 -0.16421789 -0.13918673 0.009670058 -0.19042459 -0.2673811 0.093483664 0.44973356
-0.20302711 0.10660409 -0.26461548 -0.46817484 -0.30658036 -0.08893135 -0.13171378 0.045629315
0.069823585 0.40501592 -0.36036983 -0.10011037 -0.059478328 -0.23532839 -0.18924963 0.28150228
0.2701072 0.19816738 0.17803636 0.3148546 0.058317278 -0.085735 -0.278489 0.053858634
0.16754068 -0.24134311 0.19749033 0.38950473 -0.21764576 -0.58461666 0.46488556 -0.059613194
-0.28336337 -0.11468327 -0.22713587 -0.38384584 0.29322472 0.19454888 -0.030346837 0.28802645
-0.24970211 0.28367355 -0.1308042 -0.23672168 0.116431184 0.16529272 0.23178622 0.09540182

dag_gc3.weight f4 [8, 8]
00000000: b6be bb3d 2509 253e 3232 7cbe f860 6a3e
00000010: e2d4 d13b 4383 583e 6915 b3bd 75cc fbbe
00000020: 4e05 9d3e b3ea 9bbe 7a6c f1bc 2dc2 1e3e
00000030: 283e 8e3e 1f49 8fbe 1953 9dbe f7b9 9d3e
00000040: 0101 94be 8e89 d63d 478d dabe f7de 71be
00000050: 9563 2abd ae6a b53e 9fa6 d53e 925b cfbe
00000060: 35f8 24be 898f 293e cba0 11be 5eea a7be
00000070: 89fe d7be 7def 673d f770 47bd 1171 a5be
00000080: c9ff b2bd b790 af3e 7c25 45be 727a b73e
00000090: 616a b9be f024 b23e a5c8 a13e ac4f 4fbe
000000a0: 0429 30bc 71b6 803d 1c90 f93c 754f 10be
000000b0: 7fad 963e 4534 ae3d b27c 263e c92d 833e
000000c0: e92b 70be e59b 97be d445 5e3e 3ef8 64be
000000d0: bd70 f6bc e2c5 0d3e 2e50 1bbe 4c66 76be
000000e0: 016f c0bc 1537 273e 1506 d1bd c10b a43e
000000f0: 1d24 fc3e 9375 a9be 1fb1 74be eedf 063d
0.091672346 0.1611677 -0.24628523 0.22888553 0.0064035514 0.21143822 -0.08744318 -0.49179426
0.3066811 -0.304525 -0.029470671 0.1550376 0.27781796 -0.27985474 -0.3072746 0.30805942
-0.28907016 0.10475455 -0.4268591 -0.2362021 -0.041598875 0.35432953 0.41728684 -0.4049955
-0.16110308 0.1655866 -0.14221494 -0.32795995 -0.42186382 0.05662488 -0.048691716 -0.32312825
-0.087401934 0.34290096 -0.1925258 0.35835606 -0.36213973 0.34793806 0.31598392 -0.20245236
-0.010751966 0.06284798 0.030464225 -0.1409281 0.29429242 0.08506063 0.16258505 0.2562087
-0.2345425 -0.29611126 0.21706325 -0.22360322 -0.030083055 0.13845018 -0.15167305 -0.2406246
-0.02349043 0.16329606 -0.10206238 0.32040218 0.49246302 -0.33097515 -0.23895691 0.0329284

global_gc1.weight f4 [8, 16]
00000000: c272 5abe 8a23 263e eef2 423e 9b06 fcbd
00000010: 2f43 5c3e 1ce5 73bd a36b 1b3e e8ec bf3d
00000020: b94d 4e3a d9bf 923e 604f b43d 80b7 5dbe
00000030: a17b 43be cb8a 143e 4168 db3c c735 bbbb
00000040: 8794 733e 6347 9a3d 5ce9 3f3e ee22 883b
00000050: c265 70be 6486 1bbe 2f14 473e ff12 39bc
00000060: dd81 3c3e 3454 4b3c 155a 163e 7ae5 c0bc
00000070: 3bfd 80bd f507 5dbe 3cb1 41be f5f8 09be
00000080: a830 f43c 8c0d 333e 75b9 993e e4c2 1c3e
00000090: 84dc 203d 9dc7 903d f4d9 aa3e 5623 70bd
000000a0: 9c18 38be 9e71 30be 2400 e1bd 4b40 d13d
000000b0: a31c 3dbe b69e 1b3d 565a a33d 71e9 9f3e
000000c0: 7ca8 93bd 5340 5dbb 6ced 223e d7e0 fd3d
000000d0: 3109 66be 86ff 99bc 4a98 b5bd b83d db3d
000000e0: aec9 8a3e 19b4 873d 3667 113e f134 a1be
000000f0: 9083 94bc 3ffd a4bd 6dad 513e ae4a 75be
00000100: d38d 183e 7c53 b6bd a4f6 0b3d 9606 35be
00000110: 326e e3bd b8bc 0d3e cba8 90be 6675 d9bd
00000120: d4a7 b8bd 573e 7b3e 7b88 023e 4c43 d23d
00000130: 879b 6b3e 1d71 f0bd cdd6 66be 0dfc 4c3e
00000140: 913d 26be de02 773e 086a bebe 42a4 963d
00000150: b31b 0bbe a4aa f03e 6500 433d 0a73 9e3d
00000160: e5c1 48bd 10c5 153e 442e 7b3d 16eb 90bd
00000170: f1dd 3a3c 1cc9 453e 3537 8ebe 6ba8 54be
00000180: fdf6 25be 980a 4a3d 7ca3 8ebd 6e5f 97bd
00000190: 55f3 ad3d 28a0 55bd 8419 8a3e a7a9 383e
000001a0: 1d72 11bc d52b 873c e167 293e eab1 a23d
000001b0: bd4d 6bbe 595e 033e 2a60 5dbe 9b26 1d3e
000001c0: c93d 2a3e 8f54 55be fbb6 1c3e f2d5 9fbe
000001d0: 564b 23be 0407 36bd 1d80 143d 97ff 393d
000001e0: 54b7 ffbd 2aff 6d3e fe17 90bd c64e 023e
000001f0: 8e27 9d3e d5ba 643c 4621 143e 5e82 3bbe
-0.21332839 0.16224495 0.19037983 -0.123059474 0.21510004 -0.059544668 0.15177779 0.09371358
0.0007869858 0.28661993 0.08804202 -0.21652031 -0.1909013 0.1450607 0.02678311 -0.005713198
0.23787127 0.07533147 0.18741363 0.0041545546 -0.23476318 -0.15187985 0.19441293 -0.011296033
0.18408914 0.012410212 0.14682801 -0.023546923 -0.062983 -0.21585067 -0.18915266 -0.13473876
0.029808357 0.17485636 0.30024305 0.1530872 0.0392728 0.07069323 0.3336941 -0.05862745
-0.17978138 -0.17230842 -0.10986355 0.10217341 -0.18467955 0.037993155 0.079762146 0.3123279
-0.0720987 -0.0033760264 0.15910882 0.123964004 -0.22464444 -0.0187986 -0.088669375 0.10705131
0.27106994 0.06626148 0.14199528 -0.31485704 -0.01812914 -0.08056115 0.20476313 -0.2395427
0.14897852 -0.08902642 0.03417076 -0.17678294 -0.111050025 0.13841522 -0.2825378 -0.10618095
-0.09016386 0.245355 0.12747376 0.10266742 0.23008548 -0.11740325 -0.22542877 0.20018025
-0.16234423 0.24122187 -0.3719027 0.073555484 -0.13584785 0.47005188 0.047607798 0.07736786
-0.049013037 0.14625955 0.06132342 -0.07076089 0.011405454 0.19314998 -0.27776495 -0.20767371
-0.162075 0.04932651 -0.06964776 -0.07391249 0.084936775 -0.05215469 0.26972592 0.18033467
-0.008877304 0.016500393 0.16543533 0.07944091 -0.22978874 0.1282896 -0.21618715 0.15346758
0.16625132 -0.20833038 0.15304177 -0.31217915 -0.15946707 -0.044440284 0.03625499 0.045409765
-0.12486139 0.23241869 -0.07035826 0.12725362 0.3069424 0.01396056 0.14465818 -0.1831145

global_gc2.weight f4 [16, 8]
00000000: 127b 2cbd b7fd d7bd 690f 74be bf4f 8f3e
00000010: d908 a93e f24a d63d 89e1 9cbe 489d 7cbd
00000020: d637 f5bd 7020 793e b84d 0bbe 1c3f 08be
00000030: 798d a9bd 3015 58be 70c8 d6bd 2e9e 3bbe
00000040: f1cd 1fbe 0e7a 28be 4036 453e 99f2 213e
00000050: cd46 1fbe e5b1 1e3e de6c ccbe 44af 8ebd
00000060: c962 babe e3fb cbbc b8d4 c3be af5f 903e
00000070: a3e1 4bbe 0e03 b93e 3d3e 853e dcbc af3e
00000080: d0f1 5dbe 063c 503e 4fab 39be b01a cdbc
00000090: 40fd a83e 7452 f03e 06ec 96bd 5cde 7c3e
000000a0: 36f0 c33e 7e46 c2be 5cdd d5bd 7109 d1bc
000000b0: 5f6f 663e bf15 73be 2e9a 873b 5213 abbe
000000c0: 729d e43c 00bd 553e 72f2 4d3e 1d95 c2bd
000000d0: 52fb 80be 2d56 47bd 09e3 f23d d5a6 b1bd
000000e0: b599 8abe 4751 05be f698 c0bd e078 4ebe
000000f0: fd0d de3d f825 283e ff59 90bd 102c 863e
00000100: cff3 ae3e 6bff b33d 628b 88be 6d3b 593e
00000110: bf61 053c 263c 7e3e 4fbd 03bf bba6 cdba
00000120: 9cb2 bf3e 4c7a 963d fc0c 053e 70cd a73e
00000130: 17a4 6a3e 9d9e 2b3d 7416 93bd d87c c0bd
00000140: 7b5f 86bd 6931 4dbe b2b8 b43e 2e57 2dbe
00000150: 0b16 7e3d 4001 bdbe f3e8 92be e77e 93be
00000160: 2b8f 08be 877c 8cbe 4939 a73e 927d dcbd
00000170: 5a98 e1bd ed4a 5d3e 26e2 9c3d 62bc 613e
00000180: a1ae e63d dd36 3ebe 086b c63e ad45 bd3e
00000190: 7888 703d 1302 edbd 3190 9ebe c977 86be
000001a0: b13e 94be ca2b bb3e 7723 45be d82b 363e
000001b0: e7ff 6cbe d41a 53be e301 54be 2f77 27be
000001c0: 74de be3e d511 e2bc 1459 a23e 5415 9bbc
000001d0: 3f5a 51be 8498 593d 2e92 cebc a96f b43d
000001e0: ca39 15be 50fc af3e 937f b43e 7c8e 02be
000001f0: 881a d0bd 2c4b 73be 7ed5 b03e 7c16 0f3d
-0.042109556 -0.10546439 -0.23834004 0.2799053 0.33014563 0.104635134 -0.3064082 -0.061673433
-0.119735405 0.2432878 -0.13603866 -0.13305324 -0.08278937 -0.21101832 -0.10487449 -0.1832206
-0.15605904 -0.1645281 0.19258976 0.158152 -0.15554352 0.15497549 -0.3992681 -0.06967023
-0.36403492 -0.024900382 -0.3824823 0.28198 -0.19910292 0.36135143 0.26024047 0.34323776
-0.21674275 0.20335397 -0.18131755 -0.02503714 0.33005714 0.46937907 -0.07369237 0.24694198
0.38269204 -0.37944406 -0.104426116 -0.025517197 0.22503422 -0.23738764 0.0041382527 -0.33413178
0.027907107 0.20872879 0.20112017 -0.09501097 -0.25191742 -0.048666168 0.1185971 -0.08674399
-0.27070394 -0.13019286 -0.09404175 -0.20163298 0.10842512 0.16420734 -0.070484154 0.26205492
0.34170386 0.087889515 -0.2666884 0.21214075 0.00814098 0.24827632 -0.51460737 -0.0015689948
0.37440956 0.07347545 0.12993234 0.32773924 0.22914158 0.041899312 -0.07182017 -0.09398812
-0.0656118 -0.2003838 0.3529716 -0.16927788 0.06203274 -0.36915016 -0.2869335 -0.28807756
-0.13335864 -0.27438757 0.32660893 -0.10766138 -0.11015387 0.21610613 0.07660322 0.22044519
0.112637766 -0.18575616 0.38753533 0.3696722 0.058723897 -0.11572661 -0.30969384 -0.26263264
-0.2895408 0.36556846 -0.1925181 0.17790163 -0.23144494 -0.20615703 -0.20703845 -0.16354059
0.37279093 -0.027596394 0.31708586 -0.018931068 -0.20444582 0.053123966 -0.025216188 0.0881036
-0.14572826 0.34372187 0.3525358 -0.12749666 -0.101613104 -0.23759145 0.34537882 0.034933552

global_gc3.weight f4 [8, 8]
00000000: 9166 b13e f42a da3e 14c0 ecbd bf97 4abe
00000010: c1ed e03d cac9 89bd d8ad 2fbe 4bbf 2d3d
00000020: dc54 32be 2f00 f1bd b2e8 aebd 084f 16be
00000030: 9a66 203e e172 e0bd 32d9 fe3a 1307 90be
00000040: 5428 dc3d 1d69 993e 7480 203e 2f5a b7bc
00000050: 0d19 b63e fdeb 70be d766 debc a300 a33e
00000060: 3814 b63e 256a e03e 2ed8 54bc 6a48 dbbd
00000070: fb15 593e 141d 3a3d a245 7e3e b912 583e
00000080: bfcc 56be 26fe be3c 84d4 c4bd 2d6e 1d3e
00000090: 64ac 9dbe 29b1 053d da85 08bf be80 893d
000000a0: 147e e33d 3e25 febd bdb5 1c3c 1a7c 9c3e
000000b0: 4977 89be 2769 00be 69fe 31be 0c3e 39be
000000c0: 1804 e2bc 774a c8bb 2fad da3e 5b11 f83d
000000d0: f510 d2be 8c51 8abe 4207 05bc ede3 60bd
000000e0: 1bab 613e 3ce1 0dbf 4137 f43d abe0 be3d
000000f0: 7ff0 543e 41a5 7fbd 6a17 95be c89a b1be
0.34648564 0.42610896 -0.115600735 -0.19784449 0.10982848 -0.06727941 -0.1715616 0.04241876
-0.17415184 -0.11767613 -0.08540477 -0.14678586 0.1566414 -0.109594114 0.0019443391 -0.28130397
0.107498795 0.29963008 0.15674001 -0.02238187 0.35565987 -0.23527522 -0.027148647 0.31836423
0.355623 0.43830982 -0.012990994 -0.10707171 0.21199791 0.045437887 0.2483125 0.21100892
-0.20976542 0.023314547 -0.09610847 0.1537406 -0.30795586 0.032639656 -0.5332924 0.06714009
0.11108032 -0.12409447 0.009564814 0.30563432 -0.2684882 -0.12540112 -0.17382206 -0.18090075
-0.027589843 -0.0061123925 0.42710254 0.12112685 -0.41028562 -0.2701534 -0.008119406 -0.054904867
0.22037928 -0.55421805 0.11924601 0.09320196 0.20794867 -0.062413458 -0.29119426 -0.346884

fc1.weight f4 [32, 29]
00000000: 9c28 7cbd 341c eebd 609d ab3d 65a7 653d
00000010: 8263 c23d 8d75 973e 80be 84bd 6ddc 6db9
00000020: 3075 843e 2dfd 443b a475 5abd 4cbc 0b3e
00000030: 50ee 963e b7e5 a53d fb0f 6b3d b9b6 49be
00000040: eb1e 553e bdde 533d b7ba 1a3e 46bf bdbd
00000050: 1843 443d c5b5 523e 5568 6c3e d728 093e
00000060: 742f 113d 8974 26bc e008 07be 6806 88be
00000070: b820 813e d7f3 7cbe 6f4a 72bd 99e2 2b3e
00000080: 66ef bd3d a633 86bd 6af7 acbd 7857 2fbd
00000090: b2f4 8a3d dd22 f03d 1c5c aebc 45da e4bd
000000a0: 26f4 40be 8c93 4c3e 2c42 fd3d e476 77bd
000000b0: 1d28 1dbe 182c 4a3e 485c 22be f3c5 373c
000000c0: d77c 0b3e e10d 63be 2278 38be e599 a4bd
000000d0: fd0c 2ebd 88a5 183d bf88 803d 2dbe 0b3e
000000e0: 93b8 9cbe 3d84 3fbd 240e 30be 6b38 25be
000000f0: 40fd 3b3e 7997 01be 78ec c23d b9b5 87bd
00000100: 539b 0a3d 014b 3bbe a892 803d 83df 75be
00000110: c651 78bd 93ea 2e3d de53 4a3e a44e 1cbe
00000120: c0fd 983c cd29 9e3d 9f2a ecbc 3a6f b13b
00000130: b05f ea3d 549f 9f3d 566d 7e3d 954b 8cbd
00000140: 1665 0ebd 3066 4f3e 0553 0e3e c186 943d
00000150: 1155 a53d bc56 333d 6b64 5b3d 69f7 c5bd
00000160: fdf0 6dbe a3fb 76bd e02a be3d 0a7a 3bbe
00000170: 4812 e63d 4093 31be 66db 373d cb4d d7bc
00000180: 9067 65bd f209 febb 654a d13c 120f 123e
00000190: 93fd 13bc f392 a0bc fa52 343e 5a62 fc3a
000001a0: 9654 57bd e951 063c 35ee 073c dd90 0bbe
000001b0: 229b 063e c140 96bc c9b1 433e 4db6 803d
000001c0: fd0d 1a3e 28d9 b73d a998 32be ffb3 05bc
000001d0: aed4 153d 549c 6a3e 99b6 923d 3f60 1bbd
000001e0: d6af 323e 9b2a 32be d700 193e 71b5 efbc
000001f0: 4ab2 803d 9131 673e 3668 16bd 5201 00be
00000200: 730a bdbd ccd6 b6bd 3ebf 1b3d 41b8 1f3d
00000210: 5c98 f43d 3f8e 1ebe 7f1a 263d 12bc 013c
00000220: f8a0 cf3d 78d1 15bd 8eaa 93bd c3f3 26be
00000230: 0903 b13d 5b46 42bd 1357 9a3d e46a 843e
00000240: 8aa8 d9bd 36bb 21bd 643b 1bbd 0246 22be
00000250: eb4e bdbd d32a 0c3e 1917 353e 5319 5b3c
00000260: 89ae babc dd67 a23e 3acb 24bd f944 87be
00000270: fb04 a5bd ed8d e63d f763 24be d1a7 1a3e
00000280: 268c 4a3e a776 1cbe 21f4 983c 7b95 863d
00000290: f502 14bd 692f c6be 1642 f9ba 1f34 24be
000002a0: 0449 d63c d443 6d3e cf0a 15be 37cb e83d
000002b0: 9a36 893d 3e4c 3bbe d2f1 453e 0f0e f3bc
000002c0: 8f79 9bbe 043b 3b3c bdee 2c3d c58f bbbc
000002d0: 32de 413d a128 57bd ef04 243e d868 12be
000002e0: 4972 d9bd 1419 f93d 8715 b4bd 25c0 9ebb
000002f0: 40ad e9b9 5177 753e 8f7b 0fbd 6120 ef3d
00000300: dc12 40be 635d 26be 6a4c cabd 345d 083e
00000310: ba5b 49be 92d8 38be 4d96 34be 7ae4 37be
00000320: 0a73 1cbd fe30 953d 99da 763c ac2e efbd
00000330: b985 c93d c684 f63d c9a9 09bf 7cf3 1dbf
00000340: 4c7b c9bd 74bc ddbe 8b54 d5be 623a 4cbe
00000350: b2cb 733b e1bd de3c a110 fe3d 369f f13d
00000360: b18e 07be c11d f63d 631c 0dba f93a 80bc
00000370: 8c4f 873d 8a58 3ebc a796 5e3d 8546 3cbe
00000380: b6f3 613d a76c 14be b491 e73d 7fe8 b63b
00000390: 1ff1 5a3d f5ee 9dbd b9a5 ae3b d0fc b6bd
000003a0: d88d cc3c d4a8 063d 9473 f03d fe8f 3a3b
000003b0: 5e34 733e f7ff 583d 1f48 4fbd 8898 3e3e
000003c0: 545f 563e f7f6 153e d1a3 97be 3558 b3bd
000003d0: 5c7f 063e a9a5 653e 24db 2bbe 674a 23be
000003e0: da78 4b3e e484 553e 680e 51be 1971 d1bd
000003f0: 6264 883e 083c 523e 6f61 10bc 3ca3 de3d
-0.061562166 -0.11626473 0.08379626 0.056067843 0.09491636 0.29581872 -0.064816475 -0.00022684196
0.25870657 0.003005813 -0.053334847 0.13646048 0.29478693 0.08100455 0.057388287 -0.1969861
0.20812576 0.05172609 0.15110289 -0.09264998 0.047915548 0.20577152 0.23086675 0.13394485
0.035445645 -0.01015962 -0.1318698 -0.26567388 0.25220275 -0.24702393 -0.059153017 0.16785659
0.09274177 -0.0655282 -0.08445628 -0.042808026 0.06784953 0.117254 -0.021284156 -0.11174444
-0.18843135 0.1997816 0.12366137 -0.060416117 -0.15347333 0.19743383 -0.15855515 0.011216628
0.13621841 -0.22173263 -0.18014577 -0.080371656 -0.042492855 0.037267238 0.06276082 0.13646765
-0.3060957 -0.04675697 -0.17192894 -0.16134803 0.18358326 -0.12655438 0.09517759 -0.06626458
0.033839535 -0.1829033 0.062779725 -0.24011044 -0.06062486 0.042704176 0.19758555 -0.15264374
0.018675685 0.077228166 -0.028828917 0.0054148706 0.11444032 0.07794061 0.06211599 -0.06850354
-0.03476437 0.20253825 0.13898857 0.07252265 0.08072866 0.04378389 0.053562563 -0.0966633
-0.23236461 -0.060298573 0.092855215 -0.18308273 0.112339556 -0.17341328 0.04488697 -0.026282212
-0.056006968 -0.0077526504 0.02554817 0.14263561 -0.009032625 -0.01960132 0.17609778 0.0019255385
-0.0525709 0.00819824 0.008296539 -0.1362948 0.13145116 -0.018341424 0.19110788 0.06284771
0.15044399 0.08976966 -0.17441048 -0.00816059 0.03657978 0.22911197 0.07163734 -0.037933584
0.17449889 -0.17399065 0.14941727 -0.029261323 0.06284006 0.22577502 -0.036720477 -0.12500504
-0.09230509 -0.08927688 0.03802418 0.038994078 0.11943123 -0.1548395 0.040552612 0.007918375
0.10138124 -0.036576718 -0.07210265 -0.16303925 0.08643157 -0.047430377 0.07536139 0.258628
-0.106278494 -0.03948518 -0.037898436 -0.15847018 -0.09243568 0.13688211 0.17684592 0.013372737
-0.022788303 0.31719866 -0.040232874 -0.2641981 -0.080575906 0.11257539 -0.16053759 0.1510308
0.19780025 -0.15279637 0.018671097 0.0657148 -0.036135633 -0.38708046 -0.0019016888 -0.16035508
0.026157863 0.23170406 -0.14554904 0.11366885 0.066998675 -0.18290803 0.19330528 -0.02966979
-0.3036618 0.011427645 0.042219866 -0.022895703 0.047331043 -0.05252898 0.16017507 -0.14297807
-0.10617501 0.121629864 -0.087931685 -0.0048446828 -0.00044570304 0.23971297 -0.035029944 0.11676098
-0.18757194 -0.16246562 -0.09877856 0.13316804 -0.19663897 -0.18051365 -0.1763546 -0.1795825
-0.038195647 0.07284735 0.015066766 -0.11678824 0.09839959 0.12037043 -0.53774697 -0.6169965
-0.0983797 -0.4330784 -0.41666064 -0.19944146 0.003720027 0.02719015 0.124055155 0.11797945
-0.13238026 0.12017394 -0.0005382953 -0.01565312 0.06606969 -0.011617789 0.054342892 -0.18386276
0.05516406 -0.14494573 0.113070875 0.005581915 0.053452607 -0.07711593 0.0053298143 -0.08934939
0.02496998 0.03287585 0.11740795 0.0028467174 0.23750445 0.052978482 -0.05060589 0.18612874
0.20934802 0.14644991 -0.2961717 -0.087570585 0.13134521 0.22426476 -0.16782814 -0.15946351
0.1987032 0.20851475 -0.20415652 -0.1022665 0.26639086 0.20530713 -0.0088122925 0.10870978

fc1.bias f4 [32]
00000000: c902 643e 9b00 953d f1d6 94bd 07f4 1abe
00000010: ea36 9b3d 7737 743e 99a2 043e e6ac 343e
00000020: cee5 63ba 4bb8 0bbd 364f d33c cd85 ba3e
00000030: 7b3f fdbc a6b4 d13d 9fc3 193e 1268 823e
00000040: 7f4c 61bc cceb dd3d 7dd6 b63d 0014 793d
00000050: 4c7a 993e 6a53 fc3d 5c26 b83d 6437 87be
00000060: 7728 793e def7 943d b805 aabd 5125 a33a
00000070: 2f58 f1bd d2c6 183e 40dc 543e dbf7 e4bc
0.22266687 0.07275506 -0.07267559 -0.15132152 0.075788334 0.23849283 0.12952651 0.1764408
-0.00086936064 -0.034111302 0.025794607 0.36430207 -0.030914059 0.10239534 0.1501603 0.25470024
-0.013751148 0.1083599 0.08927629 0.06081009 0.29976118 0.123205975 0.089916915 -0.26409447
0.24331842 0.072738394 -0.08301872 0.0012447034 -0.11784398 0.14919594 0.20787144 -0.027950218
